tud_rl/RecDQN_weights.pth (torch, 129857 bytes, 12 tensors)

denseOS_inner0.weight f4 [64, 8]
0	0x3f208213	0.6269848
1	0xbddf0d9b	-0.10891267
2	0xbce7fa34	-0.028317548
3	0x3e71381a	0.23556557
4	0xbed55784	-0.41668332
5	0xbdbff50f	-0.09372913
6	0x3e44bf99	0.19213714
7	0x3f6b8825	0.92004615
8	0xbe7cc35a	-0.24683896
9	0x3e40075a	0.18752804
10	0xbea83ea6	-0.32860297
11	0x3e68543e	0.22688386
12	0xbe6d9e1e	-0.23204848
13	0x3ea3e99d	0.3201417
14	0xbe50b675	-0.20382102
15	0xbd4836d8	-0.048880428
16	0x3eb09dd3	0.3449541
17	0xbe942656	-0.28935498
18	0xbdd204a6	-0.10254793
19	0x3e849f51	0.259028
20	0xbf16c3fc	-0.588928
21	0xbe55e494	-0.20887977
22	0xbe4f0ed4	-0.202205
23	0x3e0ffafa	0.14060584
24	0xbe35ec49	-0.17765917
25	0x3e91e869	0.28497627
26	0x3ea7a3c7	0.3274214
27	0x3ea800b3	0.32813033
28	0xbdebaa10	-0.11507046
29	0x3e444ef6	0.19170746
30	0x3c47d760	0.0121973455
31	0x3e5ea292	0.21741703
32	0x3d4e57fb	0.050376873
33	0x3cfd7a89	0.030942218
34	0x3e083d1a	0.13304558
35	0x3da6bf14	0.08141914
36	0x3f1c252a	0.6099421
37	0x3dd685a7	0.10474711
38	0x3f7f8954	0.9981892
39	0xbf5d31be	-0.86404026
40	0xbe467273	-0.19379596
41	0x3ea33679	0.31877497
42	0xbb954040	-0.0045547783
43	0xbe8be2d9	-0.2732151
44	0x3e87fc53	0.26559696
45	0xbd0f86e8	-0.035040766
46	0x3e3fb902	0.18722919
47	0x3b613e80	0.0034369528
48	0x3d55a99f	0.052163716
49	0xbe2a9f91	-0.16662432
50	0x3e17963e	0.14803407
51	0xbf049c7e	-0.5180129
52	0xbe80166f	-0.25017115
53	0xbd8ac52b	-0.06775888
54	0xbe7728a2	-0.24136594
55	0x3f182016	0.5942396
56	0x3e6fc207	0.2341386
57	0xbedb06a3	-0.427785
58	0x3e19c3ae	0.15016052
59	0xbd1f6aca	-0.0389202
60	0xbebe7268	-0.3719666
61	0xbe3d17bc	-0.18466085
62	0x3b9e2fa8	0.0048274584
63	0x3edab57a	0.4271658
64	0x3ec8dccf	0.39230964
65	0x3e826e0b	0.2547458
66	0xbdb77984	-0.08958724
67	0x3e5e087b	0.21682923
68	0xbf414ce8	-0.75507975
69	0x3e239d87	0.1597806
70	0xbea5e95f	-0.3240461
71	0x3f176232	0.5913421
72	0x3ea03095	0.31287065
73	0xbd6017d6	-0.05471023
74	0x3de61423	0.112343095
75	0xbd9c4032	-0.07629432
76	0xbf144c8a	-0.5792929
77	0x3e370afa	0.17875281
78	0x3c6060c8	0.013694949
79	0x3eccb17d	0.39979163
80	0x3f1d1346	0.61357534
81	0x3d92ae07	0.07162099
82	0xbe50b843	-0.2038279
83	0x3dfdd07a	0.123932794
84	0xbeac8c7f	-0.3370094
85	0xbd9dbbfc	-0.07701871
86	0xbdedc68b	-0.11610135
87	0x3f8888ed	1.0666786
88	0x3dbd86bd	0.09254215
89	0x3eb77879	0.358341
90	0xbed64672	-0.4185062
91	0x3e00e3fc	0.12586969
92	0x3e4fff8c	0.20312327
93	0xbe1a0807	-0.15042125
94	0x3ddc53cd	0.10758171
95	0xbf1a444a	-0.6026045
96	0x3e812c11	0.25228932
97	0xbd9291d3	-0.0715672
98	0xbbb72fcc	-0.0055904146
99	0xbe620560	-0.22072363
100	0xbf227764	-0.63463426
101	0xbd801056	-0.06253116
102	0xbe0b6494	-0.13612586
103	0x3f6f3383	0.93437976
104	0xbea757c7	-0.32684156
105	0x3e83a9b9	0.25715426
106	0x3e154a6a	0.14579168
107	0xbcbebd00	-0.023283482
108	0x3ddced4c	0.10787448
109	0xbea83bcd	-0.32858124
110	0xbe039fc8	-0.1285392
111	0x3e446a8e	0.19181272
112	0x3e394063	0.18090968
113	0x3e900109	0.2812579
114	0x3c0b0b57	0.00848659
115	0x3ed02e9d	0.40660563
116	0xbed2d2c9	-0.4117644
117	0x3d9f1007	0.07766729
118	0xbdba8c5b	-0.09108802
119	0x3f5e841d	0.8692034
120	0xbe805193	-0.25062236
121	0x3e56aebe	0.20965096
122	0x3e6215d2	0.22078636
123	0xbe824ef0	-0.2545085
124	0xbd1a67b8	-0.03769657
125	0x3e3378a2	0.17526487
126	0x3e41f872	0.1894243
127	0xbd861848	-0.065476
128	0x3df8acde	0.12142347
129	0x3f524b59	0.8214622
130	0xbee77bb7	-0.45211574
131	0x3c7cd6fc	0.015432116
132	0x3ea92ef1	0.33043626
133	0xbea5b38f	-0.32363555
134	0xbf831b7c	-1.0242763
135	0x3ea91284	0.3302194
136	0xbdabb9cc	-0.08385047
137	0x3e385516	0.18001208
138	0x3eaa586b	0.33270583
139	0xbd57c8c8	-0.052681714
140	0x3d2ed8e8	0.042687327
141	0x3e82fcad	0.255834
142	0x3d8b5534	0.068033606
143	0xbe1004a0	-0.14064264
144	0xbeb495ee	-0.35270637
145	0xbbd18f80	-0.0063952804
146	0xbe2aed50	-0.1669209
147	0x3c8eb930	0.017422289
148	0xbe5a3424	-0.21308953
149	0x3eb4d7cb	0.35320887
150	0x3e329f5a	0.174436
151	0x3d01c578	0.03168246
152	0x3d960a48	0.0732618
153	0xbe8ba30c	-0.27272832
154	0x3e848511	0.25882772
155	0x3f102a50	0.56314564
156	0xbf3d3041	-0.73901755
157	0x3e82a878	0.25519156
158	0x3e62843e	0.22120759
159	0x3e3b94a5	0.18318422
160	0x3e4b1555	0.19832356
161	0xbe850525	-0.25980487
162	0x3e4e747c	0.20161623
163	0xbdb76906	-0.089555785
164	0xbf200b73	-0.6251747
165	0x3e9153ac	0.2838415
166	0xbdd3f580	-0.1034956
167	0x3e48a2aa	0.19593301
168	0x3efaeaca	0.49007255
169	0xbefedd1d	-0.4977807
170	0xbd7b69e1	-0.06138027
171	0xbea0039f	-0.31252763
172	0xbea7a7eb	-0.327453
173	0xbcf0636e	-0.029344287
174	0xbe53e542	-0.20692924
175	0x3f619b62	0.8812772
176	0x3dfdb8d3	0.12388768
177	0xbe169771	-0.14706208
178	0x3f557ba2	0.83391774
179	0x3ced04f8	0.028933033
180	0x3d90435a	0.07044096
181	0x3d875c52	0.066094056
182	0xbf91a0ad	-1.1377159
183	0xbf507c28	-0.8143945
184	0x3f01ca73	0.5069954
185	0xbee52275	-0.4475285
186	0x3eb65c3a	0.35617238
187	0xbd4302a1	-0.04760993
188	0xbed05bf8	-0.40695167
189	0x3e9956ec	0.2994913
190	0xbe686cba	-0.22697726
191	0x3eeff724	0.4686824
192	0xbb525a79	-0.0032097383
193	0xbee376d8	-0.44426608
194	0x3efb7363	0.4911147
195	0xbd383231	-0.04496974
196	0xbf32fef0	-0.69920254
197	0x3d6dd47e	0.058063976
198	0xbfc6e9b8	-1.5540075
199	0xbf0241b0	-0.5088148
200	0x3e99aa7f	0.3001289
201	0x3dad05ac	0.084483474
202	0xbc31eb01	-0.010859252
203	0x3dc2e05f	0.09515452
204	0xbebb232e	-0.36550277
205	0x3d943f78	0.07238668
206	0x3f24c450	0.6436205
207	0x3e889dcd	0.26682892
208	0xbea0252e	-0.31278366
209	0xbe7a85f4	-0.24465162
210	0x3e22deee	0.15905353
211	0xbd25f888	-0.04052022
212	0xbe74a3aa	-0.23890558
213	0x3d257770	0.040397108
214	0x3daca978	0.08430761
215	0xbdfa9920	-0.122362375
216	0xbe750494	-0.23927528
217	0x3e038220	0.12842607
218	0x3c91a5c0	0.017779231
219	0xbe3e630f	-0.18592475
220	0xbc26a900	-0.010172129
221	0x3e0ed4e4	0.13948399
222	0x3ce15430	0.027505964
223	0x3e38243a	0.1798257
224	0x3de4f2b8	0.111791074
225	0xbeb51114	-0.35364592
226	0xbe309fac	-0.1724841
227	0x3c9c8e1b	0.01911073
228	0x3f88d58b	1.0690168
229	0x3dcb00b9	0.09912247
230	0xbf5a5b5e	-0.85295665
231	0xbf29cd00	-0.6632843
232	0xbe6dd080	-0.23224068
233	0x3da732f0	0.081640124
234	0xbe60017a	-0.21875563
235	0xbead0e50	-0.33799982
236	0x3d5a9fc8	0.053375036
237	0x3e931e87	0.28734228
238	0x3dd486a8	0.10377246
239	0x3e5aa842	0.21353248
240	0xbe866ebd	-0.26256362
241	0xbe99e240	-0.30055428
242	0x3e315ac2	0.17319778
243	0xbccf0060	-0.025268734
244	0xbc9a9db0	-0.01887402
245	0xbe820d0a	-0.25400573
246	0x3ded1c48	0.1157766
247	0x3e32db56	0.17466483
248	0x3eaed2d5	0.34145227
249	0xbe85b8ee	-0.26117653
250	0x3ec332c2	0.38124663
251	0xbe3dff88	-0.18554509
252	0xbf717498	-0.9431853
253	0xbd6e880f	-0.058235224
254	0xbeb6298d	-0.35578576
255	0x3eddbf08	0.43309808

denseOS_inner0.bias f4 [64]
0	0x3f4d00a5	0.8007911
1	0xbe5e67ce	-0.21719286
2	0x3e4dd54a	0.20100895
3	0xbe4ff8f9	-0.2030982
4	0x3e370da7	0.17876302
5	0x3d4fc0d0	0.05072099
6	0x3e7ed646	0.24886426
7	0x3ef030d3	0.4691225
8	0xbdacd6ea	-0.08439429
9	0x3e0bd668	0.13656008
10	0x3efc13fd	0.49234
11	0x3e02c5fa	0.12770835
12	0x3ee6cecc	0.45079648
13	0x3e905851	0.2819238
14	0x3ef69e8f	0.48167846
15	0xbe86d9b3	-0.26337966
16	0xbd3f9b7d	-0.046779145
17	0xbe391ce4	-0.18077427
18	0x3c6a4fe0	0.01430127
19	0x3cce9879	0.025219189
20	0x3ee6539e	0.4498567
21	0xbd1a782e	-0.03771227
22	0x3e04d853	0.12973146
23	0xbd105bed	-0.035243917
24	0xbe6a50fb	-0.22882454
25	0x3f146ecb	0.57981557
26	0xbe21dac1	-0.15806104
27	0xbe69df6d	-0.22839136
28	0x3e73bd16	0.238026
29	0xbe2979af	-0.16550325
30	0x3da37804	0.079818755
31	0x3ee79202	0.45228583
32	0x3eb6c6ce	0.3569855
33	0xbe186ef2	-0.14886072
34	0x3ed56ba0	0.41683674
35	0xbca83580	-0.020533323
36	0xbddc5e0b	-0.10760125
37	0x3d8184e2	0.063241735
38	0xbd0ec2e7	-0.034853842
39	0x3ee9117a	0.45521146
40	0x3e72fefc	0.23730081
41	0xbd2ad2b0	-0.041704834
42	0x3ee045a0	0.4380312
43	0xbd5becd0	-0.05369264
44	0x3e9ed831	0.31024316
45	0xbe7d5c05	-0.24742134
46	0x3e948dc9	0.29014423
47	0xbea1f162	-0.31629473
48	0xbda73558	-0.081644714
49	0xbe9ddb09	-0.30831173
50	0xbe393c86	-0.18089494
51	0x3dc9bffd	0.09851072
52	0x3f48c998	0.7843261
53	0x3e8cc9bc	0.2749766
54	0x3e9f9b82	0.3117333
55	0x3e23614c	0.15955085
56	0xbea0d6a6	-0.31413764
57	0x3e94d265	0.29066768
58	0x3c9137b0	0.01772675
59	0xbe372029	-0.17883362
60	0x3ef6218f	0.48072478
61	0x3e6b024e	0.22950098
62	0x3e263c0a	0.1623384
63	0x3da22c00	0.079185486

LSTM_inner0.weight_ih_l0 f4 [256, 6]
0	0x3f07914d	0.52956086
1	0x3cd26462	0.025682632
2	0x3e82a6c5	0.2551786
3	0x3d5f9f18	0.054595083
4	0x3cb5b363	0.022180265
5	0x3ddb968d	0.10722075
6	0xbf6e635f	-0.9312038
7	0xbe8a929e	-0.27064985
8	0xbd0ac140	-0.033875704
9	0x3e1d0532	0.15334013
10	0x3e8431c9	0.25819233
11	0x3e9fdfa1	0.31225303
12	0xbeb09b12	-0.3449331
13	0x3ceffd5e	0.02929562
14	0xbd6ccf46	-0.05781486
15	0xbd5eaa83	-0.05436183
16	0xbd7a8900	-0.06116581
17	0xbdb5171b	-0.08842298
18	0x3f28de1e	0.65963924
19	0xbe83dcc5	-0.2575437
20	0xbf242195	-0.6411374
21	0x3defaddc	0.11703083
22	0x3d95b564	0.07309988
23	0x3d23eac3	0.040018808
24	0xbc6f6dc6	-0.014613574
25	0xbe784016	-0.24243197
26	0xbec5c1fd	-0.38624564
27	0x3e95d843	0.29266557
28	0x3dfde526	0.12397222
29	0x3ec51037	0.38488933
30	0xbf7d934f	-0.990529
31	0x3df39730	0.11894071
32	0xbd1e0608	-0.03857997
33	0x3e6497d2	0.2232354
34	0xbd104c96	-0.035229288
35	0x3e39acf7	0.18132387
36	0x3f7944af	0.9737043
37	0x3d5b659a	0.05356369
38	0x3e40ce11	0.18828608
39	0x3e8f4e17	0.27989265
40	0xbcab1fc8	-0.020889178
41	0x3e43784a	0.19088855
42	0xbf63deca	-0.89011824
43	0xbe5760e1	-0.2103305
44	0xbc7c97bb	-0.015417035
45	0x3d598f7f	0.053115364
46	0x3eb109f2	0.345779
47	0x3e3a6005	0.18200691
48	0x3e64d103	0.22345357
49	0xbf02d8e9	-0.5111223
50	0xbea95082	-0.33069235
51	0x3e215fbe	0.15759179
52	0xbdc748d8	-0.09730691
53	0x3dde072d	0.108412124
54	0xbed35dae	-0.4128241
55	0xbf0d1d56	-0.5512289
56	0xbef8e1af	-0.48609683
57	0x3e5647f6	0.20925888
58	0x3e40a4b1	0.18812825
59	0x3e875824	0.26434433
60	0xbe470cbc	-0.19438452
61	0xbf18cf28	-0.59691095
62	0xbecf3257	-0.40468094
63	0x3ea408ea	0.3203805
64	0x3e24dcc6	0.16099843
65	0x3cbb6068	0.022873119
66	0xbf3699ef	-0.71328634
67	0x3e429a9b	0.1900429
68	0xbe2d6918	-0.16934621
69	0xbc271cbb	-0.010199721
70	0x3cbba07d	0.022903675
71	0x3d133236	0.035936557
72	0xbe3399b9	-0.1753911
73	0xbda5ab03	-0.080892585
74	0xbea3e60d	-0.32011452
75	0x3e08b6f6	0.13351044
76	0x3de2399d	0.11046145
77	0x3e5f13c0	0.21784878
78	0xbf191447	-0.59796566
79	0xbd52de6a	-0.05148164
80	0x3e8f8fba	0.28039342
81	0xbe29fe9d	-0.16601034
82	0xbe7fc9e7	-0.24979363
83	0xbe16da41	-0.14731695
84	0xbf648f91	-0.89281565
85	0x3f9eeeed	1.2416664
86	0x3d0f30c7	0.034958627
87	0x3eb2bca3	0.34909543
88	0x3edb7d42	0.42869002
89	0x3ea9870e	0.3311085
90	0xbf075e23	-0.52878016
91	0x3d641d07	0.055691745
92	0x3f05d7cd	0.5228241
93	0xbd36756f	-0.044545587
94	0x3c6c3671	0.014417277
95	0xbdd3629a	-0.10321541
96	0xbf03773a	-0.513538
97	0xbecce843	-0.40020952
98	0xbda2bd26	-0.079462335
99	0x3e4c7166	0.19965133
100	0x3cdd2286	0.026994001
101	0x3dc2af64	0.09506109
102	0x3f8e9b41	1.114113
103	0xbd99e9a5	-0.07515267
104	0xbe8b4f9c	-0.27209175
105	0xbca993f9	-0.020700442
106	0x3d076c26	0.033062123
107	0x3db866c0	0.09003973
108	0xbf8a0c7c	-1.078506
109	0x3e009fe7	0.12560998
110	0x3e2f9327	0.17145978
111	0x3c59510f	0.013263955
112	0xbc83f97e	-0.016110178
113	0xbdf3411f	-0.11877655
114	0x3eb3533b	0.35024437
115	0x3e842304	0.25807965
116	0x3dea47ce	0.11439477
117	0x3f89c34a	1.0762722
118	0x3e9de84c	0.3084129
119	0x3f87417f	1.0566863
120	0x3f1f4d14	0.62226987
121	0xbf0af2e2	-0.5427686
122	0xbf3874d0	-0.7205324
123	0x3dc8669d	0.09785197
124	0x3e394348	0.18092072
125	0x3e26dcd9	0.16295184
126	0xbf4324f9	-0.7622829
127	0x3f3f5f16	0.74754465
128	0xbc269e0b	-0.010169516
129	0x3e258095	0.16162331
130	0x3f8ce300	1.1006775
131	0x3eb3c30f	0.35109755
132	0xbe4e014d	-0.20117684
133	0x3f08723e	0.5329932
134	0x3ce40eac	0.027839027
135	0x3c081630	0.008306071
136	0x3e070f76	0.13189492
137	0x3d53f068	0.05174294
138	0xbf3953c8	-0.72393465
139	0x3ea7cc58	0.3277309
140	0x3dcae3c6	0.099067256
141	0x3d5c83ed	0.05383675
142	0x3b0f0e5e	0.0021828632
143	0xbe6a10c2	-0.22857955
144	0xbf8c5a2c	-1.0965018
145	0x3eb641a6	0.3559696
146	0x3e8060ff	0.25074002
147	0x3de29376	0.11063282
148	0x3d84d804	0.06486514
149	0x3d043c6e	0.032284193
150	0xbf90ec7f	-1.1322173
151	0xbe0199cb	-0.12656324
152	0x3ee959f3	0.45576438
153	0xbd44c66a	-0.048040785
154	0xbe27c269	-0.16382755
155	0xbdefacc9	-0.11702878
156	0xbf4b666b	-0.7945315
157	0x3c8a84b7	0.016908986
158	0x3e476edf	0.19475888
159	0x3bf5761e	0.0074908873
160	0xbd7379b6	-0.059442244
161	0xbc2e09ee	-0.010622485
162	0x3f327b84	0.6971972
163	0x3bf1aecc	0.0073755737
164	0x3e371480	0.17878914
165	0x3d816627	0.06318312
166	0xbb9ae3a6	-0.004726845
167	0x3db66ad1	0.08907092
168	0x3e59f046	0.21283063
169	0xbc846672	-0.016162131
170	0x3d828dc3	0.06374695
171	0x3da95982	0.082690254
172	0x3d964f29	0.07339317
173	0x3dcd882a	0.10035737
174	0xbebd61f7	-0.36988804
175	0x3e134a2f	0.14383768
176	0x3e1a9189	0.1509458
177	0xbdbe261b	-0.09284612
178	0xbdf0a5ec	-0.11750397
179	0xbe2c4f28	-0.1682707
180	0xbe9aae0e	-0.30210918
181	0xbe816b05	-0.25276962
182	0x3dfca2b4	0.12335721
183	0xbce2b3f2	-0.027673695
184	0xbe656c12	-0.22404507
185	0xbe343ee5	-0.17602117
186	0xbf250043	-0.64453524
187	0xbe813872	-0.25238377
188	0xbdf0800f	-0.11743175
189	0x3e34ed79	0.17668714
190	0x3e861128	0.26184964
191	0x3dccea68	0.10005647
192	0xbec9e7ac	-0.39434564
193	0xbdaf828a	-0.0856982
194	0x3e621787	0.22079287
195	0x3c8721e1	0.016495647
196	0xbdb0a686	-0.08625512
197	0xbda949ad	-0.08266006
198	0x3e836688	0.25664163
199	0xbe83d493	-0.2574812
200	0xbf2dae1e	-0.67843807
201	0xbda3c3c6	-0.07996325
202	0x3d9db6fa	0.07700916
203	0xbe0740dd	-0.13208337
204	0xbdecbda0	-0.115596056
205	0x3e60e873	0.21963672
206	0x3fa7f439	1.3121406
207	0x3f34c9be	0.70620334
208	0x3ef39e62	0.47581774
209	0x3ce0a1c1	0.02742088
210	0xc0160209	-2.3438742
211	0xbfc48a7e	-1.5354764
212	0xbc2ff203	-0.010738852
213	0x3cba516f	0.022743909
214	0xbc754d5b	-0.014972056
215	0x3debd33a	0.11514898
216	0x3ea55929	0.32294586
217	0x3defcff6	0.11709587
218	0xbea29b4f	-0.31759116
219	0x3e6fcbb1	0.23417546
220	0x3e26b388	0.16279423
221	0xbc9e6055	-0.019333044
222	0x3e1a3b65	0.1506172
223	0xbebe8279	-0.37208918
224	0xbe306a82	-0.1722813
225	0x3ee8f46f	0.45498988
226	0x3e2e59ac	0.17026395
227	0x3dab6240	0.08368349
228	0xbf0dbb53	-0.5536396
229	0xbcdb65b5	-0.026781896
230	0xbdbd17a0	-0.09233022
231	0xbd1609e7	-0.036630537
232	0xbdce03fe	-0.10059355
233	0xbdbbeedb	-0.091764174
234	0xbf526c43	-0.82196444
235	0xbdf22ae1	-0.11824585
236	0xbe45889c	-0.19290394
237	0xbe3332c5	-0.17499836
238	0x3dc7f5ae	0.097636566
239	0x3c361c12	0.011115091
240	0xbf07334c	-0.5281265
241	0xbe1e1299	-0.15436782
242	0xbe0b775b	-0.13619749
243	0x3e187ab5	0.14890559
244	0x3e17b2c1	0.14814283
245	0xbd4276e5	-0.047476668
246	0x3fcf5a14	1.6199365
247	0x3f0a7feb	0.5410144
248	0xbe703dba	-0.23461047
249	0x3e40810b	0.18799226
250	0x3ee6b574	0.45060313
251	0x3e2b89e1	0.16751815
252	0x3e276fc6	0.16351232
253	0x3eb50559	0.35355642
254	0x3eb6e03e	0.35717958
255	0x3e1d8cca	0.15385738

LSTM_inner0.weight_hh_l0 f4 [256, 64]
0	0xbdc9de5e	-0.09856866
1	0x3d5e8ef0	0.054335535
2	0xbdd77f94	-0.105223805
3	0xbd29d55c	-0.04146324
4	0x3d6b5670	0.05745548
5	0xbd4b0c80	-0.049572468
6	0x3dbe8aca	0.09303816
7	0xbdf37cee	-0.11889063
8	0xbdc5a424	-0.09650448
9	0x3ce133d8	0.027490541
10	0xbd83a836	-0.06428568
11	0x3dbe1cf0	0.09282863
12	0xbd8919b6	-0.06694357
13	0xbdd654e0	-0.10465407
14	0x3b2d0780	0.0026402175
15	0xbb535b40	-0.0032250434
16	0xbd599a48	-0.05312565
17	0x3dcf87b2	0.10133304
18	0xbd0f90c8	-0.035050184
19	0x3dbd8532	0.092539206
20	0x3c9bf558	0.019037887
21	0xbcbb2a58	-0.02284734
22	0x3d30c59c	0.043157205
23	0x3d7ebdb0	0.06219262
24	0x3cf1c438	0.02951251
25	0x3d432214	0.04763992
26	0xbd9a39ae	-0.07530533
27	0xbcd1c0b0	-0.025604576
28	0x3d8c5abe	0.06853245
29	0xbdab3840	-0.08360338
30	0xbd977f72	-0.07397355
31	0xbd7cf0d0	-0.061753094
32	0x3c555880	0.013021588
33	0x3d9a91ec	0.07547364
34	0x3dd72c8a	0.10506542
35	0x3dddc810	0.108291745
36	0x3cce5d08	0.025190845
37	0xbdd28980	-0.10280132
38	0x3c820780	0.015872717
39	0x3d0db710	0.03459841
40	0x3dcdc63a	0.10047574
41	0x3df332f8	0.11874956
42	0xbd43e6a4	-0.047827378
43	0x3de7a716	0.11311166
44	0x3dd69412	0.10477461
45	0x3dc3d57e	0.09562205
46	0x3d7fe580	0.062474728
47	0xbdf681fa	-0.1203651
48	0xbba7c3a0	-0.005119756
49	0xbda907d2	-0.08253445
50	0xbdc9ee70	-0.098599315
51	0xbd85aa16	-0.06526582
52	0x3d354bc4	0.04426171
53	0x3d8e2f4e	0.069426164
54	0x3ddc3602	0.10752489
55	0x3df6d252	0.12051834
56	0x3d942dee	0.07235323
57	0xbd2ea8c8	-0.04264143
58	0xbd5c81ec	-0.05383484
59	0xbd0edf68	-0.034881026
60	0x3ca01518	0.019541308
61	0xbd4232e8	-0.04741183
62	0xbde4d918	-0.1117422
63	0x3d0ef490	0.0349012
64	0x3da2e5f8	0.07954019
65	0xbd045fe8	-0.032318026
66	0xbb15d6c0	-0.0022863597
67	0x3b600140	0.0034180433
68	0xbdd78668	-0.10523683
69	0x3d449f98	0.048003763
70	0x3b28fd00	0.0025785565
71	0xbd9a2a3a	-0.07527585
72	0x3dd9cc70	0.106346965
73	0x3d642084	0.05569507
74	0xbd24a924	-0.040200368
75	0xbd2d2bdc	-0.042278156
76	0xbda7f2e0	-0.082006216
77	0xbd432870	-0.047645986
78	0xbd77c83c	-0.060493693
79	0xbdb96de0	-0.0905416
80	0xbcc1e820	-0.023670256
81	0xbdae1352	-0.08499779
82	0xbcbe8380	-0.023256063
83	0x3dc48c38	0.09597057
84	0xbc996198	-0.018723294
85	0x3ccaac40	0.024740338
86	0x3d90c664	0.0706909
87	0xbce76878	-0.028248057
88	0x3bfc3fe0	0.007698044
89	0xbda1d106	-0.07901196
90	0xbc279e10	-0.010230556
91	0x3d8aa116	0.06769006
92	0x3ce96f00	0.028495312
93	0x3d3dca04	0.046335235
94	0x3d4ea280	0.05044794
95	0x3dfa51fa	0.12222667
96	0x3da3d34c	0.07999286
97	0xbdf0cc44	-0.117577106
98	0x3d8db1bc	0.06918666
99	0x3c60cc80	0.013720632
100	0x3d4a9a04	0.049463287
101	0x3d5de320	0.05417168
102	0xbc0b2900	-0.008493662
103	0x3d963410	0.07334149
104	0xbd8c8ba6	-0.06862573
105	0xbdc8b226	-0.09799604
106	0x3d71c9b0	0.059030235
107	0x3d9fc1a6	0.078006074
108	0xbd81866c	-0.06324467
109	0x3d379930	0.044823825
110	0xbdaf3762	-0.08555485
111	0xbcfe0630	-0.03100881
112	0xbcf68320	-0.030091822
113	0x3c2e4c30	0.010638282
114	0x3d07c770	0.033149183
115	0xbdda9128	-0.106722176
116	0x3ddf6cb2	0.10909404
117	0xbda92370	-0.08258712
118	0x3d076cb8	0.033062667
119	0xbc160ba0	-0.009158045
120	0x3cd4c600	0.02597332
121	0xbc388e40	-0.011264384
122	0x3d5d0ef8	0.053969353
123	0x3d87b340	0.06625986
124	0x3de87d22	0.11351992
125	0x3dc81a80	0.097706795
126	0xbd92db60	-0.07170749
127	0x3dec929e	0.115514025
128	0xbd282ba8	-0.04105726
129	0xbc19bd20	-0.00938347
130	0xbdc27e34	-0.094967276
131	0x3b53b240	0.003230229
132	0xbda18aae	-0.07887779
133	0x3d217144	0.03941466
134	0xbdd3e3d4	-0.10346189
135	0x3ca9d9b8	0.0207337
136	0xbdc808d2	-0.09767307
137	0x3cba5a18	0.022748038
138	0xbd76d19c	-0.060258493
139	0xbb2c70c0	-0.0026312321
140	0x3cc9a310	0.024613887
141	0x3dd8d560	0.10587573
142	0xbd803762	-0.062605634
143	0xbd9f890c	-0.077898115
144	0xbd5a0b94	-0.053233698
145	0xbdd64a70	-0.104634166
146	0xbddccb26	-0.10780935
147	0xbddbca78	-0.10731977
148	0x3def2bbc	0.116782635
149	0x3df869f8	0.12129587
150	0xbc245fc0	-0.010032594
151	0x3c8c52d0	0.017129332
152	0x3caa53e8	0.020791963
153	0xbd3aa1f0	-0.045564592
154	0x3db1696c	0.08662686
155	0xbd5c550c	-0.053792045
156	0x3d40bb68	0.047053725
157	0xbcd7f2a8	-0.026360825
158	0x3d97f010	0.07418835
159	0xbc898b78	-0.016790137
160	0xbae12600	-0.0017177463
161	0x3df1b7cc	0.118026346
162	0xbd46d58c	-0.048543498
163	0x3dbecd52	0.093165055
164	0x3a936880	0.0011246353
165	0xbd244704	-0.04010679
166	0x3d66190c	0.05617623
167	0xbd8f30b2	-0.0699171
168	0xbdb933d4	-0.090430886
169	0x3dcf119a	0.10110779
170	0xbd8fb43e	-0.070168
171	0x3b8c0b60	0.004273817
172	0x3dbc47ae	0.09193359
173	0xbde99c52	-0.11406769
174	0x3b574280	0.0032846034
175	0x3bbc7820	0.0057516247
176	0xbd78fe74	-0.06078954
177	0x3c98a7c8	0.018634692
178	0x3d95893a	0.073015645
179	0xbd49cdb0	-0.049268425
180	0xbd922792	-0.07136454
181	0xbddd8f1e	-0.10818313
182	0x3d229b80	0.039699078
183	0x3cf18bd8	0.029485628
184	0xbd5439c4	-0.051812902
185	0xbba61c20	-0.0050692707
186	0x3dfa84a2	0.12232329
187	0xbd9026ae	-0.070386276
188	0xbcc56630	-0.024096578
189	0xbccf59f8	-0.025311455
190	0xbd96543a	-0.07340284
191	0xbd1567fc	-0.03647612
192	0xbdc9137a	-0.09818168
193	0x3df217f4	0.11820975
194	0x3df072f2	0.11740674
195	0x3dfc2f44	0.12313703
196	0xbd921e1a	-0.07134648
197	0x3bd96ca0	0.0066352636
198	0xbdfa1cb6	-0.122125074
199	0x3cd708a0	0.02624923
200	0xbc9e2db8	-0.01930891
201	0x3dd66fbc	0.104705304
202	0xbde5b72c	-0.11216578
203	0x3dcc3c16	0.09972398
204	0xbd0be420	-0.034153104
205	0x3ce52b30	0.027974695
206	0x3d573614	0.052541807
207	0x3c98ecb0	0.018667549
208	0xbd48340c	-0.04887776
209	0x3dfb4c72	0.1227044
210	0xbd0f3054	-0.0349582
211	0x3dcf8562	0.10132863
212	0x3dd09e70	0.101864696
213	0xbc69d060	-0.014270872
214	0x3db122ea	0.086492375
215	0x3d80bcb6	0.06285994
216	0xbd5137f8	-0.051078767
217	0x3ce1a6e0	0.027545393
218	0x3d9eea30	0.077595115
219	0xbde7ed32	-0.11324538
220	0xbdd0b066	-0.10189895
221	0x3cb98128	0.022644594
222	0xbd688450	-0.056766808
223	0xbc883100	-0.016624928
224	0xbda3975e	-0.079878554
225	0x3af28b00	0.001850456
226	0xbc71b7c0	-0.014753282
227	0xbd1ea61c	-0.038732633
228	0x3d9acfac	0.075591415
229	0xbdf6c556	-0.120493576
230	0x3c350910	0.011049524
231	0x3d0e548c	0.0347486
232	0xb91ff000	-0.00015252829
233	0x3dbdadc6	0.0926166
234	0xbc03da20	-0.0080476105
235	0x3d84254e	0.06452428
236	0xbc84c988	-0.016209379
237	0x3dc15692	0.0944034
238	0x3da9805a	0.08276434
239	0xbd6ed16c	-0.05830519
240	0xbdc90fda	-0.098174766
241	0xbdc4142a	-0.095741585
242	0x3dbf19ee	0.093311176
243	0x3db81b82	0.08989622
244	0x3d534954	0.051583603
245	0x3dfc4eb8	0.12319702
246	0x3d339d0c	0.043850943
247	0xbc935550	-0.017985016
248	0xbdb75f50	-0.08953726
249	0x3daa4d90	0.08315575
250	0xba813300	-0.0009857118
251	0xbd53dda0	-0.05172503
252	0xbdae0c7a	-0.084984735
253	0xbdd059c8	-0.101733744
254	0x3dee2588	0.11628252
255	0x3d2961e0	0.041353106

LSTM_inner0.bias_ih_l0 f4 [256]
0	0x3e2f9101	0.17145158
1	0x3ed52f7b	0.41637787
2	0x3e748e79	0.23882474
3	0x3e1cf3e7	0.15327416
4	0x3e4386f3	0.19094448
5	0x3eaae4cc	0.33377683
6	0x3f0c231c	0.5474107
7	0x3e4516d5	0.19246991
8	0x3d6dc9b2	0.05805368
9	0x3e6197fe	0.22030637
10	0x3e6a25eb	0.22866027
11	0x3e3c3a5f	0.18381642
12	0x3ec48bac	0.3838781
13	0x3d4ad39b	0.04951821
14	0x3eace868	0.33771062
15	0x3de46965	0.11152915
16	0x3e39598d	0.18100567
17	0x3e8aa704	0.27080548
18	0xbc61cee7	-0.0137822395
19	0x3f2daf9b	0.6784608
20	0xbd809f54	-0.062803894
21	0x3eab6abc	0.3347987
22	0x3c55ee0c	0.013057243
23	0x3e862519	0.26200178
24	0x3e114a7e	0.14188573
25	0x3e657b28	0.22410262
26	0x3daecef1	0.08535565
27	0x3e7ba5e6	0.24575004
28	0x3db45643	0.088055156
29	0x3d8dcdcf	0.069240205
30	0x3a514c7f	0.0007984116
31	0x3d85825c	0.06519005
32	0xbc31f203	-0.010860923
33	0x3cda6b18	0.026662394
34	0xbce3392c	-0.027737223
35	0x3bafc96a	0.0053645866
36	0x3da942b4	0.08264676
37	0x3ef3f9cd	0.4765152
38	0x3dbd22c7	0.09235149
39	0x3c98fb8b	0.018674633
40	0x3de4d702	0.11173822
41	0x3de02ff1	0.10946644
42	0x3e3a031b	0.18165247
43	0x3eb67b7c	0.35641086
44	0x3e5d56e7	0.21615182
45	0x3e493e4c	0.1965267
46	0x3ea28c55	0.3174769
47	0x3ea7f633	0.32805023
48	0x3d90f905	0.07078747
49	0x3e6cec83	0.23137097
50	0x3ea9bcb5	0.33151785
51	0x3e0f9533	0.14021759
52	0x3d7bb416	0.06145104
53	0x3dede50d	0.116159536
54	0x3e312d04	0.17302328
55	0x3e8ec926	0.2788784
56	0x3e1f7064	0.15570217
57	0x3e7ada95	0.24497445
58	0x3eb8cde4	0.36094582
59	0x3e6f4815	0.23367341
60	0x3e929301	0.2862778
61	0x3e248867	0.16067658
62	0x3c06f8cf	0.0082380315
63	0x3eca4449	0.39505222
64	0xbdbf2d72	-0.0933484
65	0xbdfdc23a	-0.123905614
66	0x3c992e08	0.018698707
67	0x3da8bc4c	0.0823904
68	0xbd3f0f7c	-0.046645626
69	0x3d2229bc	0.039590582
70	0xbdc15c9c	-0.09441492
71	0x3d4dfe34	0.050291255
72	0x3d299c90	0.041409075
73	0x3defb070	0.11703575
74	0xbcda7d58	-0.026671097
75	0x3b9c0240	0.0047610104
76	0x3d50798c	0.050897166
77	0xbdfcc9dc	-0.12343189
78	0x3de2f964	0.11082724
79	0x3d31e6e0	0.04343307
80	0xbd9d61bc	-0.07684657
81	0x3d87e6c8	0.06635815
82	0x3d5cf2d4	0.053942516
83	0xbdd41156	-0.10354869
84	0xbdc74d80	-0.09731579
85	0xbdaaf38e	-0.083472356
86	0xbc399460	-0.011326879
87	0xbd576404	-0.052585617
88	0x3d015e60	0.031584144
89	0xbdfe0b00	-0.12404442
90	0x3c8ff198	0.017571256
91	0x3d54b5ac	0.05193107
92	0x3defe7c2	0.11714126
93	0xbb014000	-0.0019721985
94	0xbde27d76	-0.11059086
95	0x3de116d2	0.10990681
96	0xbdad1fe4	-0.08453348
97	0x3dc2d5fa	0.09513469
98	0xbda9ada6	-0.08285074
99	0x3daccd60	0.0843761
100	0x3caa8f88	0.020820394
101	0x3cf8e6f8	0.030383572
102	0xbd4918a4	-0.049095765
103	0x3d800a3c	0.06251952
104	0xbdc71da0	-0.097224474
105	0x3de4bf66	0.11169319
106	0xbd9b92aa	-0.07596333
107	0x3dc6908a	0.096955374
108	0xbd226be8	-0.03965369
109	0xbb09fe80	-0.0021056235
110	0xbd1c1700	-0.038107872
111	0x3cb855e8	0.0225019
112	0xbdccc562	-0.09998585
113	0x3d742d5c	0.05961357
114	0xbd8a03aa	-0.0673898
115	0x3d6d3d34	0.057919696
116	0x3a607600	0.0008562505
117	0xbdd42a34	-0.10359612
118	0xbbe95ba0	-0.0071215183
119	0x3de883c2	0.11353256
120	0xbd21f140	-0.039536715
121	0xbce49ef0	-0.027907819
122	0xbd92070c	-0.0713025
123	0xbbe64f40	-0.0070284903
124	0xbd966a7e	-0.073445305
125	0xbd9e591e	-0.077318415
126	0xbdd7e99e	-0.10542606
127	0x3da88fe2	0.082305685
128	0xbefaaccd	-0.48959962
129	0x3c821192	0.015877519
130	0x3e634ecb	0.22198026
131	0xb99d5999	-0.0003001213
132	0x3dd27363	0.102759145
133	0x3e578c2f	0.2104957
134	0xbeee77fd	-0.4657592
135	0x3d19a9b1	0.037515346
136	0x3e2e59c0	0.17026424
137	0x3db479c7	0.0881229
138	0x3da76960	0.081743956
139	0xbd30e36b	-0.043185633
140	0x3f1e1d77	0.6176371
141	0x3eb58ca8	0.35458875
142	0x3dac2b66	0.08406715
143	0x3ebc79fa	0.3681181
144	0xbd488ae9	-0.0489606
145	0x3e502ba4	0.20329148
146	0x3ebf786c	0.37396562
147	0x3e18347d	0.14863773
148	0xbd57958f	-0.052632865
149	0x3d6dcde7	0.058057692
150	0xbe4b3236	-0.19843373
151	0x3efc1ce8	0.49240804
152	0xbedbaa7a	-0.429035
153	0xbec3505b	-0.38147244
154	0x3e04afd7	0.12957703
155	0x3f136614	0.57577634
156	0xbd989283	-0.0744982
157	0xbea58a6b	-0.32332167
158	0x3e7c8191	0.246588
159	0xbd2c0280	-0.04199457
160	0x3e1f7445	0.15571697
161	0xbd3cfd1c	-0.04613982
162	0x3e03c239	0.12867059
163	0xbe04ae1b	-0.12957041
164	0xbdab8ba9	-0.083762474
165	0x3afa91f3	0.0019116983
166	0x3d4b128d	0.04957824
167	0x3d99d51e	0.07511352
168	0x3e77faab	0.24216716
169	0xbe267bc3	-0.16258149
170	0xbe38c84c	-0.18045157
171	0xbcd96ec6	-0.026542079
172	0x3dc12333	0.09430542
173	0x3d017285	0.031603355
174	0x3f1c36fe	0.6102141
175	0x3e5fd68e	0.2185919
176	0xbdb513a2	-0.08841635
177	0x3d9afc99	0.075677104
178	0xbe87e6ba	-0.26543218
179	0xbd052fa8	-0.03251615
180	0x3e3a4ab6	0.18192562
181	0x3c2060e9	0.00978873
182	0x3b383574	0.0028108032
183	0x3e1d3474	0.1535204
184	0xbc8423f0	-0.016130418
185	0x3d0d90bb	0.034561854
186	0x3e676806	0.22598276
187	0x3de4a632	0.11164512
188	0x3c02529a	0.007954264
189	0xbd5c1b4f	-0.05373698
190	0xbe4b4b6a	-0.19852987
191	0x3ec88e8c	0.39171255
192	0x3e7f25d7	0.24916779
193	0x3eda2593	0.42606792
194	0x3ea02035	0.31274572
195	0x3dfe6c72	0.12423028
196	0x3e83037f	0.25588605
197	0x3e175820	0.14779711
198	0x3e85da5c	0.26143157
199	0x3eb2ccd4	0.34921896
200	0x3e68ed30	0.2274673
201	0x3e93fdd7	0.28904602
202	0x3e568d71	0.20952393
203	0x3ddb86c5	0.107190646
204	0x3e4f9815	0.20272858
205	0x3e1cace0	0.15300322
206	0x3e8e4407	0.27786276
207	0x3cf4e90c	0.029896282
208	0xbb899a86	-0.004199329
209	0x3e09ff29	0.13476242
210	0xbd55a276	-0.052156888
211	0x3eb00ba4	0.3438388
212	0x3d5e7d3e	0.05431866
213	0x3e980611	0.29692128
214	0x3d94dc3d	0.072685696
215	0x3e9321d6	0.28736752
216	0x3e07eb07	0.1327325
217	0x3e87e00c	0.26538122
218	0x3e4ad291	0.19806887
219	0x3ec432d9	0.38320044
220	0x3e657efb	0.2241172
221	0x3e163c32	0.146714
222	0xbd8ad99d	-0.06779788
223	0x3dbee6d0	0.09321368
224	0x3d22c01a	0.039733984
225	0x3dc7d737	0.09757846
226	0x3e7491bb	0.23883717
227	0x3e0f594b	0.13998906
228	0x3cd0acee	0.025473084
229	0x3ed149eb	0.40876707
230	0xbd0a1b6f	-0.03371757
231	0x3e1e0a9e	0.15433738
232	0x3e73ff42	0.23827842
233	0x3e8e1530	0.2775054
234	0x3e5ac6d5	0.21364911
235	0x3e26d27c	0.16291231
236	0x3e0b946a	0.13630834
237	0x3e67b246	0.226266
238	0x3e2f8baa	0.17143121
239	0x3ed81aad	0.42207852
240	0x3e534eb2	0.20635489
241	0x3e2f591f	0.17123841
242	0x3e87173a	0.26384908
243	0x3e8d07aa	0.2754491
244	0x3d3e0c2c	0.046398327
245	0x3e8a4ab9	0.27010134
246	0x3dc93473	0.09824457
247	0x3e288de0	0.16460371
248	0x3e194c6b	0.14970557
249	0x3e75cbbe	0.24003503
250	0x3eb77390	0.35830355
251	0x3e56a99c	0.20963138
252	0x3e5047a8	0.20339835
253	0x3e2cbc8c	0.168688
254	0x3e62f0de	0.22162196
255	0x3dbdbc3d	0.09264419

LSTM_inner0.bias_hh_l0 f4 [256]
0	0x3e9a72f5	0.3016583
1	0x3e962d0d	0.29331246
2	0x3e74992f	0.2388656
3	0x3e6b7555	0.22993977
4	0x3ecc569d	0.3990983
5	0x3de2bcb5	0.11071149
6	0x3f2e7844	0.6815226
7	0x3ddb79b5	0.10716573
8	0x3e465677	0.19368921
9	0x3e945510	0.28971148
10	0x3e872007	0.26391622
11	0x3dd08b0f	0.10182773
12	0x3f1d14f9	0.61360127
13	0x3e3ccaa1	0.18436672
14	0x3ef69f78	0.4816854
15	0x3e323aea	0.17405286
16	0x3cbdb0ea	0.023155648
17	0x3da5bb68	0.080923855
18	0x3dca1dbe	0.09868954
19	0x3f5d0505	0.86335784
20	0xbda1200e	-0.07867442
21	0x3ee43802	0.4457398
22	0x3d210ff2	0.039321847
23	0x3e6c5432	0.23078993
24	0x3e83f979	0.2577627
25	0x3e8708dd	0.2637395
26	0x3e5d74f7	0.2162665
27	0x3ea7b86c	0.3275789
28	0x3de2b3ab	0.11069425
29	0x3e548ed4	0.2075761
30	0x3da85544	0.08219388
31	0x3ddc7cb8	0.10765976
32	0xbcff7836	-0.03118525
33	0x3e577865	0.2104202
34	0x3dbd9bdc	0.092582434
35	0x3df2abce	0.118491754
36	0x3e519d0d	0.20470066
37	0x3eedc289	0.4643748
38	0x3cdb08c3	0.026737576
39	0xbd87d047	-0.066315226
40	0x3e95fcd9	0.2929447
41	0x3e97ee6c	0.2967409
42	0x3e922dc9	0.28550556
43	0x3e4c6b02	0.19962695
44	0x3e808028	0.25097775
45	0x3e0dc59a	0.1384491
46	0x3e269aec	0.16270036
47	0x3eb882b7	0.36037228
48	0x3e799c3b	0.24376003
49	0x3cd02395	0.025407592
50	0x3e3930bf	0.18085001
51	0x3e1edae1	0.15513183
52	0x3e933e2a	0.28758365
53	0x3e8d9d8f	0.2765927
54	0x3e861615	0.26188722
55	0x3edb0c5a	0.4278286
56	0x3e3fa250	0.18714261
57	0x3e977a2f	0.29585406
58	0x3ed48a28	0.41511655
59	0x3e51283b	0.20425503
60	0x3e355986	0.17709932
61	0x3e3ae40f	0.1825106
62	0x3dacc3a6	0.084357545
63	0x3e71dc28	0.23619139
64	0xbd978fd0	-0.07400477
65	0xbcbd7e08	-0.023131385
66	0x3deb9b7c	0.11504266
67	0x3da25af0	0.07927501
68	0xbdece4f4	-0.11567107
69	0x3dede878	0.116166055
70	0x3dcadc5a	0.0990531
71	0x3cf97b88	0.030454412
72	0xbdac6da0	-0.08419347
73	0x3dcd0d06	0.1001225
74	0xbd3b9dec	-0.045804903
75	0xbdb90808	-0.09034735
76	0x3d7eec74	0.062237218
77	0x3dc418e0	0.09575057
78	0xbdfb4026	-0.12268095
79	0x3d63f020	0.055648923
80	0xbdd73188	-0.10507494
81	0xbd6208ec	-0.05518429
82	0x3dc89958	0.09794873
83	0x3d906454	0.07050386
84	0xbde21592	-0.110392705
85	0x3dcfad4e	0.10140477
86	0xbdb5c492	-0.088753834
87	0xbdbf8648	-0.09351784
88	0xbdd69e04	-0.10479358
89	0x3da31e70	0.0796479
90	0xbd9da874	-0.076981455
91	0x3d700eec	0.05860798
92	0x3db95d50	0.09051001
93	0x3de38afa	0.11110492
94	0x3d8eb63e	0.06968354
95	0xbd9f0fd4	-0.07766691
96	0x3d75f3b0	0.06004685
97	0xbc998960	-0.018742263
98	0x3dceb5c8	0.10093266
99	0xbdb25378	-0.08707327
100	0xbda1798e	-0.07884513
101	0x3dab480a	0.0836335
102	0xbb2c1000	-0.0026254654
103	0xbd194478	-0.037418813
104	0xbd98d648	-0.07462746
105	0xbd021d10	-0.031765997
106	0x3dc816ae	0.09769951
107	0xbdb678f6	-0.0890979
108	0xbdf46f6a	-0.11935313
109	0xbd8cd846	-0.068771884
110	0x3dad51b4	0.08462849
111	0x3dcb467c	0.09925553
112	0x3d93e62e	0.07221638
113	0x3d2d884c	0.04236631
114	0xbc8b45e0	-0.017001092
115	0x3de1fa44	0.110340625
116	0x3d9fa79e	0.07795642
117	0x3dfb294e	0.122637376
118	0xbd55bf80	-0.05218458
119	0xbbcc9240	-0.0062430203
120	0x3d91482a	0.07093842
121	0xbd826a78	-0.063679636
122	0x3df5c8a6	0.12001161
123	0x3c8d5130	0.017250627
124	0x3dcd5dae	0.100276336
125	0xbdc3173a	-0.095259145
126	0x3de87374	0.11350146
127	0x3d36881c	0.044563398
128	0xbf29cd7a	-0.6632916
129	0x3d4fc3ec	0.050723955
130	0x3dc8271d	0.09773085
131	0xbe5309af	-0.20609163
132	0x3e36f7b5	0.1786793
133	0xbc124f88	-0.008930095
134	0xbee5222b	-0.4475263
135	0x3dced4e5	0.100992
136	0x3d7ec5ea	0.062200464
137	0x3db53c6d	0.08849416
138	0x3de3ae20	0.11117196
139	0xbe4c30cd	-0.19940491
140	0x3ef86cb0	0.48520422
141	0x3e82b728	0.25530362
142	0x3d7f7750	0.062369645
143	0x3ea55c4e	0.32296985
144	0xbe52109f	-0.20514153
145	0x3ea922d2	0.33034378
146	0x3e18fac3	0.14939408
147	0x3e42fb35	0.1904114
148	0x3e287fe7	0.16455041
149	0x3d4aad1b	0.049481492
150	0xbe069dc4	-0.1314612
151	0x3f02dea2	0.5112096
152	0xbea8e6f0	-0.3298869
153	0xbeedbd6d	-0.46433583
154	0x3d6aeb2e	0.05735319
155	0x3edcfffb	0.43164048
156	0xbe2aec32	-0.16691664
157	0xbec5a009	-0.3859866
158	0x3e509195	0.20368035
159	0xbde0fff3	-0.109863184
160	0x3e2aade7	0.16667901
161	0xbe06f50f	-0.1317942
162	0x3c63059e	0.01385632
163	0xbd73c001	-0.05950928
164	0xbcc26549	-0.023729937
165	0xbcf0ca74	-0.029393412
166	0x3c5dc704	0.013536219
167	0x3e16c92e	0.14725181
168	0x3db50010	0.088379025
169	0xbd0261a9	-0.031831417
170	0xbe52cf74	-0.2058695
171	0x3d723bbd	0.059139002
172	0xba5aa6ac	-0.0008340876
173	0x3d0e578b	0.034751456
174	0x3ecd1e0b	0.40061983
175	0x3d2b9feb	0.041900557
176	0xbe2f349c	-0.17109913
177	0x3e3c81a0	0.18408823
178	0xbea4e2ac	-0.32204187
179	0x3dd3cd8c	0.10341939
180	0x3e6dd038	0.2322396
181	0x3d260186	0.040528797
182	0x3da0e73c	0.078566045
183	0x3e055a2c	0.13022679
184	0xbccb27d4	-0.024799265
185	0x3da316ab	0.07963308
186	0x3e5f280c	0.2179262
187	0x3c2d79a3	0.0105880825
188	0x3d64ec7b	0.055889588
189	0xbe1daea4	-0.15398651
190	0xbe514108	-0.20434964
191	0x3e91e580	0.28495407
192	0x3e23f6a9	0.16012062
193	0x3ea5faaf	0.3241782
194	0x3e84e833	0.25958404
195	0x3e74866f	0.23879407
196	0x3e7f7bb4	0.24949533
197	0x3e960752	0.2930246
198	0x3dfb1e00	0.122615814
199	0x3e567964	0.20944744
200	0x3de4fa32	0.111805335
201	0x3e2baf82	0.1676617
202	0x3e48ab4d	0.19596596
203	0x3d701f15	0.058623392
204	0x3e13be85	0.14428146
205	0x3d4cad6d	0.04997008
206	0x3ec1fb61	0.378871
207	0x3d371b05	0.044703502
208	0x3e07ec5a	0.13273755
209	0x3e71e5d1	0.23622824
210	0xbd83391b	-0.064073764
211	0x3eb5039e	0.35354322
212	0x3dfd7ad8	0.12376946
213	0x3ec6a939	0.38800982
214	0x3e3bc5c4	0.1833716
215	0x3e27c4d3	0.16383676
216	0x3db39ce5	0.0877016
217	0x3df472f0	0.11935985
218	0x3e59ca8f	0.21268676
219	0x3e6a37fa	0.22872916
220	0x3e1a7c1d	0.15086408
221	0x3e6caa4e	0.23111841
222	0x3d878221	0.06616617
223	0x3e7982da	0.24366322
224	0xbccd3977	-0.025051815
225	0x3dd535d1	0.10410655
226	0x3e28e29b	0.16492693
227	0x3e830c15	0.25595155
228	0x3e38d2a0	0.18049097
229	0x3e6992f9	0.22809972
230	0x3d9a0c79	0.0752191
231	0x3b4a120e	0.0030833515
232	0x3dc63527	0.09678107
233	0x3df116f1	0.11771954
234	0x3d2e416b	0.042542856
235	0x3e826fa6	0.25475806
236	0x3d3b3a43	0.04570986
237	0x3e819154	0.2530619
238	0x3e825027	0.25451776
239	0x3e66565e	0.22493884
240	0x3c60fb93	0.013731855
241	0x3cbc784f	0.023006586
242	0x3e9f36fc	0.31096637
243	0x3e03cbc8	0.12870705
244	0x3da7e002	0.08197023
245	0x3e14972b	0.14510791
246	0x3e60eae9	0.21964611
247	0x3e9be1aa	0.30445606
248	0x3ea3c6fa	0.31987745
249	0x3eb717f4	0.35760462
250	0x3ec3babc	0.38228405
251	0x3e990b47	0.29891416
252	0x3e5d7dae	0.21629974
253	0xbc5cb737	-0.013471416
254	0x3e75cfcc	0.2400505
255	0x3e6fd555	0.23421223

denseTS_inner0.weight f4 [64, 64]
0	0x3dee9d8a	0.11651142
1	0x3d689d1b	0.056790452
2	0x3e2e1d65	0.170034
3	0xbe3f3885	-0.18673904
4	0x3da1d9e9	0.07902891
5	0x3e22bc92	0.15892246
6	0x3b9299d3	0.0044739037
7	0xbd94ee58	-0.07272023
8	0xbd55acdd	-0.05216681
9	0x3ab1f6b3	0.001357755
10	0xbe559b43	-0.20860009
11	0x3d73fee2	0.059569247
12	0xbd86f0d7	-0.06588905
13	0xbdafa430	-0.08576238
14	0xbd97f245	-0.07419256
15	0x3df4676a	0.11933787
16	0xbe08cb69	-0.13358845
17	0xbe35e9b8	-0.17764938
18	0x3d59dad5	0.05318721
19	0xbe3774db	-0.1791567
20	0xbd8d1307	-0.06888395
21	0x3d9592ca	0.073033884
22	0xbe1db40b	-0.15400712
23	0x3bc3acca	0.005971526
24	0xbdcece2a	-0.100979164
25	0xbda96e97	-0.082730465
26	0x3db997b4	0.09062138
27	0xbdb78830	-0.089615226
28	0x3cdee4fd	0.0272088
29	0xbdbca787	-0.09211641
30	0x3d865bf5	0.06560508
31	0x3d816f56	0.06320064
32	0x3d6e586b	0.05818979
33	0xbe8d22c0	-0.27565575
34	0xba1858bd	-0.0005811563
35	0xbd49d5f6	-0.049276315
36	0x3dba1ca0	0.09087491
37	0x3de0b9d7	0.10972946
38	0x3e4e9bf5	0.2017668
39	0x3dded41b	0.108803
40	0xbcdb6efa	-0.026786316
41	0x3e930f4e	0.28722614
42	0xbdb39dfe	-0.08770369
43	0xbbf27614	-0.00739933
44	0xbe189418	-0.14900243
45	0xbdb9ed9c	-0.090785235
46	0x3d16e8e6	0.036843203
47	0xbdf1df44	-0.11810163
48	0xbc6c429d	-0.014420179
49	0x3e852282	0.2600289
50	0xbe3c3d94	-0.18382865
51	0x3d57bfff	0.052673336
52	0x3dc26191	0.094912656
53	0xbe064258	-0.13111246
54	0x3e6157f5	0.22006209
55	0x3d53213f	0.051545378
56	0xbdf48bae	-0.11940704
57	0xbd75853f	-0.059941527
58	0xbeae64a8	-0.3406117
59	0x3e3ff6d5	0.18746503
60	0xbe72bacf	-0.23704074
61	0x3aebdefb	0.001799553
62	0xbc601b1c	-0.013678338
63	0x3c5dc2fc	0.013535257
64	0xbe293f7a	-0.1652812
65	0xbd3caec6	-0.046065114
66	0x3c405a22	0.011740239
67	0xbdf8f672	-0.12156381
68	0x3dd57fc3	0.10424759
69	0x3db06a03	0.0861397
70	0xbd29f18a	-0.041490115
71	0x3de0cfb0	0.10977113
72	0x3d1381b3	0.036012363
73	0xbb128aba	-0.002236052
74	0xbc12e5b9	-0.008965903
75	0x3ad2c124	0.0016079289
76	0x3d117c27	0.03551879
77	0x3ce028dd	0.027363235
78	0xbe2dded6	-0.16979536
79	0x3db5e95e	0.08882402
80	0xbd51fed3	-0.05126841
81	0x3d0f3f52	0.034972496
82	0x3dbfd9bc	0.093677014
83	0xbd6d7fb9	-0.057983134
84	0xbc197904	-0.009367231
85	0x3e73887a	0.2378253
86	0xbe2f70e7	-0.17132913
87	0x3e24579f	0.1604905
88	0xbe08ffc3	-0.13378815
89	0xbe312d9c	-0.17302555
90	0x3e59ee7e	0.21282384
91	0x3dbce04f	0.09222471
92	0x3d362d3a	0.044476725
93	0x384adeba	4.8367983e-05
94	0x3d93f59f	0.07224583
95	0x3aa5e98a	0.0012658101
96	0x3df46948	0.11934143
97	0xbda5d6f3	-0.08097639
98	0xbda6a399	-0.081366725
99	0xbcd614f4	-0.026133038
100	0xbe02b01a	-0.1276249
101	0xbc3b8553	-0.011445361
102	0xbd509779	-0.050925706
103	0x3e319a05	0.1734391
104	0x3dd495fc	0.1038017
105	0xbe16d9e3	-0.14731555
106	0xbd5f560e	-0.054525428
107	0x3ded284c	0.11579952
108	0x3d0c8890	0.034309924
109	0xbd64a659	-0.055822704
110	0x3de8c3c5	0.11365465
111	0x3d7fba09	0.062433276
112	0x3d637efc	0.055541024
113	0x3dbf504a	0.09341486
114	0xbe0030ab	-0.12518565
115	0xbdbb8695	-0.09156529
116	0x3dee45c7	0.11634403
117	0xbd3f6ff9	-0.046737645
118	0x3d7b6a45	0.061380643
119	0xbc08e579	-0.008355492
120	0xbe8a5087	-0.27014562
121	0x3e1ac076	0.1511248
122	0xbe24b525	-0.16084726
123	0x3e8116f5	0.25212827
124	0x3b27d99c	0.0025611883
125	0xbc923102	-0.017845634
126	0xbe360764	-0.17776257
127	0x3e3919f6	0.1807631
128	0xbe99928c	-0.2999462
129	0xbd271d2d	-0.04079931
130	0xbe48f6ce	-0.19625399
131	0x3e88f744	0.2675115
132	0x3e59f70f	0.21285652
133	0xbdad9f24	-0.08477619
134	0xbe8d0af3	-0.27547416
135	0x3e2f96db	0.1714739
136	0x3e5cb7a8	0.21554434
137	0x3e0f8d0f	0.14018653
138	0x3e41dfd5	0.18933041
139	0xbe6b02a0	-0.2295022
140	0x3e842afb	0.25814041
141	0x3e93fda0	0.28904438
142	0x3e0c239b	0.13685457
143	0x3d817d65	0.06322745
144	0xbba066c7	-0.0048950645
145	0x3e223058	0.15838754
146	0x3e1ae982	0.15128139
147	0x3df8fa5f	0.121571295
148	0xbd975463	-0.07389142
149	0xbe359d18	-0.17735708
150	0xbe5d967b	-0.21639435
151	0x3e6268fe	0.22110364
152	0xbdec9704	-0.115522414
153	0xbe11ee87	-0.14251147
154	0x3d80c661	0.06287838
155	0x3e79ab46	0.24381742
156	0xbe6b153f	-0.22957323
157	0xbe85db7a	-0.2614401
158	0x3e5d3375	0.2160166
159	0xbda0defb	-0.0785503
160	0x3cab1432	0.020883653
161	0x3e524826	0.20535335
162	0xbe02b7e8	-0.12765467
163	0x3d207025	0.03916945
164	0x3d9e2f23	0.07723834
165	0xbe34a06e	-0.17639324
166	0xbba0714a	-0.0048963176
167	0xbe57594e	-0.21030161
168	0x3e115950	0.14194226
169	0xbe93751a	-0.2880028
170	0xbe72c683	-0.23708539
171	0x3cc74509	0.02432491
172	0x3d8f132b	0.06986078
173	0x3e47d984	0.1951657
174	0x3e7b5344	0.24543482
175	0x3e8fc29a	0.28078157
176	0xbe3b29df	-0.18277691
177	0xbc894c6d	-0.016760075
178	0xbe8bb4f9	-0.2728651
179	0xbb00e9d0	-0.0019670613
180	0x3e0a6ed7	0.13518845
181	0x3d085788	0.0332866
182	0xbdd8473a	-0.105604604
183	0x3e5eac2a	0.21745363
184	0x3d82fcdb	0.063958846
185	0x3e144500	0.14479446
186	0x3e638e37	0.2222222
187	0xbe1b2941	-0.15152456
188	0x3e6f068e	0.23342344
189	0xbc0d02f9	-0.008606666
190	0xbe5ee3f2	-0.21766642
191	0x3e310894	0.17288429
192	0xbdf7b39f	-0.12094807
193	0x3d88ec31	0.06685675
194	0xbca74d1c	-0.02042251
195	0xbaf44807	-0.0018637188
196	0x3dd1e983	0.10249617
197	0x3e003a73	0.12522297
198	0x3d8bba89	0.06822688
199	0xbe1ebfb0	-0.1550281
200	0xbde454f1	-0.11149014
201	0x3e31954d	0.1734211
202	0x3ce6b749	0.028163569
203	0xbe07a8cf	-0.13247989
204	0xbcf6cd68	-0.030127242
205	0x3e172fe4	0.14764363
206	0x3e9a5312	0.30141503
207	0xbdd003ab	-0.101569496
208	0xbd0046ec	-0.031317636
209	0xbd1ad1cf	-0.037797745
210	0x3d9c8010	0.076416135
211	0x3e72a59d	0.23695989
212	0x3de8cdaf	0.11367356
213	0xbec4cd7c	-0.38438022
214	0x3e44cf15	0.1921962
215	0x3b547f3f	0.0032424477
216	0x3ca6be85	0.020354519
217	0xbd72b5c8	-0.05925539
218	0x3e5d3c4a	0.2160503
219	0xbd9ddf82	-0.07708646
220	0xbd95c702	-0.07313348
221	0xbd6fe802	-0.05857087
222	0xbbeca516	-0.007221828
223	0x3e087560	0.13326025
224	0x3ce11d5c	0.02747982
225	0xbdd0a841	-0.10188342
226	0x3edadbc3	0.4274579
227	0xbb3a7860	-0.0028453097
228	0x3c75f132	0.015011119
229	0xbdf29046	-0.11843924
230	0x3da65b21	0.0812285
231	0xbdfdb9af	-0.12388932
232	0x3dd94825	0.106094636
233	0x3d284c7f	0.041088577
234	0x3db1210f	0.086488836
235	0xbedd3f39	-0.43212298
236	0x3d81995d	0.0632808
237	0xbd8a9936	-0.06767504
238	0xbdd0cedf	-0.101957075
239	0x3c742707	0.014901883
240	0x3cfcfc2b	0.030881962
241	0x3e9ec537	0.31009838
242	0x3db6bc8c	0.08922681
243	0x3e1391e4	0.14411122
244	0x3c998f44	0.018745072
245	0x3dc76f96	0.0973808
246	0xbf10d0e0	-0.5656872
247	0x3d3af5c0	0.04564452
248	0x3ec66396	0.38747853
249	0x3ca34539	0.019930469
250	0x3e945b96	0.28976125
251	0xbd3c1442	-0.045917757
252	0xbdd6afe4	-0.10482767
253	0xbd896bbb	-0.06710001
254	0xbda1a6eb	-0.07893165
255	0x3db3b698	0.08775061

denseTS_inner0.bias f4 [64]
0	0x3de829d4	0.11336103
1	0x3db0041b	0.08594533
2	0x3daf7860	0.085678816
3	0xbd7ead96	-0.062177263
4	0x3d7e6d6b	0.062116068
5	0x3e4cdfc9	0.20007242
6	0xbd2c61e8	-0.04208556
7	0x3d87fae8	0.066396534
8	0x3dae6188	0.08514696
9	0xbcada3a7	-0.0211962
10	0x3e6202c7	0.22071372
11	0xbd8546c6	-0.065076396
12	0xbd3a92d8	-0.045550197
13	0xbdd8dffc	-0.10589597
14	0x3cbdbf49	0.023162501
15	0xbde6cc2d	-0.11269412
16	0x3d094c4e	0.033520035
17	0xbc051431	-0.00812249
18	0xbd7e77c2	-0.06212593
19	0x3d524159	0.05133185
20	0x3e59ee67	0.2128235
21	0xbb2a4f64	-0.0025987262
22	0x3c8bed4b	0.017080924
23	0x3d146512	0.0362292
24	0xbcd5621b	-0.026047757
25	0x3e733f44	0.23754603
26	0xbdfa70ce	-0.12228547
27	0xbdb52e8a	-0.08846767
28	0x3ddadf6c	0.106871456
29	0x3d9d2b9d	0.07674334
30	0x3e99c4c2	0.30032927
31	0xbd6cd365	-0.05781879
32	0x3d7c975d	0.06166779
33	0x3e50c530	0.20387721
34	0x3e7b8813	0.24563627
35	0xbdda036f	-0.10645186
36	0x3e364661	0.17800285
37	0xbdf9d918	-0.121996105
38	0x3e1dfa51	0.1542752
39	0x3de52885	0.11189369
40	0x3d7ec6f5	0.06220146
41	0xbe1d4378	-0.15357769
42	0x3c2bc79f	0.010484605
43	0xbd1d670c	-0.03842835
44	0xbd9d2d56	-0.07674663
45	0xbd831810	-0.06401074
46	0x3e289960	0.16464758
47	0x3d46f50f	0.04857355
48	0x3d2d3010	0.042282164
49	0x3c9b29bc	0.018940799
50	0x3d9be663	0.07612302
51	0x3dad69df	0.08467459
52	0xbd4b15e8	-0.04958144
53	0xbd14af05	-0.036299724
54	0x3e0da8ee	0.13833973
55	0x3cdba0ee	0.026810136
56	0xbdd6da1c	-0.1049082
57	0x3d68fecc	0.05688362
58	0x3dd7a4c8	0.105294764
59	0x39408d41	0.00018363168
60	0x3d84301c	0.06454489
61	0x3cc4fd29	0.024046497
62	0x3c311de9	0.010810354
63	0xbdb2671b	-0.08711072

post_comb_dense1.weight f4 [64, 128]
0	0x3d649e91	0.055815283
1	0xbc63bff8	-0.013900749
2	0x3e237bc9	0.15965189
3	0x3dabac63	0.083824895
4	0xbe6db98c	-0.23215312
5	0x3d08889c	0.033333406
6	0x3e6c2246	0.2305995
7	0x3d1a74b5	0.037708957
8	0x3cea8578	0.028628096
9	0x3ddbe467	0.10736924
10	0x3e3cef48	0.18450654
11	0xbdda65e3	-0.106639646
12	0x3e0aeb06	0.13566217
13	0x3d0a4e0e	0.033765845
14	0x3dccf004	0.10006717
15	0xbd1886ef	-0.037238058
16	0x3e3b4d03	0.18291096
17	0x3db18e0f	0.08669674
18	0xbcd72716	-0.026263755
19	0x3ead0a82	0.3379708
20	0x3e4a5c2d	0.19761725
21	0x3e38a0b2	0.1803005
22	0xbf954f37	-1.16648
23	0x3dd0dcd3	0.10198369
24	0xbfe36d33	-1.77677
25	0x3df4a0de	0.119447455
26	0x3d3104c6	0.043217443
27	0xbd02c07b	-0.031921845
28	0xbf2ae072	-0.66748726
29	0xbca1e188	-0.019760862
30	0xbd4f319a	-0.050584413
31	0x3e395518	0.18098867
32	0xbf32e161	-0.6987515
33	0x3d398466	0.04529228
34	0x3e160b1b	0.14652674
35	0x3be6ea80	0.0070469975
36	0x3e795560	0.24348974
37	0xbf9a4e8e	-1.2055223
38	0xbf9bbae9	-1.2166415
39	0x3e052dc9	0.13005747
40	0x3e38ca5e	0.18045947
41	0xbf820f40	-1.0160904
42	0x3e44f84d	0.19235344
43	0xbd791d88	-0.06081918
44	0xbf96cb4e	-1.1780794
45	0xbcef8150	-0.029236466
46	0x3d735a9e	0.05941259
47	0x3d9a21b1	0.075259574
48	0xbd768ef0	-0.06019491
49	0x3b025a00	0.001989007
50	0x3d8c8f6b	0.06863292
51	0xbfb0347c	-1.3766017
52	0x3e01f8bf	0.12692545
53	0xbfa5293f	-1.2903212
54	0x3dc3f43a	0.09568067
55	0xbdfcef2c	-0.12350306
56	0xbd94da20	-0.072681665
57	0xbd9be577	-0.07612126
58	0xbd95f770	-0.073225856
59	0x3dafc275	0.085820116
60	0x3e38f2ed	0.18061419
61	0x3d04ea28	0.03244987
62	0x3d8087bf	0.062758915
63	0xbca3565c	-0.01993864
64	0x3e3a2053	0.18176393
65	0x3eb38e17	0.35069343
66	0x3e49eea2	0.19719937
67	0x3ecf0bbe	0.40438646
68	0xbec9b497	-0.39395592
69	0x3dee4a93	0.11635318
70	0xbf2fb215	-0.68631107
71	0xbfa1dcea	-1.2645543
72	0xbe9ab88f	-0.30218932
73	0x3e8ff7aa	0.2811864
74	0x3e2e7155	0.1703542
75	0xbe402079	-0.18762387
76	0x3f13f688	0.5779805
77	0x3cfcb50c	0.030848049
78	0xbf8069f5	-1.0032336
79	0xbea999a0	-0.3312502
80	0x3f15da4f	0.5853624
81	0xbf9a9201	-1.2075807
82	0xbfb2baae	-1.396322
83	0xbfbf7947	-1.4958886
84	0x3ec425c6	0.3831007
85	0xbf083100	-0.5319977
86	0x3b38e8ec	0.0028215004
87	0xbe9b854f	-0.30375144
88	0xbf459db0	-0.7719374
89	0x3f069acf	0.5257997
90	0xbcc326f8	-0.023822293
91	0x3ddfa468	0.1092003
92	0x3e12b265	0.14325865
93	0xbe8a1257	-0.26967117
94	0x3e41bb05	0.18918999
95	0x3f31ad40	0.69404984
96	0x3dbb52cc	0.091466516
97	0x3e616d36	0.22014317
98	0x3e1ddb2c	0.15415639
99	0x3eafa462	0.34305102
100	0x3e3fb4b2	0.18721274
101	0xbc4233a0	-0.011853129
102	0xbe076d77	-0.13225351
103	0xbf00e562	-0.5035001
104	0xbf1739ed	-0.5907276
105	0xbee255de	-0.44206136
106	0xbd3b379d	-0.045707334
107	0xbe891f49	-0.2678168
108	0xbfc49440	-1.5357742
109	0xbb777b60	-0.0037762746
110	0x3e277268	0.16352236
111	0x3eb48493	0.35257396
112	0xbf30619b	-0.68898934
113	0x3e40fe2a	0.18846956
114	0xbfbd09b8	-1.4768591
115	0xbf727766	-0.9471344
116	0x3d8ecdcb	0.06972846
117	0xbf0928ea	-0.53578055
118	0x3d8da2f9	0.0691585
119	0xbfc05cfb	-1.5028375
120	0x3f2ba3b5	0.6704667
121	0xbf94e700	-1.1632996
122	0xbf499087	-0.78736156
123	0xbfdf9bde	-1.7469442
124	0xbff70721	-1.929905
125	0xbf97ba98	-1.1853819
126	0xbf4f4280	-0.80960846
127	0xbe9906ae	-0.2988791
128	0x3dfa2f9b	0.12216111
129	0x3d914a25	0.0709422
130	0x3d1ee7c0	0.038795233
131	0xbc8ff430	-0.017572492
132	0xbe42fe87	-0.19042407
133	0x3d87f0af	0.066377036
134	0x3e92473a	0.28569967
135	0x3e66f548	0.22554505
136	0x3db3c80e	0.08778392
137	0x3d8cb6a2	0.06870772
138	0x3e46b80f	0.1940615
139	0xbca95768	-0.020671561
140	0x3deba37d	0.11505792
141	0xbd615061	-0.055008296
142	0x3e3df289	0.18549551
143	0x3cf6a87c	0.030109636
144	0x3e3b0a0d	0.18265553
145	0x3d447836	0.047966205
146	0x3d3733de	0.0447272
147	0x3e7c8332	0.24659422
148	0x3ddb9e59	0.10723562
149	0x3deafdd7	0.11474197
150	0xbfaaf418	-1.3355742
151	0x3e254746	0.1614047
152	0xc00ea8d4	-2.2290545
153	0x3e4c4802	0.19949344
154	0xbd93168d	-0.071820356
155	0xbd40efe5	-0.04710378
156	0xbf5e9c12	-0.86956894
157	0xbda48078	-0.08032316
158	0x3b512b20	0.0031916574
159	0x3e37a59f	0.17934273
160	0xbf0bcd06	-0.54609716
161	0x3d0562b4	0.032564834
162	0x3e5b0291	0.21387698
163	0x3d0ab7c6	0.033866666
164	0x3e2a5ac7	0.16636191
165	0xbfc9e3da	-1.577266
166	0xbf86aee8	-1.0522127
167	0x3e2063ba	0.15663043
168	0x3e3c285f	0.18374775
169	0xbfbe8584	-1.4884496
170	0x3e2c3431	0.16816784
171	0x3d915cc3	0.07097771
172	0xbf8fc637	-1.1232365
173	0x3d75d33e	0.06001591
174	0x3d5f7c56	0.054561935
175	0xbdae6762	-0.085158125
176	0xbda3d411	-0.07999433
177	0xbb87c6b0	-0.0041435584
178	0xbc9d5600	-0.019206047
179	0xbf9cbef8	-1.2245779
180	0x3d6b00fa	0.05737398
181	0xbfe7a640	-1.809761
182	0x3e11c1cd	0.14234085
183	0xbe9d0930	-0.30671072
184	0x3c29b780	0.010358691
185	0x3ca5f380	0.020257711
186	0x3cdb7f9c	0.026794247
187	0x3e3994b8	0.18123138
188	0x3de0944a	0.10965784
189	0xbc01478a	-0.007890591
190	0x3d3f1dba	0.04665921
191	0xbd49d9c8	-0.049279958
192	0x3dbaa28d	0.09113035
193	0x3ed6df0a	0.4196704
194	0x3eaaf1d9	0.3338764
195	0x3f1074f4	0.56428456
196	0xbee9d37c	-0.45669162
197	0x3e7f5eeb	0.24938552
198	0xbed7a311	-0.42116597
199	0xbf9faff5	-1.2475573
200	0xbea82216	-0.32838506
201	0x3ecf3de1	0.40476897
202	0x3e8e62e5	0.27809826
203	0xbe4bd796	-0.19906458
204	0x3eed6bc3	0.46371278
205	0x3d3e62a2	0.046480782
206	0xbf62cb37	-0.8859133
207	0xbe933e57	-0.287585
208	0x3f0ffc78	0.5624461
209	0xbf9ffeb2	-1.2499602
210	0xbfe4fd0a	-1.7889721
211	0xbfa8317f	-1.3140105
212	0x3ecb5fef	0.3972163
213	0xbeef986e	-0.46795982
214	0x3e1f78bd	0.15573402
215	0xbe7ccb97	-0.24687038
216	0xbf664978	-0.89955854
217	0x3eb23e65	0.34813228
218	0xbc92b9a0	-0.017910779
219	0x3e835a7f	0.2565498
220	0x3e515417	0.20442234
221	0xbe5642bb	-0.20923893
222	0x3e7d4948	0.24734986
223	0x3f6678a8	0.90027857
224	0x3e3b6dca	0.183036
225	0x3e8a63e5	0.27029338
226	0x3e4d639d	0.2005753
227	0x3ed7046f	0.4199557
228	0x3ea2fad4	0.31831992
229	0xbdabea71	-0.083943255
230	0xbea62f98	-0.32458186
231	0xbe6f0e22	-0.23345235
232	0xbe9a354e	-0.30118793
233	0xbedc2244	-0.42994893
234	0xbdb54e9f	-0.088528864
235	0xbe939a86	-0.2882883
236	0xbfaa8616	-1.332217
237	0xbbb903a0	-0.005646184
238	0x3e9805a6	0.2969181
239	0x3ea8f31a	0.32997972
240	0xbeceeb00	-0.40413666
241	0x3e13367c	0.14376253
242	0xbf9a5479	-1.2057029
243	0xbf0115a3	-0.5042364
244	0x3d58d6be	0.05293917
245	0xbf00b2d6	-0.5027288
246	0x3d7d3f19	0.061827753
247	0xbfba315f	-1.4546317
248	0x3f1969a7	0.5992684
249	0xbfa146f1	-1.2599775
250	0xbee91edb	-0.45531353
251	0xbfeafd5d	-1.835857
252	0xbfe241df	-1.7676352
253	0xbf3cf7de	-0.73815715
254	0xbf36be00	-0.71383667
255	0xbe06521a	-0.13117257
