tud_rl/topguy.pth (torch, 503375 bytes, 32 tensors)

denseOS_inner0.weight f4 [64, 7]
0	0x3c706580	0.014672637
1	0xbe820414	-0.25393736
2	0x3e87c740	0.26519203
3	0x3f10f5da	0.5662514
4	0x3eba8141	0.36426738
5	0x3e163d62	0.14671853
6	0x3e4c6934	0.19962007
7	0xbe861f76	-0.26195878
8	0x3b469617	0.0030301863
9	0x3decc70b	0.11561402
10	0x3f6d4bdd	0.92693883
11	0x3f00fbf6	0.5038446
12	0x3ef6f991	0.4823728
13	0xbe84e35c	-0.2595471
14	0x3e00cdfd	0.12578578
15	0xbd699490	-0.057026446
16	0x3d47f99c	0.04882203
17	0x3ddfd5c0	0.109294415
18	0x3d7fb222	0.06242574
19	0xbf772b84	-0.96550775
20	0x3d7dcbc5	0.061961908
21	0xbead1dc0	-0.3381176
22	0x3e694e92	0.22783878
23	0xbdb48531	-0.08814467
24	0xbf097a42	-0.53702176
25	0xbf3a476b	-0.72765225
26	0x3ea7b93a	0.32758504
27	0x3db22189	0.086978026
28	0xbe3c88d5	-0.18411572
29	0x3e257bab	0.16160457
30	0xbd2c2403	-0.04202653
31	0xbf0ce0e1	-0.5503064
32	0x3e0584ac	0.13038892
33	0xbee2ad86	-0.44273013
34	0xbe981a9a	-0.29707795
35	0xbda11c5d	-0.07866738
36	0xbe240cec	-0.16020554
37	0xbd2c9420	-0.04213345
38	0x3ed733ba	0.42031652
39	0x3e986d88	0.29771066
40	0x3ec07a1f	0.3759317
41	0x3e60054e	0.21877024
42	0xbe906750	-0.2820382
43	0x3e28c26c	0.16480416
44	0x3e5501bf	0.20801447
45	0xbebb288d	-0.36554375
46	0x3e429cdf	0.19005154
47	0xbde19516	-0.11014764
48	0xbe81f0fe	-0.25379175
49	0xbd8d66cc	-0.069043726
50	0xbdd57c14	-0.10424057
51	0xbe68c757	-0.22732292
52	0xbf3e3d55	-0.74312335
53	0xbe990c26	-0.2989208
54	0x3f94edd4	1.1635079
55	0x3ec744c0	0.3891964
56	0xbef5b746	-0.4799139
57	0x3e61eb4f	0.2206242
58	0x3dcee777	0.10102742
59	0x3ea5fb32	0.3241821
60	0x3ea2a33c	0.31765163
61	0xbdacc0fc	-0.08435246
62	0xbc73feb5	-0.01489227
63	0x3ed416b1	0.41423562
64	0x3ed6bc81	0.41940692
65	0x3d488c46	0.0489619
66	0xbf3102e3	-0.6914503
67	0xbddc3718	-0.10752696
68	0x3f5ef2eb	0.87089413
69	0x3d6d073c	0.057868227
70	0xbe86debd	-0.2634181
71	0x3ea4100d	0.32043496
72	0xbdfc4a89	-0.12318904
73	0x3d9012e6	0.070348546
74	0xbdec3b54	-0.115347534
75	0x3ca46924	0.020069666
76	0x3c1ebb53	0.009688216
77	0xbea85d28	-0.32883573
78	0xbcf53711	-0.029933484
79	0x3e96f494	0.29483473
80	0x3f7c104f	0.98462385
81	0x3db719aa	0.08940442
82	0x3efc234b	0.49245676
83	0x3b05af97	0.002039885
84	0x3e4e42bd	0.20142646
85	0xbe1438ca	-0.14474788
86	0xbe133437	-0.14375387
87	0xbf80e0ea	-1.0068638
88	0xbf1c854d	-0.611409
89	0x3f44da93	0.7689602
90	0xbea1d40e	-0.31607097
91	0xbe8b67ab	-0.2722753
92	0xbde78b7c	-0.113059014
93	0x3de099e7	0.109668545
94	0x3ef46e38	0.4774034
95	0x3e723bfc	0.23655695
96	0xbe984782	-0.29742056
97	0x3e806852	0.2507959
98	0xbea1e05d	-0.31616488
99	0x3ed6640d	0.41873208
100	0x3e91f000	0.28503418
101	0xbc7c2089	-0.015388616
102	0x3be812ee	0.0070823347
103	0xbf7db874	-0.9910958
104	0xbdb26490	-0.08710587
105	0xbe676a84	-0.22599226
106	0x3de0f373	0.10983934
107	0x3e8ca3df	0.27468774
108	0xbcca4b5b	-0.024694135
109	0xbe2bf207	-0.16791545
110	0x3e927b58	0.2860973
111	0x3e824c52	0.25448853
112	0xbe460473	-0.19337635
113	0x3d21572b	0.03938977
114	0xbd92e285	-0.071721114
115	0x3edae41f	0.42752168
116	0x3eb05e85	0.34447113
117	0xbf08a45a	-0.5337578
118	0x3d4ca355	0.049960453
119	0xbc55689c	-0.013025429
120	0x3e82f828	0.25579953
121	0xbc192c52	-0.009348946
122	0x3fc46794	1.534411
123	0x3f81108e	1.0083177
124	0xbed51a67	-0.41621706
125	0x3e9d5b76	0.30733842
126	0x3ef27b86	0.47359866
127	0x3e985b4f	0.29757163
128	0xbe8c79c5	-0.27436653
129	0xbf1c4c84	-0.61054254
130	0xbeb6503c	-0.3560809
131	0xbf27ad1c	-0.6549852
132	0x3d7db966	0.061944388
133	0xbd045384	-0.03230621
134	0x3e3732c7	0.17890464
135	0x3e55f059	0.20892467
136	0x3f457813	0.77136344
137	0x3e3d0312	0.18458202
138	0x3ed0e40a	0.4079898
139	0x3c8b19bc	0.016980045
140	0x3e5e44d7	0.21705948
141	0xbd1422f6	-0.036166154
142	0x3df3b44c	0.11899623
143	0x3ee9ebe4	0.45687783
144	0x3eb547f8	0.3540647
145	0xbddd7283	-0.10812857
146	0x3f4ada18	0.79239035
147	0x3d2a82fd	0.041628826
148	0xbdea9174	-0.11453524
149	0x3e813609	0.25236538
150	0x3fb4ba46	1.4119346
151	0x3eb7c13c	0.35889614
152	0x3f5fb1af	0.873805
153	0xbde6a4ac	-0.112618774
154	0x3e2ff5f6	0.1718367
155	0x3d982f7a	0.074309304
156	0xbd4a3eba	-0.049376227
157	0x3f84206a	1.0322392
158	0x3f2ee866	0.6832336
159	0xbb341b2c	-0.0027482016
160	0xbe203662	-0.15645745
161	0xbde0e1d4	-0.10980573
162	0xbeb05500	-0.3443985
163	0xbd6b9c39	-0.057522032
164	0x3f2bce4a	0.6711165
165	0x3e4b9189	0.19879736
166	0x3b105879	0.002202539
167	0xbebcd9c7	-0.368849
168	0xbe6d4227	-0.23169766
169	0x3dc7a8d6	0.09749
170	0x3dc5cead	0.09658561
171	0x3d5248bc	0.051338896
172	0xbef70ec7	-0.48253462
173	0x3da1d9cb	0.07902869
174	0x3ec5abad	0.3860754
175	0xbcd7430a	-0.026277084
176	0xbc7f2357	-0.0155723905
177	0xbcdbc194	-0.026825704
178	0x3e7868d7	0.24258743
179	0x3dd12138	0.10211414
180	0xbed8441f	-0.42239472
181	0x3d2a4120	0.041566014
182	0x3ee943c8	0.45559525
183	0x3e00678a	0.12539497
184	0xbdb6775d	-0.089094855
185	0xbf65b70d	-0.8973244
186	0xbf6a8fd1	-0.91625696
187	0x3ee5e886	0.44903964
188	0x3e44923c	0.19196409
189	0x3e65482c	0.22390813
190	0x3ec79383	0.3897973
191	0x3e74e7fa	0.23916617
192	0xbdf1209a	-0.117737964
193	0x3e2aa078	0.16662776
194	0x3f4ff485	0.8123248
195	0xbea8c46e	-0.32962364
196	0x3eeac098	0.45850062
197	0xbeb9e765	-0.36309353
198	0xbd2758f2	-0.04085631
199	0x3dabfba6	0.083976075
200	0xbe739008	-0.23785412
201	0xbe26bb84	-0.16282469
202	0x3ea46bd7	0.32113525
203	0x3e80d773	0.25164375
204	0x3e9fec04	0.31234753
205	0x3cc2ef8e	0.02379587
206	0x3f14c36d	0.58110696
207	0x3ea24897	0.31696007
208	0xbe3e274e	-0.18569681
209	0x3d2f66c7	0.042822625
210	0xbe1c01ba	-0.15235034
211	0x3dd5a833	0.10432472
212	0x3ebe07ec	0.3711542
213	0x3dd34993	0.103167675
214	0xbde9822f	-0.11401784
215	0xbeecdb80	-0.46261215
216	0xbcbdcbe3	-0.02316851
217	0xbe42b5aa	-0.19014612
218	0x3e316983	0.17325406
219	0xbe073f16	-0.13207659
220	0xbeca1de3	-0.39475927
221	0xbeb63988	-0.35590768
222	0xbe2b0572	-0.16701296
223	0x3eb868b6	0.36017388
224	0x3ee2e688	0.44316506
225	0x3e8cf53a	0.27530843
226	0x3e529f01	0.20568468
227	0x3ec9e447	0.39431974
228	0x3edfa0b9	0.4367731
229	0x3b89ca3c	0.0042050164
230	0x3f39e0f0	0.7260885
231	0x3eb2fd70	0.34958982
232	0xbd432a90	-0.047648013
233	0x3e839fae	0.25707763
234	0x3f014f1b	0.5051133
235	0xbbc5ea62	-0.0060399035
236	0x3e862129	0.26197174
237	0x3ed7eaa5	0.42171207
238	0xbde111df	-0.10989737
239	0xbea51647	-0.3224356
240	0xbe48061b	-0.19533579
241	0xbe16ccf9	-0.14726628
242	0x3dd6923c	0.10477111
243	0xbf3f13cc	-0.7463958
244	0x3ea6f2d3	0.32607135
245	0xbe7f0ebd	-0.24907966
246	0xbeb2c694	-0.34917128
247	0x3d8d9b4b	0.069143854
248	0x3ec2dd07	0.38059255
249	0xbdacbb90	-0.08434212
250	0x3e66e5fc	0.2254867
251	0xbedba841	-0.42901805
252	0xb94199b1	-0.00018463169
253	0x3b6b89c3	0.0035940267
254	0xbdf96353	-0.12177148
255	0xbf2e08a6	-0.67981946

denseOS_inner0.bias f4 [64]
0	0xbe19c737	-0.150174
1	0x3e9789d7	0.2959735
2	0xbe87f3d0	-0.26553202
3	0x3df8b46f	0.1214379
4	0xbee8098f	-0.45319793
5	0xbea6a45d	-0.32547274
6	0xbea8afac	-0.32946527
7	0x3da34f12	0.07974066
8	0xbe45e345	-0.19324978
9	0x3e8332fa	0.2562483
10	0x3e47986f	0.19491743
11	0xbdda596b	-0.106615864
12	0xbdc40130	-0.09570539
13	0x3e6c4adb	0.2307543
14	0x3e5bb7a6	0.21456775
15	0xbe863efc	-0.26219928
16	0x3ee8c931	0.45465997
17	0xbc1802b0	-0.0092779845
18	0xbbd798ac	-0.006579479
19	0x3d528891	0.05139977
20	0x3e744239	0.23853387
21	0xbe5e01d2	-0.21680382
22	0x3e63b98d	0.22238751
23	0x3ea6d037	0.3258073
24	0x3eb1aec9	0.34703663
25	0x3e884b35	0.26619878
26	0x3ee6a48a	0.45047408
27	0xbe9bb6db	-0.30412945
28	0x3d8152af	0.06314599
29	0x3e2e5291	0.17023684
30	0xbd10324d	-0.03520422
31	0x3ec82f65	0.3909866
32	0xbdcdd9d0	-0.1005131
33	0xbd2c42a8	-0.042055756
34	0xbda0ddd7	-0.078548126
35	0x3e6e3dcc	0.23265761
36	0xbdf0d90d	-0.11760149
37	0x3db8ce55	0.0902373
38	0x3ed439f6	0.4145047
39	0x3e7556b1	0.23958851
40	0x3ee37e14	0.44432127
41	0x3cb60a02	0.022221569
42	0x3e8bd570	0.27311277
43	0x3e801c42	0.2502156
44	0xbeadc74b	-0.3394111
45	0xbea12c3c	-0.3147906
46	0x3eb48a75	0.35261884
47	0xbda85f33	-0.08221283
48	0xbdd05a87	-0.10173517
49	0x3e804b03	0.2505723
50	0xbe128cea	-0.14311567
51	0xbea89bda	-0.32931405
52	0x3ed31d26	0.41233176
53	0x3e48a054	0.1959241
54	0x3df8d2f2	0.121496096
55	0x3e2a490e	0.1662943
56	0x3e92de32	0.28685147
57	0xbebb6957	-0.36603805
58	0xbed0dc50	-0.40793085
59	0x3b8d41d9	0.004310828
60	0xbe571e2c	-0.21007603
61	0x3e8d15b7	0.2755563
62	0xbe37b416	-0.17939791
63	0x3e810339	0.2519777

LSTM_inner0.weight_ih_l0 f4 [256, 6]
0	0x3d38b91e	0.045098417
1	0xbdb65311	-0.089025624
2	0x3e3ebc4f	0.18626522
3	0x3e2d7baf	0.16941713
4	0x3d8fba08	0.070179045
5	0x3e3c9c4a	0.18418995
6	0xbddd7fdc	-0.10815403
7	0x3eaa20e3	0.33228216
8	0xbe46b63d	-0.19405456
9	0x3dd4f49b	0.10398217
10	0xbded9863	-0.11601331
11	0x3f07c417	0.53033584
12	0x3d448cb5	0.04798575
13	0x3f0cbe59	0.5497795
14	0xbf4262b1	-0.7593184
15	0xbd39d7c3	-0.045371782
16	0x3e9cb142	0.30603987
17	0x3e9c2474	0.30496562
18	0x3e13ec94	0.14445716
19	0x3efa1e8e	0.48851436
20	0xbe07ed0b	-0.13274018
21	0x3e2b149c	0.1670708
22	0x3de0e73b	0.10981604
23	0x3f144bf4	0.57928395
24	0x3d1e307c	0.038620457
25	0x3e8d8bf5	0.2764584
26	0xbd4dd5ba	-0.050252654
27	0xbd49aca8	-0.049236923
28	0x3e196400	0.14979553
29	0x3ed8849c	0.42288673
30	0x3c6b8e2e	0.01437716
31	0xbdafff4c	-0.08593616
32	0x3e20cec9	0.15703882
33	0x3e328dd3	0.17436914
34	0x3e292720	0.16518831
35	0x3e1b5c70	0.15171981
36	0xbe2737e3	-0.16329913
37	0x3aba933b	0.0014234552
38	0xbbfacb5e	-0.007653638
39	0xbc8eb897	-0.017422004
40	0xbd727995	-0.05919798
41	0x3e66296a	0.22476736
42	0x3da399e2	0.07988335
43	0x3c032ae0	0.008005828
44	0xbe391ac3	-0.18076615
45	0x3ce1d573	0.0275676
46	0xbcc3d153	-0.023903525
47	0xbe0443b1	-0.12916447
48	0x3d4b0b18	0.049571127
49	0xbec5d557	-0.38639328
50	0xbd9ff867	-0.07811051
51	0xbd31d8be	-0.043419592
52	0xbd71284b	-0.058876317
53	0x3e844c60	0.2583952
54	0x3c5945dd	0.013261286
55	0x3e451ab0	0.19248462
56	0x3d1ab138	0.037766665
57	0x3d1c0f72	0.038100667
58	0x3d094608	0.033514053
59	0x3e65ff34	0.22460634
60	0xbebcd11f	-0.36878297
61	0xbea125c5	-0.31474128
62	0xbedffe6e	-0.43748802
63	0x3d8982ae	0.06714378
64	0x3d75c152	0.059998818
65	0x3efb7749	0.49114445
66	0x3c428e88	0.011874802
67	0x3dcbd8d5	0.09953467
68	0xbdfa5372	-0.12222947
69	0x3df8f618	0.12156314
70	0x3d4948be	0.049141638
71	0x3e6724a0	0.22572565
72	0x3e5ccb7d	0.21562
73	0x3ea51f09	0.3225024
74	0xbeae38e3	-0.34027776
75	0x3c3f4b47	0.011675662
76	0x3ebac73e	0.36480135
77	0x3ebbcccc	0.36679685
78	0xbd6e59bf	-0.058191057
79	0xbe0188bf	-0.1264982
80	0x3deb3eea	0.11486609
81	0xbc653966	-0.013990736
82	0xbe0294dd	-0.127521
83	0x3ea07b3c	0.3134402
84	0x3d9d8c0f	0.0769273
85	0xbd7ed0e9	-0.06221095
86	0x3e07dd3d	0.1326799
87	0x3d877cc9	0.06615598
88	0x3d99e7a9	0.07514889
89	0x3ea1026a	0.31447154
90	0xbe2f24f9	-0.17103948
91	0x3f91a51d	1.1378514
92	0x3db0247b	0.08600708
93	0x3d7d6f4d	0.061873723
94	0x3da1dbda	0.079032615
95	0x3f0ed985	0.5580066
96	0x3e3d548d	0.18489285
97	0x3d8f2d33	0.06991043
98	0xbd42f7ad	-0.047599483
99	0x3ddd5a99	0.10808296
100	0xbde8179c	-0.11332628
101	0x3ec83d01	0.39109042
102	0x3d26bc34	0.04070683
103	0x3f09ebf1	0.53875643
104	0x3d89bd9e	0.0672562
105	0x3c25180d	0.010076535
106	0x3d984ce1	0.074365385
107	0x3f35f81e	0.7108172
108	0xbe0a501f	-0.13507126
109	0x3f2d5c34	0.67718816
110	0xbe7b3201	-0.24530794
111	0x3e06178e	0.13094923
112	0xbe01ab21	-0.12662937
113	0x3f199e9c	0.60007644
114	0xbe31b868	-0.17355502
115	0x3d8d57db	0.06901523
116	0xbd1a11b7	-0.03761455
117	0x3dbd8ec4	0.09255746
118	0x3d3654bd	0.044514406
119	0x3f128ee1	0.57249266
120	0x3db24ee0	0.087064505
121	0xbd870e9e	-0.06594585
122	0x3eb20fa0	0.34777546
123	0x3e09f744	0.1347323
124	0x3f0f160a	0.55893004
125	0x3ed87ba7	0.4228184
126	0x3e284ba3	0.16435103
127	0xbe654fa8	-0.22393668
128	0xbdd144aa	-0.10218175
129	0xbcce3688	-0.025172487
130	0x3e2caa67	0.16861878
131	0x3ebb052e	0.3652739
132	0x3e3f09cf	0.18656085
133	0xbe8a160c	-0.26969945
134	0xbef2ea92	-0.47444588
135	0x3e76d28b	0.24103753
136	0xbe838fc9	-0.25695637
137	0x3ebc0c05	0.3672792
138	0x3cab2a18	0.020894095
139	0x3e28b224	0.16474205
140	0xbcc898f5	-0.024486998
141	0xbc5d6421	-0.013512642
142	0x3dd0be83	0.10192587
143	0x3e8e89f5	0.27839628
144	0x3e3b0289	0.18262686
145	0xbe612f4a	-0.21990696
146	0xbdf45abc	-0.11931369
147	0x3d81e043	0.06341603
148	0x3d349321	0.044085626
149	0x3ec20483	0.37894067
150	0xbd70d5bf	-0.058797594
151	0x3ddd8b86	0.108176276
152	0x3e15f923	0.1464582
153	0x3d2f7606	0.042837165
154	0x3db7f367	0.08981972
155	0x3e91846b	0.2842134
156	0x3e279472	0.16365221
157	0x3dab5f2a	0.083677605
158	0x3da0b5f3	0.07847204
159	0x3e034031	0.12817456
160	0x3e048f26	0.12945232
161	0x3e3d2f77	0.18475138
162	0x3d668b6f	0.056285318
163	0xbe1b4912	-0.15164593
164	0x3ebdce36	0.3707139
165	0xbcf0e775	-0.029407242
166	0x3ea9135a	0.33022577
167	0x3e9d6852	0.30743653
168	0x3de61eda	0.11236353
169	0x3e30b88e	0.17257902
170	0x3e62f707	0.22164546
171	0xbd1f18dd	-0.03884207
172	0x3e464f67	0.19366227
173	0x3e8baafa	0.27278882
174	0xbea22437	-0.31668255
175	0x3c7765cb	0.015099953
176	0x3df9785d	0.121811606
177	0x3df4dcc5	0.11956171
178	0xbdb46354	-0.08808008
179	0x3ee59c0b	0.44845614
180	0x3abee60e	0.0014564411
181	0x3e23609b	0.15954821
182	0x3d6c5dcb	0.057706635
183	0x3ccdfa62	0.025143806
184	0xbda285d3	-0.07935681
185	0xbe386cc7	-0.18010245
186	0xbdd15222	-0.10220744
187	0x3e7dfa34	0.24802476
188	0xbdfdb26b	-0.12387546
189	0x3c74c6b1	0.01493995
190	0xbe1db069	-0.15399326
191	0x3f09e45b	0.5386407
192	0xbd1df01d	-0.038559068
193	0xbef313bc	-0.47475994
194	0xbecd23c2	-0.40066344
195	0x3b028379	0.001991479
196	0xbd388e64	-0.04505767
197	0x3ed79951	0.4210916
198	0xbd3b4dbd	-0.045728434
199	0xbdfe633a	-0.1242127
200	0xbd431eaa	-0.047636665
201	0x3e1faa16	0.15592226
202	0x3e2c6ca7	0.16838323
203	0x3ec2faaf	0.3808188
204	0xbde45003	-0.111480735
205	0x3e885b55	0.2663218
206	0x3e545779	0.20736493
207	0x3dacbf73	0.084349535
208	0x3c651f56	0.013984522
209	0x3edbd9fa	0.4293974
210	0xbbb83c09	-0.005622391
211	0x3dbfe33a	0.09369512
212	0xbcc24d8d	-0.02371862
213	0x3decf675	0.115704454
214	0x3e3a0b41	0.18168356
215	0x3e312e89	0.17302908
216	0x3e9cbbbe	0.30611986
217	0x3d3d3477	0.046192612
218	0xbcd55aa1	-0.026044192
219	0x3e649ef0	0.22326255
220	0xbc84c50b	-0.016207239
221	0x3d9de7e3	0.077102445
222	0x3ccc4ad7	0.02493803
223	0x3dc584a0	0.09644437
224	0xbe1deb70	-0.15421844
225	0x3e1b1431	0.15144421
226	0xbd05a011	-0.032623354
227	0x3e5757ca	0.21029583
228	0x3d7cd661	0.061727885
229	0x3e3b9152	0.18317154
230	0xbe4ca52f	-0.19984888
231	0xbc65cbb1	-0.014025615
232	0x3db336ac	0.08750662
233	0x3ca1d9fb	0.019757261
234	0xbdbd7b5d	-0.09252045
235	0xbdcd292a	-0.10017617
236	0xbd6767d2	-0.056495495
237	0xbcd36874	-0.025806643
238	0xbe0a3e13	-0.13500242
239	0x3e8d3149	0.27576664
240	0xbdf6632c	-0.12030634
241	0x3dc2fa93	0.095204495
242	0x3d915427	0.07096129
243	0xbd9a2e7a	-0.07528396
244	0xbc29f490	-0.01037325
245	0x3e901735	0.28142706
246	0xbd49b4eb	-0.049244802
247	0xbdaa8b82	-0.0832739
248	0xbe8ee38e	-0.27907985
249	0x3de3f093	0.1112987
250	0x3e16cc34	0.14726335
251	0x3e8c1d8c	0.27366292
252	0xbd848464	-0.06470564
253	0x3e3656ea	0.17806593
254	0x3dbb32f7	0.0914058
255	0x3d982174	0.07428256

LSTM_inner0.weight_hh_l0 f4 [256, 64]
0	0xbe76cee7	-0.24102364
1	0xbd748731	-0.05969924
2	0x3e1d5d0e	0.15367529
3	0xbd553c78	-0.05205962
4	0x3dc5be2a	0.096554115
5	0xbe29749a	-0.16548386
6	0xbe3034ff	-0.17207716
7	0xbdaacfd9	-0.08340425
8	0x3e0b424d	0.1359951
9	0xbd1e74c1	-0.038685564
10	0xbe182016	-0.1485599
11	0x3e8ae01d	0.2712411
12	0xbe00e250	-0.12586331
13	0x3eb692af	0.35658786
14	0x3e5e1039	0.21685876
15	0xbebcc9fd	-0.36872855
16	0x3e7e1954	0.2481435
17	0xbed2a749	-0.41143253
18	0xbdc21f35	-0.094786085
19	0xbe86dd8f	-0.2634091
20	0x3af09920	0.0018356182
21	0xbd0f8271	-0.035036508
22	0xbe747ca6	-0.23875675
23	0x3c6e8909	0.014559039
24	0x3e54daca	0.20786586
25	0xbc8df9d9	-0.01733105
26	0x3c3557e2	0.011068316
27	0x3e1a8e1d	0.15093274
28	0xbe96f0d2	-0.29480606
29	0x3e3a1df1	0.18175484
30	0x3e37327b	0.1789035
31	0xbe0edcef	-0.13951467
32	0x3e88eed5	0.26744714
33	0xbe8113ad	-0.25210324
34	0xbd176802	-0.036964424
35	0x3ced4b4e	0.028966572
36	0xbe576d53	-0.21037798
37	0x3e911c66	0.2834198
38	0xbdc3fc20	-0.095695734
39	0xbe4134cb	-0.18867795
40	0xbe7f9841	-0.24960424
41	0x3db3a98d	0.087725736
42	0xbd265d5a	-0.04061637
43	0x3dc578a3	0.0964215
44	0xbe8f1f15	-0.279534
45	0xbdcb8dc2	-0.099391475
46	0xbb4ceaa7	-0.0031267793
47	0x3eaf2e39	0.34214953
48	0x3ea209fd	0.31648245
49	0x3e249154	0.16071063
50	0xbe824809	-0.25445583
51	0xbddd9800	-0.10820007
52	0xbe72a3cb	-0.23695295
53	0x3d483512	0.048878737
54	0xbeafdf74	-0.3435017
55	0x3e0d9d00	0.13829422
56	0x3e7aabc3	0.24479584
57	0xbdf7b9ef	-0.12096011
58	0xbe2360c8	-0.15954888
59	0xbe3bc12c	-0.18335408
60	0x3d901e70	0.070370555
61	0x3e01fd83	0.12694363
62	0x3eabd5bb	0.335615
63	0x3d753c49	0.059871946
64	0x3e707e06	0.23485574
65	0x3d2a03d7	0.04150757
66	0xbe8b63dd	-0.27224627
67	0x3e221148	0.15826905
68	0xbded967f	-0.116009705
69	0x3e640612	0.2226794
70	0xbdae8733	-0.08521881
71	0x3bc21e75	0.005924041
72	0x3c81cb36	0.015843969
73	0x3de3e86b	0.111283146
74	0xbe876b8d	-0.26449242
75	0xbe0844bf	-0.13307475
76	0x3d6582e0	0.056033015
77	0xbd5257d1	-0.05135328
78	0xbe2d82f8	-0.16944492
79	0x3d9cae82	0.07650472
80	0xbd9f0425	-0.077644624
81	0x3da1776f	0.07884108
82	0x3cd8ae0a	0.026450176
83	0xbe1efd04	-0.15526205
84	0x3e356232	0.1771324
85	0xbe7f4b52	-0.24931076
86	0x3d93f453	0.072243355
87	0xbe53d195	-0.20685418
88	0xbdb40c26	-0.0879138
89	0x3e8614f3	0.26187858
90	0xbdf9ebba	-0.122031644
91	0xbde6da8d	-0.11272154
92	0x3c7411db	0.014896835
93	0x3d8b08a8	0.067887604
94	0xbdb35a47	-0.087574534
95	0x3a12d821	0.0005601664
96	0x3be30fe7	0.006929386
97	0x3da48f27	0.08035117
98	0xbd97e04c	-0.07415828
99	0x3e01a69f	0.12661217
100	0x3dfa6624	0.12226513
101	0xbe2e86c4	-0.17043597
102	0x3df255bb	0.11832758
103	0x3dfa549c	0.12223169
104	0x3e24233e	0.16029069
105	0xbe38337c	-0.1798839
106	0x3e3e41a7	0.18579732
107	0xbe24a3a8	-0.16078055
108	0x3d849173	0.06473055
109	0xbd0a56ee	-0.03377431
110	0xbbdfc961	-0.006829426
111	0xbd8a288c	-0.06746015
112	0x3d9955b8	0.07487053
113	0xbd438f5b	-0.047744136
114	0xbd79c48d	-0.06097846
115	0x3e494322	0.19654515
116	0x3dd3c42f	0.103401534
117	0xbd38d306	-0.045123123
118	0x3e1ea566	0.15492782
119	0xbe3e8a84	-0.18607527
120	0x3e0164d1	0.12636115
121	0x3e0d5515	0.13801987
122	0xbcc7264c	-0.024310254
123	0xbdba4864	-0.09095839
124	0x3e902283	0.2815133
125	0xbd20a47d	-0.03921937
126	0x3d084aeb	0.033274572
127	0x3d70bc77	0.058773484
128	0xbd8596fb	-0.06522938
129	0xbe13895e	-0.1440787
130	0xbd96154a	-0.07328279
131	0x3e847090	0.25867128
132	0x3dd8e854	0.10591188
133	0x3e9ac1f5	0.30226102
134	0xbe95c059	-0.29248312
135	0xbe8d7983	-0.2763177
136	0x3e46cec0	0.19414806
137	0xbe0dd62b	-0.1385123
138	0x3b360e44	0.00277795
139	0x3e74fd00	0.23924637
140	0xbe8b3cee	-0.27194923
141	0x3d987c6c	0.074456066
142	0x3e84cd55	0.25937906
143	0x3d38fc41	0.045162443
144	0x3e439fe5	0.19103964
145	0xbcd0142c	-0.025400244
146	0xbe24f501	-0.16109087
147	0x3deb9da9	0.11504681
148	0x3e8b6def	0.2723231
149	0xbe2d4ea4	-0.1692453
150	0x3e23e2db	0.16004507
151	0x3e07aa91	0.1324866
152	0x3e63feb0	0.22265124
153	0xbe203f54	-0.15649158
154	0x3e19c6e4	0.15017277
155	0xbeaee40e	-0.34158367
156	0x3d90ecc6	0.07076411
157	0x3e8e025b	0.27736172
158	0xbbca1edd	-0.00616823
159	0xbe3fa54a	-0.18715397
160	0x3e2951cc	0.1653511
161	0xbdfe4d47	-0.12417083
162	0x3e780774	0.24221593
163	0xbd81a229	-0.06329758
164	0xbd7673f6	-0.060169183
165	0x3c213d05	0.009841208
166	0x3d820f5c	0.06350586
167	0xbc7798eb	-0.015112142
168	0xbd91248c	-0.07087049
169	0xbd8182ef	-0.06323802
170	0xbe0530cb	-0.13006894
171	0xbe26ef48	-0.16302216
172	0xbd52ec4e	-0.05149489
173	0xbc822003	-0.015884405
174	0x3e507dd5	0.20360501
175	0x3e45bb77	0.19309793
176	0x3db1dd53	0.08684792
177	0x3e2dd481	0.16975595
178	0x3d02d748	0.03194359
179	0x3e2570cc	0.1615631
180	0xbb7a5753	-0.0038199022
181	0xbe8d93bc	-0.27651775
182	0xbda4b0da	-0.08041544
183	0x3d97574e	0.07389699
184	0x3e25f68b	0.1620733
185	0xbca89368	-0.020578101
186	0xbe214704	-0.15749747
187	0xbe228d44	-0.15874201
188	0xbe3414bb	-0.17586033
189	0x3e39b685	0.18136032
190	0x3cc386e5	0.023868034
191	0x3e8baf94	0.27282393
192	0xbdc0ecf7	-0.094201975
193	0xbe1af547	-0.15132628
194	0xbe98eebb	-0.29869637
195	0x3cbb0fac	0.022834621
196	0x3e089dbc	0.13341421
197	0x3e5a8da0	0.21343088
198	0xbe0f5f24	-0.14001137
199	0xbe785280	-0.24250221
200	0x3d628a48	0.055307657
201	0xbd4993da	-0.049213268
202	0xbd847cf4	-0.064691454
203	0x3c4fb2e1	0.012676925
204	0xbd0fecee	-0.035138063
205	0xbea1ee33	-0.31627044
206	0x3e5db2df	0.21650265
207	0x3d90aafb	0.07063862
208	0x3c22024a	0.009888241
209	0x3d3a27db	0.045448165
210	0xbd8a1f45	-0.067442454
211	0x3ea4a4c1	0.32156947
212	0x3e88090e	0.26569408
213	0x3e00d124	0.12579781
214	0x3e806d5b	0.25083432
215	0x3d668a88	0.056284457
216	0x3e05bdf3	0.13060741
217	0xbea4d9f9	-0.3219755
218	0x3dbe6a16	0.09297578
219	0xbe8ab884	-0.270939
220	0x3d2310e7	0.03981104
221	0x3c6541f9	0.01399278
222	0x3e3fd798	0.18734586
223	0xbe2e5899	-0.17025985
224	0x3e2ac6e1	0.16677429
225	0xbe146871	-0.14492966
226	0x3d9f2285	0.07770256
227	0xbd2d44d9	-0.042301986
228	0xbe35e439	-0.17762841
229	0x3d90e84f	0.07075559
230	0xbdffe78b	-0.12495335
231	0xbde50a89	-0.1118365
232	0xbd934857	-0.07191532
233	0xbd1642e7	-0.036684897
234	0xbe4bf5d1	-0.1991799
235	0xbe540859	-0.2070631
236	0xbe6e9dff	-0.23302458
237	0x3d7efecd	0.062254716
238	0xbd3f17fd	-0.046653736
239	0x3dec9882	0.11552526
240	0xbe21a1da	-0.15784398
241	0x3e4b14bb	0.19832127
242	0x3dc27d60	0.0949657
243	0x3e93b124	0.28846085
244	0xbe204f92	-0.15655354
245	0xbe9a1634	-0.30095065
246	0x3d8d4d26	0.068994805
247	0x3e0921f6	0.13391861
248	0x3e23a8a5	0.15982302
249	0xbdfb2346	-0.12262587
250	0xbdf9c658	-0.12196034
251	0xbe7358bc	-0.23764318
252	0xbe84ca88	-0.2593577
253	0x3dd6873d	0.104750134
254	0x3e67d3cc	0.22639388
255	0x3d4ff46f	0.05077022

LSTM_inner0.bias_ih_l0 f4 [256]
0	0x3e921d44	0.28537953
1	0x3df81e6e	0.12115179
2	0x3e6ba1a4	0.2301088
3	0x3dd44463	0.10364606
4	0x3bce5e70	0.006297879
5	0x3e39b651	0.18135954
6	0x3df9fc14	0.12206283
7	0x3d433441	0.047657255
8	0xbd96e473	-0.07367792
9	0x3c0ec2de	0.008713452
10	0x3e686543	0.22694878
11	0x3da69e15	0.081356205
12	0x3d623894	0.05522974
13	0x3e0b6532	0.13612822
14	0x3dd5d420	0.1044085
15	0x3db2171f	0.08695816
16	0x3e0a59cf	0.13510822
17	0x3d67c92e	0.056588344
18	0x3dd4737d	0.1037359
19	0x3e21aeeb	0.15789382
20	0x3de62bee	0.11238848
21	0x3e61f31a	0.22065392
22	0x3d2d5ee3	0.04232682
23	0xbc99a589	-0.018755691
24	0x3dc8af00	0.097990036
25	0x3e66db4b	0.22544591
26	0x3dc697a9	0.09696896
27	0x3dd0c758	0.10194272
28	0x3d07e0f9	0.033173535
29	0xbd7fcb57	-0.06244978
30	0xbd885b36	-0.06658022
31	0x3def9292	0.11697878
32	0x3e00314f	0.1251881
33	0xbda939ef	-0.08263003
34	0x3d4f0a96	0.050547205
35	0x3e5cb3ca	0.21552959
36	0x3e30d2e3	0.17267947
37	0x3debad97	0.11507719
38	0x3def9817	0.11698931
39	0x3d177c16	0.036983572
40	0x3cd73567	0.026270581
41	0xbdd14ed2	-0.10220112
42	0xbc93c12d	-0.01803645
43	0x3d3f7398	0.0467411
44	0x3db708f7	0.08937257
45	0x3e350bf3	0.1768034
46	0x3e06f2d2	0.13178566
47	0xbd26a6ef	-0.040686544
48	0x3c18b634	0.009320784
49	0x3d010957	0.031503048
50	0x3e00b6a2	0.12569669
51	0xbd376c93	-0.04478128
52	0xbc68a4c3	-0.0141994385
53	0xbdcec8c5	-0.100968875
54	0x3c236e58	0.0099750385
55	0x3c6b8908	0.0143759325
56	0x3e2b813c	0.16748518
57	0x3d02c5a5	0.03192677
58	0xbc246c6d	-0.010035616
59	0x3e2c4503	0.16823201
60	0xbcd25d7d	-0.025679344
61	0xbb179f05	-0.0023135555
62	0xbd97062b	-0.07374223
63	0xbb8c3ba5	-0.004279571
64	0xbd878f3a	-0.06619115
65	0xbdad340d	-0.084571935
66	0xbc948d5c	-0.018133812
67	0x3c8e5bc1	0.017377736
68	0x3d06f601	0.03294945
69	0x3e5be3c8	0.2147361
70	0xbddc5892	-0.10759081
71	0x3d03b37c	0.03215359
72	0x3df9eb7c	0.12203118
73	0xbd99f3c5	-0.075171985
74	0x3d27f8da	0.041008808
75	0x3cffb7b3	0.031215524
76	0x3d637b44	0.055537477
77	0xbe43bb7f	-0.19114493
78	0x3d9b7560	0.07590747
79	0x3d1a4b52	0.037669487
80	0xbdbc8b4e	-0.09206258
81	0xba5e7a6f	-0.0008486872
82	0xbc89d72a	-0.016826231
83	0xbdf91118	-0.121614635
84	0xbcee8571	-0.029116364
85	0x3d3ba651	0.04581291
86	0x3b1e2d73	0.0024135977
87	0xbdc0c323	-0.094122194
88	0x3d166fdf	0.036727782
89	0xbbb568ba	-0.005536166
90	0x3c9c8a18	0.019108817
91	0x3da3bd0e	0.07995044
92	0x3d080625	0.033208985
93	0x3da0151e	0.07816528
94	0xbcf6c0e8	-0.030121282
95	0xbccb420f	-0.024811773
96	0xbbb830aa	-0.0056210356
97	0xba05210d	-0.00050784723
98	0x3df350de	0.118806586
99	0xba8c12c2	-0.0010686743
100	0x3da1b27b	0.078953706
101	0x3db0594b	0.08610781
102	0xbd2b2865	-0.04178657
103	0x3ccbd218	0.024880454
104	0xbd68c9e5	-0.056833167
105	0x3c8bceca	0.017066378
106	0x3dfffb95	0.12499157
107	0x3d3aa631	0.04556865
108	0xbde8fa0b	-0.11375817
109	0xbd7af0f2	-0.06126494
110	0x3c92dd0e	0.017927673
111	0xbd97c352	-0.07410301
112	0xbd22d338	-0.039752215
113	0x3e0a809e	0.13525626
114	0xbe4ef84a	-0.20211902
115	0xbdac1ded	-0.084041454
116	0x3d583840	0.05278802
117	0x3d97dee2	0.074155584
118	0x3a535e1e	0.0008063036
119	0x3d1b20f1	0.037873212
120	0x3d068831	0.032844726
121	0x3cfa3cc9	0.030546563
122	0x3ce979c6	0.028500449
123	0xbd762d79	-0.06010196
124	0x3d8a53f0	0.06754291
125	0xbe2829fa	-0.16422263
126	0x3de15bb5	0.1100382
127	0x3d88098e	0.066424474
128	0xbe46cf15	-0.19414933
129	0xbe08ffdd	-0.13378854
130	0xbdfaaa00	-0.12239456
131	0xbdc50ac0	-0.09621191
132	0x3d942c8b	0.072350584
133	0x3e11e3ec	0.14247102
134	0xbdea15e1	-0.11429954
135	0xbe375739	-0.17904367
136	0xbd87c378	-0.066290796
137	0xbd652fd0	-0.0559538
138	0xbd33098a	-0.04371027
139	0x3d799a48	0.06093815
140	0x3dc68fa2	0.096953645
141	0x3dddaaa7	0.10823565
142	0x3dbc7d5e	0.092035994
143	0xbded9b72	-0.116019145
144	0xbd772231	-0.06033534
145	0xbcbc7443	-0.023004657
146	0xbd2f96bb	-0.042868357
147	0x3dd6e6f1	0.10493267
148	0x3dbfabba	0.09358926
149	0xbdad6cb0	-0.08467996
150	0xbe2a4ce4	-0.16630894
151	0xbdf14eda	-0.11782618
152	0xbd9275d6	-0.07151382
153	0xbd99f89f	-0.07518124
154	0x3ca5952e	0.020212736
155	0x3da7e8fe	0.081987366
156	0x3dc06f47	0.093962245
157	0x3daf907c	0.0857248
158	0x3d927c52	0.071526185
159	0xbca458a8	-0.020061806
160	0xbe048cb0	-0.12944293
161	0x3d7221aa	0.059114136
162	0xbdac9120	-0.08426118
163	0x3caa51ca	0.020790953
164	0xbf0a90f3	-0.54127425
165	0xbd63b1da	-0.055589534
166	0xbd067b94	-0.032832697
167	0xbd8eb9fb	-0.06969067
168	0x3ca8c437	0.020601375
169	0x3bb5c34f	0.0055469642
170	0xbd406356	-0.046969734
171	0xbdb71e7b	-0.089413606
172	0xbe18ac2a	-0.14909425
173	0x3e04d63e	0.12972352
174	0xbda0edf5	-0.07857887
175	0x3dd22c05	0.10262302
176	0xbd302f06	-0.043013595
177	0x3da0fc46	0.07860617
178	0x3e27cb2a	0.16386095
179	0x3d3714d4	0.044697598
180	0x3d1815a6	0.03713002
181	0xbcb4a981	-0.022053482
182	0xbd142990	-0.03617245
183	0x3d8e6c08	0.06954199
184	0x3dd6cd8f	0.10488426
185	0xbbbeb6d1	-0.0058201333
186	0xbe9c5c44	-0.30539143
187	0xbdfe6d60	-0.124232054
188	0x3d3ad3bf	0.045612093
189	0xbe06d56a	-0.13167349
190	0x3b533dd8	0.0032232907
191	0xbd49709c	-0.04917966
192	0x3c0f5381	0.008747936
193	0x3e0f7c65	0.14012296
194	0x3e61b021	0.22039844
195	0x3e760c39	0.240281
196	0x3e11147f	0.14167975
197	0x3e128ac9	0.14310755
198	0x3e2b922d	0.1675498
199	0x3e260a96	0.16214976
200	0x3e077f33	0.13232116
201	0xbc558cd8	-0.013034068
202	0x3c87ed98	0.016592786
203	0x3ddbfd61	0.107416876
204	0x3e618aee	0.22025654
205	0xbdac406f	-0.08410727
206	0xbc2a4e5d	-0.01039466
207	0x3e3d15e6	0.18465385
208	0x3df12d86	0.11776261
209	0x3d36ec80	0.044659138
210	0x3e0f2255	0.1397794
211	0x3e9575bf	0.29191396
212	0x3e13edd7	0.14446197
213	0x3dfafad4	0.12254873
214	0x3c981bac	0.018567882
215	0x3e11d299	0.14240493
216	0x3e088937	0.13333593
217	0xbd023e77	-0.031797852
218	0x3e3ad7ce	0.18246385
219	0xbd635f9c	-0.055511102
220	0x3e1f80cf	0.1557648
221	0x3d330057	0.043701496
222	0x3d324e43	0.043531667
223	0x3e32b199	0.1745056
224	0x3d31808c	0.043335482
225	0xbd810227	-0.06299239
226	0xbd053f99	-0.032531355
227	0x3df06148	0.11737305
228	0xbc1d6679	-0.009606951
229	0x3c85669c	0.01628428
230	0x3e463cd1	0.19359137
231	0xbd4f82b0	-0.050661743
232	0xbc4068b8	-0.011743717
233	0x3dfd4523	0.123667024
234	0x3e2b9e92	0.16759709
235	0x3d1dabb5	0.03849383
236	0xbd81211d	-0.06305144
237	0xbd4357f5	-0.047691304
238	0x3d4049fb	0.046945553
239	0x3d484a4e	0.048898987
240	0x3e28e499	0.16493453
241	0xbd80c7e3	-0.06288125
242	0x3d042add	0.03226744
243	0x3d91a5e9	0.07111723
244	0x3e225df7	0.15856157
245	0xbd3d70f8	-0.046250314
246	0xbd1a8396	-0.037723146
247	0xbc87c1f1	-0.01657197
248	0x3dfcb2e9	0.12338812
249	0x3e816699	0.25273588
250	0x3dea8a1e	0.11452125
251	0x3e8ed9cd	0.27900544
252	0x3d7bd8d3	0.061486077
253	0x3e260a63	0.162149
254	0x3dd408bc	0.103532284
255	0x3e0579d9	0.13034762

LSTM_inner0.bias_hh_l0 f4 [256]
0	0x3dc50101	0.09619332
1	0xbdb827db	-0.08991977
2	0x3e5c9050	0.21539426
3	0x3d13b5a6	0.036061905
4	0x3d59676f	0.053077158
5	0xbd1e23d6	-0.038608395
6	0x3e041217	0.12897526
7	0xbc5feb44	-0.013666932
8	0xbb0b0120	-0.0021210387
9	0xbda1f1a5	-0.07907418
10	0x3e1f5e02	0.15563205
11	0x3dad2611	0.08454526
12	0x3d6be4cf	0.057591256
13	0x3c2d218c	0.01056708
14	0x399feac8	0.0003050177
15	0x3d2788b9	0.040901873
16	0xbd97dfa1	-0.07415701
17	0x3e09c8c0	0.13455486
18	0x3dbc0a48	0.091816485
19	0x3e956da7	0.2918522
20	0x3d54799a	0.05187378
21	0x3e58e55b	0.21181242
22	0x3e2e71fe	0.17035672
23	0x3ce76e14	0.028250732
24	0x3c96cd2f	0.018408386
25	0x3ce6793c	0.02813398
26	0x3e27f7b5	0.16403086
27	0x3df8e9f8	0.12154001
28	0x3d9a68b2	0.075395
29	0x3dc0159b	0.09379121
30	0x3d504f86	0.05085709
31	0x3e160c3b	0.14653103
32	0x3e7043a3	0.23463301
33	0x3ded59f2	0.11589421
34	0x3d42ef1e	0.04759132
35	0x3b432c68	0.0029781107
36	0x3e905a6c	0.28193986
37	0x3ca1d79b	0.019756129
38	0x3dc37894	0.09544483
39	0x3d19b477	0.03752562
40	0x3d72c1e2	0.059266932
41	0x3ddf4c26	0.10903196
42	0x3d058ba5	0.03260388
43	0xbd51ce51	-0.05122215
44	0xbd997d47	-0.07494598
45	0x3daa8d8c	0.08327779
46	0x3dab68b4	0.0836958
47	0x3dd80551	0.10547889
48	0x3e208938	0.15677345
49	0x3e079fb4	0.13244516
50	0x3d99d3d7	0.07511108
51	0xbd8ffa97	-0.07030218
52	0x3d01d22e	0.031694584
53	0x3d3cb6c0	0.04607272
54	0xbc88c2c0	-0.016694427
55	0x3b5ab7bf	0.0033373681
56	0x3e60064b	0.218774
57	0x3e17c3ff	0.1482086
58	0x3de83908	0.11339003
59	0x3ea51c5d	0.32248202
60	0xbc368c77	-0.011141888
61	0x3e57acfd	0.21062084
62	0x3b5bbe76	0.0033530272
63	0x3da360f4	0.07977477
64	0x3d5cd106	0.053910278
65	0xbd2b495f	-0.04181802
66	0x3d126b53	0.035746884
67	0xbdd3345a	-0.1031272
68	0x3e11cc2e	0.14238045
69	0x3d7787e8	0.060432345
70	0x3d1b7a90	0.03795868
71	0x3e173868	0.14767611
72	0xbbc17930	-0.0059043393
73	0x3e18d47f	0.14924811
74	0x3d82b695	0.06382481
75	0x3dc8d412	0.09806074
76	0xbc9bc7e7	-0.01901622
77	0xbdd3009f	-0.10302853
78	0x3d5751bb	0.05256818
79	0x3e1ef85b	0.15524428
80	0xbcbd9771	-0.023143502
81	0xbc9b3f00	-0.01895094
82	0xbcf58490	-0.029970437
83	0xbc0f8329	-0.008759298
84	0x3dda202d	0.10650668
85	0x3e0896de	0.13338801
86	0xbb4a2748	-0.0030846167
87	0x3da76cc6	0.08175044
88	0x3c359e1e	0.011085061
89	0xbc734e6d	-0.014850241
90	0x3c041589	0.008061775
91	0xbdd5defa	-0.1044292
92	0x3dab68cc	0.08369598
93	0x3d3065ef	0.04306596
94	0xbc21bc86	-0.009871608
95	0xbd009506	-0.03139212
96	0x3dc44c8b	0.09584912
97	0xbd400414	-0.04687889
98	0x3d40b4b6	0.04704734
99	0xbd0171bf	-0.031602617
100	0x3ddb0bfb	0.106956445
101	0x3d625fe9	0.05526725
102	0x3dc32ac6	0.09529643
103	0xbbbc33f2	-0.005743497
104	0x3d8decd5	0.06929938
105	0xbdb8e2d7	-0.09027641
106	0x3d49d998	0.04927978
107	0xbd030dbd	-0.031995524
108	0xbdb79533	-0.08964004
109	0xbd8e4c90	-0.06948197
110	0x3d52d621	0.05147374
111	0xbd6dbdc6	-0.05804231
112	0xbca73f71	-0.020415993
113	0x3d96142d	0.07328067
114	0xbd9ee335	-0.0775818
115	0xbd9e3c93	-0.07726397
116	0x3e241dda	0.16027012
117	0x3c8ef0d9	0.01744883
118	0x3d3c9131	0.046036903
119	0x3d1064a0	0.035252213
120	0x3c937b84	0.018003233
121	0xbd78adf5	-0.060712773
122	0x3df08a0c	0.1174508
123	0x3beaede2	0.007169471
124	0x3e169574	0.1470545
125	0x3d800a50	0.06251967
126	0xbd9fec06	-0.0780869
127	0x3db8898c	0.0901061
128	0xbcbb9b5a	-0.022901226
129	0xbd898678	-0.06715101
130	0x3cf01fd7	0.029312057
131	0x3dce79e3	0.10081842
132	0x3b81d30f	0.0039619277
133	0x3da96559	0.08271284
134	0xbc8c4e37	-0.01712714
135	0xbe5d56fb	-0.21615212
136	0xbc6ae8cb	-0.014337729
137	0x3d9ef4a5	0.07761506
138	0xbdf72c9e	-0.12069057
139	0x3d1c247b	0.038120728
140	0xbd182498	-0.037144274
141	0x3d157fd6	0.036498867
142	0x3dac9000	0.08425903
143	0xbd1e234e	-0.038607888
144	0xbe1231a5	-0.1427675
145	0xbd63b78e	-0.055594973
146	0x3d4c99e8	0.049951464
147	0x3d0b469e	0.034002893
148	0x3bdd4bae	0.0067534065
149	0x3d5abd88	0.053403407
150	0xbd8c99b8	-0.06865257
151	0xbe050b5d	-0.12992616
152	0x3cc62c5c	0.024191074
153	0x3cc18d09	0.023626821
154	0x3d05355d	0.032521594
155	0xbdbfbc04	-0.09362033
156	0x3a572a6b	0.000820792
157	0x3d6dd0c9	0.05806044
158	0x3d1ab067	0.037765887
159	0xbc692853	-0.014230805
160	0x3c604b2d	0.013689798
161	0x3cbc60c6	0.022995364
162	0x3d677015	0.056503374
163	0xbda4669f	-0.08027386
164	0xbed8647c	-0.42264163
165	0xbda95fbc	-0.08270213
166	0xbc9cb316	-0.019128364
167	0x3dbb99b3	0.09160175
168	0x3d516b98	0.051128
169	0x3dd7ccc2	0.10537101
170	0xbe0d182a	-0.13778749
171	0x3bec25e8	0.007206667
172	0xbdedb17f	-0.1160612
173	0xbd815342	-0.06314708
174	0xbe04f5be	-0.12984368
175	0x3daeb799	0.08531112
176	0xbdf9f4f3	-0.122049235
177	0x3d92dd13	0.07171073
178	0x3d77f5bb	0.06053708
179	0xbd9d213d	-0.07672355
180	0x3dcafaef	0.09911143
181	0x3d808724	0.06275776
182	0x3c8af014	0.016960181
183	0x3e4cd850	0.20004392
184	0xbdaa0374	-0.0830144
185	0xbda3e831	-0.08003271
186	0xbea5dd5b	-0.32395443
187	0x3d1f5a39	0.038904402
188	0x3e171439	0.14753808
189	0xbe034dd8	-0.12822664
190	0x3d89b367	0.067236714
191	0xbe07588b	-0.1321737
192	0x3e190835	0.14944537
193	0x3d811c03	0.06304171
194	0x3e1c1fa3	0.15246443
195	0x3da784a6	0.081795976
196	0xbc033626	-0.008008515
197	0x3e0cec58	0.13762033
198	0x3dd3a4ca	0.103341654
199	0x3e3d783e	0.185029
200	0xbd154fc5	-0.036453027
201	0x3df3b654	0.11900011
202	0x3e2cba68	0.16867983
203	0xbd2def19	-0.04246435
204	0x3e5f6586	0.21816072
205	0xbbcaad2a	-0.0061851935
206	0x3dcf8f41	0.101347454
207	0x3e14b576	0.14522347
208	0xbc12ac3a	-0.008952195
209	0x3e5aadf0	0.21355414
210	0x3e088770	0.13332915
211	0x3e7a4104	0.24438864
212	0x3dde8f2c	0.108671516
213	0x3e82d2ff	0.25551602
214	0x3e041a2b	0.12900607
215	0x3dfa5666	0.122235104
216	0x3e308dca	0.17241588
217	0xbbab1f9e	-0.005222275
218	0x3dfd67e7	0.123733334
219	0x3d045d9d	0.03231584
220	0x3d4196c1	0.04726291
221	0x3e0fc98d	0.1404173
222	0x3c938529	0.018007832
223	0x3e3b4e88	0.18291676
224	0x3e4d8c64	0.20073086
225	0xbd904bee	-0.070457324
226	0x3bea9fee	0.0071601784
227	0x3d7d866e	0.06189578
228	0x3e3a3dda	0.18187657
229	0x3e03c48a	0.12867942
230	0x3e40491a	0.18777886
231	0x3dee482c	0.116348594
232	0xbe038763	-0.12844615
233	0x3d003f0b	0.031310122
234	0xbd66869f	-0.05628073
235	0x3e5b6c4b	0.21428029
236	0x3e082068	0.13293612
237	0xbd06df69	-0.032927904
238	0x3e470764	0.19436413
239	0x3caebda6	0.021330666
240	0x3e837171	0.25672486
241	0x3d24ba42	0.04021669
242	0x3e80760c	0.25090063
243	0xbc9c8f1c	-0.019111209
244	0x3e271aeb	0.16318862
245	0x3dd14291	0.10217775
246	0xbd8e78d8	-0.06956643
247	0x3da7c355	0.081915535
248	0x3e3b4d9c	0.18291324
249	0x3d642ffc	0.055709824
250	0x3de4e715	0.11176888
251	0x3ec4e9b3	0.38459548
252	0x3e03d29b	0.12873308
253	0x3d64471a	0.05573187
254	0xbcc4c81e	-0.024021205
255	0x3e0125f3	0.12612133

denseTS_inner0.weight f4 [64, 64]
0	0x3e0be22b	0.13660495
1	0x3e039d35	0.12852938
2	0x3e2c4aaa	0.16825357
3	0xbd15791c	-0.036492452
4	0x3dbdee5c	0.09273979
5	0x3e1e5cc3	0.15465073
6	0xbe11d121	-0.14239933
7	0x3d514d3d	0.05109905
8	0xbc5191c0	-0.012791097
9	0x3d5d37cf	0.0540083
10	0xbe3f5415	-0.18684418
11	0x3de8e0db	0.11371013
12	0x3d49c632	0.04926128
13	0x3dc78566	0.097422406
14	0x3d6b1930	0.057397068
15	0xbeb24ede	-0.34825796
16	0x3dceef8c	0.10104284
17	0xbc8b550a	-0.017008323
18	0xbe02f5d4	-0.12789088
19	0x3c7454c1	0.014912785
20	0x3e82381e	0.2543344
21	0xbe7e646b	-0.24842994
22	0x3da11e0a	0.078670576
23	0x3d404145	0.046937246
24	0x3d3780f3	0.04480071
25	0x3e2192c5	0.15778644
26	0xbc45b3f8	-0.012066834
27	0xbb31d78c	-0.0027136533
28	0xbd554286	-0.052065395
29	0x3e34823c	0.17627805
30	0x3dca18b2	0.098679915
31	0xbdff996c	-0.12480435
32	0x3e16ddba	0.1473302
33	0xbdee5a3b	-0.11638304
34	0xbd158020	-0.036499143
35	0x3d838bdf	0.06423163
36	0xbd023158	-0.03178534
37	0xbd4a6bb5	-0.049419124
38	0x3dcbba3f	0.09947633
39	0xbd56e716	-0.052466474
40	0x3d3caa75	0.046060998
41	0x3da987d3	0.082778595
42	0xbd83b9bd	-0.06431911
43	0xbe12fa46	-0.14353284
44	0xbd821d7a	-0.063532785
45	0xbcf3a7ea	-0.029743154
46	0x3d96bbd9	0.07360048
47	0x3e23df5c	0.16003174
48	0xbdc29181	-0.09500409
49	0x3cb28fb6	0.021797042
50	0xbdd71e0d	-0.105037786
51	0x3dd0761f	0.1017878
52	0xbccb463d	-0.024813766
53	0xbe09f00e	-0.1347048
54	0xbcdd5148	-0.027016297
55	0xbe0ea2a2	-0.13929227
56	0x3e7574fe	0.2397041
57	0x3cce3637	0.025172336
58	0xbda1ed35	-0.07906572
59	0xbe5d5f17	-0.21618305
60	0x3cce4579	0.025179612
61	0x3da8b134	0.08236924
62	0xbc91aa6d	-0.01778146
63	0xb9b29b99	-0.00034066735
64	0x3e6c8075	0.23095877
65	0x3d3ba0bb	0.04580758
66	0x3e85115a	0.259898
67	0xbe0bcbfd	-0.13652034
68	0xbe426fa6	-0.18987903
69	0x3cbd7a44	0.02312959
70	0x3ce98369	0.028505044
71	0x3db7937a	0.08963676
72	0xbd419fff	-0.047271725
73	0x3de29008	0.11062628
74	0xbd94691e	-0.07246612
75	0xbdad0e33	-0.08449974
76	0xbd43d040	-0.047806025
77	0xbccbc708	-0.024875179
78	0x3da34867	0.07972794
79	0xbe01640f	-0.12635826
80	0xbdccdb95	-0.100028194
81	0xbdba67cf	-0.09101831
82	0x3d0b2ef1	0.033980314
83	0xbeaf4dcd	-0.34239045
84	0x3e49d5ce	0.19710466
85	0x3adab4ad	0.0016685926
86	0x3d20a147	0.039216306
87	0x3c163fa2	0.009170445
88	0xbd83ed20	-0.064417124
89	0x3e030b4b	0.12797277
90	0xbe2e51aa	-0.1702334
91	0xbddfaeb1	-0.109219916
92	0x3b2cee2a	0.0026387074
93	0xbdab5383	-0.08365538
94	0xbe057568	-0.13033068
95	0x3de1940e	0.11014567
96	0x3d75547e	0.05989503
97	0xbcd768d6	-0.026295107
98	0xbdf2e30f	-0.11859714
99	0x3cdc4245	0.026887069
100	0x3cb6d2c7	0.022317303
101	0x3d27eb97	0.04099616
102	0x3d062077	0.032745805
103	0xbd2abe75	-0.04168554
104	0x3d95cb68	0.07314187
105	0xbd4917a1	-0.0490948
106	0x3df330f5	0.11874572
107	0x3dd23d2e	0.10265575
108	0x3d809705	0.06278805
109	0x3ca3400d	0.019928003
110	0x3df77eec	0.12084755
111	0x3c9f1f1e	0.019424018
112	0xbe5625f3	-0.20912914
113	0xbd686481	-0.056736473
114	0xbd99ef1c	-0.075163096
115	0x3cb3a703	0.021930223
116	0x3d0415e3	0.032247435
117	0xbdb67331	-0.0890869
118	0x3d71f69e	0.059073083
119	0x3c813a7d	0.01577496
120	0x3e32c987	0.17459689
121	0xbd91c7c7	-0.07118183
122	0x3e070928	0.13187087
123	0xbea4e00e	-0.3220219
124	0xbd98ab69	-0.07454569
125	0x3d05fe47	0.0327132
126	0x3cf623e6	0.030046415
127	0x3d7caed9	0.061690185
128	0x3e1f7896	0.15573344
129	0xbde05dd8	-0.10955399
130	0x3cee6b3a	0.029103864
131	0x3e7b4e0a	0.24541488
132	0x3dfadad5	0.1224877
133	0xbd58b0e4	-0.05290307
134	0x3d1cdc1d	0.038295854
135	0x3e345ba9	0.1761309
136	0x3d22422d	0.03961389
137	0xbd2c5a73	-0.042078447
138	0xbdc9fcaf	-0.09862649
139	0x3dd84f24	0.1056197
140	0xbe1e4ce5	-0.1545902
141	0xbda35bb3	-0.079764746
142	0xbdd00f1f	-0.10159134
143	0xbe2b6f49	-0.1674167
144	0x3db77b48	0.08959061
145	0x3c91519a	0.017739106
146	0xbd9fb8ff	-0.07798957
147	0xbed744cc	-0.42044675
148	0xbb240530	-0.0025027506
149	0xbe30c8ef	-0.1726415
150	0x3e95072b	0.2910703
151	0xbcf8d80d	-0.030376459
152	0xbccdf013	-0.02513889
153	0x3b2703c0	0.0025484413
154	0x3d8593f3	0.0652236
155	0x3b964316	0.004585634
156	0x3d996b61	0.07491184
157	0x3d66fb1d	0.056391824
158	0xbd0144c3	-0.031559717
159	0xbe100805	-0.14065559
160	0x3e185e46	0.14879712
161	0x3c42536a	0.011860708
162	0xbc0850a8	-0.008320011
163	0x3e60aef7	0.21941744
164	0x3e1b9c4c	0.15196341
165	0xbdc46f79	-0.09591574
166	0x3e2561fe	0.16150662
167	0x3ddff657	0.109356575
168	0xbdec4cc5	-0.1153808
169	0x3dac37a0	0.08409047
170	0x3e39d390	0.18147111
171	0xbd1867f4	-0.037208512
172	0xbda8cd4e	-0.08242284
173	0xbe06d283	-0.13166241
174	0x3e9b7494	0.3036238
175	0x3dc1bf38	0.094603
176	0xbd919c7e	-0.07109927
177	0xbe00820e	-0.12549612
178	0xbe48591c	-0.19565243
179	0x3e208b97	0.1567825
180	0xbcfb469c	-0.030673318
181	0x3bd50caa	0.006501754
182	0x3dcbe0b5	0.09954969
183	0x3cec30aa	0.028831799
184	0x3e76920c	0.2407915
185	0x3e633c59	0.2219099
186	0x3dae489b	0.08509942
187	0xbe359938	-0.1773423
188	0x3dcb50ef	0.09927546
189	0x3e0594b7	0.13045011
190	0x3dd94f52	0.10610832
191	0xba016528	-0.0004936033
192	0xbb7a9a6b	-0.0038239013
193	0xbd120b9c	-0.035655603
194	0xbd25de77	-0.040495362
195	0xbd86385a	-0.06553717
196	0xbddb8e9f	-0.10720562
197	0x3d20419d	0.039125074
198	0x3d9e3497	0.077248745
199	0x3d37a02b	0.044830482
200	0x3de823b1	0.113349326
201	0xbd83d4b4	-0.06437054
202	0x3e12d040	0.14337254
203	0xbd34c2af	-0.044130977
204	0x3dbf8de0	0.093532324
205	0x3d7127c1	0.058875803
206	0x3d3a51e4	0.045488253
207	0xbdd5c5cb	-0.10438117
208	0x3e12aa3b	0.1432275
209	0xbe19daf5	-0.15024932
210	0x3d934045	0.07189993
211	0xbd0c99e2	-0.03432644
212	0x3e176629	0.14785065
213	0x3dc11d3e	0.09429406
214	0x3d0a951f	0.03383362
215	0x3d941052	0.07229675
216	0xbda1261c	-0.07868597
217	0xbdca82ed	-0.09888253
218	0x3c9ee213	0.01939491
219	0xbc24c7d5	-0.010057409
220	0x3d961d94	0.0732986
221	0x3e064f1e	0.13116118
222	0xbdddd9d5	-0.10832564
223	0xba8b4c85	-0.0010627663
224	0x3bc259af	0.0059311013
225	0xbb1c3369	-0.0023834354
226	0xbd4bcb98	-0.04975471
227	0xbddac094	-0.106812626
228	0xbd7030f5	-0.05864044
229	0x3dd70434	0.104988486
230	0x3d59125e	0.052996032
231	0x3d6fd4bf	0.0585525
232	0xbde356bc	-0.11100528
233	0xbdc5aa7d	-0.09651659
234	0x3d5f915a	0.054581977
235	0x3d22e2d1	0.03976709
236	0x3de08f2e	0.10964809
237	0xbd984558	-0.07435101
238	0x3b5b909a	0.0033502937
239	0x3de21815	0.110397495
240	0xbe758bc8	-0.23979104
241	0xbc7dec76	-0.015498271
242	0x3d82244a	0.06354578
243	0x3dd40932	0.10353316
244	0xbd3327a7	-0.043738987
245	0xbc005af8	-0.007834189
246	0x3dcc1484	0.099648505
247	0x3e0d3ede	0.13793513
248	0xbe7fddbe	-0.24986932
249	0x3dae0a10	0.08498013
250	0x3c357987	0.011076338
251	0xbd0c3fc2	-0.03424049
252	0xbe02d93f	-0.12778185
253	0xbcbd984c	-0.02314391
254	0xbc7926de	-0.015207021
255	0xbdf8e688	-0.12153345

denseTS_inner0.bias f4 [64]
0	0xbdc25e0a	-0.09490593
1	0xbd96654a	-0.07343538
2	0xbddeee2a	-0.1088527
3	0xbdbf12ca	-0.093297556
4	0x3c340427	0.010987318
5	0x3e3bbaa1	0.18332912
6	0xbd5f2944	-0.054482713
7	0x3d8263b1	0.06366671
8	0xbc66e8a7	-0.014093555
9	0xbdcfd4e8	-0.101480305
10	0x3de90106	0.11377148
11	0x3e1bcdd7	0.1521524
12	0x3d058b1a	0.03260336
13	0x3ce8f00d	0.028434778
14	0xbe0a03cd	-0.13478012
15	0x3d831a83	0.06401541
16	0x3d59ee40	0.05320573
17	0xbe1354d4	-0.14387828
18	0xbe004d8a	-0.12529579
19	0xbd99cdfc	-0.075099915
20	0xbcbf5c7e	-0.023359533
21	0x3d054f5d	0.03254639
22	0x3dbfc04a	0.09362848
23	0xbdb1fea0	-0.08691144
24	0x3d4d652b	0.05014531
25	0xbd31a1fe	-0.04336738
26	0xbd9d3211	-0.07675565
27	0x3def77c0	0.116927624
28	0x3ca6428d	0.020295406
29	0x3d442b5b	0.04789291
30	0x3d4f0c8d	0.05054908
31	0x3df756a3	0.120770715
32	0x3d1b50e5	0.037918944
33	0xbd6cc8ab	-0.05780856
34	0xbbbd47a0	-0.0057763606
35	0xbd5238d2	-0.05132372
36	0xbdc2e624	-0.09516552
37	0x3d5257cd	0.051353265
38	0xbdcb16b6	-0.09916441
39	0x3dcdc323	0.10046985
40	0x3c74a665	0.01493225
41	0x3e35d096	0.1775535
42	0x3cba2ffc	0.022727959
43	0xbe01ab99	-0.12663116
44	0xbdd8b9c9	-0.10582311
45	0x3cc6717f	0.024224041
46	0xbd65e46b	-0.05612604
47	0x3d59e392	0.053195544
48	0x3ccd7907	0.025082124
49	0xbc84e6f0	-0.0162234
50	0xbd05f727	-0.032706406
51	0x3df82302	0.12116052
52	0xbe1385d9	-0.14406528
53	0xbdbbe11e	-0.09173797
54	0xbd83bc8f	-0.06432449
55	0x3dfdd200	0.1239357
56	0x3d96f26c	0.07370457
57	0x3ca5f866	0.020260047
58	0x3ccd8fff	0.025093077
59	0xbdf2763a	-0.11838956
60	0x3abf5545	0.0014597556
61	0xbd872917	-0.06599634
62	0x3d873cf3	0.06603422
63	0xbd505deb	-0.050870817
