3007_critic.pth (torch, 999973 bytes, 62 tensors)

LSTMRec_Q1.denseOS_inner2.weight f4 [64, 3]
-1.0537735 -0.08700421 0.07216784 0.18021914 -0.17591365 -0.15763062 0.55311996 0.19195457
0.19720842 0.16603442 -0.55843997 0.2599141 0.5882623 -0.73482007 -0.022015575 -0.33848965
-0.0038333747 0.061502617 -0.096029244 -0.6835266 -0.4317519 -0.60027117 -0.1748829 -0.092698924
-0.29705766 -0.0472227 -0.029845221 0.40652046 0.5288662 0.26519585 -0.43055204 0.76228654
0.29632336 0.51329017 0.084193684 0.55427384 -0.63458586 0.5205052 0.19196337 0.13887535
-0.88094056 -0.68957996 -0.34418547 -0.26894125 -0.32177094 -0.45423964 0.012781868 0.22464336
-0.057902984 0.53043485 0.54885566 -0.2567411 -0.45148447 0.43413386 -0.36827922 -0.6669418
-0.26245782 -1.0279653 -0.015501469 -0.4692097 0.11801695 -0.85638803 -0.43722063 0.34359562
0.40484443 -0.0658183 -0.842902 -0.49312288 0.7351963 -0.5425668 -0.68726605 -0.5602491
0.35483035 -0.6122499 -0.4658072 -0.9347996 0.016238496 -0.26750714 -0.4664876 0.7018646
0.07209963 0.53154576 -0.3895659 0.010824204 -0.11949806 -0.6693327 0.5866766 0.26887825
0.18790664 -0.09414817 -0.8749342 -0.018534236 0.95554173 -0.3829506 -0.88366306 -0.37549728
-0.14244981 -0.5971361 0.43356502 0.5022576 0.29078785 0.06447884 0.5996169 0.6527943
-0.28747603 -0.11183719 -0.37510943 0.14324999 -0.31441227 -0.074692816 0.21790949 0.09353543
-1.0583078 -0.20358537 -0.30706027 -0.31513 0.01570722 0.5248707 -0.46984628 0.10312851
-0.32504672 0.7183538 -0.4910229 0.4655633 -0.032520648 -0.29870677 0.1130872 -0.2383983
0.055161722 -0.1491013 -0.6144305 -0.2347153 -0.70914406 -0.21027422 -0.21984135 -0.18235525
-0.39146578 -0.2413797 -1.1568493 0.09409851 0.6827729 -0.18394595 -0.41774815 -0.0852468
-0.5298153 0.22670788 -0.4328005 0.6943789 -0.46684054 -0.050018746 -0.35012293 0.25101575
0.19885433 0.7457032 0.083893 -0.44022658 -0.47067326 -0.33635527 -0.1902916 -0.35713786
0.5736886 0.03344493 -0.23909804 -0.44168794 0.08812522 0.4394927 0.45441645 0.25027162
-0.23754154 -1.3379356 -0.2515062 0.05171718 -0.62287414 -0.69296855 -0.62199223 -0.3972022
0.6106517 -0.7369187 0.4382401 -0.43248054 -0.39508063 -0.1860344 0.1541034 -0.3286449
0.23632537 0.33458227 -0.29703975 -0.6229174 0.47160774 0.14117019 0.15818685 -0.630361
00000000: 0de2 86bf 432f b2bd bccc 933d 5e8b 383e
00000010: b522 34be ec69 21be 4599 0d3f bd8f 443e
00000020: 01f1 493e ed04 2a3e ecf5 0ebf 7613 853e
00000030: 5c98 163f 2b1d 3cbf 025a b4bc 844e adbe
00000040: 5b39 7bbb 2bea 7b3d fbaa c4bd 99fb 2ebf
00000050: 960e ddbe 5fab 19bf 8114 33be efd8 bdbd
00000060: f117 98be 976c 41bd f77d f4bc 7323 d03e
00000070: c663 073f c0c7 873e 5171 dcbe 3625 433f
00000080: b2b7 973e fc66 033f bd6d ac3d e4e4 0d3f
00000090: 3874 22bf d43f 053f 0c92 443e 5735 0e3e
000000a0: 5285 61bf 5088 30bf 1439 b0be abb2 89be
000000b0: 29bf a4be 1992 e8be 0a6b 513c e908 663e
000000c0: ae2b 6dbd 94ca 073f ce81 0c3f 9273 83be
000000d0: f928 e7be cb46 de3e 188f bcbe b3bc 2abf
000000e0: df60 86be 5e94 83bf e0f9 7dbc 413c f0be
000000f0: dfb2 f13d 3f3c 5bbf 62db dfbe c4eb af3e
00000100: c547 cf3e bfcb 86bd 6dc8 57bf 9a7a fcbe
00000110: d335 3c3f a8e5 0abf abf0 2fbf 7c6c 0fbf
00000120: 53ac b53e 69bc 1cbf 487e eebe 074f 6fbf
00000130: 9806 853c b2f6 88be 76d7 eebe 66ad 333f
00000140: f9a8 933d 6213 083f 2f75 c7be 0158 313c
00000150: 66bb f4bd 6359 2bbf 7030 163f 69aa 893e
00000160: 996a 403e c1d0 c0bd b0fb 5fbf 1cd5 97bc
00000170: 629e 743f 1a12 c4be be37 62bf 2e41 c0be
00000180: 5dde 11be e9dd 18bf 3cfc dd3e f493 003f
00000190: 25e2 943e 7b0d 843d 7e80 193f 871d 273f
000001a0: 0f30 93be e60a e5bd 580e c0be 20b0 123e
000001b0: a5fa a0be 8cf8 98bd aa23 5f3e 818f bf3d
000001c0: a176 87bf af78 50be 0137 9dbe b858 a1be
000001d0: 6eac 803c ed5d 063f b18f f0be 0a35 d33d
000001e0: 866c a6be 09e6 373f 5b67 fbbe 505e ee3e
000001f0: 5f34 05bd 18f0 98be 439a e73d af1e 74be
00000200: 42f1 613d 03ae 18be 514b 1dbf 3559 70be
00000210: 778a 35bf 2052 57be 171e 61be 56bb 3abe
00000220: 346e c8be 3d2c 77be a313 94bf b8b6 c03d
00000230: 34ca 2e3f 545c 3cbe 16e3 d5be e095 aebd
00000240: faa1 07bf 1c26 683e 0798 ddbe d1c2 313f
00000250: b905 efbe 75e0 4cbd 5043 b3be 2385 803e
00000260: 78a0 4b3e 68e6 3e3f 18d0 ab3d 6165 e1be
00000270: 16fc f0be c236 acbe cddb 42be c6da b6be
00000280: 42dd 123f 8dfd 083d 1ed6 74be ec24 e2be
00000290: ff7a b43d 3005 e13e 46a9 e83e 9a23 803e
000002a0: 173e 73be 7941 abbf 6cc5 80be 65d5 533d
000002b0: ae74 1fbf 6366 31bf e23a 1fbf 165e cbbe
000002c0: ab53 1c3f b4a6 3cbf 0261 e03e 176e ddbe
000002d0: 0248 cabe cd7f 3ebe 48cd 1d3e 2544 a8be
000002e0: 47ff 713e 5e4e ab3e 9815 98be 8477 1fbf
000002f0: 9276 f13e eb8e 103e bcfb 213e 575f 21bf

LSTMRec_Q1.denseOS_inner2.bias f4 [64]
0.12551484 0.34845322 -0.045256812 -0.2650029 -0.09414473 -0.40964273 0.31338274 0.50673145
-0.40697634 -0.36967826 -0.143812 0.1546873 0.1627914 -0.21683961 0.15900785 0.5047175
0.11133128 -0.042973615 0.23697086 -0.3088164 0.44644845 -0.3582147 0.3169877 0.46364257
0.24521804 -0.3312652 -0.11183199 0.12603794 0.52229655 -0.17727265 0.50297606 0.11958031
-0.0012525084 0.093214035 -0.30231664 -0.13369398 -0.46667984 0.22650336 -0.4629931 0.50344175
-0.49743107 0.1712965 -0.1935335 0.46805537 -0.18917166 0.25496364 0.49126545 -0.37407935
-0.42871577 0.23345058 0.16958344 -0.5787825 0.23793107 -0.43316084 -0.2644455 0.0025605424
0.21529777 -0.2735122 0.5461877 0.09019712 0.11131011 -0.3651997 0.22926766 -0.1734908
00000000: f686 003e 7668 b23e 355f 39bd 76ae 87be
00000010: f4ce c0bd b1bc d1be b473 a03e 27b9 013f
00000020: 345f d0be 7846 bdbe 7443 13be 5966 1e3e
00000030: cab2 263e 340b 5ebe f4d2 223e 2b35 013f
00000040: a701 e43d 1a05 30bd 7da8 723e 2f1d 9ebe
00000050: e494 e43e eb67 b7be 364c a23e 8f62 ed3e
00000060: 701a 7b3e 989b a9be 2c08 e5bd 1710 013e
00000070: 3ab5 053f f686 35be 0ac3 003f 86e6 f43d
00000080: 352b a4ba 00e7 be3d 3fc9 9abe 13e7 08be
00000090: a9f0 eebe 7ff0 673e 6e0d edbe 8fe1 003f
000000a0: 49af febe 5a68 2f3e a52d 46be f4a4 ef3e
000000b0: 37b6 41be 988a 823e 2587 fb3e 5487 bfbe
000000c0: a280 dbbe ab0d 6f3e 48a7 2d3e 172b 14bf
000000d0: 34a4 733e 42c7 ddbe 6765 87be c6ce 273b
000000e0: 0577 5c3e cb09 8cbe f5d2 0b3f 45b9 b83d
000000f0: 8ef6 e33d 75fb babe 24c5 6a3e 93a7 31be

LSTMRec_Q1.LSTM_inner2.weight_ih_l0 f4 [256, 6]
0.2938831 -0.49121988 -0.69802034 0.10910923 0.04659741 -0.32337353 0.6206022 -0.0067742313
-0.35315838 0.06614206 0.5356562 0.06373903 -0.2427542 0.6932325 0.30468822 -0.057551153
0.043586653 -0.3101538 -0.4538781 -1.3951951 -0.74233586 0.76315355 -0.31675246 -0.009914271
0.29866523 0.50756305 -0.45176673 -0.17056672 0.3499554 0.23231396 0.04473034 -0.41663286
0.2882004 -0.06521736 -0.24971747 0.12061075 0.44081312 -0.31440622 0.31981722 -0.95059896
0.16856363 -0.014057535 0.12415761 0.06204288 -0.7922337 0.010735609 0.20438416 -0.60323936
-0.05052585 0.008727198 -0.5219563 -0.55025 -0.23396099 -0.11336524 0.45886016 0.5411805
-0.6774373 -1.4048157 0.062788054 -0.002589939 0.124629386 -1.0508238 -0.8340692 0.11117601
0.11552459 -0.22744155 -0.07957481 -0.3094983 0.1990705 -0.034806456 0.0381863 0.0026540672
0.037025534 0.100627065 -0.64098763 -1.1169288 -0.33039808 -0.021714877 0.21073137 -0.027211985
0.13440683 -1.1631869 0.118634485 -0.14776322 -0.25138155 -1.4682571 -0.6837589 -0.3892958
-0.021865487 -0.4038811 -0.23386393 0.2859846 -0.28876048 0.34927735 0.053708114 0.3923369
0.007510914 1.022292 0.31537077 0.40520594 0.47024813 0.1746074 0.31391117 0.46557304
-0.3602454 -0.44325748 0.44876328 1.0184761 0.53166133 0.2580812 -0.054677445 -0.32171288
0.52043915 -0.09108319 0.46496576 -0.19160132 -0.6837611 0.54908144 0.14354281 0.2746537
0.067003384 0.5360466 0.7872088 0.3718114 -0.19060774 -0.014881026 -0.37595394 0.9504003
-0.31985748 -0.42372805 -0.45702752 -0.082370006 0.31518114 0.34908375 0.38576996 0.3889261
0.17347689 0.037991367 -0.13347647 0.78677726 0.31012067 -0.39860702 -0.10041841 -0.56497604
0.09957777 0.5521218 0.17271456 0.11317123 -0.038622808 0.15327322 -0.037597604 0.032611072
-0.80605763 -0.3092131 -0.29961 0.25946173 -0.3404451 0.3334654 -0.48843572 -1.2110692
-0.10089881 -0.28902304 0.31975204 -0.12434387 0.29478717 -0.32395017 0.046383567 0.08805358
-0.028878039 0.24159507 0.698387 -0.27264094 0.25238743 0.0065313648 0.38403115 1.1105009
0.81353766 0.12493556 0.47364202 0.014872205 -0.47551352 1.427137 0.2723765 -1.0212401
-0.18256837 0.06866419 -0.7551315 -0.012052764 0.84077525 -0.041905057 -0.18984765 0.049672924
-0.027335912 0.13632974 -0.18022195 -0.12381313 0.18911529 0.048754305 -0.49953485 0.6528428
-0.8116864 0.8855565 0.27540946 0.028931024 -0.034546804 -0.14160573 -0.14403237 0.19444633
0.2934946 0.019527905 0.87093216 0.2956918 0.80715 -0.48842862 0.40282595 0.04193888
0.14169218 0.040314533 0.048320737 -0.053092446 0.027358426 0.099390425 -0.29516214 0.12480844
-0.03807083 -0.07467792 -0.18447974 -0.09936073 -0.08493599 -0.3525287 0.026598237 0.23468025
-0.25489 -0.5125921 0.34598443 0.709194 0.7498538 -0.49302652 0.02391817 -0.053930048
0.55506957 0.50010866 0.097930156 0.5604246 0.31530398 0.08755253 -0.04412885 0.33455956
-0.19109271 0.40148324 -0.09870265 0.3320227 -0.06756531 -0.06439949 -0.2640091 -0.50940603
00000000: d877 963e 2c81 fbbe 76b1 32bf a974 df3d
00000010: eddc 3e3d 3791 a5be c9df 1e3f 5ffa ddbb
00000020: 2dd1 b4be 7d75 873d c420 093f 9c89 823d
00000030: 8f94 78be af77 313f 1800 9c3e c2ba 6bbd
00000040: eb87 323d 7bcc 9ebe b662 e8be c195 b2bf
00000050: b909 3ebf 085e 433f 612d a2be 776f 22bc
00000060: a6ea 983e a7ef 013f f84d e7be 0ba9 2ebe
00000070: 5b2d b33e b6e3 6d3e 2937 373d e750 d5be
00000080: 018f 933e ae90 85bd f0b5 7fbe c502 f73d
00000090: 42b2 e13e daf9 a0be 15bf a33e 745a 73bf
000000a0: f29b 2c3e 9351 66bc 5846 fe3d ad20 7e3d
000000b0: d4cf 4abf 68e4 2f3c 154a 513e e56d 1abf
000000c0: 32f4 4ebd 85fc 0e3c ee9e 05bf 2fdd 0cbf
000000d0: 7893 6fbe 092c e8bd b8ef ea3e ce8a 0a3f
000000e0: 886c 2dbf 00d1 b3bf 0697 803d f7bb 29bb
000000f0: b13d ff3d 6581 86bf 8f85 55bf 3fb0 e33d
00000100: 2898 ec3d 70e6 68be 1ef8 a2bd 9076 9ebe
00000110: 23d9 4b3e 3791 0ebd 3d69 1c3d dcef 2d3b
00000120: 16a8 173d 9015 ce3d c417 24bf 86f7 8ebf
00000130: f029 a9be 66e3 b1bc f7c9 573e abeb debc
00000140: f2a1 093e 4fe3 94bf a3f6 f23d 3e4f 17be
00000150: 15b5 80be d9ef bbbf d30a 2fbf c751 c7be
00000160: 401f b3bc 81c9 cebe 077a 6fbe 936c 923e
00000170: 6ad8 93be 7bd4 b23e 0afd 5b3d 62e0 c83e
00000180: 1d1e f63b 77da 823f 4778 a13e 2777 cf3e
00000190: 5dc4 f03e 48cc 323e f7b8 a03e 975f ee3e
000001a0: 1672 b8be a5f2 e2be 4dc4 e53e 6d5d 823f
000001b0: f51a 083f 3823 843e 75f5 5fbd 8db7 a4be
000001c0: 803b 053f d389 babd fe0f ee3e 2333 44be
000001d0: f80a 2fbf 9a90 0c3f e3fc 123e 699f 8c3e
000001e0: 1239 893d 5a3a 093f 8486 493f 105e be3e
000001f0: ad2e 43be 8ccf 73bc 097d c0be 6f4d 733f
00000200: 5cc4 a3be e2f2 d8be 83ff e9be 9bb1 a8bd
00000210: 6c5f a13e 1bbb b23e a483 c53e 5221 c73e
00000220: eda3 313e d69c 1b3d 0eae 08be 3c6a 493f
00000230: 23c8 9e3e 3816 ccbe 2ba8 cdbd 45a2 10bf
00000240: 6eef cb3d db57 0d3f 16dc 303e 51c6 e73d
00000250: f332 1ebd a8f3 1c3e f2ff 19bd 3093 053d
00000260: cb59 4ebf 2e51 9ebe 7b66 99be 2bd8 843e
00000270: d24e aebe fabb aa3e 3f14 fabe 5104 9bbf
00000280: 09a4 cebd d4fa 93be 8ab6 a33e 00a8 febd
00000290: 58ee 963e ccdc a5be b2fc 3d3d 6f55 b43d
000002a0: a391 ecbc b364 773e 7ec9 323f 9897 8bbe
000002b0: ed38 813e 0f05 d63b bb9f c43e e524 8e3f
000002c0: 0144 503f 37de ff3d 3581 f23e 8daa 733c
000002d0: 8276 f3be 6dac b63f ef74 8b3e ffb7 82bf
000002e0: 34f3 3abe d09f 8c3d 4c50 41bf f578 45bc
000002f0: 0c3d 573f a3a4 2bbd 6c67 42be d675 4b3d
00000300: 90ef dfbc 069a 0b3e 1a8c 38be bd91 fdbd
00000310: 70a7 413e 98b2 473d 08c3 ffbe b520 273f
00000320: aeca 4fbf d5b3 623f 7802 8d3e c100 ed3c
00000330: f380 0dbd 1801 11be 397d 13be f01c 473e
00000340: ed44 963e fcf8 9f3c 69f5 5e3f ea64 973e
00000350: 62a1 4e3f 5113 fabe 343f ce3e 1ac8 2b3d
00000360: c117 113e da20 253d f7eb 453d 7777 59bd
00000370: c71e e03c 358d cb3d 7e1f 97be 919b ff3d
00000380: 29f0 1bbd bdf0 98bd 42e8 3cbe a37d cbbd
00000390: ecf2 adbd a47e b4be 8ce4 d93c 0550 703e
000003a0: f180 82be 3c39 03bf df24 b13e bd8d 353f
000003b0: 6bf6 3f3f f96d fcbe 0af0 c33c c1e5 5cbd
000003c0: 0a19 0e3f 1f07 003f 9b8f c83d fd77 0f3f
000003d0: 866f a13e be4e b33d 74c0 34bd 644b ab3e
000003e0: cfad 43be 368f cd3e 9d24 cabd e1fe a93e
000003f0: ae5f 8abd e1e3 83bd 332c 87be 6f68 02bf

LSTMRec_Q1.LSTM_inner2.weight_hh_l0 f4 [256, 64]
-0.50789607 0.13540961 0.7231931 0.6381533 0.46850684 0.37234437 0.09996806 0.65072984
-0.2729992 0.8472157 0.03062349 -0.23816907 -0.50468737 -0.029782506 -0.23891564 -0.028490033
-0.32113346 0.17610066 0.29782078 0.07944091 -0.251343 0.5342214 0.4052574 -0.07441386
0.01687494 0.30327186 0.26448786 0.56002885 -0.5789382 -0.6142385 -0.12528977 -0.07784596
-0.29379627 -0.3373772 0.1709705 0.8588283 0.2754996 -0.12455298 -0.001153179 -0.111301064
0.20927931 0.6581884 -0.65729225 0.044844538 -0.5166332 -0.4083523 0.16012864 0.10286144
-0.42617682 -0.48972198 -0.9596318 -0.5890761 -0.5999258 0.08760224 -0.019838393 -0.5107808
-0.7613445 -0.33245298 0.15245016 -0.2884689 -0.096065156 -0.06775534 0.2661647 0.032361694
-0.055540014 -0.047362976 0.23084953 0.47411987 -0.10290861 0.030379329 0.42287877 -0.07444993
0.7426007 -0.029540239 -0.16446282 0.28412366 0.009045661 0.11535139 -0.043676004 -0.16275294
-0.20659277 0.06671466 0.18457977 0.20831938 0.32285506 -0.27418324 0.34484237 0.001803245
0.13942032 0.30813712 0.47511095 0.009912746 -0.75512177 0.06731684 1.0721467 0.15289965
-0.41766116 -0.1402611 -0.35884362 -0.32626626 -0.14982651 -0.09591913 0.23405446 0.32243788
-0.13108006 -0.05443388 0.16969496 0.1964801 -0.27285436 0.78137386 0.012064834 0.092384
-0.30171725 -0.050316025 -0.31011033 -0.38726968 0.36188528 -0.055991862 0.15383084 -0.3996684
-0.045851182 -0.08166357 0.071881495 0.10346863 0.12590282 -0.4513054 0.21679729 -0.17328292
0.26541543 0.32771084 0.16611794 0.18918344 0.40156677 0.18943039 -0.32646424 0.064349025
-0.15480535 -0.107765235 0.17791076 0.1836635 -0.16492428 -0.32810575 0.1263969 0.28563002
-0.16575882 0.032819983 -0.08456611 -0.03832859 0.05502367 0.27726632 0.21957944 0.36192337
0.15331145 0.09728924 0.34890324 0.7032539 -0.16645779 -0.054848522 -0.48853928 -0.22691531
0.11932948 0.036332518 0.36902046 -0.04609475 0.4656591 0.2671233 -0.24876432 0.022536201
1.1384838 0.030078044 -0.17534114 0.41127014 -0.39594895 0.28867078 -0.28141809 0.188884
0.3482842 -0.34869727 0.29764423 -0.5724968 -0.36387905 -0.13766426 0.08528121 0.21978174
-0.2691394 -0.38937086 0.27903265 -0.15519148 0.22182357 0.5895411 0.105806194 0.42860007
0.44755688 0.01739252 -0.050698787 0.83656114 0.07542607 0.3776451 -0.03985654 -0.12958808
0.47712305 -0.17266226 0.17808674 -0.19115908 0.17770252 -0.13229893 0.13245596 -0.36152837
-0.49131066 0.09606415 -0.5258144 0.28118214 0.19763921 -0.45778194 -0.056360323 -0.39610335
-0.3148493 0.26217464 0.057514112 0.3529914 0.1463059 0.057387587 0.12980458 -0.21586497
-0.2713224 -0.086324945 -0.0030911537 -0.088644125 -0.22178315 0.24211088 0.5090638 -0.34046817
0.050783742 0.09056653 0.13518786 -0.09364953 0.050726507 0.3050575 -0.049360335 -0.21927802
-0.171383 0.08645031 0.08525852 -0.21444757 -0.120825954 -0.02613399 -0.39612836 0.13543986
-0.20961761 0.07728361 0.13269834 0.35385367 0.2842886 0.106854424 -0.049729645 -0.3552606
00000000: 7a05 02bf d1a8 0a3e 2f23 393f 045e 233f
00000010: 21e0 ef3e eca3 be3e 0ebc cc3d 3b96 263f
00000020: 8dc6 8bbe 21e3 583f 1dde fa3c 98e2 73be
00000030: 3133 01bf 71fa f3bc 4da6 74be ee63 e9bc
00000040: 9b6b a4be bb53 343e f77b 983e eab1 a23d
00000050: 08b0 80be bcc2 083f e67d cf3e 4b66 98bd
00000060: 503d 8a3c 7346 9b3e f46a 873e 0d5e 0f3f
00000070: 4b35 14bf bc3e 1dbf f64b 00be b46d 9fbd
00000080: 776c 96be b4bc acbe e412 2f3e 2cdc 5b3f
00000090: 490e 8d3e a215 ffbd 4426 97ba d0f1 e3bd
000000a0: 514d 563e 097f 283f 4e44 28bf e8ae 373d
000000b0: 1342 04bf 8d13 d1be c3f8 233e 05a9 d23d
000000c0: d933 dabe d7bc fabe 6eaa 75bf b1cd 16bf
000000d0: bd94 19bf ce68 b33d 2084 a2bc 88c2 02bf
000000e0: 79e7 42bf 4737 aabe e51b 1c3e 32b2 93be
000000f0: cfbd c4bd 50c3 8abd bd46 883e b28d 043d
00000100: ed7d 63bd aeff 41bd d263 6c3e d7bf f23e
00000110: c0c1 d2bd 12de f83c 9183 d83e 3479 98bd
00000120: 141b 3e3f 5ffe f1bc f168 28be a878 913e
00000130: 4134 143c 593d ec3d 9ce5 32bd b5a8 26be
00000140: 0e8d 53be b2a1 883d 7b02 3d3e ad51 553e
00000150: 424d a53e bf61 8cbe 2e8f b03e dd5a ec3a
00000160: 33c4 0e3e 26c4 9d3e be41 f33e 1269 223c
00000170: a94f 41bf 69dd 893d 1a3c 893f ba91 1c3e
00000180: afd7 d5be 9ba0 0fbe 5aba b7be 5f0c a7be
00000190: 1f6c 19be 4071 c4bd f9ab 6f3e 9416 a53e
000001a0: da39 06be 0ff6 5ebd 84c4 2d3e 1432 493e
000001b0: 91b3 8bbe 1e08 483f 95ab 453c d333 bd3d
000001c0: af7a 9abe 2d18 4ebd c8c6 9ebe 3648 c6be
000001d0: 0749 b93e b957 65bd d585 1d3e 56a1 ccbe
000001e0: 73ce 3bbd 3b3f a7bd 9b36 933d 5ce7 d33d
000001f0: abec 003e 8011 e7be 1c00 5e3e 1471 31be
00000200: 88e4 873e b7c9 a73e d21a 2a3e 4eb9 413e
00000210: 299a cd3e 0afa 413e 5226 a7be 6cc9 833d
00000220: 4b85 1ebe 05b4 dcbd 3d2e 363e 4912 3c3e
00000230: e9e1 28be 7afd a7be 306e 013e 193e 923e
00000240: aebc 29be 3f6e 063d ff30 adbd 71fe 1cbd
00000250: 8060 613d daf5 8d3e 6fd9 603e 054e b93e
00000260: adfd 1c3e 953f c73d 72a3 b23e 7308 343f
00000270: e973 2abe d8a8 60bd d221 fabe 7d5c 68be
00000280: 0463 f43d 68d1 143d 40f0 bc3e d9cd 3cbd
00000290: df6a ee3e 63c4 883e 13bc 7ebe d79d b83c
000002a0: d6b9 913f 3b66 f63c a18c 33be 0092 d23e
000002b0: d2b9 cabe a8cc 933e 0816 90be cf6a 413e
000002c0: 4f52 b23e 7388 b2be d364 983e 268f 12bf
000002d0: 5b4e babe dcf7 0cbe eaa7 ae3d 770e 613e
000002e0: a4cc 89be 9e5b c7be 5edd 8e3e 84ea 1ebe
000002f0: b825 633e 2aec 163f ebb0 d83d 7871 db3e
00000300: 2d26 e53e c27a 8e3c 88a9 4fbd df28 563f
00000310: fc78 9a3d b35a c13e 9c40 23bd bdb2 04be
00000320: 7949 f43e 60ce 30be 5f5c 363e 35bf 43be
00000330: a6f7 353e 5f79 07be 89a2 073e 3f1a b9be
00000340: 128d fbbe 48bd c43d c69b 06bf 1bf7 8f3e
00000350: ef61 4a3e 6562 eabe 15da 66bd 0fce cabe
00000360: ed33 a1be c13b 863e eb93 6b3d 4abb b43e
00000370: 37d1 153e 3f0f 6b3d 7eeb 043e b50b 5dbe
00000380: c5ea 8abe 22cb b0bd f494 4abb 0d8b b5bd
00000390: 1f1b 63be eaeb 773e 0152 023f d851 aebe
000003a0: 9d02 503d f27a b93d b06e 0a3e 53cb bfbd
000003b0: 99c6 4f3d 7f30 9c3e 102e 4abd 6b8a 60be
000003c0: 067f 2fbe dc0c b13d 059c ae3d 2598 5bbe
000003d0: 9973 f7bd f316 d6bc 56d1 cabe bfb0 0a3e
000003e0: 00a6 56be df46 9e3d 13e2 073e 4f2c b53e
000003f0: 468e 913e 7ed6 da3d 50b1 4bbd b8e4 b5be

LSTMRec_Q1.LSTM_inner2.bias_ih_l0 f4 [256]
0.29209453 0.2575051 0.14361162 0.28264815 0.45676914 0.094694026 0.11644604 -0.053039722
0.23507331 0.25456217 0.17178418 0.11993503 0.3025585 0.010171637 0.06743262 0.14550406
0.42616957 0.23074907 0.34476575 -0.1171664 0.2650475 -0.0069698724 0.33198556 0.16680112
0.40171772 0.21059203 0.15597562 0.17201841 -0.23432377 0.019736068 0.20943396 0.15996495
-0.054179348 0.20861213 -0.023868691 0.5238329 0.11715116 0.12972493 0.30709478 0.19583537
0.18921526 0.26488853 0.034135774 -0.009256383 -0.09792895 0.17654192 0.054882184 0.0018838424
0.3536387 0.1652342 0.31168193 0.22956428 0.51961327 0.2290179 0.1388787 -0.021632323
0.18577717 0.4966688 0.009358982 0.107956216 0.1386492 0.30664554 0.11528678 0.020876426
-0.05488166 0.0024905726 0.02382267 0.07245452 0.022320222 -0.08966111 0.21820332 0.2064808
-0.20403425 -0.16600366 0.03040571 -0.23437043 -0.08864049 -0.12919705 0.12071634 -0.084097914
-0.1832569 0.11609393 -0.030229466 0.14173125 -0.1324719 -0.08629051 -0.05048123 0.10121484
-0.016825149 0.14879361 -0.1014558 0.14284307 -0.20880985 -0.3101927 0.11899451 -0.14816487
-0.11483377 -0.08216227 0.020502701 -0.35919252 0.18630819 0.10164385 0.0047668447 -0.01714377
-0.08431273 0.33669174 0.19851221 -0.11957624 -0.1679161 0.09897076 0.087283686 0.061145987
0.1390693 0.09733031 -0.05332262 0.012457642 0.18219341 0.13518107 -0.029123118 -0.21395928
-0.04532461 -0.030391404 -0.052452818 0.19311018 0.038371537 -0.16311392 -0.0072668623 -0.06787009
-0.0379601 0.17312059 -0.2317673 -0.10854655 0.13067119 -0.021159794 0.15561613 -0.18053915
-0.093179874 0.06390086 0.18665831 -0.13058016 -0.10357232 0.18686633 0.025739627 0.20104548
-0.08124537 -0.30971423 0.017710697 -0.26375052 -0.23579818 0.11519133 -0.19658951 -0.07243565
0.12930806 -0.13816918 -0.14114352 -0.27444175 -0.109293945 0.110376455 0.050787147 0.10380784
0.056735437 0.17544813 0.0019549634 0.07145173 -0.0013957821 0.027458258 -0.041129496 -0.16037141
0.10873135 -0.062224302 0.24381243 0.1168075 0.115926445 -0.15210779 0.21324661 -0.13126063
-0.103973255 0.19914542 -0.18196487 0.092313685 -0.2337082 -0.12859352 -0.032678276 -0.02147799
0.19323732 -0.107793964 -0.026030144 0.22920017 -0.1383823 0.13331887 0.08543897 -0.1694468
0.13308935 0.10931174 -0.04129417 0.495104 0.0920957 0.070720166 0.31074646 -0.15981929
0.3436836 0.4969798 0.10849562 0.2064243 0.28759092 0.20013367 0.1405156 0.12210925
0.51143926 0.18402985 0.16238998 -0.012448148 0.13136092 0.20793486 -0.031808916 0.05899309
0.02162341 0.14891239 0.14200994 0.10656264 0.029678613 0.24815165 -0.030246709 0.265995
0.048137367 0.29880795 0.2510181 0.34714583 0.07244085 0.04945592 0.3538974 0.008610326
0.17803791 -0.029603247 0.15493634 -0.030549742 0.030968122 0.25679085 0.20456582 0.3517524
0.29207757 0.52928555 0.24303325 0.06465625 0.1768898 0.16592963 0.016589435 0.014845405
0.08615534 0.15254547 0.3277336 -0.021872722 0.2684435 0.33277708 0.063490085 -0.039761648
00000000: 6a8d 953e b5d7 833e ed0e 133e 42b7 903e
00000010: a5dd e93e f1ee c13d 437b ee3d 2e40 59bd
00000020: 0fb7 703e f955 823e 31e8 2f3e 7fa0 f53d
00000030: f3e8 9a3e f0a6 263c 1d1a 8a3d 04ff 143e
00000040: e632 da3e 7c49 6c3e 2385 b03e f0f4 efbd
00000050: 4eb4 873e 8763 e4bb 03fa a93e eacd 2a3e
00000060: f2ad cd3e 70a5 573e 13b8 1f3e 9825 303e
00000070: 92f2 6fbe 89ad a13c db75 563e dacd 233e
00000080: 2aeb 5dbd 6b9e 553e 4688 c3bc ea19 063f
00000090: f3ec ef3d 9dd6 043e 873b 9d3e 1189 483e
000000a0: a5c1 413e 789f 873e f4d1 0b3d 16a8 17bc
000000b0: f98e c8bd 68c7 343e 24cc 603d 43eb f63a
000000c0: 2210 b53e 2733 293e c694 9f3e e612 6b3e
000000d0: 6005 053f ab83 6a3e 3836 0e3e 4536 b1bc
000000e0: 5f3c 3e3e 5f4b fe3e 6a56 193c 2618 dd3d
000000f0: 0efa 0d3e a500 9d3e 7a1b ec3d 0a05 ab3c
00000100: 97cb 60bd e038 233b c327 c33c 0963 943d
00000110: e6d8 b63c 3ea0 b7bd b170 5f3e b46f 533e
00000120: 5bee 50be ddfc 29be 6515 f93c cdfe 6fbe
00000130: 2589 b5bd 3b4c 04be 213a f73d 873b acbd
00000140: b2a7 3bbe a8c2 ed3d c9a3 f7bc ff21 113e
00000150: b7a6 07be 14b9 b0bd 68c5 4ebd ba49 cf3d
00000160: e5d4 89bc 5a5d 183e 0fc8 cfbd 7445 123e
00000170: 40d2 55be 94d1 9ebe 65b3 f33d 88b8 17be
00000180: f82d ebbd b144 a8bd 48f5 a73c 15e8 b7be
00000190: 93c7 3e3e a72a d03d 3133 9c3b 1771 8cbc
000001a0: 27ac acbd dc62 ac3e c946 4b3e 63e4 f4bd
000001b0: 33f2 2bbe 2fb1 ca3d cac1 b23d 3774 7a3d
000001c0: 2f68 0e3e 1d55 c73d d268 5abd 231b 4c3c
000001d0: e990 3a3e e86c 0a3e 9b93 eebc 2418 5bbe
000001e0: 4ca6 39bd 65f7 f8bc c4d8 56bd adbe 453e
000001f0: 792b 1d3d 5607 27be dc1e eebb 79ff 8abd
00000200: 0d7c 1bbd 8646 313e 6854 6dbe a74d debd
00000210: abce 053e 4e57 adbc d659 1f3e 41df 38be
00000220: 17d5 bebd 74de 823d 5b23 3f3e ceb6 05be
00000230: b91d d4bd e359 3f3e e9db d23c dede 4d3e
00000240: f963 a6bd dd92 9ebe 0616 913c 4f0a 87be
00000250: 1475 71be 6fe9 eb3d c34e 49be 2459 94bd
00000260: 5569 043e 397c 0dbe ed87 10be a183 8cbe
00000270: 81d5 dfbd 0d0d e23d 2f06 503d 3499 d43d
00000280: 6b63 683d ada8 333e d81e 003b 4955 923d
00000290: adf2 b6ba 24f0 e03c 6777 28bd 6738 24be
000002a0: 8bae de3d e9de 7ebd f7a9 793e c538 ef3d
000002b0: d86a ed3d 25c2 1bbe 525d 5a3e 3069 06be
000002c0: eeef d4bd c7ec 4b3e 0055 3abe f50e bd3d
000002d0: 3451 6fbe 05ae 03be a8d9 05bd 9cf2 afbc
000002e0: 01e0 453e 15c3 dcbd 2b3d d5bc 73b3 6a3e
000002f0: 17b4 0dbe be84 083e a0fa ae3d 7683 2dbe
00000300: 9348 083e d5de df3d 1324 29bd 467e fd3e
00000310: ac9c bc3d bcd5 903d 291a 9f3e aba7 23be
00000320: 4cf7 af3e 2374 fe3e f432 de3d e460 533e
00000330: 1e3f 933e d7ef 4c3e 52e3 0f3e 6a14 fa3d
00000340: afed 023f 5272 3c3e 8f49 263e 51f3 4bbc
00000350: 7a83 063e e0ec 543e 114a 02bd bda2 713d
00000360: 9423 b13c 7d7c 183e 0e6b 113e 833d da3d
00000370: 9020 f33c 771b 7e3e f2c7 f7bc 7f30 883e
00000380: b02b 453d 5bfd 983e 7285 803e 19bd b13e
00000390: de5b 943d 4a92 4a3d 0a32 b53e 5312 0d3c
000003a0: 924f 363e 8282 f2bc a2a7 1e3e 7443 fabc
000003b0: dcb0 fd3c 177a 833e b479 513e e418 b43e
000003c0: 318b 953e 427f 073f b5dd 783e 7f6a 843d
000003d0: 9a22 353e 75e9 293e 91e6 873c 243a 733c
000003e0: 3672 b03d e134 1c3e b3cc a73e 6c2e b3bc
000003f0: 6d71 893e c261 aa3e 1707 823d 1cdd 22bd

LSTMRec_Q1.LSTM_inner2.bias_hh_l0 f4 [256]
0.20996682 0.19655849 0.062936425 0.16541663 0.47307602 -0.04446464 0.04240152 -0.10433546
0.28389713 0.102315366 0.24849196 0.13300827 0.22365062 -0.10928929 0.05215399 0.17090662
0.46289957 0.08616165 0.18390696 -0.089160115 0.22234175 0.052013893 0.22076935 0.26788157
0.16553256 0.23489039 0.38281015 0.010210559 -0.18889064 -0.012658172 0.036912896 0.10790204
0.04500418 0.23914425 0.16691448 0.35585773 0.27443135 0.21176475 0.15449981 0.010211029
0.23978527 0.2322572 0.12596232 0.0057141786 -0.04972281 0.25510356 0.21591133 0.12254841
0.28619465 0.2691559 0.36742142 0.13651378 0.5422726 0.15857343 0.30966473 -0.003082422
0.12055702 0.4027257 0.106616594 -0.043612614 0.1717472 0.33840024 0.16823436 0.104070544
0.04000622 -0.13652202 -0.055938136 -0.030535934 -0.082643725 -0.008513689 0.07764425 0.09207323
-0.13814126 -0.054020934 0.16496652 -0.075650536 0.10139908 -0.0047623324 0.01837176 -0.0070167356
-0.1856777 0.14859018 0.10653476 0.19491918 -0.11503996 -0.115220666 -0.13954733 0.08475782
-0.0032892472 -0.06246739 -0.12692274 0.25960585 -0.0554461 -0.12891969 0.077276535 -0.11755256
-0.24856631 -0.1600832 -0.014291344 -0.3389119 0.021472786 0.06032553 0.053837642 -0.042723946
-0.084755756 0.25130716 0.2547509 -0.1389888 -0.072196305 0.116361596 0.13820827 0.13720621
0.13535209 0.09383733 0.05189379 -0.1812618 -0.033446528 0.1744993 -0.08071492 -0.12550956
0.12197413 0.0069917184 0.033226654 0.16240507 0.0719281 -0.10353747 -0.0065863365 -0.12333038
0.032732043 0.1615934 -0.1711851 0.065511934 0.2562942 -0.029495697 0.25010568 -0.23594815
-0.057104122 0.20990428 -0.026534159 -0.19910525 -0.086777724 0.15562187 -0.0012302914 0.25817376
-0.1079325 -0.12125819 -0.10084637 -0.18072072 -0.025576178 0.12441712 -0.283025 -0.1505324
0.008383471 -0.12651752 -0.07527738 -0.13681449 -0.02229149 -0.06069123 -0.02429027 0.027685942
0.18150872 0.02471942 -0.10868876 0.20583846 0.120649815 0.027964318 -0.019210126 -0.02851175
0.016742593 -0.031105258 0.17983232 -0.0004926532 -0.030013766 -0.027699033 0.19157685 -0.15587124
-0.115775 0.13737284 -0.13086416 0.040615436 -0.08748976 -0.1695401 0.20066838 0.13777891
0.0021255594 -0.014422292 -0.088293605 0.08495379 -0.033813644 -0.05596163 0.090847924 -0.17857231
0.05988679 0.10703299 0.15284899 0.56881636 0.11980958 0.1939412 0.17417142 -0.07117906
0.41815278 0.34222695 0.20162882 0.15065965 0.15242314 0.14749973 0.111983545 -0.07209257
0.43755636 0.1433225 0.043885574 -0.21439733 0.08943623 0.13740203 -0.08397425 0.06704783
0.050699703 0.18436536 0.12339363 -0.030675946 0.095762536 0.17236966 0.04150339 0.33474424
-0.06530261 0.24344948 0.34823212 0.43292984 0.20764874 0.0108813625 0.24364927 -0.14271295
0.25807217 -0.043787964 0.14949165 0.01979993 0.0047916034 0.29638654 0.12924129 0.21171236
0.1952237 0.29877585 0.20243204 0.096235886 0.33562723 0.04078286 0.032414194 0.08683461
0.3113296 0.034451403 0.3091412 0.028514437 0.09640551 0.28370878 0.04055885 0.034979783
00000000: 8b01 573e a146 493e d0e4 803d fa62 293e
00000010: 0537 f23e 8e20 36bd 37ad 2d3d d4ad d5bd
00000020: f75a 913e b88a d13d ad74 7e3e 5233 083e
00000030: ab04 653e 10d3 dfbd 6c9f 553d 2502 2f3e
00000040: 2c01 ed3e 8575 b03d 1b52 3c3e 9499 b6bd
00000050: 8ead 633e 850c 553d 5c11 623e c627 893e
00000060: 5e81 293e 1b87 703e b1ff c33e 304a 273c
00000070: 8c6c 41be 3964 4fbc fa31 173d bffb dc3d
00000080: 4e56 383d 3be2 743e a1eb 2a3e fc32 b63e
00000090: 4482 8c3e dcd8 583e 3335 1e3e 294c 273c
000000a0: 458a 753e d5d4 6d3e 44fc 003e 013e bb3b
000000b0: 25aa 4bbd ef9c 823e dc17 5d3e a9fa fa3d
000000c0: 1b88 923e cdce 893e a91e bc3e 45ca 0b3e
000000d0: 61d2 0a3f 1361 223e 608c 9e3e 7602 4abb
000000e0: 99e6 f63d 1032 ce3e cd59 da3d 24a3 32bd
000000f0: 7fde 2f3e cc42 ad3e a145 2c3e f022 d53d
00000100: 90dd 233d 6ecc 0bbe 631f 65bd 7f26 fabc
00000110: 1d41 a9bd 007d 0bbc f303 9f3d e490 bc3d
00000120: e774 0dbe 0e45 5dbd fcec 283e abee 9abd
00000130: 52aa cf3d 570d 9cbb 6080 963c a5ec e5bb
00000140: 4c22 3ebe 0628 183e e52e da3d e598 473e
00000150: 129a ebbd d0f8 ebbd 7fe5 0ebe 8295 ad3d
00000160: 6990 57bb cedd 7fbd 09f8 01be 0feb 843e
00000170: 731b 63bd 8603 04be 2943 9e3d 66bf f0bd
00000180: 2b88 7ebe daec 23be 3e26 6abc dc85 adbe
00000190: b2e7 af3c e717 773d dc84 5c3d 4eff 2ebd
000001a0: 6d94 adbd 55ab 803e b66e 823e 1453 0ebe
000001b0: a8db 93bd fd4e ee3d 7886 0d3e c97f 0c3e
000001c0: bd99 0a3e c92d c03d 958e 543d b19c 39be
000001d0: 3aff 08bd f2af 323e dd4d a5bd 9485 00be
000001e0: 93cd f93d c91a e53b ac18 083d 844d 263e
000001f0: 0a4f 933d 740b d4bd 32d2 d7bb a394 fcbd
00000200: 0912 063d be78 253e 264b 2fbe 1f2b 863d
00000210: fe38 833e f6a0 f1bc da0d 803e 649c 71be
00000220: 03e6 69bd 26f1 563e 2a5e d9bc 3fe2 4bbe
00000230: 85b8 b1bd 575b 1f3e bb41 a1ba 5a2f 843e
00000240: b70b ddbd 3756 f8bd 8b88 cebd da0e 39be
00000250: 2285 d1bc 67ce fe3d a7e8 90be 2a25 1abe
00000260: d35a 093c cf8d 01be 072b 9abd 1919 0cbe
00000270: a59c b6bc 5e97 78bd 63fc c6bc a1cd e23c
00000280: 6cdd 393e 6280 ca3c 3698 debd 51c7 523e
00000290: 4017 f73d 6d15 e53c 8e5e 9dbc 7991 e9bc
000002a0: c327 893c 74d0 febc f725 383e 6625 01ba
000002b0: 6edf f5bc 15e9 e2bc b92c 443e b69c 1fbe
000002c0: 711b edbd 77ab 0c3e 4101 06be 5f5c 263d
000002d0: d52d b3bd ec9b 2dbe 037c 4d3e ea15 0d3e
000002e0: f84c 0b3b 7a4b 6cbc 47d3 b4bd 41fc ad3d
000002f0: 2d80 0abd 0638 65bd 7a0e ba3d a9db 36be
00000300: da4b 753d 1d34 db3d 7284 1c3e f39d 113f
00000310: ba5e f53d 8698 463e fe59 323e 54c6 91bd
00000320: 1f18 d63e 5f38 af3e c977 4e3e 8646 1a3e
00000330: d014 1c3e 2b0a 173e a157 e53d 45a5 93bd
00000340: 6307 e03e 22c3 123e 5cc1 333d f98a 5bbe
00000350: 582a b73d 1eb3 0c3e b1fa abbd 5f50 893d
00000360: 7eaa 4f3d 46ca 3c3e cdb5 fc3d 1f4c fbbc
00000370: 261f c43d ac81 303e 75ff 293d 9963 ab3e
00000380: 60bd 85bd d24a 793e 7b4b b23e fba8 dd3e
00000390: dfa1 543e be47 323c 327f 793e 5823 12be
000003a0: 0922 843e 025b 33bd 5714 193e 7633 a23c
000003b0: e202 9d3b fabf 973e d457 043e 20cb 583e
000003c0: b9e8 473e 26f9 983e 584a 4f3e 5217 c53d
000003d0: 55d7 ab3e ee0b 273d bfc4 043d 58d6 b13d
000003e0: 9866 9f3e ea1c 0d3d c147 9e3e 1c97 e93c
000003f0: 4170 c53d 4742 913e 0921 263d f646 0f3d

LSTMRec_Q1.denseTS_inner2.weight f4 [64, 64]
0.29549515 0.05889306 -0.09824009 0.081197165 -0.033333946 2.5262441e-05 0.014424119 -0.20342764
0.24127267 0.05357523 0.2446538 -0.2160934 -0.29092556 0.21919501 0.094881 -0.11700546
-0.40229973 -0.18988203 0.26663038 -0.23064621 -0.21410628 0.1806743 -0.027931618 0.22838366
0.12325514 -0.07178949 0.29356605 -0.05331927 0.15783563 -0.089006245 -0.37249175 0.2474322
-0.1376571 0.05092443 -0.13984701 -0.13549136 -0.013278285 0.2504799 -0.20236988 0.06121405
0.24513452 0.35803747 0.07748586 0.051385447 -0.090936005 0.008335278 -0.03511529 -0.23085341
0.07083484 0.2181599 -0.18711354 0.08417858 -0.10419467 0.07149315 0.20979103 0.028846001
-0.032806028 -0.13246998 0.03443925 0.075346656 -0.1869938 -0.18144453 -0.096862994 0.07891332
0.18255052 0.21443693 0.046077404 0.08020312 0.24101306 -0.23364575 0.17326313 -0.1517109
-0.04749906 0.045531105 -0.02655181 -0.21828496 0.16835666 -0.16105579 0.13230078 -0.05782409
-0.24620013 0.010523642 -0.2717416 -0.1928919 -0.23397107 -0.29286656 0.12892835 0.29864267
-0.24565007 -0.2949342 -0.20941558 0.0032840632 -0.0069338605 -0.10059875 -0.17425475 0.12747675
-0.17719547 0.13959162 -0.09638001 -0.20995863 0.0943676 0.2667055 0.24016352 -0.035166137
-0.052015625 -0.16727404 0.10289882 0.026507428 -0.03569397 0.086612865 -0.011171694 0.198655
-0.33265465 -0.026305893 0.0806707 0.27305034 -0.07216804 -0.014147255 0.031309303 -0.017829338
0.113740176 -0.0015704767 0.23386306 0.15654536 0.18308757 -0.015350741 0.12578547 -0.14757897
-0.015777566 0.19358715 0.13766289 0.10318593 -0.13780987 0.011723737 -0.081061915 -0.04961451
0.33077204 -0.0451698 -0.11495359 -0.11985227 -0.051709414 -0.47609293 0.21758135 0.017835146
-0.011325932 0.084250554 -0.073886245 -0.01166223 0.25815848 0.20408615 0.07511364 0.1563349
-0.1554864 0.13528697 -0.06936713 0.18314442 0.049989488 -0.05709227 -0.27249017 -0.05496786
0.12351665 -0.3280545 0.2713322 0.26432854 0.06360692 -0.109905414 0.35205135 -0.25407425
-0.13860507 -0.085885316 -0.2727574 0.27064553 0.005897291 0.17144006 -0.006859422 -0.1284744
-0.02122991 -0.28769386 0.21388163 -0.3089293 0.34621847 0.019760722 0.19399928 -0.00196613
-0.32193804 0.049273837 0.09441418 -0.036921173 -0.106900774 -0.16321354 -0.0043818383 0.19301268
-0.23491861 0.2712612 -0.20078394 0.62797856 0.25897026 -0.13451195 0.35300964 -0.3057995
0.17147799 -0.058421012 -0.46645188 0.14844215 -0.29588842 -0.120337896 0.19525753 0.16623831
-0.08945275 0.030244702 -0.05424145 -0.2903848 -0.16770613 -0.09599442 0.32632506 0.020706499
-0.21648522 -0.21356489 0.351806 -0.22224475 0.3093032 -0.0071790656 0.32571843 -0.0015314316
-0.16471992 0.16975944 0.09414023 -0.11218829 -0.0911072 0.16039501 0.05483888 0.06410791
-0.20357186 -0.24447837 0.1500837 0.0041322983 -0.06790102 0.12885246 0.14462632 0.41692033
-0.06458638 0.009333648 -0.050956313 -0.048964772 -0.26139244 -0.24200442 0.18471296 0.076773085
-0.031817425 -0.056246206 0.21863529 -0.006823605 -0.17644888 0.12059487 0.2126217 -0.1788541
00000000: 244b 973e d939 713d 1a32 c9bd b34a a63d
00000010: 2d89 08bd aeea d337 2453 6c3c 564f 50be
00000020: 2f10 773e b371 5b3d 8786 7a3e 9747 5dbe
00000030: 32f4 94be a874 603e f850 c23d 8fa0 efbd
00000040: 3bfa cdbe 6f70 42be c783 883e 852e 6cbe
00000050: ad3e 5bbe af02 393e d9d0 e4bc 68dd 693e
00000060: 316d fc3d 5e06 93bd 4a4e 963e 4f65 5abd
00000070: aa9f 213e e848 b6bd 3db7 bebe de5e 7d3e
00000080: fcf5 0cbe 2396 503d 0e34 0fbe 3fbe 0abe
00000090: 2a8d 59bc e73e 803e 0d3a 4fbe 95bb 7a3d
000000a0: 8b04 7b3e b050 b73e e8b0 9e3d 8c79 523d
000000b0: a83c babd b190 083c 0dd5 0fbd d664 6cbe
000000c0: db11 913d 4f65 5f3e b19a 3fbe d265 ac3d
000000d0: 0464 d5bd 006b 923d 76d3 563e 734e ec3c
000000e0: 9d5f 06bd 36a6 07be 2c10 0d3d 594f 9a3d
000000f0: 4d7b 3fbe 98cc 39be 1b60 c6bd 4f9d a13d
00000100: 86ee 3a3e 5b95 5b3e a9bb 3c3d 8941 a43d
00000110: 21cc 763e d540 6fbe e46b 313e 1a5a 1bbe
00000120: 608e 42bd d37e 3a3d 2e83 d9bc 1886 5fbe
00000130: b065 2c3e cfeb 24be db79 073e f4d8 6cbd
00000140: e31b 7cbe 5b6b 2c3c b721 8bbe 7485 45be
00000150: 1d96 6fbe 9bf2 95be cb05 043e b1e7 983e
00000160: b18b 7bbe 9e01 97be 0a71 56be 7039 573b
00000170: 7035 e3bb b806 cebd d66f 32be 4489 023e
00000180: bb72 35be 1bf1 0e3e e262 c5bd 65ff 56be
00000190: cd43 c13d a08d 883e 6ded 753e 5e0a 10bd
000001a0: 560e 55bd e349 2bbe 9ebc d23d 1b26 d93c
000001b0: d733 12bd 1662 b13d 7b09 37bc 376c 4b3e
000001c0: b651 aabe 757f d7bc ae36 a53d 41cd 8b3e
000001d0: d6cc 93bd e3c9 67bc 2f3e 003d d50e 92bc
000001e0: 9cf0 e83d 74d8 cdba cc79 6f3e 6d4d 203e
000001f0: 4f7b 3b3e ad81 7bbc e8cd 003e f11e 17be
00000200: f43f 81bc b63b 463e 80f7 0c3e 2553 d33d
00000210: 081e 0dbe eb14 403c ca03 a6bd 9638 4bbd
00000220: f45a a93e f803 39bd ca6c ebbd 1b75 f5bd
00000230: 40cd 53bd 74c2 f3be a5cd 5e3e 031b 923c
00000240: 6790 39bc 8e8b ac3d ac51 97bd f012 3fbc
00000250: 592d 843e f6fb 503e 2ed5 993d 4216 203e
00000260: d437 1fbe ab88 0a3e 5b10 8ebd 368a 3b3e
00000270: c7c1 4c3d 96d9 69bd d583 8bbe fb25 61bd
00000280: 4cf6 fc3d c2f6 a7be 0eec 8a3e 1256 873e
00000290: 5844 823d 1716 e1bd 1340 b43e 0516 82be
000002a0: 7dee 0dbe a4e4 afbd dca6 8bbe 0d92 8a3e
000002b0: 103e c13b fc8d 2f3e 01c5 e0bb cb8e 03be
000002c0: 59ea adbc 9c4c 93be c903 5b3e fb2b 9ebe
000002d0: 8c43 b13e 3de1 a13c bfa7 463e 30da 00bb
000002e0: 10d5 a4be 5dd3 493d 395c c13d a83a 17bd
000002f0: cbee dabd 7321 27be 8695 8fbb 1ea5 453e
00000300: 818e 70be bfe2 8a3e 4e9a 4dbe 34c3 203f
00000310: c097 843e 80bd 09be aebd b43e c191 9cbe
00000320: ed97 2f3e df4a 6fbd c8d2 eebe 3801 183e
00000330: b07e 97be b773 f6bd 97f1 473e 603a 2a3e
00000340: 0133 b7bd bdc3 f73c 482c 5ebd 51ad 94be
00000350: 28bb 2bbe b998 c4bd 1414 a73e ada0 a93c
00000360: 4dae 5dbe c1b0 5abe eb1f b43e 2194 63be
00000370: fd5c 9e3e 5e3e ebbb 91c4 a63e 51ba c8ba
00000380: 57ac 28be 6bd5 2d3e 98cc c03d f9c2 e5bd
00000390: 6996 babd 973e 243e bc9e 603d 024b 833d
000003a0: 2475 50be 8a58 7abe 8baf 193e 3b68 873b
000003b0: b10f 8bbd e6f1 033e ec18 143e 9576 d53e
000003c0: dd45 84bd 28ec 183c 91b7 50bd 498f 48bd
000003d0: 3bd5 85be 02d0 77be 6525 3d3e 353b 9d3d
000003e0: fd52 02bd 6c62 66bd eee1 5f3e 8c98 dfbb
000003f0: 04af 34be 71fa f63d 81b9 593e 8725 37be

LSTMRec_Q1.denseTS_inner2.bias f4 [64]
0.1965653 0.017585592 -0.27466866 -0.104617976 -0.12680389 -0.09808497 0.02050554 -0.0028185982
0.068138495 -0.18136299 0.0720489 -0.039522834 -0.03515093 0.112987414 0.02032263 -0.14166276
-0.20699807 -0.072634324 -0.06677574 0.16926397 -0.15501525 0.07811665 0.14751613 -0.12564135
0.09670754 0.08701748 -0.21133919 0.039915122 -0.075928755 -0.0709563 -0.0032990726 -0.096609995
-0.24558344 -0.19781396 0.12644005 0.110744715 -0.25408125 -0.06322715 0.084275775 0.13597216
-0.20471266 0.23084997 0.038105343 -0.22720867 -0.13529134 -0.20812586 -0.26677608 -0.18284018
-0.031289704 0.023904637 -0.27365258 -0.18653415 0.056359224 0.1390354 -0.06952709 -0.06951704
-0.024596553 -0.03596346 0.15144776 0.075132586 -0.23996198 0.04592976 -0.010729794 -0.042962316
00000000: 6a48 493e a90f 903c 5fa1 8cbe f341 d6bd
00000010: e1d8 01be c6e0 c8bd 3cfb a73c 3bb8 38bb
00000020: 328c 8b3d 38b7 39be 608e 933d b2e2 21bd
00000030: 6cfa 0fbd f265 e73d a57b a63c 0b10 11be
00000040: 4df7 53be 4ec1 94bd b8c1 88bd 8953 2d3e
00000050: 51bc 1ebe 9ffb 9f3d 780e 173e 20a8 00be
00000060: 9a0e c63d 3836 b23d 4d69 58be 0a7e 233d
00000070: 8980 9bbd 8951 91bd 4135 58bb 76db c5bd
00000080: 3a7a 7bbe be8f 4abe 8079 013e 20ce e23d
00000090: f016 82be 3c7d 81bd c798 ac3d 493c 0b3e
000000a0: 32a0 51be ef63 6c3e 5914 1c3d 64a9 68be
000000b0: d089 0abe f21e 55be e096 88be 753a 3bbe
000000c0: a229 00bd a8d3 c33c 311c 8cbe cf02 3fbe
000000d0: eed8 663d 4c5f 0e3e 3864 8ebd f35e 8ebd
000000e0: b67e c9bc 6c4e 13bd 1f15 1b3e 1ddf 993d
000000f0: 98b8 75be d820 3c3d 05cc 2fbc 41f9 2fbd

LSTMRec_Q1.denseOS_inner1.weight f4 [64, 3]
0.41600546 -0.048948042 0.121480435 0.72054714 -0.620106 0.0077877487 -0.4174019 -0.08475902
0.4293187 -0.31629223 0.34219152 0.646307 -0.35262588 0.72341174 0.31192338 0.65675014
-0.8733419 0.08012238 -0.50440437 -0.35011005 -0.16759829 -0.7685029 -0.3578222 -0.3208309
0.26737368 -0.73822546 0.11767483 0.6464086 0.54152 -0.19969925 0.5630563 -0.35394585
-0.054378197 -0.4464272 -0.92868745 0.26796237 -0.65860975 0.5076218 0.3763401 -0.31170487
-0.17414072 -0.30000466 -0.21171308 -0.5275648 -0.33542883 0.25395274 -0.45476454 0.33314726
-0.883353 0.49926028 0.26694116 -0.95001507 0.18437387 0.28971678 -0.32117692 -0.5188426
-0.5621818 0.07163457 -0.74601614 -0.43729442 0.07288199 0.045793366 0.7859933 0.997685
-0.14785832 -0.038039137 -0.047097754 0.23160267 0.20877641 -0.7118736 -0.2436994 -0.61572
-0.746053 -1.0089203 0.23802266 0.7775127 0.27989125 -0.021300515 0.5402111 0.2827267
0.21730743 0.8858267 -0.20032816 -0.26941162 0.09694342 -0.56204605 -0.05061621 -1.034427
0.4235748 0.4296358 -0.5208248 0.7233169 0.3527284 -0.77434283 -0.045829173 0.301171
-0.7523866 0.2474756 -0.19797346 -0.13910948 0.5257698 -0.22544311 -0.001585182 0.4659781
-0.0122765405 -0.3768445 -0.6680101 -0.4093331 0.48946682 -0.3177827 0.17740983 -0.4938475
0.54455245 0.07892699 -0.054867905 -0.28065398 -0.19559062 -1.1274971 0.12034922 -0.010654776
-0.5354114 0.44283494 0.03161692 -0.6608585 0.5885265 0.31261447 -0.58530897 -0.48887932
-0.052003533 -0.69858503 -0.42928395 -0.044828948 0.39170113 -0.29204255 0.014617575 0.09325114
-0.3818425 0.22193572 0.6472144 -0.5211852 -0.0066574537 0.38882035 0.70416725 0.5043255
0.27691928 -0.43163615 -0.5410712 -0.5030602 0.3647758 0.35364127 -0.49155518 -0.39288276
-0.37306798 0.64006484 0.59094375 0.27326536 0.8073254 0.68637216 0.30030027 -0.93955266
0.099075906 0.6517755 -0.39508024 -0.30114782 -0.010125347 -0.12671891 0.037578505 0.13473864
-0.062382597 0.7193088 -0.2964734 -0.5627481 0.5537102 0.08499048 0.39389384 0.35783604
0.5095088 -0.7365614 0.32041267 0.20158662 -0.59708804 0.5253181 0.037418395 0.5874118
-1.2963054 -0.027164351 0.48027787 0.27695516 0.46048847 0.2392317 -0.5787455 0.07905318
00000000: abfe d43e be7d 48bd bcca f83d c775 383f
00000010: 44bf 1ebf 5f30 ff3b b4b5 d5be 2396 adbd
00000020: a9cf db3e 0ef1 a1be ba33 af3e 6074 253f
00000030: 618b b4be 8331 393f 6cb4 9f3e c720 283f
00000040: 5693 5fbf 3417 a43d a520 01bf a041 b3be
00000050: e39e 2bbe 9bbc 44bf 7934 b7be f343 a4be
00000060: 34e5 883e 58fc 3cbf 80ff f03d 097b 253f
00000070: 0ea1 0a3f f67d 4cbe 7524 103f 6438 b5be
00000080: acbb 5ebd 1b92 e4be 76be 6dbf 5d32 893e
00000090: a69a 28bf 81f3 013f a6af c03e c897 9fbe
000000a0: f251 32be 369a 99be 50cb 58be 7d0e 07bf
000000b0: 54bd abbe 1806 823e e6d6 e8be 4792 aa3e
000000c0: 6c23 62bf 0b9f ff3e 83ac 883e 3034 73bf
000000d0: 81cc 3c3e c255 943e 4d71 a4be ded2 04bf
000000e0: 25eb 0fbf 25b5 923d eafa 3ebf 0ee5 dfbe
000000f0: 2743 953d d391 3b3d db36 493f 4968 7f3f
00000100: 2c68 17be edce 1bbd 93e9 40bd 4029 6d3e
00000110: 7cc9 553e 593d 36bf 568c 79be d39f 1dbf
00000120: 54fd 3ebf 4d24 81bf 36bc 733e 130b 473f
00000130: e84d 8f3e 6b7e aebc 464b 0a3f 8ec1 903e
00000140: d785 5e3e 8ac5 623f d322 4dbe 52f0 89be
00000150: 468a c63d 40e2 0fbf f152 4fbd 1b68 84bf
00000160: ccde d83e 39f9 db3e c654 05bf 4c2b 393f
00000170: d198 b43e 553b 46bf 5fb7 3bbd 1633 9a3e
00000180: 699c 40bf 3e6a 7d3e 8eb9 4abe b772 0ebe
00000190: da98 063f 8fda 66be e2c5 cfba ae94 ee3e
000001a0: 8b23 49bc c3f1 c0be b602 2bbf 1c94 d1be
000001b0: 659b fa3e 6ab4 a2be ecaa 353e 94d9 fcbe
000001c0: ca67 0b3f 79a4 a13d 2bbd 60bd e1b1 8fbe
000001d0: e848 48be d351 90bf a779 f63d 5f91 2ebc
000001e0: b910 09bf 43bb e23e be80 013d 062e 29bf
000001f0: aca9 163f 010f a03e cfd6 15bf 644e fabe
00000200: a801 55bd 78d6 32bf 1bcb dbbe 8f9e 37bd
00000210: 0d8d c83e 9a86 95be 8e7e 6f3c 74fa be3d
00000220: dc80 c3be 1e43 633e d8af 253f 656c 05bf
00000230: c526 dabb 7613 c73e 4e44 343f 7a1b 013f
00000240: 5dc8 8d3e 6aff dcbe a483 0abf 8ec8 00bf
00000250: e5c3 ba3e 7810 b53e 1fad fbbe ee27 c9be
00000260: c402 bfbe 4adb 233f 1748 173f 70e9 8b3e
00000270: e1ac 4e3f 16b6 2f3f f5c0 993e 8686 70bf
00000280: 4fe8 ca3d c2da 263f f547 cabe 0c30 9abe
00000290: c9e4 25bc 9ac2 01be ebeb 193d edf8 093e
000002a0: e584 7fbd 9f24 383f 5dcb 97be 4210 10bf
000002b0: f4bf 0d3f 7d0f ae3d 74ac c93e 4936 b73e
000002c0: 2b6f 023f 4a8f 3cbf 210d a43e b96c 4e3e
000002d0: c3da 18bf 3f7b 063f 0844 193d 9f60 163f
000002e0: 56ed a5bf c687 debc fbe6 f53e 11cd 8d3e
000002f0: 25c5 eb3e 28f9 743e aa28 14bf a2e6 a13d

LSTMRec_Q1.denseOS_inner1.bias f4 [64]
0.13648301 0.28464127 -0.25238666 0.03287193 0.030395346 0.3732408 -0.2609602 0.12594958
0.3534825 -0.09690785 -0.03411771 0.4567356 -0.25091556 -0.3551026 0.3123615 -0.41579467
-0.33955353 0.039609954 -0.030625986 0.29153833 0.30765393 -0.38632458 0.23266715 0.090662114
0.46173412 -0.32400322 -0.2177826 -0.004314337 -0.15426028 -0.15149108 -0.49577546 0.05431115
0.026953585 -0.46394724 -0.2777793 0.01842067 0.37935436 -0.3982519 -0.26016533 -0.15267621
-0.41454923 -0.25684252 0.33673948 0.43081412 -0.381808 0.56938726 0.124726355 -0.1748385
-0.2702473 -0.3245757 0.29691312 -0.39429063 -0.6469683 -0.35976171 0.35427698 0.063573785
-0.7491785 0.0040389155 0.40694228 0.20476778 0.15298931 0.09867317 -0.304153 -0.13847388
00000000: 34c2 0b3e 80bc 913e d338 81be b8a4 063d
00000010: a9ff f83c 6b19 bf3e 939c 85be edf8 003e
00000020: a9fb b43e 9f77 c6bd 03bf 0bbd 40d9 e93e
00000030: 0178 80be 02d0 b5be d9ed 9f3e 0ae3 d4be
00000040: f6d9 adbe 0c3e 223d 59e3 fabc 8344 953e
00000050: d184 9d3e 56cc c5be 4c40 6e3e 0fad b93d
00000060: 6a68 ec3e c0e3 a5be 6702 5fbe 485f 8dbb
00000070: 68f6 1dbe 7a20 1bbe 48d6 fdbe 5e75 5e3d
00000080: c4cd dc3c 7e8a edbe 1739 8ebe f2e6 963c
00000090: bc3a c23e ace7 cbbe 6434 85be 2757 1cbe
000000a0: cc3f d4be dd80 83be 1e69 ac3e ab93 dc3e
000000b0: 577c c3be 5dc3 113f 8870 ff3d dd08 33be
000000c0: db5d 8abe c92e a6be ff04 983e 76e0 c9be
000000d0: b79f 25bf b032 b8be cb63 b53e f932 823d
000000e0: 2aca 3fbf e158 843b bd5a d03e a5ae 513e
000000f0: 3ba9 1c3e 2915 ca3d f1b9 9bbe 19cc 0dbe
