3007_actor.pth (torch, 498885 bytes, 31 tensors)

denseOS_inner2.weight f4 [64, 3]
0.47748622 0.6235504 -0.112361595 -0.21789041 0.20850243 0.5207977 0.19510531 -0.6114682
-0.16548847 -0.38040224 -0.097845994 0.56363326 0.90214336 -0.5704914 0.2432621 -0.12690502
0.68470615 0.3424522 -0.3825674 0.32757312 0.20284748 -0.43840435 -0.3733171 0.15754925
0.49131516 -0.47238553 -0.5489019 0.23363845 -0.70736474 -0.3251245 0.5670695 -0.51350033
-0.33858827 0.559403 -0.078377455 0.12282629 0.3423068 0.64243037 0.1137907 0.085737
-0.3508315 -0.11996041 -0.1415162 0.29214945 -0.000761279 0.27442253 -0.41078535 0.40245327
-0.404072 0.42483425 -0.31561926 0.57882005 0.08219278 -0.39610234 0.12907241 -0.46548644
-0.62251747 -0.16226742 -0.21340185 -0.54688436 -0.84110034 0.099704474 -0.20600426 0.56350154
-0.22812887 0.32349706 0.0035047708 0.420844 0.7859818 0.45737073 0.2725345 -0.2684852
0.717782 0.64746964 0.5772743 -0.5969304 -0.4556358 -0.2626611 0.47858813 -0.55517256
-0.05381185 -0.10028961 0.55280095 -0.010113832 0.30229557 0.022358654 0.37646922 0.26595658
-0.554206 0.12500991 0.54069203 -0.4908616 -0.2345843 0.38778964 0.5803303 0.37792736
-0.43351075 -0.32217196 0.4173021 0.2618443 0.5168556 0.23365845 -0.4033798 0.35470945
-0.31336954 -0.03875661 -0.48431903 0.12923415 -0.051933464 0.29478586 -0.43339315 -0.19814537
-0.30520022 -0.5144618 -0.108645275 -0.0017189861 -0.11795021 -0.09555948 -0.47026438 -0.06026197
0.34315497 -0.34975675 -0.52542806 0.27049294 0.67913914 -0.24285002 0.2908413 0.7737897
0.30171785 0.6777351 0.5356553 0.43065444 -0.32912967 -0.33702156 0.650661 0.5929513
-0.12686805 0.4388613 -0.0005102892 -0.23449507 0.39360923 0.45762196 0.017481316 0.18703535
0.5324716 -0.39047173 0.49999705 -0.41685537 0.0036088692 0.021527814 -0.53405935 0.10068625
0.20361583 0.18364322 -0.15682565 0.075252004 0.34299225 -0.4507107 -0.2555364 -0.336612
-0.059886083 -0.36320058 -0.22945064 0.40125972 -0.21108806 0.4603815 0.02049642 0.62472403
-0.12343264 -0.2962124 0.39934835 -0.7490704 0.5792665 -0.29182878 0.6695764 0.7229212
0.11544806 0.20260137 -0.59678084 -0.15470283 -0.4195129 -0.14344053 -0.09794868 0.43424165
0.73392636 0.09457494 0.38189286 0.69598037 -0.4222715 -0.039507426 -0.093570076 -0.35647666
00000000: 1379 f43e 00a1 1f3f d61d e6bd aa1e 5fbe
00000010: a981 553e 0053 053f b0c9 473e 2e89 1cbf
00000020: cf75 29be 15c4 c2be 7b63 c8bd 454a 103f
00000030: def2 663f b90b 12bf b319 793e 64f3 01be
00000040: e748 2f3f e555 af3e e0df c3be aab7 a73e
00000050: 40b7 4f3e 8976 e0be 6b23 bfbe 9754 213e
00000060: a98d fb3e 84dc f1be d684 0cbf eb3e 6f3e
00000070: db15 35bf b876 a6be 772b 113f c274 03bf
00000080: 715b adbe 0935 0f3f 5c84 a0bd 5a8c fb3d
00000090: d642 af3e 5176 243f 190b e93d e196 af3d
000000a0: 30a0 b3be cead f5bd 9fe9 10be 9d94 953e
000000b0: 9290 47ba 1c81 8c3e 7552 d2be 5b0e ce3e
000000c0: 86e2 cebe e083 d93e d998 a1be 8d2d 143f
000000d0: b054 a83d edcd cabe 8f2b 043e 3d54 eebe
000000e0: 4e5d 1fbf 6e29 26be 0486 5abe 9d00 0cbf
000000f0: 5a52 57bf dc31 cc3d c8f2 52be a341 103f
00000100: 9d9a 69be 68a1 a53e 4cb0 653b dd78 d73e
00000110: 1a36 493f 7f2c ea3e a489 8b3e e476 89be
00000120: 90c0 373f 92c0 253f 40c8 133f 6ed0 18bf
00000130: 1849 e9be 847b 86be 8109 f53e ca1f 0ebf
00000140: d069 5cbd a464 cdbd 5d84 0d3f 7cb4 25bc
00000150: 7cc6 9a3e 7f29 b73c 93c0 c03e 762b 883e
00000160: 72e0 0dbf 9902 003e cb6a 0a3f 3652 fbbe
00000170: de36 70be 5d8c c63e 8790 143f b27f c13e
00000180: 1ff5 ddbe b9f3 a4be 9fa8 d53e 7510 863e
00000190: a650 043f 2944 6f3e cc87 cebe 7a9c b53e
000001a0: f971 a0be 40bf 1ebd aaf8 f7be f555 043e
000001b0: 2fb8 54bd 2cee 963e b5e5 ddbe 9fe6 4abe
000001c0: 3443 9cbe c5b3 03bf 6a81 debd 9a4f e1ba
000001d0: e18f f1bd b0b4 c3bd 7ec6 f0be 41d5 76bd
000001e0: 02b2 af3e 5113 b3be 7482 06bf 0d7e 8a3e
000001f0: 10dc 2d3f adad 78be 27e9 943e 1517 463f
00000200: c37a 9a3e 0c80 2d3f b520 093f bd7e dc3e
00000210: af83 a8be 178e acbe b891 263f a8cb 173f
00000220: b3e9 01be 6eb2 e03e eec4 05ba 7a1f 70be
00000230: 2687 c93e 6d4d ea3e fa34 8f3c 3286 3f3e
00000240: 0f50 083f e9eb c7be 9dff ff3e 116e d5be
00000250: c782 6c3b 195b b03c 1db8 08bf 9834 ce3d
00000260: ab80 503e f80c 3c3e e796 20be b91d 9a3d
00000270: ae9c af3e 8ec3 e6be abd5 82be 6858 acbe
00000280: 1c4b 75bd 6df5 b9be 1cf5 6abe ea71 cd3e
00000290: 7827 58be 20b7 eb3e 1ce8 a73c eaed 1f3f
000002a0: 41ca fcbd 27a9 97be 6377 cc3e 14c3 3fbf
000002b0: cf4a 143f 956a 95be 5c69 2b3f 5d11 393f
000002c0: 0870 ec3d bc76 4f3e a1c6 18bf 6b6a 1ebe
000002d0: 65ca d6be 13e2 12be 5199 c8bd ec54 de3e
000002e0: 99e2 3b3f 82b0 c13d 7687 c33e c52b 323f
000002f0: f833 d8be 8ad2 21bd aba1 bfbd 1c84 b6be

denseOS_inner2.bias f4 [64]
-0.29810503 0.40469652 0.38660598 0.059215046 0.17433801 -0.36958402 -0.041055482 -0.5143802
-0.34547064 0.5561805 0.098918244 -0.06621081 -0.3371423 0.18660171 -0.5724979 -0.49989685
0.30186415 0.24993312 -0.20474881 -0.24635614 0.3087384 0.105782606 -0.30525672 -0.07362854
-0.117275834 0.50258076 -0.4875025 -0.17083696 0.027261117 -0.42539784 0.10252129 0.1178825
0.3646594 0.042628136 -0.2731187 -0.38489065 -0.10123348 0.23013929 -0.55815786 -0.3966135
-0.37484044 -0.44530058 -0.2627937 0.07416804 0.10968698 -0.2662841 0.60616994 0.28783137
-0.30437672 0.46689227 0.53327316 -0.09903806 0.12102518 -0.22830871 0.033381958 -0.34280917
-0.48090142 -0.10914473 -0.23996548 0.3851222 0.26476073 -0.18906716 -0.48002386 -0.42040697
00000000: 39a1 98be 6234 cf3e 38f1 c53e 7a8b 723d
00000010: aa85 323e 1e3a bdbe cb29 28bd 6cae 03bf
00000020: 87e1 b0be d861 0e3f a695 ca3d 8899 87bd
00000030: ea9d acbe 8514 3f3e 398f 12bf 7bf2 ffbe
00000040: f08d 9a3e 78ee 7f3e aca9 51be c944 7cbe
00000050: f612 9e3e 8da4 d83d 9c4a 9cbe 8fca 96bd
00000060: 502e f0bd 22a9 003f ed99 f9be e2ef 2ebe
00000070: b552 df3c bfcd d9be aff6 d13d 616c f13d
00000080: a3b4 ba3e d79a 2e3d 37d6 8bbe 6310 c5be
00000090: 8053 cfbd a2a9 6b3e 6fe3 0ebf ed10 cbbe
000000a0: 16eb bfbe 70fe e3be e58c 86be 6ae5 973d
000000b0: 91a3 e03d 6456 88be f42d 1b3f a25e 933e
000000c0: 44d7 9bbe 810c ef3e 9784 083f 77d4 cabd
000000d0: 0ddc f73d c2c9 69be 85bb 083d af84 afbe
000000e0: b638 f6be 4687 dfbd 83b9 75be bd2e c53e
000000f0: b88e 873e d29a 41be b0c5 f5be 953f d7be

LSTM_inner2.weight_ih_l0 f4 [256, 6]
0.052443556 0.17296952 0.023813875 -0.14571467 0.23496006 -0.026529819 -0.01741938 0.40189704
0.13619035 -0.2139873 0.09296385 0.48320037 -0.23294264 0.1920736 0.25200942 -0.25212142
-0.044876404 0.012939521 0.020618696 -0.05100681 -0.31208652 -0.1755775 0.13010952 -0.0772277
0.05093276 -0.29852167 -0.24100813 -0.18477833 0.18230134 -0.009379827 0.055786513 0.5296808
0.036580913 0.25506067 -0.043666035 0.34320757 -0.036212105 -0.34910747 -0.30981013 0.06653195
0.091997296 0.08493168 -0.19536471 -0.32711315 -0.22569166 0.3068392 -0.20888321 -0.22957568
-0.09074285 -0.38564375 -0.35605592 -0.3566255 -0.17892642 -0.09714937 0.041874465 -0.13010041
-0.36752355 -0.24403875 0.110826746 -0.32039875 0.13869521 0.2910022 -0.20369321 0.11502707
0.21132495 -0.20842679 0.0034651828 -0.09072541 -0.35438 0.08325721 -0.1299329 0.041064616
-0.1466788 4.275874e-05 0.039655477 -0.04987998 -0.17070344 0.022004345 -0.18160899 0.09701279
-0.1942979 0.17126817 0.30105516 -0.10754018 -0.37643003 -0.23215273 -0.06463644 -0.041525643
-0.1144921 0.0028763267 -0.4328024 -0.32183066 -0.25549272 0.057428215 -0.21150663 -0.24582465
-0.06795861 0.17343558 -0.2754153 0.03276514 0.17556238 -0.33877409 -0.12927353 -0.66168684
-0.30929697 0.018578663 -0.2291798 0.18535787 -0.12590896 0.13225213 0.23046978 -0.21448758
-0.15940252 0.038766775 -0.16507223 -0.17998683 -0.3663581 0.08847335 -0.16120592 0.057790436
0.005206076 -0.15689254 0.2920324 0.077300295 0.2849897 -0.23852175 -0.42238113 0.02009124
-0.42498475 0.00073844823 -0.15875228 0.22373344 -0.122140616 -0.03573959 -0.067040056 0.096000366
0.06130129 0.006044499 -0.1950558 0.034663618 -0.41207713 -0.66354525 -0.021800032 -0.11211998
-0.32658547 0.10402003 0.20699634 -0.36621165 -0.16342561 -0.12411797 0.17931126 0.12503116
-0.18762515 -0.43047544 0.1309779 -0.162887 0.010666873 -0.010863461 0.0025241422 0.047320478
0.010404448 -0.3235617 0.08617343 0.058187142 0.12233388 -0.014390251 -0.068362094 0.5394352
-0.0807189 0.05324802 -0.0068577183 -0.045965478 -0.20638505 0.072440855 0.24933778 0.18435939
-0.27539587 -0.23655228 0.08840476 0.19074982 -0.23664504 0.024663588 0.02426688 0.044604484
-0.14616944 -0.047935054 0.14253142 0.06732908 -0.24790601 -0.11385524 0.018146288 -0.21072009
0.11055554 0.27234644 0.12555858 -0.09784173 0.18860686 0.1302045 0.21437405 0.14297828
0.06276987 0.029942011 -0.004249669 0.55753225 -0.026034877 0.2882459 0.31045938 0.1217379
-0.16999023 -0.025105169 0.025023809 -0.003437084 -0.18405972 -0.07374961 0.115474276 -0.23949493
-0.26545092 -0.53511125 -0.29885346 -0.16051719 -0.30024788 -0.038106654 -0.22227885 0.11476348
-0.13172124 0.17434499 -0.087275185 -0.14360097 -0.10946265 -0.087139875 0.13652137 0.070790045
-0.0677569 0.0073670764 0.12303772 0.42068776 0.12930822 0.21768843 0.24871238 -0.03873819
0.015885537 0.3422927 0.2775616 -0.19279765 0.14313045 -0.0617859 -0.22707933 -0.33714572
-0.24887282 -0.057587747 0.12748921 -0.12189878 -0.083282255 -0.006400532 -0.2886903 0.0987023
00000000: 0ecf 563d ec1e 313e 5115 c33c 3a36 15be
00000010: 5f99 703e 1055 d9bc 16b3 8ebc 73c5 cd3e
00000020: 7c75 0b3e 7d1f 5bbe d563 be3d 0a66 f73e
00000030: 8488 6ebe f1ae 443e 6107 813e 0f16 81be
00000040: 52d0 37bd 4900 543c 8ae8 a83c 84ec 50bd
00000050: cec9 9fbe 97ca 33be 6e3b 053e 8e29 9ebd
00000060: df9e 503d d5d7 98be d6ca 76be 8836 3dbe
00000070: 34ad 3a3e d9ad 19bc 6680 643d 2999 073f
00000080: ded5 153d 5097 823e 28db 32bd e7b8 af3e
00000090: 2553 14bd 37be b2be 6f9f 9ebe e741 883d
000000a0: 1469 bc3d a9f0 ad3d b00d 48be 607b a7be
000000b0: b71b 67be 071a 9d3e 7be5 55be e315 6bbe
000000c0: 63d7 b9bd 1973 c5be f64c b6be 9e97 b6be
000000d0: 7d38 37be 40f6 c6bd 8f84 2b3d 0b39 05be
000000e0: 0c2c bcbe 4be5 79be 22f9 e23d 4e0b a4be
000000f0: 1e06 0e3e 3efe 943e f494 50be 5093 eb3d
00000100: 9165 583e d56d 55be 1f18 633b 3ece b9bd
00000110: 4c71 b5be c282 aa3d 210d 05be 5f33 283d
00000120: f832 16be d957 3338 c86d 223d f34e 4cbd
00000130: e2cc 2ebe 7542 b43c b5f7 39be a4ae c63d
00000140: 07f6 46be ec60 2f3e e723 9a3e 073e dcbd
00000150: 70bb c0be 72b9 6dbe 1c60 84bd cb16 2abd
00000160: d67a eabd c180 3c3b 4798 ddbe fdc6 a4be
00000170: f1cf 82be d939 6b3d 3295 58be 75b9 7bbe
00000180: e22d 8bbd 1999 313e 3c03 8dbe bd34 063d
00000190: a0c6 333e cc73 adbe 4860 04be 4f64 29bf
000001a0: 2c5c 9ebe 4832 983c 1cae 6abe 74ce 3d3e
000001b0: 47ee 00be 1a6d 073e 4500 6c3e a2a2 5bbe
000001c0: 6a3a 23be e9c9 1e3d b208 29be 784e 38be
000001d0: 4a93 bbbe 8431 b53d 2a13 25be aab5 6c3d
000001e0: bb97 aa3b 70a8 20be 4585 953e 9e4f 9e3d
000001f0: 2cea 913e 0c3f 74be 5742 d8be 6296 a43c
00000200: 9a97 d9be 6c94 413a f58f 22be 611a 653e
00000210: dc24 fabd ad63 12bd 4c4c 89bd d79b c43d
00000220: 1017 7b3d ef10 c63b b5bc 47be 70fb 0d3d
00000230: c6fb d2be 1ade 29bf fb95 b2bc 299f e5bd
00000240: 3636 a7be 7408 d53d d9f6 533e 1880 bbbe
00000250: 0b59 27be 9031 febd 5f9d 373e 2b08 003e
00000260: cf20 40be 4767 dcbe 121f 063e dacb 26be
00000270: 1cc4 2e3c a8fc 31bc 146c 253b 1ed3 413d
00000280: 6b77 2a3c e1a9 a5be b27b b03d a455 6e3d
00000290: 2f8a fa3d 16c5 6bbc 6d01 8cbd 6d18 0a3f
000002a0: f34f a5bd 991a 5a3d b6b6 e0bb 4c46 3cbd
000002b0: 9a56 53be df5b 943d 6752 7f3e b5c8 3c3e
000002c0: b000 8dbe c33a 72be 8e0d b53d ec53 433e
000002d0: 1453 72be 4b0b ca3c 56cb c63c 31b3 363d
000002e0: 71ad 15be 8c57 44bd c2f3 113e d4e3 893d
000002f0: 13db 7dbe f02c e9bd 86a7 943c 02c7 57be
00000300: f16a e23d fe70 8b3e 6e92 003e 3f61 c8bd
00000310: 2822 413e 5454 053e df84 5b3e e668 123e
00000320: 7d8d 803d f348 f53c cf40 8bbb 6fba 0e3f
00000330: 1847 d5bc f794 933e 88f4 9e3e b851 f93d
00000340: eb11 2ebe 5ba9 cdbc bbfe cc3c b340 61bb
00000350: 277a 3cbe 090a 97bd c77d ec3d 293e 75be
00000360: 2fe9 87be 0dfd 08bf 5203 99be 9e5e 24be
00000370: 17ba 99be b915 1cbd 119d 63be 1e09 eb3d
00000380: efe1 06be 7e87 323e 55bd b2bd 220c 13be
00000390: f42d e0bd 6476 b2bd 42cc 0b3e 5ffa 903d
000003a0: 21c4 8abd 8467 f13b 33fb fb3d 6364 d73e
000003b0: 6069 043e b7e9 5e3e 75ae 7e3e f0ab 1ebd
000003c0: 6322 823c fd40 af3e 8e1c 8e3e bf6c 45be
000003d0: ca90 123e 3613 7dbd 7c87 68be 5d9e acbe
000003e0: 84d8 7ebe 21e1 6bbd 888c 023e 11a6 f9bd
000003f0: e38f aabd 8ebb d1bb 37cf 93be 6e24 ca3d

LSTM_inner2.weight_hh_l0 f4 [256, 64]
-0.11783363 -0.11042742 -0.113525845 0.22656244 0.24143688 -0.18475136 0.28531438 0.1821371
0.13725571 -0.21523815 -0.11723335 0.11059785 -0.26923686 -0.12595241 0.24340719 0.019076815
-0.12883343 -0.017530395 -0.071607575 0.07264309 0.330361 0.023343354 -0.068904094 0.30597076
-0.111865066 0.26470578 -0.19058444 -0.010136229 0.1087208 0.008650812 -0.018465007 0.26149443
-0.08175569 -0.13492112 0.125701 -0.009684954 0.029038105 0.01982137 0.018187506 0.09575466
0.14081311 -0.18102321 -0.11268281 0.15923318 0.17402534 -0.2589429 -0.07883523 0.28220046
0.21819218 0.013915834 0.14251001 -0.091813594 -0.07426968 -0.30894116 0.12542477 0.15009911
0.020319337 0.08022884 0.026740843 -0.025950635 0.08152644 0.09604838 -0.022706725 0.15231194
0.075849 0.022821328 -0.049738847 0.19737454 0.15679954 0.21017718 0.17549275 -0.04070542
-0.070798516 -0.19979379 -0.10676068 -0.11642309 -0.018397415 0.01012635 -0.03233629 0.05770455
-0.0027696798 0.05520005 0.022827467 0.0042042015 -0.007089125 -0.10084111 0.09157859 -0.017111177
0.069994286 -0.111196645 0.019203294 0.004504074 -0.024122167 -0.20169821 0.029307328 -0.048913546
-0.09980715 -0.13765208 0.011011184 0.01316276 -0.14373012 -0.06893735 -0.21269274 0.021008784
-0.06537211 -0.012508809 -0.091496244 -0.0339853 -0.029128386 0.07098665 -0.124149844 0.05103668
0.18900807 -0.10072512 0.09421748 -0.009744554 0.0029096955 -0.13231184 -0.020848447 -0.056652196
0.101538315 0.066390365 0.033561755 0.1683313 0.10669925 0.004792781 0.017778518 0.06886303
-0.09984937 -0.03263694 -0.05876124 0.009779529 0.26121393 -0.15490267 0.19596118 0.009514882
0.20956406 -0.29725426 -0.20260507 -0.007258442 0.030051403 -0.13469228 0.04845335 -0.024236778
-0.19542202 -0.15585409 -0.23290986 0.069634244 0.44745243 -0.028174782 -0.31193396 0.19720691
0.1432472 0.20677802 -0.29645836 0.024896972 0.01490764 -0.06814168 -0.17686667 0.2860744
-0.17916915 -0.20915137 -0.2712823 0.11052977 0.09330037 0.17263816 -0.11363751 0.18706134
0.11306155 -0.10400092 -0.19658709 0.038844697 0.08935924 0.008810273 -0.097509734 0.2884219
0.05117143 -0.00354744 0.15781535 0.19560504 -0.15758793 -0.40922245 0.08296778 0.12488953
-0.21488963 -0.07684546 0.07517654 0.067017086 0.05443367 0.14805548 -0.061133288 0.20476228
-0.15645653 -0.039946333 -0.2401817 -0.18191642 0.16962068 0.18849573 0.0976965 0.099158116
-0.25725248 0.018911548 -0.004171812 0.2129559 0.049515076 -0.20744963 0.11143951 0.4182108
0.018327288 0.24338102 0.24084191 0.23524052 -0.13778907 -0.2159982 -0.119011104 -0.16628419
-0.22399604 -0.093861215 -0.039512668 -0.23345451 0.010590617 -0.009596096 0.26326838 0.049387075
0.0057276553 -0.17967203 0.2751268 0.017465312 -0.19879922 0.19355308 0.1879374 0.29998535
0.14780624 -0.039918743 -0.05283008 0.3437864 -0.029036742 -0.13003898 -0.30089304 0.019583337
0.21649067 -0.035773743 0.052764494 0.19860263 -0.24780269 0.16768625 0.13544193 0.14876446
-0.015861198 0.11372089 0.11099006 0.06511417 0.38286385 -0.019945432 0.15807243 -0.024663888
00000000: c252 f1bd c527 e2bd 3d80 e8bd fcff 673e
00000010: 3b3b 773e 762f 3dbe ba14 923e 2682 3a3e
00000020: c38c 0c3e 6467 5cbe 0a18 f0bd 2081 e23d
00000030: 6ad9 89be abf9 00be bc3f 793e fb46 9c3c
00000040: e9ec 03be e79b 8fbc fea6 92bd e6c5 943d
00000050: 1425 a93e 903a bf3c 971d 8dbd 33a8 9c3e
00000060: 8319 e5bd 8487 873e 9128 43be 6d12 26bc
00000070: 03a9 de3d 23bc 0d3c ed43 97bc 99e2 853e
00000080: 876f a7bd c328 0abe c3b7 003e a4ad 1ebc
00000090: 52e1 ed3c 6d60 a23c f7fd 943c 051b c43d
000000a0: 5031 103e 265e 39be 3fc6 e6bd 060e 233e
000000b0: b333 323e 2a94 84be 5d74 a1bd 947c 903e
000000c0: c56d 5f3e 3dff 633c 25ee 113e c408 bcbd
000000d0: b41a 98bd 892d 9ebe 5a6f 003e 95b3 193e
000000e0: bd74 a63c 054f a43d 9d0f db3c 6d96 d4bc
000000f0: 56f7 a63d 03b5 c43d 7403 babc a9f7 1b3e
00000100: b856 9b3d cbf3 ba3c f6ba 4bbd 8d1c 4a3e
00000110: 0f90 203e b038 573e 5fb4 333e baba 26bd
00000120: d0fe 90bd be96 4cbe 58a5 dabd 3b6f eebd
00000130: 2db6 96bc fee8 253c 0f73 04bd 9b5b 6c3d
00000140: 8483 35bb 7319 623d ab00 bb3c 66c3 893b
00000150: e44b e8bb c985 cebd 8e8d bb3d bd2c 8cbc
00000160: 2a59 8f3d 11bb e3bd 3a50 9d3c e996 933b
00000170: da9b c5bc fa89 4ebe ec15 f03c 9259 48bd
00000180: b167 ccbd abf4 0cbe 4168 343c 9ea8 573c
00000190: fd2d 13be 062f 8dbd 20cc 59be 9d1a ac3c
000001a0: d0e1 85bd bff1 4cbc 6262 bbbd 2c34 0bbd
000001b0: a79e eebc 7361 913d 4642 febd d60b 513d
000001c0: 558b 413e f948 cebd 18f5 c03d 9fa7 1fbc
000001d0: 97b0 3e3b c17c 07be 5dca aabc 220c 68bd
000001e0: 52f3 cf3d acf7 873d 0d78 093d 0a5f 2c3e
000001f0: 2385 da3d c30c 9d3b 41a4 913c 0f08 8d3d
00000200: d47d ccbd 50ae 05bd a0af 70bd 513a 203c
00000210: d5bd 853e ce9e 1ebe 0caa 483e 4fe4 1b3c
00000220: f697 563e b631 98be b477 4fbe 3ad8 edbb
00000230: 5c2e f63c c6ec 09be 0577 463d 358c c6bc
00000240: b61c 48be 3798 1fbe ec7f 6ebe 669c 8e3d
00000250: 7c18 e53e cdce e6bc cfb5 9fbe 9cf0 493e
00000260: 65af 123e 9ebd 533e 64c9 97be bcf4 cb3c
00000270: 2d3f 743c dd8d 8bbd 891c 35be 5878 923e
00000280: 1e78 37be c72b 56be 83e5 8abe 6f5d e23d
00000290: 4414 bf3d 0fc8 303e c8ba e8bd 028d 3f3e
000002a0: d08c e73d 6ffe d4bd 204e 49be 9e1b 1f3d
000002b0: fa01 b73d f758 103c 2fb3 c7bd 09ac 933e
000002c0: 2299 513d 2b7c 68bb 599a 213e b04c 483e
000002d0: bb5e 21be 9b85 d1be 03eb a93d 15c6 ff3d
000002e0: 070c 5cbe 2761 9dbd 28f6 993d 4140 893d
000002f0: d7f5 5e3d db9b 173e e666 7abd 34ad 513e
00000300: 2436 20be c49e 23bd 31f2 75be 4c48 3abe
00000310: 0bb1 2d3e 0605 413e 1a15 c83d 6913 cb3d
00000320: 99b6 83be 64ec 9a3c b2b3 88bb 1d11 5a3e
00000330: 52d0 4a3d ad6d 54be 663a e43d ba1f d63e
00000340: 1c23 963c e038 793e 439f 763e e4e2 703e
00000350: 9418 0dbe a22e 5dbe 18bc f3bd 6746 2abe
00000360: 385f 65be 4f3a c0bd 09d8 21bd b30e 6fbe
00000370: 4484 2d3c f238 1dbc 1dcb 863e 1a4a 4a3d
00000380: 0eaf bb3b f2fb 37be 6cdd 8c3e 6a13 8f3c
00000390: 0692 4bbe c732 463e a972 403e ae97 993e
000003a0: 855a 173e d681 23bd 5b64 58bd c504 b03e
000003b0: 76de edbc f028 05be a70e 9abe 3c6d a03c
000003c0: bbaf 5d3e 7d87 12bd 951f 583d 7d5e 4b3e
000003d0: fdbf 7dbe f2b5 2b3e 4ab1 0a3e b655 183e
000003e0: 58ef 81bc 7fe6 e83d c24e e33d 945a 853d
000003f0: bb06 c43e 9a64 a3bc bddd 213e ec0b cabc

LSTM_inner2.bias_ih_l0 f4 [256]
0.34793162 0.03266409 0.24438217 0.01683174 0.15661114 0.2223016 0.109470695 -0.062004447
0.0695458 0.05706964 0.16690712 0.10196672 -0.029314956 0.2545988 0.17663497 -0.04781903
0.0100733135 0.041570626 0.02977851 0.10360361 -0.06524253 0.025444798 0.24524453 -0.07240961
0.052693635 -0.031237833 0.014458732 0.19926596 0.0510939 0.04752377 0.19971712 0.1466871
0.2675512 0.04934603 0.11136586 -0.02148651 0.06758693 0.12017167 0.032606456 0.12594625
0.17261632 0.4121401 -0.07747979 -0.03456034 -0.040469665 0.08359045 -0.06316298 -0.07892807
0.16541602 0.02709938 0.025377497 0.2652189 0.13005467 0.16972156 0.052962422 0.073712915
0.038086932 -0.004319094 -0.007975268 0.19749206 0.1446733 0.12008474 0.09602586 0.16075948
-0.22485968 0.07553416 -0.15982372 0.0012046746 -0.07708792 0.003405029 -0.14446047 -0.028402533
-0.2643555 -0.08823094 0.06813018 -0.28582257 0.058901533 -0.08601039 -0.07991618 -0.017839856
0.13428926 -0.07360075 0.023110269 -0.18164623 -0.15047324 -0.2562698 0.0780525 -0.26577148
-0.09414058 -0.10503441 -0.08105384 -0.1771279 -0.023279164 0.08364704 -0.29937896 -0.03844777
-0.09169876 -0.020358203 -0.14731166 -0.15732825 -0.120764025 -0.069284454 -0.26224208 -0.024566982
-0.13396586 -0.104581535 -0.06501372 -0.03639306 0.009066868 -0.12346342 -0.0245475 0.042473376
0.0399836 -0.15913287 -0.09913194 -0.12442219 -0.07324566 -0.19223824 -0.19256769 0.04783278
-0.07119685 -0.17189631 -0.3503706 -0.063842475 0.035869624 0.013006297 0.12217689 -0.0047042263
-0.07244356 0.14201136 0.022208812 0.15731351 0.12305366 0.0810879 0.022918645 0.007957252
-0.05303441 0.019718869 -0.17349677 0.11673533 -0.1529054 -0.031459205 -0.014362201 -0.06792702
0.17622873 -0.053617973 -0.06818749 -0.14979129 0.027579578 -0.046150416 -0.116977 -0.11448749
-0.008448136 0.039611544 -0.041125085 -0.09191687 0.16896123 0.14350444 0.17273471 0.12935121
0.106086984 0.09158931 -0.036920298 0.06513185 -0.03112754 0.08071485 0.13627423 -0.2265736
-0.030811623 0.05939535 -0.0016879421 -0.032732096 -0.1157627 -0.036021333 -0.016619746 0.2324896
-0.10789941 -0.084229305 -0.013060803 -0.1405961 0.07516003 0.0030528028 0.10168482 0.14048119
0.01478476 -0.12624815 0.111866005 0.0318699 -0.112011865 0.11721699 -0.13494396 -0.0030151408
0.116586916 0.06930494 0.12659872 0.14932871 -0.036784828 0.15781993 -0.001490163 -0.07404717
0.012721384 0.032791354 -0.12853023 0.13872914 -0.043868355 0.08954891 0.005341737 0.033579253
-0.05618836 0.04838478 0.12800148 -0.00957576 0.06088341 -0.061221518 0.052740347 -0.1544375
0.103121206 0.09244124 0.17361267 0.27680996 0.11496368 0.049191162 0.066189 -0.17457032
0.016916966 0.026560778 0.023695102 -0.11740895 -0.053427976 -0.18543455 0.23782632 -0.0015732226
0.12369879 0.08343743 -0.06742798 -0.085720256 0.0062238374 0.05985804 0.065906614 0.14071862
0.08889503 -0.14468849 -0.063619025 -0.02528526 0.1623017 0.10572768 -0.06473464 0.11288633
0.0014448974 0.031242523 0.18789874 0.113128684 0.04404348 -0.09081267 -0.023319844 -0.016587894
00000000: 1824 b23e c8ca 053d 523f 7a3e b8e2 893c
00000010: ac5e 203e 08a3 633e 2c32 e03d 60f8 7dbd
00000020: 076e 8e3d dbc1 693d b3e9 2a3e edd3 d03d
00000030: eb25 f0bc c65a 823e ccdf 343e e3dd 43bd
00000040: 8a0a 253c f645 2a3d 10f2 f33c 212e d43d
00000050: e09d 85bd 9c71 d03c 6221 7b3e 7d4b 94bd
00000060: 48d5 573d 7ce6 ffbc 51e4 6c3c 600c 4c3e
00000070: d647 513d 49a8 423d a582 4c3e 2535 163e
00000080: 79fc 883e 101f 4a3d c913 e43d 7a04 b0bc
00000090: 046b 8a3d 911c f63d 598e 053d 0ef8 003e
000000a0: 55c2 303e 0704 d33e b9ad 9ebd 258f 0dbd
000000b0: 85c3 25bd 7831 ab3d 985b 81bd 0aa5 a1bd
000000c0: d162 293e 85ff dd3c 78e4 cf3c c6ca 873e
000000d0: 0d2d 053e 7dcb 2d3e 20ef 583d ccf6 963d
000000e0: 0b01 1c3d 3087 8dbb b3aa 02bc 5c3b 4a3e
000000f0: 3d25 143e fdee f53d 35a9 c43d 229e 243e
00000100: 9e41 66be a7b1 9a3d d4a8 23be 2ce6 9d3a
00000110: 45e0 9dbd e826 5f3b 72ed 13be 6eac e8bc
00000120: 9b59 87be 6cb2 b4bd d687 8b3d 5657 92be
00000130: bc42 713d 3726 b0bd 18ab a3bd e424 92bc
00000140: 2083 093e fdbb 96bd bf51 bd3c 7801 3abe
00000150: a815 1abe cc35 83be fdd9 9f3d 3313 88be
00000160: c7cc c0bd 481c d7bd 8eff a5bd 0461 35be
00000170: f2b3 bebc 244f ab3d 3348 99be 697b 1dbd
00000180: 8fcc bbbd 3fc6 a6bc ded8 16be a81a 21be
00000190: 2153 f7bd 02e5 8dbd 9844 86be b240 c9bc
000001a0: 592e 09be d82e d6bd ea25 85bd e410 15bd
000001b0: 338d 143c 64da fcbd d717 c9bc 90f8 2d3d
000001c0: d8c5 233d baf3 22be b005 cbbd 10d1 febd
000001d0: d201 96bd 1ada 44be 7730 45be 4eec 433d
000001e0: a7cf 91bd 9605 30be c663 b3be d8bf 82bd
000001f0: 07ec 123d 5d18 553c e137 fa3d e925 9abb
00000200: 4a5d 94bd 6d6b 113e 41ef b53c cb16 213e
00000210: 8f03 fc3d 6a11 a63d e2bf bb3c 225f 023c
00000220: 9c3a 59bd 7789 a13c 23a9 31be ef12 ef3d
00000230: 3c93 1cbe 5edb 00bd 704f 6bbc 521d 8bbd
00000240: 4e75 343e 859e 5bbd e2a5 8bbd e362 19be
00000250: 91ee e13c 3808 3dbd a391 efbd 6b78 eabd
00000260: 0d6a 0abc b73f 223d c772 28bd e93e bcbd
00000270: 2c04 2d3e d4f2 123e 5ee1 303e a574 043e
00000280: 2244 d93d 2d93 bb3d bd39 17bd d963 853d
00000290: 2fff febc d44d a53d 798b 0b3e e902 68be
000002a0: a868 fcbc 8a48 733d f03d ddba 1712 06bd
000002b0: ff14 edbd 1b8b 13bd 2226 88bc c111 6e3e
000002c0: 5efa dcbd 6a80 acbd fafc 55bc 6df8 0fbe
000002d0: 80ed 993d 8811 483b 2240 d03d 4dda 0f3e
000002e0: c73b 723c 3247 01be 011a e53d 038a 023d
000002f0: 7a66 e5bd 760f f03d c02e 0abe ab99 45bb
00000300: 1fc5 ee3d c0ef 8d3d 18a3 013e a0e9 183e
00000310: b0ab 16bd 8c9b 213e 9351 c3ba 0ba6 97bd
00000320: 5a6d 503c 3a50 063d 6e9d 03be 030f 0e3e
00000330: 4eaf 33bd 6b65 b73d bd09 af3b 668a 093d
00000340: c425 66bd 1e2f 463d d212 033e a6e3 1cbc
00000350: e260 793d 6ac3 7abd 4306 583d dd24 1ebe
00000360: 3631 d33d d551 bd3d 85c7 313e 09ba 8d3e
00000370: 1472 eb3d ac7c 493d 198e 873d 90c2 32be
00000380: 7395 8a3c fd95 d93c 3b1c c23c 1b74 f0bd
00000390: 4bd7 5abd 8ee2 3dbe be88 733e 9734 ceba
000003a0: cb55 fd3d 3ee1 aa3d ae17 8abd 1a8e afbd
000003b0: 55f1 cb3b b42d 753d 0cfa 863d 8b18 103e
000003c0: 990e b63d 3829 14be b14a 82bd 0923 cfbc
000003d0: 6b32 263e c187 d83d 9893 84bd f330 e73d
000003e0: b662 bd3a 52f0 ff3c 8768 403e 03b0 e73d
000003f0: f066 343d fefb b9bd 4209 bfbc 56e3 87bc

LSTM_inner2.bias_hh_l0 f4 [256]
0.38577247 0.019706927 0.22445403 0.07791371 0.15616292 0.053464692 0.20112848 -0.024733972
0.09836347 0.10347904 0.2698541 -0.009409365 -0.011026178 0.105226 0.058496177 0.15307969
0.09528086 -0.0030409489 0.09350271 0.10438653 0.031022517 -0.12715125 0.19582501 -0.048754662
-0.14359292 0.021701267 0.08004735 0.25562242 0.0047932114 -0.067814425 0.06983531 0.012296446
0.2658895 0.15454946 0.20018153 -0.058328312 0.09769661 0.10263414 0.18387502 0.24863598
0.30597937 0.39108053 0.019310676 0.029962096 -0.05388756 -0.093653716 -0.0044186995 0.012987775
0.0311616 -0.04568422 0.11613495 0.33768216 0.18897456 0.00024213213 0.23466545 0.15419647
0.018731147 -0.03748843 0.048504744 0.31449363 0.12561639 0.175777 0.1524117 0.16273789
-0.10504344 0.122154884 -0.1430181 -0.09265868 0.0062896693 -0.02331513 -0.17728767 -0.14646259
-0.1004408 0.09148578 0.113004155 -0.25197083 -0.06480847 -0.043788247 -0.14932758 -0.031015811
0.114944465 -0.14776778 -0.17321305 -0.26361477 0.07082878 -0.21458478 -0.12384194 -0.07002185
-0.17017682 0.002194683 -0.03291693 -0.06413532 -0.010344815 0.03345268 -0.41637042 -0.15167046
-0.093155384 0.017369708 -0.20824532 -0.017239382 -0.21767719 -0.03500288 -0.34023142 -0.06639804
-0.034100216 -0.17077678 -0.07755095 -0.22641318 -0.016436525 0.11055656 -0.06710823 0.08665944
-0.1186531 -0.1050972 0.012501387 -0.07837269 -0.123335585 -0.13078207 -0.32955596 0.007915418
-0.066854715 -0.058708034 -0.21949224 0.024689265 -0.12475917 0.07854816 -0.027939167 -0.085782185
0.03975826 0.04386326 0.12633753 0.033500545 -0.04193935 -0.011125116 -0.06405056 0.012492246
0.11422236 0.00075935054 -0.22429441 0.061234683 -0.18562138 0.13932921 -0.02690837 0.08876409
0.016193273 -0.1545319 -0.13488579 -0.11508071 -0.09233111 0.051438823 -0.0037119803 -0.18176864
0.19471556 -0.10098286 0.032650083 0.08960973 0.14787346 0.1071566 0.19016568 -0.006741898
-0.007084776 0.0028493407 0.04390867 0.08000492 0.057595044 0.013735083 0.1945006 -0.11519791
0.066067696 0.072735876 -0.012052998 0.002007649 -0.021762623 -0.1026354 -0.0680281 0.1225315
-0.00031744823 -0.08376663 0.11669065 -0.008648668 0.008322706 0.02836814 0.15792845 0.12257071
-0.061777905 -0.20176403 0.12800786 -0.12484058 0.017246028 0.11159712 -0.09613921 0.107777886
0.16402684 0.06020757 0.13464981 0.133591 0.021264933 0.18259403 -0.16150428 -0.08192535
-0.10145148 0.23425905 0.07684941 0.003359093 -0.032535255 0.016245315 0.088365294 -0.023699543
0.069810994 -0.07603846 -0.00075670786 -0.00966574 -0.07284096 -0.10825728 -0.06453193 -0.03859668
0.0727661 -0.0823937 0.14211802 0.29943123 0.08540354 -0.00789499 0.15540782 -0.084264815
0.1522239 0.18221274 0.12902825 0.08645584 0.013298837 -0.15380515 0.14751537 0.18164778
0.17749216 0.040719118 0.027147777 -0.14966308 -0.10472193 0.1278117 0.113854185 -0.04399223
-0.113673165 0.03974431 -0.122049056 0.049844947 0.1484313 0.074002236 0.14334446 0.15530913
0.05330139 0.10229935 0.16379319 0.1421327 0.24832323 -0.0815223 0.09421185 -0.07081923
00000000: f883 c53e 6c70 a13c 47d7 653e 3991 9f3d
00000010: 2ce9 1f3e cbfd 5a3d a0f4 4d3e e69e cabc
00000020: c972 c93d d2ec d33d 512a 8a3e bd29 1abc
00000030: 24a7 34bc bb80 d73d b099 6f3d ecc0 1c3e
00000040: 9d22 c33d a84a 47bb 597e bf3d 9bc8 d53d
00000050: ef22 fe3c f033 02be 5a86 483e f8b2 47bd
00000060: 060a 13be dbc6 b13c ddef a33d f1e0 823e
00000070: 5f10 9d3b 4ae2 8abd d105 8f3d 0877 493c
00000080: ab22 883e 3742 1e3e 63fc 4c3e abe9 6ebd
00000090: 2915 c83d d931 d23d bc49 3c3e 6e9a 7e3e
000000a0: 54a9 9c3e b53b c83e 6c31 9e3c 1273 f53c
000000b0: 34b9 5cbd 85cd bfbd bdca 90bb adca 543c
000000c0: 9d46 ff3c 601f 3bbd 29d8 ed3d ade4 ac3e
000000d0: 8c82 413e d9e4 7d39 244c 703e aee5 1d3e
000000e0: 1072 993c 788d 19bd e9ac 463d 4f05 a13e
000000f0: 95a1 003e e3fe 333e d011 1c3e c3a4 263e
00000100: 0421 d7bd 572c fa3d 5673 12be d6c3 bdbd
00000110: 9219 ce3b 5fff bebc e68a 35be 4afa 15be
00000120: e8b3 cdbd e65c bb3d b96e e73d 5202 81be
00000130: 4eba 84bd 4e5b 33bd 54e9 18be df14 febc
00000140: 0168 eb3d 7050 17be c35e 31be 84f8 86be
00000150: ae0e 913d 1dbc 5bbe d8a0 fdbd 9e67 8fbd
00000160: d542 2ebe acd4 0f3b e7d3 06bd 6159 83bd
00000170: 4d7d 29bc ad05 093d 812e d5be 804f 1bbe
00000180: 40c8 bebd eb4a 8e3c 433e 55be 9b39 8dbc
00000190: c5e6 5ebe 2e5f 0fbd d032 aebe b2fb 87bd
000001a0: abac 0bbd 1ce0 2ebe 08d3 9ebd dbd8 67be
000001b0: e4a5 86bc 7a6b e23d 0a70 89bd 817a b13d
000001c0: 6600 f3bd 333d d7bd 9ed2 4c3c dc81 a0bd
000001d0: 5e97 fcbd bceb 05be 8fbb a8be abaf 013c
000001e0: 20eb 88bd d677 70bd 93c2 60be 2441 ca3c
000001f0: bc81 ffbd dcdd a03d aee0 e4bc 92ae afbd
00000200: 8fd9 223d f6a9 333d a05e 013e de37 093d
00000210: 99c8 2bbd 1e46 36bc f12c 83bd 47ac 4c3c
00000220: 6aed e93d 270f 473a 6fad 65be 38d1 7a3d
00000230: 8813 3ebe 51ac 0e3e f16e dcbc f2c9 b53d
00000240: c1a7 843c 9c3d 1ebe 801f 0abe 6faf ebbd
00000250: 1818 bdbd 84b1 523d b244 73bb 8f21 3abe
00000260: 8463 473e 1ad0 cebd 18bc 053d 4e85 b73d
00000270: 246c 173e eb74 db3d cbba 423e 24eb dcbb
00000280: 6927 e8bb 01bc 3a3b 94d9 333d 9fd9 a33d
00000290: c8e8 6b3d 1d09 613c 2a2b 473e e2ec ebbd
000002a0: 804e 873d 8cf6 943d f079 45bc c392 033b
000002b0: 8747 b2bc 8232 d2bd 5152 8bbd ccf1 fa3d
000002c0: 2e6f a6b9 d78d abbd 82fb ee3d 25b3 0dbc
000002d0: f65b 083c 4d64 e83c ffb7 213e 5a06 fb3d
000002e0: d40a 7dbd 3b9b 4ebe 7e14 033e 6bac ffbd
000002f0: 8b47 8d3c 088d e43d a2e4 c4bd a7ba dc3d
00000300: a7f6 273e 379c 763d a4e1 093e 14cc 083e
00000310: cc33 ae3c eef9 3a3e 6161 25be 7ac8 a7bd
00000320: cbc5 cfbd 9be1 6f3e 3963 9d3d 3b24 5c3b
00000330: b043 05bd e514 853c ddf8 b43d 8b25 c2bc
00000340: 11f9 8e3d 0dba 9bbd ce5d 46ba 0d5d 1ebc
00000350: a42d 95bd feb5 ddbd 5129 84bd 8d17 1ebd
00000360: 6506 953d 07be a8bd 6387 113e 0d4f 993e
00000370: 0de8 ae3d fd59 01bc 3a23 1f3e 0893 acbd
00000380: 95e0 1b3e fa95 3a3e fb1f 043e c20f b13d
00000390: 5de3 593c 197f 1dbe 450e 173e e001 3a3e
000003a0: 81c0 353e 17c9 263d 0465 de3c 4741 19be
000003b0: 7478 d6bd 12e1 023e 622c e93d 3231 34bd
000003c0: 7acd e8bd eeca 223d dbf4 f9bd 372a 4c3d
000003d0: 60fe 173e 7c8e 973d e4c8 123e 5b09 1f3e
000003e0: 8f52 5a3d 5282 d13d 67b9 273e 3c8b 113e
000003f0: 7248 7e3e 2af5 a6bd 24f2 c03d ac09 91bd

denseTS_inner2.weight f4 [64, 64]
-0.13623603 0.13438316 -0.18359333 0.04374692 0.15914279 -0.18347427 0.016794503 -0.08261578
0.11144598 -0.10904098 -0.05523738 -0.101169035 0.06740811 -0.16917716 -0.07254814 -0.18411478
-0.18176621 -0.07602563 -0.04521549 0.09358561 0.15760572 -0.21195687 -0.024505094 0.04592935
-0.0044558076 0.2744952 0.04529484 -0.07167404 0.035532583 0.19626889 -0.17611441 0.14539264
0.22278406 0.21547438 -0.08163216 0.23253773 0.06855487 -0.047825105 -0.115215756 0.050568547
0.2449773 0.3090549 -0.055499874 -0.08453324 0.066354945 -0.10126474 0.04664264 0.15659764
0.057910595 0.17698908 0.060903315 0.18739678 0.055365738 -0.06000582 0.16895187 -0.09938968
-0.25151095 -0.19008563 0.1322597 0.19692226 -0.07730514 -0.076068394 0.0194103 -0.002913782
0.13941541 0.16091058 -0.038382675 0.05160259 0.07384183 -0.05857969 -0.048924983 0.031336986
0.067087986 -0.015746158 0.07422722 -0.14040454 -0.08313924 0.072024666 0.026353784 0.19255127
-0.09195922 0.06609315 -0.090818234 0.06821566 0.021893524 -0.07475177 -0.13895327 -0.0119108455
0.1067896 0.16272162 0.07805407 0.13320069 -0.044416644 0.21789788 0.0026422804 -0.08087761
-0.12458885 0.033697143 -0.15347299 -0.011447328 -0.16526623 -0.0077409847 0.13191377 -0.10305289
-0.094153754 -0.17122874 0.061638813 0.10678902 -0.038168445 -0.048109524 -0.006802098 -0.0037575504
0.028758537 0.016972754 0.14995296 -0.11189986 0.14754955 0.06679386 0.06576942 0.0543375
0.05448357 0.038295843 0.058763463 -0.15592968 -0.12874882 -0.026060821 -0.0510913 0.019082706
0.2614491 0.25893137 0.06882609 -0.024090687 -0.2989695 -0.31592453 0.07245558 0.06544057
-0.07202926 0.0007968623 0.0200183 -0.078368686 -0.14820378 0.22074907 0.086138755 0.076506674
0.05633215 -0.036148988 -0.24833249 -0.19290683 0.027359297 -0.089084 -0.07093514 -0.15827252
0.17865439 -0.094730966 0.18897513 0.12392089 0.22955611 -0.052132566 0.19466707 -0.13547888
-0.16670696 -0.006017213 0.043256894 0.028495235 -0.0294358 -0.08430058 -0.013443269 -0.18667237
-0.05904686 -0.13938923 0.2445557 -0.12402274 -0.0005899937 -0.075308405 -0.19526632 -0.12677827
-0.04992697 -0.14998607 0.06322886 -0.19962543 0.30281842 -0.013953564 -0.030061264 0.17655227
0.24210294 0.061264627 0.03790294 -0.20215113 -0.43548584 0.069199875 -0.049800448 -0.0934792
-0.082266696 0.027625855 -0.071918085 -0.112172365 -0.004001285 0.11804965 -0.07304896 0.009672458
-0.08935926 0.025278185 0.09606182 0.042651758 -0.029389666 -0.0990677 0.049223956 0.10691422
-0.050210927 0.024503175 0.074990794 -0.07834183 -0.037691705 0.0063495585 0.07346066 0.0031884527
-0.06778626 0.08522345 0.119442865 0.066574804 -0.046339385 0.053036984 -0.086514056 -0.0776172
0.0071486817 -0.046977162 0.037184235 -0.047202844 -0.10347944 -0.110879876 -0.08015365 -0.015224941
-0.09776111 -0.045510363 -0.03505225 0.027661107 -0.04212121 -0.05273009 0.052170645 -0.06433528
0.08022747 0.11319561 -0.092471465 -0.04205702 0.098247305 0.071630955 -0.12273018 -0.04613068
0.1033371 -0.12171552 -0.12192194 -0.012101337 0.0085056275 0.01848023 -0.0035730419 -0.13108107
00000000: 7581 0bbe bd9b 093e e4ff 3bbe f82f 333d
00000010: 54f6 223e aee0 3bbe a094 893c 7632 a9bd
00000020: ca3d e43d e150 dfbd 9740 62bd b631 cfbd
00000030: 430d 8a3d c73c 2dbe 1f94 94bd 9688 3cbe
00000040: ec20 3abe 53b3 9bbd e133 39bd d0a9 bf3d
00000050: 6563 213e 390b 59be e8be c8bc 6a20 3c3d
00000060: 0602 92bb a38a 8c3e 1587 393d d7c9 92bd
00000070: 9d8a 113d b6fa 483e 5657 34be cfe1 143e
00000080: 8121 643e 51a5 5c3e c32e a7bd 5f1e 6e3e
00000090: 7f66 8c3d 42e4 43bd 3df6 ebbd f720 4f3d
000000a0: 54db 7a3e 723c 9e3e d653 63bd c31f adbd
000000b0: 1ae5 873d e363 cfbd 5a0c 3f3d 225b 203e
000000c0: a933 6d3d a03c 353e c175 793d f1e4 3f3e
000000d0: 2fc7 623d aac8 75bd b801 2d3e d18c cbbd
000000e0: 0bc6 80be cfa5 42be 166f 073e fda5 493e
000000f0: 2852 9ebd bfc9 9bbd 5902 9f3c 26f5 3ebb
00000100: eac2 0e3e bec5 243e 2737 1dbd 3d5d 533d
00000110: 633a 973d 42f1 6fbd 9065 48bd 365b 003d
00000120: 6d65 893d 16fe 80bc 7104 983d 35c6 0fbe
00000130: e844 aabd ab81 933d e4e3 d73c 292c 453e
00000140: 1e55 bcbd d85b 873d e9fe b9bd a7b4 8b3d
00000150: 0c5a b33c 7517 99bd c449 0ebe b525 43bc
00000160: 81b4 da3d 7fa0 263e d0da 9f3d c365 083e
00000170: 3aee 35bd 9f20 5f3e 1c2a 2d3b 29a3 a5bd
00000180: 7028 ffbd 0406 0a3d 0628 1dbe 938d 3bbc
00000190: 8d3b 29be 16a8 fdbb 6714 073e 650d d3bd
000001a0: afd3 c0bd 9656 2fbe fb78 7c3d 34b4 da3d
000001b0: 8456 1cbd 7e0e 45bd 22e4 debb 3c41 76bb
000001c0: 0697 eb3c 720a 8b3c 458d 193e c12b e5bd
000001d0: 3b17 173e 38cb 883d 1eb2 863d 0091 5e3d
000001e0: 2a2a 5f3d 1adc 1c3d f5b1 703d 08ac 1fbe
000001f0: bbd6 03be 817d d5bc 1c45 51bd 5653 9c3c
00000200: a8dc 853e a792 843e b1f4 8c3d d559 c5bc
00000210: 8812 99be dcc0 a1be 9763 943d b505 863d
00000220: 1484 93bd 86e4 503a 6bfd a33c c37f a0bd
00000230: bbc2 17be 0b0c 623e 8469 b03d 88af 9c3d
00000240: 8abc 663d f610 14bd df4a 7ebe 5e89 45be
00000250: 9b20 e03c ac71 b6bd 7146 91bd 3112 22be
00000260: 2df1 363e 4f02 c2bd b282 413e 3cca fd3d
00000270: c210 6b3e f588 55bd ce56 473e faba 0abe
00000280: 3bb5 2abe 0b2c c5bb 242e 313d d76e e93c
00000290: 5923 f1bc c8a5 acbd 2841 5cbc 0b27 3fbe
000002a0: 1fdb 71bd 0dbc 0ebe cf6c 7a3e a2ff fdbd
000002b0: cfa9 1aba 4b3b 9abd e5f3 47be 2ad2 01be
000002c0: 3980 4cbd f395 19be 227e 813d 9c6a 4cbe
000002d0: 040b 9b3e 7d9d 64bc 0a43 f6bc 1eca 343e
000002e0: d5e9 773e 9ef0 7a3d 1d40 1b3d b500 4fbe
000002f0: 00f8 debe aab8 8d3d 8efb 4bbd 0672 bfbd
00000300: 717b a8bd 9e4f e23c ca49 93bd a0ba e5bd
00000310: 361d 83bb 04c4 f13d b19a 95bd 3b79 1e3c
00000320: fd01 b7bd 3214 cf3c 0fbc c43d 9cb3 2e3d
00000330: 99c2 f0bc 02e4 cabd 0f9f 493d d8f5 da3d
00000340: f9a9 4dbd e2ba c83c c694 993d ae71 a0bd
00000350: 9e62 1abd f50f d03b 8b72 963d 5cf5 503b
00000360: 86d3 8abd a289 ae3d 769e f43d 5f58 883d
00000370: 5ece 3dbd 4f3d 593d 482e b1bd c4f5 9ebd
00000380: 7d3f ea3b 206b 40bd 7f4e 183d c557 41bd
00000390: 07ed d3bd fd14 e3bd 9927 a4bd 0872 79bc
000003a0: fa36 c8bd 1369 3abd f392 0fbd 8c99 e23c
000003b0: 4a87 2cbd 82fb 57bd e3b0 553d 37c2 83bd
000003c0: 4d4e a43d 1ad3 e73d ae61 bdbd fb43 2cbd
000003d0: e235 c93d 40b3 923d f659 fbbd 86f3 3cbd
000003e0: 67a2 d33d fd45 f9bd 36b2 f9bd b044 46bc
000003f0: 305b 0b3c da63 973c b229 6abb 1e3a 06be

denseTS_inner2.bias f4 [64]
0.02208246 -0.07477804 0.06979082 -0.13670234 -0.05242178 -0.15904169 -0.05835704 0.056545135
-0.11289732 -0.058655843 -0.051944587 -0.03977297 -0.13009334 -0.09937743 0.066314206 0.08706166
0.00815746 -0.0903196 -0.068777576 0.089378126 -0.0246065 0.015012895 0.1342566 0.11690957
-0.019733237 0.033291902 0.0057477998 -0.030784836 0.031308826 -0.011446079 -0.05156586 0.013068007
0.054026313 -0.04240639 0.041269746 -0.014107338 -0.095236875 0.074139915 0.008841858 0.10189617
-0.09665469 0.055911086 0.0659972 -0.03526394 -0.12552921 0.028808273 0.03862927 -0.0681527
-0.04362915 0.14097196 -0.0046325945 0.002442015 0.12253452 0.046064205 -0.029881993 0.0040270374
-0.09457654 0.055180244 -0.027741063 0.03967444 -0.04867881 -0.057273455 -0.0637081 0.06445826
00000000: 46e6 b43c 3b25 99bd 7dee 8e3d b3fb 0bbe
00000010: 38b8 56bd d3db 22be cb07 6fbd df9b 673d
00000020: b636 e7bd 1c41 70bd d9c3 54bd fbe8 22bd
00000030: 3037 05be 6586 cbbd becf 873d 624d b23d
00000040: dea6 053c 7cf9 b8bd 42db 8cbd e10b b73d
00000050: 9293 c9bc a5f8 753c 907a 093e 496e ef3d
00000060: 99a7 a1bc 175d 083d 0a58 bc3b 7b30 fcbc
00000070: af3d 003d 5688 3bbc b936 53bd 321b 563c
00000080: b24a 5d3d 53b2 2dbd 770a 293d 7722 67bc
00000090: 8d0b c3bd abd6 973d 71dd 103c f0ae d03d
000000a0: e5f2 c5bd 0603 653d 8a29 873d ec70 10bd
000000b0: bb8a 00be 54ff eb3c ba39 1e3d a593 8bbd
000000c0: 7bb4 32bd f45a 103e 05cd 97bb 370a 203b
000000d0: 61f3 fa3d d2ad 3c3d 15cb f4bc 3df5 833b
000000e0: 58b1 c1bd ae04 623d 3a41 e3bc aa81 223d
000000f0: 6f63 47bd 9297 6abd 6479 82bd b102 843d

denseOS_inner1.weight f4 [64, 3]
-0.17252167 0.46193886 0.06255895 -0.42430073 0.1697999 -0.35324836 -0.12344837 -0.47529808
-0.2494746 -0.42055655 0.02710167 0.22938429 0.4337207 -0.56142735 0.40527427 0.45594066
-0.62159383 -0.06832454 -0.06684863 0.10210025 -0.08053569 0.79182446 -0.18865791 0.085195884
0.6404547 0.2907558 0.0469764 -0.523067 0.22435558 -0.49035367 0.65412563 -0.018519582
0.4536512 0.5722058 -0.3008653 0.034241173 -0.74190235 0.507139 0.5288518 -0.45952168
-0.32812935 -0.3569791 -1.1103876 0.41689336 0.23951635 0.08200829 0.052108005 -0.032073997
-0.7104975 0.05016687 -0.59302986 -0.19561505 -0.48315403 -0.038927898 -0.6184432 0.22716528
-0.27254432 0.004372882 -0.045115206 -0.503913 -0.6010019 -0.55146646 0.16428714 0.17506705
-0.16499087 -0.3027472 0.1099268 -0.41517493 0.3940372 0.63945276 -0.17900348 0.24412681
-0.46202633 0.39584655 0.32684422 -0.5197655 -0.41726 -0.5277328 -0.4932632 -0.41181493
-0.15614522 -0.7681 0.5567989 0.016343035 0.44953611 0.17721713 0.1490355 -0.13938473
-0.19003119 0.31566495 -0.09791761 0.061048638 -0.20704328 0.695867 -0.5001923 0.5403611
-0.25041875 0.57399195 0.028536513 0.73065907 -0.40770143 0.045669746 0.06196736 0.18597232
0.44337195 -0.61256576 0.005254179 0.11793099 0.56592166 -0.56884646 0.20458807 -0.76117975
0.45393598 -0.23147613 0.6512414 0.15150501 -0.02887881 -0.4756817 0.100925125 -0.28414133
0.37494135 -0.5175109 0.40537974 -0.5086383 0.3343734 0.5013109 0.7108861 0.15227781
-0.21740578 -0.48376316 0.4584451 0.62144333 0.059213035 0.49614322 0.56932366 -0.3283657
-0.4312294 0.32650018 0.022744423 -0.39602718 0.25458062 0.7457248 0.4511731 -0.40441146
0.6482826 -0.41494521 0.42642593 -0.181197 -0.07692173 0.28266695 -0.25209495 0.54982495
0.33027303 0.2645641 -0.38690296 0.21146531 0.27592194 -0.19483648 0.4102207 0.38831598
0.6438768 0.16818984 0.31447026 -0.7444486 -0.33412182 0.5593684 -0.49351007 -0.075936645
0.30511793 -0.27643183 -0.23918289 -0.15444762 0.51729006 0.4344349 -0.37058836 0.4227986
0.4935101 -0.32866368 -0.39516532 -0.30162033 0.19034779 -0.06302783 -0.41492817 0.29106218
0.2606508 0.019763317 -0.008392041 0.27482888 0.16578685 0.69684356 -0.6181907 0.28279912
00000000: 85a9 30be 4083 ec3e e81e 803d f23d d9be
00000010: 06e0 2d3e f8dc b4be 80d2 fcbd 455a f3be
00000020: 4576 7fbe 3053 d7be 5204 de3c b7e3 6a3e
00000030: a410 de3e b4b9 0fbf 1c80 cf3e 0e71 e93e
00000040: c620 1fbf bded 8bbd efe7 88bd f019 d13d
00000050: e5ef a4bd 02b5 4a3f 8a2f 41be 2e7b ae3d
00000060: d7f4 233f f2dd 943e 536a 403d b8e7 05bf
00000070: 78bd 653e a30f fbbe c774 273f 61b6 97bc
00000080: f844 e83e 147c 123f 040b 9abe 7940 0c3d
00000090: 50ed 3dbf ddd3 013f d562 073f 6d46 ebbe
000000a0: 9200 a8be f7c5 b6be 2e21 8ebf 0c73 d53e
000000b0: c643 753e f6f3 a73d 346f 553d 0660 03bd
000000c0: 2ae3 35bf c77b 4d3d ced0 17bf 504f 48be
000000d0: f75f f7be dc72 1fbd 4b52 1ebf 049e 683e
000000e0: ee8a 8bbe 654a 8f3b b9ca 38bd 7100 01bf
000000f0: 43db 19bf e82c 0dbf e33a 283e c744 333e
00000100: 5ef3 28be ae01 9bbe 4d21 e13d cf91 d4be
00000110: 3ebf c93e 2db3 233f b04c 37be 61fc 793e
00000120: b78e ecbe 66ac ca3e 2058 a73e 5a0f 05bf
00000130: 1aa3 d5be 7f19 07bf ff8c fcbe 68d9 d2be
00000140: 88e4 1fbe 34a2 44bf 5f8a 0e3f d4e1 853c
00000150: 9929 e63e 6878 353e c39c 183e dfba 0ebe
00000160: 8997 42be d69e a13e 0789 c8bd 230e 7a3d
00000170: 2703 54be 5724 323f 9a0c 00bf 1b55 0a3f
00000180: e336 80be 23f1 123f 68c5 e93c 790c 3b3f
00000190: 3ebe d0be 3310 3b3d 7dd1 7d3d 876f 3e3e
000001a0: a601 e33e 1cd1 1cbf 3f2b ac3b ce85 f13d
000001b0: 3ee0 103f ec9f 11bf 897f 513e addc 42bf
000001c0: 4c6a e83e 1408 6dbe c2b7 263f 2124 1b3e
000001d0: 4193 ecbc 8d8c f3be d5b1 ce3d f97a 91be
000001e0: 50f8 bf3e 987b 04bf ef8d cf3e 1f36 02bf
000001f0: fe32 ab3e e955 003f a2fc 353f b7ee 1b3e
00000200: 9f9f 5ebe ceaf f7be 51b9 ea3e e916 1f3f
00000210: 5e89 723d 7c06 fe3e 32bf 113f 8d1f a8be
00000220: 1aca dcbe 082b a73e 8352 ba3c 13c4 cabe
00000230: 6458 823e d2e7 3e3f 2900 e73e 050f cfbe
00000240: d9f5 253f b373 d4be 8054 da3e b58b 39be
00000250: 2489 9dbd b9b9 903e 9712 81be 54c1 0c3f
00000260: 8c19 a93e f274 873e 2518 c6be 5d8a 583e
00000270: a445 8d3e 3783 47be 7308 d23e 5ad1 c63e
00000280: 1cd5 243f f539 2c3e 3f02 a13e 2f94 3ebf
00000290: 0412 abbe c432 0f3f 5aad fcbe ac84 9bbd
000002a0: 6b38 9c3e 7988 8dbe 5cec 74be 8427 1ebe
000002b0: 1f6d 043f 406e de3e c2bd bdbe 0f79 d83e
000002c0: 5bad fc3e 9b46 a8be 1c53 cabe fb6d 9abe
000002d0: 88ea 423e bc14 81bd 7771 d4be 1a06 953e
000002e0: 0674 853e aee6 a13c c57e 09bc 5fb6 8c3e
000002f0: 07c4 293e 5764 323f bf41 1ebf 0ccb 903e

denseOS_inner1.bias f4 [64]
-0.5923369 -0.041962285 0.2897538 0.445872 0.036490705 0.51301706 -0.2667939 0.09248712
0.32049093 0.056649446 -0.32997 -0.53873384 0.09535972 0.29298428 -0.02673869 -0.4798203
-0.4500187 -0.0030943449 -0.46800643 0.43642083 -0.07146466 0.37083283 0.3781538 0.17824571
0.09059425 0.4833963 0.5380104 0.06187141 -0.08314714 0.01304366 0.16466095 -0.19789647
0.08315723 0.46100557 -0.05803997 0.5011104 0.3315613 0.25540003 -0.049468786 -0.23155254
-0.10532937 -0.38728586 -0.15800375 0.47926846 -0.24022621 -0.5076902 -0.27317184 0.19606048
-0.16833524 -0.4826363 -0.46145433 0.08360303 0.27226967 -0.39943057 -0.0942232 0.43641898
0.05975717 -0.49850324 0.21371722 0.26579696 -0.29028043 0.1262566 -0.3574678 0.38490304
00000000: 64a3 17bf a5e0 2bbd 9c5a 943e 5649 e43e
00000010: 4777 153d 1655 033f 3699 88be e369 bd3d
00000020: 6317 a43e 4009 683d d4f1 a8be 76ea 09bf
00000030: f54b c33d 0902 963e 190b dbbc 02ab f5be
00000040: da68 e6be 7eca 4abb 8a9e efbe 8d72 df3e
00000050: 105c 92bd cddd bd3e 609d c13e 0b86 363e
00000060: 7a89 b93d b87f f73e 0dbb 093f e06c 7d3d
00000070: 0c49 aabd 13b5 553c e19c 283e 5fa5 4abe
00000080: 564e aa3d ec08 ec3e 52bb 6dbd c548 003f
00000090: 67c2 a93e cbc3 823e c89f 4abd 1c1c 6dbe
000000a0: edb6 d7bd 554a c6be bccb 21be ad62 f53e
000000b0: dcfd 75be fcf7 01bf 2edd 8bbe 14c4 483e
000000c0: 1360 2cbe 1b1c f7be be43 ecbe 1138 ab3d
000000d0: ee66 8b3e 2a82 ccbe 18f8 c0bd 4f72 df3e
000000e0: efc3 743d d13b ffbe b0d8 5a3e 8a16 883e
000000f0: a39f 94be 6949 013e 0506 b7be 0312 c53e
