7_plan_actor.pth (torch, 510405 bytes, 31 tensors)

denseOS_inner2.weight f4 [64, 14]
0	0x3ed21e2a	0.41038638
1	0x3a8b6660	0.0010635369
2	0x3e46e178	0.19421947
3	0x3db4b4d1	0.088235505
4	0xbdfd2efb	-0.123624764
5	0x3e220921	0.15823795
6	0xbd86c485	-0.06580452
7	0xbd34e3f6	-0.044162713
8	0x3e240dd4	0.160209
9	0xbd1b3220	-0.0378896
10	0xbe5c86af	-0.21535753
11	0xbd2d836d	-0.042361666
12	0xbdff2e26	-0.12459974
13	0xbdcf67e3	-0.10127237
14	0xbc3d5e93	-0.011558193
15	0x3b6875ed	0.003547068
16	0x3d45de26	0.04830756
17	0x3e34a519	0.17641105
18	0x3e85b951	0.26117948
19	0xbdb3bca7	-0.08776217
20	0x3dca7df9	0.098873086
21	0xbe7857f4	-0.24252301
22	0xbe4f2b25	-0.20231302
23	0xbd9775ce	-0.07395516
24	0xbe02a2f1	-0.1275747
25	0x3de4c5c7	0.111705355
26	0xbe8e9582	-0.2784844
27	0x3dae76e1	0.08518768
28	0xbe873b54	-0.2641245
29	0x3ebbbfe1	0.3666983
30	0xbe3f6eec	-0.18694657
31	0xbe14a15d	-0.1451468
32	0x3d8c5073	0.06851282
33	0xbe27083b	-0.16311733
34	0xbdc9763b	-0.09837004
35	0x3d6fa5ce	0.058507733
36	0xbcff75ea	-0.031184155
37	0x3e47814e	0.1948292
38	0x3e93e5fe	0.28886408
39	0x3e230c01	0.15922548
40	0xbd6b8581	-0.057500366
41	0x3ea0446b	0.313022
42	0xbe933a4c	-0.28755414
43	0xbe7c212e	-0.24622032
44	0xbe47fa4c	-0.19529074
45	0xbea3f145	-0.32020012
46	0xbe97eaa9	-0.2967122
47	0x3e162105	0.14661033
48	0x3e356d97	0.17717586
49	0x3e008d50	0.12553906
50	0x3e2ce4c0	0.16884136
51	0x3d0c0915	0.03418835
52	0x3e3e609e	0.18591544
53	0x3e08e36d	0.13368006
54	0xbe281a0e	-0.16416189
55	0xbe52a264	-0.2056976
56	0xbe07b485	-0.13252456
57	0x3f0c2399	0.5474182
58	0xbeb52a6f	-0.35383937
59	0xbca5cb4a	-0.020238537
60	0x3ef27176	0.4735219
61	0x3e32b842	0.17453101
62	0x3e1636ea	0.14669386
63	0x3db2dbc9	0.08733327
64	0xbdb069f2	-0.086139575
65	0xbd349fb7	-0.04409763
66	0xbbb6826b	-0.0055697463
67	0xbcdd8ebf	-0.027045606
68	0xbe86a85a	-0.26300317
69	0xbe83a0b7	-0.25708553
70	0xbd34b698	-0.044119447
71	0xbe124027	-0.14282285
72	0x3e9e2024	0.30883896
73	0xbea2fc1e	-0.31832975
74	0x3f0e7917	0.5565352
75	0xbe337af3	-0.1752737
76	0x3e35f01d	0.17767377
77	0x3c9f6c8e	0.019460943
78	0xbdfdbe6d	-0.123898365
79	0x3df3a3e9	0.11896498
80	0xbe3905c6	-0.18068609
81	0xbdbebacb	-0.09312972
82	0x3dc86a9a	0.09785958
83	0x3d8fe298	0.07025641
84	0xbd9b8afa	-0.07594867
85	0xbd24ec54	-0.040264443
86	0xbe04452d	-0.12917013
87	0x3eb39440	0.35074043
88	0x3e7a9bd9	0.24473514
89	0x3e861bf0	0.2619319
90	0x3d6642c9	0.056216035
91	0xbe30c6a6	-0.17263278
92	0x3e5a6fc4	0.21331698
93	0x3e2289f7	0.15872942
94	0x3e2af643	0.16695504
95	0xbd8ca41e	-0.0686724
96	0xbdab0681	-0.0835085
97	0xbc3137db	-0.01081654
98	0x3e164ed9	0.14678515
99	0xbe5a26b6	-0.2130383
100	0x3dd77777	0.10520833
101	0x3eedf8e0	0.4647894
102	0xbddebfd2	-0.108764306
103	0x3e56463f	0.20925234
104	0xbd31c3f2	-0.04339976
105	0xbe560b5c	-0.20902771
106	0xbe39060a	-0.1806871
107	0x3d220d32	0.039563365
108	0x3e483cf6	0.19554505
109	0x3e321fa7	0.17394887
110	0x3e4527f7	0.19253527
111	0xbe63657c	-0.22206682
112	0xbd3c4369	-0.045962725
113	0xbe314edf	-0.17315243
114	0x3dfda476	0.12384884
115	0x3e5dbfbb	0.2165517
116	0x3ddde3d4	0.108344704
117	0xbe6d63f2	-0.23182657
118	0x3d5a568f	0.053305205
119	0xbe92d48d	-0.28677788
120	0xbe02f74f	-0.12789653
121	0x3d1de6ef	0.038550314
122	0x3d4fdf8d	0.050750304
123	0x3e047e39	0.12938775
124	0x3c64cc9e	0.0139648
125	0xbe1b09c3	-0.15140443
126	0x3ec24ebd	0.37950698
127	0xbeaf6f23	-0.34264478
128	0xbe62abc7	-0.2213584
129	0x3e475280	0.19465065
130	0xbdce0e9b	-0.100613795
131	0xbdf1f557	-0.11814373
132	0xbe0bcc13	-0.13652067
133	0xbd805d77	-0.06267827
134	0xbc617d7d	-0.013762829
135	0x3cb2296a	0.021748263
136	0xb9813e5a	-0.00024651253
137	0x3e1d454b	0.15358464
138	0x3e5c7374	0.21528417
139	0x3e236bf8	0.15959156
140	0x3c39f557	0.0113499975
141	0x3e5e4918	0.2170757
142	0xbda76171	-0.08172882
143	0x3f1fa1e1	0.6235638
144	0xbe11b8be	-0.1423063
145	0x3c6faf4e	0.014629198
146	0x3e92e002	0.2868653
147	0x3e2984bb	0.16554539
148	0x3c7ea561	0.015542359
149	0x3e47ed51	0.19524123
150	0x3e51a343	0.20472436
151	0xbe414b6d	-0.18876429
152	0xbe16dbea	-0.14732328
153	0x3e4256c9	0.18978418
154	0xbe0575fc	-0.13033289
155	0xbdd87968	-0.105700314
156	0x3e57d089	0.21075644
157	0x3c863115	0.016380826
158	0x3da6b638	0.08140224
159	0xbd9ffeb7	-0.07812255
160	0x3e67fd60	0.22655249
161	0x3dc0a3e8	0.09406263
162	0xbe09ba43	-0.1344996
163	0x3b009c99	0.001962459
164	0xbceaaa62	-0.028645698
165	0x3d253d00	0.040341377
166	0xbe71abc9	-0.23600687
167	0xbe058c8f	-0.130419
168	0xbe3df26b	-0.18549506
169	0xbe78362a	-0.24239412
170	0x3f061b96	0.5238584
171	0xbdc1bf2a	-0.0946029
172	0x3eb2f312	0.34951073
173	0xbe9519b3	-0.2912117
174	0x3e25d2b3	0.16193657
175	0x3dfe1425	0.12406186
176	0x3e8ee9cc	0.27912748
177	0xbe581328	-0.21101058
178	0xbe3e1812	-0.1856387
179	0xbe31ade4	-0.1735149
180	0x3e6573c8	0.22407448
181	0xbd727c91	-0.059200827
182	0x3d10d054	0.035354927
183	0xbf05fd01	-0.5233918
184	0xbcf085ea	-0.02936073
185	0x3ef1803e	0.47168154
186	0x3e5f11b5	0.21784098
187	0x3e10f360	0.1415534
188	0x3d9ea2a5	0.07745866
189	0xbd3bd4a5	-0.04585709
190	0xbdf3e785	-0.11909393
191	0xbedf5351	-0.43618253
192	0xbe13f818	-0.14450109
193	0x3ca997b0	0.020702213
194	0x3e8e95ad	0.2784857
195	0x3db287c0	0.087172985
196	0xbc9c8d06	-0.019110214
197	0xbeb2a876	-0.3489415
198	0x3dd55f9f	0.10418629
199	0xbdd646e7	-0.10462742
200	0xbe965532	-0.29361874
201	0xbc6f6c37	-0.014613203
202	0x3c6ef083	0.01458371
203	0x3df8f654	0.12156358
204	0x3cdbbaef	0.026822535
205	0xbdc36676	-0.09541027
206	0xbdcfa2be	-0.101384625
207	0x3d020d4f	0.031750973
208	0xbe647dc2	-0.22313598
209	0xbd002a62	-0.03129042
210	0x3d4df950	0.05028659
211	0xbe98cb75	-0.29842725
212	0x3f0e2423	0.5552389
213	0xbe991d2a	-0.29905063
214	0xbde993d1	-0.11405147
215	0x3e170055	0.1474622
216	0x3e76de6f	0.24108289
217	0x3e645970	0.22299743
218	0xbc6d3aac	-0.0144793205
219	0xbe5981f3	-0.21240978
220	0xbe246858	-0.16055429
221	0xbdf0a5e8	-0.11750394
222	0xbd01b616	-0.03166779
223	0xbe26a2ae	-0.16272995
224	0xbdaa68cc	-0.0832077
225	0xbe090c87	-0.13383685
226	0x3cc0f514	0.023554362
227	0x3d953252	0.072849885
228	0xbc31671f	-0.010827809
229	0x3e6e3b91	0.2326491
230	0xbe3cf427	-0.18452512
231	0xbd21acec	-0.03947155
232	0x3e4c5497	0.19954143
233	0xbe969851	-0.29413083
234	0xbe00dca0	-0.12584162
235	0x3e31e93c	0.17374128
236	0xbe9bce6d	-0.30430928
237	0x3df0b666	0.1175354
238	0x3e4128a0	0.18863153
239	0x3e495c8a	0.19664207
240	0xbde44030	-0.11145055
241	0x3eda39f7	0.4262235
242	0xbe71a02e	-0.2359626
243	0x3ded617d	0.1159086
244	0x3c252475	0.010079493
245	0xbe8f775f	-0.2802076
246	0x3de1f223	0.11032512
247	0x3e31258c	0.17299479
248	0x3e50e305	0.20399101
249	0xbd9a8e34	-0.07546654
250	0xbe1ce379	-0.15321149
251	0xbe7cfe9f	-0.24706505
252	0x3f001194	0.5002682
253	0x3e9c0ba7	0.3047764
254	0xbe803855	-0.25042978
255	0xbdc010f4	-0.093782336

denseOS_inner2.bias f4 [64]
0	0x3e0aa2a5	0.13538606
1	0x3e2c86e9	0.16848339
2	0x3c15c21c	0.009140518
3	0xbe763a95	-0.24045785
4	0x3db83bd6	0.08995788
5	0xbe3e819c	-0.1860413
6	0xbe3204c9	-0.17384638
7	0x3e2cd172	0.16876772
8	0xbe2280cd	-0.15869446
9	0x3d181bcf	0.037135895
10	0xbe4b0ae4	-0.19828373
11	0x3b27719e	0.00255499
12	0x3dd6d975	0.104906954
13	0x3d08aa35	0.033365447
14	0xbe453e75	-0.19262107
15	0x3da8ca9d	0.082417704
16	0xbe795c23	-0.24351554
17	0xbd322800	-0.04349518
18	0x3ddf1c6a	0.108940914
19	0xbe35dc75	-0.17759879
20	0x3da8755a	0.08225508
21	0xbe30f322	-0.17280248
22	0x3e5e7e83	0.21727948
23	0x3e1db91d	0.15402646
24	0xbe621653	-0.22078829
25	0xbd93f087	-0.07223611
26	0xbda870c7	-0.082246356
27	0xbc4f24f7	-0.01264309
28	0x3e151ad2	0.14561012
29	0xbdcb3078	-0.09921354
30	0x3c4e753c	0.012601193
31	0xbe450c35	-0.19242938
32	0x3db738f6	0.08946411
33	0xbd919f59	-0.07110471
34	0x3caf6918	0.021412417
35	0xbe83ccab	-0.25742087
36	0xbe7ed5ed	-0.24886294
37	0x3e3fcc65	0.18730314
38	0x3dcaf382	0.09909727
39	0xbe30dcd4	-0.17271739
40	0x3d767822	0.06017316
41	0xbb67dab9	-0.0035378172
42	0xbdc83673	-0.0977601
43	0x3e723673	0.23653583
44	0xbe1c0e65	-0.15239866
45	0xbe6110eb	-0.2197911
46	0xbe2734ff	-0.1632881
47	0xbe9a7f24	-0.30175126
48	0xbdf18661	-0.11793209
49	0x3d2c2f54	0.042037323
50	0xbe557ab7	-0.20847593
51	0x3e376b3a	0.17911997
52	0x3dfcb444	0.123390704
53	0xbe5ba443	-0.2144938
54	0xbdcb4c40	-0.09926653
55	0x3db4ff02	0.088377014
56	0x3e1c2929	0.15250076
57	0xbe3b3563	-0.18282084
58	0x3e385947	0.18002807
59	0x3e3719d0	0.1788094
60	0xbe866f7f	-0.2625694
61	0xbd936a2c	-0.07197985
62	0x3e4ca7a3	0.19985823
63	0xbdace298	-0.08441657

LSTM_inner2.weight_ih_l0 f4 [256, 7]
0	0xbde4a2a5	-0.111638345
1	0x3e8262f9	0.25466135
2	0xbdc72779	-0.09724326
3	0xbe169d8e	-0.1470854
4	0x3e5cb6db	0.21554129
5	0xbdaf29d1	-0.08552898
6	0xbe7f5bfb	-0.24937432
7	0xbe002f00	-0.12517929
8	0x3ec6be2b	0.38816962
9	0xbc18bae8	-0.009321906
10	0x3e2b5ba4	0.16734177
11	0x3eb45b4c	0.35225904
12	0x3e7ac6fc	0.24489969
13	0xbcdef8e9	-0.027218299
14	0xbd4913f2	-0.049091287
15	0x3ebc6b8c	0.36800802
16	0x3ccf55e1	0.025309505
17	0x3e5c8505	0.21535118
18	0x3d988c7b	0.074486695
19	0x3eff759f	0.49894425
20	0x3dfe1728	0.124067605
21	0x3e199cb1	0.1500118
22	0x3b3469d8	0.0027528908
23	0xbd086ac2	-0.033304937
24	0xbc59fd01	-0.01330495
25	0x3e7a030b	0.24415223
26	0x3cbc1ec1	0.022963883
27	0x3ead8f9e	0.33898634
28	0x3dcc02c7	0.09961467
29	0x3e3100ce	0.17285463
30	0x3e1e5bf9	0.15464772
31	0xbe678344	-0.22608668
32	0x3ddb0757	0.10694759
33	0x3e90a709	0.28252438
34	0x3ec0ef69	0.37682655
35	0x3d8ef712	0.06980719
36	0xbe00d7d3	-0.1258233
37	0x3ccbb371	0.024865838
38	0xbd68465c	-0.056707725
39	0xbe8b8a7a	-0.27254087
40	0xbf070455	-0.52740985
41	0x3e1381cf	0.14404987
42	0xbe4a9dd2	-0.19786766
43	0x3d9ccb5b	0.076559745
44	0xbd2a9026	-0.041641377
45	0xbf391ccd	-0.7230957
46	0x3e5e3610	0.2170031
47	0xbd771d15	-0.06033047
48	0x3ea2132e	0.31655258
49	0xbe1a43f1	-0.1506498
50	0xbea393ac	-0.31948602
51	0xbb009b3c	-0.0019623777
52	0x3d973e87	0.07384973
53	0x3e42294b	0.18961065
54	0x3d94b542	0.07261135
55	0x3d32fd3e	0.04369854
56	0x3e54aec2	0.2076979
57	0x3daa0b3a	0.083029225
58	0xbdfdb6b6	-0.12388365
59	0x3e0ecdf9	0.1394576
60	0xbdea9a44	-0.11455205
61	0xbe30e1f3	-0.17273693
62	0x3d8b0cc4	0.06789544
63	0x3cff5c42	0.031171922
64	0x3ea62472	0.3244968
65	0x3dd0ec09	0.1020127
66	0x3e9e69e5	0.30940166
67	0x3f40b223	0.75271815
68	0x3ea5f6d4	0.32414877
69	0x3ec3813f	0.38184544
70	0x3d7d5b4a	0.06185464
71	0x3c2a6f36	0.010402491
72	0x3c5a896f	0.013338431
73	0x3f3bc41e	0.73346126
74	0xbdf25648	-0.11832863
75	0xbd714982	-0.058907993
76	0x3d50c6f4	0.050970986
77	0x3e0e8dad	0.13921233
78	0xbd893abc	-0.06700656
79	0xbe62cd27	-0.22148572
80	0xbea7d9c4	-0.3278333
81	0x3e2c113f	0.16803454
82	0x3da2f8d0	0.079576135
83	0x3ed078a8	0.40717053
84	0x3e3649d4	0.178016
85	0xbad2dc4d	-0.0016087383
86	0xbdc46f48	-0.09591538
87	0xbe513e3e	-0.204339
88	0x3ebf7723	0.37395582
89	0x3cfa8027	0.030578686
90	0x3e5618ed	0.20907946
91	0xbe20f2d5	-0.15717633
92	0xbef11f42	-0.4709416
93	0xbd17e326	-0.03708186
94	0x3ed3e2c1	0.41383937
95	0x3e245222	0.16046956
96	0xbddac0a8	-0.106812775
97	0x3eb393a3	0.35073575
98	0xbc0012e7	-0.007817007
99	0x3f77a9c7	0.96743435
100	0xbd7ef9a1	-0.062249783
101	0xbe04c5b9	-0.1296605
102	0x3e91ba5e	0.284625
103	0x3e739e10	0.23790765
104	0x3ea200dd	0.31641284
105	0xbe0a65df	-0.13515423
106	0x3de96295	0.11395756
107	0x3de377ab	0.11106809
108	0x3f66adf1	0.90109164
109	0xbdead29d	-0.114659525
110	0x3e0ed51d	0.13948484
111	0xbe06736d	-0.13129969
112	0xbc6cc9ed	-0.01445244
113	0x3dd26288	0.102726996
114	0x3c75c8b4	0.015001465
115	0xbe7a2b2f	-0.24430536
116	0x3e51a93e	0.20474717
117	0xbe2ac2b7	-0.1667584
118	0x3ebc91e1	0.36830047
119	0xbe5133f1	-0.2042997
120	0x3f6259c2	0.8841821
121	0x3e293a7b	0.16526215
122	0x3d0685e0	0.032842517
123	0x3e82e885	0.25568023
124	0x3eb46d37	0.35239574
125	0x3e1e2ca1	0.15446712
126	0xbe3254ab	-0.17415111
127	0xbd8091d8	-0.062778175
128	0xbddffb3f	-0.10936593
129	0x3e9f5fed	0.31127873
130	0x3f3dbd11	0.7411662
131	0x3ef462fa	0.47731763
132	0x3eaf27ce	0.34210056
133	0x3dd7ceb3	0.105374716
134	0x3dc1f2d0	0.09470141
135	0xbe3527db	-0.17690985
136	0xbf077ca0	-0.5292454
137	0x3e2667c5	0.16250522
138	0xbd60bf8b	-0.05487017
139	0x3dee8e59	0.116482444
140	0xbe0fa3ef	-0.1402738
141	0xbf13b5fe	-0.57699573
142	0xbe63d2cf	-0.22248386
143	0x3f22476d	0.6339024
144	0xbd8e7972	-0.069567576
145	0x3e48a35c	0.19593567
146	0xbdd01627	-0.10160475
147	0xbe9541f9	-0.29151896
148	0xbd2f0026	-0.04272475
149	0xbe7fe62b	-0.24990146
150	0xbf2076b4	-0.62681127
151	0x3e1675e7	0.14693414
152	0x3d9fe226	0.07806806
153	0xbe22bd1b	-0.1589245
154	0x3c301443	0.010747018
155	0x3e981f5f	0.29711434
156	0xbdff8ba6	-0.12477808
157	0xbf5e89b0	-0.86928844
158	0xbce3cf1a	-0.027808715
159	0x3e412624	0.18862206
160	0x3ea824b4	0.32840502
161	0xbe2ff56f	-0.17183469
162	0xbeceb577	-0.40372822
163	0xbdc3a194	-0.09552303
164	0xbddf991d	-0.10917876
165	0x3eab4961	0.3345442
166	0x3e0da893	0.13833837
167	0x3d0d1a93	0.03444917
168	0xbde97467	-0.11399155
169	0x3d7cb415	0.061695177
170	0x3c96b20d	0.018395448
171	0xbed8c22a	-0.42335635
172	0x3eacf1d6	0.33778256
173	0x3e0e6f9c	0.13909763
174	0x3eab0940	0.33405495
175	0x3e040f7e	0.12896535
176	0xbe452426	-0.19252071
177	0xbd13e56b	-0.036107462
178	0xbebcaf0a	-0.36852294
179	0xbdbac23f	-0.09119081
180	0x3d5bc96c	0.053658888
181	0x3eecbf86	0.4623987
182	0xbe24937d	-0.16071887
183	0x3f1fb35f	0.62383074
184	0xbe5c01e9	-0.21485104
185	0xbf8517b2	-1.0397856
186	0x3e04e6b2	0.12978628
187	0xbd93a4f6	-0.07209198
188	0x3e4ead03	0.20183186
189	0xbe860fce	-0.26183933
190	0xbd4a428e	-0.049379878
191	0x3e0ebc32	0.13938978
192	0xbdcee8ef	-0.10103022
193	0x3d02f158	0.031968445
194	0x3dd413af	0.10355317
195	0xbe6926c6	-0.22768697
196	0xbd89d085	-0.06729225
197	0xbf50afa3	-0.81518
198	0x3e60d2d8	0.2195543
199	0xbf0d76de	-0.552595
200	0x3f215cef	0.6303243
201	0x3e01b027	0.12664853
202	0x3e9ec44a	0.31009132
203	0x3d64cd60	0.055859923
204	0xbec8f0d2	-0.3924623
205	0xbcd835a7	-0.02639277
206	0xbccb92c9	-0.024850266
207	0x3eb6fd3c	0.35740077
208	0x3e5205a3	0.20509963
209	0x3efea601	0.49736026
210	0xbdbd332a	-0.092382744
211	0x3d8ddd71	0.06927002
212	0xbd1e9d9f	-0.038724538
213	0xbe3d7766	-0.18502578
214	0xbea6411b	-0.32471547
215	0xbc900c81	-0.017584087
216	0xbe09ab02	-0.1344414
217	0xbade231f	-0.0016947723
218	0x3db8eaed	0.090291835
219	0x3dea3142	0.114351764
220	0x3ddd7c55	0.1081473
221	0x3d9c0059	0.07617254
222	0x3e216981	0.15762903
223	0xbe16af24	-0.14715248
224	0x3e11eafa	0.14249793
225	0x3e54c910	0.20779824
226	0xbe259fed	-0.16174288
227	0x3e3db3eb	0.18525665
228	0x3ebda93d	0.3704318
229	0x3e430555	0.19045003
230	0x3f03e848	0.5152631
231	0xbd643385	-0.055713195
232	0xbde530ce	-0.111909494
233	0xbe89d4b2	-0.26920086
234	0xbf08b01b	-0.53393716
235	0xbe08e721	-0.13369419
236	0xbe1d152b	-0.15340106
237	0x3d03cafa	0.032175995
238	0x3e498629	0.19680084
239	0x3ec641a3	0.38721952
240	0x3d6bc724	0.057562962
241	0xbd9201d8	-0.07129258
242	0xbe258d4b	-0.1616718
243	0x3cf15404	0.029459007
244	0xbdfbf895	-0.12303273
245	0x3c547801	0.012968064
246	0xbeb81fb5	-0.3596169
247	0xbd27253b	-0.04080699
248	0xbec594d8	-0.3859012
249	0x3dbd4b63	0.092428945
250	0xbe1f68c0	-0.15567303
251	0xbdf1f50e	-0.118143186
252	0x3e2abe98	0.16674268
253	0x3f48cece	0.7844056
254	0x3d36f4f4	0.0446672
255	0xbcc45cc9	-0.023970025

LSTM_inner2.weight_hh_l0 f4 [256, 64]
0	0x3e266b26	0.16251811
1	0xbc7ec918	-0.015550874
2	0xbdf94300	-0.12170982
3	0xbe0936e1	-0.13399841
4	0xbd86a2c8	-0.06574017
5	0xbd8ab9d2	-0.06773724
6	0xbe132191	-0.14368273
7	0x3d408f09	0.04701141
8	0xbc0f0401	-0.008728982
9	0x3e12dfa7	0.14343129
10	0x3d877cbf	0.0661559
11	0xbdf5ff42	-0.12011577
12	0x3de36bc0	0.11104536
13	0xba85599c	-0.00101738
14	0x3d5f77f7	0.054557767
15	0x3e2b1c83	0.16710095
16	0xbd9e26fd	-0.0772228
17	0xbde03bd4	-0.10948911
18	0x3df81c79	0.12114806
19	0xbd64c943	-0.055856
20	0x3d503067	0.05082741
21	0x3dcfc88f	0.101456754
22	0x3caf511a	0.021400977
23	0x3d1e4b06	0.038645767
24	0xbbfcc330	-0.007713698
25	0x3da4378a	0.08018406
26	0xbc165620	-0.009175807
27	0x3dc32be9	0.095298596
28	0x3cada2e5	0.021195838
29	0xbd4aa8ad	-0.049477268
30	0x3e0fce52	0.14043549
31	0x3d9a2725	0.075269975
32	0xbd9fa512	-0.077951565
33	0x3dbe0668	0.09278566
34	0xbd44e853	-0.048073124
35	0x3e335639	0.1751336
36	0x3d43c922	0.047799237
37	0xbe712b0c	-0.23551577
38	0xbdcb7c20	-0.09935784
39	0x3dd8ca9b	0.10585519
40	0xbe915db7	-0.2839181
41	0xbe1fef57	-0.15618645
42	0x3cdfc750	0.02731672
43	0x3d093316	0.033495985
44	0x3c9f5bd6	0.01945297
45	0xbb5db4e2	-0.0033829738
46	0xbdd0e4da	-0.101999
47	0xba16719f	-0.0005738977
48	0x3e200f13	0.1563075
49	0x3de43336	0.1114258
50	0xbdf088d2	-0.117448464
51	0xbd7a2e75	-0.06107946
52	0x3d3bc0c7	0.045838144
53	0xbccf64a9	-0.025316553
54	0xbdcb23d1	-0.09918941
55	0xbd0a8ec8	-0.033827573
56	0x3ed9e682	0.42558676
57	0x3e888136	0.2666108
58	0x3ec69d75	0.38792005
59	0xbd2f1e55	-0.042753536
60	0xbe653182	-0.22382167
61	0xbdb34a26	-0.08754377
62	0x3e02d3d3	0.12776117
63	0xbc4647f9	-0.012102121
64	0xbd57e974	-0.052712873
65	0xbd30431a	-0.043032743
66	0xbe69bacd	-0.22825165
67	0x3d6788d6	0.05652698
68	0xbe3039ec	-0.17209595
69	0x3c40bba8	0.011763491
70	0xbe119222	-0.14215901
71	0xbe4e54a7	-0.2014948
72	0xbd8d56c8	-0.06901318
73	0xbdaa4b14	-0.08315101
74	0xbe1df8fe	-0.15427014
75	0x3d416c04	0.047222152
76	0x3d68a106	0.05679419
77	0xbc4da302	-0.012551071
78	0x3e3daf36	0.18523869
79	0xbe3772a3	-0.17914824
80	0xbe6f0d58	-0.23344934
81	0xbdf5559f	-0.119792216
82	0xbe63e256	-0.22254309
83	0xbd7f66a8	-0.06235376
84	0xbdbcde26	-0.09222059
85	0x3e1eef45	0.15520962
86	0xbdf109d2	-0.11769451
87	0xbb81931c	-0.0039543044
88	0x3e60d703	0.2195702
89	0x3e7c630a	0.24647155
90	0x3e0abe56	0.1354917
91	0xbe805ef8	-0.25072455
92	0xbdabd042	-0.083893314
93	0xbe6811c0	-0.22663021
94	0xbcf73b40	-0.03017962
95	0x3d1c0822	0.038093694
96	0xbe9b80fe	-0.3037185
97	0x3d885b6c	0.06658062
98	0x3db07b1d	0.08617232
99	0xbe53d619	-0.2068714
100	0x3e5c99ad	0.21542998
101	0xbe10769f	-0.1410775
102	0xbdd0b582	-0.1019087
103	0xbe6794c3	-0.22615342
104	0x3df8668f	0.121289365
105	0xbe2dbb0c	-0.16965884
106	0x3de67dc2	0.11254455
107	0xbe590060	-0.2119155
108	0xbe8d8ac7	-0.2764494
109	0x3d55ef5b	0.05223022
110	0xbd29495c	-0.041329727
111	0x3d158ca3	0.036511075
112	0x3e5fe752	0.21865585
113	0xbd10a221	-0.03531087
114	0xbe5a281c	-0.21304363
115	0x3c6b34e9	0.0143558765
116	0xbdf048ba	-0.117326215
117	0x3e402669	0.18764652
118	0xbe90bff8	-0.2827146
119	0x3e108331	0.14112546
120	0xbba0f1b1	-0.0049116244
121	0x3dbf2838	0.09333843
122	0x3dccbb85	0.09996704
123	0xbde6367b	-0.1124086
124	0xbdd60e30	-0.10451925
125	0x3ddc166a	0.10746463
126	0xbdaecdff	-0.085353844
127	0xbcd2bc74	-0.025724627
128	0xbe953f4c	-0.29149854
129	0x3cc5c12d	0.024139965
130	0x3e85d82e	0.26141495
131	0xbcb0d3a5	-0.021585295
132	0x3e25e084	0.16198927
133	0xbe3e9ecf	-0.18615268
134	0x3e22d476	0.1590136
135	0x3d7161f6	0.058931313
136	0xbd806894	-0.06269947
137	0xbe141ad9	-0.14463367
138	0x3e8f3182	0.2796746
139	0x3ce45227	0.027871205
140	0x3dab206c	0.08355793
141	0x3d4a8a0b	0.049448054
142	0xbe851719	-0.25994185
143	0x3e12245a	0.1427168
144	0xbc40abb9	-0.011759692
145	0x3e8cafab	0.27477774
146	0xbf01943c	-0.5061681
147	0xbd017ad6	-0.031611286
148	0x3e2d95a9	0.16951622
149	0xbcbdfee1	-0.023192825
150	0xbe2cf4ef	-0.1689031
151	0x3e838aa4	0.25691712
152	0x3ec80d00	0.39072418
153	0xbb50275c	-0.0031761741
154	0x3dca0b65	0.098654546
155	0xbe275eda	-0.16344777
156	0x3e50cd29	0.20390762
157	0x3dff0b6a	0.12453349
158	0xbe0d2427	-0.13783322
159	0xbe90ed88	-0.28306222
160	0x3dc3262e	0.095287666
161	0x3923ebe6	0.0001563277
162	0xbd349def	-0.04409593
163	0x3d9d84de	0.07691358
164	0xbeff3871	-0.4984775
165	0xbdeb87b3	-0.11500492
166	0xbeb0cd09	-0.3453143
167	0xbe4a3b08	-0.19749081
168	0x3d0bbdff	0.03411674
169	0x3e9d9f3b	0.30785546
170	0xbc5d93c2	-0.013523998
171	0xbd05edbf	-0.032697435
172	0x3dca6fd3	0.0988461
173	0xbddc5598	-0.10758513
174	0xbd6e9b48	-0.058253556
175	0xbcfb16b1	-0.030650469
176	0x3e7ea811	0.248688
177	0xbece1111	-0.40247396
178	0x3e9ba5de	0.30399984
179	0xbbec5040	-0.007211715
180	0xbe428d3e	-0.18999192
181	0xbd90c97d	-0.07069681
182	0x3e306383	0.1722546
183	0xbe7e8994	-0.2485717
184	0xbdbd8117	-0.092531376
185	0x3e250ae0	0.1611743
186	0xbd57b208	-0.05266002
187	0x3e856245	0.26051536
188	0x3da7af52	0.081877366
189	0xbe633683	-0.22188763
190	0x3d18a725	0.037268776
191	0x3dc59ff2	0.09649648
192	0xbd9f63f6	-0.07782738
193	0xbc663792	-0.014051335
194	0x3dd0a573	0.10187807
195	0xbda02133	-0.07818832
196	0x3beafcd9	0.007171255
197	0xbdf61555	-0.120157875
198	0xbe208242	-0.1567469
199	0x3d753f89	0.059875045
200	0xbe599f33	-0.21252136
201	0x3dce86a9	0.10084278
202	0x3e108a94	0.14115363
203	0xbe28b29d	-0.16474386
204	0xbde7eb07	-0.11324125
205	0xbdbd0f3f	-0.092314236
206	0x3c04a4dd	0.008095947
207	0xbd9ea487	-0.07746225
208	0x3d7a1fa9	0.06106535
209	0xbc6fc3fe	-0.0146341305
210	0x3e9e2290	0.30885744
211	0xbb0b18e3	-0.002122455
212	0xbe002772	-0.12515047
213	0x3e3c702a	0.18402162
214	0x3e03f2e2	0.12885621
215	0xbe057379	-0.1303233
216	0xbe7add00	-0.24498367
217	0x3d155b70	0.036464155
218	0xbe8fe8fb	-0.28107437
219	0x3d92dc3c	0.071709126
220	0xbee25aa1	-0.4420977
221	0xbe93ea3d	-0.28889647
222	0x3d4f7c1a	0.05065546
223	0xbe1f2ec8	-0.1554519
224	0x3ce87a96	0.028378766
225	0x3e10281c	0.140778
226	0x3e51976a	0.20467916
227	0x3dc4d478	0.09610838
228	0x3b39da51	0.0028358886
229	0x3da3d60d	0.07999811
230	0x3beeebc3	0.0072912886
231	0xbc0575cb	-0.00814576
232	0x3dd337fb	0.10313412
233	0xbdf341c6	-0.1187778
234	0x3e42adf9	0.19011678
235	0xbd3b031c	-0.045657262
236	0xbe5281bb	-0.20557301
237	0x3d7e8b80	0.062144756
238	0x3d17b007	0.037033107
239	0x3e5762fe	0.21033856
240	0xbdb91961	-0.09038044
241	0x3d6a29f5	0.05716892
242	0x3d172133	0.036896896
243	0x3c02d8dc	0.007986274
244	0xbe0cf4a9	-0.13765205
245	0x3c9b489e	0.018955525
246	0x3d99aa84	0.075032264
247	0x3d455227	0.04817405
248	0xbe0523a1	-0.13001873
249	0xbcbd1f03	-0.023086077
250	0xbd4288c8	-0.047493726
251	0xbe4c96ed	-0.19979449
252	0x3dde6d3d	0.10860679
253	0x3e71a0d8	0.23596513
254	0xbe163ba6	-0.14671192
255	0xbe1bcdd3	-0.15215234

LSTM_inner2.bias_ih_l0 f4 [256]
0	0x3d8a7046	0.06759696
1	0x3e34d485	0.17659195
2	0xbb137cff	-0.0022504923
3	0xbd68b6f3	-0.0568151
4	0xbcc374b6	-0.023859363
5	0x3dc0c820	0.09413171
6	0xbdb6fbee	-0.089347705
7	0x3d2e2bde	0.042522304
8	0xbdace4bd	-0.08442066
9	0x3e0dfb07	0.1386529
10	0x3d948c32	0.07253303
11	0x3dae1232	0.08499564
12	0x3ec7b501	0.39005283
13	0x3cf0c51e	0.029390868
14	0xbd3cf11d	-0.04612838
15	0x3e232556	0.15932211
16	0x3cdc5c96	0.026899617
17	0xbe014af5	-0.1262625
18	0x3dd958c6	0.10612635
19	0x3da1ec79	0.07906432
20	0x3e2bfead	0.1679637
21	0xbcabc60d	-0.020968461
22	0x3ce59bbd	0.028028363
23	0x3e59b126	0.21258983
24	0xbd001cab	-0.03127734
25	0x3e72285a	0.23648205
26	0x3db170ed	0.08664117
27	0x3d2e064e	0.04248648
28	0xbe0dab84	-0.1383496
29	0xbc33bfc7	-0.010971016
30	0xbdca5ea6	-0.09881334
31	0x3e4a2b32	0.1974304
32	0x3e7fe7e7	0.24990807
33	0xbde549d9	-0.11195726
34	0xbdbcbbf9	-0.092155404
35	0x3e172a48	0.14762223
36	0x3e0e837e	0.13917348
37	0x3cba4cf4	0.022741772
38	0x3cd5ecf4	0.026113965
39	0x3e5b7fe4	0.21435505
40	0xbd935174	-0.0719327
41	0x3e3d5c95	0.18492348
42	0x3cb41782	0.021983866
43	0xbbd00005	-0.0063476586
44	0x3d82c9c4	0.0638614
45	0x3d9adf5a	0.07562132
46	0xbd09898f	-0.03357845
47	0x3dc6a9d4	0.09700361
48	0x3a0826ab	0.000519375
49	0xbcdaeefe	-0.026725288
50	0x3e348380	0.17628288
51	0x3e1073bc	0.14106649
52	0x3d0b78b4	0.03405066
53	0x3dc0a486	0.0940638
54	0x3df5dd29	0.120050736
55	0x3e0e533a	0.13898936
56	0x3eedba19	0.46431044
57	0x3e890412	0.26760918
58	0xbcfb7aec	-0.030698262
59	0xbe00d290	-0.12580323
60	0x3ceeeb94	0.029165067
61	0x3dcc12cc	0.09964523
62	0x3da0b163	0.07846334
63	0x3db81168	0.08987695
64	0x3e47374c	0.19454688
65	0x3e4ed34a	0.20197788
66	0xbd4eb23c	-0.050462946
67	0x3d3f2f9e	0.04667627
68	0x3dc28004	0.09497073
69	0x3dc93deb	0.09826263
70	0x3d82fc65	0.06395797
71	0x3e2cc007	0.16870128
72	0xbd4cb018	-0.049972624
73	0xbdd8de43	-0.10589268
74	0xbd753432	-0.05986423
75	0x3e3df248	0.18549454
76	0xbdcbc146	-0.09948973
77	0x3c65a33e	0.014015971
78	0xbd445fce	-0.04794293
79	0x3be03d32	0.0068432325
80	0x3daea12f	0.08526837
81	0x3b777b1d	0.003776259
82	0xbccc7f6e	-0.024963107
83	0x3e1410e5	0.1445957
84	0x3df7143a	0.12064405
85	0x3d9128e2	0.07087876
86	0x3dd61d8f	0.104548566
87	0x3e0a47a6	0.13503894
88	0x3e0aa4ac	0.1353938
89	0x3ec28446	0.37991542
90	0x3d6e1191	0.05812222
91	0xbca40726	-0.02002294
92	0xbd9c0183	-0.07617476
93	0x3da2da1e	0.07951759
94	0x3e2ea7f4	0.17056257
95	0x3e2f5208	0.17121136
96	0xbd7cbc83	-0.061703216
97	0xbdbc14d4	-0.0918366
98	0x3d90fd03	0.07079508
99	0x3da2407e	0.07922457
100	0xbdc717e4	-0.09721354
101	0x3e0513c2	0.12995818
102	0x3dd4bd7b	0.10387703
103	0x3d814cfa	0.0631351
104	0xbd91860c	-0.071056455
105	0x3d802fb4	0.06259099
106	0x3e2fabb7	0.17155348
107	0x3e4619ed	0.19345827
108	0x3dbb1a95	0.091359295
109	0xbcc40c55	-0.023931662
110	0xbe893abb	-0.2680262
111	0x3e1b159a	0.15144959
112	0x3d18ac72	0.03727383
113	0xbd8ee41d	-0.06977103
114	0x3e5b44b6	0.2141293
115	0xbd88eca1	-0.066857584
116	0x3e10ee0c	0.14153308
117	0x3d89535b	0.06705352
118	0xbd1210b3	-0.035660457
119	0x3ded1b61	0.11577488
120	0x3d23398e	0.03984981
121	0x3e8273ca	0.25478965
122	0x3be04528	0.0068441816
123	0x3e25a471	0.1617601
124	0xbc53b24b	-0.012920926
125	0x3d556fee	0.052108698
126	0x3e087b76	0.13328347
127	0xbd13b259	-0.036058757
128	0x3e44c99a	0.1921753
129	0x3e065530	0.13118434
130	0xbc6e0f87	-0.014530069
131	0x3d1f3a97	0.038874235
132	0xbe0b4fff	-0.13604735
133	0xbd76bdd0	-0.060239613
134	0xbd2d35e7	-0.042287733
135	0x3df4edf2	0.11959447
136	0x3d72b571	0.059255067
137	0xbdc84302	-0.09778406
138	0xbd59605b	-0.053070407
139	0xbe231492	-0.15925816
140	0x3e2001f1	0.1562574
141	0x3dd72f86	0.10507111
142	0xbe19f3f5	-0.15034468
143	0xbccf2dd7	-0.025290413
144	0xbdc00acd	-0.0937706
145	0x3d4c29ae	0.049844436
146	0x3ce8a6cb	0.028399846
147	0xbdef386a	-0.11680682
148	0x3dad0e07	0.08449941
149	0xbd40b637	-0.047048774
150	0x3dfedcaf	0.12444436
151	0x3d698748	0.05701378
152	0xbe27a3bd	-0.16371055
153	0x3e06ebae	0.13175842
154	0xbdc66e2e	-0.09688984
155	0x3de3649a	0.111031726
156	0x3ba48e06	0.0050218133
157	0x3cfd814b	0.03094544
158	0xbd0a83e4	-0.033817187
159	0x3d192425	0.037387986
160	0x3d208afa	0.03919504
161	0x3d516a3e	0.05112671
162	0xbe16f329	-0.14741196
163	0xbc8266d2	-0.01591817
164	0x3e039ca9	0.1285273
165	0xbe01cb9f	-0.12675332
166	0x3bd77562	0.0065752724
167	0xbd1b61a6	-0.03793492
168	0xbe117c8b	-0.14207666
169	0xbce429fb	-0.02785205
170	0xbd6cbe1e	-0.057798497
171	0x3e011541	0.12605764
172	0x3c989d43	0.018629676
173	0xbddd501f	-0.108062975
174	0x3d5b1ea4	0.053496018
175	0xbddee8e4	-0.10884264
176	0x3ddf2efb	0.10897633
177	0x3df9d54e	0.12198888
178	0xbdd69084	-0.10476783
179	0xbcd40f42	-0.025886182
180	0xbdd5b56e	-0.104349956
181	0xbe0eef9a	-0.13958588
182	0x3cccdc4e	0.025007393
183	0x3ddf001a	0.10888691
184	0x3e2a98e7	0.1665989
185	0xbe17ec30	-0.14836192
186	0x3df6fe78	0.12060255
187	0x3cdbe0ba	0.026840556
188	0xbdeb1246	-0.11478095
189	0x3b0669ad	0.0020509765
190	0xbc698655	-0.014253219
191	0xbd1a4f1a	-0.037673093
192	0x3e1d19f8	0.15341938
193	0x3d53472d	0.05158155
194	0xbd7552c3	-0.05989338
195	0x3d872883	0.06599524
196	0x3e02facf	0.12790988
197	0x3e1585d3	0.14601831
198	0x3da41099	0.08010978
199	0xbdbf7869	-0.09349138
200	0xbe098529	-0.13429703
201	0x3ec5577e	0.38543314
202	0x3c0e885a	0.008699501
203	0x3e17671a	0.14785424
204	0x3e06d069	0.1316544
205	0xbaee3684	-0.0018174206
206	0x3d66a97b	0.056313973
207	0x3e2e7f47	0.1704074
208	0xbc8232f3	-0.015893435
209	0x3b614659	0.0034374206
210	0x3eef2785	0.46709839
211	0x3d7ae2b9	0.061251376
212	0x3e5380dd	0.20654626
213	0x3dd182b8	0.10230011
214	0x3dca5925	0.09880284
215	0x3e3e0761	0.18557502
216	0x3bd317e3	0.0064420565
217	0x3dfd3440	0.123634815
218	0x3e7d46d1	0.24734046
219	0x3d1a5ee6	0.03768816
220	0x3e97b3f8	0.29629493
221	0x3d8dd966	0.06926231
222	0xbcca92c4	-0.024728186
223	0x3e191d4e	0.14952585
224	0x3dd61c11	0.10454572
225	0x3e0eff77	0.1396464
226	0xbdcac7a0	-0.09901357
227	0x3e0cb844	0.13742167
228	0x3dbfa20c	0.0935708
229	0xbcdf6850	-0.02727142
230	0x3ddd1729	0.10795433
231	0x3e87de2b	0.26536688
232	0xbdbf8f28	-0.09353477
233	0x3e2dc583	0.16969876
234	0x3d70c0e5	0.05877771
235	0xbca511e6	-0.020150136
236	0x3bd604c4	0.00653133
237	0x3e8279fe	0.25483698
238	0x3d728f2c	0.05921857
239	0x3e9b6edb	0.30358014
240	0xbc1ad678	-0.009450547
241	0x3ca5dc64	0.020246692
242	0x3ec13151	0.37732938
243	0xbcb55d5f	-0.02213925
244	0xbda6fdfa	-0.08153911
245	0x3dba3783	0.09092619
246	0x3a7c2239	0.00096181367
247	0x3e85e665	0.2615234
248	0x3e1572f3	0.14594631
249	0x3e6c9149	0.23102297
250	0x3dadfa2d	0.08494983
251	0x3e4c6336	0.19959721
252	0x3d54c5ed	0.05194657
253	0x3da3127f	0.07962512
254	0x3d7dccc8	0.061962873
255	0xbc757625	-0.014981781

LSTM_inner2.bias_hh_l0 f4 [256]
0	0x3e33cee7	0.17559396
1	0x3d2e2bfe	0.042522423
2	0xbe0f1b00	-0.13975143
3	0x3e181aa1	0.14853908
4	0x3e4caa5b	0.1998686
5	0x3ddd88de	0.10817121
6	0x3d3f136d	0.046649385
7	0xbd7fb5e4	-0.062429324
8	0x3df32ed9	0.1187417
9	0x3e95e7cb	0.29278407
10	0xbd0276ac	-0.031851456
11	0x3e09f334	0.13471681
12	0x3e56b1b8	0.20966232
13	0xbd13a7c3	-0.036048662
14	0x3e083d5c	0.13304657
15	0x3e142dc9	0.1447059
16	0xbb9d4aec	-0.004800191
17	0xbe54a89e	-0.20767447
18	0x3db8af4d	0.09017811
19	0x3dbf8ad0	0.09352648
20	0x3deb6dc0	0.114955425
21	0x3e0556a5	0.13021334
22	0xbd46ab7d	-0.048503388
23	0x3df674c8	0.12033993
24	0xbdfa4067	-0.12219315
25	0x3c09accc	0.008403014
26	0xbd7f10c0	-0.062271833
27	0x3e14ba47	0.14524184
28	0x3ced01d1	0.02893153
29	0x3e0bee46	0.13665113
30	0x3cb4d1f6	0.022072773
31	0x3e78aed6	0.24285445
32	0x3e6003e4	0.21876484
33	0x3dd39a3d	0.10332153
34	0x3e0512f9	0.12995519
35	0x3dcd9281	0.10037709
36	0x3dfe0165	0.1240261
37	0x3e02a816	0.12759432
38	0xbd8ab083	-0.06771948
39	0x3e7eed9b	0.24895327
40	0xbdabc59c	-0.083873
41	0x3da810bc	0.08206317
42	0x3d5070ed	0.050888944
43	0xb9e7fbb4	-0.00044247287
44	0x3c29c245	0.010361259
45	0x3e48117b	0.19537918
46	0x3d5e800f	0.054321345
47	0x3e7bfa6f	0.24607252
48	0x3d96a676	0.07355969
49	0x3e20b5cb	0.15694349
50	0x3ea61c0b	0.3244327
51	0x3e010d53	0.12602739
52	0xbd9a855f	-0.0754497
53	0x3d871a76	0.06596844
54	0xbd9506ba	-0.072766736
55	0x3dfb6375	0.12274829
56	0x3ee45233	0.44593963
57	0x3eb4d1d8	0.35316348
58	0xbdc4a014	-0.09600845
59	0xbd91106e	-0.07083212
60	0x3c3110b0	0.010807201
61	0xbd97c437	-0.07410472
62	0x3e114fea	0.14190641
63	0xbde392c5	-0.111119784
64	0x3ca1e926	0.019764494
65	0x3e1bcd10	0.15214944
66	0xbce5f7e0	-0.028072298
67	0x3d826c56	0.0636832
68	0x3e1e2b0d	0.1544611
69	0x3e47847f	0.19484137
70	0xbcb02b61	-0.02150506
71	0x3dca81f0	0.09888065
72	0xbd03ca96	-0.032175623
73	0xbe8583b9	-0.2607706
74	0x3c2b8203	0.010468009
75	0xbcab386e	-0.020900931
76	0xbd3d1ab8	-0.04616806
77	0xbdcd701b	-0.10031148
78	0x3d508505	0.050908107
79	0x3e19734c	0.14985389
80	0xbd61996e	-0.055077963
81	0xbd28f15c	-0.041245803
82	0x3dced0c2	0.10098411
83	0x3dedab3e	0.116049275
84	0x3e74fea1	0.23925258
85	0xbb8dca34	-0.004327083
86	0x3d858abd	0.06520603
87	0x3e44b3a9	0.1920916
88	0x3dee6e55	0.11642138
89	0x3e6a2eff	0.2286949
90	0xbbd9f9d6	-0.006652097
91	0xbd4b4f95	-0.049636442
92	0xbd9dd198	-0.077059925
93	0xbdeee8d4	-0.11665502
94	0xbc600056	-0.013671955
95	0x3e004371	0.12525727
96	0x3c75bd6c	0.014998775
97	0xbc86a020	-0.016433775
98	0x3bd9c0e2	0.006645308
99	0xbdd09d56	-0.101862594
100	0xbd97a047	-0.07403617
101	0x3d8c6f3a	0.06857152
102	0xbd36f465	-0.044666667
103	0xbe167fe7	-0.14697228
104	0x3da5d1d9	0.08096666
105	0xbb0e6e7b	-0.0021733332
106	0x3dd1b0af	0.10238778
107	0x3e4cb49d	0.19990773
108	0x3e1bbb34	0.15208131
109	0xbdd00dd4	-0.101588875
110	0xbe2f5052	-0.17120484
111	0x3cf0e1c3	0.029404527
112	0xbb88530d	-0.004160291
113	0x3d27e81a	0.040992834
114	0x3e93c572	0.28861576
115	0x3ced440c	0.028963111
116	0x3d886b5d	0.06661103
117	0x3cb270e3	0.021782344
118	0x3d873902	0.0660267
119	0x3b87cd13	0.00414432
120	0x3dc18299	0.09448738
121	0x3e59c754	0.21267444
122	0x3e11a38f	0.14222549
123	0x3c6f7da2	0.014617356
124	0x3dd62b44	0.10457471
125	0xbb9f1a34	-0.0048554186
126	0xbd36ba3e	-0.04461121
127	0xba051f55	-0.0005078216
128	0x3e16729c	0.14692158
129	0x3ccf52de	0.025308069
130	0xba89ffa6	-0.001052846
131	0xbd136f3a	-0.035994746
132	0xbe3ebed5	-0.18627484
133	0x3df17e0e	0.11791621
134	0xbd7c9894	-0.061668947
135	0x3dddce94	0.10830417
136	0x3d2758c1	0.040856127
137	0x3d8ac22a	0.06775315
138	0x3d27d39c	0.04097329
139	0xbd773e09	-0.060361896
140	0x3d97c980	0.0741148
141	0x3e32209c	0.17395252
142	0xbc0b8a8a	-0.008516917
143	0x3c26e43a	0.010186249
144	0x3da44a6d	0.08022008
145	0x3d19322d	0.037401367
146	0xbda4a1ca	-0.08038671
147	0xbd8e8925	-0.06959752
148	0x3d9b74b6	0.0759062
149	0xbd81a83a	-0.06330915
150	0xbca5e5ce	-0.020251181
151	0x3bd104e6	0.006378758
152	0xbd888d68	-0.06667596
153	0xbc5cb3ff	-0.013470649
154	0x3dac1a7e	0.084034905
155	0x3dedcc44	0.11611226
156	0x3db4192a	0.08793862
157	0xbc0c8261	-0.008576007
158	0x3dc879ec	0.0978888
159	0x3dbe670b	0.09296998
160	0xbc7eec1a	-0.015559221
161	0xbd0eb52f	-0.03484076
162	0xbd77be0f	-0.06048399
163	0x3c085f20	0.008323461
164	0x3bd74acb	0.0065701953
165	0xbc05d2a2	-0.008167895
166	0xbdcfb0a8	-0.101411164
167	0xbe29c03f	-0.16577242
168	0xbdd3bbfb	-0.10338589
169	0xbda337c2	-0.07969619
170	0xbe09154c	-0.1338703
171	0x3ba276b2	0.0049579972
172	0x3da859c4	0.082202464
173	0xbe15717a	-0.14594069
174	0xbdf8851e	-0.12134765
175	0x3d91865e	0.07105707
176	0x3cc0452e	0.023470487
177	0x3cc87625	0.024470398
178	0xbe435a10	-0.19077325
179	0xbe241f45	-0.16027553
180	0xbc0af179	-0.008480423
181	0xbd102099	-0.035187338
182	0xbd8d0cd9	-0.06887216
183	0xbdbcb365	-0.09213904
184	0x3dbe5eb2	0.092954054
185	0xbd54f4f0	-0.051991403
186	0xbd606080	-0.05477953
187	0x3d3b7365	0.045764346
188	0x3d6c1937	0.057641234
189	0x3dc3160b	0.09525689
190	0xbdc5a7b7	-0.0965113
191	0x3d877301	0.06613732
192	0x3dade311	0.08490575
193	0x3e3bc0e8	0.18335307
194	0x3d16f0c8	0.03685072
195	0xbdb9c70e	-0.0907117
196	0x3c14ac33	0.009074259
197	0x3e0a6db5	0.13518412
198	0xb9b7f37f	-0.000350859
199	0xbda2c2a6	-0.079472825
200	0xbdaf4b55	-0.0855929
201	0x3ef17bf3	0.47164878
202	0x3ce6dc7a	0.028181303
203	0x3e04a478	0.12953365
204	0x3e3143a2	0.17310956
205	0x3dc4a005	0.09600834
206	0x3c5c08d5	0.01342984
207	0x3e3dc5a2	0.18532422
208	0x3ccaabab	0.02474006
209	0x3e212496	0.15736613
210	0x3ec0943d	0.37613097
211	0x3e23e996	0.16007075
212	0x3e46447c	0.19362062
213	0x3d9709e5	0.07374934
214	0xbcb6d5b6	-0.022318702
215	0x3d35f95d	0.044427264
216	0x3e29df05	0.16588981
217	0x3e29067e	0.16506383
218	0x3e51a909	0.20474638
219	0xbbd56fa1	-0.0065135513
220	0x3e0ce2e5	0.13758428
221	0x3d746b15	0.059672434
222	0xbd90fa4f	-0.070789926
223	0x3c422a2b	0.011850874
224	0x3e28a995	0.1647094
225	0xbcaaf21f	-0.020867405
226	0x3def3a48	0.11681038
227	0x3db46bc4	0.08809617
228	0x3e8ad714	0.27117217
229	0x3b2b661f	0.0026153398
230	0x3d50d121	0.05098069
231	0x3e5afeee	0.2138631
232	0xbd9db824	-0.07701138
233	0x3dfd07d0	0.12355006
234	0xbdab30a9	-0.083588906
235	0x3db1f298	0.08688849
236	0xbd6b975a	-0.057517387
237	0x3d7e581c	0.062095746
238	0x3ca5dbfb	0.020246496
239	0x3e9f63bf	0.31130788
240	0xbd22510d	-0.039628077
241	0xbd4a525c	-0.04939495
242	0x3e9b5a93	0.3034254
243	0x3cf52011	0.029922517
244	0x3dfae4ab	0.12250646
245	0x3d7f9b1c	0.062403783
246	0x3d975a19	0.07390232
247	0x3d1d1349	0.03834847
248	0x3eac0176	0.33594865
249	0x3e9f9f60	0.3117628
250	0x3c02edf5	0.007991304
251	0x3d38d507	0.045125034
252	0x3d205c74	0.03915067
253	0x3e07a637	0.13247
254	0x3e1767f8	0.14785755
255	0x3dc2b7c4	0.09507707

denseTS_inner2.weight f4 [64, 64]
0	0x3ab58984	0.0013850187
1	0xbe095270	-0.13410354
2	0x3dd3c54a	0.10340364
3	0xbd63465f	-0.055487033
4	0x3e17ed28	0.14836562
5	0x3d754602	0.059881218
6	0xbdf6abc9	-0.12044484
7	0xbd874c26	-0.06606321
8	0x3cd0a7b2	0.025470588
9	0xbe159929	-0.14609207
10	0xbda576f1	-0.08079327
11	0x3e71aaad	0.23600264
12	0xbdd938ce	-0.10606538
13	0xbd77834c	-0.06042795
14	0x3e372abf	0.178874
15	0xbd981a25	-0.07426862
16	0x3e03eca2	0.12883237
17	0x3e2e3e1b	0.17015879
18	0x3e21377b	0.1574382
19	0x3d2dbaa2	0.042414315
20	0xbe6caf69	-0.23113789
21	0x3e2d729a	0.16938248
22	0x3e63e70c	0.22256106
23	0xbe5843a8	-0.21119559
24	0xbc9d7ebd	-0.019225473
25	0xbe22179c	-0.15829319
26	0xbd9b0382	-0.075690284
27	0xbdeb259b	-0.11481782
28	0xbdaf6664	-0.08564451
29	0x3b824588	0.003975574
30	0xbe0af99b	-0.1357178
31	0xbb2035a4	-0.0024446035
32	0x3d5db2e5	0.054125685
33	0xbd1a7567	-0.03770962
34	0xbe34c12e	-0.17651817
35	0xbdf6b2ab	-0.12045797
36	0xbdc72879	-0.097245164
37	0x3e663913	0.2248271
38	0x3e816e00	0.25279236
39	0xbd844f9a	-0.06460495
40	0xbe28a66d	-0.16469736
41	0xbe12022b	-0.1425864
42	0x3e12931c	0.1431393
43	0x3dea63ed	0.114448406
44	0x3e0f156f	0.1397302
45	0xbe7e3495	-0.24824746
46	0xbd076671	-0.03305668
47	0x3d171dcc	0.03689365
48	0x3ccd361a	0.025050212
49	0x3e3ad919	0.18246879
50	0xbdf539cd	-0.11973915
51	0x3cb9f999	0.022702025
52	0x3e06cd95	0.13164361
53	0xbdd1c995	-0.10243527
54	0xbd6b22ff	-0.05740642
55	0xbdca8134	-0.09887925
56	0xbc9c255c	-0.019060783
57	0xbe32a1a2	-0.1744447
58	0xbdc46bad	-0.0959085
59	0xbceddb79	-0.029035317
60	0xbdac61d0	-0.08417094
61	0x3e10c34f	0.14137004
62	0xbd830241	-0.06396914
63	0xbe2888df	-0.16458462
64	0xbd4f5868	-0.05062142
65	0xbe150cd5	-0.14555676
66	0xbd8bc4f7	-0.068246774
67	0xbc25ac41	-0.010111869
68	0xbe351c12	-0.17686489
69	0xbdc564e9	-0.09638388
70	0xbd2a7aa5	-0.04162087
71	0xbd5d5e90	-0.05404526
72	0x3beb1a90	0.0071747974
73	0x3dec6f62	0.11544682
74	0xbe0b685c	-0.13614029
75	0xbe42e468	-0.19032443
76	0x3e1173e6	0.14204368
77	0xbcb54275	-0.022126416
78	0x3dd53ec9	0.10412366
79	0xbe2108c3	-0.15725999
80	0xbe3b3318	-0.1828121
81	0xbd9b4143	-0.07580807
82	0x3de4a950	0.11165106
83	0xbdc1020a	-0.09424217
84	0xbb1cce01	-0.0023926499
85	0x3d0bbd17	0.034115877
86	0x3e08f5c7	0.13375007
87	0x3cf178c4	0.02947653
88	0xbe2a41e5	-0.166267
89	0x3ead3c0b	0.33834872
90	0x3d944364	0.07239416
91	0x3d57137a	0.05250881
92	0xbd377532	-0.0447895
93	0xbded6035	-0.11590616
94	0xbdb84766	-0.08997993
95	0xbe57aad5	-0.21061261
96	0xbe1f7a66	-0.15574035
97	0x3dc6cb52	0.09706749
98	0xbd4a497f	-0.049386498
99	0xbe108c06	-0.14115915
100	0x3e698067	0.22802888
101	0xbe1d2a9d	-0.15348287
102	0x3da21368	0.07913858
103	0xbe2caf6f	-0.16863798
104	0x3e00f10a	0.12591949
105	0xbe31afe8	-0.17352259
106	0xbd27777a	-0.040885426
107	0xbc980c4c	-0.018560551
108	0xbd2e78f8	-0.042595834
109	0x3e01d14f	0.12677501
110	0xbccba67c	-0.02485966
111	0x3e7b267e	0.24526402
112	0xbd95eb04	-0.07320216
113	0x3e042b98	0.12907255
114	0xbd2b52fe	-0.041827194
115	0xbd514eb4	-0.051100448
116	0x3d7fec10	0.062480986
117	0x3d8d1969	0.06889612
118	0xbe012a26	-0.12613735
119	0x3eb41ab7	0.35176632
120	0xbcf889a3	-0.030339068
121	0x3d2b0006	0.04174807
122	0x3defcf97	0.117095165
123	0xbe25aebb	-0.16179936
124	0xbdc5aa3d	-0.09651611
125	0x3d8e8ac5	0.06960062
126	0xbea3be47	-0.31981108
127	0xbd9fda3b	-0.07805296
128	0xbe45ee8f	-0.19329284
129	0xbd0408c2	-0.032234915
130	0xbe72d6b1	-0.23714711
131	0x3d6c2b71	0.057658616
132	0xbd2cbb28	-0.042170674
133	0xbdaff8c9	-0.08592374
134	0x3e2a8697	0.16652904
135	0xbd6863ce	-0.056735806
136	0x3cc0fe3d	0.02355873
137	0x3cfdaffa	0.030967701
138	0x3c6008a9	0.01367394
139	0x3dcd3451	0.10019744
140	0xbccaae34	-0.02474127
141	0xbd496096	-0.049164377
142	0x3e526b16	0.20548663
143	0xbebcc2c7	-0.36867353
144	0x3df644f1	0.12024868
145	0xbe5ed3da	-0.21760502
146	0x3b9852e5	0.0046485537
147	0x3dc62804	0.09675601
148	0x3d57fb60	0.052729964
149	0xbd80682a	-0.06269868
150	0xbd603973	-0.054742288
151	0xbd8cfb26	-0.0688384
152	0xbe3151de	-0.17316386
153	0xbc089773	-0.00833689
154	0x3e1e2a21	0.15445758
155	0xbd50d77b	-0.05098675
156	0x3d8c2dd8	0.068446815
157	0x3e0e3ec7	0.13891135
158	0x3d756ea8	0.059919983
159	0xbe684afa	-0.22684851
160	0x3cbc7514	0.023005046
161	0xbd6e7cb1	-0.058224384
162	0x3e2ebbdf	0.17063855
163	0x3df8c236	0.12146418
164	0x3e77190b	0.24130647
165	0x3dfec088	0.12439066
166	0x3e4e2d88	0.20134556
167	0x3e038e23	0.1284719
168	0x3e1d0374	0.15333349
169	0x3e3cdaf2	0.18442896
170	0xbc9f70a2	-0.019462887
171	0xbd8ed33b	-0.06973883
172	0x3e215fed	0.15759249
173	0xbe39ecdc	-0.18156761
174	0x3e2481b8	0.16065109
175	0xbd76fbd1	-0.060298745
176	0xbb2df002	-0.002654076
177	0x3d9d6bd9	0.07686586
178	0x3decaf20	0.1155684
179	0x3deb6776	0.11494343
180	0xbdec8d36	-0.11550371
181	0x3e5fdf4f	0.21862529
182	0x3c2f3265	0.010693167
183	0xbce89d1c	-0.028395228
184	0xbe05eb69	-0.13078083
185	0x3dadc490	0.08484757
186	0xbd313e26	-0.04327216
187	0xbea53fc2	-0.32275206
188	0xbd2364e8	-0.039891154
189	0x3e008a68	0.12552798
190	0x3e164d80	0.14678001
191	0x3db092cb	0.086217485
192	0x3c145c97	0.009055278
193	0x3e48b593	0.19600515
194	0x3d00e48b	0.031467956
195	0x3cdc03ee	0.026857343
196	0xbc4b4ce3	-0.012408468
197	0x3c4ea731	0.012613104
198	0xbdf00298	-0.11719245
199	0xbdbd5237	-0.09244197
200	0xbdf8b413	-0.121437214
201	0x3e4e0260	0.20118093
202	0xbd59bba4	-0.053157464
203	0x3df2b021	0.1185
204	0x3e3d20e7	0.18469582
205	0xbe051e6d	-0.12999888
206	0x3c3f324e	0.011669708
207	0x3d2c73be	0.042102568
208	0xbd2a75f4	-0.041616395
209	0x3ddb1039	0.106964536
210	0x3e23e19a	0.16004029
211	0x3dfffad0	0.124990106
212	0xbab84e8d	-0.0014061496
213	0xbdb374e2	-0.08762528
214	0xbd528f42	-0.051406153
215	0xbe356062	-0.17712548
216	0xbd8224a7	-0.06354647
217	0xbc229e8f	-0.009925499
218	0x3e5db80b	0.21652238
219	0x3da36f10	0.07980168
220	0xbe76209b	-0.24035875
221	0xbdf64baa	-0.120261505
222	0xbc8befb3	-0.017082071
223	0xbd6fcd4e	-0.058545403
224	0x3d9de0a9	0.07708866
225	0x3dc076bc	0.09397647
226	0x3e079527	0.13240491
227	0x3d8321c2	0.06402923
228	0xbd2be328	-0.04196468
229	0xbe8b1208	-0.27162194
230	0xbef0e9c0	-0.47053337
231	0xbe1535db	-0.14571325
232	0xbe0d58ca	-0.13803402
233	0x3d5896ad	0.05287807
234	0xbd9b3745	-0.07578901
235	0xbe3dc90e	-0.18533728
236	0xbe33e942	-0.1756945
237	0x3bd9d5f9	0.006647822
238	0x3e7abf0f	0.24486946
239	0x3e650453	0.22364931
240	0xbe45fbb8	-0.19334304
241	0x3cd9ccff	0.026587008
242	0xbe16177c	-0.14657396
243	0x3d207cea	0.039181627
244	0x3cb9e0a5	0.022690127
245	0x3cd5dae2	0.026105348
246	0x3d9586c5	0.07301096
247	0x3e7babff	0.2457733
248	0xbe84c4b9	-0.25931337
249	0xbdc23367	-0.094824605
250	0xbd463049	-0.048385892
251	0x3eae4147	0.34034178
252	0xbd7be4c8	-0.06149748
253	0xbd4df8c5	-0.050286073
254	0xbd5ab9ae	-0.053399734
255	0xbe20f3f3	-0.15718059

denseTS_inner2.bias f4 [64]
0	0x3d46071d	0.048346628
1	0x3e144f02	0.14483264
2	0xba6fb4f5	-0.0009144091
3	0xbae721cd	-0.0017633975
4	0xbcbe041e	-0.023195323
5	0x3d0b7bc0	0.034053564
6	0x3d84364b	0.06455668
7	0x3cebb8fc	0.02877473
8	0xbe069728	-0.13143599
9	0x3d17649d	0.036961187
10	0x3d901f6e	0.07037245
11	0xbd9399c7	-0.07207065
12	0x3dfc73e6	0.123267934
13	0xbcc0ef2b	-0.023551544
14	0x3dc5fd3e	0.09667443
15	0xbdd12c4d	-0.10213528
16	0xbb427e76	-0.0029677427
17	0x3d233d27	0.03985324
18	0x3a7b1dbb	0.00095793203
19	0x3c439df9	0.011939519
20	0xbd55f755	-0.052237827
21	0xbd061669	-0.032736216
22	0x3bd36858	0.0064516477
23	0xbe097b48	-0.13425934
24	0xbd6981ff	-0.05700874
25	0xbd3c09b4	-0.04590769
26	0x3b4ab5be	0.003093108
27	0x3dc3afe3	0.09555032
28	0x3d306116	0.04306134
29	0x3c940084	0.018066652
30	0xbbd2e8b0	-0.00643643
31	0x3d6cb9e3	0.057794463
32	0x3db8276e	0.089918956
33	0xbbcad5fe	-0.0061900606
34	0xbdd51007	-0.104034476
35	0xbd453e54	-0.048155144
36	0x3e173063	0.14764552
37	0xbd84738e	-0.06467353
38	0x3e3522c0	0.17689037
39	0x3da39f9f	0.0798943
40	0xbdba5243	-0.090977214
41	0xbdccbdd8	-0.09997147
42	0x3dd41b5f	0.10356783
43	0xbd16891f	-0.036751863
44	0x3b167158	0.0022955742
45	0xbcfcfea2	-0.030883137
46	0xbcaf8516	-0.021425765
47	0x3d6aa2a8	0.057284027
48	0x3e4e4724	0.20144325
49	0x3d9ea784	0.07746795
50	0x3e46ca7f	0.19413184
51	0x3cd780b1	0.026306482
52	0x3da615ed	0.08109651
53	0x3dfe21d6	0.124087974
54	0x3dd0441c	0.10169241
55	0x3db21e7e	0.08697222
56	0x3e0656d1	0.13119055
57	0xbb732696	-0.0037101856
58	0xbe0b105f	-0.13580464
59	0x3d832f3f	0.06405496
60	0x3e25eb5f	0.16203068
61	0x3c983e06	0.018584263
62	0xbdc40dcd	-0.09572945
63	0xbcb7410c	-0.022369884
