8_follow_actor.pth (torch, 747899 bytes, 13 tensors)

curr_fe_dense1.weight f4 [128, 16]
00000000: 52d6 b93d a42c b63e 0328 063e 15cd 853d
00000010: f75b 65be bed6 c0bc 5987 1e3f deca a0be
00000020: 8b41 0e3e 987b b1bd 6397 a93d cf55 f03d
00000030: 2efa 833e 1b25 b4be 0c63 65be b1d6 883e
00000040: 4352 8c3e 2cba a0bc 6b20 5c3d 80bd 683c
00000050: 4fbb 0fbd aed0 dcbe 3976 2bc0 23ed 9c3d
00000060: 4eb8 ca3d 39c1 a2be b677 20be ac88 e63c
00000070: c8ad 213e 1035 80bd a373 2fbe cf92 b4bc
00000080: 4dc4 5dbe 993b 92bc 7303 413d f49f 753b
00000090: bb5b d3bd fd22 81be 8a8d 95c0 cd6b 71bb
000000a0: 130b 54bc d306 e73d a864 193c 41f4 bcbb
000000b0: e550 323e b63e 4a3e 77a5 003d 2311 953d
000000c0: d4c8 c6be b896 213e 9d9c d73d e5fd 7b3d
000000d0: 148d 883e 9f7a 8e3e f3fc c73b dba0 84bd
000000e0: f474 1e3d ee1f 06be bc76 8dbe e457 4fbe
000000f0: 3567 5b3f 3fc2 a0be 3b75 7fbe 76a5 82be
00000100: 91e1 8a3d 8996 44bc 6425 37bb 7cf3 be3c
00000110: 1971 78be 77bf a8bd 1812 9d40 55af b03d
00000120: e2c1 643d 1e27 4fbd 17ac 0fbd 7578 81bc
00000130: 9927 3ebd f04c 1fbb acc1 bb3c 8ffa 053e
00000140: a66c 943b 430b 9cbd a6bf 273c 6e93 6abc
00000150: a68e da3d d001 9abd 6e5d 1ac0 e0ab 92be
00000160: 12c2 263e 3efa 833e e58e 83bd 48e9 6abc
00000170: b61b 603e 8211 043d fbf5 1d3e 6978 513d
00000180: 217a 753d e69b 9b3d 7888 733b 4b8d 78bc
00000190: 9d89 8cbd e977 8a3e 112c 253f c77f 1cbf
000001a0: 8db0 0abe 2371 8e3e 8291 453d f5f0 1d3d
000001b0: 0727 273e 1729 91bc 8a91 653e 6c56 d8be
000001c0: dbf8 09bf 54be 943c ccfb 9d3d 89d4 e4bb
000001d0: 3e93 4cbe 40cb 523e 94a0 74bf 202c 253e
000001e0: 6432 05bd 8d90 c73e 78c0 38be d193 09bd
000001f0: 44c5 8c3d aa59 773d 7759 643e 4630 a23d
00000200: 95bd e0bd 9821 48bc 6649 94bd b0ea c1bd
00000210: 2ddd 54be 2367 4a3d aca4 703f 6014 7f3b
00000220: 4d4b 653d 4c52 91be 2906 be3d 9099 21be
00000230: e1bf 283f 2169 133e 3912 3dbd 0655 21be
00000240: 6ab2 d5bc 1778 91be 9e4f 4f3e aa79 ed3d
00000250: 3989 20be 3845 eebe 033e 48bd 9ea4 683d
00000260: 463f 493e e726 33be 7b45 553c 6bd5 703d
00000270: d174 c7be 66e9 80be c659 07be 8a8e 81be
00000280: c3d3 b6be a5b3 3abe b6e1 f9bd af55 8c3b
00000290: a762 a83a 257c 033f 48ec 913f 992a 113d
000002a0: 86a4 14be 042d db3e 6719 f0bd 7142 1b3d
000002b0: 167e 413e bce6 64be ead0 da3d dd82 11bd
000002c0: fb53 c9bd 9639 5d3e 708d 44bc 1e4e 00bd
000002d0: c097 e23e 0a03 0f3d f9cc 05bf f162 18be
000002e0: 9d6f ef3e ff00 ea3d 4c25 ffbd 0cdc 433d
000002f0: 018a 08bf 4901 523e 998e b53c 413b e4bd
00000300: 51c8 6cbe 62fd 0e3d b5f6 b83c e90a 3ebd
00000310: 78f5 d8be 3141 e13e a130 b13e 803b 6fbc
00000320: 035e a8be 722b 2ebd e634 b7be d536 3d3e
00000330: 81b3 09bf f1b8 7dbd 27db d93d d397 8fbd
00000340: e7ef 93be 91dc 113e 3790 48bd cdd9 46bd
00000350: 574c 053d 6795 3c3e ff07 e2be 396f cbbe
00000360: 78d9 fbbe 6277 273e ee67 843c e058 0bbd
00000370: 54a3 1f3d 9ae0 553e 5d39 463c 3181 38bd
00000380: 8b09 84be c434 033c 4333 f73c 23c7 0b3d
00000390: 1956 7bbe 9cf0 9fbe e486 a1bd 72f4 21be
000003a0: f99f f73e f9fc 3d3d 9f7e 913e cbc6 6b3d
000003b0: 20cf aabe a7b4 5a3e 7352 793e 220d bc3e
000003c0: 9f5e f33d 13c4 83bc 3421 493d 0621 ec3b
000003d0: ae73 513c 7a21 ccba 024e adc0 70e9 443d
000003e0: 7fb6 a33a a490 373d e179 203d d6b4 01bd
000003f0: d031 66be 900e 24bd b0b1 57bc 0910 fabc
0.090740815 0.35580933 0.13101201 0.06533257 -0.22398363 -0.023539897 0.61925274 -0.31404775
0.1389219 -0.08666152 0.08280828 0.11735117 0.2577681 -0.3518456 -0.22401065 0.26726297
0.2740651 -0.019620024 0.053741854 0.014205337 -0.03509074 -0.4312796 -2.6790907 0.07662418
0.098984346 -0.31788042 -0.15670666 0.028141342 0.15788949 -0.06260121 -0.17133956 -0.02204266
-0.21656914 -0.017850684 0.04712243 0.0037479373 -0.103202306 -0.25222006 -4.6735277 -0.0036837936
-0.012942093 0.112805985 0.009362377 -0.005766422 0.17413671 0.19750485 0.0314078 0.07278659
-0.38825095 0.15780151 0.105279185 0.06152143 0.26670134 0.27827927 0.006103152 -0.06475993
0.038685754 -0.13098118 -0.2762965 -0.20248371 0.85704356 -0.31398198 -0.24947064 -0.25516862
0.06781305 -0.011998781 -0.002794587 0.023309462 -0.24261893 -0.08239644 4.9084587 0.08627192
0.055848964 -0.050574414 -0.035076227 -0.015804509 -0.046424482 -0.0024307333 0.022919498 0.13083862
0.0045295535 -0.076193355 0.010238564 -0.014317377 0.10671739 -0.07519877 -2.4119525 -0.28646755
0.1628497 0.25776857 -0.06423739 -0.014337845 0.21885571 0.03224326 0.15425865 0.051140223
0.059930924 0.07598095 0.00371602 -0.015170406 -0.06862185 0.2704461 0.64520365 -0.6113247
-0.13543911 0.2782069 0.04823447 0.038559873 0.16323482 -0.017719788 0.224188 -0.42253435
-0.5389535 0.018157162 0.07714042 -0.006983344 -0.19978043 0.20585346 -0.9555752 0.16130114
-0.03251876 0.3897747 -0.18042171 -0.033588234 0.06873563 0.060388245 0.22299753 0.07919364
-0.1097366 -0.012215041 -0.07240562 -0.09468591 -0.20787497 0.049414765 0.9400127 0.0038922057
0.055980016 -0.283831 0.09278519 -0.15781236 0.65917784 0.14395572 -0.046159957 -0.1575509
-0.026086051 -0.28411934 0.20245215 0.11595471 -0.15677346 -0.46537185 -0.048887264 0.056797616
0.19653043 -0.17495309 0.013017054 0.05879728 -0.3895631 -0.2517807 -0.1321784 -0.2530406
-0.35708436 -0.18232591 -0.12201254 0.004282675 0.0012846784 0.51361305 1.1400232 0.035441015
-0.14515886 0.42807782 -0.11723595 0.03790516 0.18895754 -0.22353643 0.106843784 -0.03552519
-0.09830471 0.21603999 -0.011996612 -0.0313245 0.442564 0.034915008 -0.5226589 -0.14881493
0.46764842 0.11425971 -0.12458286 0.047817275 -0.5333558 0.20508303 0.022162722 -0.11144114
-0.2312329 0.034909613 0.022578577 -0.046397123 -0.42374778 0.4399505 0.34607413 -0.014601588
-0.32884225 -0.0425219 -0.35782546 0.18477948 -0.53789526 -0.061943952 0.10637503 -0.0701138
-0.28893968 0.14244296 -0.04896566 -0.048547555 0.032543506 0.18416367 -0.44146726 -0.39733294
-0.49189353 0.16354135 0.016162839 -0.034020305 0.03897412 0.2088646 0.012098637 -0.04504508
-0.2578853 0.008008186 0.03017581 0.03412546 -0.24544562 -0.31238258 -0.078870565 -0.15815905
0.48364237 0.04638383 0.28416917 0.05756263 -0.3336115 0.21357976 0.24347858 0.3672877
0.11883282 -0.016084706 0.04910393 0.007206085 0.012783928 -0.0015573942 -5.4157724 0.048074186
0.0012490301 0.044815674 0.039178733 -0.0316666 -0.2247994 -0.04005295 -0.013164923 -0.030525224

curr_fe_dense1.bias f4 [128]
00000000: c15b c3be 51a3 803e 5791 703e fda7 8b3e
00000010: 9d55 193d 592b ccbd 1f71 c43d 313b 083e
00000020: 6193 6d3e c3e5 a0be 296a d03d 408b a0be
00000030: fb20 9fbd 67a2 633d 2b31 99be 37fc 32bc
00000040: 11c1 33be 9e60 613d 1008 64be c530 42be
00000050: e35c 393d 4ec5 aebe c39d 5f3e ee76 da3d
00000060: 8128 c13c 7a7b 0a3d 2c0f 49be 62ec d2bd
00000070: 98aa 2ebe d727 90bd 986e 963d 6dae 87be
00000080: a72a 403e 716c 7c3e 2941 c0be 6803 753e
00000090: ae4b 9fbe 7d84 cbbd 03fb 383e 002a ed3d
000000a0: 1789 91bd 46b1 92be b485 00bd a6d9 de3d
000000b0: 7271 11be a235 023d 7804 6a3e b3a0 593d
000000c0: 648e 92be 8f5f 45be 0dc9 c4bd a030 c13d
000000d0: ab8b 633e 4d37 8b3d df31 c4bd be3f 3ebe
000000e0: 2d2c 3abd c694 66bc bba5 6d3e 61ba 813e
000000f0: cbef 10be 9658 283e 9bb0 b4be 4ccb 95be
00000100: a8d1 68bd fd90 d03c c3c5 ad3d 2d0d a2be
00000110: 13a0 9dbd 60c9 92be 54fb 153e 9f6c 9fbd
00000120: ef01 113c 8068 b1be 926e 02be caf5 22bd
00000130: cafd 54be c06f e6bd 3f77 663d ea48 d53d
00000140: 78ee 1c3c 3f00 813e 2ecc cbbc 5e22 693e
00000150: cb73 c8be ce90 883c 97b1 8bbe bcef 81be
00000160: 4a8f b7be 0017 fc3d 0fd5 15be b35e 4cbe
00000170: 054e 6fbe 4bec 773e 58fe 90be 7470 10bd
00000180: 191d 5e3e 5f0d 62bd 8935 7f3d 0c9a 733d
00000190: 4883 09be d4c3 563e 9a36 0abe 9f2c 9d3d
000001a0: 2ba9 843d 37ee 42be 66ee 443e 62f5 a53b
000001b0: 70c0 843e 97bf ebbe faca 10be 5327 95bd
000001c0: f05b 923d 58ad fbbc 30d1 d13d 1001 bfbd
000001d0: e8e8 cdbc ec67 17be f3af c0bd bf51 523d
000001e0: 7b09 9cbc 336d 7bbe 0227 12be f3b9 babe
000001f0: 4c4c ca3d 230f 17be 75ad 7d3d b92d db38
-0.3815594 0.251246 0.23492943 0.27276602 0.037435163 -0.099692054 0.09591889 0.1330383
0.23200752 -0.31425294 0.101764984 -0.3135624 -0.077699624 0.0555748 -0.29920325 -0.0109243905
-0.17554118 0.055023782 -0.222687 -0.18963917 0.0452546 -0.34134907 0.21837525 0.10667215
0.023578884 0.033809163 -0.19634694 -0.10298993 -0.17057264 -0.07038849 0.07345313 -0.26500264
0.1876627 0.24650742 -0.37549713 0.2392708 -0.31112427 -0.099373795 0.18064503 0.115802765
-0.07106226 -0.28650874 -0.03137751 0.10881357 -0.14203432 0.03178943 0.22853267 0.05313177
-0.2862426 -0.19274734 -0.0960866 0.094331026 0.22221248 0.06797657 -0.09579825 -0.18579003
-0.045452286 -0.014073556 0.23207752 0.25337508 -0.14153974 0.16440043 -0.3529099 -0.29256666
-0.05684057 0.02545976 0.08484986 -0.31650677 -0.07696547 -0.28669262 0.14646655 -0.0778439
0.008850559 -0.3465004 -0.12737492 -0.039785184 -0.20799938 -0.11251783 0.056266066 0.10414298
0.00957834 0.251955 -0.024877634 0.22767016 -0.39150843 0.01667061 -0.27283928 -0.25378215
-0.35851508 0.123090744 -0.14632057 -0.19958 -0.23369606 0.24211232 -0.2831905 -0.035263494
0.21690787 -0.055188533 0.062306914 0.059473082 -0.13428986 0.2097314 -0.13497391 0.076745264
0.06477579 -0.19036184 0.19231567 0.0050646523 0.25928068 -0.4604461 -0.1413993 -0.07282891
0.07146442 -0.030722305 0.102449775 -0.093263745 -0.025135472 -0.14785737 -0.0940856 0.05134749
-0.01904749 -0.24553375 -0.14272693 -0.36469993 0.09877834 -0.14751868 0.061933 0.0001045125

curr_fe_dense2.weight f4 [128, 128]
00000000: 895e 18be 2ffc 5abe ae18 28bd 9079 99bd
00000010: 3f1c b13d 98ec 763e 2ebf c0be 69ab 6d3e
00000020: 6cce 8dbe c960 2c3e 811e 0bbe 1ffb 1a3e
00000030: 2317 02be 99c2 efbd 985d d73e 3ba2 b83d
00000040: d80b 933e a1ac 23ba 4900 bcbd 9f15 f6bb
00000050: 442d f33d 69d4 d6be 8780 243e b617 483e
00000060: 0aea 1f3d cbfd e03c 5eac ad3e 3373 0fbd
00000070: db07 2b3e 95ae c0bd b27c a03d 1a40 71be
00000080: 020f 42be 6146 41be 6bdc 4e3e ac8e 813d
00000090: 596b ba3e ef42 5e3d bc83 aebe a4ec c8bd
000000a0: 8728 2ebe 80d1 993e c2ca 4fbe 6a68 473d
000000b0: 835c b0bd ad48 ffbd bc3e 46be 0d01 c0bd
000000c0: f29a 163e f302 f6bd 4dfa aebe 34a3 b9bd
000000d0: 5b6f a23d 8822 debe 725b 81be e068 1d3e
000000e0: d94a a73c 3731 8abe 5089 37be baf4 8ebe
000000f0: 0214 fcbc 1bb7 3cbe 4faa 543e e191 5c3c
00000100: 60d4 783d 40e2 f13d 2231 fe3d 9a2c 583e
00000110: 5475 f8bc e608 81be 58a7 00be e478 09bd
00000120: 5590 21bd 3f8c bf3d 2003 de3d 547f d13d
00000130: aeef a23d c1ca 673e ece3 063e 60ab be3d
00000140: 6be7 c3bd 3a84 423c 7686 e5bd b965 463c
00000150: 626b 933d 56d4 283e ec9b 4f3d d58c 343e
00000160: 19f2 4dbd 0e27 873b 692a 433e 34a3 7f3d
00000170: 8f20 b7bd 1485 0abd 32f2 1b3e 01f7 9fbe
00000180: 1da7 81bd 6ae6 dc3c a924 81be 1243 bfbd
00000190: 6897 103e eef9 1a3e fefb 7c3c 7792 d03d
000001a0: d151 86be 305b e23d 5261 3ebe aa1f 503e
000001b0: 78af 30be 271d d3bd 223f 043e 6124 d43c
000001c0: 8f17 74be fc7f db3b bc50 db3d 206a 37be
000001d0: 44cf cb3d 9fd2 42be 02e7 14be 5ebe be3c
000001e0: ef1d 42be 51fc 733d a85b 583e 53b6 233c
000001f0: 2dfd 543e c67d 643d 9aea 20be bfb9 02bc
00000200: f198 8f3c ff39 f7bd 740f 873e 2844 81be
00000210: 044f 32be 38d9 1ebe 6295 163e 2c9d 543d
00000220: c87a cebd 1af7 7cbe 5a56 adbe d9da debd
00000230: 9247 d3be 78bc eb3c f1f2 1f3e b96d 5fbd
00000240: 1cbe 863d d34d d13d 76b1 93be d0a2 a23d
00000250: 2f7d 3bbd 3658 76be 0633 a33d 2829 be3d
00000260: 71a9 cc3d f9f6 aebd c359 64be 8c0b a03d
00000270: 5ee3 babd 5097 573c bf7e 38bd 4303 0bbd
00000280: 6a4f ad3e 0e37 4d3e caf3 b1bd 7a56 933d
00000290: 5f30 ba3c 3d10 28bc 92f3 703e ff0f 2fbe
000002a0: 3184 5ebe 9ffb c6bd f3d6 bebd d0cb 8c3d
000002b0: 3261 cd3d fa90 903d 1d5d 9d3d c896 d3bd
000002c0: cd6d e3be c3a6 26be edaf ef3d 83df a3bd
000002d0: 993d 90be 777a 0cbd 1889 193e eafd dfbe
000002e0: 717c 563e dffd 8fbd e4fe 3ebd 6cfd 8f3d
000002f0: 8d8c d83b 5452 bdbc 3ec6 dcbe e6d9 99bd
00000300: 76bc 973c a3af e8bd 344c 4dbe 0be8 b0bd
00000310: 9938 eabd 04db 3ebd c008 b8be f588 aebd
00000320: 9e30 1cbd 38d4 de3d 0340 80bd f7ad 5fbe
00000330: 9e53 8a3e 659a a33e 6eb6 903d 1933 8f3d
00000340: 57f8 93bd c1c8 2d3d edb8 c1bd c589 74be
00000350: 7449 e9ba 83c4 833e 1354 efbd 3e8f a73d
00000360: a720 a33d 077e c53d 9c11 4cbd 2d7d 453e
00000370: e525 a03d 6cdb 14be 4c38 2dbe 6794 b73d
00000380: a657 893d a4f1 a8ba 37fc 90be 32ce 0a3d
00000390: 0f66 41bd 7e1e 103d 93c0 eb3d 1af8 e1bb
000003a0: 05fd 083e e31e 18be fa83 f93d bf55 193e
000003b0: dc90 803d 2ece 0dbe 28f8 d8bd b37d 4a3e
000003c0: 5604 86be 9cb2 08be 6a96 4bbe 025b 653e
000003d0: 56ec 0dbe ce17 6dbd 0967 d6bd cbdb 5dbd
000003e0: 976e ffbd fd46 d33c 2f17 d8be afc9 a4be
000003f0: 2c4e a1be d5af 08bc ad14 93be 3790 6a3d
-0.14879812 -0.21385263 -0.04103916 -0.07493889 0.08647966 0.24113691 -0.3764586 0.23209919
-0.2769655 0.16833796 -0.13585855 0.15134858 -0.12704138 -0.117070384 0.42063594 0.09015318
0.28719974 -0.000624368 -0.09179742 -0.0075099017 0.11873868 -0.4195893 0.16064654 0.19540295
0.039041556 0.027464768 0.33920568 -0.035021972 0.16702215 -0.09408299 0.07836284 -0.23559609
-0.18951038 -0.18874504 0.2020127 0.063260406 0.36410025 0.05426305 -0.3408488 -0.098107606
-0.17007647 0.30042648 -0.2029219 0.04868356 -0.08611395 -0.12465034 -0.19359869 -0.093752004
0.14707544 -0.12012281 -0.3417534 -0.09064332 0.079313956 -0.4338572 -0.2526508 0.15372038
0.020421432 -0.26990673 -0.17923474 -0.27921087 -0.03077126 -0.18429224 0.20768093 0.013462515
0.06074941 0.11810732 0.12411715 0.21110764 -0.030329384 -0.252021 -0.12563837 -0.033562556
-0.039444286 0.09352922 0.1084044 0.10229364 0.079558715 0.22635938 0.13172883 0.09310031
-0.09565624 0.011872346 -0.11207287 0.0121092135 0.07198216 0.1648725 0.050685808 0.17631848
-0.05027971 0.0041245287 0.19059147 0.062411502 -0.08941757 -0.03381832 0.15229109 -0.31243137
-0.063307025 0.026965339 -0.25223282 -0.093389645 0.14120257 0.15134403 0.015440939 0.10184186
-0.26234296 0.11052549 -0.18591812 0.20324579 -0.17254436 -0.10308295 0.12914708 0.025896253
-0.23837112 0.0066986065 0.10708758 -0.17911577 0.09951642 -0.19025658 -0.14541247 0.023284134
-0.18956731 0.0595668 0.21128714 0.0099922 0.20799704 0.05578401 -0.15714493 -0.007978856
0.017528983 -0.12071609 0.26378977 -0.25247312 -0.17412955 -0.1551255 0.14705423 0.051907703
-0.100820124 -0.24703637 -0.33854944 -0.10881586 -0.4126554 0.028776392 0.15620019 -0.054548
0.06579229 0.10219922 -0.2884633 0.0794121 -0.04577368 -0.24057087 0.07968716 0.09285194
0.09993256 -0.085432 -0.22299866 0.078147024 -0.09125398 0.013158634 -0.04504275 -0.033938657
0.3384965 0.20040533 -0.08689077 0.071942285 0.022728143 -0.010257778 0.23530415 -0.17095946
-0.21730115 -0.09715962 -0.09318342 0.06874812 0.10028304 0.07058902 0.076837756 -0.103314936
-0.4441971 -0.16274552 0.11703477 -0.08001616 -0.28171995 -0.03429648 0.14993703 -0.4374841
0.20945908 -0.07030844 -0.0466298 0.07030758 0.006608552 -0.023110546 -0.43119997 -0.07512264
0.018522482 -0.11361625 -0.200486 -0.08638009 -0.114365764 -0.04659559 -0.35944176 -0.08522216
-0.038132302 0.10880321 -0.06262209 -0.21843706 0.2701692 0.3195373 0.07066046 0.06992168
-0.072251014 0.042427782 -0.094591 -0.2388068 -0.001779838 0.25735864 -0.11685958 0.08181618
0.07965212 0.096431784 -0.04982148 0.19286032 0.07819728 -0.14536828 -0.16916007 0.089638524
0.06706171 -0.0012889397 -0.28317425 0.03388805 -0.04721647 0.03518533 0.1151134 -0.006896031
0.1337777 -0.14855532 0.12183376 0.14974116 0.0627763 -0.13848183 -0.10594207 0.19774513
-0.26175183 -0.13349384 -0.19881597 0.22397998 -0.13859686 -0.05788403 -0.10468871 -0.05416469
-0.12472265 0.025790686 -0.42205188 -0.32185122 -0.31504953 -0.008342703 -0.28726712 0.05726644

curr_fe_dense2.bias f4 [128]
00000000: 0541 73be 5282 af3c 0838 5cbe e1a9 123e
00000010: 8864 03bd 1fee 593d f562 80be be2f 113e
00000020: 65e3 6dbd bdaf 04be 2d76 003e 3098 22bd
00000030: d364 bf3d 006c 3dbb 9488 9e3d 46a8 5a3d
00000040: 83e8 3f3d a193 e8bc edae c83d 0a50 98bd
00000050: fa06 c0bd 83c2 11be 3b37 2abe f2ed 54be
00000060: 0fdd cebc a315 e5bd 8a3e 103e b904 e7bd
00000070: 3721 c13c 44b8 d0bb 429c c2bd a9b3 bc3d
00000080: a3af 17be 649e 3f3e 5cbc afb7 5524 81bd
00000090: 0f7e 763d ec46 da3c 8ffa 133e bb9a 9a3d
000000a0: 2275 89bd 676c ce3c bf7a e43c 6fd3 e8bd
000000b0: 85b9 52bd 8f3a 4abe adee 293d 8a95 233d
000000c0: d660 d9bd bc31 b7bc b6c3 68be 7147 963d
000000d0: d7bc c53d 2d6a c6bd 58e1 12bd 396b 483d
000000e0: 2c26 f33c 9997 8bbc 2142 bcbd 7f77 963c
000000f0: df46 a5bc 9362 17be 7336 0bbd 83fd 61be
00000100: 9d81 6abd 871f 02be d321 923d 9db8 323e
00000110: b13a 80bd 1c42 37bd 9254 b7bc 1dac 33bd
00000120: d5bc 86bd b3d5 153e 927c 17be d27e 2f3c
00000130: 42ff f8bd 80e8 afbd 9e08 2fbe 794c dabd
00000140: ec2c 9e3d 60b3 b73d 8808 ec3b c306 a5bd
00000150: fed3 033a 0681 3d3d eb62 25be c5b1 d23d
00000160: cefe b3bc 4260 b9bd 2c35 6bbd 3a22 1a3d
00000170: 5aaa 2fbd dea1 aebd 95c6 693d 6f61 46bc
00000180: 3d26 3abc 2bfa 7b3b 595e a5bd 8c4c af3b
00000190: 02e9 3ebe 40c7 3cbe 3bf0 e0bd 778e febb
000001a0: 98a2 dbbd 57ed 423b bc49 a9bd 61d1 1dbe
000001b0: f1a7 a33c de5c b43c ccf7 063e 7ff2 58bd
000001c0: aeb4 e7bd 2bde 913c f9c2 0c3d 97fc fc3d
000001d0: ad2a 14be d497 80bc 57e1 87bd 465d c83d
000001e0: 45d8 dcbc e7d7 44bd c267 18bd 72a1 843d
000001f0: fa04 88bd 97e0 a53c ba4e 82bc 57b8 92bd
-0.23755272 0.021424446 -0.21505749 0.14322616 -0.032078296 0.053205606 -0.25075498 0.14178368
-0.05807819 -0.12957664 0.1254508 -0.03969592 0.093454026 -0.0028903484 0.07740894 0.053383134
0.0468526 -0.028390707 0.097989894 -0.07437141 -0.09376331 -0.14234357 -0.16622631 -0.20793894
-0.025251893 -0.111857675 0.14086357 -0.11280198 0.023575408 -0.0063696224 -0.0950246 0.09213955
-0.14813094 0.18712765 -2.0949337e-05 -0.06305758 0.060178813 0.026645146 0.1445105 0.07549044
-0.067117944 0.025198175 0.027890561 -0.11368453 -0.051446456 -0.19748901 0.041487385 0.039937533
-0.10614173 -0.022362582 -0.22730908 0.07337845 0.09655159 -0.0968822 -0.035859436 0.04893038
0.029681288 -0.01704006 -0.091923006 0.018367527 -0.020175396 -0.14783697 -0.033987474 -0.22069363
-0.057252515 -0.12707339 0.07135358 0.17453237 -0.062611945 -0.04474078 -0.022379193 -0.043865312
-0.065789856 0.14632301 -0.14793614 0.010711389 -0.121580616 -0.08589268 -0.17093131 -0.10659117
0.07723412 0.0896976 0.0072031654 -0.0805793 0.0005028843 0.046265624 -0.16151015 0.10287813
-0.021972086 -0.09051563 -0.057423756 0.037630297 -0.04288707 -0.085269675 0.05707415 -0.012108191
-0.011361656 0.0038448672 -0.08074636 0.0053497013 -0.18643573 -0.18435383 -0.1098332 -0.007768448
-0.10724372 0.0029743516 -0.08266017 -0.15411903 0.019977542 0.022016939 0.13180465 -0.052965637
-0.11313759 0.017806133 0.034365628 0.12352865 -0.14469405 -0.015697397 -0.06634777 0.097834155
-0.026958594 -0.048057463 -0.037208326 0.06476106 -0.06641574 0.020248694 -0.01590668 -0.07164066

mem_dense.weight f4 [128, 16]
00000000: 8aaf 523f 668d 9e3c fc92 d43d 8eef 063d
00000010: 4b6a 84be 714f d23e 2ab6 37bf df56 29be
00000020: 0f2a 7c3d 384d 9f3e be23 92be e1dd 913c
00000030: cab5 533e d070 6dbd 32ae d0be ee4e 023e
00000040: 9197 92be e732 0abe daad 93bd 7aff 213c
00000050: b5c0 9e3e f577 c53e 51bd 89bf 87c2 ad3e
00000060: 6e19 9ebe 40a7 89be 9979 083f 129f bebe
00000070: d9ab eebe c24b 283e 006d b7be e148 913e
00000080: b430 a0be 4426 bb3c 6f10 c53d d164 213d
00000090: 981d c2be 4f3e 113f 1688 243f b9eb 6dbe
000000a0: 417f c2bd 5dc1 8d3e 1e31 8bbe 1ad7 fa3d
000000b0: 5cb0 4cbe f419 893e 12d2 cc3d 5874 31be
000000c0: 49c1 06be 2a5b 6e3e 333e 79bd f997 91bc
000000d0: b855 65bd 8a5b 4e3d 5e7f 36bf 09a7 c7bc
000000e0: 947c ad3b f675 1e3f e044 2a3f b65f 6dbd
000000f0: 3a7c 28bf 0c2c 75be fe90 bfbe 4188 36be
00000100: 0e3c 63bc 9a8a 933d 1bf0 833c f8b1 be3c
00000110: b860 0fbf 54d1 b2be 1945 9b3f 91cc 073e
00000120: d89e ef3d 08e9 e13d 624f 4f3f 529a d93c
00000130: 2563 dcbe b31a 8f3e 7432 e33d c7ea a3bb
00000140: 92f0 be3e dfcd aa3e ad2a c43d 5ea8 2ebc
00000150: a77b a9bd 531b f73d e0c9 903f 0b80 debe
00000160: 245e a43e 629d 58be f0fa 523d f78b 5ebe
00000170: e52c f43e f264 113f 5e70 0cbe b255 983e
00000180: db73 da3d d54f 5cbc 0b10 9f3d bc60 7b3c
00000190: b803 1dbe ae55 58be 684e c9be b1de 8c3e
000001a0: f1da 99be 8ccd 713e aa7a b23a 2a87 203f
000001b0: 6825 503d 930a 5d3e 0557 5e3e c1ab 203e
000001c0: 4084 d13c de33 b3be ccdb a6bd 834b b73c
000001d0: 2176 afbe 8314 4e3e 1fb4 d2bd fa6b e33e
000001e0: 61d4 573f dbb0 a8bd 4ee5 123f b379 c5bd
000001f0: c672 a23d f258 523e 6278 9c3d 772f 78be
00000200: 8658 cdbe 57d1 063d b15d 1cbc a904 203d
00000210: b12a e6be 7f7b d3be 2f9e 5cbe 6ac6 4f3d
00000220: 043e 75be 0bd9 883d 38a0 3a3f 44a2 f7bd
00000230: 52fe afbe 757e ebbd 64fa ed3e fc58 5c3e
00000240: 0bf1 88be 6e9d ab3e f48d 8abd 017b f4bc
00000250: 29d0 fdbd a9e6 9f3e 5397 263f 6c10 75bd
00000260: b920 bc3d ae94 2b3d 34bf 8f3e 5138 2abe
00000270: e133 e53d 1fe6 d13d 9cbf f13e 8bce 4ebe
00000280: 6320 e23d a908 033e b8a8 003d 3278 023d
00000290: e50a 04bf a3c9 00bf dca0 0bbd 6456 12bf
000002a0: e376 943d 71bf 8ebe 4821 87be ad30 b63e
000002b0: c6c3 28bf 765e 1f3e 8372 843e 8400 4d3f
000002c0: 7691 a93e 1d40 32be 0d59 fabd 63c0 debb
000002d0: 3ee4 993e 18f5 d4bd 1db5 b7bf 203f 7ebe
000002e0: 5c5f a7be b548 c23e 7b8a 603e 1c44 a7bd
000002f0: c465 773d c75d 883e fba9 36be 3d20 023d
00000300: 7c45 583d c8d4 713e 9919 fe3c 5341 96bc
00000310: 702c 3d3e 457e 423e a745 cabf c937 dbbd
00000320: 50b2 843e 2739 093d 2405 ac3e 0b06 083e
00000330: e5db e3be 681c 58bd 557b 04bd ba61 9c3e
00000340: bac5 d1bc 22db bcbc bd82 6b3c 7d76 8b3b
00000350: e374 5bbd 6152 5b3e 969b ef3f 48e3 de3d
00000360: 2213 ee3e f06e 173b 8b1d 19be 24a2 883d
00000370: 0375 2bbd 3bc0 fc3d 1e7b 7b3e 6365 723d
00000380: cb6a cdbe 7303 003d 31d9 92bc 89c4 2ebd
00000390: 5205 8c3e 5984 1fbe 59c8 443f cbee d13e
000003a0: 9ff4 053f 849c b43d 65aa f23e f976 c23c
000003b0: 28c4 2e3d 37aa 0bbf 76d6 afbe 8893 483e
000003c0: 699a ce3e 61de 10bd 772a 303d 78c1 d93b
000003d0: 88ad 143e 9a2a 54bd 2d06 dbbe 83c8 953e
000003e0: 5dfa 91bd e65a 103f 74c9 ebbe 078f d1bd
000003f0: d489 f53e 5fdb 1e3c 51e6 d5be 06f0 abbe
0.822991 0.019354533 0.103795975 0.0329433 -0.25862345 0.41076234 -0.71762335 -0.16537045
0.061563548 0.311136 -0.28542894 0.017805995 0.20674816 -0.057968915 -0.407579 0.12725422
-0.2863126 -0.1349598 -0.07210894 0.0098875705 0.310064 0.38568082 -1.07609 0.33937475
-0.30878776 -0.26885414 0.53310543 -0.37230736 -0.46615484 0.1643515 -0.35825348 0.28375915
-0.31287158 0.022845395 0.09622275 0.039402787 -0.37913203 0.567357 0.6427015 -0.23234452
-0.09496928 0.27686587 -0.2718591 0.122480586 -0.19989151 0.26777613 0.10001005 -0.17329538
-0.1315967 0.23276964 -0.060850333 -0.017772662 -0.05598995 0.050380267 -0.71288097 -0.02437164
0.005294392 0.61898744 0.66511345 -0.057952605 -0.65814555 -0.23942584 -0.37415308 -0.17825414
-0.013869299 0.072041705 0.016105702 0.023278221 -0.56006956 -0.3492533 1.2130462 0.1326163
0.11700219 0.11030775 0.80980504 0.026562843 -0.4304439 0.27950057 0.110936075 -0.005002353
0.37292916 0.33360192 0.09578452 -0.010660259 -0.08275538 0.120657586 1.1311607 -0.43457064
0.32103074 -0.21153787 0.051508844 -0.2173308 0.47690502 0.56794655 -0.1371474 0.2975288
0.10666629 -0.013446768 0.07766732 0.0153428875 -0.1533345 -0.21126434 -0.39317632 0.2751365
-0.30049852 0.23613566 0.0013616879 0.62706244 0.050816923 0.21586065 0.21712883 0.15690519
0.025575757 -0.3500051 -0.08147392 0.022374874 -0.34269813 0.20125012 -0.102882616 0.44418317
0.8430844 -0.082368575 0.5738114 -0.09642353 0.079320475 0.20541742 0.07640149 -0.24236856
-0.401066 0.032914486 -0.009543822 0.039066944 -0.44954446 -0.41305158 -0.21544717 0.05072633
-0.23949438 0.06682023 0.72900724 -0.120914966 -0.34373719 -0.11498729 0.46480095 0.2151832
-0.267464 0.33518547 -0.06765357 -0.02984381 -0.12393219 0.31230667 0.6507465 -0.059830114
0.09185929 0.04188984 0.28075564 -0.16623046 0.11191536 0.1024897 0.472165 -0.20195977
0.110413335 0.12796272 0.031410903 0.03185291 -0.51579124 -0.50307673 -0.034088954 -0.5716307
0.07249238 -0.27880433 -0.2639258 0.35584012 -0.65923727 0.15563378 0.25868616 0.8007891
0.3311879 -0.1740727 -0.12224016 -0.0067978366 0.30056947 -0.103983104 -1.4352146 -0.24828768
-0.3268994 0.37946096 0.21927826 -0.08167288 0.060399786 0.26634046 -0.1783828 0.031769026
0.05280064 0.23616326 0.031018065 -0.018341696 0.18473983 0.1899348 -1.5802506 -0.107039995
0.25917292 0.03350177 0.33597672 0.13283555 -0.44503704 -0.052761465 -0.03234418 0.3054331
-0.025606979 -0.02305371 0.014374432 0.0042560683 -0.05357827 0.21418144 1.8719356 0.10883194
0.46498972 0.0023106895 -0.14952676 0.06671551 -0.041859638 0.123413526 0.24558684 0.05917872
-0.4012054 0.03125329 -0.01792583 -0.0426679 0.2734781 -0.1557783 0.76868206 0.41002497
0.5232639 0.088189155 0.47395626 0.023738371 0.042667538 -0.545566 -0.34343308 0.19587529
0.4035218 -0.035368327 0.043009248 0.0066453777 0.14519322 -0.05179844 -0.4277815 0.2925454
-0.07127831 0.563887 -0.46052134 -0.102323584 0.47956717 0.009695857 -0.4177728 -0.3358156

mem_dense.bias f4 [128]
00000000: 16a2 87be 3a45 3a3e 8653 943e 0910 edbd
00000010: 1259 d0bd cb9f 99bd 4ecd 4ebe 342d 803c
00000020: 9a00 aebc 1b31 07be 7bfe 323e c098 d1bd
00000030: baa2 623d 902d ad3d 7ea3 703e 900e 3dbe
00000040: a030 9ebe 9d84 20bd d53e bdbd f94b 6bbd
00000050: 39d2 69be c9ad 063e 95a9 58be 89fb 71bd
00000060: a807 843e dc34 653e 101c 103e e246 99bd
00000070: 8fe0 2e3e 777b 163e 5216 163e 0db5 c83e
00000080: a823 b0bd b860 7f3d f9a2 293d 0379 74bd
00000090: 7a66 cd3e fb0c 803d 7123 abbe 6207 733c
000000a0: 0389 50be 6470 8e3e 8ada 9d3e d084 1cbd
000000b0: 4853 7a3e d112 0e3d addb 5fbe 142d 84bd
000000c0: 1ac6 02be 691f b23e 453b 1fbe b092 00be
000000d0: 1d26 793e 089b 0d3e 966f 6ebe 898a d13c
000000e0: c5a2 2b3d b880 51be aa51 a03d 429c 8a3d
000000f0: c722 823d 6761 0f3e 5688 c33d 5611 e1bd
00000100: 311e b33b edb5 89be acf2 333d 8546 273d
00000110: 3afd 923e 2af0 a33d a7b8 cebe d8ef 033e
00000120: 713f c73e 56a7 68be 94e0 54be e223 6bbe
00000130: 65c5 2cbe f646 9a3e a2c3 b13e fb24 8cbd
00000140: 7ff9 abbd 5d76 523e 9919 f93e 1334 2f3e
00000150: 2a2f 15bb 422e 2b3e a37b 723e ae4c 14be
00000160: 0cf9 e4bc a5cc 9c3d da25 d3bd 2d7d 543e
00000170: 29d9 b8bd d5ad 44be 3676 143e 9810 fc3d
00000180: 45b0 71bd 421f b33d f569 fdbe 3e8b 133d
00000190: a9f4 023e 4836 4c3e 7626 0d3e 7280 303e
000001a0: 0e92 1d3e d164 bfbd 0ba9 323e 429c ff3d
000001b0: 5cb6 f8bd 2a44 eb3d d6b9 c3bc cae5 033b
000001c0: 89e4 003e 64c4 463c 0ac0 053e 82f5 8cbe
000001d0: b701 81be 54cd 80be 7b04 d8bc 0ec3 89bc
000001e0: dbb1 3a3d 50d8 24be 6b05 a1bd d701 9cbc
000001f0: 9bcd c1be 7924 703e 3f75 913d 2805 043e
-0.2649085 0.1819047 0.28969973 -0.11575324 -0.10173239 -0.07501181 -0.20195505 0.015646555
-0.021240521 -0.13202326 0.17479889 -0.10234213 0.05533097 0.08455956 0.23499867 -0.18462586
-0.30896473 -0.03918897 -0.092405 -0.0574455 -0.228341 0.13152231 -0.2115844 -0.059077773
0.2578709 0.22383446 0.14073205 -0.07484223 0.1707785 0.14695536 0.14656952 0.3920063
-0.08600551 0.062348098 0.04141519 -0.05968572 0.40117246 0.06252476 -0.33425477 0.014833303
-0.20364766 0.27820122 0.30830795 -0.038212597 0.24445832 0.034685913 -0.21861143 -0.064539105
-0.12770882 0.3478959 -0.15549953 -0.12555957 0.24330945 0.13828671 -0.23284754 0.025578754
0.041903276 -0.20459259 0.07828076 0.06768085 0.063542895 0.14002 0.095474884 -0.10989635
0.0054662456 -0.2689661 0.0439326 0.040838737 0.28708822 0.08004792 -0.40375254 0.12884462
0.3891559 -0.22720084 -0.20788795 -0.22962907 -0.16872175 0.30132264 0.34719568 -0.06842991
-0.08397197 0.20552965 0.48652342 0.17109708 -0.0022763708 0.16716865 0.23679976 -0.14482376
-0.027950786 0.0765622 -0.10309954 0.20750876 -0.09025795 -0.19206937 0.14498219 0.123078525
-0.059005994 0.08746196 -0.494949 0.036021464 0.12788643 0.19942582 0.13784203 0.17236498
0.15387747 -0.09345401 0.17447297 0.12480976 -0.12144157 0.11487611 -0.023892324 0.0020125979
0.12587179 0.012131784 0.13061538 -0.27531058 -0.2519662 -0.25156653 -0.026369324 -0.016816642
0.045579772 -0.16098142 -0.078623615 -0.019043846 -0.37852177 0.23451413 0.07102441 0.12892592

mem_LSTM.weight_ih_l0 f4 [512, 128]
00000000: e3be 183f 9cfa 2d3d 6114 163f 2587 03bf
00000010: 09cb 06bf 823f fb3d 0fd5 843e 4b17 29be
00000020: 412f 9abe 65c4 f3bd 8479 853e 5663 ce3d
00000030: cfdd f73d b823 783e 4b79 16bd d2ee 423f
00000040: c1bc a3bd 4a2d 6dbd 32c5 4ebe aba0 56bd
00000050: d2be 513f 8fc4 073e 9003 723d 8b85 353e
00000060: 40d9 963e 0e9f 613e ad9c cc3d c2ca 95bd
00000070: 1534 ed3e df90 6b3f 9dfa 3abe 1aa3 323f
00000080: e7eb 0ebd 5c78 9bbd 5f32 5a3f 9a34 e2bd
00000090: 9634 513e 3d41 153f 1773 dbbd 5820 b3bc
000000a0: 74d6 153e ea5c f6bd 8d64 31bb 1f76 bdbd
000000b0: a788 8f3e 67c0 573f 93eb d5be a009 473f
000000c0: 63ec 1d3e a472 013f 6b5a e9bd b799 e73e
000000d0: 2583 82bc 09b6 6b3f 611d 0f3f 22ab f43e
000000e0: d9c0 f93d 2b3e 9c3e 445d 3c3f 659d 183f
000000f0: 36bb 2fbe 4446 293f a4b8 863d d1b5 ad3e
00000100: 9561 123f f8f6 d33e f2a6 493e 26ef 073f
00000110: a884 773e 7a21 0c3f 3c96 623d cd32 f03d
00000120: 3c5c a93e 71c2 e7bd 461d 8f3e af76 353e
00000130: 4462 773e 270f 8f3d 8243 be3d ce5e 813f
00000140: 2b67 0e3f ca32 5d3e 1403 053f b0e5 3d3f
00000150: 6c39 6e3f 41ee 963d 6477 9fbe 204a 3e3e
00000160: 81a2 df3e 2be4 2a3d 42dd 053f e20e b33b
00000170: 562c d1bd 4617 a33e 2744 7a3e 37f9 493e
00000180: 054e a43e aea3 9d3e 7a7f 743e 7ed1 9f3e
00000190: 87d1 823e e358 113b bbea 363f 6a67 223f
000001a0: 4d6b 983e a941 ec3e 9943 9d3e 778a dc3e
000001b0: bef9 233e 443e eb3c 0b51 363e 32bc d53d
000001c0: 7eae 3dbe 4d9a d33d d368 123e 813c 3f3e
000001d0: 0a1e 2b3e 340d 1fbe c03a ad3e ea99 923e
000001e0: 1429 eebc f2fa 92bc 688a 923e 6c73 00be
000001f0: a33e 9a3d 4789 e5bd 633f 803e 0bc8 73be
00000200: f855 203e 75f9 d2be 5c0c b03e 4f06 8abe
00000210: 2bf6 62be ed15 c83e 1be1 c93d df84 423e
00000220: c3a7 b53d 24a1 e8bd 4f62 f53d a96f f2be
00000230: eec9 3dbe e7c1 f83e 47bb dabd eec3 a1bd
00000240: 2e0b 003f b194 0bbd a74a 1b3e 18e6 9e3d
00000250: bd37 263f 1120 97bc f098 afbd c253 a4be
00000260: 9891 853e 09fa 183e 394d e23d 31bf 803e
00000270: 961f b63e af7b 363d 5ef1 873e ea76 43be
00000280: 4c29 f73d 0c76 abbd 59a7 c63e 2af5 563e
00000290: 4048 9b3e c631 bebc e488 92bd 1729 69bc
000002a0: 0b9f 673e fba6 d83e 364a 1bbd f075 f23c
000002b0: 485e a63e 07e1 d63d 1d3d dfbd 2574 febd
000002c0: 784a 0d3e f37b d83d fca6 2cbe bdfb 2b3e
000002d0: 7465 d33e dc55 f03d b676 9b3d c694 55be
000002e0: 85dc 403e a8ec 0f3e 4835 913e 278f 483e
000002f0: adaf 98be ac69 353d 3c5d e5bd 7dad 14bd
00000300: 052c 9f3c d129 d8bc 4686 25bb 1270 13be
00000310: d093 cd3c 20ab 223e 2e5f e43d b135 493f
00000320: 0351 e23b 6754 1c3d 68a4 0e3e 57a3 f8bd
00000330: 277f e5bd 410c 88bd 007d 3bbd 3a2e e8bc
00000340: e938 eb3e 62d0 f0bc e872 6c3e 223a cd3e
00000350: 2647 143e 256a 2c3f 6e43 03bf bd63 0abe
00000360: 20ed 9d3e fae1 973d 5114 4f3d 362a 9bbd
00000370: bc4a 773e fa8b 633e a221 92bd 2efe 543e
00000380: 0efd 843e 0460 80bc 6232 0cbe d3ac 0c3d
00000390: 4ab8 5e3d 2a42 8f3e 5934 27be 72ce 593e
000003a0: feac 0f3f c831 433e 7bc7 80be 15c2 8c3d
000003b0: 0b81 d23e a349 30be 7729 b13b 4249 c7bd
000003c0: c7a2 c73d b522 ef3e bbdb d03d 9a22 30be
000003d0: f703 afbc 64a6 913e f512 a63e a111 3bbe
000003e0: 7f6b 8a3d f37e 493e 7c6d 51bd a9ba 10bb
000003f0: 4830 02be fba5 c73d df10 fa3e 81d6 1e3e
0.5966627 0.042475328 0.58624846 -0.5137809 -0.5265356 0.122679725 0.259438 -0.16512792
-0.30114177 -0.11902694 0.26069272 0.100775406 0.121028535 0.24232376 -0.036736768 0.7614566
-0.07994986 -0.05790452 -0.20192412 -0.05239932 0.81931794 0.13258575 0.05908543 0.17726724
0.29462624 0.22033331 0.09990821 -0.073140636 0.46328798 0.9201793 -0.18259664 0.69780123
-0.034892943 -0.07591316 0.8523311 -0.11045189 0.20430216 0.5830267 -0.10715311 -0.021866009
0.14632589 -0.12029441 -0.002706799 -0.092510454 0.28033945 0.8427796 -0.4178129 0.7774906
0.15422206 0.5056555 -0.11394199 0.45234463 -0.015931675 0.9207464 0.55904204 0.47786814
0.12194986 0.3051618 0.7357981 0.59615165 -0.17161259 0.6612284 0.06578186 0.33927777
0.5718015 0.4139936 0.19692591 0.53099287 0.24171698 0.5473858 0.055319056 0.117284395
0.33078182 -0.11316384 0.2795202 0.17721055 0.24158579 0.06985312 0.0929022 1.0107057
0.5562617 0.21601406 0.5195782 0.741786 0.9305637 0.07369662 -0.31145775 0.18582964
0.43678668 0.041721504 0.5229074 0.0054644207 -0.102135345 0.31853694 0.2444006 0.19723974
0.32090774 0.3078894 0.23876753 0.31214517 0.25550482 0.0022178225 0.7145192 0.6343905
0.29769364 0.46143845 0.30715635 0.4307439 0.16013238 0.028716214 0.17804353 0.10436286
-0.18523595 0.10332165 0.142978 0.18675424 0.16710678 -0.1553238 0.33833885 0.28633052
-0.029072322 -0.017941926 0.2862122 -0.1254403 0.07531478 -0.11207824 0.2504836 -0.23806779
0.15657794 -0.41205946 0.3438443 -0.26957938 -0.22164218 0.39079228 0.098573886 0.18995999
0.08869889 -0.1135886 0.119816415 -0.47350815 -0.18534061 0.48585436 -0.106802516 -0.07898699
0.5001706 -0.03407735 0.15165196 0.07758731 0.649288 -0.018447908 -0.085740924 -0.32095152
0.26087642 0.14939131 0.11049885 0.25145867 0.35570973 0.044551548 0.26551336 -0.19088331
0.12068424 -0.08372125 0.3879955 0.2099196 0.3032856 -0.023217093 -0.07155016 -0.014230988
0.22619264 0.42314896 -0.03791257 0.029597253 0.32493806 0.10492139 -0.10900328 -0.124244966
0.13797939 0.105705164 -0.16860574 0.1679525 0.4128834 0.117351264 0.07591002 -0.20857534
0.18834122 0.14055121 0.28360963 0.19585858 -0.2982153 0.04429023 -0.11199424 -0.036298264
0.01943017 -0.026387127 -0.0025257035 -0.1439822 0.025094897 0.15885592 0.111509666 0.7859755
0.00690663 0.03816643 0.13929904 -0.121405296 -0.11205893 -0.06642962 -0.045773506 -0.028342355
0.45941857 -0.02939624 0.23090708 0.40083414 0.14480266 0.67349464 -0.51274765 -0.1351461
0.30844975 0.074161485 0.050556485 -0.075764105 0.24149603 0.22221366 -0.07135321 0.20800087
0.25974315 -0.015670784 -0.13691095 0.034344506 0.05437497 0.27980167 -0.16328563 0.21270159
0.5612334 0.19061959 -0.25152192 0.06872956 0.41114077 -0.1721559 0.0054065543 -0.0973077
0.09747844 0.46706167 0.1019816 -0.172007 -0.021364195 0.28447258 0.32436338 -0.18268444
0.067587845 0.19677334 -0.051129803 -0.0022083914 -0.1271373 0.09748455 0.48840997 0.15511514

mem_LSTM.weight_hh_l0 f4 [512, 128]
00000000: 4912 1bbe 5d35 c13e 9c07 08be f725 af3e
00000010: 1321 db3d 55c9 2bbd 1cdf 033d 828a 6ebe
00000020: cd40 6c3e 8312 693e a719 0ebd c7ed 463e
00000030: 2fac 37be a817 80be 8541 9cbe 931f 6f3e
00000040: 0fce b13e e0db 4f3c 028f b03e a3c3 64bc
00000050: df78 58be c98f 3c3e 03af 76bd 62fd ed3d
00000060: 7196 0bbe f419 9a3e 4fdb 2a3e 6b01 3fbd
00000070: d6fa e93d 8400 73be bdf3 f03e 26cb 333e
00000080: 0ba2 df3d e217 cbbd 69a3 9dbd 447d a4bc
00000090: 94eb 8cbe 0f5f 06be 36cc 133e b458 9d3e
000000a0: f2c2 db3d 07c0 a4be 05c6 cb3d 7a96 c03d
000000b0: 97f0 3abe a375 c7be eaef 033e 7e3c d9be
000000c0: 27cf 123e 2dab c3be cc4e 2a3d e0a6 e7bd
000000d0: 5fbd 53be 2420 4a3e f248 04bd 4f8a 263e
000000e0: 6020 1f3d eae7 23be c764 9cbe d1d4 9e3e
000000f0: 2415 dcbd 16e8 333e aaa9 9b3e f089 0bbd
00000100: e1d6 823e 7059 e2be 649d 943c 3e47 763d
00000110: 131b 133e 1e22 d93d cb9d 38be 4c45 cc3d
00000120: 2d1e 14be 58f5 ac3b 5317 64bd c50e 723e
00000130: 5fce e9bc 0aa8 02be 68be f4bd 41b1 ce3d
00000140: e4e3 04be 345a 2c3c 3624 833d 3318 c8bd
00000150: 6720 77be 8f3f e13d d0f4 0abf 75c2 cebe
00000160: a1bf fbbd 4b93 7fbd 755a f83e 6a58 c3be
00000170: 18a7 863e 3edb 33be 5a13 d2bd b163 9fbe
00000180: 1349 043f 84c5 37be c3ba dbbc ab47 58bc
00000190: b2ba 0abd ada2 623e 14e3 8d3d 8714 673e
000001a0: 282c 973d a915 cc3e 65b4 54be b5db fa3e
000001b0: 88a9 a73e d278 833e 5c18 a43e e1b8 a9be
000001c0: b8ea 09bf c6c1 4a3e e611 2abe d53d 8c3e
000001d0: 06b3 aebd 9386 283e 8a51 a3bd a318 c0be
000001e0: f548 9f3b 1207 99bd 8f23 08bf 77a6 5bbe
000001f0: 704a c83c 0b99 813d c9fc 25be b9e8 a23e
00000200: 5f04 be3d c9db 94bb d68f e13d edc3 473e
00000210: 5c85 cf3e 9504 0ebc 660b 90bd d6df ed3d
00000220: 2ee2 d73d 815b 473d 0f25 9cbe 97be 1d3d
00000230: 7510 663e ed48 93be 4ddf 1f3e 33d4 bcbe
00000240: 12e4 3e3e 33e5 733e c58b 3abc 40b0 afbe
00000250: d091 133e 0c6e 063e 52a7 7a3e c84b 9bbc
00000260: 7e9a 6e3b 8512 22bf 2e2c b7be 9471 bebc
00000270: 004f acbe 3f62 b8be c382 ccbe 2669 b33e
00000280: c354 a83e 8ca6 3c3e fabb afbd 9b43 1e3e
00000290: 13fd f4bd 4a5e 983e 805c 503e 1420 a7bd
000002a0: 4f69 913c a4ff 733e 953a 083f 568e 7e3d
000002b0: b607 bebd ad4e 503d a96e cdbd 8a1a f8bd
000002c0: 3371 ff3b 717f 853e 7324 af3e dcda e73d
000002d0: 601a 9b3d c066 ea3d 39b7 f4bd 2450 e43d
000002e0: 398e 56bd 5c33 d8bd 312f 7e3e 8d0c 70bd
000002f0: 3199 3e3c 9b52 bebd 98d9 76be aa4f a53e
00000300: 6cf7 2ebf 1ee5 e03d 3b77 72be 063f 0b3d
00000310: 98f9 f43c 0c76 c33e d5cd 9dbd 6944 8fbd
00000320: 7b4a 54bc 1fad 35bc d095 3b3e bb2f 7abe
00000330: 67aa 563f a1e4 963e c261 5d3e a439 123d
00000340: f319 1bbe 797b 8cbe f405 f9be 4693 31bc
00000350: acbe 703e ef37 cf3c c9dd 653e 9ac4 b4be
00000360: 1492 873e 5e10 20be 2ed3 aabe 5f4d 0dbe
00000370: f768 1c3e 39ea 723e b99f a13d b864 593e
00000380: 862b 9d3c 3ce0 7e3e 0cc2 ebbd 03e5 353e
00000390: 6320 eebd 7251 4fbe 3726 093e 696a f63d
000003a0: 0622 05be 512f 61be 5e4d 88be 2aa4 c7be
000003b0: 255b 94bd dc9f 11be e6ae af3e 9f6a 0abe
000003c0: b99b c83d 5fa1 ae3c 6416 af3e 5645 d5bd
000003d0: d67c 29bd f1ef aebe 4769 56be 02b2 13bd
000003e0: 9c33 f73c 58ef 93bc 98e4 063f 781e 98bd
000003f0: 8669 be3e ac7a b13d 44a6 883d 81da 79be
-0.15143694 0.37736025 -0.13284153 0.34208652 0.10699668 -0.041940052 0.032195196 -0.23295024
0.23071595 0.22760968 -0.034692433 0.19426642 -0.17936777 -0.25018048 -0.30518737 0.23351888
0.34727523 0.0126867 0.34484106 -0.013962659 -0.21139859 0.18414225 -0.060225498 0.116205946
-0.13631608 0.30097926 0.16685222 -0.04663221 0.11424796 -0.23730665 0.47060958 0.17557964
0.10919579 -0.09916665 -0.07697184 -0.020079263 -0.27523482 -0.131222 0.14433369 0.30731738
0.10730542 -0.32177755 0.099498786 0.09403701 -0.1825584 -0.38956937 0.12884489 -0.42428964
0.14336835 -0.38216534 0.041579053 -0.11311126 -0.20677708 0.19738823 -0.03229613 0.16263698
0.038849235 -0.16006437 -0.30545637 0.3102174 -0.1074622 0.17569003 0.3040288 -0.034067094
0.25554565 -0.4420886 0.018141456 0.060126536 0.14365797 0.106022105 -0.18028943 0.09974155
-0.14464636 0.0052782707 -0.055686306 0.23638447 -0.028540788 -0.12759414 -0.119503796 0.10092402
-0.12977558 0.010519553 0.06403391 -0.09770241 -0.24133454 0.10998451 -0.54279804 -0.40382734
-0.1229241 -0.06239633 0.48506513 -0.38153392 0.26299357 -0.17564103 -0.10257597 -0.31130746
0.51674 -0.1794644 -0.026822453 -0.013200681 -0.033869453 0.22132368 0.06928077 0.22566424
0.07381469 0.39860275 -0.2077194 0.48995748 0.3274653 0.25678116 0.32049835 -0.33148864
-0.5387378 0.19800481 -0.1660839 0.27390924 -0.0853024 0.16457586 -0.07974537 -0.37518796
0.004860992 -0.07472052 -0.5317926 -0.2145022 0.024449557 0.06328019 -0.16209711 0.31818178
0.092781775 -0.004542802 0.11013763 0.19508334 0.40531433 -0.008668085 -0.07033424 0.11614959
0.10541187 0.04867125 -0.30497023 0.03851184 0.22467215 -0.28766575 0.15612526 -0.36880645
0.1864169 0.23817901 -0.011385863 -0.34314156 0.14411092 0.13127917 0.2447789 -0.018957034
0.0036408002 -0.6330951 -0.35775894 -0.023247518 -0.33654022 -0.36012456 -0.39943513 0.3504116
0.32877168 0.18422908 -0.085807756 0.15455477 -0.119623326 0.29759437 0.20347786 -0.08160415
0.01775041 0.23827988 0.5321439 0.06214746 -0.092788145 0.05085628 -0.100308724 -0.12114437
0.007795477 0.26073793 0.34207496 0.11321041 0.0757339 0.11445379 -0.119490094 0.11148098
-0.052381728 -0.10556671 0.2482269 -0.05860572 0.011633203 -0.092930995 -0.24106443 0.3228734
-0.68346286 0.10981201 -0.23678295 0.03399565 0.029904172 0.38176 -0.07705275 -0.0699547
-0.012957211 -0.011088639 0.18318868 -0.2443227 0.83853763 0.29471305 0.21619323 0.0356995
-0.15146618 -0.27437952 -0.48637354 -0.010838335 0.23510236 0.025295226 0.22447886 -0.35306245
0.26478636 -0.15631244 -0.33364242 -0.13799046 0.15274416 0.23722161 0.07891793 0.21229827
0.019185793 0.24890226 -0.11511621 0.17763142 -0.11627271 -0.20245913 0.13393484 0.12032015
-0.1300126 -0.21990706 -0.26621526 -0.38992435 -0.07243947 -0.14221138 0.34313124 -0.13517235
0.09795327 0.021317182 0.3419677 -0.104136154 -0.04137882 -0.34167436 -0.20938598 -0.036058433
0.030175976 -0.018058464 0.52692556 -0.074276865 0.37189883 0.08665976 0.06672338 -0.24399759

mem_LSTM.bias_ih_l0 f4 [512]
00000000: abad af3e 8192 f63d c3ba 5fbd a9db 9f3d
00000010: 6da0 913c 3214 aa3e 3f17 f1bc 435f 1b3e
00000020: 380e f3bd 6d71 d7bd 4e8c 94bd 3b60 563e
00000030: e0fa 313d 4fbc f8bd 70ec d4bd a851 7b3d
00000040: b093 623d 7232 e43d b1f0 213e 7f67 a0ba
00000050: 31d5 6f3d 723a debd 1d25 843d f847 78bd
00000060: db9f 3abd ba6a 743d c02f c13d 9811 1b3e
00000070: 82a7 07bd e0d4 85bc e186 233e 567c 38bd
00000080: ff07 2b3e 2a86 163d 2766 2abc f36d 23bd
00000090: 7234 9a3d ad1d 823e 145f 8bbc a1f7 263e
000000a0: b421 5d3d ef95 bf3d 7273 e9bd 7268 b23c
000000b0: f031 133e d6d9 12bb 0a7c 1b3e 78dd 123e
000000c0: db47 a0bd 4e43 5f3e 4a8e 0b3e f3ce ad3d
000000d0: ad80 33be 186e a43d 28fe 8a3d 5afe 593e
000000e0: e1b2 9d3d 7e45 bdbd 4d81 05bd cca9 74bc
000000f0: 0440 453d 00e1 3f3e 4654 373c 1680 b03c
00000100: 70b6 163e 4548 253e e688 0c3e 3e02 753d
00000110: 450e 2c3e ba7d 863d 4055 483d 3755 773e
00000120: af8c d43d 8841 b63a 330d b63d ba2e 8bbb
00000130: a198 9c3c 190f 993d 04af c33c 95c5 94bd
00000140: 90c1 13bd b42d 103e 5ab4 153e 2bb2 b63c
00000150: fd5a a7bd 1e51 40be 1c4f c3bd 9ba8 993d
00000160: 2c68 a2bd 4b33 863d b1f9 cebd 7099 863c
00000170: dd3b 4a3e e8b9 c93d c553 e43d 4a70 7b3d
00000180: 4e82 cd3d 3933 33b8 4dbd f53c 9b33 cd3d
00000190: 7510 d33d 42c3 88bd cf29 043d 911a 713d
000001a0: 2a85 353b 8a4d cb3d 2c97 c63d 168a 213e
000001b0: 7d44 9cbd 56ee 413e cde7 1a3d 895e 28bd
000001c0: 3ddd 0d3e a602 1cbd a1cf 903d 4a02 8bbc
000001d0: 7809 c6bd f927 cc3d ccfa 323e 8fe3 f8bd
000001e0: 9e09 873d 6a55 2dbd d2b5 16bd a6b7 343e
000001f0: 61e6 223e 0cf8 1e3e 39f9 fb3d 9fa4 e03d
00000200: ba5f 1ebe b629 c3bc 4863 36bd d133 b5bd
00000210: 705b 01be 71f6 e23d 8d66 43be 36bc 853c
00000220: 5b41 2cbe 11a5 97bd b308 91be 2990 8f3d
00000230: 53d4 20be 8d3e 80be b028 16be bcb5 28be
00000240: 4ee5 3abd 47c2 17bd e6cc 683d 2cbc b5bd
00000250: c93a 6fbe f468 6fbe e689 ebbb 7c37 6bbd
00000260: d61e 20bd 39f5 3ebd 7824 2cbe 9519 6dbe
00000270: ecff 72bd 6524 28be 25dd bdbd cb3d 20bd
00000280: 71e6 39bc d439 a6bc ef99 08be 10a6 e4bd
00000290: 32aa 65bc 05c8 92be 00e9 06be 1d3e 82bd
000002a0: 6725 81be a4e0 83be b956 2cbe 6603 b2be
000002b0: 5aea 5bbd 2e03 1fbe 6ae1 14be 3237 853d
000002c0: 7edd 03be 6778 d1bd d6d9 42be ab88 19bd
000002d0: 6a6f 9abe 04c3 34bc 180b b23c 0f58 80be
000002e0: 8e8d aa3c 3525 67be dac4 14be 85c6 b7bd
000002f0: 5e4f 153b a466 45bd 7094 953c 83ad 31be
00000300: 8ee8 a9bd ca80 1cbd c5a1 0ebe aa1f ecbd
00000310: f6db 52be f332 f0bd 93a2 67be ca34 80bc
00000320: a2d3 98bd f087 cebd c90a c4bd c3c0 6bbe
00000330: 928f e2bc 51da 54be a0dd 88be ad72 a53c
00000340: f53d 3abe 323d 3dbe 816b 96bd cd82 b8bd
00000350: d487 e8bd 5b3d 12be 4143 b3be 080a 2ebe
00000360: 2d54 b0be 37b3 99bc 7370 0dbe 8935 8cbd
00000370: 2353 9e3d f640 b2bd 2b50 ddbc 8e4e 45be
00000380: 5884 1bbc b2b2 40be 6329 8dbd 2510 11be
00000390: 3b72 633d 7985 3ebe 7055 16bd b841 81bd
000003a0: 0b6b 0abe d0ff dabd 1a62 eebc 9969 91bd
000003b0: 3cd1 e5bd c927 99bd 0059 f7bd b854 c8bd
000003c0: e659 05be 4772 b2be 2ff9 a3bd 8eba 37be
000003d0: 25cb 59be dbe7 c5bd 9959 2cbe a8f3 95bd
000003e0: 69d7 7dbd 3ded 30be 3fd4 59bd 6431 ffbd
000003f0: 16de 13be 694f 1a3c 8a3e acbc 7a66 a23d
0.34312186 0.12039662 -0.05462147 0.07805569 0.017776692 0.33218533 -0.02943003 0.15173058
-0.118679464 -0.10519681 -0.072533235 0.20935147 0.043452144 -0.12145292 -0.103966594 0.06135717
0.055316627 0.11142434 0.15814473 -0.0012237875 0.058552925 -0.10850991 0.06452391 -0.06061551
-0.045562606 0.059672095 0.09432936 0.1514343 -0.033118732 -0.016336858 0.15969421 -0.04504045
0.16702269 0.036749043 -0.010400332 -0.039899778 0.075295344 0.25413266 -0.01701311 0.163054
0.05398722 0.093547694 -0.113989726 0.021778319 0.14374518 -0.0022407672 0.15184036 0.14342296
-0.07826205 0.21803018 0.13628498 0.08486738 -0.17529555 0.08028811 0.06786758 0.21288434
0.07700134 -0.0924177 -0.032594014 -0.014933061 0.048156753 0.18738174 0.011189526 0.021545451
0.14718032 0.1614085 0.13724098 0.05981659 0.16802318 0.06566949 0.048909426 0.241536
0.10378396 0.0013905028 0.08889236 -0.0042475136 0.019115748 0.07473583 0.023887165 -0.07264248
-0.036073267 0.14079934 0.1461958 0.022301754 -0.081716515 -0.18780944 -0.09536573 0.07502862
-0.079300255 0.06552752 -0.101062186 0.016430587 0.19749399 0.09849912 0.1114879 0.061386384
0.10034619 -4.272463e-05 0.029997492 0.100196086 0.10305873 -0.066778675 0.032266434 0.058863226
0.002769778 0.09926899 0.096968025 0.15775332 -0.076302506 0.18938574 0.03781872 -0.04110578
0.13853927 -0.038088463 0.07070852 -0.016968865 -0.09669775 0.09968562 0.17478484 -0.12152778
0.06593631 -0.042317785 -0.03679449 0.17648181 0.15908195 0.1552431 0.12303395 0.10968899
-0.15466204 -0.0238236 -0.044528276 -0.08847774 -0.12632537 0.11082161 -0.19082089 0.016325098
-0.16821806 -0.07404531 -0.2832695 0.07009918 -0.15705995 -0.25047722 -0.14663959 -0.16475576
-0.04562884 -0.03705051 0.05683603 -0.088737816 -0.23362269 -0.2337988 -0.0071880696 -0.05742596
-0.039091907 -0.04662058 -0.16810787 -0.2315429 -0.059326097 -0.16420133 -0.092706956 -0.03912143
-0.011346445 -0.020291246 -0.13339971 -0.111644864 -0.0140176285 -0.28668228 -0.1317482 -0.063595034
-0.25223848 -0.25757325 -0.16829957 -0.34768218 -0.053690292 -0.15528557 -0.14539114 0.06504668
-0.12877461 -0.10228043 -0.1902841 -0.037483852 -0.30163127 -0.0110328235 0.021733806 -0.25067183
0.020819452 -0.22572787 -0.14528218 -0.089734115 0.0022782902 -0.04819359 0.018259257 -0.17351346
-0.082963094 -0.03820876 -0.13928898 -0.11529477 -0.20591721 -0.11728468 -0.22620611 -0.015650172
-0.07462241 -0.10084522 -0.095723696 -0.23022752 -0.02765635 -0.20786406 -0.26731586 0.020196283
-0.18187697 -0.18480375 -0.073447235 -0.09009323 -0.11354032 -0.14281218 -0.35012248 -0.16996014
-0.3443922 -0.018762214 -0.13812427 -0.068461485 0.07730701 -0.087037966 -0.027015766 -0.19268247
-0.009492002 -0.18818167 -0.068926595 -0.14166315 0.05552886 -0.18605603 -0.036702573 -0.06311363
-0.13517396 -0.106933236 -0.029099513 -0.07100219 -0.11221549 -0.074782915 -0.12077522 -0.09781784
-0.13022575 -0.34852812 -0.080065124 -0.17942259 -0.212689 -0.096633635 -0.16831054 -0.07321864
-0.06197301 -0.17277999 -0.05318093 -0.124605924 -0.14440188 0.009418347 -0.021025915 0.07929702
