cpa_weights_sinus.pth (torch, 89711 bytes, 8 tensors)

mem_LSTM.weight_ih_l0 f4 [256, 2]
000000 ae 7d 8e bc 96 3b 5e ba 4a f3 7f 3b 02 05 ab ba
       -0.017393913 -0.0008477507 0.0039054924 -0.0013047757
000010 35 f1 6e bc 46 96 8f 3c 29 11 74 ba 99 59 18 3d
       -0.014583875 0.01752771 -0.00093104184 0.037194822
000020 d9 f9 45 bc ab 9d 94 bc 87 8a 91 3c 70 33 02 bc
       -0.012083494 -0.018141588 0.01776625 -0.007946834
000030 4e 35 0a 3d 21 df 8d bc 79 a3 4a 3c c7 4e 35 3d
       0.03374224 -0.01731831 0.0123680765 0.04426458
000040 09 de 29 bc 2f a9 44 bb 25 a7 51 bc 99 77 38 3c
       -0.010367879 -0.0030008068 -0.012796198 0.011258983
000050 12 d1 06 bc a7 0e 23 bc 5e be 82 bc e3 16 4d 3c
       -0.008228557 -0.009952224 -0.015959915 0.012517664
000060 f0 93 a6 3b 01 92 05 bb 9c 70 47 3c 93 6b 77 bd
       0.0050835535 -0.0020381215 0.012172844 -0.060405325
000070 b8 df 9e bc ca c4 b9 3b 83 de b4 bb cb f3 06 3c
       -0.019393787 0.005669211 -0.0055196895 0.008236836
000080 1f 19 1f 3b 5d 77 d4 bb 18 4e 54 3c 40 eb 9e 3b
       0.0024276448 -0.006483956 0.012958072 0.0048498213
000090 d3 eb 58 3c e1 aa 94 3c 95 eb 1d 3d ee ed 14 3c
       0.013239819 0.018147888 0.038554747 0.00908993
0000a0 77 da b0 3b 80 d3 dc ba e3 a0 14 bc 49 72 a2 bc
       0.005397137 -0.00168477 -0.0090715615 -0.019829886
0000b0 b7 a9 9b 3a ef b0 13 3c c9 57 22 bc 23 fd f9 ba
       0.001187614 0.009014352 -0.009908625 -0.0019072633
0000c0 18 e8 4d bc 99 9f 88 bb f1 ed 8a 3b 2f 4a a3 bc
       -0.0125675425 -0.004169416 0.0042397906 -0.019932834
0000d0 ef b7 54 bc 9c d8 b1 3b 67 b4 3b bc 76 97 97 bb
       -0.012983306 0.005427433 -0.0114565855 -0.00462621
0000e0 27 8f 75 3b d9 2f 45 bc db 12 e5 3c 6c b3 36 3b
       0.0037469359 -0.012035334 0.027963093 0.002787794
0000f0 49 5a 0c bc f0 28 9b 3b dd 5e 89 3b 5c e3 a4 bb
       -0.0085664475 0.0047351047 0.004192217 -0.005031986
000100 95 9a db bb 99 dc c0 3c 6c 60 1b 3c f3 8f ce 3b
       -0.006701777 0.02354269 0.009483438 0.006303781
000110 7d 9f be 3b 4e 92 2c bc f3 a8 56 3c e8 9b 26 bb
       0.0058173523 -0.010532929 0.013101804 -0.0025422517
000120 d2 e9 22 3c 51 8b 2f 3b 98 39 bf 3a e3 db 62 bc
       0.009943442 0.002678592 0.0014589308 -0.01384637
000130 4d 6c a3 bc b0 d0 bf bc f6 eb 4c 39 c7 56 07 bd
       -0.019949103 -0.02341494 0.00019542858 -0.03304174
000140 70 20 ae 3c 2a 5a 9b 3c f5 d8 0f 3b f7 a9 b1 bb
       0.021255702 0.018963892 0.0021949385 -0.0054218727
000150 9c 13 96 3c e2 95 e3 bb 61 f5 9d bc a4 8d 00 3d
       0.018319897 -0.0069453577 -0.019282045 0.03138508
000160 1a 62 e7 bb 1e 23 06 3b 82 8a 2f 3d 3a ae df ba
       -0.007061255 0.0020467709 0.0428567 -0.0017065473
000170 c6 6d 14 bc fa 73 17 3c b2 9b e2 b8 c2 d3 12 bc
       -0.009059375 0.00924396 -0.0001080552 -0.00896162
000180 1c 62 2e bc 42 06 1c bc 5e 2a b6 3b 51 7b 24 bc
       -0.010643508 -0.009522976 0.00555925 -0.010039167
000190 8c 87 fa 3b 19 ec d1 bb e5 1f 96 bb f9 d2 5b 3c
       0.007645553 -0.006406319 -0.004581439 0.013416999
0001a0 40 5b 13 bd 86 36 3d bc f6 a8 ee 3b 34 2e 32 3c
       -0.035975695 -0.011548644 0.0072833253 0.0108752735
0001b0 4f 09 8d bb f7 88 a0 bc a1 22 49 bb 72 df 3a 3b
       -0.004304088 -0.01959656 -0.0030690806 0.0028514531
0001c0 56 87 ec 3b 06 73 88 bc 73 1b 52 3b 7e c4 1f ba
       0.0072182817 -0.01665641 0.0032059818 -0.0006094648
0001d0 11 fe ad 3c d9 1f 3c bc bc 64 0c 3b ed ae de 3c
       0.021239312 -0.011482202 0.0021422347 0.02718302
0001e0 a3 4f 90 ba b2 04 e5 3c 08 26 4c 3b c7 07 5d 3b
       -0.0011010062 0.02795634 0.0031150598 0.003372656
0001f0 55 4c c7 3c 48 e6 56 3c 07 c8 4f 3c 02 61 76 3b
       0.02432839 0.013116427 0.012681968 0.0037594442
000200 40 a7 0e bd ea 8c bd bc 95 e5 8f 3c 90 75 35 3b
       -0.03482747 -0.023138482 0.017565528 0.002768848
000210 61 48 5c bb 33 58 4c 3c 78 d4 8a 3b 11 0b da bc
       -0.0033612477 0.0124722 0.004236754 -0.026616605
000220 e6 09 c4 3c 56 0e 1b bc 63 76 66 bc 2e 01 d8 3c
       0.023930501 -0.009463867 -0.0140663115 0.02636775
000230 0e c7 96 3c 29 5f 72 bc 26 4b bc bb d2 4a 39 3c
       0.018405464 -0.014793196 -0.005746263 0.011309342
000240 35 e9 83 3a b2 92 e8 bb f7 6b 98 3b c4 4c fe 3c
       0.0010064008 -0.0070975656 0.0046515423 0.031042464
000250 87 a3 91 bb be 58 02 bc a5 81 aa bc ce 76 84 3c
       -0.004444543 -0.007955728 -0.020813772 0.016169932
000260 b7 57 b2 3c f6 6b b1 3b a3 62 22 ba 8e 6f 10 3d
       0.021770341 0.0054144813 -0.00061945076 0.035262637
000270 bb f4 e1 b9 e3 db 38 3c 77 18 d6 3b 0e eb 0a 3b
       -0.00043097683 0.011282894 0.006533678 0.0021197232
000280 a8 17 2a 3b 70 ab bb bc 51 5f 92 3c a2 3c a7 ba
       0.0025954042 -0.022908896 0.017867716 -0.0012759159
000290 80 8c df 3a 9c 1b 31 3c de bc 6b 3c f6 13 fd bb
       0.0017055422 0.010809805 0.014388291 -0.007723327
0002a0 dd c2 7c bb d5 1e 65 bc 2b 8c bf bb 7f f1 1d bc
       -0.0038568296 -0.013984402 -0.0058455667 -0.009640097
0002b0 2f b3 65 3a a3 39 d3 bb f5 de 86 bc 85 0b b6 bc
       0.0008762357 -0.00644608 -0.016463736 -0.02222229
0002c0 c7 ef 09 bc 69 02 73 3b f8 49 d3 3b 33 60 eb bc
       -0.008418984 0.0037080294 0.0064480267 -0.028732395
0002d0 af 48 d8 bc bb 1c 06 bc 25 47 bb 3c dc 20 09 3c
       -0.026401846 -0.008185561 0.022861073 0.008369651
0002e0 8b ed d5 3b 4d ad df bb b1 d0 29 bd d1 f5 5b 39
       0.0065285615 -0.006826079 -0.04145879 0.00020977041
0002f0 a3 de df 3c 7f 97 0d 3c 45 a3 47 ba 3a a5 8a 3c
       0.027327841 0.0086420765 -0.00076155766 0.01692449
000300 8d 28 82 3a 80 2d 32 3d df d4 bc ba 40 d5 d8 bb
       0.0009930298 0.043500423 -0.0014406702 -0.0066172183
000310 de 9d 17 bd cb c8 09 3d 3d 6c e0 bb f0 63 b5 bb
       -0.03701579 0.033638757 -0.0068488405 -0.005535595
000320 12 ab 96 bc f2 7d 95 3c f0 2b fe 3c 67 ad c8 bb
       -0.01839212 0.018248532 0.03102681 -0.006124187
000330 0d 9b 0a bc 6b 6d ad bc ac 61 89 3c 9c f7 09 bd
       -0.008459819 -0.021170339 0.016770206 -0.033683404
000340 70 15 ab 3b 82 a1 c4 3c ec 8c 2c bb 26 2f a6 bb
       0.0052210614 0.024002794 -0.0026329113 -0.0050715385
000350 af fa 18 3a fc 08 cd 3c aa 13 42 bc 4a b3 1c bc
       0.00058356946 0.025028698 -0.011845509 -0.00956423
000360 26 19 51 3c 88 ba 97 3c d1 5f a6 3c 76 03 f2 3c
       0.0127623435 0.018521562 0.02030936 0.029542666
000370 80 74 76 bc 5f e7 8f bc 46 9d f4 3b a3 a2 f2 bb
       -0.015042424 -0.017566381 0.0074650375 -0.0074046417
000380 4a 1e 1b bd 45 d5 ab bc 5b e0 42 3d fa f1 06 3d
       -0.037870683 -0.020975718 0.047577243 0.03294561
000390 d5 f7 c7 bc af 1e a7 3c 8c 1b b3 3b 41 aa 60 3b
       -0.024410168 0.020400373 0.0054659303 0.0034281167
0003a0 5f e0 6d bc c0 b0 bd bb 8c 43 5c 3c 48 c0 40 3c
       -0.014518826 -0.0057888925 0.013443839 0.011764593
0003b0 8b 79 95 3c 43 11 03 b9 24 46 46 bc ca da c2 ba
       0.018246433 -0.00012499564 -0.012101684 -0.001486623
0003c0 3d ab 94 3b 87 ed 4a bb 9d f2 51 bc c1 e7 c4 bc
       0.0045370148 -0.0030964331 -0.012814191 -0.02403629
0003d0 92 49 00 bd fb d6 a7 3b d7 9f b1 bc e1 38 f6 3b
       -0.031320162 0.005122063 -0.021682663 0.0075141047
0003e0 bf ee 55 bb a8 e6 25 3c b0 98 b8 bc 91 8d a4 bb
       -0.0032643524 0.0101257935 -0.022533745 -0.005021759
0003f0 d6 69 f3 bc 2f e7 27 39 10 3e 13 bc c8 79 47 bc
       -0.029713552 0.00016012484 -0.008986965 -0.012175031

mem_LSTM.weight_hh_l0 f4 [256, 64]
000000 4a e1 ed 3c 47 ac bd be d8 55 7f 3e 98 14 67 3e
       0.02903809 -0.370455 0.2493509 0.2256645
000010 05 75 1a be 2a 11 a7 bc 4d 1e 8d 3e 3c b8 06 3e
       -0.15083702 -0.020393927 0.2756218 0.13156217
000020 3b be 4f be 9e e5 a2 be 38 d6 2e be c0 23 2c 3e
       -0.20287411 -0.3181581 -0.17073905 0.16810513
000030 33 a6 69 be 8e f9 d8 be 4c d3 e2 3e 96 56 2f 3e
       -0.22817306 -0.42377895 0.44301832 0.17122874
000040 7d 5f 13 be 28 ed 6d be 3b e2 86 bd db a0 5f be
       -0.14391895 -0.23234999 -0.06586119 -0.21838705
000050 0e 7b 7d be 50 95 ab 3e cb 54 4e bd f3 0e b8 3c
       -0.24753973 0.33512354 -0.050373834 0.022468066
000060 5f d4 39 3e 76 19 33 be a4 15 8b 3e 55 10 08 3f
       0.1814742 -0.17490181 0.27164948 0.5314992
000070 00 53 a9 be b9 bf 5b bd b1 13 ba 3e d8 a6 8d 3d
       -0.33071136 -0.053649638 0.36343148 0.069165885
000080 ab 89 e3 3c ee ee 88 3e f7 df ae 3c 92 6b e9 bd
       0.027775606 0.2674479 0.02134703 -0.113974705
000090 2a ce 0d 3e 54 80 bc bd 21 2f cf be a0 70 ad bc
       0.13848177 -0.09204164 -0.40465644 -0.021171868
0000a0 80 d5 f4 be a4 7a ad 3e 29 31 59 3e fb 73 04 ba
       -0.47819138 0.3388263 0.2121016 -0.0005052683
0000b0 50 79 75 39 db b6 a9 3e 16 d5 76 bd 58 94 38 3e
       0.00023410213 0.3314732 -0.06026181 0.18025339
0000c0 8a 87 c0 3d 70 54 bd 3c f9 a0 58 be c0 23 59 3e
       0.09400852 0.023111552 -0.21155156 0.21205044
0000d0 87 5b bb 3e 12 12 77 bd 5a 12 7c be f1 c4 20 be
       0.36593267 -0.060319968 -0.24616376 -0.15700127
0000e0 37 a2 5f 3d fb f8 98 be 7d 91 40 3e f2 da 90 3e
       0.05459806 -0.29877457 0.188055 0.28292042
0000f0 b8 f6 6c 3d a2 f1 9a 3c b9 72 97 be 87 70 02 3e
       0.057852477 0.018914048 -0.29579714 0.12738238
000100 38 3a a8 bd 80 87 3e be ce 3a 5a be 77 3c c6 be
       -0.08214229 -0.18606377 -0.21311495 -0.38718006
000110 c5 41 02 bc af fc ca bd 58 7c ac 3d 6a 43 26 3e
       -0.007950251 -0.09911477 0.08422154 0.16236654
000120 0b 87 d1 3e b9 72 0f bf 40 f3 b3 3d fa 83 14 bd
       0.40923342 -0.5603443 0.08786631 -0.036258675
000130 76 fa 9a 3c 2a cb 23 3d 94 d9 71 be 64 db b4 be
       0.018918257 0.039988674 -0.23618156 -0.35323632
000140 2d 88 54 3e b1 3a 8f bd 9c 3b 39 be 03 85 00 bd
       0.20755072 -0.06993616 -0.18089145 -0.03137685
000150 78 bb d9 3d 6a 2c 80 be 79 c9 98 3e 4c 72 22 3e
       0.1063146 -0.25033885 0.2984121 0.15863913
000160 4e 95 96 bd 39 bd 0b 3e 18 0c 74 3e db af 04 3d
       -0.07352696 0.13646401 0.23832738 0.03239427
000170 39 7b af bd 81 c8 f7 bc 16 d4 b6 bd a0 db 24 3d
       -0.08568425 -0.030246975 -0.08927171 0.040248513
000180 cf d5 ba 3d 09 91 74 3c 81 58 48 3d 47 f5 10 3e
       0.09122812 0.014927157 0.04891253 0.14156066
000190 bd 8d 26 3d f0 87 c5 bc 7e b1 6b 3c db c0 8b bd
       0.040662516 -0.024112672 0.014385579 -0.06823894
0001a0 fa 4a 1c bd 1c 64 ce 3c 56 2a 49 be 4b ac e5 3e
       -0.03815744 0.02519422 -0.19645056 0.44858012
0001b0 e8 33 d2 bd 10 6a c3 3d bd 4a 4a 3e 32 60 42 3d
       -0.102638066 0.09541714 0.19755073 0.04745502
0001c0 da 3b 9e 3d d0 a9 ae 3c 24 6a a1 3e e3 8f c2 3c
       0.077262595 0.021321207 0.3152629 0.023750251
0001d0 34 7b 2a 3d b3 40 1a 3d 60 09 64 3e e9 53 93 3d
       0.041621402 0.03765936 0.22269201 0.07193739
0001e0 e7 e2 0b be a9 89 8e 3d a0 4d 38 3d 03 27 a8 bd
       -0.13660775 0.0695985 0.044995904 -0.08210566
0001f0 f7 8f 19 3e 8a 16 24 3e e9 28 21 be 4c ab 37 3d
       0.14996324 0.16024223 -0.15738262 0.044841096
000200 39 00 27 be ce f5 3c 3e a3 9a b9 3d 2f e2 04 3f
       -0.16308679 0.18453142 0.09062698 0.5190763
000210 eb bf 34 3e ce df 9f 3d 14 a5 9c bc 2a e7 f4 3d
       0.17651336 0.07806359 -0.019121684 0.119581535
000220 60 16 f3 3d b5 9f 71 be e5 ba 8a bb 71 69 0d bf
       0.11869502 -0.2359608 -0.0042337053 -0.55239016
000230 94 4d cf 3b 12 64 38 3e c5 85 6e 3e 83 12 1c 3e
       0.0063263867 0.18006924 0.23293217 0.15241437
000240 b7 9f f9 bd b0 cc e9 bd aa c4 69 be 42 6e 98 3e
       -0.12188666 -0.11415994 -0.22828928 0.2977162
000250 3e d1 57 3e 32 59 23 3e b2 e7 82 be 10 b0 27 3d
       0.21075913 0.15951994 -0.25567394 0.04093939
000260 12 c1 99 3d 48 bc cf be cf 2c 21 3d 0a 8f b2 bc
       0.07507528 -0.40573335 0.039349373 -0.021796722
000270 59 1f 7b be 4a e5 e4 3d c2 35 52 3e e1 b3 d7 3e
       -0.24523677 0.11176546 0.2052832 0.42129424
000280 e1 2d 9e be 55 3c 1c be ae 0b 0f 3c be 8b 1e be
       -0.30894378 -0.1525739 0.008730812 -0.15482995
000290 dd 5b be 3d ee 29 92 bd fe c3 59 3e bb 2e 57 3e
       0.09294865 -0.07136904 0.21266171 0.2101392
0002a0 d6 3d 03 be c8 8d 5a 3e fc bb 0b 3e 7b 23 93 3e
       -0.12816557 0.21343148 0.13645929 0.28738007
0002b0 d6 24 d0 3c e7 c7 8f bd 19 b9 84 3c 26 b3 ac 3d
       0.02540819 -0.0702055 0.016201543 0.08432607
0002c0 11 86 df 3d 30 8a 7e 3d b6 2b ad bc d6 25 b6 be
       0.10914243 0.062143505 -0.021139007 -0.35575742
0002d0 2b ea 73 3e 28 11 4e 3c 57 4c 12 bf 61 60 40 3e
       0.23819797 0.012577333 -0.57147735 0.18786766
0002e0 89 d3 6d be b0 44 76 be 54 8a 36 3e 83 52 e5 bd
       -0.23225226 -0.2404964 0.17826205 -0.111973785
0002f0 d4 af 33 3d e8 f3 ab be 35 8a 71 bd 86 fd ef 3c
       0.043868855 -0.33584523 -0.058969695 0.029295694
000300 c5 fa 37 3e b8 84 16 3d 61 5f 45 be d2 96 6d be
       0.17966755 0.036747664 -0.19274665 -0.23202065
000310 a7 ed 38 3e d6 1a f1 bd 78 f3 e1 3c f8 e3 67 be
       0.18059407 -0.11772697 0.027581915 -0.22645557
000320 9d 3f 09 be 92 57 2e be 02 6b 0e 3d 02 20 7b be
       -0.13403173 -0.17025593 0.03477002 -0.24523929
000330 1f bf a9 bd 35 69 24 be b2 b4 80 3e 7a 6a b3 be
       -0.082884066 -0.16055758 0.2513786 -0.35042173
000340 cb 80 9f 3e 46 6d 51 3e ad 33 71 3e 4e df 0c 3e
       0.3115295 0.20451841 0.23554869 0.13757059
000350 de 50 d2 bd 22 e6 6c 3e 8c 9b e7 3d b3 c3 7f 3d
       -0.102693304 0.23134664 0.11308965 0.062442493
000360 97 b8 2a 3d f0 45 74 be ac 73 c1 be 77 89 71 3e
       0.041679945 -0.23854804 -0.37783563 0.23587595
000370 ee 49 06 3e ac b6 4c 3e 5d d5 21 be 01 e7 c8 3d
       0.1311414 0.19991559 -0.15804048 0.098096855
000380 ff 4b c1 bc fe 96 06 be 85 08 3e be c8 63 13 3e
       -0.023595808 -0.13143536 -0.18557937 0.14393532
000390 09 14 c8 3d 42 1d 7c bd 5a 69 e0 be 3a 4f 00 3e
       0.097694464 -0.06155134 -0.43830377 0.12530223
0003a0 ba 90 5b be 60 c2 62 3d 20 f0 70 3d 38 cd e2 3d
       -0.21441928 0.05536115 0.05882275 0.110742986
0003b0 84 5d 7a 3e f9 8e 2b 3e cb 29 09 be 2b ad c8 bd
       0.24449736 0.16753758 -0.13394849 -0.09798654
0003c0 91 aa 1f be f6 0f e7 3d d4 dc 0d be a4 27 49 3d
       -0.1559241 0.11282341 -0.1385377 0.04911007
0003d0 35 22 b6 3d 27 f2 3e 3d 4e 77 a8 bd 6c 08 25 be
       0.08893243 0.046617653 -0.082258806 -0.16116494
0003e0 20 a5 06 be 68 04 82 3d 62 52 67 3c 3a 5a 89 bc
       -0.13148928 0.06348497 0.014118763 -0.016766656
0003f0 f9 75 f4 bc 84 80 a3 be 27 ad ab 3e 97 bb 09 3d
       -0.02984141 -0.31933987 0.33530542 0.033626165

mem_LSTM.bias_ih_l0 f4 [256]
000000 95 01 0c be 45 87 11 be b1 0f 47 bd c2 6c fc bd
       -0.13672478 -0.14211757 -0.04859895 -0.123254314
000010 51 de 28 be 1e 6c 51 be 7f bd 10 3d 74 99 05 3c
       -0.16491057 -0.204514 0.035336968 0.008154262
000020 44 0e 6d be 1a af 2a be fe c4 fe 3d df 44 52 be
       -0.23149973 -0.16668358 0.12439917 -0.20534085
000030 1d f7 78 be 36 1f eb 3c 8a 78 e7 bd e9 58 fb 3c
       -0.24313016 0.028701406 -0.11302288 0.030682044
000040 75 27 fc bd c6 99 ba bd c8 c6 b9 3d 06 7c 82 3e
       -0.12312213 -0.09111361 0.09071118 0.25485247
000050 54 65 a7 3d df bd a7 b9 64 41 22 3c 61 d8 ab 3d
       0.08173624 -0.00031994187 0.009903286 0.083908804
000060 0a e4 da 3d 30 1a db bc c6 65 52 be 1e c7 5c 3e
       0.10688026 -0.026745886 -0.20546636 0.21560332
000070 1c 36 4c 3c 60 64 e5 bc cd ae 1f 3e 51 04 1f 3e
       0.012464073 -0.028001964 0.15594025 0.1552899
000080 eb 79 8f be eb 84 a3 bd a9 e7 cd 3d 10 23 94 be
       -0.28022704 -0.079843365 0.10053951 -0.28933
000090 2a 5e 19 be b4 ef 45 be 4e c9 c4 3d b2 d6 64 bd
       -0.14977327 -0.1932972 0.09608708 -0.055868812
0000a0 ee a5 41 3e 4c 24 41 3d 94 e1 9f bd d9 b3 03 3e
       0.18910953 0.047153756 -0.078066975 0.12861575
0000b0 84 2a bb bb 48 bf 79 3e be 02 5e be 9c d1 54 be
       -0.0057118554 0.24389374 -0.21680734 -0.20783085
0000c0 08 e4 b8 be 97 2d b2 bc 49 95 9f bc 8e cf 9a be
       -0.36111474 -0.021750255 -0.019480364 -0.30236477
0000d0 21 94 46 bd dc 30 f5 3c df cc e7 bd d5 b5 9c bd
       -0.04848111 0.029930525 -0.11318373 -0.07651869
0000e0 e7 e2 bb bd f5 f6 15 be 17 ed e9 bd 93 d7 53 3d
       -0.091741376 -0.14644988 -0.114221744 0.05171926
0000f0 4a 20 8a be 4d 9c 05 be aa 45 18 bd 3f b2 8b bd
       -0.2697776 -0.13047905 -0.03717581 -0.06821107
000100 72 b8 1d 3e e0 0b 29 3e 6f 52 99 3e 1e aa 63 3e
       0.15402392 0.16508436 0.29945704 0.22232863
000110 ca 49 64 3e 6b 1d 98 3e 74 39 a7 3e 8d 31 01 3e
       0.22293773 0.29709944 0.3266102 0.12616558
000120 98 62 20 3e 86 33 bf 3e a2 91 74 3e 18 72 07 3e
       0.1566261 0.37343997 0.2388368 0.13227117
000130 11 b0 85 3e 07 29 32 3e dd 88 8d 3e 30 7b dd 3d
       0.2611089 0.17398463 0.2764348 0.10814512
000140 34 22 8c 3e 8f 3c a3 3e ca 5c b1 3e ae fb ce 3d
       0.27369845 0.3188214 0.34641105 0.10106598
000150 1f f6 a3 3d f7 c0 84 3e ee c9 5a 3e cb c2 59 3e
       0.08005928 0.2592847 0.21366093 0.21265714
000160 21 5d 34 3e 4d d1 25 bb 46 82 f0 3e 21 25 93 3e
       0.17613651 -0.0025301755 0.4697439 0.28739265
000170 df d9 aa 3d c0 1f a4 3e 36 4f 79 3e 44 b9 c5 3d
       0.08342337 0.32055473 0.24346623 0.09654477
000180 a8 16 64 3e 28 11 e5 3d 63 1b c2 3d eb 36 00 3d
       0.22274268 0.11184913 0.0947788 0.031302374
000190 de 90 80 3e 34 40 62 3e 6b 8b bb 3e 98 19 83 3e
       0.25110525 0.22094804 0.36629805 0.25605464
0001a0 c8 ae 8d 3d 89 0b 82 3e fa f9 98 3e 43 d1 fd 3d
       0.069181025 0.25399426 0.29878217 0.12393429
0001b0 07 b8 eb 3e eb 15 89 3e d5 61 49 3e ba d6 86 3e
       0.4603884 0.26774535 0.19666226 0.26335698
0001c0 64 27 ad 3e e7 21 41 3e 92 61 80 3e d1 84 d2 3e
       0.33819115 0.18860589 0.2507444 0.41116956
0001d0 e1 bd 5d 3e ec b8 22 3e 55 bf a4 3e bd 9e 85 3e
       0.21654464 0.15890855 0.32177225 0.2609767
0001e0 b9 f5 b1 3e 82 69 e6 3e 45 b4 cf 3e 13 1f 9e 3e
       0.34757784 0.4500237 0.40567222 0.30883083
0001f0 a3 d6 1b 3e fc ad 5a 3e b0 64 62 3e c9 46 1f 3e
       0.15218596 0.21355432 0.22108722 0.15554346
000200 48 64 ff bd 4e fc af 3d 84 4e 23 3e 67 af 80 be
       -0.12470299 0.08593045 0.1594792 -0.2513382
000210 1e 07 90 3c 9e b1 0c 3c 63 2a 65 bd 85 63 e5 3d
       0.017581519 0.008587269 -0.055948626 0.112006225
000220 98 ee 70 bd 77 6e 10 3e bb 72 09 3e c9 87 45 be
       -0.05882129 0.14104639 0.13422672 -0.19290079
000230 be ea 7e be c1 a7 6e 3e fa 46 77 3e ca df a7 3d
       -0.24894235 0.2330618 0.24148169 0.08196981
000240 9c 32 14 be 48 a4 05 be 70 b1 1f 3e 4d 75 eb bd
       -0.14472431 -0.1305095 0.15595031 -0.11496983
000250 d6 37 00 3e 66 05 f5 3c d1 d7 16 3e 79 5c 8e bd
       0.125213 0.0299098 0.14730765 -0.069512315
000260 97 d0 49 be e8 94 46 3e 36 29 b1 3d 96 a8 c4 3c
       -0.19708477 0.1939274 0.086504385 0.02400617
000270 5e 95 22 be 44 72 d3 3d 56 03 a7 3d b1 f6 38 be
       -0.15877292 0.10324529 0.08154933 -0.18062855
000280 77 4e c1 bd 6c ae 42 3e 53 a1 9f be 90 8f 00 bd
       -0.09438794 0.19011849 -0.31177768 -0.031386912
000290 1b 74 39 be c1 d4 57 be 5b 0b 23 be d9 c9 8b bd
       -0.18110697 -0.21077253 -0.159223 -0.06825609
0002a0 5c 0a 32 3d 11 eb 6b bd 8c 82 1b 3e c4 12 4d 3d
       0.04346691 -0.057597224 0.15186518 0.050066724
0002b0 2b 7c 0a 3e ec 22 96 be f5 95 90 3d 4d 9b 24 3e
       0.13523929 -0.29323518 0.07059852 0.16074868
0002c0 60 a3 0e be c8 76 78 be 50 73 66 be 13 cf a8 3d
       -0.1392951 -0.24264061 -0.22504926 0.08242621
0002d0 cb 2f 5f be 1f be 69 be 70 f7 18 3e d6 88 91 3d
       -0.21795575 -0.22826432 0.1493814 0.071061775
0002e0 2d 51 60 3e 73 cf dd 3d 87 cb 09 be 45 bb 50 3e
       0.21905966 0.108305834 -0.13456546 0.20383938
0002f0 64 aa a5 39 7f cb 44 be 07 05 91 be 61 07 cf 3c
       0.00031598203 -0.19218253 -0.28324148 0.025272073
000300 dc 18 52 3d 04 90 36 3d 7a c5 11 3e 18 f4 e8 3d
       0.05129324 0.044570938 0.14235488 0.11374682
000310 76 40 00 3e de 62 89 3e 29 8f ab 3d c2 f0 40 3e
       0.1252459 0.26833242 0.08376915 0.18841842
000320 ee 83 fa 3c 4d 20 c3 3e 2b d2 79 3e 5e d6 ba 3d
       0.030580487 0.3811058 0.24396579 0.091229185
000330 a4 26 91 3e ca a0 ee bd 9a 18 52 3e d5 e1 ae 3e
       0.28349793 -0.11651762 0.20517197 0.3415667
000340 60 aa cb 3b 61 b5 e3 3e 14 8e 40 3e 76 f4 5b 3e
       0.0062153786 0.4447432 0.18804199 0.21479973
000350 23 1a cd 3c 70 d6 60 3e d7 1f c5 3e 19 1f a9 3e
       0.025036877 0.21956801 0.38500854 0.33031538
000360 55 b8 72 3e 40 58 6b bd de b1 cf 3e f2 01 3e 3e
       0.2370313 -0.05745721 0.4056539 0.1855543
000370 44 53 0a 3e 0f 6d b8 bd 57 83 ad 3d 97 ec 52 3e
       0.13508326 -0.09005176 0.08472317 0.20598064
000380 22 df 93 3e b5 40 47 3e 7c f0 8f 3d 82 fa 56 3c
       0.28881174 0.19458278 0.07028291 0.013121249
000390 92 4b ce 3e 8d 04 3a 3d 8f ff 63 bd 59 44 c8 3d
       0.4029203 0.045414496 -0.05566364 0.09778661
0003a0 6b 3c 5e bb 89 8c 4e 3e 39 c3 04 3e 93 2d 47 3c
       -0.0033910524 0.20170797 0.12965097 0.012156862
0003b0 7f 61 84 3e f3 5d ab bc d7 16 f5 3b fe 97 06 3e
       0.25855634 -0.020918822 0.0074795294 0.13143918
0003c0 c6 b2 01 3e 04 08 2a 3d df da d6 3e 87 18 10 3e
       0.12665853 0.04151155 0.4196386 0.14071856
0003d0 75 43 4a 3e b9 56 29 3e 50 77 57 3d 61 29 d6 3e
       0.19752295 0.16536988 0.05260402 0.41828445
0003e0 ba d5 ed 3d bc 30 80 3e d3 5d 9c 3e dc 18 42 3e
       0.11613031 0.2503718 0.30540332 0.18954796
0003f0 2d 6b a4 3d 58 3a 59 bc 5b a3 45 3e 6e fd 3d 3e
       0.08028255 -0.013258539 0.19300596 0.18553707

mem_LSTM.bias_hh_l0 f4 [256]
000000 71 17 2c be 84 77 13 bc 86 fc 23 be 41 74 5e be
       -0.16805817 -0.009000663 -0.16014299 -0.21724035
000010 bd c3 72 be d7 83 81 be b5 cd 9e 3c 4b e2 ab 3d
       -0.2370748 -0.25295898 0.019385198 0.08392771
000020 b4 77 23 be 82 e4 96 be df 21 c3 3d b7 6f 11 be
       -0.15963632 -0.29471213 0.09527945 -0.14202772
000030 42 bb 9b be 6f 45 47 3e 06 fc 85 bb c2 0a 17 bc
       -0.30416304 0.1946008 -0.0040888814 -0.009218873
000040 64 5e c2 bc 74 3b 84 be f3 19 29 3e 11 50 88 3e
       -0.02372665 -0.2582661 0.16513805 0.26623586
000050 f1 07 9f 3d 55 51 b4 bd e3 a8 0d 3e ff c4 82 3d
       0.077651866 -0.08804575 0.13833956 0.0638523
000060 ff e7 3e bc 8f 13 c3 bc 21 f5 5a be 4e 12 91 3d
       -0.011651992 -0.023813037 -0.21382572 0.070835695
000070 8b 6c 42 3e 76 50 a6 bd 34 00 1b 3e 7d 3b 9e 3c
       0.18986718 -0.081208155 0.15136796 0.019315476
000080 60 5a 4a bd 93 ff 95 bd 10 cc b8 bd bc cd 0f be
       -0.049402595 -0.073241375 -0.09023297 -0.14043325
000090 68 15 81 be af 37 08 bd 13 39 18 bc cd f9 ac bd
       -0.25211644 -0.03325623 -0.009290951 -0.08446083
0000a0 56 f9 65 3e 45 53 87 3d 4b 78 12 be fe bf 60 bd
       0.22458395 0.06607679 -0.143037 -0.054870598
0000b0 de e9 d8 bd ce ac 28 3e 72 15 16 be 6a ef ed bd
       -0.105914816 0.1647217 -0.14656618 -0.1161793
0000c0 20 9b 6f be 4e 78 50 3d a1 5d ed bd 67 01 d2 be
       -0.23399019 0.05089598 -0.11590124 -0.41016695
0000d0 bd 1d 4f be c7 e5 9d 3d d3 23 ce bd e4 dc cb bd
       -0.20226188 0.07709842 -0.10065427 -0.09954241
0000e0 95 66 03 3d 7f 99 97 be be bc 81 bd 40 ae c3 3d
       0.03208025 -0.29609296 -0.06334828 0.0955472
0000f0 0b 5f 8d be 66 aa 1f be be d5 2e 3e bb 9d e4 bd
       -0.27611575 -0.15592346 0.17073724 -0.11162897
000100 09 e4 ac 3e 8a 99 47 3e 28 5c a6 3e e6 67 8c 3e
       0.33767727 0.19492164 0.32492185 0.27423018
000110 51 56 63 3e 44 d0 8f 3e fc 94 b4 3e 7e 0f e9 3d
       0.22200896 0.28088582 0.35269916 0.11379908
000120 66 c0 4a 3e 80 a5 c2 3e 3e 65 5c 3e a9 42 85 3e
       0.19799957 0.3801689 0.21522996 0.2602742
000130 6c 0b 48 3e d6 7b 47 3e b4 8f 85 3e b0 a6 95 3d
       0.19535607 0.19480833 0.260862 0.07307184
000140 83 47 a4 3e 70 e8 ca 3e 9f cc af 3e 97 62 1f 3e
       0.3208581 0.3963046 0.343358 0.15564953
000150 1b 6f 6c 3e f6 c6 b6 3e 8a 0c 2f 3e e6 b8 68 3e
       0.23089258 0.3569867 0.17094627 0.22726783
000160 61 a9 ca 3d c7 8d 5f 3e 01 12 d3 3e 39 f6 27 3e
       0.09895588 0.21831428 0.41224673 0.1640252
000170 da b5 7b 3e 18 73 c7 3e 3d ad 6d 3e 6f 92 98 3e
       0.2458109 0.38954997 0.23210616 0.2979922
000180 9d d9 21 3e 3e 48 81 3e 54 ba 83 3e 81 09 ac 3d
       0.15805669 0.2525043 0.25728095 0.0840025
000190 10 ce 74 3e ec cd 05 3e 29 24 8e 3e 69 e6 75 3e
       0.23906732 0.13066834 0.27761963 0.24013676
0001a0 35 31 1d 3d b3 04 92 3e bb 76 9a 3e 5e 4d 15 3e
       0.038377006 0.2851921 0.3016871 0.14580294
0001b0 78 c3 5e 3e d0 32 ec 3d 9b ad aa 3e 22 e8 9a 3d
       0.21754253 0.11533129 0.33335575 0.07563807
0001c0 32 79 50 3e c4 29 8b 3e f0 f6 6f 3e e3 f7 69 3e
       0.20358732 0.27180302 0.23434043 0.22848468
0001d0 67 a6 7e 3e 35 73 d8 3d 17 c2 c0 3e 97 34 4e 3e
       0.24868165 0.10568849 0.3764808 0.20137249
0001e0 83 e9 a2 3e 8f 2a bc 3e 72 e3 3d 3e a2 15 16 3e
       0.3181878 0.3675122 0.18543795 0.1465669
0001f0 19 25 4f 3e 5f 06 a0 3e 9d cc 87 3e 44 69 98 3d
       0.20228995 0.3125486 0.26523295 0.07441953
000200 a6 d6 92 bd 18 d0 bf bc 7a 8d 93 bb 2f 24 67 bd
       -0.07169847 -0.023414657 -0.0045029493 -0.05643099
000210 d8 44 07 3c c5 89 4a 3c bf 6b 80 be 3c 4f 92 3e
       0.00825616 0.012361948 -0.25082204 0.28576076
000220 16 db 77 3d 98 a0 1e 3e 85 a1 6b 3e 34 48 05 be
       0.06051167 0.15490949 0.23010834 -0.13015825
000230 b1 97 38 be f3 1c 4d 3e e1 d2 b9 3e ff 14 ab 3b
       -0.18026616 0.20030575 0.362937 0.005221009
000240 47 35 71 bd e9 75 98 bc 7f 36 4c bd a1 20 ae 3c
       -0.0588887 -0.018610911 -0.04985666 0.021255793
000250 06 0d 49 3e f6 08 a0 bc 5b 4a 7e 3e f9 bc b6 bd
       0.19633874 -0.019535523 0.24833052 -0.089227624
000260 28 a5 1e bd 0d df a0 3d 1c 35 1a bd 6e b3 9d bc
       -0.038731724 0.078550436 -0.037648305 -0.019250598
000270 ab cd 39 bd 1a 5e 80 bc bc 67 ee 3c f6 12 24 be
       -0.045362156 -0.015669871 0.029102199 -0.16022858
000280 e2 27 15 bd 2f bd 0f 3e 9a 9a af be 20 5e a7 bd
       -0.03641499 0.14037012 -0.3429764 -0.0817225
000290 34 f8 b8 bd e5 4e 68 be de 57 2b bc 3e c1 1c 3e
       -0.09031716 -0.22686346 -0.010457961 0.15308091
0002a0 17 52 cd 3d ff aa 36 bd bc 5f 15 3e bd 5b 0f 3e
       0.10025423 -0.04459667 0.14587301 0.13999839
0002b0 ec 81 83 bd fe 98 cd be 11 77 56 3d ac a1 32 3e
       -0.06421265 -0.40155786 0.052359644 0.17444485
0002c0 99 f2 51 bc af 12 9e be 3e 36 1d be fc ca 44 3e
       -0.012814187 -0.3087363 -0.15352723 0.19218057
0002d0 cb 95 84 be e4 24 2b be f9 43 a1 3d d0 30 28 3d
       -0.25895533 -0.16713291 0.07874293 0.041062176
0002e0 fb 84 6d 3e 73 7a 66 3d 5f 3b 60 be f4 12 39 bc
       0.2319526 0.05626912 -0.21897648 -0.011296023
0002f0 15 c9 d8 bc c3 eb 4b be e8 63 57 be 2e 1a 11 3e
       -0.02646307 -0.19914155 -0.21034205 0.14170143
000300 a7 46 3f 3e 21 8f 81 3d 86 0d 85 3e 4e 6b 55 3d
       0.18679295 0.06326128 0.2598688 0.052104287
000310 42 42 10 3d f1 c8 75 3e ad 8a 56 3e ba bd 70 3e
       0.03521944 0.24002434 0.20951338 0.23509875
000320 fb 0a 03 3d 24 62 cb 3e ca eb d0 3e 2c c8 a2 bd
       0.031992894 0.39723313 0.40804893 -0.07948336
000330 8f 4f 28 3e f9 af 5f 3c 71 3b 59 3e cd 84 2f 3e
       0.16436599 0.013652795 0.21214081 0.17140503
000340 25 d3 58 3e c4 5d 0c 3f e1 cb 44 3e 8d b4 5e 3e
       0.21174295 0.54830575 0.19218399 0.21748562
000350 0a 63 b7 3d 84 16 55 3e 5e 61 8e 3e 39 63 d3 3e
       0.08954437 0.2080937 0.2780866 0.41286638
000360 20 2a 05 3d 5f fe d8 bc e2 72 be 3e e3 7a 9a 3d
       0.032510877 -0.026488481 0.37197024 0.0754297
000370 ac 21 3f 3e ef 96 c0 3d 1f 5f 9f 3d 78 57 49 3e
       0.18665189 0.09403788 0.07781815 0.19662273
000380 c6 63 94 3e db 61 4a 3e 79 bd 06 3e a6 e6 c5 bd
       0.2898237 0.19763891 0.13158216 -0.09663133
000390 f4 12 b1 3e 63 e2 14 3e a8 15 00 3d 00 23 fc 3c
       0.34584773 0.14539485 0.031270653 0.030778408
0003a0 f3 26 b4 bd ab eb 3b 3e 09 89 6e bd c2 30 e5 3d
       -0.087964915 0.18351619 -0.058236156 0.111909404
0003b0 06 a8 94 3e b6 5c 86 3d ca 4d 31 3e 22 c2 36 3e
       0.29034442 0.06560652 0.1731483 0.17847493
0003c0 4c 39 89 3d 85 c9 36 3c e7 c5 ca 3e 15 fa 30 3e
       0.06700382 0.011156444 0.39604113 0.17282899
0003d0 a1 b9 94 3e db 62 31 3e d7 ff 95 bc f7 00 c1 3e
       0.29047874 0.17322867 -0.01831047 0.3769605
0003e0 86 8e 9b bd 68 63 9a 3e 5b fa 53 3e e6 80 06 3e
       -0.075955436 0.30153966 0.20700972 0.13135108
0003f0 c7 ed 93 3d b5 60 d9 3d 19 33 4b 3e b2 af 64 3e
       0.07223087 0.106141485 0.19843711 0.22332647

dense1.weight f4 [64, 64]
000000 25 a8 7a 3e fc 98 de be 72 e4 ad be 0b 1b 07 bf
       0.24478205 -0.43476093 -0.33963352 -0.5277564
000010 1d 8a 0f 3e 9c 1a 83 3e 92 83 fc be f6 13 37 3e
       0.1401753 0.2560624 -0.4931913 0.17878708
000020 c5 8b a5 bc cb 9b 99 bd 5f 1b 6c be 05 81 7a 3e
       -0.020208249 -0.07500418 -0.23057316 0.2446328
000030 57 6b eb 3c 05 36 e5 be 00 36 5e be e5 90 e2 bc
       0.028737707 -0.44767776 -0.21700287 -0.027656982
000040 ed e3 6d 3f 4e 3b 60 bd 8b f3 ab 3d 14 ca c2 be
       0.9292591 -0.054744057 0.083960615 -0.38044798
000050 1a 70 96 3e 1a 98 57 bd b0 96 d5 3e 04 10 cc be
       0.29382402 -0.05263529 0.41716528 -0.3985597
000060 52 ef 7c be 30 d4 2c 3f ff d4 03 be d9 15 6b bf
       -0.24700668 0.6751127 -0.1287422 -0.9183021
000070 8c cf 9d 3d 09 93 8e be 8c 3b d6 be 8b b4 74 be
       0.07705602 -0.27846554 -0.41842306 -0.23896997
000080 ae 12 0f 3d 1a 30 b6 ba b0 77 e2 3d a9 b8 ef 3e
       0.034929924 -0.0013899833 0.11057985 0.46820572
000090 1e 4f 89 3e 7a 50 d8 bc 40 54 c8 bc 1b 78 b2 3d
       0.26818174 -0.026405562 -0.024454236 0.087143146
0000a0 4a 55 87 bd 37 19 a5 bd d8 36 99 3d 57 c5 a3 3e
       -0.066080645 -0.0806145 0.07481164 0.31986496
0000b0 df 3e cb 3e e3 ec 7d be 4e e0 8d bd 7b f7 1f 3d
       0.39696404 -0.24797396 -0.06927548 0.039054375
0000c0 a0 b0 5e bd 97 05 da 3c ab 7e 03 3e 89 6e 47 3e
       -0.05436766 0.026613994 0.12841289 0.1947576
0000d0 f9 00 7f be 01 da 2e be f3 ec 8b bd 18 33 5b 3e
       -0.24902715 -0.1707535 -0.06832304 0.2140621
0000e0 cd b1 c2 3e 55 c7 87 3e b5 45 3c be 1e f5 ec bc
       0.38026276 0.26519266 -0.18385966 -0.028925475
0000f0 70 23 5c be 31 1f 64 bd ce cd 95 3b 67 d0 be 3c
       -0.21497893 -0.05569381 0.004571653 0.023292733
000100 4f 2c 54 3e 1f b8 d0 3e f9 94 b4 3e 57 f8 df 3d
       0.20720027 0.40765473 0.35269907 0.10936039
000110 16 47 3d be e5 3a ba 3e f3 14 28 bb a9 c8 f1 3d
       -0.18484148 0.36373058 -0.0025647252 0.11805851
000120 80 d9 49 be 0f 38 c6 bd fc c0 a4 3e e9 f8 2e bf
       -0.19711876 -0.09678661 0.32178485 -0.68348557
000130 43 a4 aa be 21 fb 8d 3e ab e2 91 3d 31 9b b2 be
       -0.33328447 0.2773066 0.071233116 -0.34884027
000140 d8 56 23 bc 81 1f 5e 3e 51 05 06 be 4c f6 e7 3e
       -0.009969436 0.21691705 -0.13087966 0.45305097
000150 15 a5 ea 3d 31 de 28 bf d1 87 56 3e a9 a9 c1 be
       0.11457268 -0.6596404 0.20950247 -0.37824753
000160 27 75 5f be 50 f5 44 3e d8 dd aa 3e 6e 1d f0 3e
       -0.21822034 0.19234204 0.33372378 0.46897453
000170 36 2b 87 3d 17 12 6d 3f 33 45 b0 3e e6 37 58 3e
       0.06600039 0.9260573 0.34427795 0.21115074
000180 7d d7 86 be 3a 3d 01 3e 6d be 31 bf b2 ad 5d bd
       -0.2633628 0.12621012 -0.6943119 -0.054120727
000190 29 2d d6 be d5 4b 1b bf b7 66 03 be cf ba 22 bd
       -0.4183133 -0.60662585 -0.12832151 -0.039728936
0001a0 35 e3 a3 3c 76 0f bc bd 5b f5 a0 be b2 c0 b9 3c
       0.020005802 -0.091826364 -0.3143719 0.022674892
0001b0 c5 b6 2e 3d c5 96 46 3e 89 03 16 bd e2 22 c8 3d
       0.04265477 0.19393452 -0.036624465 0.09772278
0001c0 15 33 7d 3c 25 dc 18 be 9e ad b1 be 3b c9 4a 3d
       0.015454073 -0.14927728 -0.34702772 0.049508315
0001d0 35 9e c3 be 19 f0 69 bd 91 80 43 be 56 4b cd 3e
       -0.3820664 -0.05711374 -0.19092013 0.4009654
0001e0 6b 97 c8 be ab 52 b9 be 7d b8 9f 3d ef c8 42 3e
       -0.39178023 -0.36195883 0.0779886 0.19021963
0001f0 35 7e 6c 3f ea 9a 2b bb 8b 70 03 bf ae 44 d6 bd
       0.92380077 -0.0026184865 -0.513436 -0.10462318
000200 35 99 a2 bd 65 40 97 be 24 22 58 bb 13 7e 25 bd
       -0.07939378 -0.29541317 -0.0032979334 -0.040403437
000210 93 15 80 3c 8a 95 a9 be 14 51 17 be 6f cf d8 3e
       0.015635287 -0.33121902 -0.14777023 0.4234576
000220 76 c0 e0 3d 1c fd 85 3e 0f 4c 98 3d c5 f8 00 bf
       0.10974209 0.2616967 0.07436382 -0.5037959
000230 dd 8c 54 be 24 08 74 3f 3f bb fa bd 64 7f 65 be
       -0.2075686 0.9532492 -0.122427456 -0.22411877
000240 e5 64 f9 be 51 70 0b 3f f0 2a a8 bd fa 0b 25 be
       -0.4870979 0.54468256 -0.08211315 -0.1611785
000250 19 c4 8d be d1 54 a1 bc 84 e3 d2 bb 2f 74 44 3e
       -0.27688673 -0.019693764 -0.0064358134 0.19184946
000260 53 d2 0e be a6 cd dd be 08 ef d9 3e ca 37 0e bf
       -0.1394742 -0.4332096 0.4256518 -0.5555388
000270 c0 b7 bd be 3e 28 45 be 98 81 e6 be 69 41 0e bf
       -0.37054253 -0.19253632 -0.45020747 -0.5556856
000280 eb bf f1 be 69 1d 14 3e 09 e7 c6 be 58 67 dc 3e
       -0.47216734 0.14464344 -0.3884814 0.43047595
000290 cf 90 88 be 9d dd 3d 3e 57 5c 87 3e cf ad c4 bc
       -0.2667298 0.1854157 0.26437637 -0.02400866
0002a0 b4 25 d8 3d de 40 8b bb f7 ed 32 bf b1 9c a4 bd
       0.10554066 -0.004249676 -0.69894356 -0.08037699
0002b0 00 a4 19 be 06 6f 22 bf f6 44 e9 3e 4b 32 fe 3e
       -0.15003967 -0.6345066 0.45560426 0.49647745
0002c0 e7 28 46 3e ee c8 81 be a8 94 9a bd d4 c8 03 bd
       0.1935154 -0.2534861 -0.07547885 -0.032173946
0002d0 03 54 43 be a5 f3 84 be 28 3a 94 3e 9d 85 9a 3e
       -0.19075017 -0.25967136 0.2895062 0.30180064
0002e0 d5 3e 5d 3e 21 8c 68 3e 97 5f 71 be c7 4e bc bc
       0.21606 0.22709705 -0.23571621 -0.022986783
0002f0 30 26 75 3d 2a e9 92 3d 54 45 c5 3d ee a6 12 3e
       0.05985087 0.07173379 0.09632364 0.14321491
000300 af 80 15 3d 7e 0e 80 3e 3c 37 15 be 18 f4 d4 be
       0.036499675 0.25011057 -0.14571851 -0.4159248
000310 1a c3 df bc 4a 60 ce 3e 91 5c 8c be 87 e4 8d 3e
       -0.027314711 0.40307838 -0.27414373 0.27713415
000320 f5 bd c7 be 15 60 83 be d4 eb 29 3e aa 49 65 3d
       -0.39012113 -0.25659242 0.16593868 0.055978455
000330 5b 31 bc bd 5b 3a f5 be d2 80 d6 3d 61 72 44 be
       -0.09189101 -0.47896084 0.10473789 -0.19184257
000340 55 66 5e 3f c3 0a f2 bc ca d0 b2 bd 7a ec 3b be
       0.86874896 -0.029546147 -0.087312296 -0.18351927
000350 0a e5 e7 3e 4e 65 f3 be c6 4b 13 3f 05 54 dc be
       0.4529193 -0.47538227 0.57537496 -0.43032852
000360 43 1f 6a be 48 e3 7b 3f 69 7b 28 3e c0 de f5 3d
       -0.22863488 0.9839368 0.16453327 0.12005377
000370 ed 7d 6b 3e b8 2d 0f 3f 4d 62 17 bd eb dd 00 3e
       0.22997256 0.55929136 -0.03695898 0.12584655
000380 4f d4 d1 3d 1d b3 1a 3e 6f 42 25 bc 36 83 58 bd
       0.10245573 0.15107389 -0.01008664 -0.052859508
000390 9b 29 88 3e 9d 9f ba be 97 a7 ee bd 48 17 c2 3d
       0.26594242 -0.364499 -0.11653059 0.09477097
0003a0 7e f3 20 be 2c 48 21 be f4 5a a4 3e fb 2c f1 3e
       -0.15717885 -0.15750188 0.32100642 0.4710463
0003b0 fd 6a c6 3e 2d 23 c0 3d d4 68 ae be 6f 1a 84 bb
       0.387535 0.09381709 -0.34064353 -0.0040314714
0003c0 e3 89 1b be 87 4c ea bd 47 91 9b bd fa ce 75 bd
       -0.15189318 -0.11440378 -0.07596069 -0.06001184
0003d0 d2 9b cf be 5f a7 17 be c5 9a ac be d5 e1 0f 3e
       -0.4054857 -0.14809941 -0.3371183 0.14050992
0003e0 8c b0 77 be 77 50 4c be 8c 1d 7c bd 36 3a 8a 3d
       -0.24188441 -0.1995257 -0.061551616 0.06749384
0003f0 ee b7 bc 3e 86 5a 49 3d 5c 9d 61 be dd 95 e3 bd
       0.36859077 0.049158596 -0.22032684 -0.111125685

dense1.bias f4 [64]
000000 1f 5d 41 3e d0 5a 2f 3e 86 5a 99 3e 12 8d ba 3e
       0.18883179 0.17124486 0.29951876 0.36435753
000010 14 25 77 3e ae 60 73 3e c3 23 5a 3e f1 df 92 3d
       0.24135238 0.23767349 0.21302705 0.0717162
000020 b7 d7 80 3d 58 78 cb 3d 23 b2 b9 3e 54 b8 74 3e
       0.06291144 0.09935063 0.3626872 0.2389844
000030 5c 2a 9b 3e 32 6c b5 3e 98 06 8b 3e 1c e1 a7 3e
       0.30305755 0.3543411 0.27153468 0.32788932
000040 af 92 91 3e e4 e0 e4 3d 3e 6c 98 3e e5 c8 7a 3e
       0.28432223 0.11175707 0.29770082 0.24490698
000050 a3 97 ca 3d 32 73 99 3e bb 7f b9 3e 7f 21 48 3e
       0.09892204 0.299707 0.36230263 0.19544028
000060 79 d5 56 3e 1d 17 a3 3e f7 9e 9b 3c 1f b3 b5 3e
       0.20979871 0.31853572 0.018996699 0.3548822
000070 5f 6c 37 3e e6 d6 2e 3e 88 6b 98 3e b5 fe 71 3e
       0.17912434 0.17074165 0.2976954 0.2363232
000080 f9 55 6f 3e 4a 00 8a 3e 19 c8 67 3e 94 f7 09 3e
       0.2337264 0.26953346 0.22634925 0.1347335
000090 d0 13 30 3e fe 55 87 3e 10 6f 91 3e 80 d4 a0 3e
       0.17195058 0.26432794 0.28405046 0.31412125
0000a0 17 e8 b6 3e dd 8f 0b 3e 16 d0 19 3e eb ef a7 3e
       0.35723945 0.13629098 0.15020785 0.3280023
0000b0 ab 4e 21 3e 41 a7 b9 3d e7 ac 97 3e a2 10 7c 3e
       0.15752666 0.09065104 0.29624102 0.2461572
0000c0 da 47 a1 3e 38 fe b1 3e f9 27 10 3e 9a 55 f8 3d
       0.3150013 0.34764266 0.14077748 0.12125702
0000d0 de 29 89 3e df 35 4f 3e 78 d1 9f 3e b9 fa 9e 3e
       0.26789755 0.20235394 0.312145 0.3105066
0000e0 ff c4 43 3e 7c 8c 44 3e 9f d1 37 3e 83 ba 89 3e
       0.19118117 0.19194216 0.17951058 0.2690011
0000f0 e2 3e 37 3e bd 81 a6 3e 2f 39 9b 3e 7d df 40 3e
       0.17895082 0.32520857 0.30317065 0.18835254

dense2.weight f4 [2, 64]
000000 ea bc f9 be fb 90 4b 3f 9f f7 b6 be c3 d9 92 3e
       -0.48776942 0.795181 -0.35735795 0.28681764
000010 1e 36 16 bf 5c e0 9b 3e 1e c1 d2 be d1 02 a0 be
       -0.58676326 0.3044461 -0.41162962 -0.3125215
000020 cb 83 40 3f d7 4b df be 02 da f4 be 2b 3c 36 3f
       0.752011 -0.4361255 -0.47822577 0.7118556
000030 6c 3a db be 4a 11 0d bf 71 03 39 bd 06 29 8f 3e
       -0.4281801 -0.55104506 -0.045169298 0.27960986
000040 8e df b9 3e d7 ec 24 3f 87 88 16 bf 29 8b f9 be
       0.3630337 0.6442389 -0.58802074 -0.48738983
000050 ec ac 94 3e e9 4b 18 bf cb d1 40 3e 78 56 03 3e
       0.2903818 -0.5949083 0.1883003 0.12825954
000060 44 d3 fb 3e 16 d4 29 3f f3 70 f4 be 65 3d d6 bc
       0.4918462 0.6633924 -0.47742423 -0.026152322
000070 e4 38 de 3e 90 63 f4 be 89 85 48 3f 1a 32 29 3f
       0.4340278 -0.4773221 0.7832876 0.66092074
000080 c3 6b f0 3e 68 de cd be 0b 8d a7 bd 63 50 2d 3f
       0.46957216 -0.40208745 -0.08181199 0.67700785
000090 16 24 44 3e f3 f7 1b bf c3 ba 2d bf 58 2c d0 bd
       0.1915439 -0.60925215 -0.678631 -0.10164708
0000a0 0c 36 2a 3f a4 1e 3f bf 4c 6d 2a 3f 48 9d e6 3e
       0.6648872 -0.7465613 0.66573024 0.4504187
0000b0 d1 cd db be d6 0e 13 bf 8d 8a 44 3f de 5f 01 bf
       -0.42930463 -0.5744451 0.7677391 -0.50536907
0000c0 59 85 c0 be 52 36 0e bf 33 15 23 bf 48 63 e3 3e
       -0.37601736 -0.55551636 -0.6370422 0.44411683
0000d0 a0 a9 82 3d 21 94 cd be c9 d1 20 3f 01 ea 79 be
       0.0638001 -0.40152076 0.62820107 -0.24405672
0000e0 02 9c 1c 3f d2 68 1f bf 8f 72 c5 be 4f a1 13 bf
       0.6117555 -0.6226932 -0.38563964 -0.5766801
0000f0 d6 71 02 3f ca 16 0f 3f 40 20 19 bf 30 c4 31 bf
       0.5095495 0.5589415 -0.59814835 -0.69439983
000100 70 04 f3 3e ba 43 5c bd b7 ab 2a bf 28 fb 22 3f
       0.47464323 -0.053775527 -0.66668266 0.63664484
000110 fe 31 1c 3e 88 d6 3e bf 0a 8e 08 3f ce 24 14 3f
       0.15253446 -0.745461 0.53341734 0.5786866
000120 ca 89 ed bd 18 75 9e 3e 4f 73 74 3e f2 ec d9 be
       -0.11598547 0.3094871 0.23872112 -0.42563587
000130 d0 04 26 bf 65 89 17 bf 8b 00 55 bf 3d 27 38 bf
       -0.64851093 -0.5919402 -0.83203954 -0.7193487
000140 00 15 2b bf bb 50 bd 3e 84 90 dd 3e 24 7a 2b bf
       -0.6682892 0.36975655 0.4327432 -0.66983247
000150 a4 85 2f 3f 0b 16 d8 3c 6d c1 16 3f 8a e9 1f 3f
       0.68563294 0.026377698 0.58888894 0.6246573
000160 81 f6 f2 3e f4 02 5b 3e 7e 0a fb 3e 83 27 24 3f
       0.47453693 0.21387845 0.49031442 0.6412279
000170 ca b2 2e 3f ee ae 9d 3e fd cc ba be d2 38 70 3e
       0.6824156 0.30797523 -0.3648452 0.23459175
000180 92 55 f0 3e c7 f9 d2 3e fe 62 22 3f 59 09 37 bf
       0.46940285 0.4120619 0.634323 -0.7149864
000190 27 4f 31 3f a3 fa e6 be f8 ba 9d bc 3b 39 53 bf
       0.692614 -0.45113096 -0.019254193 -0.825092
0001a0 5c 2d 83 3e 74 52 ed be 99 ee e7 3e 03 8c 22 bf
       0.25620544 -0.4635197 0.45299223 -0.6349489
0001b0 2d b9 f9 3e 7f 2a 90 3e f0 e9 ec 3d 7d c7 d6 be
       0.4877409 0.28157422 0.115680575 -0.41949072
0001c0 ee a6 48 bf ba f8 f7 be 4b ee 62 3e ac ec 09 3f
       -0.78379714 -0.4843195 0.22161214 0.5387676
0001d0 b0 43 18 3f 1d 53 1a 3f 2d 04 1d 3e db 73 3e bf
       0.5947828 0.6028307 0.15333624 -0.7439553
0001e0 7f 1e 22 bf 5e c6 92 bd cc a6 31 3f 6b 63 9f 3e
       -0.63327783 -0.07166742 0.69395137 0.31130537
0001f0 8d 7e 35 bf bc 63 32 bf 55 2c 5e be 89 5e c6 be
       -0.70896226 -0.6968343 -0.21696599 -0.38744

dense2.bias f4 [2]
000000 1a b0 36 bc 52 73 8d bb
       -0.011150384 -0.004316726
