cpa_weights_AR1.pth (torch, 89591 bytes, 8 tensors)

mem_LSTM.weight_ih_l0 f4 [256, 2]
00000000: c750 af3c e6f3 bbbc a8b6 eb3d a0a4 e7bb
00000010: ee28 52bc e332 0cbd a1f6 8ebd 3218 853b
00000020: da06 ba3c 8f42 cfbd a68c 153b f0ee d9bd
00000030: 38b9 893c c989 d83c bbe5 333c 9839 ba3d
00000040: 9139 01bb f947 253e 97ba d7bb b77b 043d
00000050: 108a cbbc 103f 4c3c 9b2b 00be b721 62bd
00000060: bddd 6cbd dbb0 9ebd 4152 a9bc 2fa3 29bd
00000070: 1db2 04be a9b5 b43c c073 d8bc 3329 b63c
00000080: 882d 733d 09e8 683c 9b1f 253e aa66 5abd
00000090: 464d 023d 20b2 e63b 7f6d c7bc 7af6 debd
000000a0: 5042 e73d a343 663d 0516 18bd 7573 40bd
000000b0: 8f0a d83c 7aba b8bd 6a4e 46bd 2ed3 26be
000000c0: 7c44 78bd 8b33 b33d 07b1 dbbd db09 debc
000000d0: 2363 a13c 2725 ec3b 0574 48bd c422 f83a
000000e0: 518b adbb 43f1 1cbd cf31 df3d 3eeb 183c
000000f0: 34fd f13c a66f 85b9 d076 a3bb 7c48 db3c
00000100: c9fe 37bd 7ac0 5d3d 7534 b93c 4cf4 c8bb
00000110: e967 e43c fcd2 88bd 9791 bc3d b402 1d3c
00000120: 51fa 29bd 7bb0 cb3d 95aa df3c 55d3 c7bd
00000130: 9351 e6bb b9fa 35bc b916 84bc 3cd4 f2bc
00000140: fd37 af3b b674 983d 409d 83bd 34ff fa3c
00000150: d7be 923c e854 90bd 550a d8bc 8f2e 1b3e
00000160: 20bb 38bd 7edb 473c cf54 4b3c f2f3 363e
00000170: 3849 f0bc 8e0e 283e 3313 75bd fc3e fd3c
00000180: a65e 083d 0cd1 023d 85ed 1cbe ed49 eb3b
00000190: 3031 9e3c cdd3 ab3b 73b8 db3d 0ea6 1f3b
000001a0: 83e4 30bd 3351 1738 f0d2 143c aae4 babc
000001b0: 4498 bcbc dce8 67bd 3b53 9c3d c05a 953b
000001c0: ca2e 65bd f0e9 1b3c 3117 6d3d d8fd 22bb
000001d0: 4e9b 373d 6cd8 513e a2cb 5bbd c916 2c3d
000001e0: 2fc4 8d3c 1093 a8bc 72c1 5839 a3b1 23bd
000001f0: 737a a63d b9d7 01bd dbc7 50bd 7b9f 043a
00000200: 4c6a 93bd 8f65 023d f017 ad3d e9b8 4ebc
00000210: e4f1 303b 2ecf 833b 796a d73c 6e17 26bd
00000220: bc1b 353d fbd8 25bc f606 7cbc 1d74 a8bd
00000230: e1e6 a3bd fd76 223d 25f8 e93d 9089 d1ba
00000240: 0802 bc3b e855 f4bd 9ee6 cf3b 4f05 863d
00000250: fdf1 40bd 8c21 9a3b b21a 85b9 11e3 af3d
00000260: 90d1 8ebd fbd3 b8bc 9ac9 143c 5796 11be
00000270: 56d6 893c d941 38bd 80d9 ed3c 732f 683c
00000280: e9f6 c5bc ee8b 9bbd 4154 fb3d 083d 8c3d
00000290: 7f69 50bd 7b2c 023c 1ab0 25bd 3979 10be
000002a0: 2cf0 bfbc af77 5b3c c1e4 8bbd d462 283e
000002b0: 6e20 97bd bd79 31bd 7f24 86bc aadd 80bc
000002c0: ea10 2a3c 7c4a 72bc 470e fdbc 5d68 9f3d
000002d0: 27b6 e0bb 1ada 14bd 7069 b93d 5476 ebbc
000002e0: dc60 2dbc ff66 c0bc 2eab bf3c e447 7e3c
000002f0: f202 cb3d 95d9 62bc 6e59 683c 7e62 0a3b
00000300: 6caf 9d3d e6ba d9bd 8e3f 0d3e aa02 c9bc
00000310: 9e37 dd39 802b 343e d383 6c3b c0f2 883a
00000320: 1fd8 aebc 8e8a 9d3d e5a5 09bd f3bb af3c
00000330: 2c16 4b3c dd3a bfbc 2c1b 243d a7c8 e3bc
00000340: 358e 393c a8d3 a03d 4ed8 85bd dcb5 923b
00000350: 3215 dfbc 7e67 a0bc 6273 093d 197c 813c
00000360: 8071 3c3d 6bd6 8fbd dbe9 f0bc 39f8 843c
00000370: 2db3 343d 36b8 c13d 5a9f e1bc 97a5 8fbc
00000380: b973 be3d 8db7 223d d867 d1bc 8ee2 04bc
00000390: 19d3 4e3c 5934 cb3b 68a7 38bd fbc2 3abd
000003a0: 8cda 9f3c a309 71bd 88db 123e ee75 d93c
000003b0: 2a2b b4bb b8b4 a7bd 60de 683d b1e6 8fbc
000003c0: 8004 c1bd d79b 2d3b 2da1 983d 5fbd ea3b
000003d0: c612 223c 1d25 e93c a89c af3c 62d9 fb3d
000003e0: dbff eebb 7bdd b93c 2b5d 683d 46a9 21bd
000003f0: 9378 5e3d 650e c53d 5240 5238 e119 bfbb
0.021400822 -0.022943448 0.11509448 -0.0070691854 -0.012827141 -0.034228217 -0.069806345 0.004061722
0.022708345 -0.10120117 0.0022819429 -0.10641277 0.016811952 0.026432889 0.010980065 0.090930164
-0.001971815 0.16140737 -0.0065835225 0.032344546 -0.024846107 0.012466207 -0.12516634 -0.055207934
-0.057828654 -0.07748576 -0.020669105 -0.04141539 -0.1295857 0.022059279 -0.026422381 0.022236442
0.059369594 0.014215478 0.16125338 -0.053320564 0.031811975 0.007040277 -0.024344204 -0.108868554
0.11291945 0.056216847 -0.037130374 -0.04698511 0.026372222 -0.090199426 -0.048414625 -0.16291496
-0.060612187 0.087500654 -0.10727125 -0.027104309 0.019700592 0.0072065773 -0.04893877 0.0018931259
-0.005296149 -0.038316023 0.10898172 0.00933343 0.029539682 -0.0002545092 -0.004988529 0.026767962
-0.044920716 0.054138638 0.022608021 -0.006132638 0.02788158 -0.06680867 0.092074566 0.009583164
-0.041498486 0.0994577 0.02730302 -0.09757105 -0.0070287674 -0.01110714 -0.016124116 -0.029642217
0.0053472505 0.07444136 -0.064264774 0.030639268 0.017913265 -0.070474446 -0.026372114 0.1515448
-0.04510033 0.012198327 0.012410357 0.17866495 -0.029331788 0.16411802 -0.059832763 0.030913822
0.03329339 0.031937644 -0.15324982 0.0071804435 0.019310564 0.0052437545 0.1072854 0.002436045
-0.043186676 3.6076828e-05 0.009083495 -0.022814114 -0.023021825 -0.056618556 0.076330625 0.0045579374
-0.055952825 0.009516224 0.057883445 -0.002487054 0.044825844 0.20492715 -0.053660996 0.042013917
0.017305462 -0.020577937 0.00020671429 -0.03996433 0.08128824 -0.03169987 -0.050971847 0.0005059165
-0.07198009 0.031835135 0.08451831 -0.012617328 0.0026999647 0.0040225005 0.026295887 -0.040549688
0.044215903 -0.010122533 -0.015382519 -0.08225272 -0.08003021 0.039664257 0.11424283 -0.0015986431
0.005737547 -0.11930448 0.0063446304 0.06543981 -0.047105778 0.004703706 -0.00025387626 0.08588231
-0.069735646 -0.022562018 0.009081269 -0.14217506 0.016825836 -0.044984672 0.029034376 0.014171469
-0.024165587 -0.07595049 0.122719295 0.06847578 -0.05088186 0.007945175 -0.040451147 -0.14108743
-0.023429953 0.013395234 -0.06830741 0.1644395 -0.07379232 -0.04332899 -0.016374825 -0.015730698
0.010380009 -0.014788266 -0.030890597 0.077835776 -0.0068576518 -0.03634081 0.09053314 -0.028742947
-0.010582175 -0.023486612 0.023397055 0.01552007 0.09912671 -0.013845821 0.014181478 0.0021115835
0.07699475 -0.10631351 0.13793775 -0.024537403 0.00042193843 0.17594719 0.0036089316 0.0010448322
-0.021343289 0.07692443 -0.033605475 0.021451926 0.012395423 -0.023343498 0.040064976 -0.02780564
0.011325409 0.0785287 -0.065353975 0.0044772457 -0.027231786 -0.019580599 0.033557303 0.015806245
0.04600668 -0.07023319 -0.029408386 0.016231643 0.044116188 0.094589636 -0.027541805 -0.017535014
0.09299416 0.03972583 -0.025562212 -0.0081106555 0.012623572 0.0062013087 -0.045081526 -0.045596104
0.019513391 -0.05884708 0.14341557 0.026545491 -0.0054983096 -0.08188766 0.0568527 -0.017566057
-0.094246864 0.0026490593 0.07452617 0.007163688 0.009892171 0.02846008 0.021437004 0.12297322
-0.007293684 0.022688618 0.056729477 -0.039468072 0.054314207 0.09621886 5.0127805e-05 -0.0058319424

mem_LSTM.weight_hh_l0 f4 [256, 64]
00000000: 065c 433e f01d aebc d53b 68bc 4369 b6bd
00000010: 00c9 1c3d d3aa 033f 0223 2ebe 82a8 073d
00000020: ab54 91be 855a 36be b452 4abd 76f9 013e
00000030: 74bc ec3b 3e26 7abe d87f 83bd a4b8 19be
00000040: 0ea5 6f3e e6b0 86bd 41e0 503e a390 8ebc
00000050: 7858 483e 3cf4 363e 4bb3 253c 6773 1a3d
00000060: d110 69be 02e4 c2bc 0d14 e23b fe4a 273d
00000070: 39bd 823e 87bd 48be 3dba 09bf 2653 0fbe
00000080: f5f4 55bd f4ed 22be 9db1 0c3d 0175 28bd
00000090: 2254 1dbd 5c26 fdbb 026d 4ebe 90c2 ad3d
000000a0: 1e7b e1bd 1797 70be 08e1 8f3d 86dc d3bd
000000b0: ca8b a1bd d439 e33d aaa0 bbbd 05e3 fbbc
000000c0: db59 b8bd 0a6c 9b3d 5f0e dcbd ba29 d4bc
000000d0: b481 ce3d 79e4 b5bc 3749 1bbd 3772 11be
000000e0: c3d9 39bd d2a0 07be 449c 273e 894c cabb
000000f0: 5ecc 8c3d c3f0 433e 43f1 6dbe 7fa9 1ebe
00000100: 8d76 67bd a2eb 48bf e259 a7be b24b 363e
00000110: 50ed fb3e 80c1 a73d 5b2a bebc 7ebb 9f3c
00000120: 82af f53d 9b23 1a3d 9210 363c 7abd 833e
00000130: f627 f9bc 3c20 543c 3420 07bd fbc3 ec3d
00000140: 3df3 103e c063 8dbe 7a85 ba3e fcd2 573e
00000150: b067 8ebd 08e6 7a3e 133c 87be fa72 163e
00000160: cf95 043d dd21 80bd 667f 6fbd 0d72 c4be
00000170: c118 0d3d ad72 f5bb c602 32bd 6329 fb3c
00000180: 503d f23e cea9 e3bd 6655 5c3e 4100 17bf
00000190: 5e27 50bb 43ef b93c 1e9b b2bc b6ac 1cbe
000001a0: fdb5 653d c8b7 953e 0538 7d3d e66d a9bc
000001b0: cd33 b5bd 40b5 2c3d 8335 483e 25f4 0dbe
000001c0: aeed 41be dfa1 c83d d421 563f 128b b2bd
000001d0: f958 453e 3301 513e 8aee cd3d 941e 96be
000001e0: 3dcf b1bc 6622 803e 6222 873d f1fa 4c3e
000001f0: a0e8 2e3c 8fc1 693e a5bc 973d b062 103f
00000200: b381 6fbe c956 773f cf40 db3e 52ec 363e
00000210: 68fb 473e 5d9a dfbe d756 a43e c980 c8bd
00000220: b60a 903e d228 91bd 7121 37be e25b 823e
00000230: 0a07 90be a2d7 013d c224 4b3e 4cc6 ea3d
00000240: 29a8 e6bc 6650 85be c4ea cd3d 0ad3 2f3e
00000250: 7ad7 573e 477d 6f3d cb5c b0bc 0bac 8d3a
00000260: c951 233e 9166 25be 45d2 34be e957 f9be
00000270: 6771 8abd 2075 a3bd 3ec0 243f 2e77 423e
00000280: 50ee 043d e1bb 4cbe 9ce6 a93d 3e44 783d
00000290: 37e4 b63e 568f ef3d 9c6d 19bd 6296 973c
000002a0: 0313 0ebe 97ba 373e 14d2 743e a1ef dc3c
000002b0: 9938 00bd 3cbf 85bd 01a5 5f3e 3381 c1bd
000002c0: 9f48 3d3e ebf8 433d 4ea1 70bd eba2 433d
000002d0: 1479 113e cf68 8e3e efa8 c53c 683c 43be
000002e0: 48b7 5e3f 9c77 a4be a9a4 9bbd 398e 793d
000002f0: 5a0f 103e 2493 c23d 9c4e f03d 2b72 a93e
00000300: 113b 61bd 0b93 2ebe daeb 9abd 8dbf 48be
00000310: a8b8 07bd 721c 8ebb 81ae 16bd e9ce 1ebd
00000320: 9ebd aa3d b278 36bd 142c 25bd 5497 62be
00000330: 6837 b13b 6b42 9bbd 78f7 1b3e 3990 1dbe
00000340: aee7 47bd d619 253d cc0c 033c 3451 34bc
00000350: b506 26bb 1b07 c33d 4f36 bebd 74a8 6d3e
00000360: 4ec3 1a3e d7ee c9bd 3a78 4ebd 7b54 4b3e
00000370: 95b9 cd3d 20e7 9abd 0627 3ebd 13b7 8bbd
00000380: d83c 943e 4dfa 00be 691e 413d 729f 913e
00000390: 1be7 2f3e e53e 0c3c 1889 a23c c4f6 9abd
000003a0: 8d04 3cbe bf7c 593d f935 8b3d e213 3ebe
000003b0: eb0d 823e 62fc c8bd 7e3f 683e 7799 09be
000003c0: 8a04 413d 4304 3f3e c29e 923d 6e62 f1bd
000003d0: 90b1 a7bd 9ac0 803e 9271 fabc 6768 1abe
000003e0: 4900 84be 86f4 43bd ed35 723e ac8f 7cbd
000003f0: 861b bfbc 863b adbd ccc9 aabd 2855 753d
0.19078073 -0.02125451 -0.014174421 -0.08906796 0.038277626 0.5143253 -0.17005542 0.033119686
-0.2838491 -0.17807968 -0.049395278 0.12692818 0.007224614 -0.2442865 -0.06420869 -0.15011841
0.23402807 -0.065767094 0.20398046 -0.017402953 0.19564998 0.17866606 0.010113548 0.037707713
-0.22760321 -0.023790363 0.006899363 0.040843002 0.2553499 -0.19603549 -0.537998 -0.13996562
-0.052235562 -0.15911084 0.034349073 -0.04112721 -0.038410313 -0.00772552 -0.2015877 0.084843755
-0.11009811 -0.23495136 0.07025343 -0.10344796 -0.07887991 0.11095014 -0.091615036 -0.0307479
-0.090015136 0.07588966 -0.107449286 -0.025898803 0.10083333 -0.02220367 -0.03791162 -0.14203726
-0.04537369 -0.13244942 0.16368204 -0.0061736745 0.068749174 0.19134812 -0.23236565 -0.15494345
-0.056509543 -0.7848455 -0.32685763 0.17802313 0.49204493 0.08191204 -0.023213556 0.019498583
0.11996366 0.037631612 0.011112349 0.25730497 -0.030414563 0.012947138 -0.032989696 0.11560818
0.14155288 -0.27615166 0.3642996 0.21076578 -0.069533706 0.24501812 -0.2641302 0.14692298
0.03236943 -0.06256459 -0.058471106 -0.38368264 0.034447435 -0.007490477 -0.043459676 0.030659383
0.47312403 -0.11116372 0.21516952 -0.5898476 -0.0031761746 0.022697097 -0.021802481 -0.15300259
0.05608176 0.29241776 0.061821003 -0.020682286 -0.08847771 0.04216504 0.19551663 -0.13862665
-0.18938324 0.097964995 0.8364537 -0.08717932 0.19272222 0.20410614 0.10055263 -0.29320204
-0.021705264 0.25026244 0.06598355 0.20017602 0.010675579 0.22827743 0.07409028 0.56400585
-0.2338932 0.966168 0.42822883 0.17863587 0.19529498 -0.43672457 0.32097504 -0.09790189
0.28133172 -0.07087864 -0.1788385 0.25460726 -0.2813037 0.031699784 0.1983824 0.114636034
-0.028156357 -0.26037902 0.100545436 0.17170349 0.21078292 0.058469083 -0.021528622 0.0010808719
0.15949167 -0.16152407 -0.17658336 -0.48699883 -0.06759911 -0.07981324 0.6435584 0.18990776
0.032453835 -0.19993545 0.082959384 0.060611956 0.3572099 0.11697261 -0.037458047 0.018504325
-0.1387444 0.17942272 0.23908263 0.026969733 -0.031303976 -0.06530616 0.21840288 -0.09448471
0.18484734 0.04784481 -0.058747582 0.047762793 0.14206344 0.27814338 0.024128405 -0.19066012
0.86998415 -0.32122505 -0.07599766 0.06092665 0.14068356 0.09500721 0.117337435 0.33094916
-0.05498797 -0.1704828 -0.07564516 -0.19604321 -0.033135086 -0.004336887 -0.036787514 -0.038771544
0.08336948 -0.044548698 -0.04032524 -0.2212804 0.0054082163 -0.075810276 0.1523112 -0.15387048
-0.04880493 0.040307842 0.0079986565 -0.011005688 -0.0025333588 0.0952284 -0.09287702 0.23208791
0.15113565 -0.09860008 -0.050407626 0.19856445 0.100451626 -0.07563615 -0.046423934 -0.06822028
0.2895267 -0.12595482 0.047148142 0.2844196 0.17178003 0.008559917 0.019840762 -0.07566598
-0.18361111 0.053097483 0.06797404 -0.18562272 0.25401244 -0.09813763 0.2268047 -0.13437448
0.04712347 0.1865397 0.07159187 -0.11786352 -0.08188164 0.25146943 -0.030571733 -0.15078889
-0.25781468 -0.047840618 0.23653384 -0.061660454 -0.023328554 -0.08458619 -0.08339271 0.059895664

mem_LSTM.bias_ih_l0 f4 [256]
00000000: a694 2f3e f888 d5be 03e0 e7bd 6279 a83e
00000010: 67ed 2dbe a077 0cbf 6024 c8bc b239 833c
00000020: 23e3 afbe 8e62 c9be 4bd7 b4be 1b99 10be
00000030: 7a32 74be b8d3 2d3e 966d 62be a7ba 943e
00000040: 04c5 aebe 3178 223f 80b2 19be 0058 c63e
00000050: 111e 6abe b96f be3f 7f66 173f 84f5 ad3e
00000060: 927f 25be 7f29 8c3e c66f 963b 4c91 f0bd
00000070: 6f53 14bf cdeb 00be 2c51 bf3c baff 7ebe
00000080: 5b4b 813f 8f96 773e 6882 b63f 3a02 a4be
00000090: febe 35be 33aa 51be 32a7 82be 7aeb 423e
000000a0: 5ae6 02bf c6cd 17be d486 6c3c 3bee a43c
000000b0: f1b6 af3e d356 29be caff 563e af35 443f
000000c0: d661 e9bd de14 273e fbad 4cbe 9f75 87be
000000d0: e3ab 05be 68af 853f 91f9 c1be ed0b 483e
000000e0: 1c94 a1be 9734 9abe 311b f5bc 8e57 9f3e
000000f0: eb0e c6be ada6 c73e 9804 16be 4876 98be
00000100: d280 e83d 342c 933d 4341 193e 0fb7 6d3e
00000110: 3de4 013e 7e86 073e 3785 393e a192 213c
00000120: 4dce 813d fc5d 3c3e ddcd 3f3e b393 e2bd
00000130: a3b6 a33d db4a 693d 2a79 4c3e a818 703e
00000140: b823 2c3d 3bef bf3c 39c3 043e 7463 db3c
00000150: 6818 48bc a9f0 b33e fe3e be3d 120f 903e
00000160: d305 403e 9895 c63e 2720 573e 520e 163e
00000170: 85e1 1dbd a0f3 d53d c89b f03e 6d83 003d
00000180: bb81 a03e c972 573e 84bf e93e 151d 1dbe
00000190: 916c 2c3e 2c0b 743e 25fd 313e 0c9e e43d
000001a0: 1f5c 8bbc 44a4 103e e70e ab3e 5a13 243d
000001b0: 3b5f b43e 6aa3 783e eb7b ac3d 5ff5 653f
000001c0: 9434 f03e 9c3e a53d 55ea 803e 5ecb bd3e
000001d0: 4b21 733e 1d8a de3e ab50 033e 0fb9 3a3e
000001e0: a7be 863e b10f 793e 681b a53e 9d16 303e
000001f0: 9d05 c23d 1f82 783e 4233 36bc fddd 803e
00000200: a8e0 0d3e cc95 e73c 78d5 373c d7d2 af3e
00000210: be8e f43c 12e1 2c3e 26e4 0a3f 3438 173d
00000220: 52a6 803d 9683 083e b595 2b3d 0209 213d
00000230: 9227 993d 8388 463e c0ee 223e 2f58 043f
00000240: 438c 6bbc 930d 063f 857c 223d 08b0 0cbd
00000250: 5bd8 d3bd 2338 d3bf 6327 3d3f 0d5a 95bf
00000260: 4a81 393d ec1d fe3e ebf7 8d3e 0fd4 f73c
00000270: cf66 0f3d 625d d23c e978 883e 3e4e 00be
00000280: d40a 9abf 18ae 453e 4f03 8fbf 827f 3bbe
00000290: 04e4 41be 34fc b4bb 1d88 e6bd bab8 26be
000002a0: 7174 a83d 6e36 943b 8996 f73d 889a 23be
000002b0: 79c6 b9be 25dd 5cbb 060d 15be 3e69 403f
000002c0: 33ca ce3d 3433 b3be 03ce 82bb ffd7 1f3e
000002d0: 2a06 8d3e 8ab4 8bbf c4e8 0a3e c989 833e
000002e0: f8f8 253e 0b60 803e cc8f 2fbe 42ab 5e3e
000002f0: 8141 643d 76cc 71be 33e8 debd b8b8 3dbe
00000300: 3d3d f63d b98f 2bbd 5bdc 2d3e d1ed 9c3e
00000310: aa79 443c 7b69 b83d 9fb9 4f3e 3d6e 1b3d
00000320: 3323 07bd 896a b93d 77cf 5dbd 0264 823c
00000330: afe9 463e 1c44 673d a9af 4d3e 6ba8 463f
00000340: 00f1 2abd 82a3 033e 72f7 923e 7066 bc3e
00000350: ecc1 983e 1da0 ae3e 836f 5c3e fce4 6b3e
00000360: 1a2e 453e 9f87 6a3e cb94 fa3d 22b9 053e
00000370: f902 5b3e 6378 233d 5313 783d f3f4 4d3e
00000380: 5be6 563e 90d1 c53e 1db2 c83f 11f0 763e
00000390: d23f 453e 2c95 c8bd 7284 c63c 611b 653d
000003a0: 9917 153f eb61 3fbd d603 be3e aa20 c1bc
000003b0: d80e e93d 841b 2fbd 725e 09bd 357f 723f
000003c0: d740 683d 8bf8 8c3d f6f2 1b3f f129 c83d
000003d0: 9ecd 533c 6623 6b3f 6e85 333f efcc 883e
000003e0: e861 ed3d 3838 513e 5a2b ae3d c65a 873e
000003f0: 9c32 2e3e 322f e93e 7421 663e 651c 8e3e
0.17146549 -0.4170606 -0.11322024 0.32905108 -0.16985093 -0.54870033 -0.024431407 0.016018722
-0.3435298 -0.39333004 -0.35320505 -0.14120905 -0.2384738 0.16975296 -0.22112116 0.29048654
-0.34134686 0.6346465 -0.15009499 0.38739014 -0.22863032 1.4877845 0.5914077 0.33976376
-0.16161945 0.2737541 0.004590961 -0.11746463 -0.5793981 -0.12589951 0.023354135 -0.2490224
1.0101122 0.24178527 1.4258547 -0.3203295 -0.17748639 -0.20475082 -0.25518185 0.1903514
-0.5113274 -0.1482459 0.014436442 0.020133128 0.3431926 -0.16537027 0.20996013 0.76644415
-0.11395614 0.16316554 -0.19988243 -0.26456925 -0.13053851 1.0444155 -0.37885717 0.195358
-0.3155831 -0.30118248 -0.029920192 0.31121486 -0.38683257 0.3899435 -0.1465019 -0.2977774
0.113526955 0.071861655 0.14966302 0.23214363 0.12684722 0.13234898 0.18117224 0.009861619
0.06338177 0.18395227 0.18730874 -0.11063328 0.079938196 0.056956153 0.19968095 0.23446906
0.04202625 0.023429504 0.12965097 0.026780821 -0.01221285 0.35144547 0.092893586 0.28136498
0.18752222 0.38786006 0.21008359 0.146539 -0.03854515 0.104468584 0.46993852 0.031375337
0.31348976 0.21039881 0.45653927 -0.15343125 0.1683829 0.23832387 0.17381723 0.111629575
-0.0170117 0.14125162 0.33409807 0.040057518 0.35228905 0.24281088 0.08422073 0.8982753
0.46915114 0.080685824 0.2517878 0.3706922 0.23743169 0.43464747 0.12823741 0.18234657
0.2631733 0.24322392 0.32247472 0.17196126 0.09473727 0.24268387 -0.011120619 0.25169364
0.13855231 0.02826967 0.0112203285 0.34340546 0.029853221 0.16882733 0.54254377 0.036918834
0.06281723 0.13331446 0.04189082 0.03931523 0.074782506 0.19388013 0.15911388 0.5169706
-0.014376703 0.5236446 0.039669532 -0.034347564 -0.10344001 -1.6501507 0.73888224 -1.1668106
0.045289315 0.49632204 0.2772821 0.030252485 0.035010155 0.025679294 0.26654747 -0.12529847
-1.2034554 0.19304693 -1.1172885 -0.18310359 -0.18934637 -0.005523229 -0.1125643 -0.16281405
0.082253344 0.00452309 0.12089259 -0.15976918 -0.36284235 -0.0033701148 -0.1455575 0.75160587
0.1009716 -0.35000002 -0.0039918437 0.1560974 0.27543765 -1.0914471 0.13565356 0.2569106
0.16208255 0.25073275 -0.17144698 0.21745017 0.055726532 -0.23613152 -0.10884132 -0.18527496
0.12023399 -0.04188511 0.1697859 0.3065019 0.011991898 0.09004494 0.20285653 0.03794693
-0.032992553 0.09053523 -0.054152932 0.015916828 0.1942508 0.05646144 0.2008654 0.77600735
-0.04173374 0.12855342 0.2870441 0.36796904 0.2983545 0.34106532 0.21526913 0.2303657
0.19255868 0.22903298 0.12235411 0.13058904 0.21387853 0.03990973 0.060565304 0.20112972
0.20986311 0.38636446 1.5679356 0.24115016 0.19262627 -0.09794077 0.024233077 0.055934314
0.5823913 -0.04672424 0.37112302 -0.023575146 0.11379784 -0.04275085 -0.033537336 0.9472535
0.05670246 0.06883343 0.60917604 0.09773625 0.012927441 0.9185089 0.7012547 0.26718852
0.1159094 0.20431602 0.085043624 0.26436442 0.17011493 0.4554382 0.22473699 0.27756038

mem_LSTM.bias_hh_l0 f4 [256]
00000000: da7f 0f3e 5a61 91be b329 66be d7b3 703e
00000010: 5bd3 77be fade 18bf cd64 25bd cbf9 bb3d
00000020: 5f16 8bbe be79 05bf 4dc0 c3be 8f87 9fbd
00000030: 7e59 99be edd8 ab3e e9c1 e5bd f24d 803e
00000040: 2cc5 77be cc5a ef3e 87f8 9abd 222c cc3e
00000050: bb4c 6ebe 6f35 b33f 8346 383f 1cb0 a33e
00000060: c76e 8fbe 59aa 8d3e 25fe 76bb 4343 86be
00000070: 5ad2 cdbe e568 37be 80d9 993c dd1d c5be
00000080: 7cd5 9e3f 4857 7e3e 3417 9e3f 3b8b 2fbe
00000090: 3144 8fbe a622 37bd 569b b8be 28a5 253e
000000a0: cea2 f3be 286d 04be a1f1 4ebd 1444 27be
000000b0: b3ce 783e cb66 7abe 5977 8f3e f3ab 5b3f
000000c0: a3b1 573c b876 713e 85b5 97be fba8 bebe
000000d0: 4e92 91be ceb9 8b3f a18f bbbe 7976 303e
000000e0: fb5d 44be c7d0 e6be 159e ab3c 46c8 b53e
000000f0: 274e c9be 43a1 ba3e 208d 7b3d 88b0 aebe
00000100: b227 983e 8648 d03d 3352 333e d36f 913e
00000110: b9f0 003e 84d7 ed3d 173f 543e 612d 24bb
00000120: 2e8a d63d 1441 433e 8da1 273e 7c3b 8e3c
00000130: 7254 683c 1a49 9f3d 5e88 3c3e 422e 4c3e
00000140: 93ab b63d 9fa9 ce3d 37a3 013e 809f a63d
00000150: b3f0 0d3e 57f9 e53e 2e8a 4d3d 6e8a 973e
00000160: 4dfa e13d 16d3 1b3f 433f 1c3e e0f9 bd3c
00000170: a49f fd3d 22a0 313e f4c8 ea3e 9265 6e3e
00000180: 50c7 7e3e b9be b33e 2d7b 1e3f d14b cebd
00000190: bd18 203e 5494 173e 8d5d ae3d 1e05 c43d
000001a0: 28d7 43bd b097 303e a78b ac3e aaa1 7d3d
000001b0: 1c27 e03d 2829 b93d a438 623e b5e5 353f
000001c0: f248 ab3e 96d2 273e 8607 713e c790 403e
000001d0: af04 8a3e 3749 c33e cc57 3b3e e862 fb3d
000001e0: 1e64 6f3e eb92 243e 8455 d13d adf5 1e3c
000001f0: 0351 143e 8aee ae3e 6c44 073d 9aab 2e3e
00000200: 0e27 443e e90b a6bd c86d 1cbe d1ce 093f
00000210: 8826 a83c 7cbe 303e 7401 b23e dcb9 573e
00000220: d384 3a3e ccb5 163e 8213 0d3e 9602 d13d
00000230: 50e8 123e 33fe 243e 41a9 8f3e 6664 e13e
00000240: 5157 923d 9fb2 223f 761d 2abe 3ea9 d03d
00000250: e45d 04bd 778c d9bf 3b04 573f 11e0 97bf
00000260: 3b89 503e 2a0a c33e 4bcc 1c3e 8804 55bc
00000270: 73fe 173e d9f3 bebd 8c3d 5b3e b4d4 d6bd
00000280: da9e 92bf 5cba 123e 7101 93bf e60b 6fbe
00000290: b3d6 c9bd b61c b1bc 9a54 143d 2fb5 6f3d
000002a0: 4e61 0e3e 8388 8f3c 7050 eb3d f606 8fbd
000002b0: 90f3 0fbf adc0 e4bd 2cb9 27be 34eb 433f
000002c0: e1e9 683e 3208 d5be 514e 8a3d ef1c 883e
000002d0: 6b12 703e 63e0 83bf d326 853d af5c 683e
000002e0: d82c 333e 8276 4b3e 4600 83be c569 183b
000002f0: e427 ed3c a8ec 78be be41 13bd 9803 8dbd
00000300: 4aef 823e e102 bebc b418 933e deb6 7a3e
00000310: cece 9fbd cde7 7c3d c83e a83e cd53 ad3d
00000320: da59 01bd 0b72 da3d 9b31 e13d 1383 1ebe
00000330: cacd 993d 281e 3f3e 99d2 543e 431b 1b3f
00000340: 6cb9 273e 0eb3 6d3e 9a16 953e ecc5 bd3e
00000350: 0eca b93e ebbf a83e 61df dd3d 9936 a03e
00000360: 8818 44bc 6a1f 853e 638f b53d 7b94 a73c
00000370: 95e7 873e 0860 653e efcb 5b3d 7f5f 443e
00000380: edef 573e b261 c73e a78a d03f 4f8e 063e
00000390: 12cf 0a3e c97d 053b 8fac e33d 038f 35bc
000003a0: 25df fe3e cdf2 84bd 7b9e 3b3e 3c04 9c3d
000003b0: b318 153e a447 333d 1950 073e 8389 7e3f
000003c0: 23d3 41bb b3a2 1d3d 4ce8 153f 8ef6 043e
000003d0: a9d8 d83d 6026 6d3f a85d 213f 614d 673e
000003e0: 8cfd 9bbd 47ce 823e bda7 5abc 551d 533e
000003f0: eef2 253e de28 133f 8eb0 6b3e 3176 a13e
0.14013615 -0.28394586 -0.22476844 0.23506103 -0.2420172 -0.59715235 -0.040379334 0.091785036
-0.27165505 -0.5213889 -0.3823265 -0.077895276 -0.2995109 0.3356394 -0.11218626 0.25059468
-0.24196309 0.4674896 -0.07566934 0.3987742 -0.23271458 1.4000682 0.7198259 0.31970298
-0.28014204 0.27669027 -0.0037688103 -0.26223192 -0.40199548 -0.17911108 0.01878047 -0.38499346
1.24089 0.24837983 1.2350831 -0.17142956 -0.27981713 -0.044710778 -0.36056012 0.16176283
-0.47585148 -0.12932265 -0.050523404 -0.16334563 0.242976 -0.24453275 0.28020743 0.8580925
0.0131649105 0.23580444 -0.29630676 -0.37238297 -0.28431934 1.0916078 -0.36633018 0.17232694
-0.19176476 -0.4508116 0.020949403 0.3550436 -0.39317438 0.36451158 0.061413884 -0.34119058
0.29717785 0.10170083 0.17511825 0.28405628 0.12591828 0.11613372 0.20727192 -0.0025051462
0.104755744 0.19067794 0.1637022 0.017362349 0.01418029 0.07777615 0.18411395 0.19939521
0.08919444 0.100909464 0.12659918 0.08135891 0.1386135 0.44916794 0.050180607 0.295978
0.11034069 0.60868967 0.15258507 0.023190439 0.12383965 0.17346242 0.4585644 0.23280933
0.24880719 0.35106447 0.619067 -0.100730546 0.15634437 0.14802676 0.08513937 0.095712885
-0.04781261 0.17245364 0.33700296 0.061921753 0.109449595 0.09041053 0.22091919 0.7105363
0.3345409 0.16388926 0.23538026 0.18805228 0.26956698 0.38141796 0.1829521 0.12274724
0.23378035 0.1607167 0.10221389 0.009702128 0.14484029 0.34166366 0.033024237 0.17057648
0.19155523 -0.081077404 -0.15276253 0.538312 0.020526186 0.17260164 0.34766734 0.21066993
0.18214731 0.14717788 0.13776973 0.10205571 0.14346433 0.16112594 0.28058818 0.4402191
0.071455605 0.63553804 -0.16612801 0.101885304 -0.032316104 -1.6995991 0.8399083 -1.1865255
0.2036485 0.38093692 0.15312307 -0.013001569 0.14843158 -0.09323854 0.21410197 -0.10489789
-1.1454728 0.14328903 -1.1484815 -0.23344383 -0.09855404 -0.021620136 0.036213495 0.0585224
0.13904306 0.017521149 0.114899516 -0.069837496 -0.5623102 -0.111695625 -0.16379231 0.76530766
0.22745468 -0.41607815 0.06753219 0.26584575 0.23444526 -1.0302852 0.06501546 0.22691606
0.17497575 0.19869426 -0.25586146 0.0023256403 0.028949685 -0.24309027 -0.03595137 -0.06885451
0.25573188 -0.023194732 0.28729784 0.24483821 -0.07803117 0.0617445 0.32860398 0.08463249
-0.03157983 0.10666283 0.109957896 -0.15479688 0.07509954 0.18663847 0.20783462 0.60588473
0.16379327 0.23212835 0.29118806 0.37065065 0.36286968 0.32958922 0.10833622 0.31291655
-0.011968739 0.2600053 0.088652395 0.020456543 0.2654387 0.22399914 0.053661283 0.19177054
0.21087618 0.38941723 1.6292313 0.13140224 0.13555554 0.0020369163 0.11116897 -0.01108146
0.4977962 -0.06491623 0.18322174 0.07617995 0.14560203 0.043769494 0.13214149 0.99428576
-0.002957531 0.03848524 0.5855758 0.12984678 0.105882 0.9263668 0.63033533 0.22588111
-0.076167196 0.25548002 -0.013345656 0.20616658 0.16205952 0.57484233 0.23016569 0.31535485

dense1.weight f4 [64, 64]
00000000: c528 a73e be99 82be abec 91bd bf6d 3bbe
00000010: 6475 363c f0c1 973e 3402 99bd 9834 94bc
00000020: 621d 94bd 1d56 43be 77cc 1dbd 698d 78bc
00000030: d730 31be 9ce5 08be 20a3 3dbe b006 b2bd
00000040: 0ef0 543e 44ab 37be 9525 a03d 8ce9 31be
00000050: 2cdd 7b3d 49aa 2fbe 3cce 8cbc 8d33 94be
00000060: fc1f 91bd 6d08 653d 6da3 f23c 4ab4 fcbd
00000070: 7a6f 483e 72ba 1b3d 7181 3cbe 9ce6 ebbb
00000080: abb8 25be e9e2 e7bc 7e3b 6ebe cd03 183e
00000090: 87f3 8b3e 1afa 1dbe f537 b6bc 550e 9d3d
000000a0: dd42 bebe 91f6 24be 2db6 c8bb 5a45 603e
000000b0: 9392 2d3e fb14 0bbe 6198 84bd 7a41 773d
000000c0: 2387 acbc 9b67 703d 27d1 373e 356e 813d
000000d0: 36b3 0ebe 8fb4 e6bd 63cc 04be 220d 533e
000000e0: 29d5 193e 1884 3b3e 6aee 793c ddaa 8abe
000000f0: 4b82 5f3e 1d09 d0bd 4202 efbd 0c9f 1c3e
00000100: ec9d dc3d 5349 a33e a4db 803e f223 953e
00000110: 970d a6be b5ea 243e 4796 efbc 6401 403e
00000120: c4f1 85bd c2c1 0cbe 4d26 cc3e 135a 99be
00000130: 67cb 8b3e f02c d43d fc1b ba3d 8a43 60be
00000140: cb8b 093d 1703 7d3e 0cc8 84be 7a51 7a3d
00000150: fd80 9abd e3f1 74bc aac1 173d b31f 8abe
00000160: ca47 3b3e 11aa 863e 90a4 6b3e a529 833d
00000170: a5bc 37bc cdb1 233e 0787 423e f81a 3e3d
00000180: b1fc d93b c48e f93d 529c 01be 2fbd 1b3e
00000190: 31e2 9bbe 862c b8bd 443c e13d 45b3 bb3c
000001a0: 52dc 22be 693e 7ebb 2947 06be ea6d 033d
000001b0: 9e6e 253e 4f06 f83b f55c 0cbe aec1 183e
000001c0: 0f22 dcbd 0750 b1be 9dcb 1cbf 8ba6 16be
000001d0: c7b8 1a3d f14a 16bd faff 05be 82f0 963e
000001e0: c854 eebd a21f e7be 5fef d93c 70f8 b53d
000001f0: 23cd 0c3e 0364 ebbd c465 38be aafe 17bf
00000200: 8036 4dbe a62f 80bd 96e4 033e 2d6d 8cbe
00000210: 68c7 2bbe 4a3b 72be 656d b4bd dc05 213e
00000220: dcee fd3b b2ce 353e 5ea5 673d 5fb5 54be
00000230: 9431 42be d06d 503e 1ed7 19be 7469 cbbd
00000240: 8df1 44be 2a2e 293e a73d d23a 9e1d 90be
00000250: 4bbe 3bbd def9 61be 8c43 873e a639 e23d
00000260: 5334 94bc 4634 553e 45f7 673e 8cbe ecbc
00000270: 0f49 e4be af73 dd3d 0faf c4bd b66e a2bd
00000280: e6e5 093b 3b0c 613d 596c 86be 3ed6 c23d
00000290: e108 7abe c7f6 b33c b0cf 3f3e 931c 8ebd
000002a0: 4fd0 cd3e 6fbf 0a3d a53f 8bbe 8ec9 24bd
000002b0: 4c2d 29bd d752 593d da37 6a3e cb34 153e
000002c0: ea62 dbbd abda 12bd 9da1 853e b069 97bd
000002d0: 32df 66be 620e 2abe 9893 ba3e 6a47 133e
000002e0: 6353 2c3e 0303 563e 41f2 87be b613 4cbc
000002f0: c3c6 5fbe 7d2b 22be 2553 453e 27ea 153e
00000300: f3d9 1b3e 45a4 113e 0568 92be a34a 163d
00000310: 9d73 1abd ef7e 9d3e d3ac ec3c 8013 833e
00000320: 0a40 e5bd 9216 67be e0a1 203a b047 a63d
00000330: ce92 ea3d 6b6c 62bd c03b c63d 2d30 17be
00000340: c50d 013e e9a1 eb3d bc25 d9bc 231d 24be
00000350: 4250 3f3e cf27 213d 06c1 ed3c 81d2 27be
00000360: 712a 15be 495a 393e 2e0e 0b3e a05d c43d
00000370: 5bf6 6e3e ab2d 193e 435d bbbd 1c60 603d
00000380: 1630 23be b92e e03d feda 59bb 04c6 eabd
00000390: df29 1f3e 9e8b 903d 7cc1 0e3c d991 503e
000003a0: 613b fabe d9a2 a33c 81a9 353e e7ba 973e
000003b0: 6cba 823e 5eda 90be 9528 a5be 7ba2 113e
000003c0: 6d7a d9bb 9a6f 2fbe 89d9 83be 8914 3fbe
000003d0: 324a 99bd 9810 b6bd 8665 87be 15f9 0f3e
000003e0: c5a6 67bd ef11 8ebe 3a83 123e 3d3f 57bd
000003f0: f029 6f3e 435b 24bd ad15 acbd ea54 a9be
0.32648292 -0.2550792 -0.07125219 -0.18303584 0.011136387 0.2964015 -0.07471123 -0.018091485
-0.07232167 -0.19075818 -0.03852507 -0.015170434 -0.17303787 -0.13368839 -0.18519258 -0.08692682
0.20794699 -0.17936426 0.07819668 -0.17374247 0.061490223 -0.17154802 -0.017188184 -0.2894558
-0.07086179 0.05591624 0.029618943 -0.12339075 0.19573775 0.038019605 -0.18408753 -0.0071991216
-0.16183726 -0.028306441 -0.23264882 0.148452 0.27334234 -0.15427437 -0.02224348 0.07668749
-0.37160388 -0.16109683 -0.0061252327 0.21901456 0.16950445 -0.13582222 -0.064743765 0.060365178
-0.021060532 0.058692556 0.17950879 0.063198484 -0.13935551 -0.112649076 -0.12968592 0.20610479
0.1502272 0.18312109 0.015254596 -0.27083483 0.21827047 -0.10157988 -0.116703525 0.15295047
0.10772309 0.3189188 0.25167572 0.29128987 -0.32432243 0.16105159 -0.029246463 0.1875053
-0.06540254 -0.13745788 0.3987297 -0.29951534 0.2730362 0.10360134 0.09087369 -0.21900764
0.033580583 0.2470821 -0.25933874 0.06111286 -0.07544134 -0.014950248 0.037049927 -0.2697731
0.18289104 0.26301625 0.23011994 0.064044274 -0.01121441 0.15985794 0.18996821 0.04641244
0.0066524376 0.121854335 -0.12657288 0.15208887 -0.30446008 -0.08992867 0.10997823 0.02291263
-0.15904358 -0.0038794524 -0.13113083 0.032087244 0.16155478 0.0075691114 -0.13707335 0.14917633
-0.10748684 -0.3463137 -0.6124819 -0.14711969 0.037773874 -0.036692563 -0.13085929 0.29480368
-0.116372645 -0.4514132 0.026603399 0.08885276 0.13750128 -0.11493685 -0.1800757 -0.5937296
-0.20040321 -0.06259088 0.12880167 -0.27427045 -0.16775286 -0.2365543 -0.08809928 0.15724891
0.0077494215 0.17754629 0.05655419 -0.20772313 -0.18964225 0.2035439 -0.15023467 -0.09932223
-0.1923277 0.16521516 0.0016040102 -0.28147596 -0.045835774 -0.22067973 0.26418722 0.11046152
-0.018091356 0.20820722 0.2265292 -0.028899454 -0.4458699 0.108130805 -0.09603702 -0.07931273
0.002104157 0.054943305 -0.26254538 0.0951352 -0.2441745 0.021968259 0.1873157 -0.06939044
0.4019799 0.03387397 -0.27196994 -0.04023128 -0.041302964 0.053057518 0.22872868 0.1457092
-0.10712226 -0.03585307 0.26099864 -0.07393205 -0.2254608 -0.16607049 0.3644073 0.14382711
0.16828685 0.20899586 -0.26552013 -0.012455871 -0.21853165 -0.15836902 0.19269998 0.14640103
0.1521986 0.1422282 -0.28594986 0.036692273 -0.037707914 0.30760905 0.028891003 0.25600815
-0.11193855 -0.22567204 0.0006127637 0.08119142 0.11453782 -0.055279177 0.09679365 -0.14764471
0.12602909 0.11505491 -0.026507251 -0.1602674 0.1868296 0.039344605 0.029022705 -0.16388895
-0.14566971 0.18100847 0.13579628 0.0958817 0.23336165 0.14958827 -0.09148648 0.054779157
-0.15936312 0.10946412 -0.0033242102 -0.1146355 0.15543316 0.0705788 0.008713122 0.20368136
-0.48873428 0.019975113 0.17740442 0.29634783 0.25532854 -0.282916 -0.32257524 0.14222138
-0.0066369087 -0.17132416 -0.25751904 -0.18660177 -0.07484855 -0.08889884 -0.26444644 0.14059861
-0.05655553 -0.27748057 0.14307871 -0.052550543 0.23355842 -0.040126096 -0.08402572 -0.33072597

dense1.bias f4 [64]
00000000: a79f a63d 5f24 ea3d 700c 313e 6d5d 793e
00000010: 38b8 443e 0a2a 3c3e d3d1 833d 9d5b 1c3d
00000020: 857b 16be 6b21 463d 42f8 7e3e 0ec1 483e
00000030: e6ad 2f3e 9e90 573e 2b55 113e 2a31 933e
00000040: ec64 8d3e c13c 483d 7fbf 383e dc9a ec3d
00000050: d315 b33d ecc9 093e dede 553e 2541 1e3d
00000060: aa99 9a3d d9a9 813e e32e ec3c f00d 413e
00000070: 06c4 0d3e d546 5b3d f42c 773e 17bb 443e
00000080: 2e04 153e 4883 733e 0777 8f3d a281 b73d
00000090: b0e5 b63d 4e77 033e 8da4 f83d de1e 5f3e
000000a0: bf90 943e 94f9 623d 4504 393e 8582 9c3e
000000b0: 2094 ea3d 0976 0a3d e6c5 643e 7ff5 ca3d
000000c0: 7251 343e da38 2a3e 1d2c 533d 0e6c a13d
000000d0: 3280 2f3e a4e7 453d 1194 873e 2c2a 333e
000000e0: 7113 e73d ae7c 723d 5382 b53c 64e4 563e
000000f0: 44f3 213e 65dd 9e3e 9243 2f3e cc80 ec3d
0.0813592 0.114327185 0.17289901 0.24352045 0.19210899 0.18375412 0.06436505 0.038173307
-0.14695556 0.048371714 0.2489939 0.19604895 0.1715618 0.21051261 0.14192645 0.28748447
0.2761606 0.048886064 0.180418 0.115529746 0.08744397 0.13455933 0.20885798 0.038636345
0.0754884 0.25324896 0.028830951 0.18852973 0.13844308 0.053534348 0.24138242 0.19211994
0.14552376 0.23780549 0.070051245 0.08960272 0.08930528 0.1283848 0.121407606 0.21789119
0.29016683 0.055413797 0.18068035 0.30568328 0.11454034 0.033803973 0.22341117 0.09910106
0.17609194 0.1662325 0.05155574 0.07881938 0.17138746 0.048316613 0.26480153 0.17496556
0.11283005 0.059200935 0.02215687 0.20985562 0.15815455 0.31028286 0.1711562 0.115480036

dense2.weight f4 [2, 64]
00000000: 0bfa 3dbe 90d1 bc3e 9d8b 11be be64 4b3e
00000010: b096 80be ac83 173e 32e4 35be b5e7 d7bd
00000020: 1de4 c63c c02e 44be aea2 53be cd74 943e
00000030: 04b4 0abe 7661 88be d43c 0bbb ef68 333e
00000040: aeec 633e c317 9b3e e66f 88be e43f 67be
00000050: adb4 413e a028 a2be dd25 553c 8a78 733d
00000060: 5232 563e 4db8 9d3e 5601 60be 53f4 29bd
00000070: 7838 4d3e f0ab 8bbe 384e b03e 6ba5 873e
00000080: fbbf 8b3e f0a2 43be f5f5 81bd f5f5 a53e
00000090: 961d 393b fa03 83be 25c3 98be abeb 123c
000000a0: 03d1 893e f516 a7be 231d a13e 2b60 5f3e
000000b0: a058 85be 791a 9bbe a9c2 a63e 4d41 7cbe
000000c0: 8265 e8bd f813 82be 1753 9dbe 3d40 7e3e
000000d0: 2821 3d3d 7c22 7dbe bb69 863e 9301 25bd
000000e0: fdf3 993e 1aad 90be 3e44 60be 85c9 7cbe
000000f0: 3fc5 8f3e 72f1 813e 7abe 82be aadd 83be
00000100: 4996 813e 6f97 803d 9b08 a1be 6702 8f3e
00000110: 9fe8 7a3d 7a0d 88be 1a33 8f3e 863a 8a3e
00000120: 48f5 a0bc 21e3 373e ed6b e3bd fb46 5abe
00000130: e5c9 59be 2b60 8fbe 3657 bbbe 69bd 87be
00000140: 4b20 91be feff 733e 645e 733e 984a 98be
00000150: c581 8c3e 6061 fabd bd6b 813e de88 923e
00000160: 76ac 763e 0d9d e73d 4e3e 763e 966f 973e
00000170: 2489 8f3e 0c08 f03d f7b7 12be 7d53 113e
00000180: 56e1 443e c703 323e 2020 803e ba94 afbe
00000190: fa73 9d3e 6fb9 5abe 9be3 13bc f2b4 b4be
000001a0: fa5d 043e 61e1 2cbe 3b88 3d3e 7940 88be
000001b0: 39c9 523e 9fca 0b3e b5ba 313d 0314 5ebe
000001c0: 1cc8 b9be c082 43be d5a0 41bc 85fe 6c3e
000001d0: 0b25 823e c756 d83d d171 183d c25b 93be
000001e0: 6b88 17bd 6d11 c9bd 6440 8c3e 9bd0 1e3e
000001f0: 8682 b7be 0423 b0be 7c9b 36be 9ed7 09be
-0.18552415 0.36878633 -0.14213414 0.19862649 -0.25114965 0.14796323 -0.17762831 -0.105422415
0.024278695 -0.19158459 -0.20667526 0.28995362 -0.13545233 -0.26636857 -0.0021245973 0.17520498
0.22258255 0.30291566 -0.26647872 -0.22582966 0.18916579 -0.3167162 0.013009516 0.059441127
0.20917633 0.30804673 -0.2187551 -0.04149277 0.20041072 -0.27279615 0.34434676 0.2649339
0.27294907 -0.19105124 -0.06345741 0.32414213 0.0028246394 -0.2558897 -0.29836383 0.00896732
0.26917276 -0.32634702 0.31467542 0.21814029 -0.26044178 -0.30293635 0.3257039 -0.24634285
-0.11347486 -0.2540586 -0.30727455 0.24829192 0.0461742 -0.24720186 0.2625254 -0.040284704
0.3006896 -0.28257066 -0.21901032 -0.24686249 0.28080174 0.2537952 -0.25535947 -0.25755054
0.2530997 0.06278884 -0.31451878 0.2793152 0.061257 -0.26572782 0.27968675 0.26997775
-0.01964821 0.17957737 -0.111045696 -0.2131614 -0.21268423 -0.28003058 -0.36589974 -0.26511696
-0.2834495 0.23828122 0.23766476 -0.2974441 0.27442756 -0.12225604 0.2527751 0.28620046
0.24089226 0.11309252 0.24047205 0.2957732 0.28034317 0.11720285 -0.1432799 0.14192005
0.19226584 0.17384253 0.2502451 -0.34293157 0.30752546 -0.213598 -0.009026433 -0.352943
0.12926474 -0.1688285 0.18508999 -0.2661169 0.20584573 0.13651513 0.04339095 -0.21687321
-0.36285484 -0.19092846 -0.0118181305 0.23143966 0.25418887 0.105634265 0.03721792 -0.28780943
-0.036995333 -0.09817777 0.27392876 0.15509264 -0.3584177 -0.34401715 -0.1783275 -0.13461158

dense2.bias f4 [2]
00000000: d0e5 d83d 426a 9ebd
0.10590708 -0.07735111
