LSTMTD3_actor_weights.pth (torch, 737659 bytes, 13 tensors)

curr_fe_dense1.weight f4 [128, 6]
000000 73 cb 5a 3e e3 26 9a 3e d7 25 b5 bd 41 4e 0f bf
       0.21366672 0.30107793 -0.08845108 -0.5597878
000010 d4 6e 96 3b 93 64 29 be b6 67 96 3e 91 40 b4 3c
       0.0045908485 -0.16542272 0.29376 0.022003444
000020 19 a4 9e be 11 30 32 3e f4 fa 2e 3e 93 2c bb bd
       -0.30984572 0.17401148 0.17087919 -0.09139361
000030 4e e3 58 3d f9 b3 b3 3e 48 71 cc bd 92 50 b6 3c
       0.05295115 0.35098246 -0.09982544 0.022255216
000040 d8 16 0f be 00 f3 13 3e 4f 95 84 be 8d 99 94 3e
       -0.13973558 0.14448166 -0.25895163 0.290234
000050 9f 44 c3 3e 65 f7 e5 be 25 cf c9 3e 3e 44 8d 3d
       0.3813829 -0.4491531 0.3941585 0.06897782
000060 28 a2 9b be f1 5d 26 be fb 0c 22 3e f1 c8 e2 3d
       -0.30397153 -0.16246773 0.15825264 0.11073483
000070 fb 26 55 bd 63 90 58 be 1a ee d1 bd cb b6 1b bf
       -0.052039128 -0.21148829 -0.102504924 -0.60825795
000080 19 fd 83 be c9 09 0b 3e 36 8a 95 3e 37 14 8b 3e
       -0.25779036 0.13577951 0.2920701 0.2716386
000090 4f 94 02 3e 88 51 37 bb 72 31 51 bd 6b 22 30 bf
       0.12751888 -0.002797218 -0.051072545 -0.6880252
0000a0 4b 75 70 be 57 47 2e be 12 74 89 3e c9 f7 de bc
       -0.23482244 -0.17019401 0.26846367 -0.027217763
0000b0 72 56 db 3e e5 9e 08 3e 70 7b 95 be 68 2a 06 be
       0.4283939 0.13341863 -0.29195738 -0.13102114
0000c0 59 c1 9d bd 6b 1a a7 3d aa 89 1e 3e 1a 18 a1 3d
       -0.07702894 0.08159336 0.15482202 0.07865925
0000d0 83 2b f9 be 76 dc bb 3e b5 8f ad bc ed 5a c3 3e
       -0.4866601 0.36691636 -0.021186689 0.38155308
0000e0 15 89 77 3e 2e 95 92 3e b8 8d b4 3e c2 d9 97 3d
       0.24173386 0.2862944 0.35264373 0.07414581
0000f0 81 71 54 3c b3 37 ff be 35 3d bb 3d 51 bf 63 bd
       0.012966515 -0.49847183 0.09142534 -0.055602375
000100 fa e2 b6 3e f5 ff 85 be 83 e3 0c 3e 34 db 83 bc
       0.35720044 -0.26171842 0.13758664 -0.016095735
000110 7d be 82 3e 86 13 91 3d 31 10 74 be ee bb b5 be
       0.25535956 0.07083802 -0.23834302 -0.3549494
000120 60 43 d0 3e 2b 62 a4 3e 3d ef 34 3e 27 84 ab be
       0.40676403 0.32106146 0.17669387 -0.33499262
000130 6a 8c 82 be 30 ce 02 3d bd 67 0b be 06 ac d6 3e
       -0.25497752 0.031934917 -0.13613792 0.41928118
000140 97 b2 a1 3e f0 dd 81 bf 65 af af bc 30 1e 84 3e
       0.31581566 -1.0145855 -0.02144594 0.2580428
000150 55 e1 33 3c 3d 88 05 3f f3 e7 8b 3e d0 7a 92 3d
       0.010979016 0.5216101 0.273254 0.07152331
000160 35 dc 1d be 1d 16 4d bd 0d d5 0c 3e 46 18 4b be
       -0.15416034 -0.050069917 0.13753147 -0.19833478
000170 83 ea 15 bf 5d 75 d7 bd 69 f9 5e be aa 09 84 be
       -0.5856096 -0.10520432 -0.2177483 -0.25788623
000180 de 24 9a be a8 58 26 be cd 8a dc be 27 0a b4 3e
       -0.30106252 -0.16244757 -0.43074647 0.35163996
000190 7b 9d 55 3e 8a 4a a1 3e d0 f5 cc be 95 92 ca bd
       0.20860855 0.3150218 -0.4003129 -0.098912396
0001a0 1f bf 2e be 66 7f 8d 3e fe 72 82 bd 06 ed 95 be
       -0.17065094 0.2763626 -0.06369589 -0.29282397
0001b0 b6 41 a6 3e e7 b3 db 3e 81 5b b4 be 0b f5 14 3f
       0.32472008 0.42910692 -0.35226062 0.58186406
0001c0 2a 8c f5 bd a6 21 1c be e6 51 1b be 62 51 8a bd
       -0.11989625 -0.15247211 -0.1516796 -0.06753804
0001d0 4a 53 69 3e 21 30 c6 be 44 e7 fe bd 28 7d 1f bd
       0.22785679 -0.38708594 -0.12446454 -0.038937718
0001e0 eb 09 94 be 99 ba 31 3f 78 19 c9 3e 80 28 0b bf
       -0.28913817 0.6942535 0.39277244 -0.54358673
0001f0 aa b3 c3 be f9 41 a8 3e 0b 6f a3 3e e6 67 f9 3e
       -0.3822301 0.32862833 0.31920657 0.4871208
000200 03 1b 96 bd 1b aa f4 3e 05 8f 3e be f5 2a 18 be
       -0.07329371 0.4778603 -0.18609245 -0.14860137
000210 ab d6 9c 3e 96 f4 0f 3e 9e 2c ee 3e 4d 64 16 be
       0.3063253 0.14058146 0.46518415 -0.14686699
000220 df 2d ac be b2 fd b4 3d 13 d9 9d be 11 19 ee be
       -0.33628747 0.08837451 -0.30829677 -0.465035
000230 25 57 65 bd cb e9 e2 be c7 fc bf 3e 11 db d2 3e
       -0.05599131 -0.44318995 0.3749754 0.4118276
000240 49 16 c9 3e 95 04 bf 3e 5e 22 83 bc 64 f7 21 3e
       0.39274815 0.37308183 -0.016007598 0.15817028
000250 84 30 e7 be 4f 01 95 bd 73 c1 ca 3d 66 56 55 be
       -0.45154202 -0.0727564 0.09900179 -0.2083374
000260 f5 3e 40 3d 07 06 03 bf 48 ae 91 be 0a b6 17 bc
       0.04693504 -0.5118107 -0.2845328 -0.00925971
000270 6b f1 8d be 15 6a 3f 3e 05 a5 5d 3d fb 30 28 3e
       -0.2772325 0.18692811 0.054112453 0.16424935
000280 23 09 f3 bc 93 db 6c be f5 84 8d 3e 94 ae b2 be
       -0.029667443 -0.23130636 0.276405 -0.34898818
000290 e3 3c e7 3d d7 99 30 3e 97 a5 53 be 43 6f 5a 3e
       0.1129091 0.17246185 -0.20668636 0.21331505
0002a0 05 46 17 be 92 06 56 3e d9 71 9b 3e 6b 42 55 3e
       -0.14772804 0.20900944 0.30360296 0.20826118
0002b0 dc e0 47 bd c4 d4 eb bd 01 f1 99 be 96 cf c4 be
       -0.048798427 -0.11515191 -0.30066684 -0.38439626
0002c0 09 0c 67 bd e0 f0 ce be 95 cb 1d 3e 5f bf 8c 3e
       -0.056407962 -0.40418148 0.15409692 0.27489755
0002d0 50 ab 79 bd 00 05 2a 3e 6d fd 25 be d8 a1 0c 3f
       -0.060954392 0.1660347 -0.16209956 0.54934454
0002e0 7a 18 63 bd 7b 4b b4 3d 22 a2 09 3e 55 17 eb be
       -0.055443265 0.08803459 0.13440755 -0.45916238
0002f0 8b b7 d8 3e a6 e4 e6 3c c4 df d2 be 87 ef 8e 3d
       0.42327532 0.0281852 -0.41186345 0.0697928
000300 7d 7a 1a 3d 3f 07 80 3e 84 fd 29 3e 67 81 c8 3e
       0.03771447 0.25005528 0.16600615 0.39161226
000310 a8 f8 eb 3d 02 bf af 3e af d6 6c 3e b3 68 68 be
       0.11522037 0.34325415 0.2312877 -0.2269619
000320 42 19 14 3e 44 19 0b 3d 8c c8 b3 bd 18 01 68 bc
       0.1446276 0.033959642 -0.08778486 -0.014160417
000330 00 84 9e 3e 84 8b 17 be a2 31 64 be c7 24 42 be
       0.30960083 -0.14799315 -0.22284558 -0.18959342
000340 ee 6c 92 be c6 06 65 3d 60 eb ba 3e e1 c3 b3 3e
       -0.28598732 0.055914663 0.36507702 0.3511038
000350 bb 82 a7 be 29 4c 8c 3e 7e 38 b2 be 3e ac bd 3e
       -0.32716927 0.27401856 -0.34808725 0.37045473
000360 fb f7 1b 3e 48 93 93 3e 34 fb 50 be 93 00 55 bf
       0.15231316 0.28823304 -0.20408326 -0.83204
000370 16 c2 55 3e ad 67 82 be ff dd 97 3e 51 2d 22 be
       0.20874819 -0.25469723 0.29661557 -0.158376
000380 81 8d 41 3e 31 1d 05 3d 8a 2f 02 be 81 f3 ac be
       0.18901636 0.032498542 -0.12713447 -0.3377953
000390 79 ee 6b be 7f 91 eb 3e 91 8e 9c be 8a a9 8a 3e
       -0.23040189 0.46009442 -0.3057752 0.27082473
0003a0 24 88 5f be c5 95 ac bc e8 38 85 bc 89 ca b4 3e
       -0.21829277 -0.02106751 -0.016262487 0.35310772
0003b0 07 74 9b 3e d1 4c 89 be 2d c9 01 3e e5 d1 72 3e
       0.3036196 -0.2681642 0.12674399 0.23712881
0003c0 25 4a 55 3c d7 b2 d7 3e 3a 05 83 be 33 e5 a5 3e
       0.013018166 0.4212863 -0.25589925 0.32401428
0003d0 bb f9 fb 3d 81 4f b2 3e 55 8a fb bd 11 52 d8 3b
       0.12303492 0.34826282 -0.12282244 0.00660158
0003e0 ae 34 ce be 66 99 9d 3e 77 e3 f9 bd cf 1f c3 bd
       -0.40274566 0.30781096 -0.122015886 -0.095275514
0003f0 8b 1b e8 3c ca 96 32 be 2d c6 2f bd 47 38 0a be
       0.028333446 -0.17440334 -0.042913605 -0.1349803

curr_fe_dense1.bias f4 [128]
000000 93 da 29 be 28 16 f2 be cd dd 94 3e d2 f5 71 3d
       -0.16587286 -0.4728253 0.2907547 0.059072323
000010 e9 c1 4b be a8 73 e7 bc 69 9a 14 3e c5 a0 a4 be
       -0.1989819 -0.028253391 0.14512028 -0.32153907
000020 88 48 8a bd 8f eb 5e bd 86 e2 33 bd 5c 6d ad 3e
       -0.067521155 -0.054423865 -0.0439172 0.33872497
000030 be c4 a0 3d 21 8d 7a bd d4 a0 6b be c8 2a bc 3d
       0.078500256 -0.061169747 -0.2301057 0.091878474
000040 92 37 ae 3e 4b 62 b1 be 85 e0 6c 3e 94 ae 86 3e
       0.34026772 -0.34645304 0.23132522 0.26305068
000050 74 5b 6d 3e 5d 34 09 be 60 c4 2f be 28 05 2d be
       0.23179418 -0.13398881 -0.17164755 -0.16896498
000060 fb be 4f 3e 39 ec 09 3e 3b 68 7f 3e e3 7e 4d 3e
       0.20287697 0.13469018 0.24942105 0.20067935
000070 7a 80 db bd a2 ad 00 3e 7c f2 ae 3e c1 d6 17 be
       -0.10717864 0.12566236 0.34169376 -0.14828016
000080 7d a0 c1 be fa 1a c3 be c6 9e 65 bd 8a a1 69 be
       -0.37817755 -0.3810652 -0.05605962 -0.22815529
000090 2e 84 d2 bd 36 7e 17 bd 6a 1d ac be bc ce 42 bd
       -0.102791175 -0.0369856 -0.3361619 -0.04756044
0000a0 fd 46 c6 be 0f 8c c9 be 41 36 14 3e 65 a5 93 3e
       -0.38726035 -0.3936467 0.14473821 0.28837124
0000b0 32 cc 59 3e 71 df 83 bd 11 33 82 bd b2 bf 42 3e
       0.212693 -0.064391024 -0.063573964 0.19018438
0000c0 77 60 53 be 87 fa 1a 3e e0 2f a5 be 5f f6 4f be
       -0.20642267 0.15134631 -0.32263088 -0.20308827
0000d0 29 de 97 bd 03 54 a1 be 68 08 83 3e d5 10 37 be
       -0.074154206 -0.31509408 0.2559235 -0.17877515
0000e0 16 16 88 be 8e b3 3f 3e 76 54 93 be 69 78 0c be
       -0.2657935 0.18720838 -0.28775376 -0.13717808
0000f0 62 5c 94 bd 50 7e 34 3e 3c b3 2d be 81 01 51 3d
       -0.07244183 0.1762631 -0.16962904 0.051026825
000100 68 35 c5 be de de d6 3e c1 cd 73 be 67 7e ac 3e
       -0.38517308 0.4196691 -0.23808958 0.33690187
000110 ee c6 04 3e bf e5 8d 3d 19 e7 4c 3e 30 81 6e bc
       0.1296651 0.06928586 0.20010032 -0.014557168
000120 d4 b6 75 be bf d5 52 be 6d a4 8f bd fe c2 05 be
       -0.23995525 -0.2058935 -0.070137836 -0.13062665
000130 5a 32 a6 be d0 52 87 bc 04 da 9a be 28 df 6d 3d
       -0.3246029 -0.01651898 -0.30244458 0.058074147
000140 95 61 af be 48 7d ff 3d 62 8e 9d be 1b 16 77 3e
       -0.34254137 0.124750674 -0.30772692 0.24129526
000150 9b 55 4a 3e 11 4f 75 be e3 db a3 3e 53 80 5e bd
       0.19759218 -0.23955943 0.32003698 -0.0543216
000160 5d 0a da 3c 07 df 1d be 76 84 b2 be 54 a6 c6 bd
       0.02661627 -0.1541711 -0.34866685 -0.09699693
000170 62 24 35 3e ea c8 9e be cb 1c b8 be 26 41 34 3c
       0.1768966 -0.3101266 -0.35959467 0.011001861
000180 47 4e 40 be 27 01 37 be 30 04 8e 3e 6e 8c d9 3d
       -0.1877986 -0.17871533 0.2773757 0.10622488
000190 88 b8 13 3e 37 cc 46 bd 1b a2 96 3e 67 25 b6 bc
       0.14425862 -0.0485346 0.29420552 -0.022234632
0001a0 a5 0e c4 3e 09 f9 9a 3d 0e 85 21 3d 0a 29 a6 bd
       0.38292423 0.07567031 0.03943353 -0.08113296
0001b0 8b 0d 95 3d b6 1a 58 3e f8 2c 91 be fc b0 29 be
       0.07277974 0.2110394 -0.2835462 -0.1657142
0001c0 26 0e de bd a2 62 8a 3e 12 1c a8 be f3 79 19 bd
       -0.10842542 0.27028376 -0.32833916 -0.037469815
0001d0 9c 6d 32 bd 57 12 29 3c f7 78 66 3e b7 38 fc bd
       -0.043561563 0.010319314 0.22507082 -0.12315505
0001e0 7d 8a 62 3e a9 f8 c0 3e 54 ca 1b bb 28 ff c9 3d
       0.22123142 0.37689713 -0.002377172 0.0986312
0001f0 94 31 45 be ed 43 a5 be 49 ab bd bd 22 e3 bc bd
       -0.19257194 -0.32278386 -0.09261186 -0.0922301

curr_fe_dense2.weight f4 [128, 128]
000000 4c f7 c8 3c 20 b0 b9 bb db 23 61 3d b0 46 ac 3d
       0.024531983 -0.0056667477 0.054965835 0.0841192
000010 c7 8b ac 3d fe 8d 4d 3d 70 6f 78 bd 0a ff 95 3d
       0.08425098 0.050184242 -0.06065315 0.073240355
000020 06 6a be bc aa 59 a9 bd 6c 25 58 bd 86 ed 10 3a
       -0.023243915 -0.08269055 -0.052770063 0.0005528558
000030 ed 70 90 3d 58 1a ef 3b 3f 04 5a bd 80 ec 1b bc
       0.07052789 0.0072968416 -0.053226706 -0.009516835
000040 0a 14 ef 3c 25 d0 8f bd 16 c2 1a bd 81 c8 0c bd
       0.02918436 -0.07022122 -0.03778275 -0.034370903
000050 1a 0c 3d bd e5 d4 a1 3d a3 ab 87 bc be 5f 1d 3d
       -0.04615412 0.079019345 -0.016561335 0.038421385
000060 18 5b 4d bd 88 97 5f bb 89 1f 94 bd ab 80 70 3d
       -0.050135702 -0.003411742 -0.07232577 0.058716457
000070 d9 c4 8c bd 11 63 e0 bc d4 91 1e 3c a6 31 98 bb
       -0.06873483 -0.027390989 0.009678323 -0.0046445904
000080 a3 d7 a5 bd 78 cc bf bd 22 13 b7 bd 8d ca c0 bd
       -0.0809777 -0.09365171 -0.08939196 -0.094136335
000090 35 9d 48 bd b2 9e a7 3c 4b bb 31 bd 11 f1 8f bd
       -0.04897805 0.020461414 -0.043391507 -0.07028402
0000a0 bb 7f 16 bd 83 3f 4d 3d 3a 5c 19 bc d5 fa 6b 3b
       -0.036742907 0.050109398 -0.009360367 0.0036007662
0000b0 3d 5c 0c 3d 5a 64 79 bd b4 1a ef 3c b8 20 83 bd
       0.034267653 -0.06088672 0.029187538 -0.06402725
0000c0 24 5d dd bb ce 6a 80 3d ec 5b 8e 3d 3c da 3b bd
       -0.006755488 0.062703714 0.069511265 -0.04586242
0000d0 a9 93 69 bd 1c 0b 94 bd 51 dd a8 3c c9 e3 70 bd
       -0.057025585 -0.072286814 0.020613344 -0.058810983
0000e0 c7 55 34 3c 30 89 2b bd 8f 99 10 bd 41 c2 e6 3a
       0.011006779 -0.04187888 -0.035302695 0.00176055
0000f0 cb f7 85 3d d0 e3 9f bd 55 5f 94 3d 4f 3d f1 3c
       0.065414034 -0.07807124 0.07244746 0.02944818
000100 79 f2 ce bb a1 53 34 3d 3d 68 97 3d 25 ec 99 3c
       -0.006315526 0.044025067 0.07392929 0.01878936
000110 da 44 51 3c 6a 13 a0 bd 89 83 03 3d ea 5b 0a 3d
       0.012772763 -0.07816203 0.032107864 0.033779062
000120 3f eb a3 bd d2 8b 08 bd 61 58 2e bd ff 89 8e bc
       -0.08003854 -0.033336468 -0.042564753 -0.017399786
000130 48 2c 6f 3d a2 2a 8a 3d d6 ba 9b 3c 21 1d 3a 3d
       0.05839184 0.06746413 0.019009989 0.045437936
000140 11 9c a0 3d b2 aa 10 3c 75 81 57 bd bd ed 8b bc
       0.07842267 0.008829759 -0.052613694 -0.017081136
000150 86 d4 a1 bd 16 96 ce 3c 0d 9e 67 bd d0 8e 89 bd
       -0.07901864 0.02521805 -0.056547213 -0.067166924
000160 6d 44 36 bd 09 be 2c 3d 17 07 be 3b ba ae d5 3c
       -0.04449885 0.04217342 0.005799185 0.026084293
000170 47 09 98 3a 99 e2 b4 bd 94 bc 3c ba 7d 5d c2 bd
       0.0011599445 -0.088322826 -0.0007199731 -0.09490488
000180 65 1b 72 bd 35 21 b6 b9 2a 92 bf bd 2d a9 1a 3d
       -0.059108157 -0.00034738486 -0.093540505 0.037758995
000190 23 c8 48 bd 4a 8d df 3c 99 d8 13 bd ae 5a 72 ba
       -0.04901899 0.027289052 -0.036095235 -0.000924508
0001a0 39 f0 b6 bd de 42 93 bc 5b 3e 87 3b 64 54 b2 3d
       -0.089325376 -0.01797622 0.0041273064 0.087075025
0001b0 3d b3 99 bd 63 18 46 3c 14 5a 05 3d f8 09 e9 3c
       -0.0750489 0.012090775 0.03255661 0.028447136
0001c0 38 09 ad bd 61 ce a1 3d 85 79 84 bd 97 f1 3d bd
       -0.08449024 0.07900692 -0.064684905 -0.046372976
0001d0 bc 64 73 bd 62 58 fe bc bd cb 98 3d ab 59 8a bd
       -0.05942224 -0.031048004 0.07460735 -0.06755384
0001e0 41 ca 33 bd 63 47 7a bd f6 41 0b 3b bc b4 16 3d
       -0.043894056 -0.061103236 0.0021249033 0.036793455
0001f0 b6 6d 05 3d 06 6f 86 3d 68 f9 ad bc 18 c7 9d bd
       0.03257533 0.06564145 -0.02123709 -0.0770399
000200 a7 41 06 3e 9f 40 d9 3b b3 ee e7 bc d5 86 a0 3d
       0.13110982 0.006630018 -0.028312063 0.07838217
000210 76 11 21 bd a3 10 fe 3d 7a eb 8c 3c 10 5e 88 be
       -0.039323293 0.12405517 0.017202128 -0.26634264
000220 11 5d 28 bd bd 13 16 3d 71 3a 05 3d 75 f7 1d bd
       -0.04110438 0.036639918 0.032526437 -0.03856607
000230 c9 3d 28 be e3 ee 1c 3e a2 73 a8 3c 6e 58 a0 3d
       -0.16429819 0.15325503 0.02056295 0.078293666
000240 fb 6b 9f 3c 1d e7 3d 3d af 44 32 3d 8b da 52 bc
       0.019460669 0.046362985 0.043522533 -0.0128694875
000250 32 c2 ee bb ba 59 40 be 26 7b d0 bc a1 bd af bd
       -0.0072863335 -0.18784228 -0.025449347 -0.08581091
000260 55 69 de bd f9 ed f8 bc 02 77 0c bc 67 90 94 bc
       -0.10859934 -0.030386912 -0.008573296 -0.018135263
000270 8d d8 23 3d 2a f0 c0 bd 99 22 cb bc 8c b2 c0 bc
       0.04000144 -0.09420808 -0.02479677 -0.023522638
000280 f1 23 80 bc 38 09 48 bd c6 40 67 bd 1a 26 88 be
       -0.015642138 -0.048836917 -0.056458257 -0.2659157
000290 48 0e 5b 3e 63 83 14 bd e1 6c a0 bd 08 a5 c8 3c
       0.21392167 -0.036258113 -0.07833267 0.024492756
0002a0 fc 10 c0 bd 98 01 9b bc 76 0f ad 3d 9b f2 52 ba
       -0.093782395 -0.018921658 0.084502146 -0.0008047015
0002b0 8d 71 95 3e 5f 46 40 3e 12 01 80 3d 19 28 a0 3d
       0.29188195 0.18776844 0.06250204 0.07820148
0002c0 71 0f d5 bd 11 00 ea bd db df 9e 3d 35 21 9d be
       -0.10403336 -0.11425794 0.07757541 -0.30689397
0002d0 0a 28 57 bc e0 e1 9c bc 9d 10 20 3c 5e 65 83 3d
       -0.013132105 -0.019150674 0.009769586 0.06415819
0002e0 39 a7 b0 bd 03 3b ac 3d 3c a7 03 3d 54 40 62 3b
       -0.08625645 0.08409693 0.03214191 0.0034523206
0002f0 46 95 50 3d 31 95 88 bc cc fe 1b be e8 00 06 bd
       0.05092361 -0.016672703 -0.15233916 -0.032715708
000300 36 15 3c bd 09 a9 a7 be 24 c9 06 3d 7f 87 0e bc
       -0.045918666 -0.3274615 0.032906666 -0.008699297
000310 28 3c 00 3e 4c 5d ff bd 99 35 f0 38 a8 64 57 3e
       0.12522948 -0.12468967 0.00011454075 0.21034491
000320 0d 22 16 bd 2c ed 92 bd ba e2 de b9 92 9f 1b 3e
       -0.036653567 -0.07174143 -0.00042512064 0.1519759
000330 dc e9 5b 3e 9f 10 06 be ed f0 98 bd 55 1d d7 3b
       0.21475929 -0.13092278 -0.07467828 0.006564776
000340 90 b9 d4 3a fd 4b bf 3d 4e 4c 8a bd ae f8 89 bc
       0.0016229618 0.093406655 -0.06752835 -0.016842213
000350 9c 32 6e 3d 0a 85 a3 3d 76 59 52 bb ad 11 d1 3d
       0.058153734 0.079843596 -0.003209678 0.102084495
000360 74 ce cf bc 79 7f a1 3d 73 5c c6 3d d8 d7 53 3c
       -0.025367 0.078856416 0.09685602 0.012929879
000370 a3 4b f7 3d ff e9 34 3e 6e 84 ef 3d c1 43 0d bd
       0.120749734 0.17667387 0.11695181 -0.034488443
000380 21 ae b7 3d db 61 84 bd 80 04 9c 3d 24 82 ef bd
       0.08968759 -0.06463977 0.07618046 -0.11694744
000390 1f 4f 7d be 03 65 2f bd b7 6f 54 bd 27 2b 37 3d
       -0.24737214 -0.04282094 -0.051864352 0.044718888
0003a0 85 10 e3 bd bd 78 0b bc f2 b2 86 3d 73 c5 48 3c
       -0.11087135 -0.008512673 0.065771 0.012254107
0003b0 87 a3 36 bc 7e 10 6f bd 7c 06 05 3e 82 69 6c bd
       -0.011147386 -0.058365338 0.12990755 -0.057717808
0003c0 46 3e 31 be 51 fd 97 bd f3 28 da bc 63 9b 35 3e
       -0.17308912 -0.07421363 -0.026630854 0.17735057
0003d0 ff 9a fd bd b1 64 bc 3d 6f 07 dc bd db ca 87 3c
       -0.12383079 0.09198893 -0.10743605 0.016576221
0003e0 03 41 31 be 44 65 ce bd 19 37 52 bd 8a 90 62 bd
       -0.17309956 -0.10077909 -0.051322076 -0.055313624
0003f0 11 93 49 3d a7 10 81 bd a7 ed 5e bd da 6c 98 be
       0.04921252 -0.06302004 -0.05442586 -0.29770547

curr_fe_dense2.bias f4 [128]
000000 f7 80 0c 3b 9d 77 72 3d 3f d4 99 3d 51 80 67 bd
       0.0021439174 0.059196103 0.07511186 -0.056518856
000010 4c 1d 50 3d 52 e6 44 bd e1 22 0c 3c 92 46 d6 bc
       0.05080919 -0.048071213 0.008553238 -0.026156697
000020 87 7f 90 3c 14 ba 3a 3d ae 8c 53 3d ca bf a5 bc
       0.017638935 0.045587614 0.051647834 -0.020233054
000030 f7 e2 56 3d e3 a7 8e 3d d3 af 8b 3d 7e 50 80 bb
       0.052462544 0.069656156 0.06820645 -0.0039158454
000040 cb 07 19 3a 0a ae bc bd 66 e5 77 bd 2e 50 4b 3d
       0.0005837648 -0.09212883 -0.060521506 0.049637012
000050 46 f6 6a bd 73 6d 78 bd 3c 4d 0f 3d a8 e7 4f bb
       -0.05736377 -0.060651254 0.034985766 -0.0031723771
000060 e4 dd f9 bc bf dc e6 bd e0 66 0b 3d 2c f9 d6 3c
       -0.030501314 -0.11272573 0.034033656 0.026241861
000070 22 cc ab 38 66 9f b1 bd 41 a6 80 3d ea 98 50 bd
       8.191938e-05 -0.08672981 0.062817104 -0.05092708
000080 3e de 2d 3d 80 b6 bd 3c 90 e5 4a bd b6 7b 9f bd
       0.042448275 0.023158312 -0.049535334 -0.07787268
000090 e8 f6 4f bd d6 a2 f6 bd 3f ce 2f 3d 34 5b 3d 3d
       -0.050772578 -0.12042777 0.0429213 0.046229556
0000a0 c4 6f 55 bc 8c f3 86 bd c3 a6 ca bc 6d 99 df ba
       -0.013027135 -0.06589422 -0.024737721 -0.0017059274
0000b0 51 e3 71 bd cb 28 cd 3d 9e 2d b7 bc 4d 8e 76 bd
       -0.059054676 0.10017546 -0.02236062 -0.060194302
0000c0 62 4f 76 3b c9 2e 88 bc c7 5c 3e bd d7 75 52 3d
       0.0037583937 -0.016623871 -0.046475198 0.051381912
0000d0 56 dc 4e 3c 4f a0 bd bd b3 d6 8a bd 2c 42 fb 3b
       0.012625774 -0.09259092 -0.06779232 0.0076678004
0000e0 b6 91 8c 3d 7e 00 42 bd 4c af a8 bd f5 1b 19 bd
       0.0686373 -0.04736375 -0.0823656 -0.037380178
0000f0 44 3f 24 bc 92 f0 c0 3d 4e af 9d bd 4d 83 f0 bb
       -0.010024849 0.09420885 -0.07699452 -0.007339871
000100 a1 8a 87 bd 14 d9 c5 3d 1d c7 32 3d c0 5b 0c bd
       -0.06618238 0.09660545 0.04364692 -0.034267187
000110 db 70 6b bd 9e 75 57 bd 51 16 b4 3c e2 81 bd 3d
       -0.057480674 -0.052602403 0.021983298 0.09253289
000120 13 0b 7d 3b 77 4f 93 bd ab 3a 2c bd d3 b8 a8 3c
       0.0038611337 -0.07192891 -0.042048138 0.020595944
000130 53 02 93 3d 7b c1 a4 3d 2f 07 6d bd e6 59 70 3d
       0.07178178 0.08044716 -0.05786818 0.058679484
000140 0d 39 ad 3c c6 95 b3 3c 8b 05 6c bd ff eb 60 3d
       0.021145368 0.021922003 -0.057622474 0.054912563
000150 06 0c 0a bd 4d ee 1c 3b 7a b8 18 3c da 3d 56 3d
       -0.033702873 0.002394575 0.009321326 0.05230508
000160 69 27 7f bd 78 16 9b 3c f9 ae 17 3d 8f ef 9f bc
       -0.062293444 0.018931612 0.0370321 -0.01952341
000170 de d6 65 bd 84 19 a7 bd 8a 5e e8 3c 3f b2 70 bd
       -0.056113116 -0.081591636 0.028365392 -0.05876374
000180 b7 ff 8f 3c c6 7a 5c bd b0 fd c3 3d 8d 5f 3c bd
       0.017577989 -0.053828023 0.095698714 -0.04598956
000190 86 a2 b0 3d d0 69 e3 bc f6 d6 86 bd 23 7d b4 bd
       0.08624749 -0.027760416 -0.06583969 -0.088129304
0001a0 c8 6c bb bc ae 78 92 bd 0e 4a 69 3d 42 aa 74 3b
       -0.02287902 -0.07151924 0.05695539 0.0037332927
0001b0 16 e5 6e bd e8 5d da 3c 81 cc 94 3d 94 69 0f bd
       -0.058323942 0.026656106 0.072655685 -0.035012797
0001c0 ec 80 97 bd 29 e9 91 3d 90 e5 a1 3d 89 45 0c bd
       -0.07397637 0.0712455 0.07905114 -0.034246
0001d0 f8 a2 12 bd fb 31 8d 3d a3 91 bc bb d0 01 6e bc
       -0.03579995 0.06894299 -0.005754666 -0.014526799
0001e0 4c 54 c2 3d c2 dd df 3c 52 d2 9a 3d e4 f9 fd bd
       0.094887346 0.027327422 0.07559647 -0.124011785
0001f0 9b 8b fa 3d 1f 0b d8 bc 96 b7 48 3d 95 0d 23 3d
       0.12233659 -0.02637249 0.049003206 0.039807875

mem_dense.weight f4 [128, 6]
000000 a1 d0 b6 3d 92 3d 07 3e 65 df 53 3e 40 89 c0 3e
       0.089265116 0.13207081 0.20690687 0.37604713
000010 f2 05 35 be db 38 b7 bd b8 16 7a 3e 12 6d 09 bf
       -0.17678049 -0.08946391 0.24422729 -0.53682053
000020 aa 13 a6 3d 43 95 05 3f 05 32 59 be b7 48 ab bb
       0.08109219 0.5218088 -0.21210487 -0.005227174
000030 f2 cf 31 3e d3 72 75 be 40 53 98 bb a5 8d 48 3e
       0.17364481 -0.23969583 -0.004648596 0.19585283
000040 a3 1a c5 be de 2c 7c be 26 e5 c5 3e 8c 53 52 3e
       -0.38496885 -0.2462649 0.3865139 0.20539683
000050 57 77 21 be cf 72 ed be 26 e5 18 be 9b 23 ba 3e
       -0.15768181 -0.46376655 -0.14931163 0.3635529
000060 3d 98 c1 bb 51 6b e1 be 59 60 96 3d 50 ce 11 3e
       -0.005908041 -0.44027188 0.073425956 0.14238858
000070 96 9f ef 3c e6 c5 9f bd 02 09 c6 bd 22 3c da be
       0.029250901 -0.07801418 -0.09669687 -0.42624003
000080 1c bc d3 3e 24 d4 ba bd 92 07 5e bd 98 b3 89 bd
       0.41354454 -0.09122494 -0.05420644 -0.06723708
000090 da a1 8f 3e 6c 7c e5 be c9 0d 53 be f8 a6 52 bd
       0.2805317 -0.4482149 -0.20610727 -0.051428765
0000a0 25 a5 0a bf e3 6b 47 3e 4e a0 cf b9 b4 b2 b4 3e
       -0.5415824 0.1947475 -0.00039601553 0.3529259
0000b0 bc 1d 10 3e 29 8e ab 3e 92 8c 32 3e d1 16 2d 3e
       0.14073843 0.33506897 0.17436436 0.16903235
0000c0 9b f9 be be b7 39 77 3d 28 49 3a 3e 9c a2 ed bc
       -0.3729981 0.060357776 0.1819197 -0.029008202
0000d0 65 40 79 3b 41 81 74 3e da 2d 69 3e 2e b2 bd 3c
       0.0038032767 0.23877431 0.22771397 0.023156252
0000e0 f0 82 b0 be 6d 91 45 bf 61 db 8b 3e 21 64 ac 3d
       -0.34474897 -0.7717503 0.2731581 0.084175356
0000f0 de a3 aa be ef 83 a3 3e c2 d7 99 3d 3b ad 66 bf
       -0.33328146 0.31936595 0.07511856 -0.9010808
000100 97 c6 54 3e 03 9e d8 3d 0b ea 9e bd ec 35 ae 3e
       0.20778881 0.10577013 -0.07759484 0.34025514
000110 f9 69 cc be f6 cb e1 3e 86 22 cb 3c eb 7b a8 3e
       -0.399246 0.44100922 0.024796735 0.32907042
000120 ea 78 8c be 15 b3 b2 be 7e d2 01 bd 82 24 2d 3e
       -0.27436 -0.34902254 -0.03169488 0.16908458
000130 96 db 9c 3e de 02 88 be 53 0a 2b 3d be a1 9c 3e
       0.3063628 -0.26564687 0.041757893 0.3059215
000140 5c 88 b7 3e 0d 30 b8 be a9 45 e9 be eb ef 78 3e
       0.3584622 -0.3597416 -0.4556096 0.24310271
000150 86 e2 d3 bd 2b 8b 03 bf db 0d 05 bf 47 f9 75 3e
       -0.1034594 -0.5138423 -0.51974267 0.24020873
000160 d7 cd b4 3e bb c6 87 3e 8a a4 85 3e 26 54 43 3e
       0.35313293 0.26518807 0.26102096 0.19075069
000170 f0 e8 16 be 05 e1 e6 be cc fe e9 bd 20 99 12 3d
       -0.14737296 -0.4509355 -0.11425552 0.035790563
000180 e5 fb 4e 3e 38 73 ed bd 39 79 93 be 88 3d 9d 3e
       0.20213278 -0.11594242 -0.28803423 0.30711007
000190 97 f2 f8 bd 49 f1 c9 3e 51 36 ac 3e b0 04 d4 3e
       -0.12155645 0.39441898 0.3363519 0.41409826
0001a0 cf e7 69 be c4 ac b1 be e1 07 34 3e a6 36 93 be
       -0.22842334 -0.34702122 0.1758113 -0.2875263
0001b0 01 08 9b 3e 1e 66 27 bc fa cc 10 3d 34 c3 4a bf
       0.30279544 -0.010217218 0.03535173 -0.79204106
0001c0 c4 ac 37 bd 4b 3b b7 be 10 07 a0 bd c5 d5 8c be
       -0.044842497 -0.35787424 -0.07813847 -0.27506843
0001d0 10 dc 9e be 9c 9b 10 bd db fc 3d 3e 13 20 88 3e
       -0.3102727 -0.03530465 0.18553488 0.2658697
0001e0 24 8d 01 3a 13 2c af 3e 5b 3d e3 be f3 07 d1 3e
       0.0004941991 0.34213313 -0.44382748 0.40826377
0001f0 14 20 17 3e 4b 13 c5 3d e0 38 de bd 4a 0e 57 bc
       0.1475833 0.096228205 -0.10850692 -0.013125965
000200 ad 60 1e 3e e9 ce 57 3f a8 c8 81 bd 50 ac 69 3e
       0.15466566 0.84300095 -0.063371 0.22819638
000210 08 75 67 3e 79 b7 e3 be af e1 98 be 34 99 d5 be
       0.22603238 -0.44475916 -0.29859683 -0.41718447
000220 a0 01 2c 3e 16 71 10 3d 30 90 29 3e 1c 62 cb be
       0.16797495 0.035264097 0.1655891 -0.3972329
000230 7b c9 8d be 25 e2 85 3e 77 d4 60 3e 49 35 8e 3d
       -0.2769278 0.26149097 0.21956049 0.06943757
000240 08 a8 84 bd 47 70 7d be 62 3c 0a 3f 31 ca 02 be
       -0.06477362 -0.24749862 0.53998387 -0.12772442
000250 f1 34 f3 be 49 e3 0d be 7c bb ae be 96 b6 38 be
       -0.4750133 -0.13856234 -0.34127414 -0.18038401
000260 b8 f5 90 bd 5e 4c 82 3e 41 74 b5 be 2d e4 a6 be
       -0.07078117 0.2544889 -0.35440257 -0.3259596
000270 57 42 de 3e 33 05 2e 3e fe 31 b9 be 55 84 22 bf
       0.43409988 0.16994171 -0.36170954 -0.6348317
000280 de 69 a6 3d 6f b5 28 be c1 15 3a 3e 4b 56 e7 3e
       0.08125661 -0.16475461 0.18172361 0.45183024
000290 f6 60 16 be da 61 08 3f fa 53 a3 3d 78 73 56 3d
       -0.14685425 0.5327431 0.07975002 0.052356213
0002a0 df 00 e4 3d 3c dd 5d 3e 17 7c f1 3e e0 35 59 bc
       0.11132979 0.21666425 0.47164986 -0.013257474
0002b0 dc ed 99 be e7 de 24 be 38 18 81 be 1f 59 92 be
       -0.30064285 -0.16100655 -0.2521379 -0.2858362
0002c0 22 3f 07 3e 58 3d ec 3d d0 8d f7 be 9b c2 fa 3e
       0.13207677 0.11535138 -0.48350382 0.48976597
0002d0 53 2a df 3d 23 53 16 bc 32 93 e4 be 5d 23 5f bd
       0.108967446 -0.009175095 -0.4464355 -0.054477084
0002e0 af a0 f0 bc a2 0a 18 be c7 36 ef 3d bf bf ee 3e
       -0.029373495 -0.14847806 0.1168037 0.46630666
0002f0 84 29 64 3e c2 31 08 3f 05 e8 67 bd 38 ea c2 be
       0.22281462 0.53200924 -0.056617755 -0.3806932
000300 6c 62 8f be 54 cd ba 3e 3d 99 9e be a7 ce be be
       -0.28004777 0.36484778 -0.30976287 -0.37267038
000310 4d dc a7 bd 4e 34 35 be b9 e6 1a 3e a4 53 78 bd
       -0.08196316 -0.17695734 0.15127076 -0.06062664
000320 6e e3 48 be a0 3f 3d bf ed 78 b2 3d 75 2e bf be
       -0.19618008 -0.7392521 0.08714471 -0.3734013
000330 bc 55 96 bb c8 7a 31 3e 7a 43 2f 3e f8 9a 27 3f
       -0.004587857 0.17331994 0.17115584 0.6547084
000340 38 58 05 be 73 56 1d bd 6d d0 96 be 86 de 51 be
       -0.13021934 -0.038412523 -0.2945589 -0.20495042
000350 44 dd 06 be fc aa 47 3e c3 69 49 3c fe 8a 9a be
       -0.13170344 0.19498819 0.012293282 -0.30184168
000360 41 e2 d0 bc 0d 1f dc be b3 54 ad 3d 3c 15 4a 3c
       -0.025498511 -0.4299244 0.08463421 0.012334164
000370 79 05 86 3e 36 00 87 3d 56 81 17 be f3 23 93 3e
       0.2617605 0.06591837 -0.14795431 0.28738365
000380 55 b3 66 bd 54 be 98 be 00 e1 09 bc eb f5 df 3e
       -0.056323368 -0.2983271 -0.008415461 0.43742308
000390 d0 19 8a 3d 20 3b 3b bd ec ff af be 17 8c 37 be
       0.067432046 -0.045710683 -0.3437494 -0.17924534
0003a0 62 6c 92 bd 58 b1 bc bd ec d4 34 be e0 4a 9f be
       -0.07149579 -0.09213513 -0.17659348 -0.31111813
0003b0 f6 ce 7f 3e fa 00 28 bf a6 40 7b 3e ed 7d 17 3e
       0.24981293 -0.6562649 0.2453638 0.1479413
0003c0 d4 26 72 3e ce 2c 70 be 1d 7a 3d be b7 4a 53 3f
       0.23647624 -0.23454592 -0.18503614 0.8253588
0003d0 5e 47 3b be f9 54 c3 3d b8 64 ac be 41 7e d7 be
       -0.18288943 0.095376916 -0.33670592 -0.42088512
0003e0 4a 6e 3d be 41 63 7c bc 9e ea d8 bd 1f c3 88 3e
       -0.18499103 -0.015404523 -0.10591625 0.26711366
0003f0 d0 4c c7 be bf 74 a8 bd 90 f2 98 3d 34 76 62 3e
       -0.3892579 -0.082253926 0.0746814 0.22115403

mem_dense.bias f4 [128]
000000 dc 92 bb 3d 6f 3f c1 be 22 b7 92 3d ab 41 8f be
       0.091588706 -0.37743708 0.07163836 -0.27979788
000010 9b ee 8c be 82 10 5e bd cb c4 d6 bd 0e 66 aa 3e
       -0.27525792 -0.05421496 -0.10486754 0.33280987
000020 77 9d 98 be 7d 6b 33 be c2 0e b3 3e 5b 75 a6 3b
       -0.29807636 -0.17521472 0.34972197 0.005079908
000030 f2 57 eb 3d 01 12 a9 be 59 c1 70 3e d7 76 a0 3d
       0.114913836 -0.33021548 0.23511256 0.07835167
000040 99 f9 48 be 6f 7e 9e be 2e ee 1f 3e 0d 7f 9d 3d
       -0.19626464 -0.30955836 0.15618202 0.07690249
000050 98 f4 36 bd ac 68 76 3e 34 15 73 3e 55 13 0a 3e
       -0.044666857 0.24063367 0.23738557 0.13483937
000060 c1 74 29 be f5 40 6b be f5 af a7 be 04 ff 12 be
       -0.16548444 -0.22973998 -0.32751432 -0.14355093
000070 96 7d 57 be 44 57 93 3e 35 f3 65 3e 71 bf c7 bc
       -0.21044001 0.28777516 0.22456057 -0.024383279
000080 25 1d f7 3c 65 be 93 3e 03 9d 48 3e 70 58 28 be
       0.030165264 0.28856197 0.19591145 -0.16439986
000090 e7 fa 8a be a3 6d 72 be fb 90 8f 3e 8c 72 5c 3e
       -0.27144548 -0.23674636 0.280403 0.21528071
0000a0 83 2d a6 3e 3b 12 8a bd 40 85 2f 3e db 5d f0 3d
       0.32456598 -0.067417584 0.17140675 0.117366515
0000b0 6a 00 b3 3e 60 a6 19 be 6a 1e ff 3d 08 d5 89 be
       0.34961253 -0.15004873 0.12456973 -0.26920342
0000c0 f5 07 8f be de 97 e7 3e 4d 57 ce be d3 69 88 3d
       -0.27935758 0.45233053 -0.4030098 0.06660809
0000d0 8b 3a 42 3e 94 7e 5c 3e da 3b 39 bd 5b 08 1e 3c
       0.18967645 0.2153266 -0.045223095 0.009645547
0000e0 f5 7b 9f 3e 9e 86 80 be 24 12 29 be d7 de 7e 3e
       0.3114926 -0.25102705 -0.16510826 0.24889694
0000f0 27 48 9a 3d d2 59 8d 3d 4d 44 58 3e 72 eb 21 be
       0.07533293 0.069018975 0.21119805 -0.15812472
000100 be 4a 70 3e 47 4d b5 3e 37 a5 a9 3e 2a 53 e2 3d
       0.23466012 0.3541052 0.3313386 0.110510185
000110 28 94 2d be 82 fb 90 be 74 38 39 be a5 a1 ac 3e
       -0.16951048 -0.28316885 -0.18087941 0.33717075
000120 ed 5b 01 3e ac b9 c3 bc fa a4 59 3e 5d 2d c3 ba
       0.12632723 -0.023892246 0.2125434 -0.0014890839
000130 de 28 a0 3e 9b 02 1f 3c 7b a4 af be 54 fc 01 be
       0.3128118 0.009705211 -0.34305176 -0.12693912
000140 50 86 f4 3d 34 b2 81 be 14 88 16 3e b5 05 35 be
       0.119396806 -0.2533127 0.14700347 -0.17677958
000150 67 3d c2 be 43 c3 73 be 9c e3 ab 3e 1d a7 93 3e
       -0.3793747 -0.23804955 0.3357209 0.28838435
000160 1a 7e b3 be 89 ed a8 be 28 f8 37 3d 19 0b 2c bd
       -0.35057145 -0.32993725 0.044914395 -0.04200277
000170 82 c3 83 be be 7c a1 3e e4 75 83 be e8 9d 43 3e
       -0.25735098 0.31540483 -0.2567588 0.19103205
000180 c0 89 a2 3d 5d db 22 3d 6e 33 8f 3d 7e 66 9d 3d
       0.0793643 0.039759982 0.06992231 0.076855645
000190 31 56 8e be e0 ea 6d 3e e7 c1 f9 bc ba c0 25 3e
       -0.27800134 0.23234129 -0.030487968 0.161868
0001a0 34 14 15 3e f7 e9 64 3e 12 ca f9 bd d8 4e a9 be
       0.14558488 0.22354876 -0.12196745 -0.33067966
0001b0 30 e5 86 3e 7f b9 2e 3e ee 1f ab bd f8 ad db 3d
       0.2634673 0.17062949 -0.083556995 0.10726541
0001c0 ea 2a ab 3e 7c da 22 be 14 bc 82 3e 5f 5f 5e be
       0.33431178 -0.15903658 0.25534117 -0.21716069
0001d0 26 6b 7e bc 6a d5 ab be c3 d2 2c be 56 00 be 3e
       -0.015528476 -0.3356126 -0.16877274 0.3710963
0001e0 70 c2 5a 3e 34 1a d2 3c f6 93 5d be 79 0e 1e be
       0.21363235 0.02564726 -0.21638474 -0.15435208
0001f0 ee 99 99 3e d7 4d 97 3e ba e0 75 3e dc 51 9c bd
       0.30000252 0.29551575 0.24011508 -0.07632801

mem_LSTM.weight_ih_l0 f4 [512, 128]
000000 ee 59 4a bc b9 bc 4d bd d0 f2 a8 3b 21 1b 4f bd
       -0.0123505425 -0.050228808 0.0051558986 -0.05056298
000010 23 72 9b 3d 5b 4b 02 be d0 f9 f0 3c a3 8d f3 3d
       0.07590129 -0.12724058 0.029415995 0.118922494
000020 9e aa 8a 3b 98 2e f0 bc 7d e6 0a be 2b 06 5e 3e
       0.004231765 -0.029319093 -0.13564487 0.2168204
000030 60 b2 47 3b e2 0a 5e be 95 81 04 3e c9 84 7c bd
       0.003047131 -0.21683839 0.12940057 -0.06165007
000040 43 be 06 3e ae 69 1a 3e e1 89 53 3d 7e 8f ca 3c
       0.13158517 0.15079376 0.051645163 0.024726626
000050 05 0c c9 3e 7a 9b 4c 3d 02 d8 e7 3d cb 93 98 bc
       0.39266983 0.04995296 0.11320497 -0.01862516
000060 81 d1 00 be ae e9 56 3d 64 65 4a 3e f8 7d 40 3e
       -0.1257992 0.052468948 0.1976524 0.18798053
000070 e0 fe 25 be 6d c7 e8 bd 71 65 27 3b 0f 3f 0c 3d
       -0.16210508 -0.113661624 0.0025542642 0.034239825
000080 36 ef d3 3d b7 de cd ba 04 22 91 3d ca f9 f3 bc
       0.1034836 -0.0015706633 0.07086566 -0.029782195
000090 27 08 11 3e 60 ae a0 b9 00 d3 03 3b 70 b7 8d bd
       0.14163266 -0.00030647498 0.002011478 -0.069197536
0000a0 76 7f 35 3d 17 15 98 bd 47 bd 1a bc 80 7f 0e 3d
       0.04431101 -0.074258976 -0.009444541 0.034789562
0000b0 13 de ed 3b 80 15 53 3e 43 9b a3 3c 5d aa bf be
       0.0072591393 0.2061367 0.019971495 -0.37434664
0000c0 fc fb 9c 3c ab d3 30 3d ee 65 c0 bd 46 2a 03 3d
       0.019163124 0.043170612 -0.093944415 0.032022737
0000d0 17 73 16 3d c5 52 c7 3d 74 f8 4a bd da 53 90 bc
       0.036730852 0.09732584 -0.04955335 -0.017618109
0000e0 4e 39 8a 3d 85 a0 3a bd 92 b3 aa 3c ea 7d 39 be
       0.06749211 -0.04556324 0.020837579 -0.18114439
0000f0 7e 8a 0d bd b1 56 da 3d fd a8 99 3d eb 61 ec bc
       -0.034555905 0.10661066 0.07502935 -0.028855285
000100 4a a4 f4 bb 4c fd 65 bd c4 e4 2e bc f1 65 05 be
       -0.007465874 -0.056149766 -0.010674659 -0.13027169
000110 e6 d8 f5 bd b9 5e bb 3c 97 63 99 3d 97 f3 0f 3d
       -0.12004261 0.022872316 0.074896984 0.035144415
000120 17 11 de bc b3 fc dd 3d 8b 7f 95 3d ee 01 01 3e
       -0.027107758 0.10839214 0.072997175 0.12598392
000130 4c 87 dd bc 4a 06 96 3e 58 0c 43 bd 5b d8 18 3e
       -0.027042054 0.29301673 -0.047619194 0.14926283
000140 45 dc 33 bd 08 51 b5 3c d9 93 58 3e 56 1b 78 3d
       -0.043911237 0.022133365 0.2115015 0.060572945
000150 f9 5b 92 bd 74 c1 00 3e 03 e9 93 3b 9a b0 c7 3d
       -0.07146449 0.12573797 0.004513861 0.09750481
000160 ff 83 c4 3c b9 ff 54 3d 4d 87 ef 3d 1d ff a9 bd
       0.023988722 0.05200169 0.116957285 -0.08300612
000170 93 32 d0 3d 6a 8c 41 be d1 f0 ee 3d 91 cf 8b 3e
       0.10165896 -0.1890122 0.11667026 0.27306798
000180 3e 90 9d 3e 4c f4 86 3c bd 00 b9 3b 45 39 0b 3d
       0.3077411 0.016473912 0.00564584 0.033990163
000190 66 c0 c9 3d aa 94 3d bd d7 f0 81 be 84 b4 65 be
       0.0985115 -0.046284355 -0.2537906 -0.22432142
0001a0 31 8d 51 3d 86 d4 38 3e 86 69 52 bd ba 66 a0 3c
       0.05116004 0.18049821 -0.051370166 0.019580234
0001b0 c8 17 31 bd 8b 2a 73 bd 75 51 95 3e c4 b7 56 bc
       -0.04323557 -0.059366744 0.2916371 -0.013105337
0001c0 48 e0 e8 3d ad 51 fa bc 10 25 cd 3d 71 f9 84 bd
       0.11370903 -0.030556524 0.10016835 -0.0649289
0001d0 60 ca c5 3d 7d a5 62 bb 76 af f2 bb 30 43 d4 bd
       0.096577406 -0.0034583502 -0.0074061705 -0.103643775
0001e0 ec 82 98 3c 13 4e 9e bd fd 04 74 bd 0c 26 d7 3d
       0.018617116 -0.07729735 -0.05957507 0.10505304
0001f0 18 d6 3c bd 9a be 39 bd 95 17 3d 3d 85 2a 1b bc
       -0.046102613 -0.045347787 0.046165068 -0.009470587
000200 1a 9f 8f 3d e9 d1 a3 bc b8 ec ba bc 13 79 50 3b
       0.07012768 -0.019997554 -0.022817954 0.0031810447
000210 a7 7c 78 3d 4e 32 94 bd a4 10 db 3c c2 74 ae 3d
       0.060665753 -0.07236157 0.026741333 0.085183635
000220 3b 8c ac bd 48 f8 0d 3e e3 16 1c 3e f8 95 2e bd
       -0.08425184 0.13864243 0.15243106 -0.04262349
000230 18 44 e1 3d d4 ea 1c be 65 9d db 3d 43 35 a1 3d
       0.10999316 -0.15323955 0.1072338 0.07871487
000240 c6 23 28 3d 23 c3 05 bd 46 a2 0e 3e d8 de 62 3c
       0.04104974 -0.0326568 0.1392909 0.013847075
000250 1b 79 41 bd 27 8f 89 3d 2a 64 d9 3d b9 8d 78 3d
       -0.047234636 0.06716757 0.10614808 0.060682032
000260 be da 07 bd 51 88 8b 3c 89 38 aa 3d f2 47 69 bc
       -0.033167593 0.017032774 0.083115645 -0.0142383445
000270 44 38 c0 bd 34 3c 28 bd 7b 1e b9 3d 90 5a f3 bd
       -0.09385732 -0.04107304 0.09039017 -0.11882508
000280 d6 a2 6a bd 78 0b cd 3c 77 ac c8 bd 6e 75 0e bc
       -0.0572842 0.025029883 -0.0979852 -0.00869499
000290 b5 3b 87 bc 39 b5 dd bc dd 7b 9d 3d b0 69 63 bc
       -0.016507963 -0.027063953 0.07689641 -0.013880178
0002a0 e9 e7 1c 3d 25 6f 67 3e 06 b4 83 3d ce c5 60 bd
       0.038307104 0.22600992 0.06430821 -0.05487614
0002b0 94 62 f2 bd b5 23 02 be 59 a7 2a 3d b3 84 13 bc
       -0.118352085 -0.12708934 0.0416635 -0.009003806
0002c0 44 72 64 bd 1f 8a 1d 3d da 38 71 bc 55 43 f9 bb
       -0.055773035 0.0384618 -0.014723027 -0.0076069036
0002d0 c4 10 0c 3e 02 18 f1 3c 70 cc 08 3e 93 d8 94 bd
       0.1367827 0.029430393 0.13359237 -0.07267871
0002e0 e2 96 c0 3c f3 36 d5 3d df ec de 3d 95 05 88 3c
       0.023509447 0.10410871 0.10885023 0.016604224
0002f0 50 2a ae 3d 4e ad 04 3e 6b 38 05 3e a5 77 eb 3c
       0.08504164 0.12956735 0.13009803 0.028743574
000300 34 d0 90 bd 59 de 5b 3d e0 b1 bb 3d be 41 3e bd
       -0.070709616 0.053678844 0.09164786 -0.046449415
000310 03 39 f7 3c 93 29 fc bb 09 f5 0f be 9b 82 20 3e
       0.030178552 -0.0076953857 -0.14058317 0.15674822
000320 02 8d 25 3b 00 c1 fd 3a 54 80 a3 bd 1b 19 ea 3b
       0.002526105 0.0019359887 -0.07983461 0.007144106
000330 00 2f cf bd 45 1d e6 bc 10 82 ec bc c8 9d 01 bd
       -0.101163864 -0.028090129 -0.028870612 -0.031644613
000340 0f 9e b5 3d 25 7e 17 bc a6 af ad 3c 8f 74 59 3d
       0.08868038 -0.009246384 0.02120192 0.053089675
000350 b9 cc 8a bd bc f5 71 3c 9a 24 f2 bc 4d ba c9 bb
       -0.06777329 0.01476806 -0.029558469 -0.006156242
000360 4c 75 a4 bd 2a cd bf 3d b1 93 0b bd a1 f3 56 3d
       -0.08030185 0.09365304 -0.034076396 0.052478436
000370 9e aa d9 3d fe d3 65 3d 9e 4f 89 3d ae 4b dd 3c
       0.10628246 0.056110375 0.06704639 0.027013626
000380 1a 0f 49 be d5 64 77 3d d8 87 4c bd 6e 9e 3c 3d
       -0.19634667 0.060398895 -0.04993424 0.046049528
000390 d1 44 e1 bb 72 31 70 3e 11 3f 3a be e5 1c e8 3d
       -0.0068746586 0.23456362 -0.1818812 0.11333636
0003a0 12 a6 01 3e e3 1f 02 be ad 64 63 3d eb 0c f0 bd
       0.12661007 -0.12707476 0.055515934 -0.11721214
0003b0 63 78 ee 3d bd bc 82 3d 64 3f ae 3d 4c 7c f6 3c
       0.11644056 0.06383655 0.085081846 0.030088566
0003c0 2a e5 01 3e d5 8f 02 3b 6f 94 ab 3c 3f ee 25 be
       0.12685075 0.0019922156 0.020944802 -0.16204165
0003d0 74 c4 e8 bc a8 3b d3 bc b2 dc b3 bc 98 62 73 3d
       -0.028413989 -0.025785282 -0.021955822 0.0594202
0003e0 59 09 af bc c7 ff 69 bc 0e 81 5b 3d 01 d1 b3 bd
       -0.021366762 -0.0142821735 0.053589873 -0.08780099
0003f0 fc 4f b1 3d 6f e6 14 bd 7d 87 b3 3b ad 1e 44 3b
       0.08657834 -0.03635257 0.005478798 0.002992551

mem_LSTM.weight_hh_l0 f4 [512, 128]
000000 3d 26 9b bd e0 46 6b bc 4d 31 bb 3d 99 6c 5e 3d
       -0.07575653 -0.01436016 0.09140263 0.054302786
000010 b2 cf 15 3e 37 5c 19 39 55 5c 88 bd c0 a9 a0 3d
       0.1463001 0.0001462557 -0.06658236 0.07844877
000020 1d 10 09 3d 00 ab 9a bd 35 36 38 3e 97 5c dd 3d
       0.033462632 -0.07552147 0.17989428 0.10808676
000030 75 33 0f 3e d0 5f 60 3a 73 ed 40 bc 4f 57 ce 3d
       0.13984473 0.0008559199 -0.011775362 0.100752465
000040 00 c1 aa bd 6d 98 30 3e 9f 2a c5 3c 12 a5 94 bd
       -0.08337593 0.17245646 0.024068175 -0.07258047
000050 fd ec 57 3e 02 3e 1d 3e f8 c6 3f 3d 0c d1 cc 3d
       0.21086498 0.15355685 0.04682061 0.1000081
000060 8d 0e 15 bb 98 dc 10 3e 49 f9 2b 3d c1 32 17 bd
       -0.0022744269 0.1414665 0.041985784 -0.036913637
000070 1e 8a 63 bd 5f 8a 92 bd 25 96 4f bb dc a5 61 3d
       -0.05555164 -0.071552984 -0.0031675186 0.055089816
000080 dc e8 b8 3d 46 3f 38 3d 2b 84 74 3c de 32 47 be
       0.090287894 0.044982217 0.014924089 -0.19452998
000090 78 cb 05 3e d6 c2 54 bd f4 6f 4c 3d e6 ea 38 3d
       0.13065898 -0.051943623 0.049911454 0.04514589
0000a0 a7 e2 7e 3e 7f c5 c4 3c 7f f9 04 3c d3 61 35 3d
       0.24891149 0.024019955 0.008116125 0.044282746
0000b0 3f 11 a5 bd 82 23 79 3c 5f ed 40 bd 77 7a 75 3c
       -0.0805993 0.01520622 -0.047101375 0.014982811
0000c0 ed 11 04 3d ed 5d d9 bd 9c 32 ec 3b f0 7c d7 bd
       0.032243658 -0.10613618 0.0072081815 -0.10521877
0000d0 b2 a0 9c 3d fd 9d ce 3d 8f 60 e7 bd c7 72 4d 3e
       0.07647838 0.100887276 -0.11297714 0.20063315
0000e0 9a 48 d5 bd 41 05 36 bd a0 59 37 3d 89 a8 90 bd
       -0.10414238 -0.044438604 0.044763207 -0.070633955
0000f0 46 5e fd 3d f2 d2 7d 3e 12 4a 13 3d 76 07 8f bc
       0.12371497 0.247875 0.03595931 -0.017459612
000100 00 7f 93 bd 4a 91 21 be 51 2e ee 3d 4f 53 dc 3d
       -0.07201958 -0.1577808 0.11629928 0.10758077
000110 af 15 c6 3d 61 31 7b 3d 36 cd 58 bd c4 d4 cf bd
       0.096721046 0.06132639 -0.05293008 -0.10148004
000120 5b 1b 50 3d 52 bc 55 3d a9 11 c1 bd 21 d4 c3 3d
       0.05080734 0.05218155 -0.094271965 0.09561945
000130 5d 99 16 bd 02 6e a2 3d ef 3e a5 3d 3a 1e f9 3d
       -0.036767352 0.079311386 0.08068644 0.121639684
000140 5c a6 b9 bc 52 0f 5f 3d ca 6f 19 be 9a 97 1c 3e
       -0.022662334 0.05445797 -0.1498405 0.15292206
000150 46 0d f2 bd 6c 7b 52 bd 7c fc 95 bd b7 2f 71 bd
       -0.11818938 -0.051387236 -0.07323548 -0.058883395
000160 87 1a 0b 3e 31 58 d8 3d 05 d8 f6 bd 97 b8 5e 3c
       0.13584338 0.10563696 -0.12052921 0.013593814
000170 ad 2f 2f 3e 3b 8f d0 3d 4d d0 91 bd f9 b6 1f 3d
       0.1710803 0.10183569 -0.07119808 0.038992856
000180 81 bf 41 bd 64 50 3c bd 07 aa ab bd 11 d3 b7 3a
       -0.047301773 -0.045975104 -0.083820395 0.0014024695
000190 40 07 d7 bd f8 a1 da bd 2b e5 e6 bd e2 25 ab 3d
       -0.1049943 -0.10675424 -0.11274179 0.08356835
0001a0 d4 5f 37 3d 05 7a 80 bd b3 9c ac bd 69 48 31 3e
       0.044769123 -0.062732734 -0.084283255 0.17312779
0001b0 20 af 10 3e 66 30 79 3d 39 cf c1 3d 99 21 95 bd
       0.14129305 0.060837172 0.09463353 -0.07281799
0001c0 0d 79 cb bd 38 25 92 bc fa 64 ee 3d 9f 9a 88 3c
       -0.09935198 -0.017840013 0.116403535 0.016675292
0001d0 ac 4d b9 bc 8b c6 00 be bf 6b 05 3c e8 75 f3 bd
       -0.022620045 -0.12575738 0.008143364 -0.11887723
0001e0 8a fd f0 bd c7 27 6a bd a7 a9 7d 3d d2 92 10 3e
       -0.11767109 -0.05716684 0.06192937 0.14118508
0001f0 84 a1 c7 bc 16 5e 4b bd b2 78 ad 3d 19 e9 36 3d
       -0.024369009 -0.049650274 0.084702864 0.044655893
000200 fb 7f b2 3d f2 76 37 bd 57 91 4e 3e a2 11 c7 bd
       0.087158166 -0.04479117 0.2017263 -0.0972016
000210 74 fc d6 3d 67 00 66 3c d6 d4 70 3d 3f 82 b8 bc
       0.1049737 0.014038182 0.058796726 -0.022523044
000220 bf 04 dc 3d 6d 99 06 3e 08 b0 86 3e 29 24 ac 3c
       0.10743093 0.13144465 0.26306176 0.021013336
000230 ac a7 a3 3c 6e 57 cd bd d2 da 4a 3e 8f 2e 79 bd
       0.019977413 -0.100264415 0.19810036 -0.060835417
000240 ef 81 11 be 75 1d 18 3e d4 c9 10 3d ea ac 6f 3d
       -0.14209722 0.14854987 0.03534873 0.058514513
000250 9e ae 2d be 65 d8 87 3e f2 4d 01 3e c0 1e ad 3d
       -0.16961142 0.26532283 0.1262739 0.08453131
000260 aa e1 69 bd 80 3d cd 3d ee 6c 03 3d ff e0 f8 bd
       -0.057099976 0.10021496 0.032086305 -0.121522896
000270 68 60 89 be 8f 93 fe bc 4f fc 9a bd f8 14 b0 bb
       -0.26831365 -0.03107622 -0.07567655 -0.0053735934
000280 97 52 e1 3d c0 c7 04 3d 3b 04 ed 3c 8b c9 af 39
       0.11002081 0.03241706 0.028932681 0.00033528762
000290 7f 68 60 3d c2 9c 05 3c b4 f0 a7 bd fe aa bc bd
       0.054787155 0.00815505 -0.08200207 -0.09212302
0002a0 cd e6 73 3d cd 8f 5a be 29 87 94 3d 4a cf 46 3e
       0.05954628 -0.21343918 0.07252342 0.19415012
0002b0 2e 92 6e bd fb 82 bd 3d 0d ce cb bd 80 f1 e1 3c
       -0.058244877 0.09253498 -0.099514104 0.027580976
0002c0 0e 02 8e 3d 2e 79 d6 bc a0 0a 86 3d de 37 81 3e
       0.06933986 -0.02618083 0.06544995 0.25237936
0002d0 b7 ad 47 3d e5 4f 3d bd 90 95 51 bd a4 bf 95 3b
       0.04874965 -0.04621877 -0.051168025 0.0045699645
0002e0 56 41 ed 3d ab 52 68 3d ed 07 0a bd 4f 31 2b be
       0.115847275 0.056719463 -0.033698965 -0.16718028
0002f0 32 f2 90 3d af 95 bd 3b 19 06 e3 bb f5 dd c9 bd
       0.07077445 0.005785666 -0.006928217 -0.09856788
000300 f3 18 95 be 1b d6 bf bd 5b 70 5f 3d 3f 38 9a 3d
       -0.29120597 -0.09367009 0.05455051 0.07530259
000310 3a 8f 9c bd 35 e8 15 be ce de 19 be 06 19 bf 3d
       -0.07644506 -0.14639361 -0.150264 0.09330945
000320 12 9f 34 3d 10 f5 75 3d 69 4b 86 3e b8 18 9d bd
       0.044097014 0.060048163 0.26229408 -0.0767073
000330 95 69 ac 3d b6 ab d0 39 83 d3 d0 bd 5d 35 ee 3d
       0.08418576 0.00039800786 -0.10196593 0.11631272
000340 d0 d3 8c 3d c1 e5 0f 3d ce a2 23 3c b9 ac 08 3e
       0.068763375 0.03513122 0.009987546 0.13347138
000350 c7 33 2d 3e df 9f 89 bd be 66 43 bd f7 9b f0 bd
       0.16914283 -0.06719946 -0.047705404 -0.11748498
000360 3c 41 bc 3d d4 e5 a4 3d 08 59 46 bd ab 6e 1e 3d
       0.0919213 0.08051649 -0.04842475 0.03867976
000370 11 4e 7b bc 68 3d f6 3d 7c 59 16 be 56 0e 28 bd
       -0.015338437 0.12023431 -0.14682573 -0.041029297
000380 27 1a 0c 3d c4 e9 bf bd 2a fa a0 bc ca b3 2b be
       0.03420463 -0.09370759 -0.019650538 -0.16767803
000390 15 46 0f 3e d3 cd 01 be 7f 1d 95 bd b0 b7 02 3e
       0.13991578 -0.12676172 -0.072810166 0.12765384
0003a0 49 51 5c 3d 32 6e 4d bd 27 97 68 bd bf 47 b3 3c
       0.053788457 -0.05015392 -0.056784775 0.021884797
0003b0 a5 f3 5f 3e 45 62 6e 3c ac dc 40 bc 39 05 eb 3d
       0.21870287 0.0145497965 -0.011771362 0.114756055
0003c0 e5 8a 8f 3c 1a 4b bb 3d 42 99 dd 3d 84 05 66 3d
       0.017522285 0.09145184 0.10820247 0.056157604
0003d0 47 1b 02 be d9 f4 a7 3c 49 64 29 3e 5c 9c 92 3c
       -0.12705718 0.020502495 0.16542162 0.017896824
0003e0 0d 7d 76 3d fb eb b5 bc 98 9f 88 3d 9d b4 f0 3d
       0.06017785 -0.02220725 0.06671065 0.11753199
0003f0 77 52 a5 bd 4b f0 45 3d a9 f0 45 bd 4f 03 f8 ba
       -0.080723695 0.048324864 -0.048325215 -0.0018921884
