tud_rl/run/DDQN_weights.pth (torch, 73473 bytes, 6 tensors)

layers.0.weight f4 [128, 6]
0.07988775 -0.34215966 0.6167443 0.7315283 -0.19687663 0.39196852 -0.05049794 0.1840194
0.04514549 -0.0258657 -0.08052843 0.3730135 0.14910379 -0.15909478 -0.029764878 -0.036753505
0.059173122 -0.0016308795 0.5298083 0.85685813 -0.6651317 -0.060070638 -0.3170496 0.10157404
0.118569314 -0.1350103 0.70910746 0.29256576 -0.39194494 0.60738885 0.2631567 0.5347923
0.85262907 0.16421488 -0.9445314 -0.10925962 0.4485107 -0.13007945 0.23934744 -0.2411244
0.28486344 0.15570803 0.30273443 -0.31107742 1.1408534 0.03393638 -0.5801576 0.3139457
-0.16004743 0.3080674 -0.48947245 -0.5121108 -0.050413456 0.13252217 0.72681016 0.20606309
-1.3392981 -0.9773126 0.11388276 0.26342326 -0.50767696 0.2879308 0.8956498 0.9907394
-0.09206248 -0.08378998 0.51878107 0.32863295 -0.68739 -0.8780766 -0.2723731 -0.09623089
0.14117603 -0.011503472 -0.3681292 0.10245847 -0.010588891 0.46298403 -0.2692827 0.16705145
-0.6911528 -0.9824955 1.0884314 -0.4777059 0.28092185 -0.31577438 -0.46751723 0.39981797
-0.25476184 0.6180716 0.14509377 -0.27979457 0.5621553 0.4935889 -0.012962372 0.05431003
0.3056544 0.11394404 -1.1100893 0.34592742 0.680999 0.20049654 0.86573017 0.62474173
-0.708473 -1.0157912 -0.053360764 -0.042635813 0.25636184 -0.34120327 1.1402473 0.30136943
1.3215175 -0.03579431 0.27873743 0.16883937 0.37085837 0.5400187 -0.5079007 -0.3332693
-0.4491666 0.69748014 -0.8379671 -0.41209352 -0.5357731 -0.007432714 -0.53040737 -1.015364
1.1145054 0.26522332 -0.12618604 0.10896888 0.63412786 0.2365719 -0.35638818 -0.028220104
0.09638889 0.4513834 -0.23014708 -1.1501602 0.95728695 0.24318372 -0.179246 0.14576575
0.14086746 -0.21200353 0.28697342 0.16461638 0.18432562 0.64694387 -0.037929174 0.19470318
0.5452831 0.5776765 -0.21468742 -0.08643983 -0.17609946 -0.21249925 0.38802835 -0.14261644
-0.47802138 0.5151358 0.29415578 0.95369077 -0.6926176 0.13742976 -0.4385867 0.16844448
-0.2761658 -0.28798833 -0.053623665 0.19482288 -0.07791351 0.44998476 0.4778171 0.32490042
0.4176351 0.12403339 -0.5469393 0.66798496 -0.09569774 -0.05805674 -0.34649512 -0.034053825
-0.466597 0.7124789 -0.35293925 -0.3182225 -0.013862598 -0.22074617 0.14607601 -0.15714523
-0.20137407 -0.038378965 0.43867865 -0.2913157 0.12942755 0.62520474 0.46432242 -0.38695595
0.2582931 -0.38435507 0.33963194 0.18103825 0.28817037 -0.0036893855 -0.0068587963 0.01348245
-0.07333199 0.54254645 0.091103785 0.05322802 -0.38618156 0.36728653 0.24082664 0.6816834
0.512739 -0.9321293 0.9828175 0.63140774 -0.22174606 0.64974135 -0.28128517 -0.43610838
0.4151234 -0.32017097 -0.15598959 0.63304496 0.29548007 0.25697193 -0.7455124 -0.55763716
0.9323525 0.01644233 -0.1786713 1.1675456 -1.1220614 -0.2695992 -0.353107 0.2857902
-0.3353239 -0.035761088 0.17147468 -0.011823743 -0.20701356 0.00933355 -0.9323689 -0.47696912
-0.12499175 0.15259768 0.35880727 -0.34981847 0.016955322 0.12621813 0.16927825 -0.22906601
00000000: 309c a33d 8d2f afbe f4e2 1d3f 7045 3b3f
00000010: 079a 49be 19b0 c83e eed6 4ebd 956f 3c3e
00000020: 7aea 383d 4ee4 d3bc 17ec a4bd a0fb be3e
00000030: aaae 183e bee9 22be 79d5 f3bc d88a 16bd
00000040: 845f 723d 3cc3 d5ba 84a1 073f 0e5b 5b3f
00000050: 1246 2abf a10c 76bd 5354 a2be 0d06 d03d
00000060: 78d4 f23d 2440 0abe 1188 353f 2ecb 953e
00000070: 02ad c8be d67d 1b3f 7abc 863e 26e8 083f
00000080: e645 5a3f f227 283e cfcc 71bf 82c3 dfbd
00000090: 32a3 e53e 8c33 05be 7f17 753e 51e9 76be
000000a0: 9fd9 913e ed71 1f3e 0200 9b3e 8a45 9fbe
000000b0: 7c07 923f e000 0b3d 3585 14bf 7ebd a03e
000000c0: 79e3 23be 03bb 9d3e 229c fabe b219 03bf
000000d0: 577e 4ebd e4b3 073e 3b10 3a3f 3402 533e
000000e0: 1f6e abbf 2931 7abf 5d3b e93d 6adf 863e
000000f0: 1ef7 01bf aa6b 933e 4e49 653f 19a1 7d3f
00000100: 418b bcbd 159a abbd d6ce 043f 9442 a83e
00000110: cbf8 2fbf a1c9 60bf 7d74 8bbe b314 c5bd
00000120: 7390 103e 0f79 3cbc 6e7b bcbe bfd5 d13d
00000130: 077d 2dbc 3e0c ed3e 6cdf 89be 890f 2b3e
00000140: 64ef 30bf d384 7bbf b851 8b3f de95 f4be
00000150: fdd4 8f3e 2ead a1be 6b5e efbe f1b4 cc3e
00000160: 2570 82be f139 1e3f 7693 143e 3c41 8fbe
00000170: 69e9 0f3f afb7 fc3e 2160 54bc 3274 5e3d
00000180: bc7e 9c3e 7e5b e93d 6817 8ebf 661d b13e
00000190: f355 2e3f f74e 4d3e 7ea0 5d3f 13ef 1f3f
000001a0: 7d5e 35bf 7205 82bf d190 5abd e4a2 2ebd
000001b0: dc41 833e 32b2 aebe a0f3 913f 184d 9a3e
000001c0: 7c27 a93f 0e9d 12bd acb6 8e3e 3ae4 2c3e
000001d0: 26e1 bd3e aa3e 0a3f c805 02bf 46a2 aabe
000001e0: 2af9 e5be 0f8e 323f 0385 56bf ecfd d2be
000001f0: 6d28 09bf 208e f3bb c7c8 07bf 73f7 81bf
00000200: 1da8 8e3f 5acb 873e ea36 01be 132b df3d
00000210: 3456 223f e73f 723e 8378 b6be d92d e7bc
00000220: 8a67 c53d ba1b e73e adab 6bbe 7338 93bf
00000230: c210 753f 2705 793e 438c 37be 9e43 153e
00000240: 8f3f 103e 7417 59be 2eee 923e 3291 283e
00000250: dbbf 3c3e 1d9e 253f 9f5b 1bbd 4560 473e
00000260: ac97 0b3f 9be2 133f 05d7 5bbe 5e07 b1bd
00000270: 6b53 34be 6799 59be a7ab c63e 0b0a 12be
00000280: 38bf f4be f1df 033f 969b 963e 1425 743f
00000290: 634f 31bf 63ba 0c3e 708e e0be b67c 2c3e
000002a0: 9b65 8dbe 3573 93be 7da4 5bbd a67f 473e
000002b0: 1e91 9fbd 6764 e63e 71a4 f43e 5959 a63e
000002c0: 45d4 d53e 3805 fe3d 3704 0cbf 1001 2b3f
000002d0: 2dfd c3bd e7cc 6dbd cf67 b1be 067c 0bbd
000002e0: cde5 eebe 0465 363f 74b4 b4be 0fee a2be
000002f0: f31f 63bc 490b 62be f394 153e aeea 20be
00000300: 0135 4ebe 4333 1dbd 7d9a e03e 5527 95be
00000310: a888 043e 6b0d 203f abbb ed3e 171f c6be
00000320: fe3e 843e 30ca c4be 3de4 ad3e 1762 393e
00000330: 118b 933e 9ec9 71bb c1bf e0bb 7ee5 5c3c
00000340: 152f 96bd 53e4 0a3f 9f94 ba3d a005 5a3d
00000350: 97b9 c5be fb0c bc3e 429b 763e ce82 2e3f
00000360: dd42 033f 07a0 6ebf ed99 7b3f f0a3 213f
00000370: 6611 63be 7355 263f 9c04 90be 9949 dfbe
00000380: 0e8b d43e 73ed a3be bcbb 1fbe 3c0f 223f
00000390: 2a49 973e d391 833e e7d9 3ebf 4fc1 0ebf
000003a0: a7ae 6e3f 11b2 863c 9cf5 36be 2272 953f
000003b0: b59f 8fbf e808 8abe 71ca b4be 1853 923e
000003c0: 93af abbe 387a 12bd 0f97 2f3e 5fb8 41bc
000003d0: 5dfb 53be bfeb 183c baaf 6ebf 4c35 f4be
000003e0: adfb ffbd 9142 1c3e 96b5 b73e 681b b3be
000003f0: e3e5 8a3c 533f 013e 4757 2d3e 4890 6abe

layers.0.bias f4 [128]
-0.010314946 0.35820615 -0.31328306 0.4274461 -0.054750685 0.45042282 0.6253312 -0.035344623
0.20037237 -0.05671675 -0.27894488 -0.4603383 -0.09555254 -0.20007357 0.18514012 0.17549624
-0.118264854 -0.564921 -0.012977616 -0.15449089 0.037641 0.35862446 -0.15026054 0.20989077
0.25674936 0.19166085 0.63406366 0.395663 0.4990819 0.05011509 0.21767108 -0.24644579
0.3372298 0.6375162 0.4876963 0.6028132 0.1451788 0.18663713 0.101432085 -0.21617763
-0.37527862 -0.36871567 0.29955715 -0.38192144 -0.27722684 0.056384336 0.1413691 0.4680626
0.5044842 0.698885 0.34470224 0.1479517 0.5612119 0.62777495 -0.25276044 0.4716429
0.04443705 -0.17643352 -0.25281593 0.019528344 -0.4413663 0.1652517 0.35715604 0.7933738
-0.020895552 -0.6073279 0.4511947 -0.18838803 0.48983726 -0.47536457 -0.27057913 0.5659833
0.40705645 -0.13474299 -0.35350513 0.22042197 0.35564387 -0.21622378 -0.75007915 0.21246691
-0.57809556 0.42757675 -0.08975014 -0.4440107 -0.3294642 -0.119560845 -0.043699127 0.37735486
-0.51277226 -0.02551009 -0.07638666 -0.357559 0.21425535 -0.05842477 -0.14989188 0.6513078
-0.078633144 0.45998767 -0.15991469 -0.06720631 0.09381778 0.58393717 -0.42377377 0.254387
0.30723023 0.22701587 0.116218746 0.12594368 -0.31693777 0.34991404 0.030897165 -0.111765824
-0.13721411 -0.119352646 0.40810287 0.43718678 0.4745878 -0.31642517 0.11708226 0.42572126
0.22257091 0.38345346 0.58676314 0.5420152 0.4492816 0.3793568 -0.45409632 -0.13383059
00000000: 0500 29bc cc66 b73e a366 a0be 37da da3e
00000010: 4142 60bd d29d e63e b515 203f 86c5 10bd
00000020: 6a2e 4d3e d34f 68bd ddd1 8ebe 76b1 ebbe
00000030: 0db1 c3bd 16e0 4cbe 5f95 3d3e 49b5 333e
00000040: d834 f2bd aa9e 10bf 11a0 54bc dc32 1ebe
00000050: 732d 1a3d a09d b73e e6dd 19be 9bed 563e
00000060: a774 833e be42 443e ff51 223f 5794 ca3e
00000070: aa87 ff3e 7b45 4d3d 2be5 5e3e 495c 7cbe
00000080: 62a9 ac3e 4334 233f 54b3 f93e f751 1a3f
00000090: c0a9 143e ce1d 3f3e a0bb cf3d ab5d 5dbe
000000a0: 8524 c0be 4dc8 bcbe 8e5f 993e 358b c3be
000000b0: adf0 8dbe 43f3 663d 10c3 103e e7a5 ef3e
000000c0: e025 013f 21ea 323f d07c b03e a780 173e
000000d0: 95ab 0f3f dcb5 203f d169 81be 2e7b f13e
000000e0: a003 363d fdaa 34be 1771 81be e8f9 9f3c
000000f0: c4fa e1be be37 293e 28dd b63e 8c1a 4b3f
00000100: 262d abbc d779 1bbf fe02 e73e cbe8 40be
00000110: f3cb fa3e fc62 f3be 5989 8abe 48e4 103f
00000120: b469 d03e 11fa 09be a0fe b4be 4cb6 613e
00000130: f416 b63e c469 5dbe 3005 40bf ed90 593e
00000140: 12fe 13bf 57eb da3e ecce b7bd 5f55 e3be
00000150: 88af a8be 51dc f4bd dbfd 32bd a834 c13e
00000160: 0b45 03bf 89fa d0bc 9c70 9cbd f911 b7be
00000170: c165 5b3e d04e 6fbd 427d 19be 1cbc 263f
00000180: 6a0a a1bd 8183 eb3e adc0 23be 76a3 89bd
00000190: 8923 c03d e87c 153f e0f8 d8be 033f 823e
000001a0: 484d 9d3e d976 683e 1804 ee3d 61f7 003e
000001b0: ab45 a2be ef27 b33e 0d1c fd3c 7be5 e4bd
000001c0: db81 0cbe 296f f4bd dcf2 d03e f2d6 df3e
000001d0: 2cfd f23e 7b02 a2be d3c8 ef3d 23f8 d93e
000001e0: a1e9 633e 0354 c43e 1c36 163f 82c1 0a3f
000001f0: 3d08 e63e 0e3b c23e 507f e8be e30a 09be

layers.1.weight f4 [128, 128]
0.14075321 0.28360847 -0.021408228 0.16091692 0.24436738 -0.10445572 0.14361547 0.15125889
0.24131371 0.020915715 -1.8110466 0.41074625 0.09009744 -0.4248256 0.2208479 0.29026863
0.2559385 0.6030306 -0.3405824 0.51257 0.35201254 0.32540613 0.18996581 0.36800584
0.2644065 0.097268164 0.15907991 0.25699043 0.26124468 0.15969573 0.29081756 0.05609245
0.27866104 0.23963612 0.21947607 0.14929388 0.2591877 0.3596438 -0.0011210437 -0.07624437
0.020374766 0.6730153 0.22759481 0.28822726 0.123556845 -0.18239179 0.31362346 0.2748101
0.30776182 -0.19109839 0.16871062 -1.0872325 0.22916694 0.20952152 0.80384564 0.1297649
-0.58391416 0.08596971 -1.5962135 0.11372716 2.1252384 0.37820056 0.28405362 0.043603886
0.2412418 0.12489948 0.15755323 0.29496616 0.34628704 -0.7049548 -0.90024835 0.18317546
0.2702978 0.20074637 0.061361752 0.22947003 -0.9687165 -1.5228417 0.5120298 -0.19632125
0.26025838 0.4297563 -0.6917047 2.571946 -0.007484398 -0.23178807 0.34024104 0.2436162
1.875215 0.28925234 0.1796168 0.07744871 -0.13505857 -0.049680725 -1.048045 0.25201163
0.27733666 0.15274148 -0.18108644 0.3990632 0.18997607 0.10865901 -0.024415411 0.22216567
0.22169107 -0.3969101 -0.9653553 0.21166131 -0.0034621528 0.3715687 0.28006202 -0.8921092
-0.053085793 -0.059009217 0.11805826 0.0065806857 0.030375557 0.25691563 0.30889732 0.2536109
0.2458243 0.1597707 0.16789323 0.1327239 0.18822438 0.22538397 0.41868782 0.2539356
0.2207115 0.19812618 0.013488108 0.12225722 0.25720072 -0.073786624 0.09784715 0.1644043
0.27158755 0.13461676 -1.5626409 0.25917244 0.07159157 -0.511986 0.19194996 0.2803641
0.12709229 0.47528797 -0.44322714 0.37722185 0.2813412 0.3782643 0.19412515 0.34532958
0.22401412 0.1086566 0.19329602 0.14148456 0.31060782 0.2620022 0.3056554 0.0032441062
0.23310532 0.073431134 0.1389974 0.2811477 0.31823882 0.30962935 0.017188124 0.04914209
-0.082444556 1.0944036 0.19767424 0.28991953 0.10963227 -0.1731021 0.31011847 0.30848983
0.13724023 -0.2257256 0.1672094 -1.0782533 0.20197922 0.26274544 0.46688017 0.16331837
-0.42999446 0.015751446 -1.4618431 0.113715254 2.4118536 0.31025892 0.17833869 -0.026180554
0.436652 0.33970162 0.2908413 0.27808967 0.16179791 -0.72156537 -0.61983675 0.17541942
0.07256538 0.23719071 -0.0212198 0.2004553 -0.8561064 -1.3044623 0.53412825 -0.14252202
0.37336677 0.51197314 -0.6853513 2.8048384 0.08684907 -0.082634665 0.06853939 0.17603621
1.0294266 0.3145421 0.2327829 0.08766543 0.057602305 -0.08659948 -1.1909527 0.18565005
0.2871036 0.30141082 -0.08432692 0.35873184 0.2963216 0.17303583 -0.045334067 0.17607407
0.18612939 -0.27375332 -0.87601036 0.34536195 -0.08712104 0.368944 0.21583721 -0.9170523
0.042257585 0.08098553 0.021640489 -0.11735595 -0.11305947 0.14809103 0.37874943 0.32720962
0.2048147 0.18557012 0.05027402 0.1430494 0.23266993 0.14965549 0.26270235 0.31230623
00000000: 9c21 103e 2135 913e 4f60 afbc 68c7 243e
00000010: 713b 7a3e e1ec d5bd ef0f 133e 9ce3 1a3e
00000020: f11a 773e 6f57 ab3c 60d0 e7bf 554d d23e
00000030: 0285 b83d be82 d9be f425 623e 179e 943e
00000040: 5f0a 833e 3760 1a3f d160 aebe ca37 033f
00000050: fd3a b43e a29b a63e 6686 423e 436b bc3e
00000060: 4a60 873e 8834 c73d d8e5 223e 4094 833e
00000070: ddc1 853e 4787 233e 0ae6 943e 32c1 653d
00000080: a9ac 8e3e 2c63 753e 56be 603e 7fe0 183e
00000090: 40b4 843e 3b23 b83e fcef 92ba 0226 9cbd
000000a0: fbe8 a63c bb4a 2c3f 9d0e 693e 8692 933e
000000b0: 5f0b fd3d eac4 3abe 4193 a03e e9b3 8c3e
000000c0: f592 9d3e 4caf 43be 7ac2 2c3e 6f2a 8bbf
000000d0: bdaa 6a3e cf8c 563e d4c8 4d3f 17e1 043e
000000e0: 667b 15bf e310 b03d b950 ccbf c9e9 e83d
000000f0: e803 0840 81a3 c13e 7a6f 913e fd99 323d
00000100: 1708 773e 4ccb ff3d a255 213e ce05 973e
00000110: 894c b13e eb77 34bf ad76 66bf 5992 3b3e
00000120: 7964 8a3e 7590 4d3e 7656 7b3d 31fa 6a3e
00000130: cefd 77bf 7aec c2bf 6314 033f 7008 49be
00000140: 9640 853e 0509 dc3e 8f13 31bf c39a 2440
00000150: ae3f f5bb da59 6dbe 1334 ae3e 8676 793e
00000160: 0c07 f03f e218 943e 77ed 373e 6e9d 9e3d
00000170: cb4c 0abe 047e 4bbd 5726 86bf ab07 813e
00000180: 12ff 8d3e 4368 1c3e b96e 39be 0352 cc3e
00000190: 1689 423e 9d88 de3d d402 c8bc 667f 633e
000001a0: fc02 633e cd37 cbbe 8621 77bf bebd 583e
000001b0: 49e5 62bb 413e be3e 4a64 8f3e 4561 64bf
000001c0: 7d70 59bd a6b3 71bd 87c8 f13d cba2 d73b
000001d0: 29d6 f83c 728a 833e ca27 9e3e 4ad9 813e
000001e0: 5eb9 7b3e ee9a 233e 34ec 2b3e c6e8 073e
000001f0: e4bd 403e 0ecb 663e 405e d63e d903 823e
00000200: 3202 623e 97e1 4a3e 3afd 5c3c fe61 fa3d
00000210: d0af 833e 711d 97bd 1664 c83d 9a59 283e
00000220: 860d 8b3e fad8 093e 9e04 c8bf 40b2 843e
00000230: 9a9e 923d 8411 03bf 888e 443e e28b 8f3e
00000240: 7b24 023e f258 f33e abee e2be 3923 c13e
00000250: f40b 903e dcab c13e bec8 463e 0acf b03e
00000260: f563 653e 5a87 de3d 64ef 453e 54e1 103e
00000270: fd07 9f3e 2725 863e dd7e 9c3e 129b 543b
00000280: 29b3 6e3e 1063 963d 5655 0e3e 97f2 8f3e
00000290: 33f0 a23e bd87 9e3e 1cce 8c3c 3749 493d
000002a0: b1d8 a8bd 6b15 8c3f 1e6b 4a3e 5570 943e
000002b0: e286 e03d ad41 31be d9c7 9e3e 61f2 9d3e
000002c0: b488 0c3e 9d24 67be f138 2b3e 3404 8abf
000002d0: a4d3 4e3e 9286 863e eb0a ef3e ee3c 273e
000002e0: 3c28 dcbe 2d09 813c ad1d bbbf 8be3 e83d
000002f0: cf5b 1a40 42da 9e3e 6b9e 363e 9a78 d6bc
00000300: da90 df3e 5fed ad3e 27e9 943e c561 8e3e
00000310: 5aae 253e 82b8 38bf 9fad 1ebf 26a1 333e
00000320: 289d 943d 1fe2 723e 25d5 adbc 2744 4d3e
00000330: ca29 5bbf 9ff8 a6bf a1bc 083f 4bf1 11be
00000340: ee29 bf3e ac10 033f 2f73 2fbf 7982 3340
00000350: eddd b13d 5d3c a9bd 615e 8c3d d642 343e
00000360: 40c4 833f aa0b a13e a45e 6e3e ef89 b33d
00000370: 65f0 6b3d 115b b1bd 2371 98bf 0c1b 3e3e
00000380: 3eff 923e 8552 9a3e 98b3 acbd b3ab b73e
00000390: 77b7 973e 4e30 313e 37b0 39bd c34c 343e
000003a0: b498 3e3e 6529 8cbe 3742 60bf 48d3 b03e
000003b0: 846c b2bd 3ae6 bc3e 6e04 5d3e f1c3 6abf
000003c0: 4a16 2d3d bedb a53d 6547 b13c 5158 f0bd
000003d0: b98b e7bd 2da5 173e 72eb c13e 0588 a73e
000003e0: f2ba 513e 1806 3e3e 21ec 4d3d 8b7b 123e
000003f0: 0741 6e3e 4a3f 193e ec80 863e 9ae6 9f3e

layers.1.bias f4 [128]
0.2113987 0.23518933 0.06448652 0.05340293 0.16212688 0.16800632 -0.07138079 0.14306754
0.3569826 0.04717648 0.2411332 -0.07251118 -0.024977475 0.24467121 0.060290188 -0.040879846
0.0082117785 0.19863313 -0.069066584 -0.02911628 0.060115762 0.16478361 0.19837691 0.18469998
0.002691971 -0.09511674 -0.054046318 -0.043715358 -0.0777581 0.037789106 0.11329572 0.24818307
0.13168243 0.16876788 -0.024704352 0.24651715 0.07029801 0.30293018 0.32625115 0.10700777
0.12087964 0.0638932 0.19232456 0.22911792 0.07927667 0.055981785 -0.0665553 -0.08358448
0.16311207 0.00013657734 -0.03337544 0.13226607 0.005048854 -0.058424 0.17584072 -0.059261195
-0.02030612 0.09062623 -0.02677974 0.069218464 -0.05321496 0.09632503 0.1412463 0.13173719
0.08487268 0.25609785 -0.010924168 0.13000883 0.056504205 -0.015537999 0.23564991 0.20933048
0.3898517 0.07319992 0.13799807 0.05001606 0.07377564 -0.08759795 0.20807995 -0.026005307
0.17608917 0.089052945 0.24691875 0.18321458 0.23393376 0.10500404 0.1845022 -0.05057963
0.14354128 0.22798313 0.2168708 -0.040441453 0.17649451 0.11242128 0.0693289 0.0076732105
-0.06728063 0.23226413 0.21544537 0.13015443 0.047358226 0.26192704 0.17681798 -0.0050282497
0.0719826 0.07308069 0.22177622 -0.061544012 0.26284608 0.07160812 0.18652977 0.16039005
-0.03930601 0.06536301 0.37849835 0.10534443 -0.04266262 0.06899549 0.22284615 -0.012927808
0.3859387 -0.029511217 0.116035394 0.15545715 0.14225252 0.10510637 0.16543674 -0.11467407
00000000: e778 583e 79d5 703e 8211 843d 08bd 5a3d
00000010: 9704 263e d909 2c3e 1730 92bd 4c80 123e
00000020: 6cc6 b63e 203c 413d 9feb 763e be80 94bd
00000030: 909d ccbc 178b 7a3e d8f2 763d a071 27bd
00000040: b28a 063c 7c66 4b3e c872 8dbd 4485 eebc
00000050: f23b 763d 09bd 283e 5123 4b3e fe21 3d3e
00000060: c76b 303b 91cc c2bd ac5f 5dbd e00e 33bd
00000070: a43f 9fbd c0c8 1a3d 9607 e83d b423 7e3e
00000080: c2d7 063e 7dd1 2c3e c860 cabc fe6e 7c3e
00000090: 67f8 8f3d aa19 9b3e 640a a73e e426 db3d
000000a0: bf8f f73d 70da 823d bbf0 443e e39d 6a3e
000000b0: cf5b a23d 284d 653d 254e 88bd 572e abbd
000000c0: da06 273e 3336 0f39 afb4 08bd c270 073e
000000d0: db70 a53b 014e 6fbd 970f 343e debb 72bd
000000e0: 0559 a6bc 3f9a b93d 2f61 dbbc 69c2 8d3d
000000f0: eef7 59bd 0f46 c53d dfa2 103e 1de6 063e
00000100: bad1 ad3d 421f 833e 48fb 32bc 0921 053e
00000110: f470 673d 1793 7ebc 364e 713e bb5a 563e
00000120: a49a c73e d7e9 953d 5e4f 0d3e a4dd 4c3d
00000130: af17 973d 8e66 b3bd e912 553e 1509 d5bc
00000140: b850 343e 6461 b63d 45d8 7c3e 9a9c 3b3e
00000150: 558c 6f3e 5c0c d73d 25ee 3c3e 962c 4fbd
00000160: 7cfc 123e 6974 693e 6113 5e3e f0a5 25bd
00000170: faba 343e 213d e63d 4ffc 8d3d 8e6f fb3b
00000180: 6dca 89bd a6d6 6d3e b69d 5c3e 3447 053e
00000190: b3fa 413d 4d1b 863e c60f 353e 04c4 a4bb
000001a0: 9d6b 933d 54ab 953d 4e19 633e 9315 7cbd
000001b0: c393 863e 47a7 923d a901 3f3e 4a3d 243e
000001c0: 57ff 20bd 0bdd 853d 89ca c13e d2be d73d
000001d0: 00bf 2ebd 824d 8d3d c831 643e 28cf 53bc
000001e0: c299 c53e 82c1 f1bc f7a3 ed3d 2930 1f3e
000001f0: a5aa 113e 0242 d73d 4068 293e 3dda eabd

layers.2.weight f4 [3, 128]
-0.22188568 -0.26551902 -0.2869816 0.032845307 -0.19434306 -0.2610436 0.06836933 0.6717824
-0.4507351 0.010895665 1.4119294 -0.056887686 -0.015884126 -0.3333159 0.029762547 0.054956287
0.065662906 -0.26415345 -0.0634646 -0.0528936 -0.07441638 -0.2652306 -0.23570509 -0.65769327
1.233083 0.012470849 -0.05053323 0.0008377705 -0.054469228 0.07298241 -0.3251637 -0.26538256
-0.22906366 -0.30359593 0.062545285 -0.23567106 2.6391811 1.4828751 1.5990852 -0.4897499
-0.34146237 -0.34329137 -0.16748774 -0.17923726 -0.31375805 0.06831571 -0.040477727 -0.04220174
-0.27829555 0.06255535 0.041780233 -0.35814974 -0.031146407 0.04163266 -0.17308539 0.033942815
-0.0262226 -0.32400972 0.02407724 0.94065356 0.057161387 -0.2191102 -0.25570977 -0.29356858
-0.0013847663 -0.15316828 0.075092115 -0.275111 -1.2463045 0.04362044 -0.23581594 -0.28716958
1.4437728 0.025540223 -0.30488002 2.9491892 -0.19100608 0.021232612 -0.2820987 0.019602528
-0.2660476 -0.32672197 -0.6436238 -0.3128287 -0.31798938 -0.24356799 -0.20182356 -0.04284543
-0.3326017 -0.3152535 1.1411296 1.1322361 -0.3215741 -0.26836878 0.03896321 0.02625547
1.094101 0.23332456 -0.28624153 -0.24459547 0.045217674 1.3207952 -0.2595059 -0.0491141
-0.3444966 -0.024958871 -0.31952158 -0.27518132 1.1541593 0.09262389 -0.34442472 -0.19195288
0.08525233 0.002825187 1.4968761 1.0322895 0.042643104 0.26511106 -0.43888727 0.018372918
1.5519677 0.04655226 -0.20992693 -0.1918351 -0.35298362 -0.30319643 -0.3392419 -0.42895848
-0.33098727 -0.3572194 -0.18248902 -0.018253252 -0.34364337 -0.20709397 -0.05419939 0.6823062
-0.5311023 0.055998687 0.97972775 0.048593555 0.012770232 -0.324026 -0.029224614 0.011897414
-0.03806957 -0.2706887 -0.010260892 0.08110516 0.06239897 -0.26699197 -0.2503903 -0.7952953
1.3015186 -0.058325496 0.046502367 0.034051605 -0.018278716 0.066373736 -0.19799137 -0.36469337
-0.2945634 -0.19698323 0.013977797 -0.28304237 2.4848046 1.5495236 1.4376888 -0.3513377
-0.3487199 -0.22481294 -0.340875 -0.28740767 -0.19059852 0.042609718 0.07171483 -0.078247406
-0.20290524 0.025478272 0.040939555 -0.21852311 0.07902902 0.07548339 -0.22667284 -0.07305554
0.06122056 -0.41725063 -0.0005198814 1.6811426 0.0038640695 -0.27598664 -0.41178572 -0.13117357
0.0029178262 -0.29030287 0.017420487 -0.2779764 -1.0069625 0.11422029 -0.26015115 -0.26971725
1.7203351 0.03663804 -0.27078637 3.178004 -0.3074337 -0.028809441 -0.2709475 -0.06782523
-0.22668733 -0.25694734 -0.32517096 -0.3295555 -0.33610013 -0.3271807 -0.30492187 -0.075932406
-0.27673128 -0.33761796 1.5544486 1.1596373 -0.2827168 -0.1568192 0.06445381 0.059287637
1.0275521 1.7331951 -0.25225836 -0.2585087 0.010873308 1.1378348 -0.28702748 0.06981491
-0.20072047 0.05581319 -0.2687108 -0.70421696 1.0250101 -0.0690032 -0.23755126 -0.31741548
0.075275086 0.019199995 0.917112 1.3470776 0.07425714 0.5460078 -0.5446568 0.03988802
1.7778354 -0.0032215973 -0.3103384 -0.30248952 -0.35093546 -0.3013537 -0.25281966 -1.0953767
00000000: 0036 63be 1cf2 87be 41ef 92be cd88 063d
00000010: de01 47be 82a7 85be 3805 8c3d eef9 2b3f
00000020: c0c6 e6be bb83 323c 1aba b43f 1003 69bd
00000030: 6d1f 82bc 62a8 aabe 96d0 f33c d819 613d
00000040: 467a 863d 1f3f 87be baf9 81bd f6a6 58bd
00000050: 9d67 98bd 4ecc 87be ad5c 71be 965e 28bf
00000060: aad5 9d3f 8852 4c3c effb 4ebd d49d 5b3a
00000070: 201b 5fbd cd77 953d db7b a6be 39e0 87be
00000080: aa8f 6abe ed70 9bbe be17 803d c153 71be
00000090: 58e8 2840 dace bd3f d3ae cc3f 80c0 fabe
000000a0: 28d4 aebe e3c3 afbe e881 2bbe f989 37be
000000b0: e5a4 a0be 1be9 8b3d f9cb 25bd bbdb 2cbd
000000c0: c17c 8ebe 051d 803d c021 2b3d 675f b7be
000000d0: c026 ffbc 0287 2a3d 4c3d 31be 9f07 0b3d
000000e0: c7d0 d6bc 9ae4 a5be a23d c53c acce 703f
000000f0: 0f22 6a3d 6d5e 60be 64ec 82be 9f4e 96be
00000100: 0c81 b5ba 25d8 1cbe e5c9 993d 59db 8cbe
00000110: e886 9fbf 59ab 323d bc79 71be e407 93be
00000120: 8ccd b83f bb39 d13c 3c19 9cbe 84bf 3c40
00000130: 1997 43be 04f0 ad3c 3e6f 90be 7b95 a03c
00000140: 6437 88be 1a48 a7be 88c4 24bf 152b a0be
00000150: 81cf a2be e369 79be d6aa 4ebe b17e 2fbd
00000160: c54a aabe e868 a1be 8910 923f 1ded 903f
00000170: 5ca5 a4be a267 89be e397 1f3d b615 d73c
00000180: 800b 8c3f a2ec 6e3e 408e 92be 3c77 7abe
00000190: 2b36 393d d10f a93f f5dd 84be de2b 49bd
000001a0: dc61 b0be 8c76 ccbc 5598 a3be 91e4 8cbe
000001b0: 7ebb 933f 98b1 bd3d 7058 b0be 4c8f 44be
000001c0: c698 ae3d c626 393b a399 bf3f 1022 843f
000001d0: 89aa 2e3d a3bc 873e d5b5 e0be cd82 963c
000001e0: e1a6 c63f 95ad 3e3d 16f7 56be 6c70 44be
000001f0: 45ba b4be 903c 9bbe 1db1 adbe 72a0 dbbe
00000200: 2a77 a9be 76e5 b6be 67de 3abe d887 95bc
00000210: 06f2 afbe 7110 54be 2e00 5ebd 9eab 2e3f
00000220: 52f6 07bf e15e 653d 70cf 7a3f 090a 473d
00000230: 3c3a 513c bce6 a5be 7568 efbc 5fed 423c
00000240: d6ee 1bbd b697 8abe 4d1d 28bc 761a a63d
00000250: 1096 7f3d 2cb3 88be 2833 80be 7998 4bbf
00000260: 2998 a63f b7e6 6ebd 4479 3e3d b279 0b3d
00000270: 3fbd 95bc f4ee 873d 40be 4abe 17b9 babe
00000280: 04d1 96be f9b5 49be 2103 653c eeea 90be
00000290: 0a07 1f40 ca56 c63f 3006 b83f 89e2 b3be
000002a0: 6a8b b2be 5d35 66be 2b87 aebe 1927 93be
000002b0: 422c 43be 8787 2e3d 3adf 923d 2d40 a0bd
000002c0: 64c6 4fbe cfb7 d03c 3cb0 273d 86c4 5fbe
000002d0: f8d9 a13d 0997 9a3d ed1c 68be 259e 95bd
000002e0: 69c2 7a3d e0a1 d5be a648 08ba ae2f d73f
000002f0: 543c 7d3b 1f4e 8dbe 94d5 d2be 5d52 06be
00000300: 0039 3f3b 94a2 94be 69b5 8e3c ec52 8ebe
00000310: 26e4 80bf 54ec e93d 8832 85be 6118 8abe
00000320: f133 dc3f c511 163d 83a4 8abe 6b64 4b40
00000330: f367 9dbe c701 ecbc a1b9 8abe f4e7 8abd
00000340: b920 68be 9a8e 83be cf7c a6be 80bb a8be
00000350: 5115 acbe 3b84 a7be b81e 9cbe 7382 9bbd
00000360: b9af 8dbe 43dc acbe 2cf8 c63f ff6e 943f
00000370: 42c0 90be 3695 20be 5c00 843d 98d7 723d
00000380: d486 833f 56d9 dd3f 0228 81be 415b 84be
00000390: f625 323c 92a4 913f 44f5 92be 1ffb 8e3d
000003a0: ab89 4dbe 5f9c 643d 7694 89be 9047 34bf
000003b0: 8833 833f 8d51 8dbd a340 73be 4884 a2be
000003c0: d329 9a3d 4f49 9d3c dac7 6a3f 0a6d ac3f
000003d0: 2114 983d 2bc7 0b3f a16e 0bbf 9f61 233d
000003e0: 1c90 e33f 6f21 53bb ade4 9ebe e8df 9abe
000003f0: d0ad b3be 084b 9abe 9471 81be 4e35 8cbf

layers.2.bias f4 [3]
-0.028431019 -0.16914345 -0.18144818
00000000: 2be8 e8bc f133 2dbe 8dcd 39be
