tud_rl/run/RecDQN_weights.pth (torch, 486355 bytes, 12 tensors)

dense1.weight f4 [128, 8]
00000000: 291e f7bd d3bd 99be 9ff2 cc3e 389a b3be
00000010: 6e31 c83d d53e 8a3e e35a 8f3e b504 0a40
00000020: 9d12 58be 25ef 2b3f c0cf 653f f9b8 1b3f
00000030: 61a8 6ebd 3c7e d4be e1f6 333f ead3 c03f
00000040: a537 0b3e 439a 75bd 3c1d 8e3f 9792 333e
00000050: c695 8ebe 48fb 40be 6f09 553f 225a e53f
00000060: 8802 5cbd 231b cebe 2152 473f aa5e bc3d
00000070: 611b 4cbe 766c 863e 85be cb3e 6efc 0540
00000080: deb2 b33e 2215 febf e873 72c0 f789 b03e
00000090: 1900 983e 1d9e 873d 4461 0d3f 6c94 973c
000000a0: 12d2 b23e 52a2 76bc 6521 dc3e b8fd 11be
000000b0: 0015 c2be b0eb 653e 8353 fd3e 281a 0b40
000000c0: e6e1 6f3e f0e0 e2be 2af3 023e 3940 0d3e
000000d0: 162d 89be 01af 5abe 304b 673f de31 0940
000000e0: f38b 9fbe be52 493e 321b 7b3f cd7d 33be
000000f0: 80dd b1bd bdd7 863e e376 8a3f 885f 1140
00000100: 988a 22be 2d35 98be d451 943f 43a8 d7be
00000110: d26a 08be 1fea ff3c d3c7 7d3f 75c5 f33f
00000120: 6a9d d93d 1580 4dbd c653 dabe 5d2c d03d
00000130: cf5b c4bd d3b3 cdbd 0c1a 4e3f 47df e03f
00000140: 8c27 103e 7d80 b9be 206b c03e 0156 30be
00000150: 9981 fb3d 1285 55be b8e6 133f 3820 1140
00000160: 5f32 a4bf 6e35 0a3f 36e0 05be 15ab ddbe
00000170: 56f4 17c0 c6df c03e 86e4 e3be 281a 8d3f
00000180: c08d ba3d 72a5 c43e 5664 fabf 8259 653d
00000190: d53d a03e 3767 41bd f6be 063f ed45 be3f
000001a0: 824e 953e c561 9f3e 332f d9be 1984 fe3d
000001b0: 6d0e 4e3d cb39 013e 95c1 623f 6197 e63f
000001c0: 2440 dd3d e34f a23e 954f 9bbf 8b24 0f3e
000001d0: 67b6 d8be 9720 b1be 9272 163f bb39 1140
000001e0: 9701 353d b69c 66be d95d ea3d 9af1 17be
000001f0: 0271 cbbd 2b8a 1a3d e968 673f 7c52 0f40
00000200: f5ae aa3e 53e4 83be 9f0d c83b 1f32 dabd
00000210: ab1c d93d 9424 80be a5df 70be 07bb 3ebe
00000220: a47d 6c3e f9a5 adbe 9561 183e 466e eb3c
00000230: 77e9 033e 5d9c 1ebd ba80 8d3f 0155 fc3f
00000240: 5978 52be 29ab b03e 79dc 2abd 42b1 00bf
00000250: 0fbb 073e fbea 403e 1512 0a3f a89c f23f
00000260: 327b cf3e e61b 28be fbf5 2a3f 8dc1 f8be
00000270: 6f77 ee3d 0ee3 283d ea0e 8c3f a8ea d93f
00000280: 0aa7 b93e d139 5dbe b039 eebe 41c3 a5be
00000290: c81e 27bd b934 babe 2544 c73e d49b 0740
000002a0: a879 a93f c6f8 d9bf 783b 2d40 4af4 19bd
000002b0: 87e8 b9be 9b50 bb3d 6abe 8abe 5715 4fbf
000002c0: 7418 883d 185e 1d3c 650c 51bf af35 9dbe
000002d0: 2e19 963c 7408 923e 8831 3b3e 77f7 1240
000002e0: b4e2 72bf 880f e43e eed6 dd3e daae d63d
000002f0: 0628 2d3e 1b25 d3bd 64d4 093e 67a3 2140
00000300: 5c1a 85be 6024 01be 96c0 083f cb0e 043d
00000310: 3286 f3bd 5379 483d 2ee5 743f 25c7 1840
00000320: e5e5 27bd 8203 103e 3ac2 2abf d1c3 d5be
00000330: aa64 53be a4a6 a3bc f8bc f43e 5481 0c40
00000340: 13fa bf3e de83 0e3e 8d60 65bf 8a15 c93d
00000350: e284 583e 70b8 243e e4df 063f af4e 1140
00000360: 8739 4a3e 66d3 45be cd8e debe 87fe 293e
00000370: eb6f 1cbe 6db9 e2bc 00f0 b83e 5b18 0440
00000380: f34e 1ebf 8f5a dcbe 1107 a03e bb1d a9be
00000390: a0e7 2dbf 9f1b 8cbf 1d14 033f a190 ba3f
000003a0: f85a f5bc 29b6 5cbd a2da b23e c47a 9cbe
000003b0: a891 a8be deec 853c 4a4c 6a3e b266 c8bd
000003c0: 9fca 713e b05d 8a3e 2c86 cebd 2d79 acbe
000003d0: 529a 2d3d d7bc 1cbe b341 9abd 1af0 553d
000003e0: 9c50 ea3d 6c47 f5bf cbfb 06c0 fa70 d23c
000003f0: c419 c73d 479c d73d b284 b23e 8176 913f
-0.120662995 -0.30027637 0.40028855 -0.35078597 0.09775053 0.27001062 0.2799903 2.1565373
-0.2110085 0.6716178 0.89770126 0.6082912 -0.058266047 -0.4150256 0.7029858 1.5064671
0.13595445 -0.05996157 1.1102672 0.17536388 -0.27848643 -0.18845856 0.8321752 1.7918131
-0.05371335 -0.4025508 0.77859694 0.09197743 -0.19932319 0.26254624 0.39793792 2.093532
0.35097402 -1.9850199 -3.7883244 0.3448026 0.29687575 0.066219546 0.5522654 0.01850339
0.34925896 -0.015053349 0.42994228 -0.14256942 -0.37906647 0.22453189 0.49477777 2.1734715
0.23426017 -0.4431224 0.12788072 0.1379403 -0.2679221 -0.21355821 0.903491 2.1436687
-0.3116146 0.1966047 0.9808837 -0.17528458 -0.08684826 0.2633647 1.0817531 2.2714558
-0.15873182 -0.2972807 1.1587472 -0.4212056 -0.13321999 0.031239567 0.9913303 1.9044634
0.106257275 -0.050170977 -0.4264204 0.101647116 -0.095878236 -0.100440644 0.80508494 1.7568139
0.14077586 -0.3623084 0.3758173 -0.17220308 0.12280578 -0.20851544 0.57773924 2.2675915
-1.2827872 0.5398778 -0.13073811 -0.43294588 -2.374288 0.37670726 -0.44510287 1.1023607
0.09109068 0.38407475 -1.956187 0.055993564 0.31297174 -0.047217574 0.52635133 1.486509
0.2916146 0.3112928 -0.42418823 0.124275394 0.050306726 0.12619703 0.8857663 1.8014947
0.108032495 0.31701574 -1.2133662 0.13978784 -0.42326662 -0.34595177 0.5876857 2.2691486
0.04419097 -0.22520718 0.11443681 -0.14838257 -0.09933664 0.037729423 0.90394455 2.2394094
0.33336607 -0.25760135 0.0061051394 -0.10654091 0.10601171 -0.25027907 -0.23522814 -0.18626033
0.23094803 -0.3391569 0.14880975 0.028739106 0.12882029 -0.03872334 1.1054909 1.9713441
-0.20553721 0.34505585 -0.041714165 -0.50270474 0.13254951 0.18839638 0.5393384 1.8954058
0.40523678 -0.16416892 0.66781586 -0.48585168 0.11643874 0.04123216 1.0942051 1.7024736
0.36260253 -0.21604086 -0.46528387 -0.3237553 -0.04080084 -0.3636835 0.38919178 2.118886
1.3240252 -1.7029045 2.7067547 -0.037586488 -0.36310217 0.09146234 -0.270984 -0.80891937
0.06645289 0.009604953 -0.8165954 -0.3070502 0.018322553 0.28522074 0.18280613 2.296354
-0.9487717 0.445431 0.4332804 0.10482569 0.16909799 -0.10309812 0.13459927 2.5255983
-0.25996673 -0.12611532 0.5341886 0.03224067 -0.1189083 0.04894383 0.956622 2.3871548
-0.04099073 0.14063838 -0.66702616 -0.4175096 -0.20643869 -0.019976921 0.47800422 2.1953936
0.3749548 0.13917491 -0.8960045 0.098185614 0.21144441 0.16085982 0.5268538 2.2704275
0.19748507 -0.19318923 -0.43468323 0.16601 -0.15277068 -0.027676309 0.36120605 2.0639865
-0.61839217 -0.4303784 0.3125539 -0.33030495 -0.67931557 -1.0945929 0.51202565 1.4575387
-0.029950604 -0.05388466 0.3493243 -0.30562413 -0.32923627 0.016348299 0.22880664 -0.097852126
0.2361245 0.27024603 -0.10084185 -0.336862 0.0423835 -0.15306412 -0.075320624 0.05223093
0.11441156 -1.9162421 -2.1091182 0.025688637 0.09721711 0.105278544 0.34866863 1.136429

dense1.bias f4 [128]
00000000: dbe3 4cbe 6455 533d fc79 ee3c 8e30 9abd
00000010: 412a 0dbe 8ddf 8cbe 1e99 42be 0310 d3bd
00000020: 135a af3e ace0 033e 7b63 86be b5cd 0ebf
00000030: 4f7b 713e 2b99 39bd 745f 3ebe 003d bdbc
00000040: 8e23 a2be e572 823e a58f 753e 434e d83d
00000050: 613c 943e 219e 6cbf d1e9 0cbe 9c33 a4bf
00000060: ce43 8dbe 4a36 9e3e c342 adbe 7964 123e
00000070: f3c3 82bf 7a38 8fbe d2b3 a0be 1f81 0f3b
00000080: d5e0 c83c 1058 913e f17b abbf de89 54be
00000090: 2f5b 5b3e ca87 10be 1f4b a13e f416 e93d
000000a0: 7ebf 45be b5cc 17bf cb27 e4bd 884a aebf
000000b0: e460 a2be 9919 973d 7690 f2bd 4d1d 0fbd
000000c0: 9e30 693e 5e2d 13bf 3a6b 983e c406 adbf
000000d0: e494 66bf 046b 013e f176 9fbf 3daa 8bbf
000000e0: ce82 e5bd 7ba7 05be 8cba efba b220 543e
000000f0: 9b7a a03e 16d3 803e ad3f c93c c5e6 ccbd
00000100: 689f 8f3e cb62 9ebe 5bd1 713e b136 0fbe
00000110: bf9b 873e 1301 9b3e 3fc1 bbbf a5d1 8abe
00000120: 4e21 713e 6f42 a73e b6f4 25be 3052 833d
00000130: fd6a 8bbe 5d94 803d bfc1 143e d714 a83e
00000140: 4735 9f3d 433a 3ebe bfc5 a5be 68cd c73e
00000150: 785e bebd 6e0c b3be db8a 55be 9870 623e
00000160: e6a8 71be 0a60 8e3d 2f3d b3be c497 b6bd
00000170: 5ccb 923c 3450 2dbe a317 8dbf b551 bbbe
00000180: e529 abbc 9666 3bbe 6b7a f4be a2ef 413e
00000190: 55fe 80be 1f0a 8f3e e60c ce3d 18e3 883e
000001a0: 949d 86bf 5913 b33e bca2 223c 8c44 853e
000001b0: 8888 8dbf 4953 f73d 0674 073d 7388 99be
000001c0: f2f7 413e c5d5 a83e 1dc8 0ebe db6c ff3d
000001d0: 6d52 94bf 4fdb 90be f53d 24bd 065d 6f3e
000001e0: 8533 993e 5f19 3c3e 4bd1 5d3d 4c19 cebd
000001f0: e6dc ea3d 40f4 09be e452 76bd 9fe9 a03e
-0.20008795 0.051595107 0.029110901 -0.07528792 -0.1378565 -0.27514306 -0.19003722 -0.10305788
0.3424841 0.12878674 -0.26247773 -0.55782634 0.23582195 -0.045312088 -0.185911 -0.023100376
-0.3166775 0.25478283 0.23980577 0.10561802 0.28952315 -0.92428786 -0.13761069 -1.282825
-0.27590793 0.30900794 -0.33839998 0.1429614 -1.0216049 -0.27972776 -0.31387192 0.002189703
0.02452127 0.283875 -1.3397199 -0.20755717 0.21421503 -0.141143 0.31502625 0.11381331
-0.1931133 -0.59296733 -0.111404024 -1.3616495 -0.31714547 0.07377929 -0.1184396 -0.034940053
0.22772452 -0.574911 0.29769307 -1.351769 -0.9007094 0.1263848 -1.2458173 -1.0911328
-0.1120659 -0.1305217 -0.0018289848 0.20715597 0.3134354 0.25161046 0.024566496 -0.10004953
0.28051305 -0.30934748 0.23615019 -0.13985707 0.26486012 0.30274257 -1.4668349 -0.2711307
0.23547861 0.32667872 -0.16206631 0.064121604 -0.27230063 0.06278298 0.14527033 0.328284
0.07773834 -0.18576913 -0.3237743 0.390239 -0.09295362 -0.3497042 -0.2085375 0.22113264
-0.23599586 0.06951912 -0.35007617 -0.08915666 0.017919235 -0.16925126 -1.1022838 -0.36585775
-0.020894 -0.18300852 -0.47749647 0.18939069 -0.2519404 0.2793741 0.10061054 0.2673576
-1.0516839 0.349757 0.009926494 0.2602886 -1.1057291 0.12076432 0.033069633 -0.29986915
0.1894224 0.32975593 -0.13943525 0.124719344 -1.1587654 -0.2829232 -0.04009815 0.2337533
0.2992212 0.18369053 0.054154675 -0.10063419 0.11467914 -0.1347208 -0.060137644 0.3142824

LSTM.weight_ih_l0 f4 [512, 6]
00000000: 478f 873f 7fa9 153e 5b6e 803e 6eaa c13e
00000010: 4148 3abe b313 ab3e 3f3e 943f 7456 c0be
00000020: c0c3 e73d 46da 283e 5fb9 dabc 22b0 5c3f
00000030: 5b46 5d3f 7557 37c0 fac4 d73f a638 023c
00000040: 27f0 143d df65 6b3e 744c 0240 ab8b 22bf
00000050: c4cc 123f 3bde e33f d920 8bbe 5e14 853f
00000060: 0515 8f3f e370 ecbc 51c6 443f 53f3 debe
00000070: 9ed0 853d e7c5 7b3e 0655 39bf 52c2 f3be
00000080: 639b 7f3e e999 2cbf 9827 30bf a510 6e3e
00000090: e5ce 9abf 8314 0b40 a69a 8dbc e321 273f
000000a0: d003 923e 1b3b 843f 1614 943f ac2e 883d
000000b0: 0f45 e53e e24e e33e 2664 83be 8f86 bc3f
000000c0: c221 bcbd 3b98 4d3d 23e2 bc3e 6386 1a40
000000d0: 71db ecbd c503 92bf e7f0 0940 e8f2 95bd
000000e0: d377 9b3d 483f 6f3f f159 bdbe 97b3 8c3f
000000f0: 14b0 9bbc 1bb0 2a3d d7cc b03e a5a9 81bf
00000100: e9be a5bd 2d78 d53f 58f6 57bc c8de 703f
00000110: fdef 7f3f e4e6 e13e 18ca 333e c574 4e3e
00000120: e356 37be a37b c13e 9058 39bd 9661 df3c
00000130: 176f 75be 9ec7 98ba 27a9 8bbd 0865 d83e
00000140: 2d82 833f 02e2 b83e baaf 803e 1c17 0140
00000150: 8cef 3ebf 63f0 e53e 5c48 4e3e 07e4 3d3f
00000160: fb40 14be c7c1 98be cda0 533f d572 a3bb
00000170: e8b1 963f af64 333f f1f7 5b3d 0d0b 2f40
00000180: 0e93 903f 9672 ddbe ac6f 083f eaf6 ac3e
00000190: 35b4 ae3e a9e3 d33e f367 1240 4c34 ee3d
000001a0: 0419 9b3f 48e4 b93e b244 0dbe f621 0940
000001b0: c2b1 14be 4898 9f3e 9512 553f 2fb3 fdbe
000001c0: c7b7 0c3e bc55 f83e 3314 37bf f48a 3e3f
000001d0: b681 893f 38ef abbf 33f7 613e f975 c63e
000001e0: 407a 3f3f 1852 cfbd 7556 dd3e 7fda 5e3f
000001f0: c8d0 aabd da90 c4be c35d cebf 14ea 183f
00000200: 7164 2f3f 3a12 ccbe 14e7 63bd 8551 23c0
00000210: 1662 8fbf 74ee 233f 0257 c13e 23c5 653f
00000220: 10b4 f1be b899 1cbf 2ccb 00bf 16ab 98bf
00000230: 266e 8d3d d594 0cbf 95c8 483d baec f53e
00000240: 3215 ed3f 9675 6f3e 7661 22bf c472 a4bc
00000250: 2948 b4bc 8aaf 593f 7b8e 8d3d 5d98 3dbf
00000260: 1e3e 4a3f 1d76 863f 3ceb 49be 914d 07c0
00000270: c474 dc3f 6f05 e43e fe1b 983f adb7 283f
00000280: 8db3 92be 4477 87bd 3f5e 853f e33b 4f3e
00000290: babe 113c d09a a93f 879f 943d 668d 1940
000002a0: fa45 443f 275c 3c3f 345e 283e db89 353e
000002b0: bf28 f83d 33bc d43e 1356 fd3f 67c3 be3e
000002c0: 29d4 9ebe d27a e8be abd1 b83d f4bf a23e
000002d0: 49c7 bbbd 19fe 9bbf 7eec 523e 680e 77be
000002e0: 184e dcbd 7e95 323e 74c6 ddbf 5dc9 18be
000002f0: de77 9dbe 11ec 69bf c597 833c 164f c0bf
00000300: 8005 57be e626 e8be c16f 7c3e 90ca f9bd
00000310: 3a1b c5bd 3c35 b13e 73ea 563e 4c9d a93e
00000320: 0bfb 09bf 9e15 af3c 9d29 cdbd 03b5 353f
00000330: e3d2 8dbe f46c 3f3e 6803 ef3e a111 893e
00000340: 2bf1 a63d bd02 883e 9602 5ebe 1bb5 c5bf
00000350: 109b cabe 3a9e e03c 7bfd 373e 7e35 0f3d
00000360: c379 953f 5c28 69bf bba8 1c3d a158 8d3f
00000370: c4c2 1b40 332b 3ebf 2c5d 1ebf d20d ab3e
00000380: 6e33 02bf f92f 54bf 6559 cb3c e231 453e
00000390: 5b50 623f b3e9 443d 766d 023f dad3 0abe
000003a0: d37d a8bd 2198 673e 7829 483f eeb7 4abf
000003b0: aab3 a53f 84d7 c5bf 119f e33d 668b 3a3f
000003c0: 97a7 bc3d 3e5a 82be 4d83 db3e 1155 70bf
000003d0: 6734 35bf 1f4a 873f 1eb6 d53f 2a5b 363f
000003e0: 9182 e83e 377f 073f 2133 0cbe 7063 f23e
000003f0: 7e00 ab3f 3735 253f 0c5d 363f 4f46 ce3f
1.05906 0.14615439 0.25084195 0.3782534 -0.18191625 0.33413467 1.1581496 -0.37565958
0.11316633 0.16489515 -0.02669972 0.8620626 0.8643548 -2.864713 1.6856987 0.007948076
0.03636184 0.2298808 2.0359163 -0.63494366 0.573437 1.7802194 -0.27173498 1.039684
1.117829 -0.028862422 0.76865107 -0.43545017 0.06533931 0.24587213 -0.7239536 -0.47609192
0.24961619 -0.6742235 -0.68810415 0.23248537 -1.2094389 2.173127 -0.017285656 0.6528608
0.28518534 1.0330538 1.156863 0.06649527 0.4477925 0.4439612 -0.25662345 1.4728564
-0.09186126 0.050194006 0.3689128 2.4144523 -0.115652926 -1.14074 2.1553285 -0.07321721
0.07591214 0.93455935 -0.36982682 1.0992306 -0.019004859 0.041671854 0.3453128 -1.0129896
-0.08093054 1.66773 -0.0131812915 0.9408994 0.9997557 0.44121468 0.17557561 0.20161732
-0.17904238 0.3778964 -0.045250475 0.027268212 -0.23968159 -0.001165617 -0.068193726 0.4226458
1.0274101 0.3610993 0.2513407 2.0170355 -0.7458427 0.44909963 0.2014479 0.7417607
-0.14477913 -0.2983534 0.8266724 -0.0049880543 1.1773043 0.70075506 0.053703252 2.7350495
1.1294878 -0.43251485 0.532954 0.3378213 0.34121862 0.41384628 2.2875946 0.116310686
1.2117009 0.36306977 -0.13795736 2.1426978 -0.14520934 0.3117087 0.8323148 -0.4955077
0.1374198 0.4850291 -0.71515197 0.74430776 1.074271 -1.3432379 0.22066955 0.3876188
0.74795914 -0.1012308 0.43230024 0.8705215 -0.08340603 -0.38391763 -1.6122364 0.59732175
0.68512636 -0.39857656 -0.055640295 -2.5518506 -1.1201808 0.64035726 0.37761694 0.8975393
-0.4720769 -0.61172056 -0.50310016 -1.1927211 0.06905775 -0.549146 0.049019415 0.4803217
1.8522093 0.23384699 -0.63429964 -0.020074256 -0.022007065 0.85033476 0.069119416 -0.7406061
0.79001033 1.0504795 -0.19718641 -2.1141093 1.7223134 0.44535396 1.1883543 0.65905267
-0.2865261 -0.06614545 1.0419387 0.20237689 0.00889557 1.325037 0.0725699 2.3992553
0.76669276 0.73578113 0.16442186 0.17728369 0.12117147 0.41549835 1.9791893 0.37258455
-0.3102124 -0.45406204 0.09024366 0.31787074 -0.0916887 -1.218692 0.20598027 -0.2412659
-0.10757083 0.17439839 -1.7326188 -0.14920564 -0.30755514 -0.91375834 0.01606358 -1.5024135
-0.20998192 -0.45342177 0.24652006 -0.12196839 -0.09624334 0.34610927 0.20987873 0.3312782
-0.53898686 0.021372613 -0.10017703 0.70979327 -0.27699956 0.18693906 0.46682286 0.26771262
0.08151468 0.2656459 -0.21680674 -1.5445894 -0.39571428 0.027419198 0.17967789 0.034963124
1.1677784 -0.9107721 0.03824685 1.1042672 2.4337626 -0.74284667 -0.6186092 0.33408982
-0.50859725 -0.828857 0.0248229 0.1925731 0.8840386 0.048074435 0.50948274 -0.13557377
-0.08227124 0.22616626 0.78188276 -0.79186904 1.2945454 -1.5456395 0.11114324 0.72868955
0.09211653 -0.25459474 0.42873612 -0.938798 -0.70783085 1.0569495 1.6696203 0.71232855
0.45412114 0.5292849 -0.13691379 0.4734149 1.3359525 0.64534324 0.7123573 1.6115206

LSTM.weight_hh_l0 f4 [512, 128]
00000000: 6acc 233f f111 76be 81af 023e 67f7 313e
00000010: 260b e2be 814a 30bd fde1 433f 566d 073b
00000020: c9d2 bcbe dcb7 f7bd d1a5 113f da24 babd
00000030: 7949 dbbe c614 30bf 96e8 26be 704c 2a3d
00000040: 8e6a 563e 6673 2c3e 8c25 3abf 5d95 573f
00000050: 17a4 a9bd 0884 ea3d a9ae 2b3c 1cc4 bdbe
00000060: 26c5 04bf d35b 3abe 1566 223e 77a8 713e
00000070: d992 5abe 1bd0 ccbd 5614 52bd 446a ad3e
00000080: 4f4c debd c426 91be 3cde 243e 4900 dcbe
00000090: a701 21bf e7ca 36be 9bcb b73e a798 4b3e
000000a0: b5ac 833d cb03 88be 81a7 0dbf bc57 1d3f
000000b0: 6bc4 d9bc a87a 58bc f685 4bbe eb48 02be
000000c0: 3d95 0a3e 5574 b3bd c490 a8bd a756 05bf
000000d0: bd20 07be 57d8 b93e bd18 a53d 1265 823e
000000e0: 7e76 0b3e 132d ff3e 75b9 433f 4479 f53c
000000f0: ee5a 483e efe0 7c3e ae92 83be 0417 183e
00000100: 09be 1dbe 2ae5 90bf e6d6 59bf 8333 41be
00000110: c7cc 943d f29e bb3d fabd a43e 2248 013e
00000120: 7e9e 9a3a 7b0e 91be 600a b9be f3e6 b3bd
00000130: 13fc 273e 1265 26bf 7b77 b73e 85b8 8e3d
00000140: 9d6c c7bd 5f9e c3be 0fbb a93e 22d0 3d3f
00000150: 13d3 a8be 27f2 01be a890 a93e d94b 393e
00000160: 9fa6 f6be cfcd 923e e32a 01be 885e d8be
00000170: de07 37bf 938c c93e acb2 5fbf 5975 313f
00000180: c837 20bf 8524 1bbe daca 6dbc 8a64 073f
00000190: 14c0 5dbc 9f9d 6cbe c829 163e fa82 cebe
000001a0: 451e 69be 20d3 13bf d560 3e3e 5dc7 d3be
000001b0: e363 0a3f 36ee 29bf 0b59 d53e 831c 27bf
000001c0: 6dff dfbe 1de7 1f3f b286 aebd d199 6c3f
000001d0: 4db9 f23e 00a7 babd 885d 903c 0a1f 29be
000001e0: c28a 96be e932 fbbd bd29 763e be41 9dbe
000001f0: 49fc 2ebe 3f7d 77be 7342 5e3e 3d88 9f3e
00000200: dbd8 f6be 7624 613f e9bc 6ebf cba0 51be
00000210: 2cce 4c3f 9253 34bf 2e20 783f d62c 5b3d
00000220: 6d94 013f a752 16bf e972 97bf ec0e 493f
00000230: 1f34 93be 53c0 883e 57e0 46bf 8e0e 663f
00000240: 7577 593c 47b8 a9bc 2889 c03e ad52 a3be
00000250: 38f1 e63c 098c 303f 4d33 72be 3c95 a7be
00000260: 5630 72bc 9ff5 183f 2b9f 94bf b5f4 debe
00000270: 9a4a b2bf 8a61 32bf 1356 a33e c511 433f
00000280: be45 e5be 00d2 5b3e 9cd3 2a3e 8968 0abf
00000290: 2721 f23e ebf1 303e 0bab b6b9 3452 92bf
000002a0: 37c4 623f 8925 d5be 9d41 68bf 5ad2 b63f
000002b0: f18e 8abf 1d19 e2be e3ad 0c3d 5f40 3e3f
000002c0: ab02 bfbc 5551 0a3f d289 f63e 88c2 223e
000002d0: 1ce7 1ebe 0ee9 913e b18e c9bd 9dbb c5be
000002e0: eaa8 87ba 5cd1 a63f d39d 80bd 0ae0 29bf
000002f0: bf7e 8c3b 30c5 623f 6029 22bf 8fd3 33be
00000300: 9784 60bf 0f30 37bf 4a3f b33e c364 a9bf
00000310: 1116 5a3d 20d3 303f 0442 2fbe 3bbf 93be
00000320: 9a44 ea3e ef28 b4be eef1 1d3f 4081 1f3e
00000330: 019f 1b3f 866c 443f 9957 0cbd 2fce 653d
00000340: 26aa b23c 1251 c03d e228 c9be 2968 863d
00000350: 0935 19bf a783 ebbd 8ca1 333f bd0a 323e
00000360: 95b2 a93e a0a7 173f d9dc c93e 035d 67bf
00000370: d467 b73f b222 efbe ef3e efbe 7976 51be
00000380: 30dc 8c3f 8f28 483f 7ca2 e23d 8f0e df3d
00000390: 17d6 7bbe 78b3 bcbd 9643 993f f5cf 64bf
000003a0: cf96 4abe 0794 06bf 9499 873e b107 463f
000003b0: be38 623f d33d 1bbe 3960 833f 6232 1bbe
000003c0: 00bc a53d cfca 503f a657 183f 44a0 c03e
000003d0: ff4d 8a3f 9b39 aa3e 38a3 70bf ebe4 81be
000003e0: aae3 36be 628f be3e 9a4e 31bf 95ea d4be
000003f0: a1aa 87bd fa54 62be 32ab 47be f42a ca3e
0.63983786 -0.24030282 0.12762262 0.17379533 -0.4414913 -0.043039802 0.76516706 0.0020664535
-0.36879566 -0.12095615 0.5689364 -0.0908906 -0.42829493 -0.687817 -0.16299662 0.041576803
0.20939085 0.16840896 -0.7271354 0.84212285 -0.08283251 0.11450964 0.010478654 -0.37063682
-0.51863325 -0.1819909 0.15859254 0.2359942 -0.2134508 -0.100006305 -0.051288925 0.33870137
-0.108543985 -0.28349888 0.161004 -0.42968968 -0.62893146 -0.17850839 0.35897526 0.19882451
0.064294256 -0.26565394 -0.55333716 0.61462 -0.026582917 -0.013212837 -0.19875321 -0.12723128
0.13533492 -0.08762423 -0.08230737 -0.52085346 -0.13196082 0.36297867 0.08061359 0.25467736
0.1361942 0.49839076 0.7645486 0.02996505 0.19565937 0.2469518 -0.25697845 0.1485253
-0.15404524 -1.1319935 -0.85093534 -0.18867306 0.07265621 0.09161176 0.3217619 0.12625173
0.0011796502 -0.2833136 -0.36140728 -0.087842844 0.16404752 -0.6499797 0.35833344 0.06968788
-0.09737513 -0.38206765 0.33150527 0.7414571 -0.32973537 -0.1269003 0.33118176 0.1809534
-0.48173997 0.28672644 -0.12614016 -0.42259622 -0.7149638 0.39365062 -0.87382007 0.69319683
-0.62585115 -0.1515065 -0.014513696 0.52887785 -0.0135345645 -0.23107003 0.14664376 -0.40334302
-0.22765453 -0.57744026 0.18591626 -0.4136304 0.54058665 -0.66379106 0.41669497 -0.6527788
-0.43749562 0.62462026 -0.08521785 0.92422205 0.47406998 -0.09113884 0.017622724 -0.16515747
-0.2940274 -0.1226557 0.2403936 -0.3071422 -0.17088427 -0.24168871 0.21705036 0.3115863
-0.48212323 0.8794626 -0.93257004 -0.20471494 0.80002093 -0.7044002 0.969241 0.053509556
0.50617105 -0.5871987 -1.1831943 0.78538394 -0.28750703 0.26709232 -0.77686065 0.8986596
0.01327311 -0.020717753 0.37604642 -0.31899014 0.028191194 0.68963677 -0.23652382 -0.32731044
-0.014782032 0.5974979 -1.1611074 -0.43546072 -1.3929017 -0.6968008 0.31901607 0.7619899
-0.44779772 0.21466827 0.16682285 -0.5406576 0.47290918 0.17279784 -0.00034841182 -1.1431336
0.8858065 -0.416302 -0.9072512 1.4282944 -1.0824872 -0.44159785 0.03434552 0.7431697
-0.023316702 0.5403035 0.48152024 0.1589452 -0.15517849 0.2849812 -0.09841669 -0.386197
-0.0010350023 1.3032641 -0.062801026 -0.6635748 0.0042875702 0.88582134 -0.63344383 -0.17561172
-0.87702316 -0.71557707 0.35009223 -1.3233875 0.0532437 0.6907215 -0.17115027 -0.28856835
0.45755464 -0.3518748 0.6169728 0.15576649 0.60789496 0.76728094 -0.034263227 0.056104835
0.021809649 0.09390463 -0.39289004 0.06562836 -0.5984655 -0.1149972 0.70168376 0.17386909
0.3314406 0.5924015 0.39426306 -0.903763 1.4328561 -0.46706158 -0.46727702 -0.2045535
1.1004696 0.7818689 0.11066148 0.10891449 -0.24593388 -0.092139184 1.197375 -0.8937982
-0.19784091 -0.5256962 0.26484358 0.77355486 0.8836783 -0.15160303 1.026374 -0.15155938
0.08092499 0.8155946 0.5950874 0.37622273 1.0805053 0.33247074 -0.9399905 -0.25369963
-0.17860284 0.37218767 -0.6926056 -0.41585222 -0.06624342 -0.22102728 -0.194989 0.39485896

LSTM.bias_ih_l0 f4 [512]
00000000: 9eca dbbd 5b65 2dbd 3a59 503f 3c5d cabc
00000010: 3ce4 b13e e58d 8d3e bfb0 3cbe a420 ba3d
00000020: 2541 2e3f 1c3b 31be 0e9b 963e 9e09 853f
00000030: 9966 d6bd 43e5 63be 394a 7b3e c162 0c3e
00000040: f9bc 403e 2ecf 60be 47f3 f93e 9711 1f3f
00000050: 9777 133f c79b 833e 6725 9c3e b560 db3e
00000060: 2a3d 573e d514 243f 8832 be3e 3b5e 223c
00000070: 86ec 803e ee80 673e aaa9 6a3e 97f6 443f
00000080: 7c94 b43e 5da5 dabd 0a44 003f 2440 b83a
00000090: 83b5 d13e dfc2 ac3e 3179 923e 62ee 753e
000000a0: 0450 e53e e002 473f 114e 8b3e f808 613c
000000b0: 412d d23d 47f5 483e a40c 0d3d acad 473f
000000c0: 0e39 dc3e 042a 823e 9efa a93e bc5f ddbd
000000d0: ccba 013f d89a 98be ed3f c03d d7fd 8cbe
000000e0: 3688 d83e 1118 103c 7447 ef3e ce8c 153f
000000f0: f74c 383f 02e2 233e d8fb 3c3e 9509 73be
00000100: 63e1 183f 03e6 a83e 58ca d8be dd99 813f
00000110: d467 9c3e e560 2f3f 1562 2b3d 3f7c db3e
00000120: 46fd 093d 4040 dabb 358f fd3e a6d0 bc3e
00000130: 1548 0e3e 7d20 2b3f 5ea3 dc3e 60f0 1e3f
00000140: cf53 e53e 3d89 0a3d 45ce 033f 338c 053e
00000150: d48d 6cbe f40a f33b 39e8 043f 5a63 c63c
00000160: 76c7 19be 89d3 f03e fd48 433f bf00 b93e
00000170: 9094 d93e d69e 523e ed6c 0c3e 74b7 a53e
00000180: 246d 943f 1bf2 f33c 1d0d 173f fd51 943e
00000190: 53a5 eb3e 0b30 88bd 31f3 e03e 70c1 283f
000001a0: e4e0 58be bd9a 6b3f 87cc f2bc a32d 0c3e
000001b0: e2ae c03e a874 43bd 28d7 f83e 3ef1 fa3e
000001c0: 5d55 ffbd 7f7f 193f 2285 e43e 41da 0c3f
000001d0: fc06 c33e dc2f ba3e bcbb b13e 4516 0fbd
000001e0: 8186 2e3e 9575 8bbc f1ee 663e 8a69 fabb
000001f0: fa8a 0a3f 1ccc 163e 82ad 023f ec7e 0f3f
00000200: 5261 84be 4261 19bd a5f6 8e3d d9b8 3bbe
00000210: 476b 5cbd a55a b4bc 56c2 94be 5f48 383e
00000220: e892 ddbd 905e d7bd bff3 05be de92 60be
00000230: c509 cdbd 74e9 edbd a57e 5c3d 8205 b13d
00000240: 0ca9 51be 4b6b d63c 0842 38be fcbb 97be
00000250: 0f8e 23be 0daf 81be f1aa a03c e48a 81be
00000260: b086 113d 6254 1dbe 8376 b13c a4d5 0abf
00000270: 97c9 e7bd 035c 11bd 1588 eb3d 403d 56be
00000280: 6b34 55be 79af 08bd ce8d 3d3d 1c31 49be
00000290: 8327 883d d5d9 323d 3388 f23d ae58 2ebe
000002a0: 447a f7bd 4de4 96bd 2520 11be 4fe2 7dbe
000002b0: 0720 88be ab43 3f3d f6ed 17be e6e8 a3bd
000002c0: f6a0 50be 0516 e5bd bace 2abe 99e0 05be
000002d0: bcdf 8e3d 9a54 4ebe abaf c1bd 0a95 b2bd
000002e0: 6086 1cbd 372c f7bb 288c d6be ce6d abbe
000002f0: 67c7 1bbe ce32 8dbe de71 6abe 9802 b6be
00000300: 92c1 3fbe c58a 13be 98e2 2c3e 61f2 613d
00000310: 97b9 1ebe 3fa1 ffbe 6b5b 94bd a7e0 5ebe
00000320: 294b 0bbe ca05 503d 234b b93c 4f7c cc3d
00000330: 76b2 0cbe abe8 a9bd ee02 2bbd 7d44 53bd
00000340: fed5 7fbe 6ab6 bfbc 5302 40be 1a96 723d
00000350: 26a4 9abe 4f7e b3be 5945 2abd fa9e 5dbd
00000360: c9d2 a83d d9e9 2fbe 66b2 72be 8f84 73be
00000370: 38a4 f7be 07d1 6fbe a8e2 6ebd 1c9b 23be
00000380: 074f 5dbe b523 62be 2a29 2e3d 914d d8bd
00000390: 52fa 7bbe ae45 223e cd57 dbbc fb12 40bc
000003a0: b422 26be 6bea 42be 0a92 27be 0770 bd3c
000003b0: 7f3e 89be afa3 2dbe 8e93 193d 2d6c 8c3d
000003c0: 4317 21bf d170 fabd 76ee 6cbe 1c81 5bbd
000003d0: dcc7 9bbd d7f6 3ebc f4d9 40bd f470 0dbe
000003e0: 1331 98be f51a 92bd ab61 3ebe ae89 7b3c
000003f0: 1687 063f 8e34 96be 4b8a c03c 00b3 12be
-0.107320055 -0.04233299 0.8138615 -0.02470266 0.34744442 0.2764732 -0.18426798 0.09088257
0.6806815 -0.17307705 0.29415172 1.039356 -0.10468788 -0.22255425 0.24540032 0.13709547
0.18822087 -0.21954033 0.48818418 0.62136215 0.57604355 0.25704786 0.30497286 0.4284722
0.21019426 0.6409429 0.37147927 0.009910162 0.25180453 0.22607777 0.22916284 0.76938766
0.35269535 -0.10676072 0.5010382 0.0014057201 0.40958795 0.33742425 0.28608087 0.24016717
0.4478761 0.7773876 0.27207997 0.0137350485 0.10262538 0.19624816 0.034435883 0.7799938
0.4301228 0.2542268 0.33199018 -0.108092755 0.50675654 -0.29805636 0.09387193 -0.27537414
0.4229142 0.0087948 0.46734202 0.58417976 0.7199244 0.16004184 0.18455446 -0.23734124
0.5971891 0.32987985 -0.42341876 1.012508 0.30547965 0.68507224 0.041841585 0.4286823
0.033688806 -0.006660491 0.4952332 0.36877936 0.13894685 0.6684645 0.4309339 0.62085533
0.44790503 0.033822287 0.5148662 0.13041763 -0.23100978 0.007417077 0.51916844 0.024217296
-0.15017495 0.4703639 0.76283246 0.36133382 0.42496157 0.20568404 0.13713427 0.32366526
1.1595807 0.02977853 0.59004384 0.28968802 0.4602457 -0.066497885 0.4393554 0.6592016
-0.21179539 0.92032987 -0.029638542 0.13689284 0.37633425 -0.047718674 0.4860165 0.49012178
-0.12467454 0.5996017 0.44632822 0.5502053 0.38091266 0.3636464 0.34713542 -0.034933347
0.17043497 -0.01702384 0.22552086 -0.007641976 0.5411831 0.14726299 0.51046 0.5605304
-0.258555 -0.037446268 0.069806375 -0.18332233 -0.053813245 -0.022015879 -0.29054517 0.17996357
-0.10819036 -0.10516083 -0.13081263 -0.21931025 -0.10011629 -0.11616793 0.053831715 0.08643629
-0.20474643 0.026174208 -0.17993939 -0.29635608 -0.1597216 -0.25328866 0.019612761 -0.25301278
0.03552884 -0.1536422 0.021662956 -0.5423224 -0.11317747 -0.03548814 0.11500565 -0.20921803
-0.20820777 -0.03337047 0.046277814 -0.1964764 0.06648161 0.043664772 0.11842384 -0.17026016
-0.12083867 -0.07367764 -0.14172418 -0.24793361 -0.26586935 0.046695393 -0.14836869 -0.08003406
-0.20373902 -0.111858405 -0.16680422 -0.13073958 0.06976268 -0.2014946 -0.09457334 -0.08719833
-0.038214087 -0.0075431126 -0.41903806 -0.33482212 -0.15212785 -0.27577823 -0.22895 -0.35548854
-0.18726185 -0.14408405 0.16883314 0.05516279 -0.15500484 -0.49927709 -0.07243999 -0.21765386
-0.1360289 0.05078677 0.022618836 0.099846475 -0.13739952 -0.08296331 -0.04175084 -0.051578987
-0.24983975 -0.023402411 -0.18750887 0.05922518 -0.3020336 -0.35057303 -0.04157004 -0.05410669
0.08243329 -0.1717905 -0.23700866 -0.23781036 -0.48367476 -0.23419581 -0.058321625 -0.15977138
-0.21612178 -0.22083934 0.042519726 -0.105616696 -0.24607208 0.15846893 -0.026775265 -0.011723275
-0.16224176 -0.19034736 -0.16364303 0.023124708 -0.26805493 -0.16956972 0.037494235 0.068565704
-0.6292612 -0.12228549 -0.2313784 -0.053589925 -0.076064795 -0.011655531 -0.047082856 -0.1381262
-0.2972494 -0.07134048 -0.18591945 0.01535265 0.52549875 -0.2933697 0.023503443 -0.14326096

LSTM.bias_hh_l0 f4 [512]
00000000: 0324 71bc d3e8 afbc 055f 5f3f 7436 0e3e
00000010: ec5c 983e a0ff 843e d366 66be 90ae 5a3e
00000020: 81bb 3b3f 4a52 8fbe 01e3 893e 2415 853f
00000030: 25d4 38be ae10 54be b762 903e 8efe 5d3e
00000040: 99d3 d43d 1fa2 c6bd 81cd d53e edcb 2e3f
00000050: 4ec1 ec3e 9e11 953e 2458 773e b7d0 d73e
00000060: 8bfc e93d 466d 243f edbe c73e e18d f5bc
00000070: 86a2 753e 312d 8f3e ad1e 8c3e 5d62 1c3f
00000080: 193b be3e 21fd d4bc 0410 d83e 8881 613d
00000090: 4a23 b73e 1953 b53e a965 a63e 99af 4b3e
000000a0: 9546 c93e 13b3 293f e33f b63e b27e 973d
000000b0: 4f31 9c3d c7e0 693e 9a9b 29bc 632c 473f
000000c0: 48bb c63e d864 833e 25b2 713e 6533 1cbd
000000d0: 50de fc3e 394b 61be 46dd 19bd dc41 5cbe
000000e0: 27e9 de3e f880 4bbb 195f b53e 9849 0c3f
000000f0: 8303 513f 5021 493e c97b 393e 8ae3 55be
00000100: 1d0b 193f b84d 813e 8bd5 d6be 179a 763f
00000110: 48ee b93e bce3 393f 9edf 2b3e e392 e63e
00000120: 9f75 4abd 1e2a 723d 6411 c23e 7d14 d03e
00000130: b2a2 6f3e d49a 1d3f 4708 c33e 6552 203f
00000140: f93b ff3e 53ff bf3b 2193 1f3f 1801 4b3e
00000150: e769 3cbe a745 643d e352 ce3e 6039 173d
00000160: 4a7c edbd dd19 023f 70ef 2d3f 589b 8d3e
00000170: e9b9 f53e 0254 463e c0df 1d3e a7df 913e
00000180: 7fc2 a03f d16e dfbd cfc2 013f ec4d b53e
00000190: 914c f63e b135 2ebd 71a9 f03e 9879 2e3f
000001a0: b868 3fbe 3c0e 7c3f a3ab 0fbc d52e 2e3e
000001b0: 418d 9e3e c567 9dbd eeb4 003f e266 0f3f
000001c0: 5f4e adbd 45b9 063f ae13 ee3e 178c f73e
000001d0: 94ed 913e 8cd6 993e a557 bd3e e346 ccbb
000001e0: 28c4 923c 0c7b c93c 98a5 a83e 9647 4a3c
000001f0: 0503 f33e 7683 483e e5aa 253f 7488 243f
00000200: c0fe 1ebe 06c1 a1bd dded 3c3e 0ebd 15be
00000210: d345 29bc 3b69 95bd 4e9f 5abe 82ef 893e
00000220: 7981 5bbe 3117 35be bbf7 febd 632b 67be
00000230: 0516 a4bd a087 6bbd 31d7 f23d 1a82 283d
00000240: 916d 60be 720a 583c 139e 46bd 470c 41be
00000250: 526c c0bd 1027 a0bd 3d93 06bc 4e23 99be
00000260: 5764 1fbd 9f24 2ebe 8300 0cbc d5e4 09bf
00000270: 4565 41be 694a 01be 1ac8 213d dce2 45be
00000280: d7e8 27be 7fec 47bd 35c9 e53c 068f 94be
00000290: f73e 46bc c256 3c3d 2552 de3d 09f5 47be
000002a0: 5c76 13be 55be d2bd 5567 1cbe bb79 26be
000002b0: 24c1 27be 8383 3b3d 7386 2ebe 2817 9fba
000002c0: 282b 17be e680 02be 43f5 ebbd 2a7f 1cbe
000002d0: cfbc 0a3e b779 58be c8d2 2dbe b7dc 47be
000002e0: fa56 4dbe 43dd c1bc b9af 8cbe 4e44 9bbe
000002f0: c85a 47be e403 5abe 1c91 a5be 9bec bebe
00000300: 7575 c5bd 7e75 5fbd 4c11 0b3e 6b20 433d
00000310: 2a2f 81bd 0b1d 0cbf 5884 d8bd d73b 52be
00000320: fd3c 55be 6067 c4bc 3cad 5ebd 0dce 133e
00000330: c5a2 e2bb fe59 f4bd fca1 3abd b538 39be
00000340: 9b87 4cbe bf35 07be 9bd8 1bbe 5db3 d5bb
00000350: 8951 b5be 1615 9cbe db0b 12be 1814 2fbd
00000360: 6d23 80bd e895 8cbe 4e7c 56be a381 abbe
00000370: d2fb ddbe 8809 80be 53a5 13be 6459 e7bd
00000380: 593e 9bbe dce4 91be c85c b93c b69a adbd
00000390: 04dd 84be 97f4 1d3e f78f 83bd a4e8 e53c
000003a0: 1723 82be b183 87be a273 87be caeb 23bc
000003b0: 3bc1 54be 5509 81be 189e 3f3d 2fa4 6b3d
000003c0: b7d6 27bf f4fb dfbd 3de2 cbbe 6d0d 523c
000003d0: a2e0 5d3c 6161 c83d a1e5 183d 7028 76be
000003e0: 9013 a2be bfbf 803d 8ebc 2ebe 183a f6bd
000003f0: 74ba 063f 3ff2 6fbe 76e5 793d da97 3fbd
-0.0147180585 -0.021473324 0.87254363 0.1388796 0.29758394 0.25976276 -0.22500162 0.21355653
0.73332983 -0.2799247 0.26931003 1.0397077 -0.18049677 -0.20709488 0.28200313 0.21679136
0.103919216 -0.09698891 0.4175835 0.68279916 0.4624123 0.29115003 0.24154717 0.42151424
0.11425122 0.6422924 0.39012852 -0.02997488 0.23987779 0.27964166 0.27367154 0.6108759
0.37154463 -0.025999608 0.4219972 0.05505517 0.3576911 0.3541496 0.32499436 0.19891204
0.39311662 0.6628887 0.35595617 0.07397212 0.07626592 0.22839652 -0.01035204 0.77802104
0.3881476 0.25662875 0.23603113 -0.03813495 0.4938836 -0.22001351 -0.03756454 -0.21509498
0.43537256 -0.0031052213 0.35424116 0.54799795 0.81645983 0.19641614 0.18113627 -0.2088758
0.5978258 0.25254607 -0.41959795 0.9632887 0.36314607 0.7261312 0.16784522 0.4503394
-0.04942858 0.059122197 0.37903893 0.4064063 0.23401907 0.61564374 0.38092253 0.62625724
0.49850443 0.0058592944 0.62333876 0.19824636 -0.18399774 0.05573049 0.40297613 0.03691995
-0.11595972 0.50820714 0.6794348 0.2765758 0.479934 0.19367984 0.15417385 0.28490946
1.2559355 -0.109098084 0.5068788 0.35411012 0.4810529 -0.042531673 0.47004274 0.6815429
-0.18692291 0.9845922 -0.008768949 0.17010053 0.30967143 -0.07685808 0.50276077 0.5601636
-0.08462214 0.5262645 0.4649939 0.48349068 0.2850157 0.300465 0.3698093 -0.0062340363
0.0179158 0.024594806 0.32938838 0.012346169 0.4746324 0.19581398 0.6471389 0.6427071
-0.15526867 -0.078981444 0.18450113 -0.146229 -0.010331589 -0.07295462 -0.21349832 0.26940542
-0.21436109 -0.17684628 -0.124495946 -0.22575144 -0.080120124 -0.05750239 0.11857451 0.0411397
-0.21916796 0.013186084 -0.048490595 -0.1885234 -0.093956605 -0.078199506 -0.008213815 -0.29909748
-0.03891405 -0.17006157 -0.008545044 -0.53864795 -0.18886288 -0.12626041 0.039497472 -0.19324821
-0.16397415 -0.048809525 0.028050045 -0.29015368 -0.012099973 0.045981176 0.108555116 -0.19527067
-0.1440062 -0.10290209 -0.15273793 -0.16257374 -0.16382271 0.045779716 -0.17043476 -0.0012137638
-0.14762557 -0.12744483 -0.11521389 -0.15282884 0.13548587 -0.2114018 -0.16974938 -0.1951779
-0.2005271 -0.023665076 -0.27477816 -0.3032555 -0.19468224 -0.21290547 -0.32337272 -0.3728989
-0.09641544 -0.05455541 0.13580817 0.047638338 -0.06307824 -0.54731816 -0.105721176 -0.2053064
-0.20824046 -0.023975074 -0.054364428 0.14434071 -0.0069163763 -0.11931227 -0.045564637 -0.18088038
-0.19973604 -0.13204096 -0.15219347 -0.006521626 -0.3541377 -0.30484837 -0.14262335 -0.042743772
-0.06256757 -0.2745812 -0.20945856 -0.33497342 -0.43356186 -0.25007272 -0.14418535 -0.11296347
-0.30321005 -0.28494918 0.02262725 -0.084767744 -0.25949872 0.15425335 -0.064239435 0.028065033
-0.25417396 -0.2646766 -0.26455408 -0.010004947 -0.20776837 -0.25202432 0.04678163 0.057529625
-0.65562004 -0.10936728 -0.39821044 0.012820584 0.013542326 0.097841986 0.037328366 -0.24038863
-0.3165555 0.06286573 -0.17064115 -0.12022799 0.52628255 -0.23432253 0.061009847 -0.046775676

dense2.weight f4 [128, 128]
00000000: d48d 25be c188 dc3c 37ce 08be fec8 b8be
00000010: 79f6 34be e61b 7abe 4fb2 6e3e 5679 f0bd
00000020: 48ba 0d3f 39f2 b13d cffd 603e 92c2 a83e
00000030: b21e 963e d4f9 153e b5e3 9c3c cadc a0be
00000040: 18d5 a63e 977b 57be 7634 aebe 4126 ac3d
00000050: eacd e83e 8867 bdbd b39a 763d 1672 25be
00000060: b02d 563e 8d31 8bbd c604 633e a217 bd3d
00000070: 2e63 2fbe a048 8c3e a366 0b3f 0b03 9cbe
00000080: 2786 7a3e 33d3 6ebe 54b3 543e ffb4 d83d
00000090: 7815 63be 4f65 e43e 19ce 6cbe 509b 8d3b
000000a0: 941e 943d 2eca ba3d d0cc c8bd fc14 ac3e
000000b0: 85b4 ce3d ffb8 1f3e 0406 203e 478c 05bf
000000c0: dce2 c13d bdf2 063e f08b 08bf 9f85 ae3b
000000d0: 6e01 343f 8820 753d bc58 e3be 4034 afbe
000000e0: 20ee 073e 254b 0f3f 8a96 4f3e 92ae 8bbd
000000f0: fa22 e33c c024 08be 6a43 663e 7c38 4bbe
00000100: 4519 89be 01be 33be e21e 733e 0724 1d3d
00000110: d3ee b33e 277f 8cbc fe97 c13d 0592 e6be
00000120: 902f 733d 8f1a da3c 8b95 36be 596b 14be
00000130: 992a 94be 6440 7fbe edd7 613d bc21 d5be
00000140: e638 98be 6a88 5abe bd18 79be c76f 68bd
00000150: 5032 80be a91c fdbe 4aad 94be a7bd 5abd
00000160: 2b09 0f3e 4cf0 773e 5755 0d3e 63bb 323e
00000170: b9f8 12bc cbfb 7a3e dada 5b3d f8d4 3bbe
00000180: 7a38 c63e 80bd f03d edc0 dabd d85f b73e
00000190: e94f 9e3e 49ff c7bd b29f d23d ea63 90be
000001a0: 01a2 923d a1d0 67be 5fe1 433e 252c 263e
000001b0: bc8e f33d 0669 86bc 4ced 9bb9 dac5 fb3d
000001c0: 56fc 9c3d d82a dabd 4298 793d 2668 ddbe
000001d0: 1f68 d93d 7ba9 bbbd c261 8fbb 147a 52bd
000001e0: 4656 45be 1259 3f3b 429a 10be 5737 0cbd
000001f0: 2427 1c3e bda0 96be 0a64 0b3f 660f 993e
00000200: 0052 05bf 16ba e5be c858 60bd 866b ccbe
00000210: 71db 07bd 13c1 b23e 8d58 3dbe 9e9a 62be
00000220: f8c5 f13e 2993 8bbe 82e1 933e 2c1e 76be
00000230: 7b5e 5abc be91 953e 63bb 0e3f 2fc2 e9be
00000240: 6891 2ebf 95aa f4be 2570 36bf edb4 823e
00000250: 0517 d23d 3e07 01bf dad9 4d3d ea10 71bf
00000260: 7961 c7be d39b 18be 7666 3f3e 2b09 26be
00000270: 9762 193e eb13 b6be 6f3e cd3d 9584 ea3e
00000280: 82a4 d5bc bc3d 58be ceac 1dbf 92f2 35bf
00000290: 55ab 213f 0fc1 2e3d cedf ba3d a1eb ed3d
000002a0: 4baa d5be 0c67 d2bd 27fb 19bf 5edf 4e3f
000002b0: 8119 8c3e 1f7c afbd 044a 1a3e d680 e5be
000002c0: 9660 393f 82a2 09bd 8a11 a3be cd96 37be
000002d0: b6a5 083f 74cb 2fbd 3f4d d3bc 8629 ca3d
000002e0: e5d9 343e 9bbe 263f 0d2d 203e 2ed3 933e
000002f0: 4bba 8bbc f978 23bd b9e9 bbbe 06f7 fd3d
00000300: 1704 ac3e b02d 50be 3ecd f6bc 0b5c a03e
00000310: 1a4f 193e 9a5b 593d fa27 a93e a8a6 943e
00000320: 42c1 3cbe d5b1 453f f835 2b3e e308 723d
00000330: 8850 afbe 1a5d e4be f7e6 b23c 50a6 373e
00000340: 2b85 5ebe 12e0 3f3d aabc 4f3e da6e a83e
00000350: 8fa0 efbe c245 983d c023 fd3e f2c4 073f
00000360: 247b 073f bbdc f73d 8add d83e f387 e43e
00000370: a2b2 4fbe 818b 723f 9e45 34be eb52 0a3f
00000380: 7e59 28bf e13d ec3e 8754 d1bd fe35 c23d
00000390: 18d4 0bbf bccc 91bd ce07 a3bd 2947 dbbe
000003a0: 3778 33bf 2761 edbe b2de a03e de89 17bf
000003b0: b4d0 eebe c475 54be 4578 90be 4d74 afbe
000003c0: 23c0 283e fab8 993e f94b 69bf aae2 0d3f
000003d0: 4859 1e3e e725 b4bb a779 803e c238 f03c
000003e0: fd45 9fbd 3946 66be 55e7 d5bd d0d5 b53e
000003f0: f3a0 fcbd 769d d23e 6d6f d03d 971e 503d
-0.16167384 0.026920678 -0.13359915 -0.36090845 -0.17672147 -0.24424705 0.23310207 -0.11741893
0.5536237 0.086887784 0.2197182 0.32960945 0.29320294 0.14646083 0.019151548 -0.3141845
0.32584453 -0.2104324 -0.340244 0.08405734 0.454696 -0.09248263 0.060206126 -0.16156802
0.20915866 -0.067965604 0.2216979 0.09233023 -0.17127678 0.27399158 0.54453486 -0.30471072
0.24465238 -0.23322754 0.20771533 0.10581397 -0.22176158 0.44608542 -0.23125495 0.004321493
0.07232395 0.09120594 -0.0980469 0.3360976 0.10093025 0.15597914 0.15627295 -0.5216717
0.09467098 0.13178535 -0.5333853 0.0053259875 0.7031468 0.059845477 -0.44403636 -0.3421955
0.13274431 0.55974036 0.2027227 -0.06820406 0.027726639 -0.13295269 0.22486654 -0.19845766
-0.26777092 -0.1755295 0.2374225 0.038364436 0.35143146 -0.017150475 0.09452818 -0.4503328
0.05937153 0.026623992 -0.17830484 -0.14494075 -0.2893875 -0.24926907 0.055137563 -0.416273
-0.2973091 -0.213411 -0.24325843 -0.056747224 -0.25038385 -0.49435928 -0.2903846 -0.053403523
0.13968341 0.2421276 0.13802086 0.17454295 -0.008970433 0.24510114 0.05367551 -0.1834296
0.38714963 0.11754894 -0.10681329 0.3581531 0.30920342 -0.09765489 0.10284366 -0.28201228
0.07159806 -0.2263818 0.19128941 0.16227777 0.11892459 -0.016407501 -0.00029740704 0.122935966
0.07665317 -0.10652703 0.06093622 -0.4324352 0.10615563 -0.09163185 -0.0043756673 -0.051385954
-0.19271192 0.0029197377 -0.14121345 -0.034232464 0.15249306 -0.2941951 0.5444952 0.2989456
-0.5207825 -0.44868535 -0.05477217 -0.39925784 -0.03316826 0.3491293 -0.1849081 -0.22129294
0.4722135 -0.27260712 0.28882986 -0.24034947 -0.01332819 0.29212755 0.5575468 -0.45655963
-0.6819062 -0.47786394 -0.7126487 0.2552866 0.10258297 -0.50401676 0.050256588 -0.94166434
-0.38941553 -0.14903192 0.1869143 -0.16214435 0.14979015 -0.3556207 0.10021674 0.45804277
-0.02607942 -0.211173 -0.61591804 -0.7107326 0.63152057 0.042664584 0.091247186 0.11617208
-0.41731486 -0.10273561 -0.60148853 0.8080958 0.27363208 -0.08568596 0.15067297 -0.44824857
0.72413003 -0.033602245 -0.3184932 -0.1792862 0.53377855 -0.042918637 -0.02579367 0.09871201
0.17661245 0.6513459 0.15642186 0.28872055 -0.017056605 -0.03991029 -0.36701754 0.124006316
0.3359687 -0.20329928 -0.030127164 0.31320223 0.14971581 0.053065874 0.33038312 0.290334
-0.18433097 0.77224475 0.16719806 0.059090506 -0.34241128 -0.4460228 0.021838648 0.17934537
-0.21730487 0.04684455 0.20286813 0.32897073 -0.46802184 0.0743518 0.49441338 0.5303489
0.5292227 0.12102648 0.4235652 0.4463497 -0.20282987 0.94744116 -0.17604682 0.5403277
-0.65761554 0.4614096 -0.102212004 0.094829544 -0.54620504 -0.07119128 -0.07960473 -0.42827728
-0.7010531 -0.46363184 0.31419903 -0.59194744 -0.46643603 -0.20748049 -0.28216758 -0.34268418
0.16479544 0.30023938 -0.9113155 0.55423987 0.15463746 -0.0054976824 0.25092813 0.02932394
-0.07777021 -0.22487725 -0.10444514 0.35514688 -0.12335386 0.41135758 0.10177503 0.050810423

dense2.bias f4 [128]
00000000: a282 8c3f 4961 8bbe 0196 4f3f 1abb a83f
00000010: 048a a33d 4ec5 033f fa03 50bd 909e b23e
00000020: a9a8 913f e6f3 5f3f 2945 bb3f c088 3e3f
00000030: 4390 983f 0c33 c63f 8400 553f 5585 c83f
00000040: e414 383f 65d9 613f a6f1 0abf e24a be3f
00000050: 6d72 5d3f 6492 593f 3332 d33f 89b2 f63e
00000060: 1adf ff3e 91b4 e13e 0d3d 0a3e b3c7 023e
00000070: b136 ba3f aac7 76be 6533 56be 6cf8 34be
00000080: 27a0 473f c344 633f b8c3 70bd 2145 3a3f
00000090: 1f7f ee3e 1214 183f 5b2d 623f e18d 143f
000000a0: 5873 bc3f f2fa a93e c599 36be 808b 413f
000000b0: d4d7 bc3e 35a3 823f 78b9 ce3f e51a b0bd
000000c0: f92f c23f eaf2 443f 4fc4 2d3f e456 c73f
000000d0: df9d 9e3d b321 173f f300 813f 71e7 fd3e
000000e0: 790a cebe 9271 893f 189c 83bd 6487 423f
000000f0: 5ded 373f f7a5 d93e d408 813f 0810 0c40
00000100: 73ed 913c a262 a53e 490e 213f b4a1 abbe
00000110: d865 a43f 3014 733f c418 533f c050 8e3f
00000120: bf86 833e f20c c23e cab0 ba3f 8c13 ca3f
00000130: 66f1 fc3e e055 93be aab2 603f e3d8 823f
00000140: 5ede 08be 0af4 8b3f 7965 dc3f 1879 393e
00000150: 6df2 483f 41d7 5a3f 131c a03f 977d bf3f
00000160: 247f 313f 2280 be3f 5029 6f3f 5d7b ec3e
00000170: 67bb b03f 4d26 de3e ba3d 783f 10b8 263e
00000180: a9f0 f23e 3f1a 44be 288e af3e 94c6 263f
00000190: 8d5d 6abc faa1 9c3f 97fa e5bd 00e5 aa3f
000001a0: 5f61 5f3f 77eb 94be 2439 803f 6970 bd3f
000001b0: 948c c9be 49f2 2f3f de43 a13e 30e7 9f3f
000001c0: e80f c13f bd9f 943d 3612 3d3d d220 813f
000001d0: c797 493f e128 403f 5d8b 0b3f a529 e53e
000001e0: b4b7 853f 68a4 4c3f c498 3e3f b3e5 713f
000001f0: db44 4bbe 7f66 bdbe 0e4e 023f c300 573f
1.0977366 -0.2722266 0.8108826 1.3182099 0.07985309 0.5147294 -0.050785042 0.348866
1.1379596 0.87481534 1.4630481 0.74427414 1.1919025 1.5484328 0.8320391 1.566569
0.71906877 0.8822234 -0.54274976 1.4866602 0.86502725 0.84989 1.6499695 0.48183087
0.499749 0.44083074 0.13499852 0.12771492 1.454794 -0.24099603 -0.20918043 -0.1767289
0.7797875 0.887768 -0.058780402 0.7276173 0.4658136 0.59405625 0.88350457 0.5802899
1.47227 0.3319927 -0.17832096 0.75603485 0.36883414 1.0206057 1.615035 -0.0859888
1.517089 0.7693316 0.6787767 1.5573392 0.07744955 0.59035796 1.0078415 0.49590638
-0.40242365 1.0737784 -0.06426257 0.7598784 0.7184656 0.42509434 1.0080819 2.1884785
0.01781342 0.32301813 0.6291242 -0.33521807 1.284358 0.9495268 0.82459664 1.1118393
0.2568874 0.379005 1.4585202 1.5787215 0.49402922 -0.28776455 0.8777262 1.0222439
-0.13366076 1.093385 1.7218467 0.181126 0.7849491 0.854847 1.2508568 1.4960202
0.69334626 1.4882853 0.9342241 0.4618787 1.3807191 0.43388596 0.9696919 0.16281152
0.47449234 -0.19150637 0.34288144 0.65146756 -0.014304531 1.2236931 -0.11229437 1.3351135
0.8725795 -0.29085895 1.0017438 1.479993 -0.39365065 0.6872907 0.3149709 1.2492428
1.5082979 0.0725703 0.046159945 1.0088141 0.7874722 0.75062376 0.54509526 0.44758335
1.0446687 0.79938364 0.7445185 0.9449112 -0.19850485 -0.3699226 0.5090035 0.8398554

post_comb_dense1.weight f4 [128, 256]
00000000: 86de febc c06d 0fbc 8783 3abd fd68 4b3c
00000010: 2056 6b3d 118f 78bd 201e 4ebd 9331 06b9
00000020: a148 f2bc 22c7 203d 81ee e2bc 2084 d9bc
00000030: 326a 243c 1a1b dfbc 8367 5bbc 9514 073d
00000040: 90fa 173c 1d36 0d3d 5862 e0bc 23b3 853c
00000050: d636 d6bc 9cb7 7abd 8f47 673d 4546 76bd
00000060: 9ce3 393d bd23 9fbb c5d8 68bd 558e 8a3c
00000070: 8189 b4bc 30f6 7e3d 907c c73b 0603 47bd
00000080: 5cd3 cfbb 83be 523d b084 633d 804e 6d3a
00000090: df93 15bd 2282 2dbd ff34 f83c 1cd0 47bd
000000a0: 03d7 06bd 1da6 f6bc c0c4 b93a 00f9 b6bc
000000b0: 1c50 4a3d 2749 38bd b8bc 61bd 493f 2cbd
000000c0: ccb2 56bd b241 75bd 84d8 893c 40d5 d3bb
000000d0: 4166 3fbc ad27 1b3d d081 4e3c 0096 45bd
000000e0: 64f1 4c3d f0f8 283c ac24 89bc d8ac b6bc
000000f0: 561d 3fbd c4b7 b0bc 7224 c5bc 388a a13c
00000100: 4a96 653d b655 5e3d 5692 78bc 1ceb 223d
00000110: 26d9 86bd 4e14 59bd bec7 8839 49e7 96bc
00000120: 64e8 be3c 8f4d 79bd c801 39bc 2c79 483c
00000130: 0fac 643d 46fe c6bc 8b18 ad3b d7fb 4e3c
00000140: dce3 f23b d1f5 ba3b 0f52 073c 4652 6dbd
00000150: ba58 7dbd 2943 eebc d66b 76bd ba34 2cbc
00000160: b295 babc c9bb 353c 28f1 72bd b9f9 76bc
00000170: ddc9 2dbd 41d7 2a3d 90db bdbb 12c4 a3bc
00000180: c297 453d 7418 8ebc da96 b13c 330b e83c
00000190: e201 7dbc 420e f63c 6e62 383d 0f05 503d
000001a0: 7189 d9bb be20 94bc 9d1c c43b eab3 0bbd
000001b0: c010 23bc dfd3 42bd 7157 4b3d 514a 08bd
000001c0: ea61 4ebd 4612 67bd 1bf0 5cbd 1b8b 4c3d
000001d0: fa36 7bbd c6c5 e3bb 841a 1c3b 7835 86bd
000001e0: 76e7 44bd c92b 31bc 86ad 8bbc ae35 cd3c
000001f0: ddc6 f53c 0ff5 073d 5270 7e3c 06af c53c
00000200: 4fc3 e8bc 04ab 1c3d 9515 4a3c e1d8 18bd
00000210: a23b d63c 6fd5 71bd 8080 c33a 8d54 173d
00000220: e583 85bc ac75 2f3c 7bcd 8e3c 3cc1 ee3c
00000230: f973 bd3c 72f4 423c efc9 f13c dd7c afbc
00000240: 5836 3cbd dc29 21bd a872 8d3b af60 fabc
00000250: 3250 d63c f98a 77bc 9804 6d3d a9eb ad3c
00000260: 7c1c d5bc bfc9 63bd ccdb d33c c0fe f0bc
00000270: c188 6fbd fb23 12bd b1e7 5e3d beb1 443c
00000280: 6714 293c 4b32 873b e2b3 34bb 29f5 01bd
00000290: c8a7 10bd 7870 103c e00d bd3c eae7 d339
000002a0: 0192 403d 9e90 983c 1e4a 023d 6a0f 2e3d
000002b0: b9f0 6bbc b46e 0a3d 6bfa 8b3c 38f9 4f3c
000002c0: dfc4 52bd 7d43 5ebd d612 6a3d 7f98 93bc
000002d0: f83b c23c 45cf 853c 696c 62bd e5d5 81bd
000002e0: a6d0 9f3c 4145 78bd 5f49 83bd c315 f6bc
000002f0: 6845 6ebd 76fe 5dbd db8f 423d 3d4a ef3c
00000300: b585 dabb 9431 28bd 22dd 2d3c 8446 9e3c
00000310: 20cb 5a3c 567e ebbc 1fd3 3e3d 0680 3e3d
00000320: 6011 1c3d 26e5 463d ff11 84bd 60fd df3a
00000330: a921 27bd d7b7 343d 7107 41bd f551 28bc
00000340: 77df 363d 21bd 0dbd de87 1fbd d04c 0f3d
00000350: d107 10bd cf7e 1cbc 808a 4e3d 4834 1dbb
00000360: e37c 153c 5fbf 87bc cc2a dd3b 0b4d ad3c
00000370: c726 62bd 4f90 483d 981c 79bd 1e51 04bd
00000380: 8bd7 b43c d8c3 74bd 9341 6ebd 9b6a 813c
00000390: 2068 70bb c74c 32bd ed7d 05bd 486e 583d
000003a0: 48d7 38bd 4016 a73c 397e 333d d0a0 23bd
000003b0: 7946 fc3c 93ec 683d b3e6 2fbc c082 b03a
000003c0: d436 ffbc 3ff8 4c3d f898 c9bc 27bb 51bd
000003d0: 7547 5a3d 473f 6d3d ab09 4b3d f035 523d
000003e0: cbee 463d c9d2 a6bb 86f3 dcbc 15cc fabb
000003f0: 0c54 5cbd 79b8 07bc 9147 5e3d 769c 12b8
-0.031111967 -0.008754194 -0.04553559 0.012415168 0.057455182 -0.060683314 -0.0503217 -0.00012797704
-0.029575648 0.039252408 -0.027701618 -0.02655226 0.010035085 -0.027234603 -0.013391378 0.032978613
0.009276047 0.034475435 -0.027390644 0.01632077 -0.026149195 -0.06121026 0.056464728 -0.060125608
0.04538308 -0.0048565553 -0.056847353 0.016913572 -0.022038223 0.0622465 0.006087847 -0.048586868
-0.0063423347 0.051451217 0.055546463 0.000905253 -0.036517974 -0.042360432 0.030298708 -0.048782453
-0.032919895 -0.030108506 0.0014173016 -0.02233553 0.049392805 -0.04499164 -0.055111617 -0.04205254
-0.052416608 -0.059877105 0.016826876 -0.0064646304 -0.011682094 0.037879635 0.012604192 -0.048238754
0.050034896 0.010313258 -0.01674112 -0.022299215 -0.046658836 -0.021572001 -0.02406523 0.019719228
0.05605153 0.05428096 -0.015171608 0.039775 -0.065843865 -0.05299788 0.0002608876 -0.018420832
0.023304172 -0.06086498 -0.011291929 0.012235921 0.05582815 -0.024291169 0.0052824668 0.0126332855
0.007412417 0.005705573 0.00825931 -0.05793979 -0.061852194 -0.029084759 -0.060161434 -0.010510618
-0.022776458 0.011092135 -0.059312016 -0.015074187 -0.04242884 0.04170919 -0.005793996 -0.019990955
0.04824043 -0.017345645 0.021678377 0.028325653 -0.015442343 0.030036096 0.045015745 0.050786074
-0.0066386987 -0.018082019 0.0059848563 -0.034107126 -0.009952724 -0.047565337 0.049643937 -0.033274
-0.050386347 -0.05641391 -0.05393992 0.04993735 -0.061331727 -0.0069510667 0.0023819515 -0.06553167
-0.0480723 -0.010813662 -0.017050516 0.02505001 0.030002052 0.03319269 0.015529709 0.02413131
-0.028413443 0.03824903 0.012334247 -0.037316207 0.026151482 -0.059041437 0.0014915615 0.03694587
-0.016298244 0.0107092075 0.017431965 0.029144876 0.02312659 0.011899101 0.029515235 -0.021421844
-0.045950264 -0.03934656 0.0043166466 -0.03056368 0.026161287 -0.015108817 0.05786571 0.021230536
-0.026014559 -0.055612322 0.025861643 -0.02941835 -0.058480028 -0.035678845 0.054420177 0.012005268
0.010319806 0.0041258684 -0.0027573039 -0.031727944 -0.03531626 0.008815877 0.023077905 0.00040417846
0.04701424 0.018623646 0.031808965 0.04249517 -0.0144006545 0.03379698 0.017087182 0.012693696
-0.051457282 -0.05426358 0.05714687 -0.018017052 0.023710236 0.016334185 -0.05527917 -0.06339625
0.019508671 -0.06061292 -0.06410479 -0.030039674 -0.05817166 -0.05419775 0.047500473 0.029210204
-0.006668771 -0.041062906 0.010611804 0.019320734 0.013354093 -0.028746765 0.04658806 0.04650881
0.038102508 0.048558377 -0.06448745 0.0017089061 -0.040803585 0.044120636 -0.047126237 -0.010273446
0.044646706 -0.034604196 -0.038947932 0.034985363 -0.035163704 -0.009551718 0.050425053 -0.002398746
0.009124014 -0.016570745 0.0067494866 0.021154901 -0.055212762 0.04896575 -0.060818285 -0.032303922
0.022075435 -0.059757084 -0.058168005 0.015797904 -0.0036683157 -0.04353025 -0.032590795 0.052839547
-0.045127183 0.020396352 0.043821547 -0.039948285 0.030795323 0.05686624 -0.010736155 0.0013466701
-0.031154074 0.050041433 -0.024609074 -0.051203873 0.053290803 0.057921674 0.049569767 0.05132097
0.048567574 -0.0050910455 -0.02697159 -0.007653723 -0.05379109 -0.008283728 0.05426747 -3.4954828e-05
