current_algos/TD3/TD3_Agent_actor_weights.pth (torch, 32287 bytes, 5 tensors)

linear1.weight f4 [64, 50]
0.28067395 0.107719555 0.13878246 0.3568512 -0.21818368 -0.16383342 0.09034552 0.053840768
0.011961323 -0.09073204 0.039701834 -0.06760275 0.07806703 -0.020933896 0.13239174 0.053233426
-0.029253202 -0.036520787 0.088885374 -0.057539914 0.0023647253 -0.26976332 -0.1830873 -0.24085541
-0.18116775 0.08939293 -0.13293387 -0.25614387 -0.09414682 -0.027923118 0.10688393 0.098714106
0.06500478 -0.0367889 0.2072863 0.044502273 0.028005049 -0.0070761065 0.1763802 -0.08510618
0.18862641 -0.0044601196 0.018040368 0.060314246 0.12226005 0.0700535 0.15671515 0.19122738
-0.026864447 -0.27469626 -0.33841994 0.11302319 -0.06964322 0.019830154 0.15807827 0.19806217
-0.1623049 -0.089571044 0.15658651 0.15538472 -0.10438595 -0.062265523 0.022996042 -0.06673003
0.05748155 0.1825391 0.10885877 -0.09262197 -0.10159641 0.0307445 0.13308932 -0.08788371
0.0020876317 -0.046556048 -0.05802133 -0.09075111 -0.18427259 0.053526457 -0.17747962 0.019721534
-0.008864736 0.072896376 0.019877942 0.018600028 -0.08238236 -0.025198864 -0.05836587 0.2789578
-0.19896895 0.076902725 -0.14177202 0.2462402 0.06365831 0.011389872 -0.054645684 0.0017228889
-0.12684658 0.033671353 -0.14568475 0.069812745 0.1328701 0.0108609805 -0.11811721 0.16031529
-0.022768322 0.043378666 0.07507008 0.02549448 -0.06819261 0.110363774 0.30575228 0.15336876
0.015364918 -0.02474218 0.03099167 -0.16548699 0.11199836 -0.28823847 -0.02368636 0.028222587
0.28982434 -0.025156925 -0.2558067 -0.035924423 -0.0058225924 -0.09761404 -0.08595775 -0.08750498
-0.23216161 0.0052834526 -0.028002344 0.007207824 -0.13862093 -0.18189049 -0.10695218 -0.123374626
0.12717496 0.10168286 -0.12584157 -0.32689238 -0.055251494 0.17735757 0.14299105 -0.10437419
-0.13136253 0.07158726 0.15907097 -0.091499515 0.05687421 -0.10941483 -0.17396611 0.1022194
-0.36819965 -0.035470076 0.05888446 0.12739392 -0.019793699 0.13659686 0.020696755 0.17994478
-0.16634242 -0.048553806 -0.07136961 -0.05504391 -0.20641698 0.07757638 -0.034452755 0.030897783
-0.106060974 0.04610657 -0.01727312 0.12655184 0.08954703 -0.018180093 0.27278477 0.022793673
0.050169315 -0.16881312 0.059440874 0.1361924 0.109632805 -0.03489985 0.043045375 0.19372761
-0.056783155 0.0088749565 0.15654501 0.15191194 0.23916626 0.18457727 -0.0509204 0.08259236
-0.16989362 -0.110814005 0.18455006 -0.0765571 0.043384522 0.037706543 -0.22061104 -0.15144993
-0.14538506 0.097361214 -0.21314642 0.05911204 0.13462439 0.14906444 -0.067052014 -0.04409396
-0.029969364 0.14879063 0.0852684 0.078134924 -0.20576848 -0.018293789 -0.24738303 0.12700394
0.0159084 0.06545963 -0.10889534 -0.023736238 0.22191383 -0.078231536 0.09190356 -0.05953294
0.077005394 -0.100053795 0.0057486165 -0.0708774 -0.05380027 0.19589095 0.2170187 -0.105964296
-0.009249335 0.020080026 0.04326972 0.04351573 0.046638403 0.07329817 -0.2076803 -0.06817145
-0.072304115 0.118254595 0.004519553 0.02618703 0.007276768 0.2188453 -0.13878551 -0.13558753
-0.11299247 0.1949393 -0.21390101 -0.06051232 0.0043321694 0.028687645 0.036349952 0.2020496
00000000: 7fb4 8f3e 129c dc3d fd1c 0e3e 33b5 b63e
00000010: 8b6b 5fbe f3c3 27be 1207 b93d 2388 5c3d
00000020: 6df9 433c b8d1 b9bd 649e 223d 5073 8abd
00000030: 9be1 9f3d 907d abbc b391 073e 4b0b 5a3d
00000040: 69a4 efbc d296 15bd 8909 b63d f9ae 6bbd
00000050: 82f9 1a3b 6b1e 8abe 3d7b 3bbe cda2 76be
00000060: 0a84 39be a413 b73d d11f 08be 4a25 83be
00000070: 0cd0 c0bd 06bf e4bc f6e5 da3d 9f2a ca3d
00000080: 3a21 853d f5af 16bd dc42 543e 0448 363d
00000090: d86a e53c afde e7bb 039d 343e 264c aebd
000000a0: 4827 413e 3226 92bb 65c9 933c 120c 773d
000000b0: 7a63 fa3d 3678 8f3d f079 203e 1cd1 433e
000000c0: d412 dcbc fda4 8cbe 6145 adbe b478 e73d
000000d0: 1ba1 8ebd d972 a23c 45df 213e cfd0 4a3e
000000e0: 4133 26be 0671 b7bd 3758 203e 2c1d 1f3e
000000f0: 4dc8 d5bd 220a 7fbd 3262 bc3c c1a9 88bd
00000100: c671 6b3d 88eb 3a3e 59f1 de3d 96b0 bdbd
00000110: c711 d0bd e4db fb3c 9148 083e 60fc b3bd
00000120: a6d0 083b 8eb1 3ebd c6a7 6dbd b8db b9bd
00000130: f4b1 3cbe 8f3e 5b3d 38bd 35be 0e8f a13c
00000140: 663d 11bc b24a 953d 11d7 a23c 165f 983c
00000150: 15b8 a8bd d96d cebc 0d11 6fbd 8fd3 8e3e
00000160: 84be 4bbe 2d7f 9d3d af2c 11be 6426 7c3e
00000170: 4a5f 823d 969c 3a3c 27d4 5fbd 8fd2 e13a
00000180: 12e4 01be f9ea 093d 622e 15be fcf9 8e3d
00000190: 190f 083e 41f2 313c 70e7 f1bd b129 243e
000001a0: a284 babc d4ad 313d 58be 993d cdd9 d03c
000001b0: 91a8 8bbd 6706 e23d 908b 9c3e b30c 1d3e
000001c0: 23bd 7b3c 1db0 cabc 3ee2 fd3c 6c75 29be
000001d0: 655f e53d fe93 93be e609 c2bc 0e33 e73c
000001e0: db63 943e e515 cebc 19f9 82be 7d25 13bd
000001f0: 72cb bebb dfe9 c7bd 9e0a b0bd d035 b3bd
00000200: c6bb 6dbe d020 ad3b 2c65 e5bc 9c2f ec3b
00000210: a5f2 0dbe 8041 3abe bf09 dbbd d6ab fcbd
00000220: 273a 023e 1a3f d03d 9ddc 00be 705e a7be
00000230: 644f 62bd 399d 353e 3f6c 123e 23c2 d5bd
00000240: e683 06be 579c 923d 80e3 223e 1964 bbbd
00000250: eef4 683d e214 e0bd 2c24 32be 6858 d13d
00000260: aa84 bcbe 1249 11bd d530 713d 8d73 023e
00000270: 6526 a2bc 0ce0 0b3e 3e8c a93c 7243 383e
00000280: ab55 2abe 5be0 46bd 3b2a 92bd b975 61bd
00000290: f95e 53be 5de0 9e3d 551e 0dbd 591d fd3c
000002a0: 7f36 d9bd 3eda 3c3d 5c80 8dbc ce96 013e
000002b0: 6f64 b73d 6bee 94bc 72aa 8b3e ccb9 ba3c
000002c0: 577e 4d3d 59dd 2cbe 4678 733d 0576 0b3e
000002d0: 2a87 e03d 25f3 0ebd 5950 303d 8860 463e
000002e0: 7495 68bd 4468 113c 564d 203e ce8e 1b3e
000002f0: 00e8 743e d301 3d3e e991 50bd 2f26 a93d
00000300: 98f8 2dbe 74f2 e2bd b1fa 3c3e f8c9 9cbd
00000310: f8b3 313d 2d72 1a3d dce7 61be b115 1bbe
00000320: d2df 14be 5165 c73d 0e43 5abe 771f 723d
00000330: fada 093e 59a4 183e 9152 89bd de9b 34bd
00000340: 5082 f5bc 925c 183e 33a1 ae3d 3405 a03d
00000350: f9b4 52be dbdc 95bc fa51 7dbe 520d 023e
00000360: 5552 823c b30f 863d 8504 dfbd 8072 c2bc
00000370: 613d 633e db37 a0bd ef37 bc3d d0d8 73bd
00000380: 01b5 9d3d 01e9 ccbd e45e bc3b 2c28 91bd
00000390: ac5d 5cbd a397 483e 263a 5e3e cf03 d9bd
000003a0: 868a 17bc de7e a43c 973b 313d 8d3d 323d
000003b0: e907 3f3d 5a1d 963d 25aa 54be 799d 8bbd
000003c0: 2e14 94bd 772f f23d c218 943b 2f86 d63c
000003d0: f471 ee3b fb18 603e ca1d 0ebe 75d7 0abe
000003e0: 9968 e7bd 2b9e 473e de08 5bbe c4db 77bd
000003f0: dff4 8d3b 5a02 eb3c b0e3 143d 17e6 4e3e

linear1.bias f4 [64]
-0.014255952 0.01771095 -0.01329295 -0.10015096 -0.15250112 0.14944226 0.13420358 0.1574046
-0.06239861 0.11288864 0.038649224 -0.10449876 -0.041981798 -0.10956192 -0.11373845 -0.0377559
0.010040956 0.063879505 -0.07272315 0.08282636 0.19211398 0.029053804 -0.061808903 -0.18437701
0.0736027 -0.060933586 -0.14953865 0.1123526 -0.056537606 -0.09196816 -0.123971604 0.023089934
0.16500883 0.12643866 0.027549615 -0.08674499 0.00042291544 -0.11494727 -0.08631724 0.13947889
0.0910294 -0.11588356 0.09019636 -0.001153637 0.08034988 -0.0034921265 0.11943825 -0.00912117
-0.013967025 -0.026997443 0.13506752 0.06801418 0.04893183 0.06738212 0.09395247 0.0014101003
0.04462532 0.0075117033 0.0938481 -0.20720041 0.010900364 -0.1302594 0.084116645 0.0012242122
00000000: cc91 69bc 8e16 913c acca 59bc f21b cdbd
00000010: 4129 1cbe 6407 193e aa6c 093e ac2e 213e
00000020: af95 7fbd 2932 e73d a64e 1e3d 7203 d6bd
00000030: 1bf5 2bbd 0062 e0bd b4ef e8bd eea5 1abd
00000040: d282 243c 42d3 823d e0ef 94bd dea0 a93d
00000050: 87b9 443e 3e02 ee3c 552b 7dbd 54cd 3cbe
00000060: 03bd 963d 7f95 79bd a920 19be 1f19 e63d
00000070: fa93 67bd cd59 bcbd d3e4 fdbd 1a27 bd3c
00000080: 13f8 283e 2379 013e bbaf e13c 5ba7 b1bd
00000090: c0ba dd39 7969 ebbd 18c7 b0bd 8ed3 0e3e
000000a0: 9f6d ba3d 5c54 edbd dfb8 b83d a235 97ba
000000b0: 7a8e a43d 29dc 64bb 0b9c f43d f670 15bc
000000c0: f3d5 64bc be29 ddbc 244f 0a3e 054b 8b3d
000000d0: be6c 483d a3ff 893d 276a c03d 1dd3 b83a
000000e0: 0ac9 363d bc24 f63b 6f33 c03d 582c 54be
000000f0: 7197 323c b862 05be 5945 ac3d bf75 a03a

linear2.weight f4 [64, 64]
0.124994226 -0.03993813 0.18503027 -0.08259021 0.14102995 -0.14958118 -0.06702347 -0.1116122
0.021290753 0.028124157 -0.15725014 0.19846515 0.147689 -0.07648643 0.17474715 -0.05612716
0.04597936 0.075254634 0.004745544 -0.02961163 -0.11135425 -0.10656422 0.0173694 -0.10968154
0.004377885 -0.0023763552 -0.038200416 0.0965224 0.103691705 -0.0023946331 0.13223264 -0.052302886
-0.06579653 -0.07865904 0.111896016 0.08890024 -0.040436324 0.1905085 0.16970493 -0.16257301
0.14897776 -0.0036303347 -0.005079084 -0.13767771 -0.20998882 0.0053899265 0.103781916 -0.04448473
0.034777492 0.05518082 -0.084913135 -0.18862332 0.13575117 -0.06553648 0.0646415 0.0010209962
0.046458967 0.08107029 0.12825929 -0.10672971 -0.11837124 0.1466071 0.032199472 0.0898296
-0.004385593 -0.015658572 0.070177175 -0.019223053 -0.01668679 -0.006292471 -0.032896098 -0.11393785
0.047197852 -0.07618893 -0.001616795 0.17681848 -0.023439022 -0.013928335 0.004644527 -0.017796079
-0.0062199878 -0.02268531 0.09453321 0.13854793 -0.03668547 0.14627995 0.046781965 -0.19208418
0.22064446 -0.09805693 0.15678857 0.111645974 0.02456704 0.08924368 0.20666933 0.0455202
0.02524538 0.074588396 0.08357118 -0.13339709 -0.16550608 -0.007529607 0.1958711 -0.34716266
0.19921918 0.0054337014 -0.033852335 -0.13058603 0.010598798 0.2096826 -0.06656629 0.18191047
0.00070268265 0.009848119 0.069501914 -0.059982453 0.017448297 0.029724574 -0.04573229 0.15808237
0.04944053 0.20533271 0.021182066 0.10995149 0.04298908 0.14523453 -0.124317594 0.09213014
-0.04445901 0.31584078 -0.115371466 0.11100278 -0.0037057362 0.16219574 0.015278291 0.19207944
0.079155095 0.15560287 0.09886448 -0.093796715 0.17583765 0.104305916 -0.048065845 0.11052075
-0.019347506 0.19906417 -0.24145539 -0.087831594 0.18607955 0.15945812 0.06598152 0.27162927
0.0092157675 0.20877573 -0.078309886 0.1388243 -0.07450628 0.22385356 0.07027493 0.11075005
0.15446475 0.19222343 0.12083278 -0.023732143 0.12202054 0.015569741 -0.24542925 0.105669625
-0.027864797 -0.06416584 -0.08545708 0.04978025 0.13004702 -0.16398355 0.07382135 -0.021435713
0.0018342667 0.21763447 -0.031208778 0.17552522 -0.10595162 -0.04669003 0.087360054 0.015842212
0.07929995 0.012619372 0.19217426 0.1251113 -0.0031184817 -0.11567336 0.09502382 0.06479177
-0.17830606 0.2096914 -0.13330643 0.041319113 -0.0017482042 0.13784428 -0.05496267 0.1568219
0.13882518 0.07476899 0.054023463 0.041692484 0.029285792 0.109612145 0.05592682 0.22625425
0.011340646 0.030467618 -0.20801376 0.036483455 0.12997897 0.004235752 -0.062018506 0.22992717
-0.23908345 0.1079184 0.0058510355 0.019100407 0.05413995 0.16478793 0.09252236 0.10136762
0.009433769 0.16876225 0.12333448 0.13878642 0.26089272 0.033668295 -0.04333147 0.2585698
-0.017153637 0.008521581 -0.14309448 0.093978435 0.08757935 0.033798225 -0.03820191 -0.046758045
0.032505512 0.15682027 -0.06370674 0.024638679 0.043011773 0.025453595 0.12883794 -0.123884104
-0.04617668 -0.028060423 0.071792826 0.04815597 0.13561514 -0.11084206 0.08013024 -0.026622914
00000000: f9fc ff3d 2a96 23bd 9378 3d3e 0e25 a9bd
00000010: 286a 103e cf2b 19be 9a43 89bd f094 e4bd
00000020: f269 ae3c a264 e63c 2e06 21be 733a 4b3e
00000030: c93b 173e eba4 9cbd ebf0 323e 98e5 65bd
00000040: da54 3c3d 1a1f 9a3d 8280 9b3b 1794 f2bc
00000050: b20d e4bd 573e dabd 464a 8e3c b7a0 e0bd
00000060: 5c74 8f3b a0bc 1bbb 0a78 1cbd 89ad c53d
00000070: 515c d43d 47ef 1cbb fe67 073e 8d3b 56bd
00000080: 55c0 86bd fe17 a1bd bd29 e53d 5411 b63d
00000090: 8fa0 25bd a914 433e 21c7 2d3e 8a79 26be
000000a0: a08d 183e e9ea 6dbb 726e a6bb 63fb 0cbe
000000b0: 4f07 57be fb9d b03b 9d8b d43d 9f35 36bd
000000c0: d872 0e3d 4905 623d f0e6 adbd 7926 41be
000000d0: 5b02 0b3e fd37 86bd c362 843d f3d2 853a
000000e0: c24b 3e3d 2e08 a63d 6756 033e 1b95 dabd
000000f0: 9f6c f2bd 2c20 163e 98e3 033d 95f8 b73d
00000100: 05b5 8fbb 6846 80bc 0db9 8f3d aa79 9dbc
00000110: bcb2 88bc 1331 cebb 0fbe 06bd 3f58 e9bd
00000120: 8952 413d f108 9cbd a3ea d3ba e70f 353e
00000130: 3103 c0bc ac33 64bc 1e31 983b 15c9 91bc
00000140: 0ad1 cbbb 8bd6 b9bc a19a c13d 82df 0d3e
00000150: 8143 16bd 69ca 153e 729e 3f3d b7b1 44be
00000160: 9ff0 613e 12d2 c8bd 2f8d 203e a5a6 e43d
00000170: d140 c93c 64c5 b63d 20a1 533e 6473 3a3d
00000180: 66cf ce3c cdc1 983d 5e27 ab3d 3f99 08be
00000190: 6d7a 29be ecba f6bb 6f92 483e 4ebf b1be
000001a0: 1d00 4c3e 310d b23b bfa8 0abd 58b8 05be
000001b0: 95a6 2d3c 09b7 563e e853 88bd bd46 3a3e
000001c0: 3c34 383a 015a 213c 0557 8e3d 29b0 75bd
000001d0: bbef 8e3c f380 f33c c851 3bbd 58e0 213e
000001e0: 2782 4a3d bd42 523e 0386 ad3c 3f2e e13d
000001f0: 5115 303d 5cb8 143e 399a febd baae bc3d
00000200: a71a 36bd e2b5 a13e e047 ecbd 6d55 e33d
00000210: f0db 72bb a416 263e cc51 7a3c 79b0 443e
00000220: 111c a23d 5c56 1f3e 7679 ca3d 7e18 c0bd
00000230: c90e 343e 579e d53d b1e0 44bd b458 e23d
00000240: a97e 9ebc 7ad7 4b3e 1540 77be 0de1 b3bd
00000250: a38b 3e3e fd48 233e 5221 873d fe12 8b3e
00000260: bbfd 163c 4ec9 553e ef60 a0bd f527 0e3e
00000270: c096 98bd de39 653e 4dec 8f3d ecd0 e23d
00000280: 022c 1e3e 38d6 443e 2d77 f73d e969 c2bc
00000290: e8e5 f93d 3a18 7f3c ce51 7bbe 5169 d83d
000002a0: b744 e4bc 6169 83bd 1f04 afbd 60e6 4b3d
000002b0: 0c2b 053e 4eeb 27be a62f 973d f399 afbc
000002c0: c76b f03a 92db 5e3e 8da9 ffbc e2bc 333e
000002d0: 2afd d8bd 0b3e 3fbd d4e9 b23d 87c7 813c
000002e0: 0368 a23d 7cc1 4e3c 54c9 443e 2d1d 003e
000002f0: 715f 4cbb 28e6 ecbd d99b c23d 8cb1 843d
00000300: dd95 36be 58b9 563e 7b81 08be 3b3e 293d
00000310: 0024 e5ba 0d27 0d3e 8920 61bd ec95 203e
00000320: 3028 0e3e 7c20 993d b547 5d3d bdc5 2a3d
00000330: c2e8 ef3c 557c e03d 8513 653d 32af 673e
00000340: 1ece 393c 3a97 f93c 8f01 55be ad6f 153d
00000350: 3519 053e 10cc 8a3b 1e07 7ebd 0772 6b3e
00000360: 4bd2 74be 5204 dd3d 0bba bf3b 7578 9c3c
00000370: dac1 5d3d 2bbe 283e 5d7c bd3d d499 cf3d
00000380: 1890 1a3c 03d0 2c3e ca96 fc3d 071e 0e3e
00000390: bb93 853e c4e7 093d 577c 31bd 4363 843e
000003a0: c985 8cbc 1a9e 0b3c 5c87 12be c477 c03d
000003b0: cd5c b33d 0270 0a3d 9b79 1cbd 5d85 3fbd
000003c0: 8024 053d 7e95 203e ae78 82bd 0ed7 c93c
000003d0: 1d2d 303d 0f84 d03c 18ee 033e f3b6 fdbd
000003e0: c223 3dbd f9de e5bc 1e08 933d 323f 453d
000003f0: b2de 0a3e 2901 e3bd 531b a43d 4c18 dabc

linear2.bias f4 [64]
0.049536016 -0.038088415 0.032555968 0.031403378 0.039641052 0.11478092 0.14952987 0.08606063
0.15430526 0.041616738 0.12458668 0.0410428 -0.08453756 0.08509427 -0.10333269 -0.06704525
0.049278148 -0.12536356 -0.024706516 -0.03848036 0.017145244 -0.015274164 -0.06449388 -0.027341425
-0.05982695 -0.09874076 0.06113819 -0.07769209 0.060871627 -0.07528318 -0.0038739457 -0.010352662
0.04380683 -0.15092596 0.10496685 -0.08165508 0.009446671 0.14197657 0.009318 -0.118789844
0.024316372 0.078975044 0.15041341 0.095812514 -0.069733515 -0.116482005 -0.077937305 -0.12855452
0.01508388 -0.0746918 0.10748152 -0.13530941 0.0043302504 0.1129571 0.12035026 0.06810166
0.07128301 0.015003561 -0.094783485 -0.04822654 -0.0017607936 -0.07632191 -0.03029712 0.06575896
00000000: 47e6 4a3d 9902 1cbd 6859 053d d4a0 003d
00000010: a85e 223d 4212 eb3d 5c1e 193e 8e40 b03d
00000020: 3302 1e3e 5076 2a3d 4d27 ff3d 7f1c 283d
00000030: 0722 adbd e845 ae3d 17a0 d3bd 054f 89bd
00000040: e2d7 493d 4e5f 00be 5265 cabc 959d 1dbd
00000050: 2f74 8c3c 7d40 7abc 5e15 84bd 20fb dfbc
00000060: 1b0d 75bd 9838 cabd 0a6c 7a3d 081d 9fbd
00000070: 8754 793d 112e 9abd 06e2 7dbb 369e 29bc
00000080: ca6e 333d 568c 1abe dcf8 d63d c73a a7bd
00000090: 36c6 1a3c 4e62 113e 86aa 183c 1748 f3bd
000000a0: 2133 c73c abbd a13d f905 1a3e 5a39 c43d
000000b0: 72d0 8ebd 1e8e eebd 989d 9fbd cca3 03be
000000c0: 6122 773c 04f8 98bd 451f dc3d 8d8e 0abe
000000d0: c6e4 8d3b 0d56 e73d 327a f63d e278 8b3d
000000e0: d4fc 913d 7fd1 753c d81d c2bd 3189 45bd
000000f0: 6eca e6ba a94e 9cbd aa31 f8bc a2ac 863d

linear3.weight f4 [1, 64]
0.09861858 0.15265696 -0.19321889 -0.10228616 -0.078764796 -0.0901283 0.1191692 0.22622558
0.08069393 -0.45916557 0.068413734 0.03223003 -0.10199364 -0.14546935 -0.19793393 0.09641069
-0.098716564 -0.41879025 0.339786 -0.5276069 0.089586094 0.062429022 0.04408379 0.13120607
-0.07287094 -0.28257322 0.04947082 0.19305505 0.11605411 0.11634259 -0.046645842 0.1575374
-0.12296683 -0.25927308 0.122346655 0.0559241 0.040479172 0.11736825 0.09931964 0.19782938
0.053736728 -0.19890113 -0.24437234 -0.09865473 -0.07621397 -0.06547331 0.3256496 0.06689379
0.25172415 -0.73970324 0.11394509 -0.037370734 -0.2758152 0.008463244 0.05458294 -0.16145638
0.12924905 -0.17274639 -0.71226346 0.011224087 -0.51885337 0.18304591 -0.049407337 0.0575252
00000000: 8af8 c93d 1b52 1c3e 2cdb 45be 687b d1bd
00000010: 704f a1bd 3095 b8bd fb0e f43d aea7 673e
00000020: dc42 a53d c017 ebbe 801c 8c3d a303 043d
00000030: 0be2 d0bd ebf5 14be 31af 4abe f872 c53d
00000040: e92b cabd ad6b d6be 6ef8 ad3e 3f11 07bf
00000050: ea78 b73d 93b5 7f3d 3491 343d e25a 063e
00000060: 5c3d 95bd 70ad 90be eaa1 4a3d 39b0 453e
00000070: c7ad ed3d 0645 ee3d b60f 3fbd 7c51 213e
00000080: 09d6 fbbd 71bf 84be e290 fa3d ab10 653d
00000090: 7dcd 253d c45e f03d 1868 cb3d c993 4a3e
000000a0: 0b1b 5c3d bdac 4bbe be3c 7abe 7e0b cabd
000000b0: 1216 9cbd df16 86bd 8bbb a63e 9dff 883d
000000c0: fde1 803e 315d 3dbf 0b5c e93d 0e12 19bd
000000d0: a637 8dbe 6ba9 0a3c 5c92 5f3d d254 25be
000000e0: dd59 043e 6ee4 30be e656 36bf 3ce5 373c
000000f0: 93d3 04bf 6370 3b3e 595f 4abd 8b9f 6b3d
