current_algos/TD3/TD3_Agent_actor_weights.pth (torch, 82689 bytes, 5 tensors)

linear1.weight f4 [128, 26]
00000000: 8e80 013d 8054 37bf c38f 37be 661f dfbe
00000010: 84d4 afbe 2259 32be 0965 6c3c 98f6 fa3d
00000020: 3fe2 efbd b4d7 45bf ab28 1f3e a4a4 77bc
00000030: abc9 883d 3c7a d1bc dd0c 2a3e 73f1 7b3e
00000040: 1ad7 13be ad8f 98be 3538 76bd fc37 13be
00000050: a9f3 e23c 8d57 be3d c3e2 b03d a369 57be
00000060: bd35 64be 1f27 0dbe 7355 5dbb 36ea 74be
00000070: 1e91 16be d1b7 b53e 016f a1bd 4e64 e23c
00000080: 35c3 bf3c 7196 cc3c a679 6abd 1eef a9be
00000090: 996d 813e b086 a83c 59a1 323e 3b60 9b3d
000000a0: 8a73 dc3e a16b b43d c435 1cbe 3fd5 25be
000000b0: 8dd3 a6bd 0dc1 7d3d 3223 473e b487 1e3e
000000c0: 7432 56bd 994d 3bbc 8c84 fdbc 657b 913e
000000d0: 5506 2bbd 2618 b43d 09cb 9ebe 603b 9bbe
000000e0: 3c43 c2bd a481 02be d06e 283d f1ba 023e
000000f0: 973c d1bd 4c86 713d 5ca7 eebb 4a4e 44bc
00000100: 86a0 d43a 5e33 e33d b38f ea3d 749f 333e
00000110: adca aebe d2e0 7e3d 8a86 a53d e1a8 7ebe
00000120: e295 1cbe e03c b53e ce24 8f3c e6ca 083e
00000130: 61ca c9be 4b3a 3fbd b46d 9bbd 3d84 45bd
00000140: 8daa 6fbe 3447 42be 1f0b 51be e5e2 41be
00000150: 6a34 783d 2a46 e4bd b247 a03d 5a39 be3e
00000160: 2e8d 0ebd 97b6 b0bd c5cb 06be 04fc 0d3e
00000170: ff4b a73e af10 3ebe 2daf 7cbe 2b95 7d3d
00000180: 9f6d 7dbd d06f 22bd bf20 bebd 997c 16bc
00000190: 1ff6 34bd cfde a53e 7c35 023d bc1e 60bd
000001a0: bcf1 5ebc 0e96 4f3d 9d99 653e e2bf 213f
000001b0: 4f89 a63c 89f8 253c 567c 403d 3214 e03d
000001c0: aee1 cebd 5095 56bf 4a17 98bd 9c0b 9bbd
000001d0: 4d9a 873d fff3 aebc 85dc 21be 718a 903e
000001e0: 02d4 16be fd8c f53d 46d7 6abe ba5d 283c
000001f0: 3827 df3e 2812 a9be 5a4d 82be 21b6 03be
00000200: 374e 4dbd bb39 2ebd bb4a 43bd e801 ebbe
00000210: 8a7c 243e 1748 1abf 6ce8 5ebe 9a9f 72be
00000220: e16a b03b 2efe d93d 24fb bfbd 0b4f 7abe
00000230: 7015 90be 9eb9 b93d 20c8 41bd 8e01 a1be
00000240: e71f fc3c 3404 893d 0d06 883e 0d8a 9ebd
00000250: 444f b13d 8407 9d3d 094c b3be 178c c83d
00000260: 134c 3bbe 7958 9bbd fa82 06be 28e7 3bbd
00000270: 3f5a d1bc f4f0 783e ed21 5ebc 1b9a d5bd
00000280: cc33 69be ce17 bfbd e2c7 78bd f23f abbd
00000290: 2372 84be 028d 073e 1ed8 86be 8c9c b43d
000002a0: 11d6 9dbd d2eb 993e 8736 12be 6a47 413e
000002b0: 1397 8d3e 2df0 aabe 8078 30be ccdb 88be
000002c0: e9e8 c63c 3aeb 9dbc 0a69 953c 0252 a63d
000002d0: fc5d 6fbd f90c f6bd e055 a03d 72e6 ca3d
000002e0: ed76 00be b10d 7dbd a9bc 7cbb cc92 bc3d
000002f0: 27d4 693d 176e d6bd 4e4c c03d 3e00 9fbc
00000300: 5753 86be 88a0 1abe 7e6d ff3d 6d07 64be
00000310: 3416 81bd 88aa a33e 13a4 cdbd 5b0c 90bd
00000320: 5dad 52be 2937 8c3e 57dc 173e 14d4 08be
00000330: c027 253e 8986 913e acbf 303e 2683 12be
00000340: 91b8 fd3c 35ff 063e 57cc acbc 05f5 e93d
00000350: 6ba0 95bd c1f8 403d 3c24 5d3c 46d7 c43d
00000360: 734e d43e be88 963e efc2 dcbc 76a4 90bc
00000370: 8755 e03d a1ea a13c cf70 aebc 296f ebbd
00000380: 7afc 9c39 51de 7bbe 0496 0dbe f98d 3f3e
00000390: 56c9 dc3d 02fc 223d 6507 3cbe e9d5 0cbe
000003a0: 1e4d 963e e915 eb3c ffaa 43bd 5446 b8ba
000003b0: 51bc 99be b243 3fbf c775 b23a 141e 813e
000003c0: 8db8 33bd 1b9a 653e b6f3 053d 5d92 efbe
000003d0: 72d9 19bf 615f 76be d21f 2abd 15b6 69be
000003e0: 95fe 4abe 41cf debb a46b babd 5708 2abe
000003f0: 6062 31bb fdfa 16be cee2 eabe 9480 9dbc
0.03161674 -0.7161331 -0.17925934 -0.43578643 -0.34341824 -0.17416814 0.0144283855 0.12254065
-0.11713075 -0.7728226 0.15542857 -0.015114937 0.0667909 -0.025570981 0.1660647 0.24603824
-0.14437523 -0.29797116 -0.060112197 -0.14376825 0.027704077 0.09294043 0.08637001 -0.21036391
-0.22286125 -0.13784455 -0.0033772856 -0.2391747 -0.14703795 0.35491803 -0.078825004 0.02763572
0.023408512 0.02497408 -0.05724492 -0.33190244 0.2527893 0.020572037 0.17444362 0.07586714
0.430569 0.08809591 -0.15254885 -0.16194628 -0.08145819 0.061951686 0.1944702 0.15481454
-0.05229421 -0.011432075 -0.030946992 0.28414455 -0.041754086 0.087936684 -0.3101428 -0.30318737
-0.0948548 -0.12744766 0.041121304 0.12766625 -0.10216635 0.058965966 -0.0072831344 -0.011981556
0.0016222156 0.11093782 0.1145319 0.17541295 -0.34139004 0.062226124 0.08082302 -0.2486911
-0.15291551 0.35398006 0.017473605 0.1335865 -0.39412215 -0.046686452 -0.075892836 -0.048221815
-0.23404904 -0.18972474 -0.20414399 -0.1893421 0.06059686 -0.11146195 0.07826175 0.3715313
-0.03480261 -0.08628576 -0.1316367 0.13865668 0.32675168 -0.18561052 -0.246762 0.061909836
-0.06187212 -0.039657414 -0.092835896 -0.00918498 -0.044180032 0.32396552 0.031789288 -0.05471681
-0.013607439 0.050680213 0.2242188 0.63183415 0.020329146 0.010130056 0.046993576 0.10941352
-0.10101639 -0.8382158 -0.07426317 -0.07570574 0.066212274 -0.02135658 -0.15806778 0.28230622
-0.14729312 0.11989782 -0.22933683 0.010276252 0.4358461 -0.33021665 -0.2544964 -0.12862445
-0.05012342 -0.042535525 -0.04767869 -0.45899892 0.16063133 -0.6026625 -0.2176835 -0.23693696
0.0053838347 0.10644184 -0.09374073 -0.24444215 -0.28141356 0.09068607 -0.047309995 -0.314465
0.030776931 0.06690255 0.26567116 -0.07741175 0.08657697 0.07667449 -0.35018948 0.09792345
-0.18290739 -0.07585234 -0.13135901 -0.045874745 -0.025555728 0.24310666 -0.013557893 -0.10429784
-0.22773665 -0.09330712 -0.060737498 -0.08361806 -0.2586833 0.13237384 -0.2633676 0.088189214
-0.077068456 0.3006273 -0.14278613 0.18874899 0.27654323 -0.33386365 -0.17233467 -0.26730192
0.024280982 -0.019277204 0.018238563 0.081211105 -0.05843924 -0.12014193 0.07828879 0.09907235
-0.12545367 -0.061780635 -0.0038564599 0.09207687 0.05708709 -0.10470217 0.09389554 -0.019409295
-0.26235458 -0.151003 0.12472056 -0.22268458 -0.06303063 0.31966043 -0.1004106 -0.070336066
-0.20573945 0.27385834 0.14830147 -0.13362151 0.16128445 0.28422955 0.17260617 -0.14307842
0.030971797 0.13183291 -0.02109353 0.11423687 -0.07305988 0.04711223 0.0134974085 0.09611373
0.41466102 0.294012 -0.02694842 -0.017656546 0.10953813 0.0197652 -0.021294026 -0.114958115
0.00029942748 -0.24596526 -0.13826758 0.18706502 0.10780589 0.039791115 -0.18362196 -0.13753475
0.2935571 0.028696971 -0.047770496 -0.0014059045 -0.30026487 -0.7471267 0.0013615423 0.2521826
-0.043877173 0.22422068 0.032703124 -0.46791354 -0.6009742 -0.24059822 -0.041534252 -0.22823365
-0.19823678 -0.006799609 -0.09102562 -0.16604744 -0.0027066693 -0.14744182 -0.45876163 -0.01922635

linear1.bias f4 [128]
00000000: 3dad a23d 866e 8fbd 971f 3abe ee25 96bd
00000010: 22e7 b9bd 95a6 c4bd 4935 2abc 5899 9ebe
00000020: c412 2dbc 44c4 e6bc 52ac b03d 2db8 843e
00000030: 4108 ddbd cd09 e5bd 683c 163d e57b 2abd
00000040: 5721 4cbe 6e8e 093d cd2d 513d fd24 573e
00000050: 0ecf 073d fc31 4f3e d8ff 683e 19bc 0c3d
00000060: b63c da3b a92b e3bd 21a6 133c f48a 803e
00000070: 4f85 e6bd 8605 373d 2527 503e 81a1 f23d
00000080: 8aee 6d3c 2835 323e e087 bb3d 013c 45be
00000090: e081 14be 575c 5abe 2ce4 4bbe 0aaf d4bd
000000a0: dfbb 373e 3275 bc3c 83a7 39be 70f2 aebb
000000b0: e5e4 dd3b cee8 1d3e d97d 3f3c 0f58 df3d
000000c0: cc14 483d 07a9 44bd accd 0c3e 7353 85bd
000000d0: 157d 11be 2f23 d3bd 0fa6 f8bd 5a24 af3c
000000e0: 2a1b 593c fd98 103e 2ced bf3d 6ef4 db3d
000000f0: 8b46 dd3d c7c6 06be 7748 acbd 18df 2b3e
00000100: 265a bd3d 59b8 b53d a99e 89bd b05f 84bd
00000110: 1d70 44be cc67 a7bc a576 0a3d d67a e33d
00000120: 1f83 3dbe 01bc 4c3c 56d1 9b3d caa9 4abe
00000130: 0a92 f43d 2770 d53d 396b 35be 4839 43be
00000140: 560c d53d 2319 473d ca5c bbbc a83f a0be
00000150: e15f ea3d e739 e03d fac6 41bd 2739 a23d
00000160: 1d1e 5a3e 189d 033e ee5c 1dbe 5aad 183e
00000170: 67fc 88bc f310 7b3e 0dfc 123e eb33 4fbe
00000180: f2de 8e3c b22a 4e3d 2ac0 cd3d 17a5 c1bc
00000190: 2355 df3d 8eeb 823d dac0 fabd 74dd b9be
000001a0: ab86 053e ad59 15be 0fd1 fbbd c497 bcbc
000001b0: 3511 fb3d 15d5 babd 1d6f f4bb 3b0b 7b3d
000001c0: 2d16 53be 5537 8b3d 63bd 7ebe 89af 4b3d
000001d0: 1c9d 3dbe f48b 98bd bd9c ff3b c757 643e
000001e0: 94e7 ec3d 13fb e93d 8161 8d3e 1e5f c43c
000001f0: 038a babc e62c c83d 5ccb cd3d 6854 9f3e
0.07943199 -0.070035025 -0.18176113 -0.07331453 -0.09077288 -0.096020855 -0.010388681 -0.30976367
-0.010563556 -0.028169759 0.086266175 0.25921765 -0.1079259 -0.1118351 0.0366787 -0.04162206
-0.19934593 0.033583097 0.05106907 0.21010204 0.033156447 0.20233911 0.22753847 0.03435907
0.0066600693 -0.11092312 0.009011776 0.25106013 -0.11255895 0.044683002 0.20327432 0.11847211
0.014522204 0.1740309 0.091567755 -0.19261171 -0.14502668 -0.21324287 -0.1991126 -0.103849486
0.17942761 0.023005102 -0.18130307 -0.0053389594 0.006771671 0.15420839 0.011687719 0.10905468
0.04884796 -0.04801276 0.13750333 -0.06510057 -0.14207871 -0.10309445 -0.12141048 0.021379638
0.013251105 0.1412086 0.09371409 0.10739981 0.10804471 -0.13161765 -0.08412259 0.16784322
0.0924571 0.08873052 -0.06719715 -0.064635634 -0.19183393 -0.020435236 0.033804554 0.111074135
-0.1850705 0.0124959955 0.07608287 -0.19791332 0.11941917 0.10421782 -0.17716683 -0.1906482
0.104027435 0.048607957 -0.022871394 -0.31298566 0.11444069 0.10948544 -0.0473089 0.07921057
0.2130055 0.12852895 -0.15367481 0.14909878 -0.016721917 0.24518184 0.14353962 -0.20234649
0.017440293 0.050333686 0.10046418 -0.023638291 0.109049104 0.06392585 -0.12243815 -0.36301768
0.13039653 -0.1458499 -0.12295734 -0.023021586 0.12259141 -0.091226734 -0.007459535 0.061290007
-0.20613928 0.06797663 -0.24876933 0.04972795 -0.18516964 -0.07448569 0.007800667 0.2229911
0.115676075 0.11424842 0.27613452 0.023971137 -0.022770887 0.09774189 0.10048553 0.31119084

linear2.weight f4 [128, 128]
00000000: a9f8 a93c 843f 883d cd78 e53c 059e 1ebe
00000010: 6201 803d 1209 fcbd 0d02 a7bd 3cca 91bc
00000020: 6604 cf3c e0ab 57be 1198 133e 1070 2b3e
00000030: b883 993a 46c2 9d3d a0ed 113d 9c16 503d
00000040: 58a0 363e 0ea0 a23d 97d7 57bd c608 943d
00000050: 0201 cf3d 0066 c73d b91b e8bc 8d9b 3f3e
00000060: 1e9f 31be 43f6 533d fc7f a23d 9505 563d
00000070: 679a 3bbc 9f79 a53d 28c8 92bc f4d3 05be
00000080: 4d02 adbd f233 5d3c c117 cf3d 590e c9bd
00000090: cfa8 99be f607 c23e 1cbe 2d3d 9486 153e
000000a0: 9797 77bd 56d5 013e aeff 073d ca16 ccbe
000000b0: 2147 6cbe 752e 0ebd a77d 16bd a787 ca3d
000000c0: b792 9cbe f71e 913d 6ae7 61be a550 993d
000000d0: 5779 943d 92fc 873d bb8a 213e 42a3 b93c
000000e0: 2a96 f6bd 586b 673d 365a 013e 2709 1e3e
000000f0: 1d2c 7dbc bd06 34bb 3278 0a3e b22f 31bd
00000100: db93 46bd d35b bc3d 213a adbd ea0e 07be
00000110: 5768 fe3d 9dae f1bc e9f7 25bd b846 6dbc
00000120: b332 01bf deb6 dcbe 75f3 81bd 3362 083e
00000130: 37df 2a39 4d1f ac3d c08f 023f c880 fcbe
00000140: 59a9 3b3d 89bd d4bc 25a1 4a3d e5d0 a2bf
00000150: 714a 253d 9bb0 bc3d fe8e acbd 8306 2abc
00000160: 7da9 25bd e54b e63c 1060 51bc 7f1b aebc
00000170: ad03 2bbb 9cb0 a4bd c260 333d 51cc babd
00000180: 584b 933d e544 c93d 452d 0abd a835 b4bc
00000190: 1c7f 623d 8de8 073e d5f0 193d 770c d5be
000001a0: 0171 323e b735 83be e386 9bbc 908e 703d
000001b0: 1ec4 d23d 380d 41bd 1d7f d33c c7cc 843d
000001c0: d2de 563d abd1 04bf 5782 30be 257a bcbd
000001d0: f7aa 1bbe 66c1 1bbe 2899 a93c b56d 6abd
000001e0: 7b6e 233e 20b9 cebd 47cc 7abe d470 72bd
000001f0: 07c2 92bd 42b8 ac3d 3f45 fa3d 12c0 a53d
00000200: 0f29 153e 6c63 77bd dbf5 93bb 41df 963d
00000210: 6ece 23bd 5e15 1b3e 0ce9 f33d 399d 3a3d
00000220: f6bc df3c 0676 163e bd8b c0bd 9c06 b93a
00000230: 1ec5 d1bd fc26 58bd 2497 763d ce4c 803d
00000240: 5071 8fbc dfd1 753d bd18 833d 1929 44bd
00000250: d545 333e 8af3 44bd 6147 f03d da56 29be
00000260: eb4b b03d 4fe9 b53d 09e9 18bb a7df 5f3e
00000270: e353 f53d fb52 fa3d 7e6f 983d ce69 af3d
00000280: 9576 fabc cd78 fc3d 26d7 c83d f9e0 483d
00000290: 4617 3a3e adb6 98be 77bc 6a3d c1c0 5a3d
000002a0: 5676 e13c f9f2 0fbc bdbf e23d 0862 043f
000002b0: e679 533e ca31 903e cda7 23bd d2ac 6b3a
000002c0: c605 c93e ba1b cabc b2c7 a03d b712 953b
000002d0: 15cb 5c3d cfb9 b63d 1821 f5bd a388 d83d
000002e0: 2edb 803d f051 60bd 53ec 033d 6865 23bd
000002f0: 343f 04bd 6660 5e3d d4cc 16bd efaa 463d
00000300: fea2 643c 9ea9 26be b0be 6f3e 737b 24bc
00000310: 0dc0 30bc 2cc8 8c3e b2a9 093e 05ec d73d
00000320: 4a39 f13e 8c4f 393e f7e6 1c3d 058e a0bc
00000330: 922f 553e fc95 a93d 8757 b4be a0fd 0a3e
00000340: 7136 113d e7f5 d33d 92eb 10bd 987c f73e
00000350: 8fed 8f3d 6d4c 093e f078 2c3e d9b6 eebd
00000360: c3ac 053e 4837 803d 6dd4 6bbc 1257 143d
00000370: f1bf dd3d f9ed 833d 4727 b73d 03cf d63c
00000380: f20a aa3d d9eb be3c 6bd6 95be 0a1a 313e
00000390: b47e c23d da89 113d 8c1e 01bd 857c 8d3e
000003a0: b875 743d c67a ffbc 1fad 823c 14b7 cb3b
000003b0: 12a3 3b3d d333 d1bb 725f ce3d c7b3 3bbd
000003c0: 57cb a7bd 1d09 bd3e 4d9e 5d3d 944f c23c
000003d0: da1c 243e cc40 393e 59ac 94ba 5d0f 303d
000003e0: 6602 903d 1ea5 803d 719f d63d ba3f 363d
000003f0: 3e8c b3bd bb64 483d c185 d03d 2673 c43d
0.020748453 0.0665274 0.028011704 -0.15489967 0.06250264 -0.123064175 -0.08154688 -0.017796628
0.025270652 -0.21061659 0.14413477 0.16741967 0.0011712229 0.0770307 0.035627007 0.050802812
0.17834604 0.07940684 -0.052695837 0.07228236 0.10107614 0.09736252 -0.028333532 0.18711682
-0.17345855 0.051748525 0.07934567 0.052251417 -0.011450387 0.08079838 -0.017917708 -0.13069135
-0.084477045 0.013501154 0.101119526 -0.0981719 -0.30011603 0.378967 0.04241763 0.14602119
-0.0604473 0.12679037 0.03320282 -0.39861137 -0.23074009 -0.034712274 -0.036740925 0.09889155
-0.30580685 0.07085984 -0.22060934 0.07486085 0.07249706 0.06639971 0.15775578 0.022660855
-0.1204036 0.056498855 0.12632069 0.15433179 -0.015452412 -0.0027469837 0.13522413 -0.043258376
-0.04848085 0.091972016 -0.08458353 -0.13189283 0.12422245 -0.029502207 -0.04051963 -0.014482193
-0.50467986 -0.43108267 -0.06345264 0.1331871 0.00016295617 0.08404408 0.51000595 -0.49317002
0.0458158 -0.025969284 0.049470086 -1.272 0.040354196 0.09213372 -0.08425711 -0.010377529
-0.04044484 0.028112361 -0.012779251 -0.021253346 -0.002609472 -0.08041498 0.043793447 -0.091210015
0.07192105 0.09827594 -0.03373458 -0.021998242 0.055297002 0.13272305 0.03758319 -0.41611072
0.1742592 -0.2562692 -0.018985217 0.05872971 0.10291313 -0.047131747 0.025817448 0.06484371
0.05245859 -0.5188243 -0.1723722 -0.09202985 -0.15201937 -0.15210494 0.020702913 -0.05723353
0.15960114 -0.100939035 -0.24491988 -0.059189633 -0.07165914 0.08433582 0.12220239 0.08093275
0.14566444 -0.06039755 -0.0045153922 0.07366801 -0.03999179 0.1514487 0.119096845 0.045560095
0.027311783 0.1469346 -0.09401653 0.001411635 -0.10242675 -0.052771553 0.060202733 0.06264649
-0.017510086 0.0600146 0.06401203 -0.047890756 0.17507108 -0.04808382 0.117323644 -0.16537037
0.0860823 0.08882391 -0.002333226 0.2186266 0.11978891 0.122228585 0.074431404 0.085651025
-0.030574122 0.123277284 0.09806661 0.049042676 0.1817294 -0.2982687 0.05730864 0.05340648
0.027522247 -0.008785957 0.110717274 0.51712084 0.2065197 0.28162986 -0.03995495 0.0008990291
0.39262217 -0.024671424 0.07850589 0.00454935 0.05390461 0.08922159 -0.11969203 0.105729364
0.06291805 -0.05476564 0.0322078 -0.03989163 -0.032286838 0.05429115 -0.036816433 0.04850286
0.013954876 -0.16275641 0.23412585 -0.010039198 -0.010787976 0.2749647 0.1344364 0.10543064
0.4711402 0.18096751 0.038306203 -0.01959897 0.20818928 0.082805604 -0.35223028 0.13573313
0.03545231 0.103496365 -0.035380907 0.48337245 0.070277326 0.1340806 0.16843009 -0.11655969
0.13054185 0.06260544 -0.014393908 0.03621585 0.108276255 0.06441874 0.089430384 0.026221758
0.08302869 0.02330582 -0.2926515 0.1729509 0.09496823 0.035531856 -0.031523272 0.27634063
0.059682578 -0.031186473 0.015951691 0.006216893 0.045809813 -0.0063843518 0.100767985 -0.045825746
-0.08193081 0.36921015 0.054106046 0.023719586 0.16026631 0.18091124 -0.0011342868 0.0429834
0.070317075 0.062814936 0.1047963 0.044494368 -0.087669834 0.04892419 0.101817615 0.09592275

linear2.bias f4 [128]
00000000: 2540 ab3d b897 e73c 479f a0bd 5713 93bd
00000010: cb26 223c 0664 e33d 83c3 823d 216d c93c
00000020: 10c6 403d fc1e 223d 6af8 aabc c999 ac3c
00000030: 66ae c23d 032a 95bd 4756 243d e006 023e
00000040: 918c 95bd 8cbf 783d a713 c53d 0cf4 b83c
00000050: e26a ccbd 3c6c d03b 5f32 263d 94a0 9abb
00000060: f7b2 463d d018 81bc bdc8 5b3d 7463 6a3a
00000070: 7c18 26bd 65d9 95bd 5f3a 0bbd 28d5 93bd
00000080: 4524 093e 1bf0 3a3e f5a1 dd3d 3e0f 243e
00000090: 4303 37bc 8622 c43d 949c 003d 1f6b 943d
000000a0: f197 b6bd a1fd 32bd a0c0 f73c aba4 b73b
000000b0: cc22 273e 7680 c2bd f8a9 cd3d ec21 1d3d
000000c0: f6d5 11bd 42e2 f6bb 1cca 2d3e 295c 013d
000000d0: 760d 1b3c 46b3 b43d 448e d53d 58f0 203d
000000e0: 9603 afbc 4ab5 85bd 1517 a93d 083a db3d
000000f0: c365 1bbe 66a9 973c 074f 083d bcd9 24be
00000100: 18ee ea3d 1eee e2b9 40b3 e6bd e942 ab3d
00000110: b4bc 3dbb 9f75 c43d b110 633d ea24 143e
00000120: 44c1 113e 0e16 693d bf81 19bd b77c 1d3e
00000130: 4ee7 d73d 73c9 e93d 544f 183e 0c21 a2bd
00000140: 33dc 37be 7402 4b3e 0ad1 d83a bde1 003e
00000150: 9b84 c53d 999f 2c3e 078a 923d 0f9e 3a3d
00000160: ac9d b13d 7f1c c03d 6eb0 893d 4b2c f03d
00000170: 34a3 b2bd 21b8 f6bc e4c2 91bd d0cd 773d
00000180: 8598 a23c 416d 1e3e bf88 013e b058 47bc
00000190: 8e49 0d3d 2cd1 e73d fba2 8cb9 179c abbd
000001a0: 05c5 10bc c2e4 203e 878f f63d acf2 eeb6
000001b0: 5c9d 183e c5cb 823d b695 813d c4a4 bbbd
000001c0: baf2 43bc c95c 8dbc ccbe 09bd 0568 933d
000001d0: 9ec1 6f3d b8a3 1fbd 7f43 093d 3e7c 2bbd
000001e0: de7f 9e3d 65a4 083d b2c3 b5bd eabf 613d
000001f0: 6688 903d 2774 763d 0f21 173d 93d5 703d
0.08361844 0.028270587 -0.0784288 -0.07181423 0.009896944 0.11103062 0.06384947 0.02458817
0.047063887 0.03958033 -0.020870406 0.021069424 0.0950592 -0.07283404 0.040121343 0.12697935
-0.073022015 0.06072955 0.09622889 0.022577308 -0.09981324 0.006360559 0.04057538 -0.0047188494
0.048510518 -0.015758902 0.053658236 0.0008941211 -0.040550694 -0.07316855 -0.033991214 -0.07218391
0.13392742 0.18255655 0.108219065 0.1602144 -0.011170211 0.09576897 0.031399325 0.07246994
-0.08915699 -0.04369891 0.030243218 0.0056043467 0.16321868 -0.09497158 0.100421846 0.03836243
-0.03560444 -0.0075342963 0.1697163 0.03158203 0.009463659 0.08823256 0.10427526 0.03929171
-0.021364015 -0.06528719 0.08256356 0.10704428 -0.15175538 0.018513393 0.03327849 -0.16098684
0.11471194 -0.0004328349 -0.11264658 0.083623715 -0.0028951587 0.09592747 0.05543584 0.14467207
0.14233881 0.0569058 -0.03747725 0.15379606 0.10542165 0.114153765 0.14874011 -0.079164594
-0.17955093 0.19825155 0.0016541791 0.12586112 0.09644433 0.16857757 0.07155233 0.045560893
0.08672652 0.09380435 0.067231044 0.11727198 -0.08722535 -0.030117096 -0.071172506 0.060499012
0.019848118 0.15471365 0.1264982 -0.012167141 0.034493975 0.11319193 -0.0002682431 -0.08379381
-0.008836036 0.15712264 0.120390944 -7.1212035e-06 0.14903778 0.06386522 0.06327383 -0.09162286
-0.011959726 -0.017256157 -0.033629224 0.071975745 0.058534257 -0.038974494 0.033511635 -0.041866533
0.077392325 0.033359904 -0.088752165 0.055114664 0.07057266 0.060169365 0.03689676 0.05879743

linear3.weight f4 [1, 128]
00000000: fe95 d93e 9f39 08be 5cca 3e3f 4db4 85bf
00000010: b916 403f 9da9 3ebe 4042 3cbf 42e0 b93e
00000020: caf7 c1bd 2511 e5be b412 f1bd e4b4 4ebe
00000030: 2852 a83e 6f46 62bf 3042 613f 2f4c b5be
00000040: 5d28 903f 4b46 38be ef5d 0e3f ef9a 8c3f
00000050: 9b0c e43e bd5b 2e3f c11c 793f 4f30 6e3f
00000060: a6cd 863f c1d0 113f 668e 1ebe 1d9a be3f
00000070: 12c0 633f 97f0 a13f b995 6e3f 13eb 523f
00000080: 1800 d2be 8134 e0be 5f35 cd3e 9b68 eabe
00000090: 43bd 1f3f 8229 fdbd 24dc a23f e9c6 2d3f
000000a0: 2e8c 05bf 1d59 1abf 9145 61be ff99 3abe
000000b0: 9d51 5fbe 1ec5 5b3f 3426 59be 4045 033f
000000c0: cc26 7d3f 8072 4dbe 1eb8 75be a5ff 9e3f
000000d0: 156b 9dbe 354c 053f 7009 a53f fbaa adbf
000000e0: a486 133f 335c a73f 65bd 863f 555d 12be
000000f0: fcdc 6d3f 0dd2 2c3f f84d 1f3f 8d73 463f
00000100: d889 45be 2bc3 453f 35ab 5bbf 4157 3cbe
00000110: a2a3 103f 1b0a 873f 2bc6 b53f 7eb6 f7be
00000120: cbe6 a1be 4999 c9be 1ed6 b63f 2453 6a3f
00000130: 0727 ff3e dd55 b33e b2af 01bf e6df 903f
00000140: 243d 99bf 77a5 1d40 0429 3e3f 25c4 6e3f
00000150: 9126 213f 9b3d eebe 456a 303f a57f 193f
00000160: 3b43 23be 8049 9c3e 9778 953f 6935 503f
00000170: c746 7e3f c281 833f c09c 853f 3190 873f
00000180: ac4e 5ebf a952 c4be baff 8cbe 89ac dc3e
00000190: 6db8 54be 9b17 28be 7f60 273f 6569 6ebf
000001a0: a5e3 803f ae11 cc3f b8d3 edbe e0dd 9c3f
000001b0: cc1a 22be 9dd4 17be 9882 253f 47db 173f
000001c0: 50d8 9b3f 3348 83bf eccb 1c3f f806 57bf
000001d0: cb34 0dbf 588d fdbe c841 b73f 5f8b 573f
000001e0: 3c36 ecbe 5832 183f 097c 853f cd5e 46be
000001f0: e9c9 0d3f 6e99 4ebf 55a9 2ebf 90eb 1b3f
0.42497247 -0.1330323 0.74527526 -1.0445648 0.7503467 -0.1861939 -0.7353859 0.36303908
-0.0947109 -0.44739643 -0.117711455 -0.20186192 0.3287518 -0.88388723 0.8799162 -0.35409686
1.1262318 -0.17995565 0.5561208 1.0984782 0.44540867 0.6810873 0.973095 0.93042463
1.0531509 0.5695916 -0.15484008 1.4890782 0.8896495 1.2651547 0.9319721 0.82389945
-0.41015697 -0.43790057 0.4007978 -0.45782933 0.62398165 -0.123614326 1.2723432 0.6788164
-0.5216702 -0.60292226 -0.21999194 -0.18222807 -0.21808477 0.8584765 -0.2120598 0.5127754
0.98887324 -0.2006321 -0.23996016 1.2421767 -0.3074576 0.5206941 1.2893505 -1.3567804
0.5762732 1.3075012 1.0526549 -0.14293416 0.9291532 0.6750801 0.62228346 0.77520066
-0.19290864 0.7725093 -0.85808116 -0.1839266 0.56499684 1.0549959 1.4201101 -0.48381418
-0.31621394 -0.3937476 1.4284093 0.9153311 0.49834463 0.35026446 -0.50658715 1.1318328
-1.1971784 2.4632242 0.74281335 0.9326804 0.6294947 -0.46531376 0.68912154 0.59960395
-0.15943615 0.30524826 1.1677426 0.813315 0.9932675 1.0273974 1.0438461 1.0590879
-0.86838794 -0.38344315 -0.27538854 0.43100384 -0.20773478 -0.16415255 0.65381616 -0.9312957
1.0069472 1.5942895 -0.4645059 1.2255211 -0.15830535 -0.148272 0.64652395 0.59318966
1.2175388 -1.0256408 0.6124866 -0.8399501 -0.5515868 -0.495219 1.431695 0.8419704
-0.46135128 0.5945182 1.0428478 -0.19372101 0.55386215 -0.80702865 -0.6822713 0.60906315
