current_algos/TD3/TD3_Agent_critic_weights.pth (torch, 165715 bytes, 10 tensors)

l1.weight f4 [128, 27]
00000000: 3d26 29bd 0931 bdbd f909 07be 06d0 8d3e
00000010: cea6 d43c 8725 08be b60a 723e 7f69 16be
00000020: 13f8 813e 08b1 a8be 1248 153f a1aa 843e
00000030: a414 b63d f753 313d 1eef 8fbe e45f d0be
00000040: 23db 963d ea07 373b 75a5 6b3d aeb1 2d3e
00000050: 8a6b 13be 3e32 3fbd 6179 cc3d 1208 993d
00000060: eeae 35bd 6928 9a3d 5fab a8bc 36c2 ddbc
00000070: 3629 6e3e abe8 743f 86b2 03bf 2db6 33bd
00000080: 03d0 6c3c e73c 343d d6b0 acbd 529a 51be
00000090: b8ed 943d 679d 643e 7e29 083e 817e 50be
000000a0: 6025 273d 2065 d03d 7dcf 2ebd a672 0fbb
000000b0: f1ce acbd a9f9 e3bd 419c 3dbe 8f57 59bd
000000c0: a710 40be 4f4b 9d3b 112f 823b 5bf9 053d
000000d0: 13b2 393d 2eff b8bc 9b91 70bc 5802 303f
000000e0: 0981 6e3e 1415 a63d e429 5d3e 4692 5fbd
000000f0: 54e1 d9bd 240a c9bc 4098 d63b b756 943f
00000100: 0f07 de3e 5168 e03d 89aa 293d 1454 b63d
00000110: 1635 473c 9a9f c13d 35f8 6a3d 8d61 a4ba
00000120: 2d5a c4bc 287f 0c3c b050 073f 486c 9d3d
00000130: c919 9ebc d221 d3bd 7f2d c73a a249 6d3d
00000140: 7144 903c a29b b03c e3f7 85be e114 80be
00000150: 49d4 cb3e f494 d23e 90d0 ef3c 1083 2fbc
00000160: 4d18 03be 3b51 7ebd 7717 cd3d c602 8abd
00000170: f772 a53d c5fc 24bc cb13 3d3d 20b8 51be
00000180: 67c4 46be 0d27 9f3e 11e9 1cbe 8a48 ea3c
00000190: 6986 183d 0961 37be 980a 5d3d b8ec cb3c
000001a0: 974b 10be f539 673d 172a 8bbd 5c42 943c
000001b0: e689 813c 30ad f43d 60b3 ef3c 8125 bd3f
000001c0: d525 943e 9e66 233e e6cd ee3d 16c0 5d3d
000001d0: 5637 48bd 57d4 033f 838a 003e 06de a73e
000001e0: 88ce 88bc b85c 993d 75e3 0ebf 0038 f3bd
000001f0: d362 943d 0cad 84bc b572 6c3d 28a9 273c
00000200: ef75 43be b5fc be3e 7e2f 9cbd 1103 143d
00000210: 0880 81bb 4872 b7bb 8d7b 393d b3c2 05bb
00000220: 841a 86be b930 9abe 3a3d 5e3f f714 803d
00000230: 71b7 303e e23c 3a3d 5806 3abc 45dc 103d
00000240: 7dfc a23f feaa 8c3e 109f f43c 06c8 3abc
00000250: af0c 1fbd cb02 9cbe 7d3f e3bd 3f9d 7a3d
00000260: 1adb c03c c41c 02bc c859 133d 2075 27be
00000270: d674 103f 51c3 efbc 0a5b 03bd b70c 92bb
00000280: ed2c cc3b b95d 1dbd 1700 8b3c 29fd 213e
00000290: 7ba3 ec3e ced1 34bf 1e2e 103e a5a1 4a3d
000002a0: 20e2 b33c 481d 123e 0d1e ba3e 4b05 e8be
000002b0: 4508 193f b069 82bc f1fa 823d 4454 45be
000002c0: e466 abbc 2fca 91be 4745 3e3d 1508 10bd
000002d0: 3935 813d 7489 a3bd 5d4f 00be d88b 50bd
000002e0: 7f86 813e ff9f 03bc f278 1fbe c2af 1a3c
000002f0: 2abc c6bc ea85 99bc b5c8 84bb d309 2abf
00000300: 8bae ab3c 466c 803d 714c c0bd 0521 353e
00000310: b7c7 ea3d d116 81be 9520 64bd ddde e93e
00000320: 49e6 9b3e 81fa ddbc e1a3 03be 1397 1fbe
00000330: f8ad 32bd dad0 65bd 3e8b e23a 92b4 f93b
00000340: 829a ee3d 03e1 19be 7850 e23c defe 52be
00000350: 2c3e 65bd ec7e 443d ea2d 34bd 81b6 2bbc
00000360: 59ad d13b 8c0d 4a3f a0ca 88bd 3ceb e53e
00000370: 8f70 4c3b 9679 96bc b5ec 5cbd 8928 e2ba
00000380: d7de b5be d841 02c0 76f7 8ebe bce7 0dbd
00000390: 17eb b2bb 66d4 5b3c 5dd1 833e dad0 8a3d
000003a0: 1b6f 843c 3531 693c f297 58ba d1d5 64ba
000003b0: f75a 363d 0ec3 253e 1df0 5b3c 6246 68bc
000003c0: e7d6 1d3c e537 13bc 8150 1bbc 781c 143b
000003d0: 1039 293f b95d bcbe 9055 1f3d a0e2 233d
000003e0: 911f da3d 19b9 f1bd 9d7f 4f3d 0597 80bc
000003f0: 442e 67c0 2301 ce3d 9dd7 3fbc 1479 653d
-0.041296232 -0.09237868 -0.13187398 0.27697772 0.025958445 -0.13295566 0.23636898 -0.14688681
0.25384578 -0.32947564 0.58313096 0.2591143 0.08890656 0.043292966 -0.2811212 -0.4069816
0.07366016 0.00279283 0.05753084 0.1696231 -0.14396492 -0.046678774 0.09984089 0.074722424
-0.04435628 0.07527239 -0.020589529 -0.027070146 0.23257908 0.95667523 -0.5144428 -0.04387491
0.014453891 0.044003394 -0.08432166 -0.20469025 0.07271904 0.22325669 0.13297078 -0.20360757
0.040807128 0.10175538 -0.042678345 -0.0021888404 -0.084379084 -0.11131603 -0.18516637 -0.053062018
-0.18756352 0.0048002372 0.003972896 0.032708507 0.04533584 -0.022582617 -0.014683153 0.68753576
0.2329141 0.08109489 0.21598011 -0.054582857 -0.10638681 -0.024540968 0.0065489113 1.1588963
0.4336476 0.10957397 0.0414224 0.089027554 0.012158653 0.0945427 0.057365615 -0.001254128
-0.02396878 0.008575238 0.52857494 0.07686669 -0.019299405 -0.10309185 0.0015196054 0.05793155
0.01761076 0.021558587 -0.26165685 -0.2501593 0.39810398 0.41129267 0.029274255 -0.0107124
-0.12802239 -0.062089186 0.10014241 -0.0673881 0.080785684 -0.010070031 0.046161454 -0.20480394
-0.19410859 0.3108448 -0.15323283 0.028599042 0.03723756 -0.1790811 0.05396518 0.02489315
-0.14091335 0.056451757 -0.067951374 0.018098049 0.015812825 0.119470954 0.029260337 1.477707
0.28935114 0.15957114 0.11660366 0.054138266 -0.048880897 0.5149588 0.12552838 0.32786578
-0.016700044 0.07488388 -0.5581582 -0.118759155 0.07245412 -0.016195796 0.05772658 0.010233201
-0.19087957 0.37302175 -0.07626246 0.036135737 -0.00395203 -0.00559834 0.045283843 -0.002041024
-0.26192105 -0.30115297 0.86812174 0.06253999 0.17257477 0.04546822 -0.0113540515 0.035366315
1.2733303 0.27474207 0.029861003 -0.011400228 -0.038830455 -0.3047088 -0.11096094 0.061185118
0.023541976 -0.007941429 0.035974294 -0.16353273 0.5642828 -0.029267939 -0.032069243 -0.004457082
0.0062309415 -0.03841946 0.016967816 0.15819229 0.46218476 -0.70632637 0.14080092 0.049470562
0.02195841 0.14268982 0.36351052 -0.45316538 0.59778243 -0.015919536 0.063955195 -0.19270426
-0.020923086 -0.28474566 0.046452787 -0.035163958 0.063089795 -0.079852015 -0.12530275 -0.050914615
0.25297925 -0.0080337515 -0.1557348 0.009441318 -0.024259645 -0.018740613 -0.0040522465 -0.6642124
0.020957252 0.062706515 -0.0938958 0.17688377 0.11463874 -0.2521272 -0.055695135 0.45677844
0.3044913 -0.027096989 -0.12855484 -0.15584974 -0.04362294 -0.05610738 0.0017283929 0.0076204026
0.11650564 -0.15027241 0.027626261 -0.20605037 -0.055967495 0.047972605 -0.0439891 -0.010480524
0.0063988385 0.7892692 -0.06679273 0.44906032 0.003119502 -0.018368524 -0.05393668 -0.0017254512
-0.35521576 -2.0352688 -0.27923173 -0.034644827 -0.005460154 0.013417339 0.2574567 0.067781165
0.01616626 0.014232923 -0.0008262388 -0.0008729371 0.044520345 0.16187689 0.013423947 -0.014176937
0.009633756 -0.008985494 -0.009479643 0.0022599977 0.66102695 -0.36790255 0.038899958 0.04001105
0.10650552 -0.11802883 0.05065881 -0.015697012 -3.6121988 0.100588106 -0.011709121 0.056023672

l1.bias f4 [128]
00000000: 6302 29be 07d1 973e 666f 6ebe 8d4e 35bd
00000010: af48 283d 17df 99bd c3da 4a3e dbd6 12be
00000020: a44c 623e c98c 9a3d c0ba 383e 9c47 5dbe
00000030: 8026 ac3c 7269 663e 2da6 23be 3891 873e
00000040: f86a 683d 9b1b 0e3e ceb8 913e 8f93 53be
00000050: 7bbe 963e dbc2 093e b010 333e 7ceb 0fbd
00000060: 2339 643e 6bb5 5bbe 6f4e 863e 27ad adbe
00000070: f54f 74bd ee10 023e 9ae6 b23e 1f65 a8bd
00000080: 4585 a13e bb02 8b3e 267d 793c 838d 9d3e
00000090: 203a 0d3e bf2a ccbc 3323 353e 853e 2a3e
000000a0: 2ba6 1f3e a4c0 11be 5ee3 7d3d 6b0d d23e
000000b0: 4df2 b53e 7da1 adbd bd71 823d 6caf ab3e
000000c0: d9c7 1e3e 0d63 60be 2129 8b3e f617 103e
000000d0: 364b b2bd a92b 0e3e 0af1 973d b590 d73e
000000e0: d3c0 523e 4376 82be eb00 d63e 28b1 abbd
000000f0: 6eeb f03e 4d88 aa3d 3796 06be 1ce5 4a3d
00000100: b1d3 d23d c961 26bd 02fe e8bc 4353 f9bd
00000110: a535 83bd 6e8c 5abc 5f97 8a3e af87 8d3d
00000120: 7d7a b73d 1191 79be 9b1d 8cbd e98e b83d
00000130: 0ecd 2f3e f7c9 e43c d9b3 f73d bd5a 413d
00000140: 6ffb d63e 40ea 1f3e 0436 20be dca6 21be
00000150: 3d13 253e 68ef c53e 3062 5e3e 034c 163e
00000160: 831a 21be a0a3 b0bd 3b8f 1bbe c099 133b
00000170: 7f51 2b3e dfd4 dcbd 66de 2bbe 968a b93d
00000180: 9ff6 76be 1b68 303e cab3 ad3e 25d0 8b3e
00000190: 3e2c ccbd 4aeb 683e cc00 8dbd 1089 7a3e
000001a0: cb80 b03e 958d 743e 1d83 85bd 6fb9 353d
000001b0: 5ce2 a0bc 4f56 113f ca7f 8bba e485 04be
000001c0: 1e80 23be 020e 183e 5524 7e3d d43a 1cbd
000001d0: fd33 513d 9aab 3e3d 11fa 9f3e 29d8 d2bd
000001e0: 2b8b c9bd 9322 2d3e 1cfa 403e 3007 923e
000001f0: 567a 903d 5e20 74be f9cb 143e 7ed7 303e
-0.16504817 0.29651663 -0.23284683 -0.044264365 0.04108494 -0.07513254 0.19810013 -0.14339773
0.22099549 0.07546384 0.1803999 -0.21609348 0.021014452 0.22501162 -0.1598136 0.2647798
0.05674264 0.13877718 0.28461307 -0.20661758 0.294422 0.13453238 0.17486835 -0.035136685
0.22287421 -0.21455924 0.26231715 -0.33921167 -0.059646565 0.1270177 0.3494156 -0.08222412
0.3154699 0.2715052 0.015227592 0.30772027 0.13791704 -0.024922727 0.17689209 0.16625412
0.15590732 -0.14233643 0.061984412 0.41025862 0.35536423 -0.08478067 0.0636935 0.33532274
0.15505923 -0.21912785 0.27179816 0.1407164 -0.087057516 0.13883843 0.074190214 0.4210259
0.20581369 -0.25480852 0.41797575 -0.08383399 0.4705462 0.083267786 -0.1314324 0.049534902
0.10294283 -0.0406206 -0.028441433 -0.12174084 -0.06406716 -0.013339145 0.27068612 0.06910645
0.0895891 -0.24371745 -0.06841584 0.09011633 0.17168066 0.027928336 0.1209485 0.047205675
0.41988704 0.15616703 -0.15645605 -0.15786308 0.1612062 0.38659215 0.21717143 0.14677434
-0.1573277 -0.08624959 -0.15191357 0.0022522062 0.16730307 -0.107827894 -0.16784057 0.09059636
-0.24117516 0.17227213 0.3392623 0.2730724 -0.09969376 0.22746006 -0.068849176 0.24466348
0.3447326 0.23882134 -0.065191485 0.044366296 -0.019639187 0.5677232 -0.0010642943 -0.129417
-0.15966842 0.14849094 0.062046368 -0.03814204 0.05107497 0.04655037 0.31245473 -0.102951355
-0.09840997 0.1690772 0.18845409 0.2852111 0.07054584 -0.23840472 0.14530934 0.17269704

l2.weight f4 [128, 128]
00000000: ce88 013d 102b 1ebe 7100 0fbf 3997 0bbd
00000010: 99f1 543d a43a 8e3e 142f 2d3d 5ad8 fbbd
00000020: e34d 893d fb24 89bf 9bf7 d33c bf25 393e
00000030: 96d3 173d 1618 f7bd b468 0a3d 3d10 88bd
00000040: 85ff 60bd 4c6e 083e e687 88bd d1be f73c
00000050: 0a5c 55bc 17d1 d0bc 179e da3d 14ab 4dbe
00000060: 0844 2dbe 3254 3ebe 7846 61be e208 613d
00000070: 839f 983e 2876 47c0 df00 043c 92fc 493b
00000080: fd79 f6be 0e68 d23d 7b16 3fbe a68d 5c3e
00000090: 6a47 a73d fc5a 113e 94a0 d0bb a5ac 993e
000000a0: f6cd 51bd f0da 803e bd9f e7bd 0b29 8f3e
000000b0: e870 ee3d dcd8 8a3b f0ea 163e e996 02bd
000000c0: 3ed8 de3d 0174 e4bd 2b1c 82bc d5ed 88bd
000000d0: 22cf eb3c eaf1 e03c 3f35 debd c929 ea3d
000000e0: 392f 253c 786e 5dbd 5d00 1dbe b953 0dbf
000000f0: 7796 3a3c 35b5 cd3c a105 803e a613 293e
00000100: 035e 1f3e 5f2d 0e3e 1846 363e 0e79 99be
00000110: f94a a63d d959 ab3d 37d3 933e e587 513c
00000120: bce6 573d 2af3 873d 6b97 e3bc c95b 563e
00000130: 490e ebbd 8a0a 85be c011 fb3c 7d8e 553e
00000140: 2762 23be 68f9 483e f646 a83d bb59 dc3d
00000150: 5919 71be 5d5f a53d 3539 473d 644a 2f3e
00000160: 016d 463e 30b1 223d fa36 9038 2e2a dfbf
00000170: 0e0d a8be e8c4 d8bd 63f3 64bd 3d8a babe
00000180: 35bb 373b d0ce 40be 8d94 dd3d dc58 b43c
00000190: 81d5 773d 51c7 1ebf 0039 313e 45d5 383d
000001a0: 0af0 5ebd 5d14 74bd baa2 83be e4a8 633e
000001b0: 2a19 23be a929 aebd b7e9 41bd 05f7 29be
000001c0: 1fbb e33d b189 d23d f056 5cbe efcb cf3c
000001d0: 3d44 14bb 3537 8b3e 3af6 91bd b76c 63be
000001e0: 3d3c 313e 70da e7bd f9ef 163d 867a a3bc
000001f0: 5f92 953d 5057 d7bc eb81 ae3d 4208 0f3e
00000200: 97b1 343e 6dcd d63c 7992 043e 7bc1 80be
00000210: 916a 7bbd 1bd5 ac3c 6a06 d53d 376b e7bc
00000220: 05af 25be 555e 0cbe 7e4e 4c3d 7a55 d53c
00000230: 017d 1b3d 1645 bb3d 520a 22be b712 1b3d
00000240: efea b3be a11e 3bbd 1fec 943c b2f3 663e
00000250: bcfe 0cbe 5bdb de3e 2655 4dbd 60f7 01bc
00000260: bfe7 4ebb c5c9 e1bd a468 6ebe 54e5 693e
00000270: 9ddc 613e d9e7 043d 9ced ecbd 7b6e 19be
00000280: 22ac 03be 86b5 9a3d bb1e 9ebe 8b2e 983b
00000290: 8f94 adbe 8e02 703e f41f 20be 9048 263d
000002a0: d455 80be 5aae 683c a37a 173e f3f3 223e
000002b0: 9977 793d 0031 823c d40b 893e bcc4 cb3d
000002c0: 1b8e 723e e480 083e 965c 6fbc 601f 833d
000002d0: 381a b0bc e594 dbbc f952 ba3d 877d 96be
000002e0: 95b3 2f3d 3b16 f13d f2dd 7fbd 8f36 a13e
000002f0: 8b0e 46be 0723 25be 9968 3abe fa27 5e3e
00000300: 60cb dd3c 8030 1abe 60df 0cbe bb54 d63d
00000310: 9df1 7b3e 5dd3 293e fdaf a4bc eb5b 853b
00000320: 069d 993d a78f edbd 5ab6 843d 73ee 08be
00000330: 232f 4cbe 18a6 96bb 7e15 053e 2b3e eebd
00000340: cf73 92be 7905 a5be 2ac4 9c3d 2806 4abd
00000350: 74ed 0ebe 7c86 493e 2067 973d 8253 05be
00000360: 9d7f 0d3e 5984 4abd df6e c43d 613d f43d
00000370: 3e81 9d3d d632 82bd fa1a ba3b 1291 2bbf
00000380: fba5 20bf 956a 353e 9558 c93d fea0 f13d
00000390: e8e8 1fbd 5b77 bdbd 1b8e 093e 521d 46bb
000003a0: c554 c9bd 9d8b c03e 057f 923c ee9c f53e
000003b0: c75e ccbd 9026 03be 4b1d 173d 0a76 d5bc
000003c0: 8ac0 d7bd 01e2 733e 06c4 203f 19b1 553d
000003d0: 1f87 073d 497b e7bd 7c88 99bd 101c 97bd
000003e0: 7501 bebc 5eaf 873b 3c43 be3e 80cf 9abd
000003f0: 2c75 ed3c 5b5b 403d bcfb 073d 195c 4e3e
0.031624608 -0.15446115 -0.5586005 -0.034079764 0.051988218 0.27779114 0.042281225 -0.12297125
0.06704309 -1.071441 0.025874903 0.18080805 0.03706702 -0.12065141 0.03379126 -0.06643722
-0.054931182 0.13323325 -0.066665456 0.030242356 -0.013022432 -0.025490327 0.106746845 -0.20084792
-0.16920483 -0.18586805 -0.21999538 0.054940112 0.29809198 -3.1165867 0.008056848 0.003082071
-0.48139945 0.10273753 -0.1866092 0.2153841 0.08167918 0.14194864 -0.0063667987 0.3001453
-0.05122181 0.25167036 -0.113097645 0.27961 0.11642629 0.0042372774 0.14738059 -0.0318822
0.10881089 -0.111549385 -0.015882572 -0.06685988 0.028785292 0.027459104 -0.1085 0.11433751
0.01008206 -0.05406043 -0.1533217 -0.55205876 0.011388413 0.02511082 0.25004295 0.16511402
0.15563206 0.13884495 0.17800176 -0.2997517 0.08119769 0.083667465 0.28872082 0.012788747
0.05271028 0.06638177 -0.027782163 0.20933451 -0.11477334 -0.25984603 0.030648112 0.20855136
-0.15955411 0.19626391 0.0821666 0.10759302 -0.23544826 0.0807483 0.04863854 0.17118222
0.19377519 0.03971976 6.876695e-05 -1.7434747 -0.3282246 -0.10584432 -0.055896174 -0.36433592
0.0028035168 -0.18828893 0.108193494 0.022015028 0.060506348 -0.6202288 0.173069 0.045125265
-0.054428138 -0.059589732 -0.25710088 0.22232395 -0.15927568 -0.0850404 -0.04734203 -0.16598137
0.11119675 0.10280169 -0.21517539 0.025365798 -0.002262368 0.27190557 -0.07127042 -0.2220944
0.17308135 -0.113209605 0.03684995 -0.019955885 0.07303309 -0.026286751 0.08520874 0.13967994
0.1764587 0.026221002 0.129465 -0.25147614 -0.061380927 0.02109771 0.10401614 -0.028249366
-0.16180046 -0.1370786 0.049879543 0.026041735 0.03796101 0.091440365 -0.1582425 0.037859645
-0.35140178 -0.045683507 0.018178998 0.225539 -0.13769048 0.4352673 -0.050130032 -0.007932514
-0.0031571237 -0.110248126 -0.23282105 0.22841388 0.22056814 0.03244767 -0.11568758 -0.14983551
-0.12858632 0.07554154 -0.3088282 0.00464422 -0.33902404 0.23438475 -0.15637189 0.040596545
-0.25065482 0.014201725 0.14792876 0.15913372 0.060905073 0.015892506 0.26766837 0.099496335
0.23687021 0.13330418 -0.014609477 0.06402469 -0.021496877 -0.026804397 0.09097857 -0.29392645
0.042895872 0.11771818 -0.062467523 0.31486937 -0.19341485 -0.16126643 -0.18203963 0.21694937
0.027074516 -0.15057564 -0.13757086 0.1046538 0.24603887 0.16584535 -0.020103449 0.0040697954
0.07500653 -0.11599665 0.06480093 -0.13372211 -0.19939856 -0.0045974366 0.1299648 -0.11632951
-0.2860398 -0.32230738 0.07654603 -0.049322277 -0.13957769 0.19680208 0.073927164 -0.13020137
0.13818212 -0.049442623 0.095914595 0.119257696 0.076906666 -0.063573524 0.0056794854 -0.67018235
-0.62753266 0.17716439 0.09831349 0.11798285 -0.039040476 -0.09251281 0.13433115 -0.0030229879
-0.09830622 0.37606516 0.017882833 0.4797129 -0.09979015 -0.12807679 0.03689317 -0.026057262
-0.10534771 0.23816682 0.6279911 0.052170847 0.033087846 -0.11302812 -0.074967355 -0.07378399
-0.023194054 0.0041407784 0.3716067 -0.07559109 0.028986536 0.046962123 0.033199057 0.2015232

l2.bias f4 [128]
00000000: 0ea8 0dbd 4a35 16be 79cf 643e b1e7 293e
00000010: df98 fbbd a7b4 64bd 06c4 073e 2722 c33e
00000020: ec2d 843e 7870 943e 340f 9d3e 2533 d33d
00000030: 3673 043e 9b05 abbe 5a73 673e 9288 1abd
00000040: 6c96 8a3e c8f7 30bd 70d8 e5bd 5a9f 20be
00000050: e821 b8bd 62ca 083e 6b14 c03e d08b 053d
00000060: 203c a73e e0ba 893d b8d2 77be 529c 23be
00000070: 7657 acbd 518c 01bd c44b c4bb 761f cf3c
00000080: 1750 98bd 25c0 4fbe af03 59bd f59d 393e
00000090: fa0e 94bb df46 953d f1c4 92be 5674 d93d
000000a0: 8d67 b53e 4078 273e 4e48 cdbd 032b c53e
000000b0: f0a1 6a3e fe16 c83e 9f41 c33d 6908 db3d
000000c0: 15e7 ab3d 4ffd 7d3e 6d3e 4e3e 11bf 483e
000000d0: 5937 b0bd f0cf 193d d737 56be 1f6b efbd
000000e0: 3ab9 5f3d de79 fe3d 194a 00be dc43 a23d
000000f0: 7f24 e63d d63f 16bd c000 563e 548e 163d
00000100: 2871 b4bd 576d 4f3e 7afc bf3e bbc8 67bd
00000110: 590e ef3d 690c 9dbd 749a 803e 4f05 ed3d
00000120: ccd9 053e 0896 303e 31c8 0cbe 88dc 443e
00000130: 8feb bbbc bb95 b73d 8b77 16be 7b35 89be
00000140: 2156 2cbe be4f bc3d 26c3 9f3d 05a9 94be
00000150: 82ec ed3a b487 e2bd eccc 1f3e 0965 713e
00000160: efdd b4bd 441e 893e 71cb 90be f9fc ca3d
00000170: 1451 2ebe 9dde 48bc d91b 3fbe bbca a7bc
00000180: fafe c43e 189b 183d 04b6 213d 76b9 943d
00000190: e0af 1b3e bc5d aa3d 12d4 4f3e e528 863e
000001a0: 4e96 363d 1281 62be b40b af3e ea66 b03e
000001b0: c839 a93e e3a9 03bd 45e5 af3e 5757 093c
000001c0: 4eb6 143c 6fc7 9f3e 2a3c 11be d14c 1abe
000001d0: c111 04bd 26ca b93e 19ac 813e 7a8d 423e
000001e0: 0af0 f43d 5c0c a83e de4b c13d 4147 76bd
000001f0: a131 b9bd 42bb 8f3e 7244 24bc fc71 ce3a
-0.034584098 -0.14668766 0.2234477 0.1659229 -0.12285017 -0.055836346 0.13258371 0.38111994
0.25816286 0.28992057 0.30675662 0.103124894 0.12934574 -0.33402714 0.22602597 -0.0377279
0.27067888 -0.043205053 -0.11222923 -0.15685788 -0.08990842 0.13358453 0.37515578 0.03260404
0.3266306 0.06725097 -0.24201477 -0.159776 -0.08415119 -0.031627957 -0.0059904773 0.025283556
-0.07437151 -0.20288141 -0.05298203 0.18126662 -0.004518387 0.07288908 -0.2866588 0.106178924
0.35430565 0.16354465 -0.10023557 0.38509378 0.22913337 0.39080042 0.095340006 0.106949635
0.08393685 0.24803661 0.20141001 0.19604136 -0.08604307 0.03755182 -0.20919739 -0.116903536
0.054620005 0.12425588 -0.12528266 0.079230994 0.1123743 -0.036681972 0.20898724 0.03675683
-0.08810645 0.20256554 0.37497312 -0.056587916 0.116726585 -0.07668383 0.25117838 0.11573278
0.13071364 0.17244732 -0.13748242 0.19224751 -0.022939472 0.08964106 -0.1469404 -0.26798615
-0.1682973 0.09194897 0.078008935 -0.29035202 0.001815215 -0.110610396 0.15605515 0.23573698
-0.08831393 0.26780903 -0.28280213 0.09911532 -0.17023116 -0.012260106 -0.18662967 -0.020482412
0.38475782 0.037257284 0.039480224 0.07261936 0.1520381 0.0831866 0.20295742 0.26203075
0.044576935 -0.22119549 0.34188616 0.34453517 0.33051896 -0.03214444 0.34354606 0.00838264
0.009076668 0.31206843 -0.14183107 -0.15068366 -0.032243494 0.3628704 0.25326613 0.18999282
0.11959846 0.3282193 0.09438299 -0.060126547 -0.09042669 0.28072554 -0.010026084 0.0015750523

l3.weight f4 [1, 128]
00000000: 70ae 383f e0fa 613f 1b1b c7be 2057 ffbe
00000010: 6b77 8f3f 8095 bc3e 2e4c f2be c5a2 1cbe
00000020: 8568 8dbf acb9 24be 5e31 0dbe bb50 48bf
00000030: 62e6 6cbe b604 1a3f 987a 50bf 967c aebd
00000040: 4f56 e4be 677e 4c3f fa4d b93f 2ea8 f23e
00000050: c5c6 a23f a5f0 3fbf 082d 2fbe fcec ffbe
00000060: 3b5d 2ebe 5ee7 43bf 7bde 3c3f 4239 123f
00000070: 0ac5 5f3f 4fbe ba3e 13e0 aa3f f61b 593f
00000080: f3a1 8e3f 8d1c 1c3f 3c3a 953f 38d9 55bf
00000090: 123c 883f 8fa0 3e3f df6c 5b3f e3e4 c6bf
000000a0: 590d 4fbe 94e2 7ebf 5cb9 353f 4ec4 32be
000000b0: a4f6 3ebe 8511 44be fbe3 a0be 4a74 a9bf
000000c0: 155b 343f 394e 20bf f340 99be 0be2 fabe
000000d0: b941 d73f 2c5e fb3e 3215 133f 9e97 583f
000000e0: a06e 843f 9bab a83f 9489 1a3f 90d9 c63f
000000f0: 574b 68bf 9619 98bf b890 5ebf 85e8 7e3f
00000100: 7c2e 243f 7eb3 25bf 0b87 58be a33a 9a3f
00000110: 7552 0abf 1351 163f f71d b6be 93b7 f8be
00000120: 1893 a0bf 5860 363f 2ef2 663f f58f 60bf
00000130: d369 0d3f 3cff 9f3f c6c3 8f3f 1c18 1a3f
00000140: 2e04 003f 5701 873f 2125 1fbf 9ab5 1c3f
00000150: 064e 673f 6ab3 1f3f f84f 4bbf 0d90 4abf
00000160: 697b 193f 4177 8abe 4252 f73e 3621 883f
00000170: cda9 023f 088f 453f 29e8 e63e d759 913f
00000180: 4f4e 46be 0c30 523f c8bc 61bf 2310 babf
00000190: 180a c03f ec34 37bf 251b 5abf 24d7 36be
000001a0: c411 19bf 4f34 a53f 8852 10be 0e75 28be
000001b0: 5429 2bbe c6e0 523f ffa5 eebd ba28 383f
000001c0: 795f 1d3f 87ae 55be 0a78 413f 545c fc3e
000001d0: 7a76 2e3f c38c 27be 0ad7 49be ff0a d2be
000001e0: f201 2cbf 98d2 38be e8e9 c3be d05b 253f
000001f0: 4de0 493f 38b5 4fbe 1afe 6c3f d7fe 9a3f
0.7214117 0.8827343 -0.38887867 -0.4987116 1.1208318 0.3683281 -0.47323745 -0.15296467
-1.1047522 -0.16086453 -0.13788363 -0.78248185 -0.23134759 0.6016344 -0.81437063 -0.08519857
-0.44597098 0.79880375 1.4476922 0.47393936 1.271691 -0.7497657 -0.17107022 -0.49985492
-0.17027752 -0.76524913 0.7377698 0.5711862 0.8741003 0.3647332 1.3349632 0.8480829
1.1143173 0.60981065 1.1658397 -0.83534575 1.0643332 0.7446374 0.85713 -1.5538601
-0.20219935 -0.9956448 0.7098596 -0.17457697 -0.18648773 -0.19147308 -0.31423935 -1.3238614
0.7045148 -0.6261936 -0.29932365 -0.49000582 1.6816932 0.49095285 0.57454216 0.8460635
1.034626 1.317737 0.6036618 1.5535145 -0.9073996 -1.1882808 -0.86939573 0.99573547
0.6413343 -0.6472701 -0.21145265 1.2049145 -0.5403207 0.5871746 -0.35569736 -0.48577556
-1.254489 0.7124076 0.90213287 -0.8771966 0.552396 1.2499766 1.123162 0.6019304
0.5000638 1.0547284 -0.6216603 0.612146 0.9035343 0.6238314 -0.794189 -0.79126054
0.59953934 -0.2704411 0.48304945 1.0635135 0.51040345 0.77171373 0.45099 1.1355542
-0.1936581 0.82104564 -0.8817868 -1.4536175 1.500308 -0.7156513 -0.8519767 -0.17855507
-0.59792733 1.2906588 -0.14093983 -0.16450903 -0.16714984 0.8237423 -0.11652755 0.71937144
0.61473805 -0.20867358 0.7557379 0.4928919 0.6814953 -0.1636229 -0.19710937 -0.41024014
-0.6719047 -0.18049085 -0.38264394 0.6459322 0.7885788 -0.20283973 0.9257523 1.2109021

l4.weight f4 [128, 27]
00000000: f7b8 89bb 6b16 603f 227b 5b3e 350b 10bf
00000010: 78eb e7bd e30d 793d 713f 4a3d cf6d cdbc
00000020: 96ed 75be 15f5 093f b34d d43e ccaa 903e
00000030: 3fe0 c23d fda6 bd3d c0bc 85bd 58db 41be
00000040: cf62 0bbc 8061 63bc aa77 ecbb 4411 b63c
00000050: def9 9f3e 9cc9 443e e9a5 873b 84cb 003d
00000060: 3fab 133c b6de 23bc a96b 51bb c7cd 803d
00000070: 4ac3 8f3e f33a 083f a58e 96be 5d23 16bd
00000080: 946e 253c d315 22be cc2f 66bc c0ba 2bbd
00000090: 77f4 553e f2fa 07be 42c6 26be 926b 38be
000000a0: 83c2 113e f87e b53e 88f6 563e d3c5 0fbe
000000b0: 7c86 973d f23f e33d 0fb7 6d3d 88d6 033d
000000c0: 494e fe3e ba8c e1bc 543c 39be 1324 753c
000000d0: 7994 403d 9928 ddbd d1a0 08bd dd34 363d
000000e0: fe19 773f 32b8 a7bf ace3 a83d 3e15 6b3c
000000f0: e45f 733e 6bd0 903d 4bcf a93e eb75 f63b
00000100: 81c7 6dbe 17ce 453d 5918 dd3d 06db c9bd
00000110: 6d00 4e3c 19f6 373d 284e be3d ab7b e6bd
00000120: 513c c63d 3b87 833b 0d75 163d 4b76 82be
00000130: 8fce cb3c 3faa 16be dcd7 9fbd 534e be3d
00000140: aff6 95bd a185 dbbb d575 45be a80c 40bf
00000150: 0d90 e1bf 3bfc 5abd 7c5f 8ebc 73c4 cabd
00000160: af69 26be ec17 3fbf 5693 a5bd 17e2 e53c
00000170: 9345 883d d9d9 653d d73a 83bd b20e 273d
00000180: 377b 01bf 73bd bbbc 03e7 45bd 23ca 66bc
00000190: f327 7b3d c72b 56be 795c a2bd f37a 9dbd
000001a0: a616 c4bc 5575 293d e8b4 c23c e4d7 fcbb
000001b0: f678 aa3b d246 363f e0df 10bf 1c05 af3e
000001c0: 9f59 8c3d 3e4f d3bc 3bfb 7f3d ddb2 c4bd
000001d0: 7ae4 99be d6ae 8ebf 47a6 a6bd aad8 823c
000001e0: d583 ba3c f75e aebc 3961 6d3e 87fe 3f3c
000001f0: 9b01 99bb 75e3 4ebb 7cc7 403c 5df3 3e3c
00000200: 5c5b 2b3e 9e9c 6c3f c7be 1a3d 3884 d1ba
00000210: a9a0 dd3b 11f4 b0bc de64 2a3c ad47 3d3c
00000220: c7f6 923d cd8d 7ebe f99f b73f f8a1 1bbf
00000230: 5071 95be d56f d9bd 5e24 4ebd cafa 19bf
00000240: ad61 0a3e 4248 80bd 562e 72bd 045d e13d
00000250: bc14 ebbd ca90 35be f549 ddbd a2cb 52be
00000260: fa35 d73d e62b 0fbe a4f2 c63d d0e2 09be
00000270: 8eea 893e 852f 1fbe cc78 95bb a257 5b3c
00000280: 9986 2cbe b2db 43bc 4108 22bb 0e60 c9bd
00000290: 3aff 263e be6d bd3e cc3b ccbd f6dc eebc
000002a0: 1f37 373d 8821 ee3c bf73 91be d635 d9be
000002b0: a97e d2be 70b4 393b 0f80 0abe da27 c03d
000002c0: 847d f93d 670a 90bd ed04 06be 2fb1 41be
000002d0: 9119 51bc 50c9 a3bc b433 343e 0ca4 d03d
000002e0: 7550 9d3d 8d6e a1bc 51f9 583d f5a2 51bd
000002f0: 2471 59ba deed 09bb c999 f23f 609d 60bf
00000300: 08b5 4d3d 2a2b c7bc 01a7 ed3d 913d 28be
00000310: f135 2839 6431 273d 9f24 e43e aff3 a73d
00000320: a60a b03d 5f0e 7cbd e1c3 383e e2b5 813e
00000330: 1356 2d3d ee70 503d 9b4a c13d 5b3e 613d
00000340: bcd5 c33b a4a3 93be b423 a73e 69ff 923c
00000350: 1a18 9dba e594 76bc ccda 733c 47fb 833d
00000360: 6189 883b 537c 8a3e 1b0a efbe 4a55 9f3f
00000370: 860e 6bbc 2adc 5c3e 53de b43d 5c9e 23bd
00000380: aa05 bb3d bde9 cabe d6da 4dbe 8f78 2fbd
00000390: 2f69 5ebd ea0d 9cbd ce80 15bf 91d7 34be
000003a0: f1b3 a4bd a8eb b0bd eeb5 59bd 7ae2 2c3d
000003b0: dce5 89be 4511 ee3e 275e 813d 4223 93bc
000003c0: a4f2 7ebc d816 c7bc af94 a13c c957 adbb
000003d0: ef21 0dbe f8c3 60be 6e29 a73d 0ad8 a2bf
000003e0: 4566 82be 55fc 1abe 16d1 1ebc daa4 26bf
000003f0: 598d af3c 40dd 03be d608 a6bc 6def 2c3c
-0.0042029577 0.8753421 0.2143369 -0.562671 -0.11324209 0.06080426 0.04937691 -0.025076775
-0.24016413 0.5388959 0.4146553 0.28255308 0.09515428 0.09260366 -0.06530142 -0.18931329
-0.0085074445 -0.013878226 -0.0072164135 0.02222503 0.3124532 0.19217533 0.004139651 0.031444088
0.009012996 -0.010001829 -0.003195504 0.06289249 0.2807868 0.5321495 -0.29405704 -0.03665482
0.010097165 -0.15828638 -0.014049482 -0.041926146 0.20894037 -0.13279322 -0.16286567 -0.18009785
0.14234357 0.35448432 0.20992482 -0.14040308 0.07398698 0.11096181 0.058035906 0.032187015
0.49669102 -0.027532924 -0.1808942 0.014962214 0.047016595 -0.10798759 -0.03335649 0.044484008
0.96524036 -1.3103087 0.0824655 0.014348326 0.23767048 0.070710026 0.33165964 0.007521381
-0.23220636 0.048292246 0.107956596 -0.098562285 0.012573344 0.04491243 0.09292251 -0.112540565
0.09679473 0.0040139235 0.036732722 -0.25480875 0.024878768 -0.14713381 -0.07804844 0.09292283
-0.07322442 -0.0066992794 -0.1928323 -0.7501931 -1.7622086 -0.053463202 -0.017379515 -0.09900751
-0.16251253 -0.74645877 -0.08084743 0.02806191 0.06653895 0.05611596 -0.06407707 0.0407855
-0.50578636 -0.022917485 -0.048316013 -0.014086279 0.061317395 -0.20915137 -0.07927794 -0.07689466
-0.02393658 0.041371662 0.023767903 -0.007716166 0.005202408 0.71201813 -0.56591606 0.34183586
0.06853031 -0.025794622 0.06249545 -0.09604428 -0.30057126 -1.1147106 -0.08137184 0.015972454
0.02276794 -0.021285517 0.23181619 0.011718399 -0.004669381 -0.003156868 0.011766311 0.011654702
0.1673407 0.9242648 0.037779596 -0.0015984839 0.006763537 -0.021600755 0.010400025 0.011552733
0.07175975 -0.2485878 1.4345695 -0.6079402 -0.29188013 -0.106170334 -0.05032765 -0.601483
0.13513823 -0.06263782 -0.05912622 0.110040694 -0.11478564 -0.17731014 -0.10805122 -0.20585492
0.10508342 -0.1398159 0.09714249 -0.13465428 0.26936764 -0.15545471 -0.0045615193 0.0133875925
-0.1684822 -0.011954235 -0.0024724158 -0.09832774 0.16308299 0.3699779 -0.09972343 -0.029158097
0.044730302 0.029068723 -0.2840862 -0.42423886 -0.4111226 0.002833631 -0.13525413 0.09382601
0.12182143 -0.07033234 -0.13087817 -0.18915246 -0.012762443 -0.019993454 0.17597848 0.101875395
0.076813616 -0.019706035 0.05297214 -0.0511808 -0.00082947523 -0.002104632 1.8953182 -0.87740135
0.050221473 -0.024312574 0.11604119 -0.16429736 0.00016041823 0.040818587 0.4455919 0.08200776
0.08595781 -0.061537143 0.18043472 0.25334078 0.042318415 0.05088895 0.09438058 0.054991107
0.005976407 -0.28835785 0.32644427 0.017944055 -0.0011985332 -0.015050148 0.014883708 0.06444412
0.0041667675 0.27047977 -0.46687397 1.2447903 -0.014346724 0.21568361 0.088314675 -0.039945945
0.0913194 -0.39631453 -0.2010301 -0.042839583 -0.05429953 -0.076198414 -0.58399665 -0.17660357
-0.080421336 -0.08638698 -0.053152017 0.042208172 -0.2693318 0.4649755 0.06316786 -0.017961148
-0.01556078 -0.024302885 0.019724218 -0.005290006 -0.13782476 -0.21949756 0.08162199 -1.272218
-0.2546865 -0.1513532 -0.009693405 -0.65095294 0.021429705 -0.12877369 -0.020267885 0.01055513

l4.bias f4 [128]
00000000: d7bb 9cbe a90f 24be bfd2 8b3d a98b 1c3e
00000010: 11fc 193e 68e3 243e 5e8e dd3e fe65 a73d
00000020: e84c e8bd e9af 733e 3b9e 47be 2711 0b3e
00000030: fda4 1e3d f961 c63d 9ab1 143c 5ebb 4fbe
00000040: f0f9 0fbe f759 e9bd 096d ad3c cb03 eabd
00000050: f9fa 393e fa32 8b3e d2a7 91be 2cca 103e
00000060: 6901 4c3e 19bb 823e a55c 98be 7ec3 5d3e
00000070: 8051 633e 54ec 00bd 08c5 d43d cd92 25bc
00000080: 0347 603d 809f 6abe e15f 73be a64e 603e
00000090: 6dd0 1a3e ba69 813b 5172 11be f845 56be
000000a0: 6c2c e2bd de1e b93c 7454 503e 9dfb 103e
000000b0: 2396 003e 9062 65be 6f55 a23b 1210 3dbe
000000c0: 057e 983e 3464 94be 8f5d 9b3e bb9f 903e
000000d0: e23d 143e 109d a33e 49a1 40be cbf2 803e
000000e0: eea6 b73b 9540 b23d 3ccd 933e e84d 9b3e
000000f0: 4360 36bd f6af 39bb 3670 563d 16c6 8a3e
00000100: ebc4 66bd 0d08 ac3c 08d2 893d c774 143d
00000110: b4f1 563d 7542 3fbe 07f3 833e c306 a63e
00000120: a3b5 e63c 4444 ecbc 2f8c 993d ef5e c03e
00000130: 6747 3e3e 7ee2 41be 1302 a73e e95d 8a3e
00000140: 9c24 38be 7e2f e23d 75ba eb3c b644 153e
00000150: cb0d 1d3e 7a71 823e c32a b13e 67b3 b73d
00000160: d434 f13d fe17 353e fd1d 633e f46f 24be
00000170: b5de ec3c 8d82 183e cd59 89bc 7f2a 373e
00000180: f6e3 d93d a001 323e a2c8 12be 03f5 8c3e
00000190: 011d 023e 9149 403e 81da 813d 119f 91bd
000001a0: ec32 6f3e 3320 93be 0c7d 8f3e 3920 0fbe
000001b0: ade2 ab3d e4bd de3e 510a 3c3e f289 973d
000001c0: 0fc5 833c 690f 1d3d 097c 46be 1e43 a5bd
000001d0: 29b6 bbbc c857 b83e b9ed 0e3e 6f2d 253e
000001e0: 7d86 963e 6e28 4dbd 347d fcbd ea9a 92be
000001f0: aebf e43b 113b 15be 897a 6f3d c61e 8b3e
-0.3061206 -0.16021599 0.06827306 0.15287651 0.15037562 0.16102374 0.4327268 0.0817375
-0.11342794 0.23797573 -0.19493954 0.13580762 0.038731564 0.096866556 0.009075547 -0.20286319
-0.14060187 -0.113941126 0.021170156 -0.11426505 0.18162145 0.2718733 -0.2844835 0.14139622
0.19922413 0.2553337 -0.29758182 0.21656606 0.22199059 -0.03147538 0.10389143 -0.010105801
0.054755222 -0.22912407 -0.23767044 0.21905002 0.1511857 0.003949371 -0.14203764 -0.20925128
-0.11043629 0.022597726 0.20344716 0.14158483 0.12557273 -0.2240088 0.004954032 -0.18463162
0.29783645 -0.289827 0.30344817 0.28246865 0.14476731 0.31955767 -0.18811525 0.25185236
0.0056046164 0.08703724 0.2886752 0.30332875 -0.044525396 -0.002833364 0.052353106 0.27104253
-0.05634014 0.020999933 0.067295134 0.03624418 0.0524766 -0.18677695 0.25771353 0.32427034
0.028162783 -0.028841145 0.07497441 0.3757243 0.18581925 -0.18934056 0.3261877 0.27024773
-0.17982715 0.11044215 0.028775433 0.14576992 0.15337293 0.254772 0.34602937 0.08969765
0.11777654 0.17684934 0.22179408 -0.16058332 0.028914789 0.14893551 -0.016766453 0.17887305
0.10639183 0.17383432 -0.14334348 0.2753068 0.12706377 0.18778063 0.063405044 -0.07110418
0.23359269 -0.28735504 0.2802509 -0.13977136 0.08392844 0.4350425 0.1836331 0.07399358
0.016085176 0.038344774 -0.19383253 -0.08069442 -0.02291401 0.36004472 0.13957871 0.16130613
0.2939948 -0.050087385 -0.12328568 -0.28633815 0.006980858 -0.14573313 0.058466468 0.27171916

l5.weight f4 [128, 128]
00000000: 9b54 51be d4eb 9ebb 6f63 213d 147d 0dbe
00000010: 804e c7be b383 2abe 5d35 a5bd face 22be
00000020: 210a 463e ee4e 3abe f1f0 8b3d 4812 4ebe
00000030: 8b1a 583d cceb 76bf d8cd 183e f596 55bf
00000040: 25d6 253e de14 2abe 0abb 60be 9aa6 4fbe
00000050: effe 54be e228 2a3e e098 083e 9b8c de3d
00000060: 715e 133d 9042 2e3e 4412 52bc 143f 09be
00000070: ccf1 a53b 9034 3abe 5da2 eebc 57e1 1e3d
00000080: 8bd5 843c 5487 89ba 831f 753e 8560 443e
00000090: f689 27be 23c0 d2bc 5635 223c 7a33 c4bd
000000a0: e94b 903e 4563 8b3c 4896 0cbe 4b75 d43d
000000b0: e47a 7abe 5678 c5ba a03d a7be 5cb6 f93d
000000c0: 6567 8c3e 70c7 d7bd df57 a6bd b338 813d
000000d0: 1ca9 61be 76e9 2abc 53bf 5ebd 04cc f83d
000000e0: 8b44 b6be fa39 713d 48d8 79be a163 e83d
000000f0: 2e20 f63d db17 683e 4691 d4be 7228 453c
00000100: 3f62 d1bd c24d c5be 56f3 d3bd b464 0bbf
00000110: 3221 50be bc92 82be 3e99 04be 4cd9 393e
00000120: a468 99bd d8a6 aebe 72bc cb3d d474 28be
00000130: 54ed 933e 26f9 99bd 595e 6b3d 83aa d53d
00000140: dcae 4dbe c84b 233c b65c 153e 7a68 043e
00000150: fc4d 63bc b516 303e 6f07 843d 5a7a 733d
00000160: d2a9 1b3e b875 193e 0145 f83d 81f5 2c3b
00000170: 9b99 c4be 542d 51bd b0e6 a73d 409d bc3d
00000180: 3103 c83c 932b 87bd 4ebc 663d 5106 823e
00000190: 6026 fb3b 99c0 a83e 2a03 9d3d 5335 cf3c
000001a0: 39c0 c5bd 2e40 8dbd 51ee 0fbd e157 0cbd
000001b0: ea24 dd3d 551b b3bd 7f4c cfbd 3ea1 8cbe
000001c0: 09a0 64bc dc42 a2bd f197 f6bd c051 123e
000001d0: 4b94 2d3e 9c6f 003e 8960 80be ef07 8abe
000001e0: 4280 c0bd 4867 d23b b53e a7be ccbf fcbd
000001f0: a4e3 cebc 9716 8c3d 2870 2e3f 6733 35bc
00000200: f084 8d3e 3adf 093e be07 6f3d ab43 6bbe
00000210: c4ba e6bd 4805 eebd 0980 dbbc f92f 983d
00000220: c23b 593c 2ca7 16bd e679 3fbc 60a4 5e3e
00000230: 7b3c 053e f44d 0cc0 bbd0 bcbd d31a 453e
00000240: 0d21 6f3d 315c 443e bc68 fa3d 5a96 c93d
00000250: b6a9 e4be 7a6b 393d a762 b43e 35c8 28be
00000260: ea7f 52bd ed5d f73d b4e7 9c3e 2f3a b63e
00000270: 76ab 043e 0496 533e 0e50 6f3d 1c38 2c3e
00000280: a936 623e 9544 cfbe d43a 6ebc c68f 87be
00000290: 276d bcbe 627b 393e b735 28bf 4af0 273d
000002a0: 09c1 a53d 288e 4fbb 44e3 f1bd 0fbe 673e
000002b0: 9f86 4b3f 3768 1b3e c3f1 ce3d 6e44 193e
000002c0: e57b 5f3e 8451 e2be 5560 7f3d acdf 223d
000002d0: 4151 8b3f 6651 633e ccf0 af3d defc 74bb
000002e0: 985f 2c3e 9b4f 243e c8a6 3fbe ee38 8a3d
000002f0: f0c6 e8bd c4fe c03d ff43 01c0 361c e73d
00000300: 4713 2bbe 6ecd 19c0 a8b9 bcbc eeb4 6fbe
00000310: fa00 0ebe 6be4 95bd ae1a 4fbb c679 a0be
00000320: 9403 6f3d e730 e9bd 71ce 3c3e e239 00be
00000330: 04a0 2cbe 0b9a 36be a920 873c c35b 34be
00000340: 0e2a 43be 484d 65be dba3 c2bd 956e fd3b
00000350: dc21 49bf 5743 073d 8a2a 42bd 43d0 95be
00000360: 58e3 003c 89c6 a2bd 371e 973d b22f 86bd
00000370: 81aa b53d 6d4b 86bd 7f56 12be 7e49 94bb
00000380: d5f9 ec3b 3a42 b43c f170 113e 8fb2 d73d
00000390: 527a ef3c 04ca 0bbd c11b f6bd 3d95 b43d
000003a0: cb42 eabb b778 11bc e99a f7bd dd96 043e
000003b0: f934 9cbc 189b 23be eb01 693a 7b4c 23be
000003c0: 2261 633d 60c3 78bd 6236 d23d 790f 0ebd
000003d0: c987 023e ee1f 1cbd 9b5b b3be c414 53be
000003e0: 18c6 8a3d a710 8dbe 70b4 373d a947 c33c
000003f0: 134d a5bd 915a 693c 73e0 82bf b73c 22bd
-0.2044243 -0.0048498902 0.039401468 -0.13817245 -0.38927078 -0.16651802 -0.08066819 -0.15899268
0.19339801 -0.18194172 0.06833065 -0.20124161 0.05275969 -0.9645355 0.14922273 -0.8343347
0.16194971 -0.16609523 -0.2194635 -0.20278397 -0.20800374 0.16617158 0.13339567 0.10866662
0.03597874 0.17017579 -0.012821738 -0.13402969 0.005064225 -0.18184114 -0.029130155 0.03878912
0.016215106 -0.0010492601 0.23937802 0.19177444 -0.16361222 -0.025726384 0.009900412 -0.09580131
0.28182915 0.017015109 -0.13729203 0.10373934 -0.24460942 -0.001506577 -0.32664204 0.121929854
0.27422634 -0.105360866 -0.08122229 0.06309643 -0.22037166 -0.010431638 -0.05438168 0.12148288
-0.3559917 0.05889318 -0.24398911 0.11347128 0.120178565 0.2266535 -0.41517085 0.012033569
-0.10223817 -0.38535887 -0.10349147 -0.54450536 -0.20325163 -0.25502574 -0.12949082 0.18149298
-0.07490662 -0.34111667 0.099480525 -0.16450816 0.28892004 -0.075182244 0.057463024 0.10432913
-0.20086235 0.009966798 0.14586148 0.1293048 -0.013873573 0.17196162 0.0644673 0.059442855
0.152015 0.14986312 0.121225365 0.002639145 -0.38398442 -0.05106862 0.08198297 0.092096806
0.024415584 -0.06600108 0.056331925 0.25395444 0.0076644868 0.3295944 0.07666619 0.025293982
-0.09655804 -0.06897007 -0.035139386 -0.034263495 0.107980564 -0.087454475 -0.10122012 -0.27466768
-0.013954171 -0.07922909 -0.12040699 0.14288998 0.169511 0.12542576 -0.2507365 -0.26959178
-0.09399463 0.0064210035 -0.3266503 -0.1234127 -0.025255032 0.06840246 0.68139887 -0.011059619
0.27640486 0.1346406 0.058356993 -0.22975032 -0.112660915 -0.11622101 -0.02679445 0.07431025
0.013258876 -0.03678052 -0.011686778 0.21742392 0.13011353 -2.192258 -0.092195 0.19248514
0.05838113 0.19175793 0.12227008 0.098431304 -0.4466073 0.045268513 0.35231516 -0.16482623
-0.05139152 0.12078462 0.30645525 0.35591266 0.12956032 0.20662695 0.058425955 0.16818279
0.22091164 -0.4048201 -0.014540393 -0.26476878 -0.36802027 0.18113473 -0.6570696 0.041000642
0.08093459 -0.0031670425 -0.118109256 0.22631095 0.7950229 0.15176474 0.10104706 0.1496751
0.21824606 -0.44202816 0.06234773 0.03976409 1.0884172 0.2219902 0.0859085 -0.0037382166
0.16833341 0.16045992 -0.18715966 0.0674914 -0.11366069 0.09423593 -2.0197752 0.11284678
-0.16706572 -2.4031634 -0.023037747 -0.23408863 -0.1386756 -0.07318958 -0.0031601596 -0.31342906
0.05835302 -0.113862805 0.18438126 -0.1252208 -0.16857916 -0.178322 0.016495066 -0.1761313
-0.19059011 -0.22392762 -0.09503909 0.0077341297 -0.7856729 0.033023205 -0.04740385 -0.29260454
0.007866703 -0.07948024 0.0737881 -0.06552066 0.08870412 -0.06557355 -0.14290808 -0.0045253625
0.0072319307 0.022004236 0.1420324 0.10532104 0.029233132 -0.034128204 -0.120170124 0.088175274
-0.0071490756 -0.008878878 -0.12090094 0.12948175 -0.019068228 -0.15977132 0.00088885304 -0.15947144
0.055512555 -0.0607332 0.10264279 -0.034682725 0.1274711 -0.038116388 -0.35030827 -0.2061339
0.06776065 -0.27551767 0.044849813 0.023837881 -0.08071341 0.014242784 -1.0224746 -0.039608683

l5.bias f4 [128]
00000000: d617 313d 2634 a6bd 2da9 793e 0f63 dc3d
00000010: dcd4 a83e 1af0 8f3e ec26 d4bd 701a bfbd
00000020: b338 353b 4b84 cebd a85d 0dbe 0281 04be
00000030: 7960 d43d e596 5d3b 766e 26bd cfa4 99bd
00000040: 0309 ca3c a7a0 bd3e 6c50 49bc 9820 c43d
00000050: 6926 d13d 32c1 b73e 2da3 0abd 2cb7 b13e
00000060: 6594 3b3e 96e0 b93e a3bb 68bd 21ce 5bbd
00000070: 1437 043e 079c 8b3e efcc 0fbe 0526 923e
00000080: 4a11 533e b693 513d 8152 a53d 89cc 843e
00000090: 5ec3 a8bd 02fe 043e f6f6 663e 0198 673e
000000a0: b48a 0e3e f36c 653e cdd2 eebd d16b 733e
000000b0: de3e 193e 0644 a0bd 149e e33d 0792 c43e
000000c0: 2f80 0e3e b8ec 263e 0d2f 293e 6e3d 293e
000000d0: 3d44 b83d 5516 8e3d 586a d03d 8b2f 003e
000000e0: 2b76 683e c736 87be 3f9f 79be a071 983e
000000f0: 4bb2 163d 8d9e 8e3e d6ad f83d e715 1bbe
00000100: b56e 5abe 2fa4 bfbd 6115 073e 275c c3bd
00000110: d63e 6dbd cf11 a03e b5d3 30bc c9ff 9cbc
00000120: 1fb8 a4bd b5e2 afbd e9c6 04bd e12a 10be
00000130: 39e6 2ebe d9fa adbd 81ec 2d3d bcb3 393e
00000140: b454 82bd 658f 1bbe 060d 7dbb 0f9a bd3e
00000150: 6d61 6bbd 606d 7d3e d5fc c0bb 3c34 053e
00000160: 15a4 1e3e 6b78 973e 4f1c af3e 5afb b23d
00000170: 2c72 303a 377a c73d ca6e 3b3e a88e c03c
00000180: f16a 853e 22ea 2a3e 7f56 503e 8bbc 20be
00000190: b372 703e e558 9c3e 5fb8 be3e d013 e8bd
000001a0: e3d3 7cbd ee32 31bd 0bb8 83be 63e6 1d3e
000001b0: 9469 27be 637b 6a3e b3bd d13d 2409 823e
000001c0: 72ff f3bd 2cac 223e 47ad 8b3d 18d1 853e
000001d0: 55ba 64bd d9e9 12be 8ba9 ee3c 1875 0abd
000001e0: f0aa 72bb 175c 3cbc 3cc1 b5bd 8077 d43d
000001f0: 05be ffbd 4af6 093e cf0b c53e 98f9 a23e
0.043235622 -0.08115415 0.24380942 0.107610814 0.329749 0.2811287 -0.10358986 -0.093312144
0.0027652204 -0.10083827 -0.13805258 -0.12939838 0.10369963 0.0033811864 -0.040632688 -0.07502138
0.0246625 0.3703663 -0.0122872405 0.09576529 0.10212404 0.35889584 -0.033847023 0.34710062
0.18318327 0.36304158 -0.05681957 -0.053663377 0.12911636 0.27267477 -0.1404302 0.28544632
0.20612064 0.05116626 0.08072377 0.25937298 -0.08240388 0.12987521 0.22555146 0.22616579
0.13920099 0.22404842 -0.11661301 0.23771597 0.14965388 -0.078254744 0.111141354 0.3839266
0.13916086 0.16301239 0.16521855 0.1652734 0.089973904 0.06937853 0.101765335 0.12518136
0.22701328 -0.2640898 -0.24377154 0.2977419 0.036791127 0.2785534 0.121425316 -0.15145074
-0.21331294 -0.093574874 0.13191749 -0.09539061 -0.057921253 0.31263587 -0.010792662 -0.019164937
-0.08042931 -0.08588163 -0.032416258 -0.14078857 -0.1708001 -0.08495111 0.042461876 0.1813497
-0.06363812 -0.1519142 -0.00386125 0.370316 -0.05746596 0.24748755 -0.005889515 0.13008207
0.1549228 0.2958406 0.34201285 0.08739348 0.000673088 0.097401075 0.18303981 0.023505524
0.26058152 0.16690877 0.20345496 -0.15696923 0.23481254 0.3053657 0.3725004 -0.11331904
-0.06172551 -0.04326146 -0.2572635 0.15419917 -0.16348869 0.22898631 0.102412604 0.253976
-0.11913957 0.15885991 0.068201594 0.26136088 -0.055841763 -0.14347018 0.029133579 -0.033803076
-0.0037028156 -0.011496565 -0.08874747 0.10374355 -0.12487415 0.13472858 0.38485572 0.3183105

l6.weight f4 [1, 128]
00000000: 579d 493f a343 2e3f 12b0 f3bd 0b39 823f
00000010: 5901 5ebe a00c 0dbe 75a5 263f 6b16 183f
00000020: c632 66bf 5e83 113f 623a 2e3f 2c3d 633f
00000030: 521d c3bf ae4b 223f 3159 6d3f 1240 3c3f
00000040: f6d8 8b3f c7fd 1abe a8fc 033f 329f 89bf
00000050: 9fd9 05bf f7fe 28be fae1 953f 42fa 3cbe
00000060: 1920 a6bf 38a7 48be da7d 5c3f 7162 9d3f
00000070: 06b1 43bf e814 3cbe d4a8 0d3f b2c4 39be
00000080: 7144 3abf 8c05 893f dad2 17bf ef4c eebe
00000090: dca7 4a3f 3908 af3f d626 34be fe33 10bf
000000a0: ccd4 de3f 2e0c 1cbe 9d00 123f 4255 1fbe
000000b0: 369d a03f 43fa e03e f88e 4dbf c4dc 39be
000000c0: 4888 74bf bfcc b8be b5c1 c4be be7f 47bf
000000d0: d795 c63f 9831 883f 29f8 82be 5844 783f
000000e0: 2689 c0be a5b4 503f a682 373f 3ed1 24be
000000f0: 835f abbf 59e8 61be 0be9 babe 4fc0 193f
00000100: 87f8 3f3f d9cb 223f 3df0 613f 8943 7c3f
00000110: f1c7 643f 821d 3dbe e0a1 9f3f 2596 78bf
00000120: 4d5e 3b3f f489 1a3f 41d5 643e 14b9 843f
00000130: d0a2 0b3f 4798 1e3f 8a3b 2c3f 5c7f 49bf
00000140: d91f 133f 26ba 9d3e 5aee 783f 3210 69be
00000150: 7b7d ec3e e2ae 22bf a062 3ebf e2d5 3ebf
00000160: e64f efbe 1d58 4fbe c775 02be bd16 8e3f
00000170: 45bb 5e3f 4277 803f b65c 2bbf 3f5e 37bf
00000180: 6bac f6bd aa6a aebf 35bb 4ebf 6b55 4e3f
00000190: a3a5 29be 6eaa 28be 333e 3dbe c9a9 243f
000001a0: e661 413f d788 f83e 4a8d 7e3f 44d4 93be
000001b0: 44a3 0f3f c779 88bf 38e1 51bf a7d9 3bbe
000001c0: 2ab3 343f ca51 b3bf 9f35 1b3f b9cc f6be
000001d0: c23e a73f 9f42 4b3f 6f05 5e3f 723a 273f
000001e0: 5906 5c3f 4667 a03f 993d 893f d19c 43bf
000001f0: 8180 393f 83e1 05bf 63e6 5cbe 515d 4cbe
0.78755707 0.68071955 -0.11898817 1.0173658 -0.21680202 -0.13774347 0.6509622 0.5940921
-0.89921224 0.56841075 0.68057835 0.88765216 -1.5243323 0.6339673 0.9271422 0.73535264
1.0925586 -0.15135871 0.515574 -1.0751708 -0.5228519 -0.16503511 1.1709588 -0.18454841
-1.2978545 -0.19595039 0.86129534 1.2295667 -0.7644199 -0.1836735 0.55335736 -0.1814144
-0.72760683 1.0704818 -0.5930611 -0.4654307 0.79162383 1.3674384 -0.1759294 -0.56329334
1.740869 -0.15239021 0.57032186 -0.15559867 1.2547977 0.43940935 -0.8029628 -0.18150622
-0.9552045 -0.3609371 -0.38429037 -0.77929294 1.5514477 1.0640135 -0.25579956 0.96979284
-0.37604636 0.8152564 0.7168373 -0.16095445 -1.3388523 -0.2206129 -0.36505923 0.60059065
0.749886 0.63592297 0.882572 0.9854055 0.89367586 -0.18468288 1.2471275 -0.971041
0.73190767 0.6036675 0.22346975 1.0368981 0.5454531 0.61951107 0.6727835 -0.7870996
0.5747047 0.30806082 0.97238696 -0.22760084 0.46189484 -0.635481 -0.7436924 -0.7454511
-0.46740645 -0.20248456 -0.12740241 1.1100689 0.870045 1.0036395 -0.6693834 -0.71628183
-0.12044605 -1.3626301 -0.80754405 0.8059909 -0.16567092 -0.16471264 -0.18480758 0.6432157
0.75540006 0.485419 0.9943434 -0.28872883 0.561085 -1.0662163 -0.8198428 -0.18344747
0.7058588 -1.4009335 0.60628694 -0.48203066 1.3066027 0.7939853 0.8672704 0.65323555
0.85947186 1.2531517 1.0721923 -0.7641116 0.72461706 -0.5229723 -0.2157226 -0.19957472
