current_algos/TD3/TD3_Agent_critic_weights.pth (torch, 64463 bytes, 10 tensors)

l1.weight f4 [64, 51]
0	0x3d3f5ee4	0.046721354
1	0xbdc4ab87	-0.09603029
2	0xbdcdb615	-0.10044495
3	0x3e16ac2e	0.14714119
4	0xbceb815c	-0.028748207
5	0xbdba5dff	-0.090999596
6	0x3c7eccad	0.015551728
7	0x3d83d1a5	0.06436471
8	0x3d80e274	0.062931925
9	0x3de96e5d	0.11398003
10	0x3d850498	0.06495017
11	0xbda10550	-0.078623414
12	0x3c45032b	0.012024681
13	0x3c95d36f	0.018289296
14	0xbe5cee15	-0.21575196
15	0xbd81f081	-0.063447006
16	0xbdace9f7	-0.08443063
17	0x3d3ca56a	0.04605619
18	0xbdfde794	-0.12397686
19	0xbd7d9c0c	-0.061916396
20	0x3bf29647	0.0074031684
21	0xbe0a893f	-0.13528918
22	0xbb0ccdf0	-0.0021485053
23	0xbc0a19a9	-0.008428969
24	0x3e0edd4e	0.13951609
25	0xbe1906b5	-0.14943965
26	0x3d365690	0.044516146
27	0x3a95db1b	0.0011433096
28	0xbd9d553b	-0.07682272
29	0x3d69898f	0.05701595
30	0xbdf90093	-0.12158313
31	0xbdf256ba	-0.11832948
32	0xbd302f8f	-0.043014105
33	0x3df26086	0.11834817
34	0xbd0a1aac	-0.033716843
35	0xbd6917e2	-0.056907542
36	0x3d70094f	0.058602627
37	0xbdbabff3	-0.09118643
38	0xbd976764	-0.07392767
39	0x3dd13197	0.10214537
40	0x3e3833e8	0.1798855
41	0xbdbbf9f7	-0.091785364
42	0x3e158c6f	0.14604352
43	0xbca74b69	-0.0204217
44	0xbc89a406	-0.016801845
45	0xbccfc040	-0.025360227
46	0x3d29d72a	0.041464962
47	0x3d8dd77d	0.06925867
48	0xbdc9dfa8	-0.09857112
49	0x3cf7ba45	0.030240187
50	0xbdf83442	-0.121193424
51	0x3d2d7359	0.042346332
52	0xbd5baa07	-0.053628948
53	0x3e75bcee	0.23997852
54	0x3d1661f0	0.036714494
55	0x3d7e2859	0.062050197
56	0x3d6953c4	0.05696465
57	0x3caf028f	0.021363525
58	0xbda027f3	-0.0782012
59	0x3c81b0ba	0.01583134
60	0xbd17ab31	-0.037028495
61	0xbdf67cd6	-0.12035529
62	0x3e2b2aed	0.16715594
63	0x3de7205e	0.112854704
64	0xbd31a632	-0.043371387
65	0x3da1c2df	0.07898497
66	0xbe2672ab	-0.1625468
67	0xbe099cd0	-0.13438725
68	0xbd87ea6c	-0.06636509
69	0x3b824096	0.0039749844
70	0x3dcafb2c	0.099111885
71	0xbe11650f	-0.14198707
72	0x3daf024b	0.08545359
73	0xbc0895d0	-0.008336499
74	0xbdc18ab6	-0.09450285
75	0xbd896eb9	-0.06710572
76	0xbdcff583	-0.101542495
77	0xbcdbc36b	-0.026826581
78	0xbdfc4430	-0.12317693
79	0x3e01b274	0.1266573
80	0x3deb36c4	0.11485055
81	0xbdc1c5f7	-0.09461587
82	0xbd48b4eb	-0.04900066
83	0x3e0d9b35	0.13828738
84	0x3d28db69	0.04122487
85	0x3b13fda1	0.0022581595
86	0x3c87a700	0.016559124
87	0xbbab155c	-0.005221052
88	0xbe038a11	-0.12845637
89	0x3c1d5c40	0.009604514
90	0x3db2df92	0.08734049
91	0x3dfd14bb	0.1235747
92	0x3dd1237a	0.10211845
93	0xbd76ac73	-0.060223054
94	0x3c04bc2a	0.008101502
95	0xbd7da695	-0.061926443
96	0x3dbee50c	0.09321031
97	0x3d17607c	0.03695725
98	0xbd171d1a	-0.036892988
99	0x3cd7c10e	0.026337173
100	0xbc39c0f0	-0.011337504
101	0xbde31645	-0.11088232
102	0x3c522411	0.012825982
103	0x3d3aa9d7	0.04557213
104	0x3db92569	0.090403385
105	0x3d5b58d0	0.053551495
106	0xbe3feb6d	-0.18742152
107	0xbe2f41fc	-0.17115015
108	0xbd1311fe	-0.03590583
109	0x3e1634b2	0.14668539
110	0xbe4555a8	-0.19270957
111	0xbd86dd0b	-0.06585129
112	0x3da55c9a	0.08074303
113	0x3dc6bfb5	0.09704534
114	0x3e36adaf	0.17839693
115	0xbd9fd168	-0.07803613
116	0xbdd1cf36	-0.102446005
117	0xbba472d5	-0.005018572
118	0x3d371f2e	0.04470747
119	0x3d210b05	0.03931715
120	0x3dced336	0.10098879
121	0xbd9496db	-0.07255336
122	0x3c4f9f4f	0.0126722595
123	0x3dcba113	0.09942832
124	0xbc4cfe2a	-0.012511769
125	0xbd07f4b6	-0.03319236
126	0x3d2c85e7	0.042119887
127	0x3d24ba33	0.040216636
128	0xbc56d7d2	-0.013112979
129	0x3e27c8b8	0.16385162
130	0xbd2f0bf7	-0.04273602
131	0x3e15708e	0.14593717
132	0x3d3d8ac8	0.04627493
133	0xbde0c36f	-0.10974776
134	0xbe3e12dd	-0.18561883
135	0x3d30e8e2	0.043190844
136	0x3dbb440b	0.091438375
137	0x3db1f16d	0.086886264
138	0xbe0e234b	-0.1388065
139	0x3c5e0d0f	0.013552918
140	0x3df97a3a	0.12181516
141	0xbdf4a86c	-0.119461864
142	0x3c2b8565	0.010468815
143	0xbbaf72d1	-0.0053542634
144	0x3c812127	0.015762879
145	0xbd125247	-0.035722997
146	0x3e0447b7	0.12917982
147	0xbe0d94ee	-0.13826343
148	0xbd364bfd	-0.04450606
149	0x3cdcf3db	0.026971748
150	0xbe5e6d87	-0.21721469
151	0xbc191acf	-0.009344771
152	0x3d9f43d9	0.07776613
153	0x3d8f7a14	0.070057064
154	0xbe05a9b2	-0.13053015
155	0xbdfbbc16	-0.12291734
156	0xbc2b650b	-0.010461102
157	0x3dfb3608	0.12266165
158	0xbde0e3fa	-0.10980983
159	0x3d56b535	0.052418906
160	0xbdcaa4f4	-0.098947436
161	0x3d2e9939	0.042626593
162	0x3e04a3a1	0.12953044
163	0x3e072ab6	0.13199887
164	0x3bfe0180	0.0077516437
165	0x3d36a44a	0.044590272
166	0xbdd689e4	-0.10475519
167	0xbe0f40e0	-0.13989592
168	0x3dd67eb2	0.10473384
169	0xbdaf9b8a	-0.085745886
170	0xbdfb8e7e	-0.122830376
171	0xbdd7e330	-0.105413795
172	0x3def85ac	0.11695418
173	0x3c821415	0.015878716
174	0x3cab4ac8	0.020909682
175	0xbdf9ebd4	-0.12203184
176	0x3dcbb77c	0.09947106
177	0xbcfa06a4	-0.030520745
178	0x3dd77667	0.1052063
179	0x3db21e3a	0.086971715
180	0xbd8c097b	-0.06837746
181	0xbd62a894	-0.05533655
182	0x3d738455	0.059452374
183	0xbd5a21d2	-0.05325491
184	0xbd9d1e98	-0.07671851
185	0xbd1fd2ce	-0.0390194
186	0xbdf2e50d	-0.11860094
187	0x3d76cf1a	0.0602561
188	0x3d6ff6fc	0.058585152
189	0xbcfa4eb8	-0.030555114
190	0x3d052180	0.03250265
191	0x3c48c181	0.012253166
192	0x3b466f36	0.003027869
193	0xbd85ef50	-0.06539786
194	0x3c80d3e2	0.015726034
195	0x3da7d25d	0.081944205
196	0xbe3093fb	-0.1724395
197	0xbe0f781e	-0.14010665
198	0xbd6c31f9	-0.057664845
199	0x3e0da62c	0.13832921
200	0x3bbe6152	0.0058099413
201	0x3dad16cb	0.08451613
202	0xbe2049d5	-0.15653165
203	0x3d9e9d36	0.07744829
204	0x3d8fcb5d	0.0702121
205	0x3d29cdb0	0.041455925
206	0x3d025006	0.031814598
207	0xbd99ac1e	-0.07503532
208	0x3d7f2541	0.062291387
209	0x3e223ca4	0.15843445
210	0x3db68615	0.08912293
211	0x3d930ed2	0.07180561
212	0x3d9bc304	0.07605556
213	0x3ce2a93f	0.027668593
214	0xbd931edb	-0.071836196
215	0x3e3a1d9c	0.18175358
216	0xbcc2a93e	-0.023762342
217	0x3d852030	0.0650028
218	0xbd400177	-0.046876397
219	0x3cf2742b	0.029596409
220	0x3dc56837	0.09639018
221	0x3e241f51	0.16027571
222	0x3d9357ff	0.07194518
223	0xbdb5b292	-0.0887195
224	0x3cba2527	0.022722794
225	0xbc1a2773	-0.0094088195
226	0xbd5066fc	-0.050879464
227	0x3e44a556	0.19203696
228	0x3dc27c3c	0.09496352
229	0x3e0f661b	0.14003794
230	0xbdba017c	-0.09082314
231	0xbd248901	-0.04016972
232	0x3e221027	0.15826474
233	0x3ccd681a	0.025074054
234	0x3dfa1ffe	0.12213133
235	0xbd54b43a	-0.05192969
236	0xbd3177e8	-0.043327242
237	0xbdb3acc0	-0.08773184
238	0xbd92098d	-0.07130728
239	0x3d65668a	0.056005992
240	0xbd93d40e	-0.072181806
241	0xbe14a72b	-0.14516895
242	0xbdcb39a2	-0.09923102
243	0xbbfa3f6c	-0.007636955
244	0xbc63484c	-0.013872217
245	0xbd8dddf3	-0.06927099
246	0xbc0955b6	-0.0083822515
247	0x3d0413c7	0.032245424
248	0xbdaa4f6f	-0.08315932
249	0xbd2fc66f	-0.04291385
250	0x3df3d509	0.119058676
251	0xbe09bd26	-0.1345106
252	0x3d21e3aa	0.039523758
253	0xbdf6767c	-0.12034318
254	0xbd6adbe6	-0.057338618
255	0xbdeaf725	-0.1147292

l1.bias f4 [64]
0	0x3dc63534	0.096781164
1	0x3e0c1a25	0.13681848
2	0xbb39ae14	-0.0028332518
3	0xbce14710	-0.027499706
4	0x392d281f	0.00016513512
5	0xbddf9bef	-0.10918414
6	0x3d860a79	0.06544966
7	0x3deeb313	0.116552494
8	0x3c997312	0.018731628
9	0x3e06e697	0.131739
10	0x3d24db3d	0.040248144
11	0x3df8d718	0.12150401
12	0x3dd8061c	0.1054804
13	0x3df78d27	0.120874695
14	0x3c9cc723	0.019137925
15	0xbdf55a9f	-0.11980175
16	0x3dc3712e	0.09543072
17	0xbdececfa	-0.11568637
18	0x3da7d7af	0.08195435
19	0x3d22a10c	0.039704368
20	0xbdf76c1d	-0.12081168
21	0x3d92d686	0.07169823
22	0xbdc86134	-0.09784165
23	0x3e1e04f0	0.15431571
24	0x3d3c929f	0.046038266
25	0x3df02418	0.11725634
26	0x3ccb3f1b	0.024810364
27	0xbdf90ba7	-0.12160426
28	0xbde4d71e	-0.11173843
29	0x3dad7598	0.08469695
30	0xbdb046ea	-0.08607276
31	0xbcc465bc	-0.023974292
32	0x3e17d639	0.14827813
33	0x3dd89a77	0.10576337
34	0x3d8282d1	0.063726075
35	0x3b557f9d	0.0032577284
36	0x3e155b98	0.14585721
37	0xbcde3def	-0.027129142
38	0x3e13598a	0.14389625
39	0x3d9a9fed	0.07550035
40	0x3d3da57e	0.046300404
41	0xbc8febdc	-0.017568521
42	0x3d005c3a	0.031337954
43	0xbd4de526	-0.05026736
44	0x3dcec493	0.10096087
45	0xbd37852e	-0.044804744
46	0xbdd800a4	-0.10546997
47	0x3d06c783	0.032905113
48	0x3da11ace	0.07866441
49	0xbd16a549	-0.036778722
50	0x3d1fc9e9	0.039010916
51	0xbd3bc25e	-0.04583966
52	0x3da24812	0.079239026
53	0xbd4f423d	-0.05060028
54	0x3dad7ccf	0.08471071
55	0x3c34e8eb	0.01104186
56	0x3db20d54	0.086939484
57	0xbd07063e	-0.032964937
58	0x3d376984	0.044778362
59	0xbde81aa5	-0.11333207
60	0x3e07bc7a	0.13255492
61	0x3d28fad0	0.04125482
62	0x3d373c4c	0.044735238
63	0xbdebaa92	-0.11507143

l2.weight f4 [64, 64]
0	0x3e0f3943	0.13986687
1	0xbd182c3a	-0.037151553
2	0xbb1d7631	-0.0024026746
3	0x3d84415c	0.06457779
4	0x3e22f6ae	0.15914413
5	0x3cade8c2	0.021229152
6	0x3d6f9ead	0.058500934
7	0x3cd6a597	0.026202006
8	0xbe56c8b5	-0.20975001
9	0xbdc56c4d	-0.09639797
10	0x3e1bbe25	0.15209253
11	0xbd7e9aae	-0.062159233
12	0x3da3a11b	0.07989713
13	0xbb714ba7	-0.0036818774
14	0xbd40daa7	-0.047083523
15	0xbd012c8e	-0.03153663
16	0x3d7464d6	0.059666477
17	0x3c425ac4	0.0118624605
18	0x3d8ee62e	0.06977497
19	0x3e18f94d	0.1493885
20	0xbd8ad776	-0.06779377
21	0x3dc323e0	0.09528327
22	0x3dec87fc	0.115493745
23	0x3d69744f	0.056995686
24	0x3d3342d6	0.04376491
25	0x3caac03d	0.02084362
26	0x3e14e0d8	0.14538896
27	0xbccee69f	-0.025256453
28	0xbc3d899e	-0.011568455
29	0xbdeb233f	-0.11481332
30	0x3e1987b7	0.14993177
31	0x3d6cceff	0.057814594
32	0xbd87f108	-0.0663777
33	0xbc397b62	-0.011320921
34	0x3de19c6e	0.11016165
35	0x3d0199d3	0.03164084
36	0x3c985682	0.018595938
37	0x3dc5cb15	0.096578754
38	0x3cefa4df	0.029253421
39	0x3df42bc1	0.11922408
40	0xbdc9a0cf	-0.09845125
41	0xbb0f1b3d	-0.0021836304
42	0x3e06966f	0.13143323
43	0x3d927e26	0.07152967
44	0x3e1914aa	0.14949289
45	0x3e26b153	0.16278581
46	0x3db3a468	0.087715924
47	0x3bac1efa	0.005252716
48	0x3dba24a9	0.090890236
49	0xbc9686db	-0.018374851
50	0xbd81f1a0	-0.063449144
51	0x3b917327	0.004438776
52	0xbd094990	-0.03351742
53	0x3e097ac9	0.13425745
54	0xbbc02f52	-0.005865016
55	0xbd41a2d4	-0.047274426
56	0x3dd80dc1	0.10549498
57	0xbcc4f0f8	-0.024040684
58	0x3c4d9c2c	0.012549441
59	0xbe184a5c	-0.14872116
60	0x3da56fd7	0.080779724
61	0xbd128b16	-0.035777174
62	0xbcf84c8a	-0.030309934
63	0xbb9978c3	-0.0046835854
64	0xbb93f8b5	-0.004515732
65	0xbd9df0e8	-0.07711965
66	0xbdd03d9e	-0.101680025
67	0xbd9c5946	-0.07634215
68	0x3d4f70bf	0.050644632
69	0x3bf887a6	0.00758453
70	0x3da76e9a	0.081753924
71	0xbe365c5d	-0.17808671
72	0xbe15627d	-0.14588352
73	0xbd27130e	-0.040789656
74	0x3cdb8c7c	0.026800387
75	0x3cc19e3b	0.02363502
76	0x3c9aa400	0.01887703
77	0x3de2d96b	0.110766254
78	0x3d28bc64	0.04119529
79	0xbd8f672a	-0.07002099
80	0x3dbff64b	0.093731485
81	0x3cb63c91	0.022245677
82	0x3d9c705a	0.07638617
83	0x3e3600d8	0.1777376
84	0x3d535957	0.051598873
85	0xbd2966fd	-0.041357983
86	0xbd9c7263	-0.07639005
87	0xbd4ff853	-0.05077393
88	0x3de59fec	0.11212143
89	0x3db21a0b	0.086963736
90	0x3d23d20b	0.039995234
91	0x3e28a10e	0.16467687
92	0x3d26beb7	0.040709224
93	0x3daf59f7	0.08562081
94	0x3db3dd63	0.087824605
95	0x3d55d912	0.052208968
96	0x3e017137	0.12640844
97	0xbd39894e	-0.04529696
98	0x3c1dafb8	0.009624414
99	0x3e0ab148	0.1354419
100	0x3e007f4f	0.12548564
101	0x3e1382c5	0.14405353
102	0x3dbcb528	0.0921424
103	0x3da71858	0.0815894
104	0xbd28040f	-0.041019496
105	0x3d1cb6d7	0.038260307
106	0xbd89663c	-0.06708953
107	0x3d5a2454	0.0532573
108	0x3e160a1a	0.14652291
109	0x3de751cb	0.11294898
110	0x3d0fc92b	0.035103958
111	0xbcf1a263	-0.029496377
112	0x3d64093b	0.055672865
113	0x3da15526	0.07877569
114	0x3dd673af	0.10471284
115	0x3de0b4de	0.10971998
116	0x3d9bf465	0.07614974
117	0x3c76349e	0.015027193
118	0xbdd261a6	-0.10272531
119	0x3de845d5	0.113414444
120	0xbb5247eb	-0.0032086323
121	0xbd3943ea	-0.045230784
122	0x3dd98743	0.10621502
123	0xbd82f1c6	-0.06393771
124	0x3c635bc8	0.013876863
125	0x3cdde80c	0.027088188
126	0xbd97e004	-0.074157745
127	0xbd97e349	-0.07416398
128	0x3d12dd92	0.035855837
129	0xbda5f224	-0.08102825
130	0x3ccecb4c	0.025243424
131	0x3d65adc6	0.056073926
132	0x3d9842b4	0.074345976
133	0xbd3a3424	-0.04545988
134	0x3e6bcc05	0.23027046
135	0xbe1925f5	-0.14955886
136	0xbdb0913b	-0.086214505
137	0x3d26466a	0.040594496
138	0x3dde9d70	0.108698726
139	0x3dcbd0cf	0.099519365
140	0x3bd33edf	0.006446704
141	0x3d1bb1f1	0.038011495
142	0x3e0c7df7	0.13719927
143	0xbc89e78c	-0.016834043
144	0xbc504215	-0.012711068
145	0xbd8476a1	-0.06467939
146	0x3d3df02b	0.04637162
147	0x3e0916c1	0.13387586
148	0xbce13f6a	-0.027496058
149	0xbdacf34e	-0.08444844
150	0x3e02781a	0.12741128
151	0x3df38c47	0.1189199
152	0x3d824b91	0.063620694
153	0x3adadf52	0.0016698635
154	0x3d26d718	0.040732473
155	0x3c0129a3	0.007883462
156	0xbd3e189f	-0.0464102
157	0xbdf2216d	-0.11822782
158	0x3e04939d	0.12946935
159	0x3da87475	0.082253374
160	0xbdce6118	-0.10077113
161	0xbd2b1b0c	-0.04177384
162	0x3dd25931	0.10270918
163	0x3e13ed97	0.14446102
164	0x3cfd1111	0.030891927
165	0x3d8b94fb	0.06815525
166	0xbd10daee	-0.035365038
167	0x3dd2b9c4	0.10289338
168	0xbd89acad	-0.067223884
169	0x3da207a2	0.07911612
170	0xbdacbc69	-0.08434374
171	0x3dddf464	0.108376294
172	0x3e1e51f0	0.15460944
173	0x3dad5a17	0.08464449
174	0x3e21a9be	0.15787408
175	0x3e086446	0.13319501
176	0x3db7f0e1	0.08981491
177	0xbcb7b7a0	-0.022426426
178	0x3df4161a	0.11918278
179	0x3e074514	0.13209945
180	0xbd1f059f	-0.03882372
181	0x3bb013c0	0.005373448
182	0xbdcb3cc8	-0.099237025
183	0x3e33c3c4	0.17555147
184	0xbd879585	-0.066203155
185	0xbd923359	-0.071387
186	0xbc1cb7c5	-0.009565298
187	0xbe1ff787	-0.15621768
188	0x3d212a1b	0.039346796
189	0xbdd3871f	-0.10328507
190	0x3d9d7d1e	0.0768988
191	0x3ca97916	0.020687621
192	0x3e0d8916	0.13821825
193	0x3d95948a	0.07303722
194	0xbce042e4	-0.027375646
195	0x3dd0015d	0.1015651
196	0xbbd92c0c	-0.0066275652
197	0xbde072f0	-0.109594226
198	0x3b30f550	0.0027001686
199	0xbd0d3568	-0.03447476
200	0xbe258148	-0.16162598
201	0x3db50922	0.088396326
202	0xbd89333b	-0.066992246
203	0x3def7edb	0.11694118
204	0x3df85a96	0.12126653
205	0xbcde9eb4	-0.027175285
206	0xbcbc824a	-0.023011345
207	0x3dff7dde	0.12475179
208	0x3c72c5cb	0.014817665
209	0xbb96e379	-0.0046047536
210	0x3c83cfcb	0.016090294
211	0x3e29bf4e	0.16576883
212	0x3e467bbd	0.1938314
213	0xbd4d4f52	-0.050124474
214	0x3d9d1921	0.076708086
215	0x3d6604f8	0.056157082
216	0xbdc26cf2	-0.09493436
217	0x3c96d463	0.01841182
218	0x3e2abe77	0.16674219
219	0x3b94804f	0.004531897
220	0x3d7e7e34	0.062132075
221	0xbdb11e97	-0.08648413
222	0x3dc181a4	0.09448555
223	0x3e143be1	0.14475967
224	0x3d11ccb4	0.03559561
225	0xbc160a7c	-0.009157773
226	0x3c8a52f5	0.01688526
227	0x3d774efe	0.060378067
228	0x3e02ae11	0.12761714
229	0xbcf97cf2	-0.030455086
230	0x3b38e4b8	0.00282125
231	0xbd49101f	-0.04908764
232	0x3c784e2b	0.015155355
233	0x3d93e197	0.07220762
234	0xbd24e658	-0.040258735
235	0x3daf9dcd	0.0857502
236	0x3daa36fb	0.08311268
237	0x3dfd47a6	0.123671815
238	0x3e43fc6e	0.19139263
239	0x3e0d548d	0.13801785
240	0xbdb55c84	-0.088555366
241	0x3e20b074	0.15692312
242	0xbd8b0592	-0.06788172
243	0x3d28d572	0.041219182
244	0x3d776d7d	0.06040715
245	0x3da906d3	0.08253255
246	0xbb87783a	-0.004134205
247	0x3e0663ff	0.13124083
248	0xbcca1402	-0.024667744
249	0x3db3f527	0.087869935
250	0x3e016c9a	0.12639084
251	0xbddd24d1	-0.10798038
252	0xbd9404e2	-0.07227494
253	0x3c558499	0.013032102
254	0x3d7ae305	0.06125166
255	0x3dea0416	0.114265606

l2.bias f4 [64]
0	0x3b2193cf	0.0024654751
1	0x3be50603	0.006989242
2	0x3c978122	0.018494193
3	0xbcd7e5fe	-0.026354786
4	0x3dfcaa66	0.123371884
5	0x3d76c27d	0.060244072
6	0x3d1f4e41	0.038892988
7	0xbcd1995f	-0.025585828
8	0xbcb231e6	-0.021752309
9	0x3cbfc02e	0.023407068
10	0x3dfd5f53	0.12371697
11	0x3daf2e8b	0.08553799
12	0x3d491e59	0.049101207
13	0xbd3f6cbf	-0.046734568
14	0x3cbff763	0.023433393
15	0x3dc3a0c2	0.095521465
16	0xbdb35579	-0.08756537
17	0x3d700d3e	0.05860638
18	0xbd918a84	-0.07106498
19	0xbd25252c	-0.040318653
20	0x3d942c83	0.072350524
21	0x3dbf7fcb	0.093505464
22	0xbdb10915	-0.086443104
23	0x3d9b4684	0.07581809
24	0xbcd4f47e	-0.02599549
25	0xbdccf39f	-0.100074045
26	0x3be9224f	0.0071146856
27	0xbd80199d	-0.06254885
28	0x3d2003eb	0.039066236
29	0x3db618ad	0.08891425
30	0x3d89ade1	0.06722618
31	0x3d6ebb52	0.05828411
32	0x3db00b90	0.08595955
33	0x3d9a3df9	0.075313516
34	0xbdae8ad9	-0.08522577
35	0xbcd04502	-0.02542353
36	0xbd5f4515	-0.05450924
37	0x3dc24416	0.094856426
38	0x3dbc9025	0.09207181
39	0x3c1d4487	0.009598858
40	0x3ce369d7	0.02776043
41	0x3dcea8f8	0.10090822
42	0xbd884f0c	-0.06655702
43	0xbdbfe93c	-0.09370658
44	0xbdcfcdb1	-0.101466544
45	0x3d04784e	0.032341294
46	0x3dc17baf	0.09447419
47	0x3ddecab5	0.10878507
48	0xb9123a89	-0.00013945451
49	0xbd6ac75b	-0.057319026
50	0x3d6f9547	0.05849197
51	0x3d75fe5b	0.060057025
52	0xbcce2241	-0.025162818
53	0xbca89d89	-0.020582931
54	0xbc010e61	-0.007876963
55	0x3cf3b329	0.029748516
56	0xbd323404	-0.043506637
57	0xbd9ced52	-0.07662453
58	0xbc8c242f	-0.017107097
59	0xbded7045	-0.11593679
60	0x3d5a5f71	0.053313676
61	0x3def1bc7	0.1167522
62	0x3db1c8bc	0.08680865
63	0x3d39e928	0.04538837

l3.weight f4 [1, 64]
0	0xbda1e584	-0.07905105
1	0xbde02c9f	-0.10946011
2	0xbe5219f6	-0.20517716
3	0xbdf0b7bc	-0.117537946
4	0xbdd39fab	-0.103331886
5	0xbe0028c1	-0.12515546
6	0x3da86815	0.08222977
7	0x3e0b35f2	0.13594797
8	0xbe2c645e	-0.16835162
9	0xbd483ec3	-0.04888798
10	0x3d97593e	0.073900685
11	0xbdc4935b	-0.09598418
12	0xbdf87ba8	-0.121329606
13	0xbde580ed	-0.11206231
14	0x3e14dd12	0.14537457
15	0xbe398b82	-0.18119624
16	0x3e34b21f	0.17646073
17	0xbe8766b9	-0.2644556
18	0x3e5cf1b9	0.21576585
19	0xbe22e82f	-0.15908884
20	0xbe29a0f8	-0.16565311
21	0xbd45d2a7	-0.048296597
22	0xbdf83e6b	-0.1212128
23	0xbdfdcae8	-0.12392217
24	0x3e219dcf	0.15782855
25	0x3d886464	0.06659773
26	0xbe4ed870	-0.20199752
27	0xbe1e855e	-0.15480563
28	0xbe329a27	-0.17441617
29	0xbd337d5c	-0.043820724
30	0xbd97bc07	-0.0740891
31	0xbde3531d	-0.11099837
32	0x3e402a2a	0.18766084
33	0x3e4ddddb	0.20104162
34	0x3e1d6444	0.1537028
35	0xbe202011	-0.15637232
36	0xbe325d9e	-0.17418525
37	0x3e2c3e4f	0.16820644
38	0xbe081c07	-0.13291942
39	0x3df61ec1	0.120175846
40	0xbdace962	-0.08442952
41	0x3e039d6b	0.12853019
42	0x3e4207aa	0.18948236
43	0x3e218f4c	0.1577732
44	0x3bacb836	0.005270983
45	0xbdfd96bb	-0.12382265
46	0xbe157c47	-0.1459819
47	0xbe26e6ef	-0.16299032
48	0x3da72f35	0.08163301
49	0xbdcd2844	-0.10017446
50	0x3dc6a29d	0.09698985
51	0x3e83f0f5	0.25769773
52	0x3e7da25b	0.24768965
53	0xbe39b483	-0.18135266
54	0xbe092b2a	-0.13395372
55	0xbdbd43eb	-0.0924147
56	0x3d0a90bd	0.03382944
57	0x3ea21f9f	0.3166475
58	0xbe700641	-0.23439886
59	0x3dc4f442	0.09616901
60	0x3e426281	0.18982889
61	0xbdc1a6ca	-0.094556406
62	0xbdf0f37e	-0.117651924
63	0x3e1622bb	0.14661686

l4.weight f4 [64, 51]
0	0x3daa6222	0.083194986
1	0xbdff0764	-0.124525815
2	0x3d900d5d	0.07033799
3	0xbe3275e2	-0.17427781
4	0x3d5b44bf	0.05353236
5	0x3ae9e577	0.0017844875
6	0xbcc9dc1b	-0.024641087
7	0x3dd066a8	0.1017583
8	0x3de07424	0.10959652
9	0x3d3bb964	0.0458311
10	0x3cd81932	0.026379202
11	0x3d307f69	0.043090258
12	0x3cd771ea	0.026299436
13	0x3c961a10	0.018322974
14	0xbdab0481	-0.083504684
15	0x3e3a1365	0.18171461
16	0xbe4105a6	-0.18849811
17	0xbd8b30ba	-0.06796403
18	0xbccd07dd	-0.025028164
19	0xbb322543	-0.0027182854
20	0x3d018a71	0.03162617
21	0xbd6ed5ca	-0.058309354
22	0xbd7d96aa	-0.061911263
23	0x3d2a0a3e	0.041513674
24	0xbe2d09aa	-0.16898218
25	0x3e0b3560	0.1359458
26	0x3d72a85e	0.0592426
27	0x3dac095d	0.084002234
28	0xbd31ebe2	-0.043437846
29	0xbd22a975	-0.039712388
30	0x3d1960a8	0.037445694
31	0x3db78345	0.089605846
32	0x3e2dbf16	0.16967425
33	0xbd62172a	-0.055197872
34	0xbca8d897	-0.02061109
35	0xbdcd1f57	-0.10015743
36	0xbe0ab6ae	-0.1354625
37	0xbd50e826	-0.051002644
38	0x3e007017	0.12542759
39	0xbe5b35d3	-0.21407251
40	0x3e25bb95	0.16184838
41	0xbdf4eb9d	-0.11959002
42	0x3bda7381	0.006666601
43	0x3c74120e	0.014896883
44	0xbdd52f4b	-0.10409411
45	0x3dbe4705	0.0929089
46	0x3d721f44	0.05911185
47	0x3e2436dd	0.16036554
48	0x3d97b901	0.074083336
49	0xbd40b86d	-0.047050882
50	0x3d8d8e33	0.06911888
51	0x3dddd246	0.10831122
52	0x3e0b5181	0.1360531
53	0xbdd12786	-0.102126166
54	0x3e0c5b1f	0.13706635
55	0x3e2438b0	0.1603725
56	0x3dd1d958	0.10246533
57	0xbe159ae7	-0.14609872
58	0xbd58185d	-0.05275761
59	0xbdc467ab	-0.095900856
60	0x3e09ec81	0.13469125
61	0xbdfbf8c4	-0.12303308
62	0xbdf0c524	-0.117563516
63	0xbc9652bb	-0.018349996
64	0xbd39a6e1	-0.045325164
65	0xbda9d4d1	-0.08292545
66	0x3df2cc28	0.11855346
67	0x3e0d7610	0.13814569
68	0xbc110b95	-0.008852859
69	0x3db6b38a	0.08920963
70	0xbd8ea446	-0.069649264
71	0x3e05ad19	0.13054313
72	0xbdae31a4	-0.08505562
73	0xbe11660e	-0.14199087
74	0x3e1039a3	0.14084487
75	0xbe0082ff	-0.12549971
76	0x3ddbba90	0.10728943
77	0x3e1e6e27	0.15471707
78	0xbd391964	-0.04519023
79	0xbdda41df	-0.10657095
80	0x3d875ffc	0.066101044
81	0x3de3b6e0	0.11118865
82	0x3d77a7ff	0.060462948
83	0xbdc7542f	-0.097328536
84	0xbd3091f9	-0.04310796
85	0x3dbf20fd	0.09332464
86	0x3e121d78	0.14269054
87	0xbdf6e708	-0.120557845
88	0xbd1651c9	-0.03669909
89	0x3e06e873	0.1317461
90	0xbd125b40	-0.035731554
91	0x3dd53f10	0.10412419
92	0x3d8afde8	0.0678671
93	0xbc274e5a	-0.010211552
94	0xbdd93ac5	-0.106069125
95	0x3d930ba0	0.07179952
96	0xbd2ceab0	-0.042216003
97	0x3daea04c	0.08526668
98	0xbc52b9e4	-0.012861703
99	0xbdb4bed5	-0.08825461
100	0x3934708c	0.00017208065
101	0xbc5b6067	-0.013389683
102	0x3e01fabf	0.12693308
103	0xbe3cc300	-0.18433762
104	0x3e2390d0	0.1597321
105	0xbe0a5f54	-0.13512927
106	0xbd73396b	-0.05938093
107	0xbe1afcda	-0.15135518
108	0x3d8cc253	0.06873002
109	0x3d7d85e0	0.06189525
110	0xbdb2494c	-0.087053865
111	0x3d5b403c	0.053528056
112	0xbdc0083c	-0.093765706
113	0xbdc186e2	-0.09449555
114	0x3d09a7b6	0.033607207
115	0xbe16d489	-0.14729513
116	0xbe2e7428	-0.17036498
117	0x3d25b9e2	0.040460475
118	0x3e229bbc	0.1587972
119	0x3bdcf6dc	0.006743295
120	0x3d98bbb5	0.07457677
121	0xbe0122be	-0.1261091
122	0xbe357e14	-0.17723876
123	0xbdaeb54e	-0.08530675
124	0x3bf11466	0.007357168
125	0x3d36a9be	0.044595473
126	0x3e213b43	0.15745263
127	0xbd1511bd	-0.03639387
128	0xbc63ad29	-0.013896265
129	0x3d76e503	0.060276996
130	0xbd4f877a	-0.05066631
131	0xbd28f140	-0.0412457
132	0xbdf374e2	-0.11887528
133	0xbc94c062	-0.018158142
134	0xbd614d1f	-0.05500519
135	0xbc31c4f3	-0.010850179
136	0x3daeebd6	0.08541076
137	0x3dd9a531	0.10627211
138	0xbbb59a63	-0.005542086
139	0xbc4af198	-0.012386702
140	0x3d50fc72	0.051022
141	0x3dab3e30	0.08361471
142	0xbd5b70a9	-0.053574238
143	0xbd7ca7bd	-0.061683405
144	0x3da2f4a1	0.079568155
145	0x3dfd9271	0.12381447
146	0x3dfd3940	0.12364435
147	0xbded32ec	-0.11581978
148	0x3daeed21	0.085413225
149	0x3d07f6f7	0.03319451
150	0x3d511839	0.05104849
151	0xbc176bf4	-0.009242047
152	0x3df066b8	0.11738342
153	0x3dacb0ae	0.084321365
154	0x3e0af82c	0.13571233
155	0xbd4eb632	-0.050466724
156	0xbe2a4900	-0.1662941
157	0x3dcafcf0	0.09911525
158	0x3e15ff6d	0.14648218
159	0xbdf812a2	-0.12112929
160	0xbe1b6a7c	-0.1517734
161	0x3d25f6d9	0.040518615
162	0x3dd6f4f4	0.1049594
163	0xbca98163	-0.02069158
164	0x3e0b135e	0.13581607
165	0x3d8ca08b	0.06866559
166	0xbbaf8696	-0.00535662
167	0xbbbc96fd	-0.005755304
168	0xbdd32149	-0.10309083
169	0xbd8fbb39	-0.07018132
170	0xbd06c03e	-0.03289818
171	0xbdd4d26d	-0.10391698
172	0x3d21b378	0.039477795
173	0x3d296a7c	0.041361317
174	0x3dc2f075	0.0951852
175	0xbdf411a2	-0.11917426
176	0xbe06a159	-0.13147487
177	0xbd26d9fe	-0.040735237
178	0xbd372422	-0.044712193
179	0xbd3de892	-0.046364374
180	0x3dade40b	0.08490761
181	0x3df52df5	0.11971656
182	0xbe17a842	-0.14810279
183	0x3bfa327b	0.0076354123
184	0xbde6a90e	-0.112627134
185	0x3cc16483	0.023607498
186	0xbdecc4e2	-0.1156099
187	0xbd1f0eba	-0.038832404
188	0x3d992b75	0.07478992
189	0x3dd4b2c6	0.10385661
190	0x3c9543fd	0.018220896
191	0x3d658f48	0.056044847
192	0x3dc48387	0.09595399
193	0xbcf2e044	-0.029647954
194	0x3e15f939	0.14645852
195	0x3e1433fb	0.14472954
196	0xbd005b4b	-0.031337064
197	0xbda67af0	-0.08128917
198	0xbd96951c	-0.07352659
199	0xbcc04311	-0.02346948
200	0xbc235771	-0.009969578
201	0xbdc82fb3	-0.09774723
202	0xbe23bf87	-0.1599103
203	0x3e176cf3	0.14787655
204	0xbd0003f9	-0.03125379
205	0x3d9de01e	0.077087626
206	0xbd07b73c	-0.03313373
207	0xbc43448c	-0.011918198
208	0xbd220c7e	-0.039562695
209	0x3dce68a4	0.10078552
210	0xbe0d93f3	-0.1382597
211	0x3d97a8d4	0.07405248
212	0x3da70f14	0.08157173
213	0x3e188f67	0.14898454
214	0xbd993232	-0.07480277
215	0xbc8ea9cc	-0.01741495
216	0x3e1f2ebd	0.15545173
217	0xbd3930ac	-0.045212433
218	0x3deb147c	0.114785165
219	0xbc387d90	-0.011260405
220	0xbe2f7187	-0.17133151
221	0xbd9e028f	-0.07715332
222	0x3ca53774	0.020168044
223	0xbd2d977f	-0.042380806
224	0xbcfcb882	-0.030849699
225	0x3dc0e617	0.09418886
226	0x3d5a087b	0.053230744
227	0x3e12f62f	0.14351724
228	0xbdc05b50	-0.093924165
229	0xbdc6b517	-0.09702509
230	0xbdbb1f8b	-0.09136876
231	0xbdb4c354	-0.088263184
232	0x3e262203	0.16223912
233	0xbddf8d53	-0.10915627
234	0x3e0414c2	0.12898543
235	0x3d8375fe	0.064189896
236	0x3d84c15c	0.06482193
237	0x3d4d52ae	0.050127678
238	0x3de538fa	0.11192508
239	0x3db21cda	0.08696909
240	0x3dfe8649	0.124279566
241	0x3e04fc60	0.12986898
242	0xbe1f7a83	-0.15574078
243	0x3cf12aee	0.029439416
244	0x3d81571c	0.06315443
245	0x3df9ab28	0.121908486
246	0xbc95326d	-0.018212521
247	0xbd86c71a	-0.06580944
248	0xbdf76021	-0.12078882
249	0xbd9733f3	-0.073829554
250	0x3e13de31	0.14440228
251	0xbb50290b	-0.0031762745
252	0xbddcdc9f	-0.10784268
253	0xbe1b4d8e	-0.15166304
254	0xbda03eda	-0.07824488
255	0x3c6df331	0.014523313

l4.bias f4 [64]
0	0xbd873411	-0.06601728
1	0x3d9a23dd	0.07526372
2	0xbdf81631	-0.12113608
3	0x3cd2d53f	0.02573645
4	0x3d0d83ff	0.03454971
5	0xbcb3f4f7	-0.021967394
6	0x3c184e78	0.009296052
7	0x3e090edd	0.13384576
8	0x3d53c3fc	0.051700577
9	0xbc6c822a	-0.01443533
10	0xbce7f53f	-0.028315185
11	0x3e1869bb	0.14884083
12	0x3e1947a0	0.14968729
13	0xbcc8e2af	-0.024522154
14	0x3e06382d	0.13107367
15	0xbcfc30f5	-0.030785063
16	0xbd08691e	-0.033303373
17	0x3ddfaaec	0.10921273
18	0xbb7b791e	-0.0038371752
19	0x3d854852	0.06507935
20	0x3d839b83	0.06426146
21	0xbd4f20f8	-0.05056855
22	0xbc821f60	-0.015884101
23	0x3d1357aa	0.035972275
24	0x3e162d7c	0.14665788
25	0x3e1074d2	0.14107063
26	0x3d939b95	0.07207409
27	0xbd0f21db	-0.034944396
28	0x3d668a7a	0.056284405
29	0x3da600dc	0.08105633
30	0xbe0ab05a	-0.13543835
31	0x3d84c94e	0.06483708
32	0x3e10d9e4	0.14145619
33	0xbd09e770	-0.03366798
34	0xbda3656d	-0.0797833
35	0x3dd6cd64	0.10488394
36	0x3cc66ec7	0.024222745
37	0x3d791230	0.06080836
38	0x3df76c29	0.12081177
39	0x3d326a8f	0.043558653
40	0xbdfc6d16	-0.12325494
41	0xbd8a8e7a	-0.067654565
42	0xbcb343c8	-0.021882907
43	0x3bd6e542	0.0065580914
44	0x3c481ae1	0.01221344
45	0xbd9ac652	-0.07557358
46	0x3ddbb4be	0.10727833
47	0xbdfaca16	-0.12245576
48	0xbc20319e	-0.009777455
49	0x3db8b618	0.090191066
50	0x3dd9d5e2	0.10636498
51	0xbb599409	-0.0033199808
52	0x3d9c1eda	0.07623072
53	0x3de8352f	0.11338269
54	0xbe1a7516	-0.15083727
55	0x3d1d1664	0.03835143
56	0x3cd00f21	0.025397839
57	0x3debe901	0.11519051
58	0x3d25c55c	0.04047142
59	0xbd9c9ea8	-0.07647449
60	0xbd08ef89	-0.033431564
61	0xbd9297d4	-0.07157865
62	0xbdfe87ed	-0.124282695
63	0xbdabf9c6	-0.0839725

l5.weight f4 [64, 64]
0	0xbe07ad7f	-0.13249777
1	0x3d465738	0.048423022
2	0xbd9c1e12	-0.07622923
3	0x3d0288e0	0.031868815
4	0x3d993747	0.074812464
5	0xbcd54c51	-0.026037367
6	0xbd75f756	-0.06005033
7	0xb99b5288	-0.00029625394
8	0x3dfd44a9	0.123666115
9	0xbd5cdc36	-0.053920947
10	0x3e7eb65e	0.24874255
11	0x3e2236da	0.15841237
12	0x3dc54d36	0.096338674
13	0x3e0c01c1	0.13672544
14	0x3e21bc52	0.15794495
15	0x3e88563c	0.26628292
16	0x3d17777d	0.036979187
17	0xbd2eacf8	-0.042645425
18	0x3d8b137f	0.06790828
19	0x3e1e59b8	0.15463912
20	0x3de47dad	0.11156783
21	0xbc6f5077	-0.014606587
22	0x3cdaf0d3	0.026726162
23	0xbd4b8b8a	-0.04969362
24	0xbda1d61c	-0.07902166
25	0x3e21b48d	0.15791531
26	0x3d54382b	0.05181138
27	0x3da0ed73	0.0785779
28	0xbc606313	-0.013695496
29	0x3d970084	0.07373145
30	0xbd2d81b6	-0.04236003
31	0x3e20dff0	0.15710425
32	0x3d92179c	0.071334094
33	0xbcc13ba3	-0.023588007
34	0x39fbf16d	0.00048054327
35	0xbd62bb5c	-0.05535446
36	0xbd0e0a95	-0.03467806
37	0x3e009c2f	0.1255958
38	0x3c7eb549	0.015546151
39	0x3c95a782	0.01826835
40	0xbda0fa6c	-0.07860264
41	0xbe43ca94	-0.19120246
42	0x3dfac903	0.12245371
43	0x3c27e8ae	0.010248346
44	0x3e60bc6e	0.2194688
45	0x3e2eed88	0.17082798
46	0xbd96a3bc	-0.073554486
47	0x3c2522f2	0.010079132
48	0x3e0203fc	0.12696832
49	0x3d5d0036	0.05395528
50	0x3e0c9f1c	0.1373257
51	0x3d7f83e1	0.06238163
52	0x3d0630ca	0.032761373
53	0x3d911a34	0.07085076
54	0xbd215ed6	-0.039397083
55	0xbd2c2051	-0.042023007
56	0x3dea6328	0.11444694
57	0xbca7d2b3	-0.020486211
58	0xbdc612fc	-0.0967159
59	0xbcdbc826	-0.026828837
60	0x3ddfca97	0.10927313
61	0x3daed0bf	0.08535909
62	0x3cf22ecd	0.029563332
63	0x3e25ed43	0.1620379
64	0xbe3ff155	-0.18744405
65	0x3df5123f	0.11966371
66	0xbd93ef9e	-0.07223438
67	0x3d373c37	0.04473516
68	0xbd096a89	-0.033548865
69	0xbdb45070	-0.08804405
70	0xbdc2397d	-0.09483621
71	0x3e152b86	0.14567384
72	0x3e2882f0	0.16456199
73	0x3da6ea12	0.08150114
74	0xbc41608e	-0.011802806
75	0x3ded60b6	0.11590712
76	0x3e14a5ba	0.14516345
77	0x3d09e01a	0.033660986
78	0x3d8e7056	0.0695502
79	0x3e34f9ac	0.17673367
80	0x3cf483b2	0.029847953
81	0xbcba2e39	-0.022727119
82	0xbb09ce4e	-0.0021027508
83	0x3dd57ade	0.10423826
84	0x3e0ac9db	0.13553564
85	0x3debcc5c	0.11513588
86	0x3d1598d5	0.036522705
87	0xbd08745f	-0.033314105
88	0x3dbe380d	0.092880346
89	0xbcf19e34	-0.029494382
90	0xbd8a105f	-0.06741404
91	0x3e37ebb1	0.17961003
92	0xbdb59cff	-0.08867835
93	0xbc4b6e49	-0.012416431
94	0x3d37e6f5	0.044897992
95	0x3cb4ebf3	0.022085166
96	0x3d85c676	0.06531994
97	0xbd17ef50	-0.03709346
98	0x3d87a773	0.06623735
99	0xbe04456c	-0.12917107
100	0x3db68f8c	0.08914098
101	0x3d7d4808	0.061836272
102	0x3e0c2f3f	0.13689898
103	0xbda6d1df	-0.081454985
104	0xbdaa1d01	-0.08306313
105	0xbd1da3b3	-0.038486194
106	0xbc6344f5	-0.013871421
107	0xbd4b8f15	-0.049697
108	0xbd3d9cfd	-0.046292294
109	0x3cc57468	0.024103358
110	0xbdd1df66	-0.10247688
111	0x3e4830f5	0.19549926
112	0x3d941488	0.072304785
113	0x3ddda219	0.10821933
114	0xbd927833	-0.071518324
115	0x3d021366	0.03175678
116	0xbd87af82	-0.06625272
117	0xbc225892	-0.009908812
118	0xbdfbd9e5	-0.122974195
119	0x3e058203	0.13037877
120	0x3c265b4d	0.010153604
121	0x3da9a8f9	0.08284182
122	0x3be4bb64	0.0069803465
123	0xbd19721b	-0.037462335
124	0x3df4632e	0.119329795
125	0xbda8cea6	-0.0824254
126	0x3d338dc3	0.043836366
127	0xbd53ea3e	-0.051737063
128	0x3e3b365f	0.1828246
129	0xbdc138fc	-0.09434697
130	0x3d8f3131	0.069918044
131	0x3e01f7ab	0.12692134
132	0x3e0ee982	0.13956264
133	0xbdb61f24	-0.08892658
134	0x3e0afbb0	0.13572574
135	0xbdaf55c4	-0.0856128
136	0xbd518367	-0.051150706
137	0x3d7c1c98	0.061550707
138	0xbe169efc	-0.14709085
139	0x3dda4349	0.10657365
140	0x3c4d3cf5	0.01252674
141	0x3da7318d	0.08163748
142	0x3d8195d1	0.06327403
143	0xbc352764	-0.011056755
144	0x3d225120	0.039628148
145	0x3e0bd70f	0.13656257
146	0xbe0afee7	-0.135738
147	0xbd2abb02	-0.04168225
148	0xbdcc88d5	-0.09987036
149	0xbde44f91	-0.111479886
150	0xbd701bb3	-0.058620166
151	0x3d2f19e8	0.042749316
152	0x3e0f03fe	0.13966367
153	0x3dc46115	0.095888294
154	0x3d247e62	0.04015959
155	0xbde10388	-0.10987002
156	0xbb3075e5	-0.002692574
157	0xbe2c2cd3	-0.16813974
158	0x3d0a7522	0.033803113
159	0x3d331f06	0.043730758
160	0xbcb28bcc	-0.021795176
161	0xbdcb7e19	-0.099361606
162	0xbdec7e6b	-0.1154755
163	0xbd1cb2d8	-0.038256496
164	0xbcafcd9e	-0.02146035
165	0x3cbe3c01	0.023221971
166	0x3d25b8c7	0.04045942
167	0xbd89c048	-0.06726128
168	0x3e3807aa	0.17971674
169	0x3e48375b	0.19552366
170	0x3d8692d2	0.065709725
171	0xbe36af70	-0.17840362
172	0xbddfe156	-0.10931651
173	0x3d938ab7	0.07204192
174	0xbd16063f	-0.03662705
175	0xbd829b31	-0.06377257
176	0xbda77d07	-0.08178144
177	0xbd405d4c	-0.046963975
178	0xbc488f8c	-0.0122412555
179	0xbe05c08a	-0.13061729
180	0xbdebd956	-0.11516063
181	0xbd366d1e	-0.044537656
182	0xbda2b965	-0.079455175
183	0x3af91337	0.0019002919
184	0xbe02f013	-0.12786894
185	0x3d44c2a5	0.04803719
186	0x3dfc9087	0.12332254
187	0xbd406c21	-0.04697812
188	0xbd606d2b	-0.05479161
189	0xbdddace1	-0.1082399
190	0xbc8c80a1	-0.017151179
191	0xbdf09f20	-0.11749101
192	0xbdd9f021	-0.10641504
193	0x3e1a405d	0.15063615
194	0x3dedce1d	0.116115786
195	0x3dda2aa3	0.106526636
196	0xbd293dbb	-0.041318636
197	0xbde0c49a	-0.10974999
198	0xbdd4983c	-0.10380599
199	0x3dde0fa0	0.10842824
200	0x3cdcf9ef	0.026974646
201	0x3e157176	0.14594063
202	0x3df75ec4	0.12078622
203	0x3da669cc	0.08125648
204	0xbd20699b	-0.039163213
205	0x3de94607	0.1139031
206	0x3e1d95f7	0.15389238
207	0x3d4c8306	0.04992964
208	0x3e3cc716	0.1843532
209	0x3c79a31c	0.015236642
210	0x3d160cdc	0.036633357
211	0x3e43b35d	0.1911139
212	0x3df1eefa	0.11813159
213	0xbd2af5b4	-0.041738227
214	0xbd48a840	-0.04898858
215	0x3c412cd5	0.011790474
216	0xbd09d5f0	-0.033651292
217	0x3e1a6cc7	0.15080558
218	0x3dc815f4	0.09769812
219	0x3cba3982	0.0227325
220	0x3d0a6d7f	0.03379583
221	0x3ce92bef	0.028463332
222	0xbd88063b	-0.06641813
223	0x3d63d138	0.05561945
224	0x3dd631e8	0.104587376
225	0x3e094991	0.1340697
226	0x3d9a8bf2	0.07546224
227	0x3cebac54	0.028768696
228	0x3dc29ce4	0.09502581
229	0x3cc92d75	0.024557808
230	0x3e02de1b	0.12780039
231	0x3d0d11c0	0.034440756
232	0xbde24309	-0.11047942
233	0xbd6dca27	-0.058054116
234	0xb954c152	-0.00020289913
235	0xbd55aa77	-0.05216452
236	0x3e47653d	0.19472213
237	0x3e337cd1	0.17528082
238	0xbca2e33f	-0.01988375
239	0x3dee17bf	0.11625623
240	0x3d1f80ee	0.038941316
241	0x3dc25965	0.09489707
242	0x3dfe99a6	0.1243165
243	0xbb7edc2d	-0.003888856
244	0xbd41fa14	-0.047357634
245	0x3dfa17dc	0.12211582
246	0x3bcf49e3	0.0063259467
247	0xbdbd5fb0	-0.092467666
248	0x3e56522b	0.20929782
249	0x3db4800f	0.08813488
250	0x3c0c6198	0.00856819
251	0xbe20bf20	-0.15697908
252	0x3da9e407	0.08295446
253	0xbd92feba	-0.071774915
254	0xbd299f89	-0.04141191
255	0x3d19e975	0.037576158

l5.bias f4 [64]
0	0x3dbb45d7	0.0914418
1	0x3dd37f89	0.1032706
2	0xbc93c98a	-0.018040437
3	0xbdbf9df4	-0.09356299
4	0xbdfd4773	-0.123671435
5	0x3d2eb8ac	0.042656586
6	0x3e1962bf	0.14979075
7	0xbd18f033	-0.037338447
8	0xbd01719d	-0.03160249
9	0xbd8ecc24	-0.069725305
10	0xbbf89fae	-0.0075873947
11	0xbd93b80d	-0.07212839
12	0xbd0ddc89	-0.034634147
13	0xba130873	-0.0005608864
14	0x3d39cc28	0.045360714
15	0xbb8bc921	-0.00426592
16	0xbb8b76ad	-0.0042560906
17	0x3d936010	0.07196057
18	0x3dcb1b03	0.099172615
19	0x3e1bc96a	0.15213552
20	0xbd58d289	-0.052935157
21	0xbcca4f57	-0.024696035
22	0x3d4e3a95	0.050348837
23	0xbd036a8f	-0.032084044
24	0x3d0ef755	0.034903843
25	0x3d6151a6	0.055009507
26	0xbc6ba02e	-0.0143814515
27	0x3de09013	0.1096498
28	0xbd954224	-0.07288006
29	0x3db91ec9	0.09039075
30	0x3c428414	0.01187231
31	0x3d9b7126	0.07589941
32	0x3d7ffeaa	0.062498726
33	0x3d38777d	0.045035828
34	0xbd158f8e	-0.036513858
35	0x3e05cd17	0.13066517
36	0x3e00b948	0.12570679
37	0x3cd54844	0.026035435
38	0x3de292e2	0.11063172
39	0x3c9e79a2	0.019345108
40	0x3dd20d6a	0.10256465
41	0x3c9cb3f0	0.01912877
42	0x3c39f87a	0.011350745
43	0xbdd2075c	-0.1025531
44	0x3db582da	0.088628486
45	0x3d79257b	0.06082676
46	0x3dbce845	0.092239894
47	0x3a32a1a4	0.00068142475
48	0x3d72b7ea	0.059257425
49	0x3de1bc9a	0.11022301
50	0x3ca246a9	0.019809084
51	0x3b31603d	0.002706542
52	0x3b8077ed	0.0039205463
53	0xbd2ec6ce	-0.042670064
54	0xbcf17535	-0.029474834
55	0xbe0370e5	-0.12836035
56	0xbd10a752	-0.03531582
57	0xbc53a1b2	-0.012916969
58	0x3d92ca77	0.07167523
59	0x3dec206b	0.11529621
60	0x3d933200	0.07187271
61	0x3c2035ac	0.009778421
62	0x3d062dca	0.03275851
63	0xbd43289b	-0.047646146

l6.weight f4 [1, 64]
0	0xbd948d7d	-0.07253549
1	0xbdecb2aa	-0.11557515
2	0x3e92480b	0.2857059
3	0xbe0e23d7	-0.1388086
4	0x3db4a228	0.08819991
5	0xbdd00d72	-0.101588145
6	0xbde9e366	-0.11420326
7	0xbe025ef3	-0.12731533
8	0xbdfbf0a1	-0.12301756
9	0xbe77e442	-0.24208167
10	0xbe34f2e9	-0.17670788
11	0xbdf15c08	-0.11785132
12	0x3d8066aa	0.062695816
13	0xbdf370a0	-0.11886716
14	0xbe1bbff4	-0.15209943
15	0xbe3e65ff	-0.18593596
16	0x3e5f426f	0.21802686
17	0x3debd433	0.11515083
18	0xbddcc086	-0.107789084
19	0xbd67b9a1	-0.056573514
20	0x3df7acae	0.12093483
21	0x3e08dc63	0.13365321
22	0x3e2766b3	0.1634777
23	0x3e7d1af7	0.24717318
24	0x3e10497f	0.14090537
25	0x3e4261ec	0.18982667
26	0x3dde05ab	0.10840925
27	0xbd8d6aef	-0.069051616
28	0x3e12afab	0.14324825
29	0xbe1e681c	-0.15469402
30	0xbe1afc79	-0.15135373
31	0x3dc8a93f	0.09797906
32	0xbdac4323	-0.08411243
33	0xbd7354f3	-0.059407186
34	0xbe70602b	-0.23474185
35	0xbdd2b8db	-0.10289165
36	0xbd846c4f	-0.06465971
37	0x3e4d3081	0.20038034
38	0xbd3c45c5	-0.045964975
39	0x3e20e966	0.15714034
40	0x3d9a98f4	0.07548705
41	0x3df2c1f8	0.11853403
42	0x3da037af	0.07823121
43	0x3e1840f3	0.14868526
44	0x3d9a3fab	0.07531675
45	0x3dd7f6a2	0.10545088
46	0xbdb31d0e	-0.08745776
47	0x3e124737	0.14284979
48	0xbdf9a73f	-0.12190103
49	0x3d551015	0.05201729
50	0x3e0a187f	0.13485907
51	0x3de6751a	0.11252804
52	0xbe24aa5e	-0.16080615
53	0x3e0d38f5	0.13791259
54	0x3d895ad2	0.06706776
55	0x3dc4bb04	0.09605983
56	0x3e3ff850	0.18747067
57	0x3e61b647	0.2204219
58	0x3dda9e2c	0.106747
59	0x3d931be4	0.07183054
60	0x3d459939	0.048241828
61	0x3ddc7457	0.107643776
62	0xbe40fc29	-0.18846191
63	0xbe188d53	-0.14897661
