current_algos/LSTM_TD3/LSTM_TD3_Agent_actor_weights.pth (torch, 213849 bytes, 13 tensors)

curr_fe_dense1.weight f4 [64, 50]
-0.027912097 -0.1884233 -0.009870834 0.13732007 -0.12605302 -0.13487549 0.043051165 -0.08922926
0.13342746 -0.09682522 0.10929839 -0.041669764 0.0539535 -0.0017033315 0.040412407 -0.16582698
0.16025096 -0.1157612 -0.036323782 -0.017595924 -0.139615 -0.20500389 -0.092043936 -0.19395263
0.32446942 0.060551208 -0.30691835 -0.36087346 0.024655396 -0.046144634 -0.01903157 0.20431228
0.2781625 -0.22432142 -0.1095126 -0.23634933 -0.007403584 0.018435191 0.094023824 0.055065442
-0.14654401 -0.28430024 -0.089575246 -0.09914077 0.15795489 0.3239916 0.09729531 0.13850473
-0.03691046 -0.26195964 -0.021369718 0.07656176 -0.09900595 -0.16445233 0.30221295 0.27757367
-0.022687618 0.20539466 -0.64870685 -0.3036927 -0.34587076 -0.18003869 0.061948784 -0.22430965
0.040551223 -0.11929552 0.07550454 0.034373403 -0.11416815 -0.02413261 0.2705483 0.21064004
0.12880017 -0.13451178 -0.07425052 -0.036771778 0.27360442 0.64741266 0.0038723967 0.14887272
0.27631995 0.092030644 -0.15759611 0.19739345 0.32615662 0.0638931 -0.15460505 0.11160216
0.14830923 0.23820579 0.14852619 0.045057606 -0.103093855 -0.017705947 -0.028864553 -0.19292562
-0.091794886 0.08754343 -0.18336058 0.05248314 -0.042742368 0.04818287 -0.08518671 0.14039907
-0.18708341 -0.00918163 0.31109673 -0.0534632 -0.016429286 -0.12654817 0.10108053 -0.06323062
0.056982458 0.045380346 -0.06196243 -0.09401334 -0.09065436 -0.16556835 0.1394478 0.30900478
-0.31462866 -0.1096634 -0.07226908 -0.1005251 0.108457655 0.105337545 -0.16273856 -0.21306917
-0.08668189 0.19777994 0.13978595 0.09174863 0.08695745 -0.16454473 0.01314462 -0.13193361
-0.11695648 -0.15755796 0.0127777755 -0.14014627 0.045523927 -0.0011130664 -0.0028014232 0.12916227
-0.06207409 0.0046067038 0.24459997 0.08567876 0.12654677 0.1481691 -0.033836804 -0.07129765
0.12920743 0.22923915 -0.03359019 0.06934802 -0.023103433 -0.06849966 -0.20863192 0.28127483
0.2707295 0.23093316 0.01218946 -0.1742017 0.041436914 0.08665574 -0.10378454 -0.30754107
-0.08945998 0.05958788 0.18191755 0.14600918 -0.19009449 -0.12907209 -0.07725112 -0.035749424
-0.106709324 -0.3826447 -0.086845376 -0.18731982 -0.059312094 -0.1509423 -0.2258045 -0.12306029
-0.23270084 -0.37909114 0.08671079 0.2261692 0.021553893 -0.0007962203 -0.060166743 0.06022248
0.13760968 -0.087005585 -0.14263476 0.20106572 -0.18411455 -0.0034682096 0.07498786 -0.005575181
-0.00041682215 -0.04695031 -0.1064229 -0.27459344 -0.14955154 -0.066589616 0.090114154 0.01964648
-0.080373205 -0.43423644 0.22661798 -0.22317979 -0.24281178 0.05258693 0.22639655 0.12227852
0.21208328 0.13891801 0.07635479 0.037810117 0.24795002 0.4070784 0.23155123 0.2360741
0.22080147 0.011924254 0.012336622 0.04617615 0.20393276 -0.012827357 -0.19319718 -0.056836504
-0.40342692 -0.33309957 -0.14287505 -0.25086233 -0.07315156 -0.018590396 0.16347931 0.049354598
0.102597676 0.108329736 0.09825074 0.2508366 0.0006143965 -0.13868321 0.2126631 0.0026629295
-0.0044489712 0.089726076 0.022727434 -0.11797348 -0.020204121 -0.35394368 -0.6069516 -0.35861588
00000000: e9a7 e4bc 0af2 40be 47b9 21bc a29d 0c3e
00000010: 0b14 01be cd1c 0abe 6b56 303d d5bd b6bd
00000020: 35a1 083e 4d4c c6bd d6d7 df3d eaad 2abd
00000030: 58fe 5c3d 5242 dfba 7b87 253d 8cce 29be
00000040: d418 243e 3514 edbd 3fc8 14bd 5425 90bc
00000050: 3cf7 0ebe 8aec 51be 8881 bcbd 859b 46be
00000060: db20 a63e 8b04 783d 6724 9dbe 68c4 b8be
00000070: 1dfa c93c 2802 3dbd 18e8 9bbc 3d37 513e
00000080: 516b 8e3e 84b4 65be 2448 e0bd 8f05 72be
00000090: c499 f2bb 6605 973c 908f c03d 4d8c 613d
000000a0: a20f 16be cd8f 91be 3a73 b7bd 510a cbbd
000000b0: edbe 213e 3ae2 a53e c342 c73d 2fd4 0d3e
000000c0: 6c2f 17bd 931f 86be 8c0f afbc 69cc 9c3d
000000d0: a2c3 cabd 3166 28be a8bb 9a3e 231e 8e3e
000000e0: 62db b9bc fa52 523e a711 26bf 9c7d 9bbe
000000f0: f915 b1be 105c 38be 02be 7d3d 6eb1 65be
00000100: 0a19 263d 3651 f4bd 20a2 9a3d 20cb 0c3d
00000110: fed0 e9bd c0b1 c5bc 4f85 8a3e 06b2 573e
00000120: 31e4 033e 75bd 09be a810 98bd 019e 16bd
00000130: e115 8c3e d6bc 253f 09c8 7d3b 1772 183e
00000140: cf79 8d3e 907a bc3d e060 21be 8221 4a3e
00000150: 00fe a63e 63da 823d c950 1ebe ac8f e43d
00000160: 60de 173e 38ec 733e 4017 183e 538e 383d
00000170: df22 d3bd 100c 91bc 5b75 ecbc 4b8e 45be
00000180: f5fe bbbd f849 b33d e0c2 3bbe 90f8 563d
00000190: 9f12 2fbd 675b 453d 5f76 aebd c6c4 0f3e
000001a0: cb92 3fbe 8c6e 16bc 1248 9f3e 3afc 5abd
000001b0: b696 86bc d895 01be 4f03 cf3d 0e7f 81bd
000001c0: 7066 693d bee0 393d 51cc 7dbd 118a c0bd
000001d0: fea8 b9bd c08a 29be 67cb 0e3e e035 9e3e
000001e0: 0217 a1be 3497 e0bd d001 94bd 1be0 cdbd
000001f0: 0c1f de3d 36bb d73d f0a4 26be ce2e 5abe
00000200: 4686 b1bd d386 4a3e 0c24 0f3e b5e6 bb3d
00000210: bf16 b23d 6a7e 28be 885c 573c 9b19 07be
00000220: e186 efbd e056 21be e059 513c 8182 0fbe
00000230: 4c77 3a3d 50e4 91ba 1598 37bb 1d43 043e
00000240: 6741 7ebd d5f3 963b 6a78 7a3e 5978 af3d
00000250: 7a95 013e a4b9 173e 7698 0abd 8104 92bd
00000260: f44e 043e abbd 6a3e de95 09bd 5606 8e3d
00000270: 6943 bdbc 8d49 8cbd 9ba3 55be 4103 903e
00000280: 0f9d 8a3e be79 6c3e 4db6 473c ee61 32be
00000290: c1b9 293d 9178 b13d fd8c d4bd 0676 9dbe
000002a0: cb36 b7bd 6c12 743d 9848 3a3e 6e83 153e
000002b0: 21a8 42be 792b 04be d635 9ebd fd6d 12bd
000002c0: 6b8a dabd 02ea c3be fddb b1bd c4d0 3fbe
000002d0: 3df1 72bd 9e90 1abe 4b39 67be 0907 fcbd
000002e0: 2149 6ebe 3c18 c2be 6d95 b13d e698 673e
000002f0: ca91 b03c 71b9 50ba 6771 76bd d9ab 763d
00000300: 8de9 0c3e fc2f b2bd d90e 12be 2ce4 4d3e
00000310: 8688 3cbe e74a 63bb 3c93 993d 02b0 b6bb
00000320: ec88 dab9 f84e 40bd 40f4 d9bd 8397 8cbe
00000330: 0a24 19be 2360 88bd c58d b83d a8f1 a03c
00000340: b59a a4bd 3d54 debe 8b0e 683e 3e89 64be
00000350: a7a3 78be 6565 573d 7fd4 673e 296d fa3d
00000360: 5c2c 593e 8640 0e3e e65f 9c3d c8de 1a3d
00000370: 9ce6 7d3e 946c d03e c41b 6d3e 69bd 713e
00000380: c819 623e f25d 433c 8b1f 4a3c 3423 3d3d
00000390: c0d3 503e d629 52bc 7bd5 45be 65cd 68bd
000003a0: f98d cebe 078c aabe d64d 12be 0771 80be
000003b0: 7cd0 95bd e34a 98bc 1f67 273e 0c28 4a3d
000003c0: bb1e d23d fbdb dd3d af37 c93d a86d 803e
000003d0: 730f 213a f902 0ebe 5bc4 593e 8b84 2e3b
000003e0: adc8 91bb 4ec2 b73d e22e ba3c 149c f1bd
000003f0: 1d83 a5bc 1b38 b5be 2e61 1bbf 809c b7be

curr_fe_dense1.bias f4 [64]
-0.06825244 -0.12140264 0.3351734 0.1445088 -0.18029839 -0.0018977844 0.08159012 -0.08391229
-0.17901711 0.2083295 0.1977004 0.0396538 -0.0054761507 -0.071202606 0.0060631977 0.0463657
0.12413068 0.0034928757 -0.08622563 0.01567026 0.100862175 -0.030894667 0.09242834 -0.12677601
-0.03534804 -0.08379707 -0.054989308 -0.00023283952 -0.10049218 -0.034701053 0.06766292 0.11542015
0.0711098 0.09732126 -0.1856315 -0.005759087 -0.009507825 -0.03516609 -0.1056849 0.124407895
0.085427426 -0.044707917 0.0071062576 -0.30501238 0.04042597 -0.11756187 -0.33553353 0.0074250153
0.03474312 0.006702642 0.22048624 -0.10330314 -0.0055108937 -0.113937974 -0.2666771 -0.06340757
-0.017170502 0.24094771 -0.11279947 -0.15070449 -0.22474524 0.066392265 -0.104986176 0.07763235
00000000: efc7 8bbd f3a1 f8bd d99b ab3e 1dfa 133e
00000010: 24a0 38be 14bf f8ba b918 a73d 35da abbd
00000020: 4350 37be 5454 553e f971 4a3e 066c 223d
00000030: 4871 b3bb acd2 91bd caad c63b f6e9 3d3d
00000040: 3a38 fe3d bbe8 643b 1097 b0bd eb5e 803c
00000050: d490 ce3d d016 fdbc 124b bd3d 92d1 01be
00000060: 1bc9 10bd cc9d abbd 783c 61bd 6226 74b9
00000070: d8ce cdbd b122 0ebd db92 8a3d 6661 ec3d
00000080: 04a2 913d 5e50 c73d 2f16 3ebe b9b6 bcbb
00000090: b5c6 1bbc 510a 10bd 5371 d8bd 91c9 fe3d
000000a0: 93f4 ae3d a61f 37bd 9cdb e83b 952a 9cbe
000000b0: b495 253d 47c4 f0bd 0dcb abbe 8b4d f33b
000000c0: cd4e 0e3d d6a1 db3b 25c7 613e 9990 d3bd
000000d0: ba94 b4bb 5058 e9bd e789 88be d4db 81bd
000000e0: 27a9 8cbc ffba 763e 6903 e7bd 4752 1abe
000000f0: 9e23 66be abf8 873d fe02 d7bd b6fd 9e3d

curr_fe_dense2.weight f4 [64, 64]
0.0057587903 -0.0097606415 -0.054289475 -0.09526354 -0.18959618 0.1985021 -0.07245843 -0.13722765
-0.06458554 -0.4675959 -0.012824933 0.18561217 0.05811951 -0.059792783 0.09531455 0.06200318
0.14459604 0.049012613 -0.085876875 0.20145902 -0.19400793 -0.55061215 0.07152243 -0.03068811
-0.57810223 0.0899737 0.16490905 0.014529599 0.034536995 0.03795392 0.0074685225 -0.4010735
0.11963104 -0.014002143 0.1944896 -0.011909431 -0.14625819 0.26595357 -0.103991695 -0.084595665
-0.2795767 -0.08078318 0.05431036 -0.13044427 0.31461933 -0.27221453 0.2616074 -0.003947638
0.1946527 -0.14820799 0.120732054 -0.18020482 -0.029836757 0.060888477 0.06794882 -0.40752813
0.23122902 0.004858988 0.20904593 0.22876932 -0.13290213 -0.065424934 0.1503056 -0.12467423
-0.16545448 -0.03635033 0.09977725 0.028048927 0.074504256 -0.26503396 0.0504479 -0.054435734
0.04475154 -0.014608151 0.18765968 -0.04112026 0.03371489 -0.17070046 -0.09207895 0.052064847
0.049292456 -0.21968137 0.09860266 0.060928546 0.08481401 0.066016115 0.102021545 0.2847335
-0.029199937 -0.09841662 -0.019621091 0.18332972 -0.17357458 0.015875498 -0.030003091 0.058106925
0.007807747 0.0122424355 -0.018593756 -0.06629964 0.062217366 -0.23669802 0.0067181927 -0.100970104
-0.12599511 0.15583123 -0.0075769275 0.16481112 0.1712414 -0.120876506 0.036767527 0.011289619
-0.112757966 -0.17158748 -0.08312139 0.06183099 0.12364292 0.0904918 -0.06442979 -0.15602078
0.19257526 -0.113164134 0.110768296 -0.09081344 -0.15390617 -0.026313905 0.035823558 0.08273861
-0.29691085 -0.1500068 0.18747427 0.0024374516 -0.063418716 -0.0771255 0.15416804 -0.37813672
-0.12208591 -0.020008571 0.09044856 -0.26247123 0.16451497 -0.29768556 -0.0031491297 0.032709695
0.034553036 -0.1151854 0.059010163 0.33619964 -0.043896694 0.022120181 0.12782553 0.2379136
-0.06184402 -0.20576748 -0.1220137 -0.17267261 -0.02934382 0.2346583 -0.04166573 0.20678021
0.060088005 -0.2933214 -0.25680763 -0.018142257 0.14497097 -0.42809469 0.1847542 -0.26778385
0.0065372214 0.091291875 -0.262392 -0.13496126 -0.14455952 -0.47521976 0.04687241 0.17509945
-0.16248699 0.046395756 0.14694676 -0.35109186 -0.1986256 -0.10387389 0.0737534 -0.035629146
-0.1738306 0.014181621 -0.2801715 -0.10482077 0.1905652 -0.42459986 -0.2183965 0.06877855
0.074879766 -0.05177488 -0.054319512 -0.06470534 -0.04515922 -0.10952792 -0.33030286 -0.025468932
0.24487226 0.10623281 -0.39043045 0.036630277 -0.18182082 0.1382831 0.0339773 -0.14352702
-0.16485089 -0.015156694 -0.110626854 -0.1998217 0.051327143 0.3323704 -0.1311903 0.010869189
-0.19723625 0.060807258 0.15870893 0.13875961 0.012699849 0.094819516 -0.3283098 -0.0093109915
0.16212468 -0.0707406 0.15269141 0.031392734 -0.13001032 0.1630761 -0.24417973 0.13487208
0.022422986 0.08146188 0.12439026 -0.041872706 0.13952453 0.0721639 0.21889386 -0.06720886
0.032459173 0.06173228 0.116303824 -0.06734747 0.08741467 0.22832322 -0.06793123 -0.32229957
0.2105689 0.18887621 0.097772785 0.03728973 -0.14042524 0.12994865 0.39181468 0.028750237
00000000: 3cb4 bc3b 19eb 1fbc a45e 5ebd 8819 c3bd
00000010: 8025 42be 2244 4b3e 1665 94bd 6885 0cbe
00000020: 6c45 84bd bb68 efbe ab1f 52bc 1e11 3e3e
00000030: b90e 6e3d 47e9 74bd 4634 c33d 0cf7 7d3d
00000040: fc10 143e 73c1 483d 37e0 afbd 464b 4e3e
00000050: 04aa 46be ebf4 0cbf 5a7a 923d a265 fbbc
00000060: 82fe 13bf 2244 b83d ebdd 283e 8e0d 6e3c
00000070: aa76 0d3d 9275 1b3d 82ba f43b 8159 cdbe
00000080: 1e01 f53d 3f69 65bc 4828 473e c61f 43bc
00000090: b5c4 15be 112b 883e 99f9 d4bd 7e40 adbd
000000a0: ad24 8fbe a771 a5bd 8a74 5e3d 2f93 05be
000000b0: c915 a13e b45f 8bbe 68f1 853e 305b 81bb
000000c0: 0a53 473e d6c3 17be 5e42 f73d 9d87 38be
000000d0: 376c f4bc 3266 793d c028 8b3d 87a7 d0be
000000e0: 4dc7 6c3e 2538 9f3b 2310 563e 8142 6a3e
000000f0: 7f17 08be 82fd 85bd b6e9 193e 3455 ffbd
00000100: e66c 29be 15e4 14bd 0458 cc3d ddc6 e53c
00000110: b095 983d 88b2 87be 75a2 4e3d 01f8 5ebd
00000120: 644d 373d 0757 6fbc dc29 403e b86d 28bd
00000130: a018 0a3d 1acc 2ebe e393 bcbd f341 553d
00000140: e3e6 493d 27f4 60be 31f0 c93d 3690 793d
00000150: f8b2 ad3d 7533 873d acf0 d03d 97c8 913e
00000160: b534 efbc a78e c9bd 69bc a0bc c9ba 3b3e
00000170: 89bd 31be 550d 823c 0bc9 f5bc 8701 6e3d
00000180: 21d8 ff3b 7f94 483c ef51 98bc 1bc8 87bd
00000190: a3d7 7e3d f760 72be 4924 dc3b 6ac9 cebd
000001a0: dd04 01be 3992 1f3e e047 f8bb 3fc4 283e
000001b0: e859 2f3e 1a8e f7bd 8c99 163d 18f8 383c
000001c0: a6ed e6bd a1b4 2fbe 8c3b aabd 7e42 7d3d
000001d0: 8038 fd3d c453 b93d c4f3 83bd e9c3 1fbe
000001e0: 7332 453e 99c2 e7bd 7dda e23d 66fc b9bd
000001f0: 9499 1dbe 4290 d7bc b9bb 123d dc72 a93d
00000200: b304 98be 629b 19be 41f9 3f3e a7bd 1f3b
00000210: ace1 81bd f9f3 9dbd 3ade 1d3e 239b c1be
00000220: 2d08 fabd 04e9 a3bc 183d b93d a162 86be
00000230: 9d76 283e 3e6a 98be a161 4ebb 9afa 053d
00000240: 7c87 0d3d 53e6 ebbd a4b4 713d 5c22 ac3e
00000250: 05cd 33bd 6235 b53c b2e4 023e 9f9f 733e
00000260: 2850 7dbd b6b4 52be 52e2 f9bd 17d1 30be
00000270: 7362 f0bc 444a 703e afa9 2abd 31be 533e
00000280: d71e 763d 392e 96be 4a7c 83be 129f 94bc
00000290: 4573 143e 3a2f dbbe 3430 3d3e f71a 89be
000002a0: 3036 d63b 3cf7 ba3d 3f58 86be 4933 0abe
000002b0: 6907 14be 0150 f3be 49fd 3f3d 454d 333e
000002c0: fd62 26be 7a09 3e3d 3679 163e 50c2 b3be
000002d0: 8264 4bbe d6bb d4bd 060c 973d deef 11bd
000002e0: a600 32be 085a 683c a472 8fbe 46ac d6bd
000002f0: 8623 433e 2765 d9be 55a3 5fbe c5db 8c3d
00000300: 905a 993d e611 54bd 237e 5ebd 3c84 84bd
00000310: e0f8 38bd 2d50 e0bd 751d a9be 39a4 d0bc
00000320: cbbf 7a3e 9690 d93d 80e6 c7be a109 163d
00000330: 3d2f 3abe 169a 0d3e c82b 0b3d bff8 12be
00000340: acce 28be c853 78bc 5590 e2bd 0f9e 4cbe
00000350: 693c 523d 742c aa3e c056 06be af14 323c
00000360: 4df8 49be 0811 793d 9884 223e 0017 0e3e
00000370: 0713 503c bc30 c23d 3918 a8be 218d 18bc
00000380: 0304 263e 73e0 90bd 235b 1c3e ab95 003d
00000390: 6d21 05be 6cfd 263e 400a 7abe e81b 0a3e
000003a0: 69b0 b73c 7cd5 a63d 52c0 fe3d b782 2bbd
000003b0: 85df 0e3e abca 933d b625 603e cca4 89bd
000003c0: e9f3 043d fdda 7c3d b330 ee3d 78ed 89bd
000003d0: 7606 b33d 90cd 693e 871f 8bbd 7304 a5be
000003e0: 609f 573e c468 413e 193d c83d 1ebd 183d
000003f0: a2cb 0fbe 4211 053e ef9b c83e 9e85 eb3c

curr_fe_dense2.bias f4 [64]
0.047267616 0.12170596 0.017429668 0.14920118 -0.049319576 -0.046483837 -0.124471486 0.008916185
-0.008264072 0.10672133 0.04248803 -0.072018415 -0.102991596 0.033424973 0.025163533 0.031036722
-0.0523773 0.08350892 0.15079524 0.084333 -0.038180787 -0.21501175 -0.072217986 0.09268139
0.08657346 0.07262996 -0.0026739158 0.060001466 -0.21011998 0.0060726884 -0.027611466 0.03204607
-0.05018676 0.23794532 -0.13070713 -0.12676422 0.10169787 -0.09399046 -0.08050804 -0.039810833
0.032021195 -0.043079417 0.12752064 0.10542999 0.07842953 -0.24255045 0.013675449 -0.0039000702
-0.00030475907 -0.07841254 0.18811558 -0.047099225 0.13090387 -0.041472062 -0.016028248 -0.06372365
-0.064139925 -0.0406754 0.04591642 0.05271745 -0.026398731 -0.024338778 0.08643048 -0.13683805
00000000: b09b 413d f940 f93d aac8 8e3c 32c8 183e
00000010: 5303 4abd d665 3ebd e8ea febd 3115 123c
00000020: 0866 07bc b690 da3d ee07 2e3d 647e 93bd
00000030: 42ed d2bd a0e8 083d c123 ce3c b940 fe3c
00000040: 9489 56bd ba06 ab3d 116a 1a3e c8b6 ac3d
00000050: 7563 1cbd 0a2c 5cbe 06e7 93bd becf bd3d
00000060: 6d4d b13d 04bf 943d dd3c 2fbb 19c4 753d
00000070: b129 57be 67fd c63b 7131 e2bc bd42 033d
00000080: a290 4dbd f0a7 733e 17d8 05be 7bce 01be
00000090: f946 d03d 127e c0bd 66e1 a4bd af10 23bd
000000a0: a828 033d 0b74 30bd c594 023e aeeb d73d
000000b0: a99f a03d 255f 78be fe0e 603c 5298 7fbb
000000c0: 12c8 9fb9 c196 a0bd 5fa1 403e 1eeb 40bd
000000d0: aa0b 063e 9cde 29bd ac4d 83bc 8c81 82bd
000000e0: cb5b 83bd 409b 26bd db12 3c3d 41ee 573d
000000f0: 2742 d8bc 1e62 c7bc 7702 b13d 461f 0cbe

mem_dense.weight f4 [64, 50]
-0.010566719 -0.11076514 0.251488 -0.12664445 -0.27625662 0.09053799 0.24701683 0.10453984
0.2269521 -0.28841668 -0.017264983 0.103720196 -0.13399085 0.089093976 -0.09304598 -0.119707175
-0.30360764 -0.15489992 -0.3435143 -0.07450406 -0.24677901 0.07931178 -0.21376431 -0.21780735
-0.027194781 -0.11790063 -0.0014050559 0.25200146 0.10327965 0.22931641 0.13484126 -0.02769261
-0.32300976 -0.20639281 0.20907497 -0.007404127 -0.01063485 0.20988001 -0.15690543 -0.032281302
-0.037146 0.12128832 0.011155286 -0.005591323 0.19673136 0.032963544 0.12705238 -0.06247746
-0.17833142 -0.09979248 -0.05384259 -0.0024302215 -0.13831353 -0.03687989 0.21387424 0.22681822
0.09991543 -0.10741095 0.26888588 0.122103676 0.22217622 0.27345908 0.05916533 0.018642055
0.10902313 0.123625636 -0.2930818 -0.20905675 -0.16066939 0.13948761 -0.13255116 0.13366845
-0.34316397 -0.19464804 -0.004024558 0.07974066 -0.07237893 0.39400968 0.07414745 0.024005657
0.08523511 0.2467441 0.111153185 0.25109714 -0.21926726 0.08750894 -0.25038892 -0.086752355
-0.27031484 0.11451582 0.21782805 0.16131094 0.1868419 -0.09672316 0.099356905 0.10160941
0.0024923235 0.14670658 -0.049959604 0.14877845 0.01052308 0.10012285 0.29370114 0.28899065
0.6062414 0.101595566 -0.2035056 -0.10711831 0.028028434 -0.103965424 0.09698238 0.2182056
0.06911656 0.18900253 -0.0114159435 -0.035994697 -0.4463805 -0.48073944 -0.18212868 0.075774685
-0.06740417 -0.11906998 -0.07009327 0.11590176 -0.02867552 0.086380556 -0.23062061 -0.37262484
-0.26563045 -0.23370673 -0.31876782 -0.17391738 -0.085697375 -0.082397476 0.04379187 -0.005769624
-0.212908 0.077879466 -0.3378155 -0.20898923 0.07843993 0.19841467 -0.027102329 -0.20328833
-0.13234758 -0.05508948 -0.028375702 -0.12065415 -0.041591484 -0.10788795 -0.035411146 0.06269131
-0.16769543 -0.06962448 -0.40612072 -0.18405348 -0.10175675 0.010712404 0.2682018 0.206497
0.41434878 0.16410547 -0.05175203 0.074982494 0.055446733 0.18170528 0.098821074 -0.04463197
0.055865288 -0.33320358 0.15895014 -0.23550367 0.01651224 -0.097803704 0.010103593 -0.20205823
0.16227077 0.29916432 0.08073724 0.1419595 -0.07532453 0.19048154 -0.258751 -0.6755987
0.10286416 -0.34573326 0.12173536 0.10475288 0.17725143 0.20737408 -0.036362745 -0.019178456
-0.05673885 0.16438368 0.03008718 0.41139752 0.15105104 0.010115041 0.039970614 -0.01972015
-0.016090557 -0.041451037 0.10069818 0.07765833 -0.0137364445 0.03847663 -0.027053677 -0.111062445
-0.5610246 -1.0499758 -0.461748 -0.21792312 -0.01753062 -0.14869024 0.43455136 0.3874863
0.03455515 -0.114204496 0.16172099 -0.02551291 -0.10095752 0.45874852 0.22640556 0.1189876
0.008589996 0.10015845 0.05272482 0.13833125 0.1530297 -0.107971035 0.15454973 0.03076167
0.17982271 -0.41307515 -0.31386563 -0.21074916 -0.2939317 0.3391315 -0.02837817 -0.03527312
-0.069923066 0.006580489 -0.06822401 -0.01837739 0.2624417 -0.1346598 -0.105011635 0.036067374
-0.13423695 -0.026840752 -0.009723534 -0.10698767 -0.10280095 0.1715924 -0.091137536 0.0021209347
00000000: 0820 2dbc d5d8 e2bd 09c3 803e 15af 01be
00000010: 8271 8dbe fb6b b93d fbf1 7c3e fc18 d63d
00000020: 2266 683e 5aab 93be 4b6f 8dbc 416b d43d
00000030: e634 09be e776 b63d e48e bebd 0929 f5bd
00000040: 7672 9bbe 169e 1ebe 1be1 afbe 9695 98bd
00000050: a3b3 7cbe 376e a23d 08e5 5abe e408 5fbe
00000060: 97c7 debc e375 f1bd da29 b8ba 5606 813e
00000070: 4884 d33d ecd1 6a3e d413 0a3e 9ddb e2bc
00000080: 8961 a5be a358 53be c017 563e 529e f2bb
00000090: cb3d 2ebc c9ea 563e d1ab 20be 6639 04bd
000000a0: 6726 18bd 0366 f83d a9c4 363c 6b37 b7bb
000000b0: f273 493e c804 073d 051a 023e 5de8 7fbd
000000c0: 839c 36be 0060 ccbd 0c8a 5cbd 5a44 1fbb
000000d0: 10a2 0dbe 5e0f 17bd d901 5b3e 0943 683e
000000e0: 76a0 cc3d 46fa dbbd 69ab 893e 7e11 fa3d
000000f0: 2a82 633e d402 8c3e 5857 723d 39b7 983c
00000100: 8547 df3d 702f fd3d d10e 96be f912 56be
00000110: 8486 24be d7d5 0e3e 7ebb 07be 62e0 083e
00000120: 30b3 afbe d151 47be 70e0 83bb 124f a33d
00000130: 683b 94bd a3bb c93e 9eda 973d 83a7 c43c
00000140: bf8f ae3d 7caa 7c3e 48a4 e33d ce8f 803e
00000150: 9987 60be e337 b33d fa32 80be 38ab b1bd
00000160: b566 8abe 4587 ea3d 510e 5f3e b22e 253e
00000170: 7c53 3f3e cb16 c6bd a27b cb3d 9818 d03d
00000180: 4056 233b 403a 163e 71a2 4cbd 6159 183e
00000190: ff68 2c3c 350d cd3d ff5f 963e 95f6 933e
000001a0: a332 1b3f 5611 d03d c663 50be d860 dbbd
000001b0: e39b e53c d3eb d4bd b39e c63d 4a71 5f3e
000001c0: fc8c 8d3d e189 413e f009 3bbc 2d6f 13bd
000001d0: fc8b e4be 7b23 f6be f17f 3abe c22f 9b3d
000001e0: 330b 8abd f6da f3bd 0f8d 8fbd e75d ed3d
000001f0: ede8 eabc 4ae8 b03d cf27 6cbe afc8 bebe
00000200: b700 88be d150 6fbe 8935 a3be 6617 32be
00000210: 1b82 afbd 02c0 a8bd 1b5f 333d 1d0f bdbb
00000220: 8e04 5abe 457f 9f3d 27f6 acbe 4601 56be
00000230: 1da5 a03d 372d 4b3e b405 debc d12a 50be
00000240: 2086 07be 82a5 61bd 2974 e8bc 8619 f7bd
00000250: d55b 2abd 5cf4 dcbd 470b 11bd 4d64 803d
00000260: 5ab8 2bbe 4897 8ebd 0eef cfbe 8478 3cbe
00000270: d865 d0bd 1483 2f3c bf51 893e f373 533e
00000280: 8625 d43e 440b 283e f0f9 53bd 6c90 993d
00000290: 1d1c 633d f310 3a3e b462 ca3d 03d0 36bd
000002a0: 00d3 643d a999 aabe d3c3 223e e027 71be
000002b0: ad44 873c 4f4d c8bd 8a89 253c 5ae8 4ebe
000002c0: 4f2a 263e 112c 993e 9159 a53d d55d 113e
000002d0: bf43 9abd 980d 433e 037b 84be 09f4 2cbf
000002e0: 72aa d23d f303 b1be 6350 f93d ae88 d63d
000002f0: 6681 353e df59 543e 1af1 14bd 231c 9dbc
00000300: ff66 68bd 3254 283e 6479 f63c b2a2 d23e
00000310: 20ad 1a3e 8fb9 253c 3ab8 233d 278c a1bc
00000320: 58d0 83bc 90c8 29bd d93a ce3d 550b 9f3d
00000330: d30e 61bc ac99 1d3d ac9f ddbc b574 e3bd
00000340: 4f9f 0fbf 9b65 86bf 3c6a ecbe 3d27 5fbe
00000350: 609c 8fbc 4142 18be 847d de3e 9b64 c63e
00000360: b389 0d3d 0ce4 e9bd 309a 253e 7300 d1bc
00000370: d1c2 cebd 16e1 ea3e dcd6 673e c5af f33d
00000380: 0ebd 0c3c e01f cd3d fbf5 573d b5a6 0d3e
00000390: d1b3 1c3e eb1f ddbd 4942 1e3e e6ff fb3c
000003a0: 7223 383e 967e d3be ffb2 a0be a1ce 57be
000003b0: 377e 96be a5a2 ad3e 5679 e8bc 8c7a 10bd
000003c0: d333 8fbd 25a1 d73b 08b9 8bbd 2e8c 96bc
000003d0: c25e 863e 42e4 09be 5710 d7bd 62bb 133d
000003e0: 6975 09be 23e1 dbbc 754f 1fbc 5a1c dbbd
000003f0: 4e89 d2bd ebb5 2f3e 51a6 babd 61ff 0a3b

mem_dense.bias f4 [64]
0.2781285 0.04625236 0.018296842 0.0747953 0.033274468 0.18341354 -0.14068738 -0.16141617
-0.032117464 -0.028541902 0.050772373 -0.020718364 -0.0056075347 0.10846878 0.05124835 0.019532733
0.17784168 -0.09789596 -0.16228536 0.101175405 0.031109475 -0.14558928 -0.06217404 -0.012006425
0.00072459335 0.043830406 0.0046838517 -0.1255969 0.035546005 0.076556996 0.04295258 0.043968547
-0.028720262 -0.10109731 -0.12620473 -0.023568088 -0.16852686 0.10031835 -0.009507797 0.054739453
-0.16926715 0.017478049 0.14765938 -0.034215387 -0.12906593 0.015289807 0.2527666 0.088190936
-0.001942867 0.14893873 -0.0075464346 0.12833184 -0.084138274 0.07962667 -0.03611462 -0.013878996
-0.013695388 -0.050283413 -0.14829986 -0.11073564 -0.0019114669 -0.05597997 -0.18847485 0.18874913
00000000: dc66 8e3e 1d73 3d3d 42e3 953c 472e 993d
00000010: cf4a 083d c2d0 3b3e 5a10 10be 484a 25be
00000020: 9a8d 03bd b5d0 e9bc b1f6 4f3d 8fb9 a9bc
00000030: 69bf b7bb e124 de3d cae9 513d 1c03 a03c
00000040: 211c 363e ad7d c8bd 222e 26be 0d35 cf3d
00000050: 4cd9 fe3c 5b15 15be 35aa 7ebd 99b6 44bc
00000060: a3f2 3d3a 8387 333d ff7a 993b 799c 00be
00000070: b098 113d eac9 9c3d 0bef 2f3d 5d18 343d
00000080: c146 ebbc 1b0c cfbd d03b 01be dd11 c1bc
00000090: 4e92 2cbe b573 cd3d 97c6 1bbc 7a36 603d
000000a0: 5e54 2dbe 202e 8f3c 0534 173e 6f25 0cbd
000000b0: dc29 04be 1982 7a3c a06a 813e 739d b43d
000000c0: cca7 feba 6583 183e 1548 f7bb 6c69 033e
000000d0: b050 acbd 4f13 a33d ecec 13bd ba64 63bc
000000e0: 9f62 60bc fbf5 4dbd ebdb 17be 5ec9 e2bd
000000f0: 308a faba 414b 65bd 8dff 40be 7447 413e

mem_LSTM.weight_ih_l0 f4 [256, 64]
-0.07449248 0.20211932 -0.007195866 -0.1079964 0.18502714 -0.17034896 0.6567666 0.20966749
0.01727967 0.15812273 0.085336104 -0.10235312 0.022385685 -0.1791322 0.0063732285 -0.15181537
0.1297925 -0.12889935 0.18074118 0.18747598 0.014470266 0.525173 0.057113234 -0.06556266
-0.019710276 0.22122516 0.12417733 0.43794858 -0.04699922 0.0059624184 -0.048803505 0.2032527
0.26243687 0.14314215 -0.13246134 -0.26571175 0.3484349 -0.025651835 0.06508154 0.15640515
0.17205474 0.36896425 0.43165788 0.27503312 0.30364314 -0.21640535 -0.28890154 0.21054582
0.5335606 0.21969344 -0.0026048918 0.19267784 -0.20825115 -0.021977061 0.20342267 -0.16552481
0.033177175 0.17898433 -0.20058797 -0.35204715 0.13161127 0.51878476 -0.18481813 -0.2790668
-0.019039879 0.06557981 0.04694482 0.23477472 0.61076224 0.2775589 -0.046085406 0.46562847
0.04470544 0.44660816 0.37123674 0.028738232 0.07045142 0.13866547 -0.18583243 0.14625551
0.26226935 0.18308145 0.25099 -0.03942687 0.30619916 0.043639652 0.47179663 -0.09565178
0.4422597 0.1718056 -0.074425966 0.3248964 -0.09000137 -0.050744034 -0.047015857 0.11197117
0.3086368 0.14392357 -0.12532635 0.33538136 -0.18984272 0.3801685 -0.08402496 0.03194068
-0.0031559514 0.11130463 0.4269712 -0.04057436 0.4202664 -0.09329536 -0.08247942 -0.18171543
0.13424991 0.27763364 -0.11123933 0.022996588 0.49770838 0.081020296 0.20847082 -0.037139665
0.13800088 -0.34813625 0.003629986 0.5380521 0.07757712 0.4471973 -0.010466461 -0.03164259
-0.1872602 0.24723044 -0.009013399 -0.35313424 -0.11048123 -0.08362843 -0.29997745 -0.41270024
-0.30131602 -0.14712352 0.11803555 0.09724542 0.020809097 -0.20337775 -0.07473097 -0.12570143
-0.07506263 -0.1534443 0.012036455 0.15647611 0.02089051 -0.12763259 -0.12164536 -0.2123288
-0.035521556 0.031689193 -0.025855623 -0.03761914 0.17623341 0.03564609 0.12131675 -0.04107768
0.20147358 0.083680496 0.35608906 0.03565858 -0.38175666 0.12921768 -0.41253674 0.35197657
0.051213987 -0.036627922 0.18739499 -0.22029553 0.086407974 0.2986579 0.15607446 0.45164976
-0.059886307 -0.06291124 0.023673523 0.00047014968 -0.3307132 -0.031214166 0.08150067 0.07653268
-0.06476034 -0.261626 -0.024446355 -0.44789785 0.032440685 0.121325925 0.1185989 -0.1473253
0.38183826 0.20368552 -0.22989988 0.118391715 0.1071539 0.09836858 0.45077163 0.19569293
0.18355368 0.19742857 0.2776827 0.065681286 0.5156305 -0.18938164 0.3785648 0.08385592
0.46274596 0.3576932 0.15722528 0.0482646 0.347 0.21193187 0.1884132 0.02431173
0.17342526 0.576045 0.5929981 -0.14950904 0.34405768 0.38475478 -0.18758062 0.30296314
0.30754346 0.4754712 0.20996338 0.18832703 0.15747277 0.45097646 0.27073815 0.12912901
-0.0068555274 0.09332489 0.14451687 -0.04668862 0.65249157 -0.0023233069 -0.05132057 0.42604896
0.41955155 0.23260711 -0.06107585 0.06255905 -0.022096522 0.037954766 0.06759294 -0.15395132
0.09462459 -0.0038849043 -0.047223415 0.15318449 0.22297993 0.1301952 0.060845487 0.18161608
00000000: 838f 98bd 5ef8 4e3e 4dcb ebbb 372d ddbd
00000010: c177 3d3e f56f 2ebe db21 283f 13b3 563e
00000020: 188e 8d3c edea 213e b2c4 ae3d 839e d1bd
00000030: 2f62 b73c 6e6e 37be 84d6 d03b 7d75 1bbe
00000040: 53e8 043e 31fe 03be 3714 393e b4f9 3f3e
00000050: b214 6d3c bd71 063f 91ef 693d b745 86bd
00000060: 7277 a1bc d988 623e af50 fe3d cc3a e03e
00000070: 4182 40bd 6460 c33b 2fe6 47bd 7a21 503e
00000080: 205e 863e db93 123e f2a3 07be 5f0b 88be
00000090: 0f66 b23e cc23 d2bc 7849 853d ac28 203e
000000a0: 1e2f 303e e2e8 bc3e 4302 dd3e 24d1 8c3e
000000b0: 1d77 9b3e 5d99 5dbe e7ea 93be 5399 573e
000000c0: 6d97 083f 51f7 603e d5b6 2abb 574d 453e
000000d0: ca3f 55be 3d09 b4bc 084e 503e 567f 29be
000000e0: cae4 073d ab47 373e ef66 4dbe 863f b4be
000000f0: 1bc5 063e 14cf 043f f740 3dbe d8e1 8ebe
00000100: 85f9 9bbc b54e 863d 3649 403d c968 703e
00000110: ea5a 1c3f 331c 8e3e 0dc4 3cbd db66 ee3e
00000120: 0d1d 373d d3a9 e43e be12 be3e 716c eb3c
00000130: d648 903d 52fe 0d3e db4a 3ebe 01c4 153e
00000140: 2b48 863e b479 3b3e c381 803e 127e 21bd
00000150: 23c6 9c3e 7ebf 323d 548f f13e 15e5 c3bd
00000160: dd6f e23e cfed 2f3e a46c 98bd d258 a63e
00000170: a352 b8bd fad8 4fbd b393 40bd 2451 e53d
00000180: a505 9e3e b360 133e 8d55 00be 1bb7 ab3e
00000190: 2166 42be 72a5 c23e 4715 acbd 3bd4 023d
000001a0: 14d4 4ebb aff3 e33d f89b da3e 4d31 26bd
000001b0: 282d d73e a311 bfbd f8ea a8bd 9c13 3abe
000001c0: cf78 093e ff25 8e3e 72d1 e3bd 5763 bc3c
000001d0: a2d3 fe3e f8ed a53d 6079 553e c31f 18bd
000001e0: 1a50 0d3e ea3e b2be 0fe5 6d3b c8bd 093f
000001f0: c1e0 9e3d 0bf7 e43e 857b 2bbc a99b 01bd
00000200: 23c1 3fbe fa29 7d3e efac 13bc 03ce b4be
00000210: fc43 e2bd 6245 abbd a596 99be 724d d3be
00000220: 1846 9abe 8ca7 16be 9fbc f13d 9b28 c73d
00000230: d777 aa3c 4242 50be 8d0c 99bd e0b7 00be
00000240: 70ba 99bd 8120 1dbe 8d34 453c 463b 203e
00000250: 9322 ab3c 1eb2 02be 3421 f9bd b96c 59be
00000260: 0d7f 11bd 87cc 013d 2ccf d3bc 8716 1abd
00000270: 8876 343e a201 123d eb74 f83d 1241 28bd
00000280: 174f 4e3e ae60 ab3d 4e51 b63e bb0e 123d
00000290: 9c75 c3be a451 043e 0438 d3be 4636 b43e
000002a0: c2c5 513d 2907 16bd 79e4 3f3e 2795 61be
000002b0: aaf6 b03d b0e9 983e fcd1 1f3e a33e e73e
000002c0: 584b 75bd 9cd7 80bd faee c13c 6c7e f639
000002d0: 3e53 a9be dab4 ffbc d3e9 a63d 2abd 9c3d
000002e0: 12a1 84bd d8f3 85be b943 c8bc de52 e5be
000002f0: 86e0 043d ba79 f83d fbe3 f23d 72dc 16be
00000300: 4e80 c33e f092 503e e06a 6bbe 5b77 f23d
00000310: 8173 db3d 7775 c93d 8acb e63e ba63 483e
00000320: 7ff5 3b3e b72a 4a3e 6d2c 8e3e e983 863d
00000330: 5c00 043f 43ed 41be 3fd3 c13e a7bc ab3d
00000340: 0aed ec3e 9023 b73e aaff 203e 1ab1 453d
00000350: fca9 b13e ab04 593e 64ef 403e 6529 c73c
00000360: 6496 313e af77 133f b9ce 173f e618 19be
00000370: 5428 b03e 94fe c43e 2215 40be fc1d 9b3e
00000380: 5676 9d3e f670 f33e a400 573e cdd8 403e
00000390: 8b40 213e 63e6 e63e 319e 8a3e 653a 043e
000003a0: 55a4 e0bb 1f21 bf3d 3bfc 133e 913c 3fbd
000003b0: b009 273f 9f42 18bb 8535 52bd 1723 da3e
000003c0: 76cf d63e 8f30 6e3e ac2a 7abd f61e 803d
000003d0: c403 b5bc 7576 1b3d 2b6e 8a3d 6aa5 1dbe
000003e0: 89ca c13d e199 7ebb 576d 41bd 65dc 1c3e
000003f0: da54 643e e451 053e 1e39 793d 91f9 393e

mem_LSTM.weight_hh_l0 f4 [256, 64]
0.062439106 0.34222966 -0.23114872 -0.021773634 0.04436129 0.06225171 -0.08397601 0.009954355
0.17318411 -0.17001995 -0.26000732 -0.15087813 0.13481328 -0.122315936 -0.04061392 -0.33807814
0.091439664 -0.15957883 0.022533618 0.2617128 -0.1321554 -0.23332746 0.17127693 -0.102163635
-0.33571398 0.09643237 -0.09882497 0.12630813 0.02496743 -0.015868556 0.14837141 -0.12578306
-0.24964155 -0.22411603 -0.006064174 0.2531901 0.032576997 -0.52529246 0.0007576616 0.2405321
-0.2798555 -0.18736471 0.1796818 0.29971272 -0.14627987 -0.024321526 -0.023479756 -0.07175613
-0.073047265 -0.16845323 0.27424422 0.34851065 0.16014597 0.2541617 0.05388942 -0.19037278
0.10395876 0.28915554 -0.018027792 -0.24069443 0.23492193 0.42446208 0.020167282 -0.27403146
-0.27829424 0.11350222 0.359841 -0.045721408 -0.10150065 -0.12676506 0.028375367 0.103550375
0.17295867 -0.2105749 -0.043938965 0.09314641 0.026065722 -0.39440566 0.22635247 -0.059257645
-0.061494518 -0.06600299 -0.14430599 0.055285912 -0.16396873 -0.1253093 -0.05445593 -0.040081736
-0.074324705 -0.05108272 0.2249166 0.23242342 0.35684094 0.017946865 -0.2748985 0.27169964
-0.27598083 0.01916495 -0.11190815 0.04066586 -0.22554338 -0.13107665 -0.007696598 0.11239232
0.28456813 0.054658107 0.06931803 0.06876803 -0.24672465 -0.24543633 -0.050417136 -0.08745804
-0.25931096 -0.21393554 -0.2099018 0.0022087002 -0.24923138 -0.26849476 0.2258293 -0.34120902
-0.14916879 0.25416106 -0.066243544 0.17821217 0.11826849 0.11280782 -0.15388297 0.15558492
-0.1352556 0.36419678 0.19305606 -0.31868654 -0.41659078 -0.07732737 0.1906124 -0.013643964
-0.17508438 -0.16228092 -0.061739177 0.26416 -0.27512753 0.25590053 0.0054306784 0.044992886
-0.23667897 0.034717567 -0.051510356 0.0073707667 -0.19165756 -0.10256016 0.09376526 -0.030093169
0.20040831 0.3822649 -0.15880771 0.005853314 0.010618391 -0.23802547 -0.1325157 -0.057860497
-0.12463104 0.13863389 0.106975846 -0.025105085 0.037419718 0.0063636093 -0.053815 -0.21815977
-0.11563048 -0.10044064 0.055346023 -0.017552132 -0.19078484 0.087157756 0.26165396 0.1037867
0.037519615 0.19849952 -0.055570565 -0.021987895 -0.06635134 -0.05661121 0.15009978 0.04960487
0.11613611 0.0016631479 0.061329875 -0.16870014 -0.04029517 0.095614865 -0.07836437 0.16143258
0.19155885 0.007805583 0.22946642 -0.113652855 -0.0074183126 -0.22059132 0.1919276 0.31807595
-0.32359812 0.1511535 -0.107083224 0.082733184 -0.13985643 0.124678634 -0.004356018 0.51869875
0.01650992 0.16435888 0.05508802 -0.5699845 -0.4574298 0.045087148 -0.031090733 0.06428738
0.32456398 0.5087885 -0.4317315 -0.20846085 0.050213423 0.007651986 -0.07052204 0.31391975
0.06456989 -0.0021913066 0.08144258 -0.2797651 0.26450232 0.24224263 0.18208514 0.23165776
0.042374667 -0.18653812 0.16552207 -0.13680136 0.18903846 0.04923579 0.1598355 -0.096692085
0.3758036 -0.24602297 -0.63284725 0.110851794 0.15749988 -0.34476498 0.06370029 0.003579073
0.028734973 -0.12888671 -0.16099347 0.39884314 -0.1847813 0.12461136 -0.29020748 -0.29201853
00000000: 26c0 7f3d ba38 af3e 40b2 6cbe 9f5e b2bc
00000010: 2fb4 353d a6fb 7e3d 9dfb abbd 9717 233c
00000020: 2d57 313e b619 2ebe ae1f 85be cc7f 1abe
00000030: 7e0c 0a3e c780 fabd c85a 26bd 9418 adbe
00000040: b844 bb3d a268 23be 6c98 b83c 38ff 853e
00000050: bf53 07be 65ed 6ebe 3863 2f3e 2b3b d1bd
00000060: b4e2 abbe 567e c53d bf64 cabd eb56 013e
00000070: 7f88 cc3c c6fe 81bc adee 173e 46cd 00be
00000080: 09a2 7fbe ac7e 65be fbb5 c6bb 22a2 813e
00000090: 756f 053d 9179 06bf cf9d 463a 0c4e 763e
000000a0: 3849 8fbe 89dc 3fbe 81fe 373e f273 993e
000000b0: 64ca 15be f03d c7bc 9e58 c0bc e1f4 92bd
000000c0: ce99 95bd 017f 2cbe bd69 8c3e fd6f b23e
000000d0: 4efd 233e 7b21 823e 27bb 5c3d 15f1 42be
000000e0: 55e8 d43d 320c 943e 05af 93bc 9a78 76be
000000f0: 608f 703e 1853 d93e db35 a53c da4d 8cbe
00000100: 957c 8ebe da73 e83d 143d b83e 5f46 3bbd
00000110: 93df cfbd b3ce 01be 7573 e83c 3812 d43d
00000120: 141c 313e f2a0 57be 58f9 33bd 8cc3 be3d
00000130: c887 d53c 8aef c9be f1c8 673e 25b8 72bd
00000140: ade1 7bbd 932c 87bd f3c4 13be 7b73 623d
00000150: 6be7 27be 1551 00be 2e0d 5fbd bf2c 24bd
00000160: 8d37 98bd 1d3c 51bd 8a50 663e 6800 6e3e
00000170: dbb3 b63e 4e05 933c 7fbf 8cbe 371c 8b3e
00000180: 5c4d 8dbe d0ff 9c3c 1a30 e5bd 3f91 263d
00000190: d8f4 66be f538 06be be33 fcbb f22d e63d
000001a0: eab2 913e 2ee1 5f3d 9cf6 8d3d 41d6 8c3d
000001b0: 63a5 7cbe a953 7bbe 3382 4ebd 331d b3bd
000001c0: 68c4 84be eb11 5bbe 7ff0 56be d7bf 103b
000001d0: 8336 7fbe 2578 89be cc3f 673e f3b2 aebe
000001e0: b4bf 18be 6621 823e b2aa 87bd 407d 363e
000001f0: c036 f23d c907 e73d 7f93 1dbe a751 1f3e
00000200: 7280 0abe 0078 ba3e 7db0 453e e22a a3be
00000210: 634b d5be d05d 9ebd e62f 433e ef8a 5fbc
00000220: 5249 33be f82c 26be 38e2 7cbd fb3f 873e
00000230: 84dd 8cbe 6505 833e d5f3 b13b 764a 383d
00000240: f95b 72be 0234 0e3d 86fc 52bd 7986 f13b
00000250: e141 44be 100b d2bd 0008 c03d f385 f6bc
00000260: d637 4d3e 3ab8 c33e 7d9e 22be 28cd bf3b
00000270: c3f8 2d3c f3bc 73be 32b2 07be 21ff 6cbd
00000280: 8f3e ffbd 0bf6 0d3e 2716 db3d 2ea9 cdbc
00000290: 6b45 193d d385 d03b 1e6d 5cbd 4665 5fbe
000002a0: accf ecbd d2b3 cdbd 83b2 623d 7dc9 8fbc
000002b0: 1a5d 43be c47f b23d 82f7 853e 1f8e d43d
000002c0: 2bae 193d 7543 4b3e f69d 63bd f51f b4bc
000002d0: 36e3 87bd 28e1 67bd c2b3 193e 7a2e 4b3d
000002e0: c5d8 ed3d fcfd d93a 0935 7b3d bbbf 2cbe
000002f0: 8c0c 25bd bad1 c33d 807d a0bd 954e 253e
00000300: 0128 443e fac5 ff3b 3ff9 6a3e d4c2 e8bd
00000310: 5115 f3bb b1e2 61be ab88 443e dada a23e
00000320: a7ae a5be fcc7 1a3e 734e dbbd 0470 a93d
00000330: 8636 0fbe 8357 ff3d edbc 8ebb 71c9 043f
00000340: d03f 873c b24d 283e faa3 613d 81ea 11bf
00000350: 3d34 eabe 4dad 383d feb1 febc 1aa9 833d
00000360: 402d a63e f73f 023f e90b ddbe c376 55be
00000370: 97ac 4d3d 83bd fa3b dc6d 90bd 17ba a03e
00000380: 383d 843d 069c 0fbb 5ecb a63d 5f3d 8fbe
00000390: d96c 873e 740e 783e 8774 3a3e b137 6d3e
000003a0: 0f91 2d3d d903 3fbe 9e7e 293e a815 0cbe
000003b0: 4c93 413e 78ab 493d ebab 233e 8006 c6bd
000003c0: 5469 c03e 72ed 7bbe 4702 22bf 4406 e33d
000003d0: a647 213e 0985 b0be 4c75 823d e18e 6a3b
000003e0: 9b65 eb3c e1fa 03be 79db 24be 2b35 cc3e
000003f0: 4f37 3dbe 3e34 ff3d 1396 94be 7483 95be

mem_LSTM.bias_ih_l0 f4 [256]
0.11056634 0.1752144 0.017248869 0.31252745 -0.005439865 -0.06479374 -0.026405398 0.26453352
-0.01813974 0.022875639 0.06573323 -0.0016782202 0.04348934 -0.021817338 0.09395373 -0.0017848844
0.17509906 0.16848691 0.09209841 0.14473403 0.28239512 0.036418468 -0.033019897 -0.09164243
-0.0012173014 -0.009967136 -0.15953892 -0.022430265 0.074446455 0.265517 0.26715657 -0.012848998
0.17225625 -0.08253026 0.20099473 0.21617272 0.12356034 0.36677963 -0.025815263 0.21605785
0.03435403 0.10018694 0.12988786 -0.21185404 0.046312027 0.090245515 -0.15724787 0.1204607
-0.009142287 -0.1198238 0.04762499 -0.0229605 0.07658576 0.33150735 -0.05823125 0.050910424
-0.01336062 0.10826621 0.10124036 0.22014126 0.15726656 0.2368723 0.09061761 0.07237295
-0.1591111 0.040642332 -0.028546846 0.3262454 -0.14664747 -0.023348134 -0.045309663 0.18700273
-0.06189897 -0.038311373 0.057262994 -0.1027157 -0.034656413 -0.00038235847 0.03983841 0.021231785
0.21734883 0.0067138276 0.08975161 0.09979694 -0.017474104 0.027163291 -0.1265711 -0.060059734
-0.027016688 0.09355275 0.026068578 0.052467566 0.016360858 -0.23476134 0.13232586 -0.046161808
0.047603946 -0.040024575 -0.014151085 -0.064967886 -0.034634933 0.10581993 0.09036969 -0.090604305
-0.08591061 -0.020648737 -0.0920227 0.027590869 0.06348265 0.07612244 -0.23417012 0.06713292
-0.039023545 -0.06770055 -0.08907565 0.056592755 0.008979163 0.06326758 0.036274284 0.09816878
0.059638217 0.040694695 0.08008633 0.13174973 -0.05870432 0.10569384 0.10822451 -0.029777318
0.018799145 0.008335378 0.0063504917 -0.062986076 -0.12282326 -0.14465988 0.08357743 -0.027517825
-0.11949531 0.1890049 0.0052547874 -0.07030548 0.1507483 -0.0086120935 -0.07035214 -0.014873007
0.0036079746 0.05825446 0.15852797 0.080943815 0.008772829 -0.029188382 -0.08404933 0.045606505
0.042632807 0.04004643 -0.041128047 -0.07796646 -0.004158826 0.0061592497 0.076736405 0.07416312
-0.033046298 0.08270986 0.069362625 -0.073369026 0.06059534 0.007889272 0.056439403 -0.09778912
0.05688613 -0.094473235 0.0326845 0.047876686 0.06099298 -0.07881939 0.11382697 -0.15778874
-0.09462115 0.035134103 -0.043581255 0.08182583 -0.016806593 0.09108173 0.014591342 0.043529525
0.07774373 -0.0070237005 -0.002474673 0.11666488 0.025402011 -0.054410122 -0.109892 -0.21769619
-0.096194826 0.09582978 -0.035756003 0.22531925 0.1436609 -0.024355303 -0.14024417 -0.0692975
-0.011916127 -0.124531016 -0.06425245 -0.1378788 0.16961342 -0.032582533 0.076627955 0.12175775
-0.004116753 -0.04070527 0.118707314 0.17339301 0.15049292 0.011285848 -0.106570244 0.07308321
-0.0032104875 0.086364105 -0.016184863 -0.026715852 -0.019787306 0.16980393 -0.05002732 -0.043585643
0.06462044 0.08099147 -0.10576082 0.21270674 0.18784167 0.030473689 0.004819526 0.053929456
0.07178359 0.08874743 0.013692109 -0.30986983 0.19665478 0.017041989 -0.24862991 -0.0821315
-0.03091106 -0.15500791 0.024820004 0.115053706 -0.03291027 0.16598308 -0.047858633 0.085043006
0.054962147 0.15803458 -0.03766486 -0.07781492 0.17366056 0.15019616 0.03451865 0.086148106
00000000: 9b70 e23d 676b 333e 804d 8d3c 9903 a03e
00000010: e540 b2bb 95b2 84bd 2250 d8bc f070 873e
00000020: cb99 94bc b165 bb3c 259f 863d baf7 dbba
00000030: e121 323d 46ba b2bc d06a c03d c8f2 e9ba
00000040: 2b4d 333e d587 2c3e 179e bc3d 2835 143e
00000050: 1896 903e 882b 153d df3f 07bd 07af bbbd
00000060: db8d 9fba 334d 23bc 2c5e 23be adbf b7bc
00000070: 6277 983d d8f1 873e bfc8 883e 9b84 52bc
00000080: f163 303e a005 a9bd 90d1 4d3e 625c 5d3e
00000090: 340d fd3d 8aca bb3e 887a d3bc 453e 5d3e
000000a0: d0b6 0c3d cf2e cd3d 5301 053e 44f0 58be
000000b0: aeb1 3d3d a4d2 b83d 9605 21be 19b4 f63d
000000c0: 88c9 15bc 2e66 f5bd 6c12 433d a917 bcbc
000000d0: ffd8 9c3d 55bb a93e e483 6ebd 7387 503d
000000e0: 80e6 5abc adba dd3d 1b57 cf3d b66c 613e
000000f0: 7c0a 213e a78e 723e ba95 b93d 4538 943d
00000100: 05ee 22be 9378 263d 13db e9bc a309 a73e
00000110: c12a 16be 9644 bfbc a096 39bd a57d 3f3e
00000120: c689 7dbd 63ec 1cbd 9a8c 6a3d 9c5c d2bd
00000130: e2f3 0dbd 4977 c8b9 9a2d 233d 48ee ad3c
00000140: b190 5e3e abff db3b b1cf b73d 5762 cc3d
00000150: da25 8fbc 8d85 de3c db9b 01be 3201 76bd
00000160: 1a52 ddbc 9698 bf3d c58d d53c 3be8 563d
00000170: 3507 863c 4765 70be 6e80 073e 2a14 3dbd
00000180: 5bfc 423d cff0 23bd f4d9 67bc e20d 85bd
00000190: 5cdd 0dbd 1fb8 d83d be13 b93d c08e b9bd
000001a0: e7f1 afbd 8a27 a9bc 6676 bcbd 3f06 e23c
000001b0: 3103 823d 15e6 9b3d 4bca 6fbe fc7c 893d
000001c0: 27d7 1fbd 96a6 8abd 4b6d b6bd cecd 673d
000001d0: 571d 133c 6f92 813d 5894 143d b70c c93d
000001e0: 3447 743d 7baf 263d 4d04 a43d 67e9 063e
000001f0: f173 70bd 0376 d83d d0a4 dd3d 90ef f3bc
00000200: aa00 9a3c 1c91 083c c917 d03b d8fe 80bd
00000210: c38a fbbd b821 14be a52a ab3d 106d e1bc
00000220: f5b9 f4bd 808a 413e 5a30 ac3b 52fc 8fbd
00000230: c35d 1a3e bd19 0dbc c814 90bd eaad 73bc
00000240: c573 6c3b 3b9c 6e3d 2855 223e dfc5 a53d
00000250: e9bb 0f3c 791c efbc 0e22 acbd e3cd 3a3d
00000260: bd9f 2e3d ba07 243d e275 28bd e1ac 9fbd
00000270: c346 88bb 88d3 c93b fa27 9d3d d5e2 973d
00000280: 8e5b 07bd c963 a93d fe0d 8e3d 8042 96bd
00000290: d232 783d 0142 013c 012d 673d aa45 c8bd
000002a0: 6e01 693d 2f7b c1bd 2fe0 053d 581a 443d
000002b0: c6d3 793d 0f6c a1bd 1d1e e93d 5f93 21be
000002c0: bcc8 c1bd c7e8 0f3d 4282 32bd 4d94 a73d
000002d0: fbad 89bc 0f89 ba3d 8610 6f3c 044c 323d
000002e0: 1b38 9f3d 1227 e6bb 202e 22bb ffed ee3d
000002f0: e117 d03c 26dd 5ebd 0f0f e1bd c0eb 5ebe
00000300: cb01 c5bd 6742 c43d e374 12bd 17ba 663e
00000310: d81b 133e c684 c7bc 2b9c 0fbe d9eb 8dbd
00000320: dc3b 43bc 1e0a ffbd ca96 83bd 1a30 0dbe
00000330: 24af 2d3e 4375 05bd 1eef 9c3d 215c f93d
00000340: d4e5 86bb 92ba 26bd d21c f33d f08d 313e
00000350: d11a 1a3e 47e8 383c 8041 dabd a6ac 953d
00000360: 0b67 52bb aadf b03d 1e96 84bc 34db dabc
00000370: fd18 a2bc 15e1 2d3e 72e9 4cbd dc86 32bd
00000380: b957 843d dbde a53d 2199 d8bd cccf 593e
00000390: 9159 403e f5a3 f93c 1ded 9d3b 22e5 5c3d
000003a0: 4603 933d 36c1 b53d de54 603c 42a7 9ebe
000003b0: df5f 493e a49b 8b3c d798 7ebe 8f34 a8bd
000003c0: 3139 fdbc 65ba 1ebe 5253 cb3c 47a1 eb3d
000003d0: ebcc 06bd 78f7 293e 6a07 44bd 072b ae3d
000003e0: fd1f 613d d1d3 213e 7846 1abd 6e5d 9fbd
000003f0: 13d4 313e 06cd 193e 6e63 0d3d 6b6e b03d

mem_LSTM.bias_hh_l0 f4 [256]
-0.017252129 0.180404 0.04089792 0.42027032 0.0019049513 0.03299164 -0.017160151 0.0692819
-0.21366751 -0.21044724 -0.091232054 -0.10513763 0.055862006 0.009252043 -0.013679004 0.081987455
0.069023274 0.05607187 0.08089574 0.1888096 0.21896267 -0.03485807 0.04488856 -0.01303436
0.066707976 0.09274517 0.004417936 0.056294717 0.05768271 0.01957503 0.11763882 0.1804375
0.20115906 -0.09101134 0.13813807 0.1920316 0.16067281 0.27455634 0.084944166 0.26567575
-0.012790943 0.08782064 0.09702386 -0.22638069 0.18175237 0.013133249 -0.057526406 0.12557314
-0.09138253 0.0871978 0.07606897 0.015871452 -0.13760608 0.21842682 -0.023747077 0.1678109
-0.17060292 0.083999254 0.029073942 0.0801665 0.052807733 0.2135121 -0.09893247 -0.08476068
-0.17166774 -0.05543382 0.15573815 0.1837115 -0.15290736 -0.15053205 -0.08439897 0.14310332
-0.09239331 -0.2192489 -0.099778086 -0.09104857 -0.24295992 0.09478718 0.048875302 0.058407005
0.24768075 0.10992194 0.12265561 0.048759464 -0.032989442 -0.11145152 -0.009852992 -0.2809874
0.08910692 0.07743953 -0.14488116 0.059958506 0.035811573 -0.2041163 0.018501962 0.14049985
0.07430576 -0.21559326 -0.020966604 0.0942556 -0.0099111525 0.21100359 -0.13670959 -0.026459334
0.14938758 0.045273352 -0.087069005 -0.14095257 -0.0415943 0.14606367 -0.24390103 0.16867426
-0.016536448 -0.09681523 0.0145752635 0.117299914 0.1498937 0.11388912 0.061435413 -0.008248618
0.05254948 0.13399233 0.24938406 -0.033542138 -0.039034765 0.11694247 0.111521766 0.04178272
0.09502557 0.06309708 0.10951968 -0.054073785 -0.13775781 -0.095106155 0.07874467 0.0955932
-0.08260901 0.080202155 -0.099508606 0.04421251 0.09598928 0.20072202 -0.22838365 0.06785542
-0.07009509 0.0008632437 -0.033272393 0.109506235 0.06495064 -0.09159606 0.11490218 -0.060750283
0.14117968 -0.10343192 -0.16101593 0.0019322344 -0.024655666 0.010795754 -0.02417211 -0.067316934
0.049074493 -0.11462004 0.08362467 -0.07049716 -0.06553999 -0.010421351 -0.025736766 -0.055050295
-0.088742316 -0.07279063 0.087105945 -0.0708804 0.035436597 -0.10541158 0.24818848 -0.07768588
0.0679142 0.15552746 -0.031548485 0.11182618 0.12887897 0.022181591 0.08143258 0.057575464
0.013777391 -0.11993848 0.019565724 0.023726176 0.015270356 0.07767097 -0.072281756 -0.04834322
-0.03220015 0.071756445 -0.039532658 0.03730605 0.13245925 -0.07292017 -0.1640814 0.035087746
-0.06719067 -0.012812577 0.09544449 -0.070993826 0.082927406 0.06801815 0.07244576 -0.02973813
0.13006383 -0.0051840683 0.13130972 0.02989134 0.12344198 -0.033006404 -0.02199707 -0.11787509
0.018861802 0.116904296 -0.0080160545 0.12663999 -0.1385083 0.048448015 0.08577184 0.15515876
0.07542542 0.010688761 -0.083014004 0.07016598 0.22679643 0.012867335 0.041368686 0.13572037
-0.15894192 -0.021974465 0.09688617 -0.25273505 0.09014493 0.09122746 -0.1298946 -0.073193245
0.011130092 -0.04071788 0.08567408 -0.08045863 0.044623036 -0.05661138 -0.18382317 -0.017187586
-0.07116097 0.22745535 0.00064451044 0.029341023 0.23487599 0.048947245 0.06517484 -0.14280118
00000000: 5654 8dbc d4bb 383e 9484 273d ac2d d73e
00000010: 8faf f93a 3e22 073d 7293 8cbc abe3 8d3d
00000020: a8cb 5abe 7b7f 57be dfd7 babd 6652 d7bd
00000030: 8fcf 643d e295 173c e71d 60bc 0ae9 a73d
00000040: 135c 8d3d 9eab 653d aaac a53d 4e57 413e
00000050: c037 603e 56c7 0ebd 11dd 373d 118e 55bc
00000060: 319e 883d 2ef1 bd3d 55c4 903b 4a95 663d
00000070: b544 6c3d d05b a03c 9fec f03d 9cc4 383e
00000080: a4fc 4d3e 2764 babd 1174 0d3e efa3 443e
00000090: 6a87 243e a692 8c3e 35f7 ad3d a706 883e
000000a0: 1a91 51bc 4fdb b33d 72b4 c63d 57d0 67be
000000b0: 4b1d 3a3e d72c 573c cfa0 6bbd 3f96 003e
000000c0: c426 bbbd c394 b23d 0cca 9b3d d904 823c
000000d0: 9ce8 0cbe 48ab 5f3e 3b89 c2bc 9fd6 2b3e
000000e0: 88b2 2ebe cd07 ac3d 7a2c ee3c 552e a43d
000000f0: ec4c 583d eaa2 5a3e 1b9d cabd 0297 adbd
00000100: abc9 2fbe 930e 63bd d279 1f3e de1e 3c3e
00000110: bf93 1cbe 1325 1abe 5ed9 acbd ad89 123e
00000120: b438 bdbd c982 60be 7458 ccbd ac77 babd
00000130: 7cca 78be c81f c23d 7831 483d 2f3c 6f3d
00000140: 06a0 7d3e c11e e13d dd32 fb3d 01b8 473d
00000150: f01f 07bd b240 e4bd 726e 21bc 95dd 8fbe
00000160: b07d b63d 9e98 9e3d ba5b 14be 0d97 753d
00000170: 28af 123d dd03 51be 6d91 973c 31df 0f3e
00000180: 9e2d 983d 7bc4 5cbe 28c2 abbc 1409 c13d
00000190: 6362 22bc 5311 583e 99fd 0bbe 3fc1 d8bc
000001a0: 0ff9 183e 8d70 393d 3c51 b2bd df55 10be
000001b0: c95e 2abd b791 153e 31c1 79be f2b8 2c3e
000001c0: 7277 87bc 1047 c6bd 16cd 6e3c f03a f03d
000001d0: bc7d 193e b33e e93d b3a3 7b3d 3625 07bc
000001e0: 203e 573d 4935 093e 895e 7f3e 7b63 09bd
000001f0: ebe2 1fbd 897f ef3d 8665 e43d 5b24 2b3d
00000200: c49c c23d 0b39 813d db4b e03d 797c 5dbd
00000210: 6210 0dbe 04c7 c2bd e344 a13d 5ec6 c33d
00000220: ea2e a9bd 0741 a43d 2bcb cbbd 2d18 353d
00000230: 0796 c43d 138a 4d3e 67dd 69be c8f7 8a3d
00000240: 048e 8fbd 4e4b 623a a248 08bd ce44 e03d
00000250: d704 853d b796 bbbd d651 eb3d 4ad5 78bd
00000260: 6891 103e 1dd4 d3bd 5ce1 24be 0743 fd3a
00000270: aefa c9bc ade0 303c 9704 c6bc 76dd 89bd
00000280: 5602 493d e9bd eabd 6943 ab3d d160 90bd
00000290: d539 86bd 50be 2abc e9d5 d2bc 6b7c 61bd
000002a0: 88be b5bd 4113 95bd 9a64 b23d be29 91bd
000002b0: f725 113d 07e2 d7bd 1f25 7e3e c619 9fbd
000002c0: 9a16 8b3d 9742 1f3e fc38 01bd 2005 e53d
000002d0: d9f8 033e 2bb6 b53c 20c6 a63d 40d4 6b3d
000002e0: 91ba 613c 4ea2 f5bd 4c48 a03c 665d c23c
000002f0: 8430 7a3c f511 9f3d 7508 94bd 8a03 46bd
00000300: 4ee4 03bd 0bf5 923d ffec 21bd 3bce 183d
00000310: 66a3 073e 2c57 95bd f404 28be 2bb8 0f3d
00000320: 439b 89bd d8eb 51bc 6778 c33d 3665 91bd
00000330: d8d5 a93d 1a4d 8b3d 715e 943d 619d f3bc
00000340: 742f 053e 1edf a9bb 0e76 063e afde f43c
00000350: 26cf fc3d b931 07bd 3333 b4bc 7f68 f1bd
00000360: 1184 9a3c 856b ef3d c555 03bc eaad 013e
00000370: 1fd5 0dbe 6d71 463d 25a9 af3d f0e1 1e3e
00000380: a578 9a3d ea1f 2f3c 3f03 aabd 2eb3 8f3d
00000390: 533d 683e 84d1 523c 3672 293d 48fa 0a3e
000003a0: acc1 22be cb03 b4bc 426c c63d 7d66 81be
000003b0: e89d b83d 76d5 ba3d 1703 05be 57e6 95bd
000003c0: fd5a 363c cbc7 26bd e475 af3d 7fc7 a4bd
000003d0: a5c6 363d 56e1 67bd 243c 3cbe fbcc 8cbc
000003e0: d8bc 91bd 0eea 683e 5df4 283a 965c f03c
000003f0: 5583 703e e87c 483d 637a 853d 793a 12be
