current_algos/LSTM_TD3/LSTM_TD3_Agent_critic_weights.pth (torch, 427715 bytes, 26 tensors)

curr_fe_dense1_q1.weight f4 [64, 51]
0	0xbbdf57ae	-0.006815872
1	0x3eac3e55	0.33641306
2	0x3e823bab	0.25436148
3	0x3f310fa0	0.69164467
4	0x3eb52acd	0.35384217
5	0x3e8e54da	0.27799112
6	0x3de89e7f	0.11358356
7	0xbd8df701	-0.06931878
8	0xbf6e863f	-0.93173593
9	0xbcb48e60	-0.022040546
10	0x3dc7be3f	0.097530834
11	0xbe1bf138	-0.15228736
12	0x3dce558e	0.10074912
13	0x3daa4112	0.083131924
14	0xbe0e1ad7	-0.13877426
15	0xbe78f917	-0.2431377
16	0xbe9fac3f	-0.311861
17	0xbe52af50	-0.20574689
18	0xbe51c527	-0.20485364
19	0x3bb62b31	0.005559348
20	0x3c3bd593	0.011464494
21	0x3c4655d9	0.012105429
22	0x3cf4a416	0.029863399
23	0xbe431d9f	-0.19054268
24	0xbdd5f00e	-0.104461774
25	0x3e231504	0.15925986
26	0x3ea43ee5	0.32079235
27	0xbe07c172	-0.13257387
28	0x3be6ba9d	0.007041289
29	0x3d401c29	0.046901856
30	0xbd6804b3	-0.056645107
31	0xbd9e08d1	-0.07716525
32	0xbe9b8893	-0.30377635
33	0xbea44f01	-0.32091525
34	0xbe806936	-0.2508027
35	0xbe86a376	-0.26296586
36	0xbea85de0	-0.3288412
37	0x3e5fcece	0.21856233
38	0x3f060b05	0.52360564
39	0x3e99aea5	0.30016056
40	0xbdb78486	-0.08960824
41	0x3dce8744	0.100843936
42	0x3dea30a7	0.11435061
43	0xbec8fc48	-0.39254975
44	0xbdf1688f	-0.11787521
45	0xbe45872d	-0.19289847
46	0xbdfa08c1	-0.12208701
47	0x3f0ace26	0.5422081
48	0x3f0f5939	0.5599552
49	0x3e4d23c6	0.20033178
50	0x3a7018b6	0.00091589557
51	0x3b413233	0.0029479384
52	0x3e0f8ffc	0.1401977
53	0xbd967191	-0.0734588
54	0x3d247ec0	0.04015994
55	0xbd5e5d54	-0.054288223
56	0x3d4c7095	0.049912054
57	0x3d135e3c	0.03597854
58	0xbc836682	-0.01604009
59	0xbdc382ff	-0.0954647
60	0x3daab2ef	0.0833491
61	0xbc8ebf24	-0.017425127
62	0xbcb5c0a8	-0.022186592
63	0x3c4b8936	0.01242285
64	0xbc14ab20	-0.0090740025
65	0xbe462154	-0.19348651
66	0xbcac616e	-0.021042552
67	0xbd11fc6d	-0.035641123
68	0xbd904d50	-0.07045996
69	0xbcdd046c	-0.026979648
70	0x3c34d331	0.01103668
71	0x3f08382e	0.53210723
72	0x4019b900	2.4019165
73	0xbd252b6a	-0.040324606
74	0xbb372ee4	-0.0027951533
75	0xbd893419	-0.0669939
76	0xbdbc2e56	-0.091885254
77	0x3c887ed0	0.016662031
78	0x3b7d978d	0.0038695068
79	0x3c564136	0.013077071
80	0x3d13e002	0.036102302
81	0x3cbad002	0.022804264
82	0x3c7b289c	0.015329506
83	0x3c9ca697	0.019122405
84	0x3de7a316	0.11310403
85	0xbceec26b	-0.02914544
86	0xbc32d9ef	-0.010916217
87	0x3d647b32	0.05578155
88	0x3cab8510	0.020937473
89	0xbd0f341f	-0.034961816
90	0x3c9f2359	0.019426035
91	0x3db0dc08	0.08635718
92	0xbc9ff6d1	-0.01952687
93	0xbe0e9a98	-0.1392616
94	0x3d2e0079	0.04248092
95	0xbd8af9c3	-0.067859195
96	0x3e129dc8	0.14318001
97	0x3bb32b75	0.005467827
98	0x3b13abe1	0.0022532868
99	0xbd6bb1b8	-0.057542533
100	0xbe559913	-0.20859174
101	0x3a05e880	0.00051081926
102	0xbc90b2b7	-0.017663343
103	0xbc88e8b1	-0.016712518
104	0x3b978cc2	0.004624934
105	0xbdde8dcb	-0.108668886
106	0x3eec4822	0.46148783
107	0x3ea90f74	0.33019602
108	0x3e720bcb	0.23637311
109	0x3e8e1e01	0.27757266
110	0x3e53c782	0.20681575
111	0x3e80300b	0.25036654
112	0x3da93e4e	0.08263837
113	0x3e023150	0.12714124
114	0xbd8c54b4	-0.06852093
115	0xbd7c2049	-0.061554227
116	0xbf55ff0f	-0.83592314
117	0xbe425307	-0.18976985
118	0xbdbcd99f	-0.092211954
119	0xbd8f8a3b	-0.07008787
120	0x3e140e03	0.1445847
121	0xbaa4e45d	-0.0012580265
122	0xbe6f58f3	-0.23373775
123	0xbe897c45	-0.26852623
124	0xbef01dcd	-0.46897736
125	0xbe86c9c9	-0.26325825
126	0xbec6a1a4	-0.38795197
127	0xbd14437f	-0.03619718
128	0xbd9b5df8	-0.075862825
129	0x3d91fede	0.0712869
130	0x3e72809c	0.23681873
131	0x3e9e0aa7	0.30867502
132	0x3de1f020	0.11032128
133	0xbe8d0ce2	-0.2754889
134	0xbdf19948	-0.11796814
135	0xbdc7faf0	-0.097646594
136	0xbdf5d596	-0.12003629
137	0xbdd06fea	-0.10177596
138	0xbe655b07	-0.22398005
139	0xbe354293	-0.17701177
140	0x3e81121b	0.25209126
141	0xbeb7ff3b	-0.35936913
142	0xbf13598e	-0.57558525
143	0xbee45ab9	-0.44600466
144	0xbf17c795	-0.59288913
145	0xbe0be3c2	-0.13661101
146	0x3f00275e	0.5006007
147	0x3dcb1e61	0.09917904
148	0x3e5ebe83	0.21752362
149	0xbdf371bb	-0.11886927
150	0x3e56aa29	0.20963348
151	0x3ec8618f	0.3913693
152	0xbc207785	-0.009794121
153	0x39852d49	0.00025401477
154	0xbc968579	-0.018374192
155	0x3c8fd377	0.017556889
156	0x3f0c9bb3	0.5492508
157	0xbe6fd032	-0.23419264
158	0x3cb7b0f4	0.022423245
159	0xbca30f4b	-0.019904753
160	0x3dc5f0e0	0.09665084
161	0x3db4f768	0.088362515
162	0xbda693f8	-0.081336915
163	0xbe180d3a	-0.14848796
164	0xbcccdbc5	-0.025007138
165	0x3d144924	0.036202565
166	0xbbf18429	-0.007370491
167	0x3b110e13	0.0022133633
168	0xbdfa6e4a	-0.12228067
169	0x3fedc25b	1.8574938
170	0x3e27fbfe	0.16404721
171	0x3e1014d7	0.1407045
172	0x3dafb722	0.08579852
173	0x3e2afb64	0.1669746
174	0x3e1c6b84	0.15275389
175	0x3df19821	0.117965944
176	0x3d815897	0.06315725
177	0x3dd856ca	0.10563429
178	0x3c0ca577	0.008584372
179	0x3d23e04d	0.04000883
180	0x3e2086e7	0.15676461
181	0x3e814883	0.25250635
182	0x3de588f9	0.11207766
183	0x3e262542	0.1622515
184	0x3de8abda	0.11360903
185	0xbd79e092	-0.061005183
186	0xbcec918f	-0.028878001
187	0xbdfcd6e2	-0.12345673
188	0xbe0f7a98	-0.1401161
189	0xbd449734	-0.04799576
190	0xbdc973af	-0.09836518
191	0xbd37be36	-0.044859134
192	0xbe42540c	-0.18977374
193	0x3c036e8e	0.008021964
194	0xbcd588e7	-0.026066257
195	0x3dfb7e36	0.12279932
196	0x3d68fd54	0.056882218
197	0x3e5c580c	0.21517962
198	0xba71fe64	-0.00092313276
199	0x3cfed8a2	0.031109158
200	0x3dfda79d	0.12385485
201	0x3dd0b7c1	0.10191298
202	0x3e534fa9	0.20635857
203	0x3c019456	0.007908901
204	0xb9f96b43	-0.00047572897
205	0x3e282ccf	0.16423343
206	0xbd8cbcff	-0.06871986
207	0xbdb39ec8	-0.087705195
208	0xbd6ffffc	-0.058593735
209	0xbd11c47e	-0.03558778
210	0xbc19f645	-0.009397094
211	0xbc42c71e	-0.011888294
212	0xbcb4916b	-0.022041997
213	0xbd2efb94	-0.042720392
214	0xbca5edbc	-0.020254962
215	0x3c95804e	0.018249657
216	0x3cc20c5c	0.023687534
217	0xbd0aeecd	-0.033919144
218	0x40849a37	4.143825
219	0xbcb3cf0e	-0.021949317
220	0x3c4bf44e	0.0124483835
221	0xbc8ac514	-0.016939677
222	0x3c589b42	0.01322061
223	0x3babebc0	0.0052466094
224	0xbce7da6b	-0.028302392
225	0xbd44487a	-0.04792068
226	0xbcc731c2	-0.024315719
227	0xbb670a89	-0.0035254082
228	0xbd0b06cc	-0.03394203
229	0x3d849569	0.0647381
230	0x3e4febe6	0.20304832
231	0xbd983388	-0.07431704
232	0xbcc6f8ae	-0.024288502
233	0xbc0335bf	-0.00800842
234	0xbb1756fd	-0.002309262
235	0xbcc09905	-0.023510465
236	0x3af01961	0.001831811
237	0x3c3baf87	0.011455423
238	0x3b50bcf4	0.0031850906
239	0xbcaa448a	-0.020784635
240	0xbcbc9a56	-0.023022812
241	0x3b26abc9	0.0025431982
242	0xbdcb224c	-0.09918651
243	0x3d047443	0.03233744
244	0xbcd13146	-0.02553619
245	0xbac1cdec	-0.0014786101
246	0xbd185ac0	-0.03719592
247	0x3d69b47b	0.057056885
248	0xbcf1bb3b	-0.029508224
249	0x3cd1a1b7	0.025589807
250	0x3d991a8e	0.07475768
251	0x3c8f2a99	0.017476367
252	0xbd0171d6	-0.031602703
253	0xbc860909	-0.01636173
254	0xba8079f1	-0.0009801966
255	0x3c317bc6	0.010832733

curr_fe_dense1_q1.bias f4 [64]
0	0xbdaf1f2c	-0.085508674
1	0x3dd805e9	0.10548002
2	0x3e7739d6	0.24143156
3	0x3deaeb2b	0.11470636
4	0xbd381a3a	-0.044946887
5	0xbf145cf6	-0.5795435
6	0x3dade77d	0.084914185
7	0x3c5fd4ef	0.013661607
8	0x3ddc58d2	0.10759129
9	0x3e7ff993	0.24997549
10	0x3e17f91d	0.14841123
11	0x3d7861fb	0.060640316
12	0x3db720b5	0.08941785
13	0x3d2b04af	0.041752513
14	0x3ecce5dc	0.4001912
15	0x3e1eb2a1	0.15497829
16	0xbd2194c6	-0.039448522
17	0x3da9f473	0.08298578
18	0xbcccc41e	-0.02499586
19	0xbe27deb1	-0.16393544
20	0x3e3fa932	0.18716887
21	0xbe1a86ce	-0.15090486
22	0xbde0b27a	-0.10971542
23	0x3ddc3692	0.10752596
24	0x3df8342c	0.12119326
25	0xbd846f7e	-0.06466578
26	0x3e63a79a	0.22231904
27	0x3d4a3c98	0.049374193
28	0xbe7c1a36	-0.24619374
29	0xbea933c8	-0.33047318
30	0x3d6dee0e	0.058088355
31	0x3d0bb2d7	0.0341061
32	0x3de6a22f	0.11261403
33	0xbdb47fae	-0.088134155
34	0x3e9a7142	0.30164534
35	0x3d853508	0.065042555
36	0xbc97f6aa	-0.018550236
37	0xbc75bbc5	-0.014998381
38	0xbd98598b	-0.07438954
39	0x3e3429ca	0.17594066
40	0x3ea08b88	0.31356454
41	0x3e73afc0	0.23797512
42	0x3d589050	0.052872002
43	0xbe3ed1ea	-0.18634763
44	0x3e7c4fb6	0.24639782
45	0x3ea49de7	0.3215172
46	0xbe9498f5	-0.29022947
47	0x3c053972	0.008131372
48	0x3e2ec4f1	0.17067315
49	0x3e105515	0.14094956
50	0x3d6071b1	0.054795925
51	0x3e07098f	0.1318724
52	0xbd11f68e	-0.035635523
53	0x3e116c94	0.14201576
54	0xbee5a951	-0.4485574
55	0x3e0c2c53	0.13688783
56	0xbccaeca5	-0.024771044
57	0x3e3f8ee8	0.18706858
58	0x3d84151a	0.06449337
59	0x3d2aff0e	0.041747145
60	0xbe82fb3d	-0.25582305
61	0xbd1142f2	-0.035464235
62	0x3c68ffb7	0.014221123
63	0x3ca2eaf5	0.019887427

curr_fe_dense2_q1.weight f4 [64, 64]
0	0xbf8943b7	-1.072379
1	0xbec51179	-0.38489893
2	0xbe410a1d	-0.18851514
3	0x3e166b56	0.14689383
4	0xbce0b8fe	-0.027431961
5	0x3d8ee315	0.06976906
6	0xbd7e2ceb	-0.062054556
7	0xbdf31a55	-0.11870257
8	0xbe24efef	-0.16107152
9	0xbdac949a	-0.08426781
10	0xbe8e6a81	-0.2781563
11	0x3e570344	0.2099734
12	0x3cd5293f	0.026020644
13	0xbe174838	-0.14773643
14	0x3e9282c9	0.28615406
15	0xbe91a434	-0.2844559
16	0x3ea062cc	0.31325376
17	0xbe179fbd	-0.14807029
18	0x3e1f76fc	0.15572733
19	0xbe63aa56	-0.22232947
20	0xbe79334d	-0.24335976
21	0x3d6bdabf	0.05758166
22	0x3e7afb08	0.24509823
23	0xbd927f1a	-0.07153149
24	0x3da33521	0.07969118
25	0x3e88eecf	0.26744696
26	0x3e0aaa33	0.13541488
27	0x3d048bd1	0.0323599
28	0xbe491bea	-0.19639555
29	0xbeb85524	-0.36002457
30	0xbebdb644	-0.3705312
31	0x3e02027c	0.1269626
32	0x3d6f833c	0.058474764
33	0xbda5cb9d	-0.08095477
34	0xbf0dae08	-0.55343676
35	0x3e85d22b	0.26136908
36	0xbeb884ea	-0.36038905
37	0x3e8e2454	0.2776209
38	0x3e7b84a3	0.24562316
39	0x3ea5ce15	0.3238379
40	0x3e49dd2f	0.19713281
41	0xbea227e4	-0.3167106
42	0xbdca9ec0	-0.098935604
43	0xbf0b366f	-0.54379934
44	0x3e9f52e0	0.31117916
45	0x3e21e648	0.15810502
46	0xbe60ac57	-0.21940742
47	0xbf50b377	-0.8152384
48	0x3e3775b3	0.17915992
49	0x3e4239a2	0.18967298
50	0x3e3067c8	0.1722709
51	0x3e6fd261	0.23420097
52	0xbcceda94	-0.02525071
53	0xbfcf7b56	-1.6209514
54	0xbf0ee3e4	-0.55816483
55	0x3e8f1a5f	0.27949807
56	0x3d7c9b90	0.061671793
57	0xbf04a9b5	-0.5182145
58	0xbdfd0dc2	-0.1235614
59	0xbe61fc8b	-0.22068994
60	0x3daf572e	0.0856155
61	0xbf11fd16	-0.57026803
62	0x3e3a49c2	0.18192199
63	0xbded038d	-0.11572943
64	0x3e0ee803	0.13955693
65	0xbcfc0bc9	-0.030767338
66	0x3e3284b4	0.17433435
67	0xbec2f0bf	-0.380743
68	0xbda3d627	-0.07999831
69	0xbd056062	-0.03256262
70	0xbe5dd675	-0.2166384
71	0x3d5563da	0.05209718
72	0xbe7d66c8	-0.24746239
73	0xbe5db2f1	-0.21650292
74	0x3e614de6	0.22002372
75	0x3e0acf10	0.1355555
76	0x3e817c3b	0.25290093
77	0x3e151cea	0.14561811
78	0xbdeb107d	-0.11477754
79	0xbed63882	-0.41839987
80	0x3eb8caee	0.36092323
81	0xbe1cbf81	-0.15307428
82	0x3ead3006	0.338257
83	0x3dba4de2	0.09096886
84	0xbe5625e0	-0.20912886
85	0x3be8e980	0.0071079135
86	0xbea59a70	-0.3234439
87	0xbd8cd93e	-0.06877373
88	0xbe5e9ddc	-0.21739906
89	0x3da8e15e	0.082461104
90	0xbe8cda1c	-0.27510154
91	0xbe8cd373	-0.27505073
92	0xbf1c1ad8	-0.6097846
93	0xbe39e6f7	-0.18154512
94	0x3e868d8b	0.26279864
95	0x3d8083fe	0.062751755
96	0x3dd5c466	0.10437851
97	0x3dfb3fb9	0.122680135
98	0x3e09515c	0.13409942
99	0xbf1547a6	-0.5831245
100	0x3dc73dfd	0.0972862
101	0xbe281fdf	-0.16418408
102	0xbd8b94b4	-0.06815472
103	0x3daba11d	0.08380339
104	0x3ec6fcf2	0.38864857
105	0xbdd33562	-0.10312916
106	0x3e827b7a	0.2548483
107	0x3e9e7801	0.3095093
108	0x3e2292ab	0.15876262
109	0x3e8d2480	0.2756691
110	0xbdc28d21	-0.094995745
111	0xbe14e251	-0.14539458
112	0x3e0b2828	0.13589537
113	0xbe3a48f8	-0.18191898
114	0x3de8a249	0.113590784
115	0xbd23ea8d	-0.040018607
116	0x3d086104	0.033295646
117	0xb9f5074b	-0.00046735475
118	0x3e878c98	0.26474452
119	0x3f10986c	0.5648258
120	0xbd8b2f95	-0.06796185
121	0x3e00bc76	0.12571892
122	0x3dada429	0.08478577
123	0xbdc6317b	-0.096774064
124	0xbd16a46d	-0.036777902
125	0xbe826af7	-0.25472233
126	0xbdb7a62c	-0.08967242
127	0xbdb1079f	-0.08644032
128	0xbdf4216b	-0.119204365
129	0xbd9ef93d	-0.07762382
130	0xbb5c1036	-0.0033578998
131	0x3e82a8d7	0.2551944
132	0x3d95c2e2	0.073125616
133	0xbf7171be	-0.9431418
134	0x3e0d80f8	0.13818729
135	0xbdc9011a	-0.09814663
136	0x3e80dec0	0.25169945
137	0xbbd1e10a	-0.0064050006
138	0x3d108e03	0.035291683
139	0xbd6862a3	-0.056734692
140	0x3dcc08f6	0.09962647
141	0x3f08d8f8	0.5345607
142	0xbe6350cb	-0.22198789
143	0x3cf83fcf	0.030303864
144	0xbdb1fa9c	-0.08690378
145	0x3e39a5aa	0.18129602
146	0x3dd5bef5	0.10436813
147	0xbe37c13a	-0.17944804
148	0xbe961c5c	-0.2931851
149	0xbedaebd8	-0.4275806
150	0xbdadbc86	-0.084832236
151	0x3e02c8ee	0.12771961
152	0x3e26003c	0.16211027
153	0x3ddf6344	0.10907605
154	0x3d552e76	0.05204626
155	0x3e562a40	0.20914555
156	0x3d84755c	0.06467697
157	0xbf2c43f4	-0.6729119
158	0xbea8951e	-0.32926267
159	0x3d9b5b51	0.075857766
160	0x3dc9fc4b	0.09862574
161	0x3e44f6dc	0.19234794
162	0x3d89959b	0.06717988
163	0xbe1ce093	-0.15320043
164	0x3e279f0a	0.16369262
165	0xbead180c	-0.3380741
166	0xbe22b6e1	-0.15890075
167	0xbf8688d1	-1.0510503
168	0xbe8b8513	-0.27249965
169	0x3e2e781b	0.17038004
170	0x3db0d683	0.08634665
171	0xbef3beac	-0.4760641
172	0xbe1acd76	-0.1511744
173	0xbe2d61d1	-0.16931845
174	0x3ca1f376	0.019769412
175	0xbea0ae5a	-0.3138302
176	0x3e2f4179	0.1711482
177	0xbc1bf52d	-0.009518904
178	0x3e3d1d22	0.18468145
179	0xbdffd5b2	-0.12491931
180	0xbdf9a64e	-0.12189923
181	0xbec10c53	-0.37704715
182	0xbde4ac12	-0.11165632
183	0xbf1804ca	-0.5938231
184	0xbc096e2b	-0.0083880825
185	0xbeda5130	-0.42640066
186	0xbe333de7	-0.17504083
187	0x3dae2865	0.085037984
188	0xbe75d48e	-0.24006864
189	0x3e0b8763	0.13625865
190	0xbe01051c	-0.12599605
191	0xbdefb7b5	-0.11704961
192	0xbe1fe7b1	-0.15615727
193	0x3e85daf3	0.26143607
194	0x3e867141	0.2625828
195	0xbd8fc47f	-0.070199005
196	0x3d570b8c	0.052501246
197	0xbe075eb1	-0.13219716
198	0xbdd9c20e	-0.10632716
199	0xbdc6a8d8	-0.09700173
200	0x3f39ec4d	0.7262619
201	0xbe3137b4	-0.17306405
202	0xbe923437	-0.28555462
203	0xbe51370f	-0.2043116
204	0x3c7a4502	0.015275242
205	0x3e1739b8	0.14768112
206	0x3da295c4	0.07938722
207	0xbc981c38	-0.018568143
208	0xbe680330	-0.22657466
209	0xbd161ed8	-0.03665051
210	0x3deee0fe	0.116640076
211	0xbe07dfa4	-0.13268906
212	0x3db6f3ad	0.08933196
213	0xbd312be0	-0.043254733
214	0x3e97505f	0.29553506
215	0x3dba6b0d	0.091024496
216	0xbe08134c	-0.13288611
217	0xbecccb4c	-0.39998853
218	0x3e8bb123	0.27283582
219	0x3e060270	0.13086867
220	0xbe91a54b	-0.2844642
221	0xbe545166	-0.20734176
222	0x3d759059	0.059952114
223	0x3cc1747b	0.023615113
224	0xbc94f742	-0.018184308
225	0xbe38ede4	-0.18059498
226	0xbe19bc7b	-0.15013306
227	0x3e41f624	0.18941551
228	0xbc0b42d9	-0.008499824
229	0xbf3e7126	-0.743914
230	0xbce24e0f	-0.027625112
231	0xbedec114	-0.43506682
232	0x3ea98cdb	0.33115277
233	0x3e1f06d5	0.1552995
234	0xbf14d4a1	-0.58136946
235	0x3d8804e3	0.06641557
236	0xbd09a2da	-0.033602573
237	0x3d553f3e	0.052062266
238	0x3dbc8c7a	0.09206481
239	0xbe13f758	-0.14449823
240	0xbf58eb3d	-0.84733945
241	0x3cbf69b4	0.023365833
242	0x3d9e5a4d	0.07732067
243	0xbf3046be	-0.68857944
244	0x3e80f652	0.25187927
245	0x3df4a5be	0.11945675
246	0x3d25dbef	0.04049295
247	0xbc836bdd	-0.016042644
248	0x3de7073f	0.11280679
249	0x3d570c8d	0.052502204
250	0x3daf74a4	0.08567169
251	0xbdcdfbe2	-0.100578085
252	0x3ef486f2	0.47759205
253	0x3d9d3923	0.076769136
254	0x3da620d8	0.08111733
255	0xbdd1f673	-0.102520846

curr_fe_dense2_q1.bias f4 [64]
0	0xbea475b5	-0.32121053
1	0x3e94ec60	0.2908659
2	0x3dd96706	0.10615353
3	0xbea0f6e9	-0.31438377
4	0x3e63d73f	0.22250079
5	0xbe5686e4	-0.20949894
6	0x3de33b91	0.11095346
7	0x3eb0a78e	0.34502834
8	0x3e3d9401	0.1851349
9	0x3e0d73c4	0.13813692
10	0x3cc9459a	0.024569321
11	0x3ecea747	0.40361997
12	0x3ec6237a	0.3869894
13	0x3e3c83d6	0.18409666
14	0x3e840b1d	0.2578973
15	0xbe73df5b	-0.23815672
16	0x3db2df88	0.087340415
17	0xbca33722	-0.01992375
18	0x3d6b4269	0.05743638
19	0xbc89d408	-0.016824737
20	0xbbde5bf4	-0.006785864
21	0x3e705fc0	0.23474026
22	0x3dcd90e9	0.10037405
23	0xbe275085	-0.1633931
24	0xbd83a08c	-0.06427106
25	0x3e90ef20	0.28307438
26	0x3eb8d63a	0.36100942
27	0x3e4b164f	0.19832729
28	0x3e2923c3	0.16517548
29	0x3d722687	0.059118774
30	0xbe03295a	-0.12808743
31	0x3d036d18	0.03208646
32	0x3e43fde9	0.19139828
33	0x3d4ff786	0.050773166
34	0xbce7da69	-0.028302388
35	0xbe3b07ab	-0.18264644
36	0x3e345bdd	0.17613168
37	0x3db174d8	0.08664864
38	0x3d75e4b9	0.06003258
39	0x3e802998	0.25031734
40	0xbea3df24	-0.3200618
41	0xbe0273ad	-0.1273944
42	0x3cfcd58b	0.030863544
43	0xbe5b0791	-0.21389605
44	0xbdde1168	-0.10843164
45	0xbdde415a	-0.108523086
46	0xbdcea301	-0.10089684
47	0xbde5a15f	-0.1121242
48	0xbcf7355b	-0.030176809
49	0xbda9b084	-0.08285621
50	0x3e1d46fd	0.15359111
51	0x3bc10528	0.0058905073
52	0x3de0762c	0.109600395
53	0xbec2f281	-0.3807564
54	0xbd11a131	-0.035554115
55	0x3e15d2c5	0.14631183
56	0xbccaecb3	-0.02477107
57	0xbdbc5fe1	-0.09197975
58	0x3e5521bc	0.2081365
59	0x3dd129e6	0.102130696
60	0xbd93058b	-0.071787916
61	0x3e4dbd7f	0.20091818
62	0x3ea25557	0.31705734
63	0xbc0a6728	-0.008447446

mem_dense_q1.weight f4 [64, 50]
0	0xbaed64dc	-0.0018111723
1	0xbf1158fa	-0.5677639
2	0x3e414f6e	0.18877956
3	0xbcd6959d	-0.026194388
4	0x3d5bcb0d	0.05366044
5	0x3cbd1907	0.023083223
6	0xbd7b6228	-0.061372906
7	0xbd167052	-0.03672821
8	0xbd57d7a6	-0.052695893
9	0xbf07d75b	-0.5306298
10	0xbc568625	-0.013093506
11	0xbe06d70c	-0.13167971
12	0xbcd73f12	-0.026275191
13	0x3cd7d74c	0.026347779
14	0x3dfcb818	0.123398006
15	0x3e2948bf	0.16531657
16	0xba0544f4	-0.0005083822
17	0xbd9532a6	-0.07285051
18	0x3d435d93	0.04769666
19	0xbc06667c	-0.008203145
20	0x3f633929	0.88759094
21	0xbda29d48	-0.07940155
22	0x406691e5	3.6026547
23	0x3c5bf8f3	0.013426053
24	0x3dcf40f2	0.10119809
25	0x3e33281d	0.17495771
26	0x3bd2047c	0.006409226
27	0xbd8779ed	-0.06615052
28	0xbd8ae5fe	-0.06782149
29	0xbe0cfef2	-0.13769129
30	0xbcaafcb3	-0.02087245
31	0xbca37da7	-0.019957377
32	0xb99cfc09	-0.0002994242
33	0xbf2c5e83	-0.67331713
34	0x3e8ea56f	0.2786059
35	0x3d1c020e	0.038087897
36	0xbb33fc27	-0.0027463527
37	0x3cbf147e	0.023325201
38	0xbd21d445	-0.039509077
39	0x3e180ca8	0.14848578
40	0xbc6f2ce6	-0.014598107
41	0xbd649bec	-0.05581276
42	0x3d9542bb	0.072881185
43	0xbdbd16e6	-0.09232883
44	0x3d829b2c	0.06377253
45	0x3ea50cfc	0.3223647
46	0x3ea7d2a7	0.32777902
47	0x3e89b1c2	0.2689343
48	0x3e7bb5dd	0.24581094
49	0x3e96ad34	0.29429018
50	0x3c440d57	0.011966071
51	0x3ee5c3a0	0.44875813
52	0x3d8eab34	0.06966248
53	0xc0abf523	-5.373674
54	0xbe391c61	-0.18077232
55	0xbe17db84	-0.14829832
56	0x3c18bab6	0.009321859
57	0xbce65336	-0.02811585
58	0xbdc13a7c	-0.09434983
59	0xbd6ff04c	-0.058578774
60	0xbb5af291	-0.003340874
61	0xbde93bb6	-0.11388342
62	0x3d439624	0.047750607
63	0xbba51b46	-0.0050386516
64	0x3d44c52b	0.048039597
65	0xbff38df0	-1.9027691
66	0x3cdf16d3	0.027232563
67	0x3e08b992	0.1335204
68	0xbda2b82a	-0.07945283
69	0xbd03b50a	-0.032155074
70	0xbc9a9c73	-0.018873429
71	0x3d63a8be	0.055580847
72	0x3e28a814	0.16470367
73	0x3d8c72a7	0.06857806
74	0x3cd6a5a5	0.026202032
75	0xbc6429c6	-0.013925975
76	0xbda83be5	-0.08214549
77	0xbee166be	-0.440237
78	0xbe8bff9f	-0.2734346
79	0xbda4d320	-0.080480814
80	0xbdd8e237	-0.10590022
81	0x3c96b4de	0.018396791
82	0xbc064e85	-0.008197431
83	0xbcd4b3d1	-0.02596465
84	0xbda4ea30	-0.0805248
85	0x3c8fd38d	0.01755693
86	0xbcc8ac18	-0.024496123
87	0x3dbc03ad	0.091803886
88	0x3e2a9c01	0.16661073
89	0xbc9ae28b	-0.018906852
90	0x3db7ad78	0.089686334
91	0xbd0ed5f5	-0.034872014
92	0xbba6d35b	-0.0050911135
93	0xbda5ed25	-0.08101872
94	0xbd3c72dc	-0.046007976
95	0x3db47eab	0.088132225
96	0x3cb85b4c	0.022504471
97	0xbdf05582	-0.11735059
98	0xbdd37455	-0.10324923
99	0x3d64bf8a	0.05584673
100	0xbb299f36	-0.002588225
101	0x3d49383b	0.04912589
102	0x3e5a823d	0.21338744
103	0x3d3ab514	0.045582846
104	0xbde66351	-0.11249412
105	0x3de3333a	0.11093755
106	0x3ea7fb86	0.32809085
107	0xbe6d7aed	-0.23191424
108	0xbe14e95c	-0.14542145
109	0xbf340267	-0.70316166
110	0x3e7e21e9	0.24817623
111	0x400e7c9d	2.2263558
112	0x3e063a18	0.13108099
113	0xbe131468	-0.14363253
114	0x3d422ecb	0.047407907
115	0xbe376892	-0.17910984
116	0xbe34f892	-0.17672947
117	0xbe59aa89	-0.2125646
118	0xbe2524de	-0.16127345
119	0xbd1e60f8	-0.038666695
120	0x3e0a5c6a	0.13511816
121	0x3e2d9e01	0.16954805
122	0x3efbda7f	0.49190137
123	0x3d7e4f7c	0.06208752
124	0xbe59e439	-0.21278466
125	0xbda2dc95	-0.07952229
126	0x3d27d709	0.040976558
127	0x3e226624	0.15859276
128	0xbdea9856	-0.11454837
129	0xbdb23f95	-0.087035336
130	0x3c15e1f0	0.009148106
131	0xbb8c14d2	-0.004274943
132	0x3eb5f597	0.35538933
133	0x3ee4287c	0.44562137
134	0x3db9c994	0.09071651
135	0x3f170b3f	0.59001535
136	0x3e2982a1	0.16553737
137	0xbdf2cbc5	-0.11855272
138	0xbeb7f38a	-0.35927993
139	0xbe0a6d52	-0.13518265
140	0xbd8e2198	-0.06940001
141	0xbe080488	-0.13282979
142	0xbdec128e	-0.115269765
143	0xbe5f0082	-0.21777537
144	0x3da62269	0.08112032
145	0xbe424df7	-0.18975054
146	0xbdcf8aaf	-0.10133874
147	0x3d895a32	0.067066565
148	0x3e95d5c5	0.29264656
149	0x3d8bc2ae	0.068242416
150	0xb7e4213f	-2.71952e-05
151	0xbf7998c9	-0.97498757
152	0xbcb4dfc1	-0.02207935
153	0x3b435d02	0.0029810076
154	0x3ce75ccd	0.028242493
155	0xbda96ff8	-0.082733095
156	0x3f4ec5c6	0.8077053
157	0xbdbe0b0d	-0.092794515
158	0xbc05b08c	-0.008159768
159	0x3f08b2aa	0.5339762
160	0x3e8d4047	0.27588102
161	0xbe0643d5	-0.13111813
162	0xbe6bcb73	-0.23026828
163	0xbe6a4203	-0.22876744
164	0x3a812685	0.0009853399
165	0xbd70d77c	-0.058799252
166	0xbe9eb3e6	-0.30996627
167	0xbe57dbc7	-0.21079932
168	0xbf2c760a	-0.67367613
169	0x3ddcb468	0.10776597
170	0xbe4347c4	-0.19070345
171	0xbef1dde2	-0.47239596
172	0xbec5fe2b	-0.38670477
173	0xbf3310fe	-0.69947803
174	0x3cf73f6a	0.030181605
175	0x3e6cd79d	0.23129125
176	0xbf1bc956	-0.6085409
177	0xbe9abaa4	-0.3022052
178	0xbee0cece	-0.4390778
179	0xbe54dfb7	-0.20788465
180	0xbef40cbf	-0.47665974
181	0x3d0efaaf	0.03490704
182	0xbe6f00c7	-0.2334014
183	0xbe8a329e	-0.26991743
184	0xbe3c34df	-0.18379544
185	0xbe08d06c	-0.13360757
186	0xbefe75f9	-0.4969938
187	0xbde0f0e2	-0.10983445
188	0x3e445782	0.19174007
189	0x3d69d980	0.05709219
190	0xbe12741e	-0.14302108
191	0xbd5ac2a3	-0.053408276
192	0x3dd714e1	0.10502029
193	0x3ebc5545	0.36783805
194	0x3e39549d	0.18098684
195	0xbead94ab	-0.33902487
196	0xbd385086	-0.044998668
197	0x3e96d09d	0.29456034
198	0xbe2cba9b	-0.1686806
199	0xbe0637f4	-0.13107282
200	0xbb4f597b	-0.0031639028
201	0x3dd9fddd	0.10644124
202	0xbf2eb258	-0.6824088
203	0xbf8ada6f	-1.0847911
204	0xbdf2b6ca	-0.118512705
205	0x3dc64a5f	0.09682154
206	0x3e56ffb1	0.20995976
207	0x3dc529fa	0.09627147
208	0x3e323a30	0.1740501
209	0x3de584aa	0.11206944
210	0xbe63a001	-0.22229005
211	0xbc931f30	-0.017959207
212	0x3e1ebeb1	0.1550243
213	0xbdd383eb	-0.10327896
214	0x3e2d00f5	0.16894896
215	0x3e5fdcd3	0.21861582
216	0x3d856d19	0.06514949
217	0x3c50d737	0.012746624
218	0xbc59dfaa	-0.013297955
219	0xbcbc6879	-0.022999035
220	0xbf491a67	-0.7855591
221	0xbeb28cc2	-0.34873015
222	0x3e8c0305	0.27346054
223	0x3d2dacc5	0.042401094
224	0x3de35430	0.11100042
225	0xbc910569	-0.017702775
226	0xbd9abf78	-0.07556051
227	0x3dbea7e7	0.093093686
228	0x3f137ab8	0.5760913
229	0x3eb9d737	0.36297008
230	0x3d97a2fe	0.07404135
231	0x3e6d4285	0.23169906
232	0x3d24c663	0.04022826
233	0x3d80e730	0.062940955
234	0xbe654014	-0.22387725
235	0xbcc0ab92	-0.023519311
236	0xbe4b1c8d	-0.1983511
237	0x3d1957a4	0.037437096
238	0xbec9079b	-0.39263615
239	0xbe75f9bb	-0.24021046
240	0x3e81f0e7	0.25379106
241	0x3e9f7b64	0.31148827
242	0x3d9a85f0	0.07545078
243	0x3efd47e1	0.49468902
244	0x3d7b6bb2	0.061382003
245	0xbec59b66	-0.38595122
246	0xbc53fa7e	-0.01293814
247	0x3e536b15	0.20646317
248	0x3e8615a9	0.261884
249	0x3e28b6a2	0.16475919
250	0xbc82c501	-0.01596308
251	0xbea44101	-0.32080844
252	0x3efc04a5	0.49222293
253	0x3e03a0e1	0.12854339
254	0x3e4eff44	0.20214564
255	0x3eff4da5	0.49863926

mem_dense_q1.bias f4 [64]
0	0x3e96d6bf	0.29460713
1	0x3eb96f81	0.36217883
2	0x3e324c5f	0.17411946
3	0x3de25321	0.11051012
4	0x3f04fdf0	0.5194998
5	0x3de3741a	0.11106129
6	0x3dd96a5f	0.10615992
7	0x3ed0880a	0.4072879
8	0x3ebb3c09	0.3656924
9	0xbc1dd3b7	-0.009632996
10	0xbbc36c88	-0.0059638657
11	0x3f0349d9	0.5128456
12	0x3d8bb3f2	0.06821431
13	0x3db44fbc	0.088042706
14	0xbe8268f2	-0.25470692
15	0xbd3e1687	-0.046408202
16	0x3df7fde2	0.12108971
17	0xbd9aff46	-0.07568221
18	0x3e5c5407	0.21516429
19	0xbc52b443	-0.012860361
20	0xbe4249ec	-0.18973511
21	0x3e20c6ce	0.15700838
22	0x3cb87bd1	0.022519978
23	0xbbc9c2da	-0.0061572613
24	0xbe106ff3	-0.14105205
25	0x3ec3cd80	0.38242722
26	0x3e386e3c	0.18010801
27	0xbd00e474	-0.03146787
28	0x3e4a74b0	0.19771075
29	0x3ea9239a	0.33034974
30	0xbe44d8c6	-0.19223318
31	0x3e419c71	0.18907334
32	0x3df8e8d8	0.121537864
33	0xbd017b41	-0.031611685
34	0x3caaec70	0.020864695
35	0xbe2038d5	-0.1564668
36	0xbe3d23a4	-0.18470627
37	0x3e6c0f19	0.23052634
38	0x3d43c2cd	0.0477932
39	0x3dc00075	0.09375087
40	0xbe1325d3	-0.14369898
41	0x3e6db7b9	0.23214616
42	0xbd8c7f98	-0.06860274
43	0xbe4a2930	-0.19742274
44	0x3d1e8718	0.038703054
45	0x3e89c962	0.26911455
46	0x3e5288d7	0.20560013
47	0x3e573890	0.2101767
48	0x3e1c640e	0.15272543
49	0x3e4793f6	0.19490036
50	0xbdb5d7d0	-0.088790536
51	0x3d7bb7b2	0.061454482
52	0x3ec93d81	0.39304736
53	0x3f37eec8	0.71848726
54	0x3f082a9a	0.53190005
55	0xbe745b9f	-0.23863076
56	0xbd23c155	-0.039979298
57	0x3e35e013	0.17761259
58	0x3dc5ab79	0.096518464
59	0xbdfa3664	-0.122174054
60	0x3dba2ccf	0.09090578
61	0x3e444e7b	0.19170563
62	0x3e9da6ee	0.3079142
63	0x3f01f4c4	0.5076411

mem_LSTM_q1.weight_ih_l0 f4 [256, 64]
0	0xbeec8f85	-0.46203247
1	0x3eb2c0dd	0.34912768
2	0x3e6a2be7	0.2286831
3	0x3decc804	0.115615875
4	0xbee48459	-0.44632223
5	0x3decb3e1	0.11557747
6	0x3e8d2e88	0.27574563
7	0xbbca0129	-0.006164689
8	0x3eb582ec	0.35451448
9	0xbd9dae73	-0.07699289
10	0xbe0ed3f0	-0.13948035
11	0x3f48048b	0.7813193
12	0x3f10b699	0.5652862
13	0x3d576fd3	0.05259688
14	0x3f0ee3eb	0.55816525
15	0x3df72096	0.12066762
16	0x3f02ed4b	0.5114333
17	0x3ef7800d	0.48339882
18	0x3e01f451	0.12690856
19	0xbcbe4a23	-0.02322871
20	0xbeabcdb1	-0.33555368
21	0x3fdddefe	1.7333677
22	0x3e14f36d	0.14545985
23	0xbde7a71e	-0.11311172
24	0x3de0ea01	0.10982133
25	0xbd08eda6	-0.033429764
26	0x3f26df34	0.6518433
27	0xbe9df3e9	-0.3085015
28	0x3dffc386	0.12488465
29	0x3eef953f	0.46793553
30	0x3f248726	0.6426872
31	0x3e9494a0	0.29019642
32	0xbec9e469	-0.39432076
33	0x3ebf3ef0	0.37352705
34	0x3fa564d6	1.2921398
35	0x3e7a6b28	0.2445494
36	0x3f5b96fe	0.8577727
37	0xbe65d78f	-0.2244551
38	0x3edd1d57	0.43186447
39	0xbec4108b	-0.3829387
40	0x3e7afc79	0.24510373
41	0xbd0490fc	-0.03236483
42	0x3f00eeb8	0.50364256
43	0xbd406222	-0.046968587
44	0x3daffc23	0.08593013
45	0xbf0b6b87	-0.5446095
46	0xbf03a90c	-0.5142982
47	0x3ee41b99	0.44552305
48	0x3e19a8b1	0.15005757
49	0x3e00c899	0.12576522
50	0x3e4912db	0.19636099
51	0xbdd44f03	-0.10366633
52	0x3d8da654	0.0691649
53	0x3ee6de4d	0.45091477
54	0x3f032ed0	0.51243305
55	0xbeef2f17	-0.46715614
56	0x3f3ae0f3	0.72999495
57	0xbda37abf	-0.07982396
58	0x3f51eecc	0.82005
59	0x3d257710	0.04039675
60	0x3f279347	0.654591
61	0xbe9e03b4	-0.308622
62	0xbd8a91d4	-0.06766096
63	0x3d5c168c	0.05373244
64	0x3e5f50bc	0.21808141
65	0x3e599671	0.21248795
66	0x3f128c74	0.57245564
67	0x3e95065d	0.29106417
68	0x3dd59998	0.10429686
69	0x3ec7a3d9	0.38992193
70	0xbe0101ad	-0.12598296
71	0x3d9b8cf3	0.07595243
72	0x3ed4a333	0.4153076
73	0xbe6b488d	-0.22976895
74	0x3d455ecf	0.04818612
75	0x3eb5991d	0.3546838
76	0xbf2079b8	-0.6268573
77	0x3f395010	0.7238779
78	0x3e1eb99b	0.1550049
79	0x3e8e5192	0.27796608
80	0x3f06bbee	0.5263051
81	0x3ec15787	0.3776209
82	0x3dd2a2fc	0.10284993
83	0xbfbf32ed	-1.4937416
84	0x3f002918	0.50062704
85	0x3e4bad51	0.19890334
86	0xbe40a8d3	-0.18814401
87	0x3e0d0cdb	0.13774435
88	0xbf6a088f	-0.9141931
89	0xbc0a68f1	-0.008447872
90	0x3ea63f49	0.32470158
91	0x3d85aaf2	0.06526746
92	0xbef5a310	-0.4797597
93	0x3de3d48c	0.111245245
94	0xbd5e665c	-0.054296836
95	0x3d65d3db	0.056110244
96	0x3d41ad2c	0.04728429
97	0x3e2d8b5e	0.16947696
98	0xbe2dc201	-0.16968538
99	0x3f0f5ffd	0.5600584
100	0x3e0941c0	0.13403988
101	0xbe17ce89	-0.1482488
102	0x3cde6706	0.027148735
103	0xbecb64eb	-0.39725432
104	0xbdc8379a	-0.0977623
105	0x3c853dcb	0.016264817
106	0xbe95c64d	-0.29252854
107	0xbee3c482	-0.4448586
108	0x3e5eb2a5	0.21747835
109	0xbe7c33fc	-0.24629205
110	0xbde48fac	-0.11160216
111	0x3eb78530	0.35843801
112	0x3e62be8e	0.22143003
113	0xbe40354c	-0.18770331
114	0x3f1f37c4	0.62194467
115	0xbe4a5b71	-0.19761445
116	0x3ec2563a	0.3795641
117	0x3f12f711	0.57408243
118	0xbdd426a9	-0.10358936
119	0x3f09c93e	0.53822696
120	0xbe4234fe	-0.18965527
121	0x3ea86428	0.32888913
122	0xbd1a19e4	-0.037622347
123	0x3f242797	0.6412291
124	0xbea6a708	-0.3254931
125	0xbf3add82	-0.72994244
126	0x3a4dc5f9	0.00078496296
127	0x3f119195	0.56862766
128	0x3f5b5ba3	0.856867
129	0xbe7766b7	-0.24160276
130	0xbe3bce83	-0.18340497
131	0xbf18743a	-0.5955235
132	0xbf2947ec	-0.6612537
133	0xbd1582cb	-0.036501687
134	0x3f050493	0.51960105
135	0xba64ebba	-0.0008732636
136	0xbf332122	-0.6997243
137	0xbe30429e	-0.17212912
138	0x3d095026	0.0335237
139	0x3eba2b78	0.3636129
140	0x3deab7d0	0.11460841
141	0xbea54e50	-0.3228631
142	0x3ef2282b	0.4729627
143	0xbf2577b8	-0.646358
144	0x3f0508c3	0.51966494
145	0xbe1870c9	-0.14886774
146	0x3e161c68	0.14659274
147	0xbec342da	-0.3813694
148	0x3ea8564f	0.32878348
149	0x3df7a5fc	0.12092206
150	0x3e745a8a	0.23862663
151	0x3ee3f8c1	0.44525722
152	0x3e122552	0.14272049
153	0xbcbeccde	-0.023291048
154	0x3e3a6b96	0.18205103
155	0xbbbe75a6	-0.0058123646
156	0x3e6a67dd	0.22891183
157	0x3dd9dbc1	0.10637618
158	0xbf071d6e	-0.5277928
159	0xbdce34e1	-0.100686796
160	0x3edd2093	0.43188915
161	0x3dc0617f	0.09393596
162	0xbf62460c	-0.88388133
163	0xbe3d3f41	-0.1848116
164	0x3ee0a9f2	0.43879658
165	0x3ede6f2e	0.43444198
166	0xbd3ad41e	-0.045612447
167	0x3e77d1c5	0.24201114
168	0x3efb663f	0.49101445
169	0xbe88a83a	-0.26690847
170	0x3e8c965c	0.27458465
171	0xbee2ee64	-0.44322503
172	0x3e5e7e88	0.21727955
173	0xbe085a01	-0.13315584
174	0x3f01d379	0.50713307
175	0xbf27af14	-0.65501523
176	0x3e1948ef	0.14969228
177	0xbd7aa1ef	-0.06118959
178	0x3e898f04	0.26866925
179	0x3d7f4cc3	0.062329065
180	0x3e77feb5	0.24218257
181	0xbedfc74c	-0.4370674
182	0x3e026b8f	0.12736343
183	0xbcb827d2	-0.022479925
184	0x3e6e84ea	0.2329289
185	0xbe8817e8	-0.2658074
186	0x3f6413a3	0.89092463
187	0x3f360210	0.710969
188	0xbf2417c3	-0.6409876
189	0xbe4dd797	-0.20101772
190	0xbe82306a	-0.25427562
191	0xbe87015f	-0.26368234
192	0xbe8996e7	-0.26872942
193	0x3d718eac	0.058973953
194	0xbee63ab4	-0.44966662
195	0x3e389bb7	0.1802815
196	0xbd5cec13	-0.053936075
197	0xbd8e75e2	-0.06956078
198	0x3f5b4251	0.85648066
199	0xbeb2046d	-0.34769002
200	0x3f10d307	0.56572
201	0x3e8e74cf	0.27823493
202	0xbe1fe56e	-0.15614864
203	0x3ef3b42e	0.47598404
204	0xbe5066c5	-0.20351703
205	0xbe8690e0	-0.26282406
206	0xbebcfed1	-0.3691316
207	0xbe5314d0	-0.20613408
208	0x3f866751	1.050028
209	0x3dee88cb	0.11647185
210	0xbe92ef37	-0.2869813
211	0xbe032163	-0.12805705
212	0x3f42fa22	0.7616292
213	0x3ece46f0	0.40288496
214	0x3e06f0d1	0.13177802
215	0x3e6930d1	0.22772528
216	0x3d2979ab	0.041375797
217	0x3e0d4efe	0.13799664
218	0x3e39504d	0.18097039
219	0x3f06c20e	0.52639854
220	0xbc7c4f70	-0.015399799
221	0x3f076327	0.5288567
222	0xbdb889d5	-0.090106644
223	0x3de83b30	0.11339414
224	0xbe28a6f4	-0.16469938
225	0xbe63a709	-0.22231688
226	0x3f3c6c76	0.73603
227	0xbebc284b	-0.3674949
228	0x3fb36b30	1.4017086
229	0x3e57b167	0.21063767
230	0x3e9bc1de	0.30421346
231	0xbe9ecfa9	-0.31017807
232	0xbea56446	-0.32303065
233	0xbef37da5	-0.47556797
234	0xbe4ff84a	-0.20309559
235	0x3e886203	0.26637277
236	0xbe6157dd	-0.22006173
237	0x3e281c44	0.16417032
238	0xbf531110	-0.8244791
239	0x3f63b4fb	0.8894803
240	0xbe4c3dad	-0.19945402
241	0x3f8289be	1.0198286
242	0xbe3698b5	-0.1783169
243	0x3db110a0	0.08645749
244	0x3e31c103	0.17358784
245	0x3f0005d0	0.5000887
246	0x3e7413c9	0.23835672
247	0x3ca883ee	0.020570721
248	0x3d223699	0.03960285
249	0x3ea1c4e9	0.31595543
250	0x3f5e25ad	0.8677624
251	0x3ec468b2	0.38361126
252	0x3d9d96cb	0.07694777
253	0x3eff07fc	0.4981078
254	0x3e97130b	0.29506716
255	0xbe8d8c4e	-0.27646106

mem_LSTM_q1.weight_hh_l0 f4 [256, 64]
0	0xbee6d544	-0.45084584
1	0xbd92f7f6	-0.07176201
2	0x3e99b6b6	0.3002221
3	0x3e83c656	0.25737256
4	0xbebad81f	-0.36493012
5	0xbe72bd49	-0.23705019
6	0x3f11ed80	0.5700302
7	0x3dea711c	0.11447355
8	0x3efc3855	0.49261728
9	0xbd087fa3	-0.03332485
10	0x3f9024d7	1.1261243
11	0xbd010deb	-0.031507414
12	0xbe6bbc30	-0.23021007
13	0x3ee55e65	0.4479858
14	0xbea4cd13	-0.3218771
15	0xbf1c0d7f	-0.60958093
16	0x3f2393d3	0.63897437
17	0x3e6fbade	0.23411128
18	0xbf17cdd2	-0.5929843
19	0xbd7e3153	-0.062058758
20	0x3f8466c9	1.0343868
21	0xbe5279e5	-0.20554312
22	0x3eb08648	0.34477448
23	0xbdee95fa	-0.116496995
24	0x3e48488b	0.19558923
25	0xbe8bdc48	-0.273165
26	0xbe046bb3	-0.12931709
27	0xbf0a86b4	-0.5411179
28	0x3ed61cd6	0.41818875
29	0x3ed82887	0.4221842
30	0xbdb645c7	-0.08900028
31	0x3edd8d44	0.4327184
32	0xbf7f6b5f	-0.9977321
33	0xbed82bc5	-0.42220894
34	0x3e9194fd	0.28433982
35	0xbe5114fa	-0.20418158
36	0xbd96225c	-0.07330772
37	0xbe35ac4c	-0.17741507
38	0xbea0ebec	-0.31429994
39	0xbe3cfe48	-0.18456376
40	0xbf2a1999	-0.6644531
41	0x3d52bc7f	0.051449295
42	0xbd69e08d	-0.057098914
43	0x3e2db605	0.16963966
44	0x3fb090d0	1.3794193
45	0x3ec12aa9	0.3772786
46	0xbe9d7bd0	-0.30758524
47	0x3e838a10	0.2569127
48	0xbf419061	-0.7561093
49	0xbea50407	-0.32229635
50	0xbe9c658e	-0.3054623
51	0xbdd50fe4	-0.104034215
52	0xbd8a2318	-0.06744975
53	0x3f13a27a	0.57669795
54	0x3f5c8600	0.8614197
55	0x3fa7aeb3	1.3100189
56	0x3e11d2c4	0.14240557
57	0xbf2f9d3d	-0.685993
58	0x3ec41036	0.38293618
59	0xbdaa7a37	-0.08324092
60	0x3f6ad7bc	0.91735435
61	0xbe9c07a8	-0.3047459
62	0x3f0cd8b0	0.5501814
63	0xbe8f0758	-0.2793529
64	0xbe277f0b	-0.16357057
65	0x3d84b6dd	0.06480191
66	0xbe6dc58e	-0.23219892
67	0x3ef733d2	0.48281723
68	0xbe500800	-0.20315552
69	0x3e111c1f	0.14170884
70	0xbf756cfa	-0.9586941
71	0xbf3a6fc6	-0.728268
72	0x3c126693	0.008935588
73	0xbee1aea2	-0.44078547
74	0x3e952b9f	0.29134843
75	0xbf17c8a4	-0.5929053
76	0xbea95cad	-0.33078519
77	0xbf54fcc5	-0.83198196
78	0x3e3dc8df	0.18533657
79	0xbf240280	-0.64066315
80	0x3e93ea58	0.28889728
81	0x3f18eaaa	0.5973307
82	0xbdbccf66	-0.092192456
83	0x3d958c86	0.07302193
84	0x3ecc6b42	0.3992558
85	0xbe1d16b3	-0.1534069
86	0x3d8e1f37	0.069395475
87	0x3e2a79f8	0.1664809
88	0x3f1ea7de	0.61974895
89	0xbe397397	-0.181105
90	0x3e86374e	0.2621407
91	0xbeb05def	-0.34446666
92	0xbddc6da0	-0.10763097
93	0x3f790ec1	0.9728814
94	0xbf1fa5a7	-0.6236214
95	0x3e98b7f1	0.29827836
96	0xbeb8db50	-0.36104822
97	0x3f1da71b	0.6158311
98	0xbf22db08	-0.63615465
99	0x3e4fc3ca	0.20289531
100	0xbe062058	-0.13098276
101	0x3ea3c900	0.31989288
102	0xbab0e5fb	-0.0013496274
103	0x3d05c3c8	0.032657415
104	0x3edde33d	0.43337432
105	0x3e7b2e89	0.2452947
106	0x3ceaefba	0.028678764
107	0x3e011582	0.12605861
108	0x3e558d11	0.20854594
109	0x3d1fe102	0.039032944
110	0x3ea22a39	0.31672838
111	0x3f1318bc	0.57459617
112	0x3ec6c280	0.38820267
113	0x3e664ed2	0.22491005
114	0x3f1947f2	0.59875405
115	0x3cb1a12c	0.021683298
116	0x3c73f585	0.014890079
117	0x3ea4e685	0.32207122
118	0x3e34328d	0.17597409
119	0x3f12f1f8	0.57400465
120	0x3e378264	0.17920834
121	0xbc9232f9	-0.017846571
122	0x3ec72698	0.38896632
123	0x3e495467	0.19661103
124	0xbea72764	-0.3264724
125	0x3f41ee74	0.75754476
126	0x3f4d1ba4	0.801203
127	0xbe9960cd	-0.29956666
128	0x3e5f64ea	0.2181584
129	0xbc918b92	-0.017766748
130	0xbed5de96	-0.41771382
131	0xbec909a9	-0.39265183
132	0x3ef360ca	0.47534782
133	0xbc6e1578	-0.014531486
134	0xbeace949	-0.33771732
135	0xbf21243e	-0.62945926
136	0x3e1ca3bd	0.15296836
137	0xbecc8ba2	-0.3995028
138	0xbd84a879	-0.06477446
139	0x3def62cd	0.11688767
140	0x3f11a1b8	0.5688739
141	0xbb92f30b	-0.0044845394
142	0x3eb23175	0.34803358
143	0xbdfcebc7	-0.123496585
144	0xbeb8563a	-0.36003286
145	0x3ecf1c8d	0.4045147
146	0x3e8b1e39	0.27171496
147	0xbe9ddf6e	-0.30834526
148	0x3f2743b3	0.65337676
149	0xbeacf245	-0.33778587
150	0xbd28b65b	-0.041189533
151	0x3e83255b	0.25614437
152	0x3f0ce3e4	0.55035233
153	0xbb96954e	-0.004595435
154	0x3dc7df3e	0.09759377
155	0xbc3079d4	-0.010771234
156	0x3e6fc1ae	0.23413727
157	0xbde71437	-0.112831526
158	0xbb764e58	-0.0037583318
159	0x3cbf9b35	0.023389438
160	0x3e20f1bd	0.15717216
161	0x3cacdbd3	0.021100914
162	0x3ea2919f	0.31751725
163	0x3e317ffd	0.1733398
164	0x3e453231	0.19257428
165	0x3e6ddddd	0.23229165
166	0x3f0685ba	0.525478
167	0xbed0bbb3	-0.40768203
168	0x3f2e8e1c	0.6818559
169	0xbcbfbff8	-0.023406968
170	0xbf2c3745	-0.67271835
171	0x3d9df585	0.07712845
172	0xbd0967c6	-0.03354623
173	0xbeccd584	-0.4000665
174	0xbc144dc8	-0.009051748
175	0xbe24699d	-0.16055913
176	0xbe879157	-0.26478073
177	0xbc89d752	-0.016826306
178	0x3d55caf4	0.052195504
179	0x3bb33ac7	0.0054696533
180	0xbf1ccbe0	-0.6124859
181	0x3c70cf01	0.014697791
182	0x3d9f5680	0.077801704
183	0x3f361174	0.7112038
184	0xbe2a89fc	-0.166542
185	0x3e6c4443	0.23072915
186	0x3d897f78	0.06713766
187	0x3e0ed2e9	0.13947643
188	0x3e29c67d	0.16579624
189	0xbd829078	-0.063752115
190	0x3ef9d5cb	0.48795924
191	0x3e5fd373	0.21858005
192	0xbf2e5808	-0.68103075
193	0x3dc83cc5	0.09777216
194	0x3f13afbf	0.5769004
195	0xbd345669	-0.04402772
196	0xbf32c84a	-0.69836867
197	0xbe4c6d16	-0.19963488
198	0xbe06633f	-0.13123797
199	0x3e13a79c	0.14419407
200	0xbd0d13a3	-0.034442555
201	0xbe0cf3a7	-0.13764821
202	0xbe65862e	-0.22414467
203	0x3f822b21	1.0169412
204	0xbebe8631	-0.37211755
205	0x3de2a98e	0.11067496
206	0xbcb29253	-0.021798288
207	0x3f1b68ae	0.60706604
208	0x3e8b287c	0.27179325
209	0xbed57990	-0.41694307
210	0xbed0fec6	-0.40819377
211	0xbe74d788	-0.23910344
212	0xbe4d92bd	-0.20075507
213	0xbee48abf	-0.44637105
214	0xbed24ad1	-0.41072705
215	0x3d6ec4be	0.058293097
216	0xbda97462	-0.082741514
217	0xbc12713b	-0.008938129
218	0xbda28319	-0.07935161
219	0xbe7978f6	-0.24362549
220	0x3ee27fa3	0.44238004
221	0x3eca934b	0.395655
222	0x3ed8786a	0.4227937
223	0x3d85a947	0.06526428
224	0xbe46536c	-0.1936776
225	0xbf3559d4	-0.7084019
226	0x3e210d4d	0.1572773
227	0xbe914b24	-0.2837764
228	0xbe7a236a	-0.24427572
229	0xbf3157be	-0.6927451
230	0x3f179c30	0.592227
231	0x3f0d2bf0	0.5514517
232	0xbe662813	-0.22476225
233	0xbeba1b6a	-0.3634904
234	0xbefde173	-0.49586067
235	0xbf194277	-0.5986704
236	0xbe8e9cc3	-0.27853975
237	0x3ec67fc2	0.38769346
238	0x3e51aec7	0.20476829
239	0xbed0e637	-0.4080064
240	0xbd8935b1	-0.06699694
241	0xbf0d6ce9	-0.5524431
242	0x3f4aea66	0.79263914
243	0x3f3039e3	0.6883833
244	0xbe8a75b4	-0.27042925
245	0x3d93c890	0.07215989
246	0xbde32e21	-0.11092783
247	0x3f00363e	0.50082767
248	0x3dd1cb44	0.10243848
249	0xbf45eeba	-0.7731739
250	0xbf69eb35	-0.9137452
251	0xbd2406ac	-0.040045425
252	0xbec9c21b	-0.39405903
253	0x3df30c8f	0.1186763
254	0x3eafe715	0.3435599
255	0x3d3c8a14	0.04603012

mem_LSTM_q1.bias_ih_l0 f4 [256]
0	0x3e542b4f	0.20719646
1	0x3d9495ed	0.072551586
2	0x3d0d5455	0.034504253
3	0x3d8f83aa	0.07007535
4	0x3f0fea98	0.56217337
5	0x3e116886	0.14200029
6	0x3d38b02f	0.045089897
7	0xbd9666c9	-0.073438235
8	0xbd11c0c9	-0.035584245
9	0xbe30021c	-0.17188305
10	0x3e97ff39	0.29686907
11	0xbd8a297f	-0.06746196
12	0xbcb9b867	-0.022670938
13	0xbd7e5979	-0.062097047
14	0x3f17fc19	0.59369045
15	0x3e3fadc1	0.18718626
16	0x3e98a166	0.29810637
17	0x3df12d8a	0.11776264
18	0x3e8828e5	0.265937
19	0xbc946e66	-0.018119048
20	0x3f0842cb	0.5322692
21	0x3e912439	0.28347948
22	0xbdd0558f	-0.10172569
23	0x3db6ace4	0.08919695
24	0x3eeb6bfe	0.4598083
25	0xbdd93906	-0.106065795
26	0xbc9ac160	-0.018891037
27	0x3cec281b	0.028827718
28	0xbcc289dc	-0.023747377
29	0x3d2e870e	0.042609267
30	0x3e957d42	0.29197127
31	0x3ca20b8b	0.019780895
32	0x3eb44f49	0.3521674
33	0x3e9bb334	0.3041016
34	0x3d827f55	0.06371943
35	0x3e15b55d	0.14619966
36	0x3e11e48a	0.14247337
37	0xbe178366	-0.14796218
38	0x3d47b716	0.04875859
39	0x3dc5925d	0.09647057
40	0x3cf81893	0.030285155
41	0x3dc0a09f	0.09405636
42	0x3e85689c	0.26056373
43	0x3eab4117	0.33448097
44	0xbcf53104	-0.029930599
45	0x3eccdfab	0.40014395
46	0x3ebe38df	0.37152764
47	0x3eae0134	0.33985293
48	0x3c975188	0.018471494
49	0xbd7f4ece	-0.062331013
50	0x3d9f8f1b	0.07790967
51	0x3e8fbb86	0.28072757
52	0x3d89a5db	0.067210875
53	0x3e8bab40	0.2727909
54	0xbe30b9af	-0.17258333
55	0x3e9ef295	0.3104445
56	0xbe09571d	-0.13412137
57	0x3d14ac7b	0.036297303
58	0x3db47a3d	0.088123776
59	0xbdb6907c	-0.08914277
60	0x3cf29d9f	0.029616175
61	0xbe6dd166	-0.2322441
62	0x3d2b3685	0.04180004
63	0x3e3fb80e	0.18722555
64	0x3ca6ea4c	0.020375393
65	0x3da896c6	0.08231883
66	0xbdab72bb	-0.083714925
67	0x3ccd4a37	0.025059802
68	0x3c16219e	0.009163288
69	0xbe4b8047	-0.19873153
70	0x3e2f8cbb	0.17143528
71	0xbd9dfa48	-0.07713753
72	0x3d919048	0.071075976
73	0xbe530d50	-0.20610547
74	0xbd98c67f	-0.07459735
75	0x3cd17de3	0.025572723
76	0xbe762756	-0.24038443
77	0xbd512e35	-0.051069457
78	0x3cf7107f	0.030159233
79	0x3dd0e41e	0.1019976
80	0x3e371e64	0.17882687
81	0x3df91df7	0.121639185
82	0x3ca1ec80	0.019766092
83	0x3bc534ad	0.0060182423
84	0x3e05573f	0.13021563
85	0x3d670024	0.05639662
86	0xbe035669	-0.12825932
87	0xbd69d2e3	-0.057085883
88	0xbdc96c75	-0.0983514
89	0x3cfc3e94	0.030791558
90	0x3c6c8283	0.014435413
91	0xbc033fce	-0.008010818
92	0xbc4aa9ce	-0.012369586
93	0xbce717a6	-0.028209519
94	0xbe4bd88a	-0.19906822
95	0x3d7d9152	0.061906166
96	0x3c2cb98e	0.010542287
97	0xbd98684b	-0.07441767
98	0xbd121b17	-0.035670366
99	0x3dc71260	0.09720302
100	0xbdd1f7a6	-0.10252313
101	0xbc07440b	-0.008255969
102	0x3cd02ceb	0.025412044
103	0xbd38a759	-0.04508147
104	0xbe52055a	-0.20509854
105	0x3dc04b90	0.093894124
106	0xbe4ef9db	-0.202125
107	0x3d4eed11	0.050519053
108	0xbd6d9c36	-0.058010302
109	0x3dd84b13	0.10561194
110	0xbecb7c44	-0.39743245
111	0xbe212437	-0.15736471
112	0x3bbca657	0.005757134
113	0xbafcf766	-0.0019299805
114	0xbedc4cd4	-0.43027365
115	0xbe1e6c6a	-0.15471044
116	0xbdba13df	-0.09085821
117	0x3d032387	0.032016303
118	0xbea181b8	-0.3154428
119	0xbdea2d57	-0.11434429
120	0x3e852fdb	0.26013073
121	0x3de2ac2f	0.11067998
122	0xbe8b1390	-0.27163363
123	0xbda17b0c	-0.078847975
124	0xbd60212f	-0.054719146
125	0xbcae0401	-0.021242144
126	0xbe5e2bf4	-0.21696454
127	0xbdd87ca4	-0.10570648
128	0x3e489d1c	0.19591182
129	0x3e21f813	0.15817289
130	0x3dd4a027	0.10382109
131	0x3d6b2b54	0.057414368
132	0x3e8d4684	0.27592862
133	0x3e2d26f2	0.16909388
134	0x3dafe96f	0.08589446
135	0x3d8ab3dd	0.067725874
136	0xbe434569	-0.19069447
137	0x3d2fcdff	0.042921063
138	0xbdbe7b92	-0.09300913
139	0x3e3b56b5	0.18294795
140	0xbc8a4cc7	-0.016882313
141	0xbcf9fbbc	-0.030515544
142	0x3df39b62	0.11894871
143	0xbde3a93f	-0.111162655
144	0xbdc66d16	-0.09688775
145	0x3e68c78c	0.22732371
146	0x3e21b39c	0.15791172
147	0xbb9004b8	-0.004395094
148	0x3db5e433	0.08881416
149	0xba44ec6e	-0.00075120374
150	0x3eb8b7b8	0.36077666
151	0x3daf2f7c	0.08553979
152	0xbe24670c	-0.16054934
153	0x3e967903	0.293892
154	0xbc9e6159	-0.019333528
155	0x3e5fa8df	0.21841763
156	0xbd0ef565	-0.034901995
157	0xbd5aac64	-0.05338706
158	0x3e650fe6	0.22369346
159	0x3da3be82	0.07995321
160	0x3c4ffdc8	0.0126947835
161	0xbcd6a488	-0.026201501
162	0xbe346217	-0.17615543
163	0x3e586d33	0.21135406
164	0x3cb9e7b1	0.022693487
165	0xbdfd29a8	-0.12361461
166	0xbd886a0c	-0.06660852
167	0x3cdc9ed2	0.0269312
168	0xbd4a7ed5	-0.049437363
169	0x3d9a99aa	0.0754884
170	0xbe0c17b4	-0.13680917
171	0xbb84712c	-0.0040418115
172	0x3d0d20c0	0.03445506
173	0xbe16bf92	-0.14721516
174	0xbe399c16	-0.18125948
175	0x3dbf5c69	0.09343798
176	0xbec602b2	-0.3867393
177	0x3e35309f	0.17694329
178	0x3e2f7866	0.17135772
179	0x3e42d0b7	0.19024931
180	0xbd2e4a27	-0.042551186
181	0xbe8abe98	-0.27098536
182	0xbd883f59	-0.066527076
183	0xbe02239d	-0.12708898
184	0x3d08ea47	0.03342655
185	0xbcd8a6e3	-0.026446765
186	0xbd6be0be	-0.057587378
187	0xbd10ec34	-0.03538151
188	0xb9194cd1	-0.00014619833
189	0x3dfefb7a	0.12450309
190	0xbe7014e7	-0.23445474
191	0xbda8bc51	-0.082390435
192	0x3bf47853	0.007460633
193	0x3e4fafa9	0.20281853
194	0x3db7b4f8	0.08970064
195	0x3e549c96	0.20762858
196	0x3e46c5db	0.19411413
197	0x3d62550a	0.05525688
198	0x3e8b804b	0.27246317
199	0xbdcd0552	-0.100107804
200	0x3e840690	0.25786257
201	0xbd1af8be	-0.037834875
202	0xbdc01dbc	-0.093806714
203	0x3cc5456d	0.024080956
204	0xbe1a2013	-0.15051298
205	0x3c03e4f3	0.008050191
206	0x3ee62912	0.4495321
207	0x3ee91418	0.45523143
208	0xbd644cdc	-0.05573736
209	0x3ead5d85	0.33860412
210	0x3e108809	0.14114393
211	0x3e335ddc	0.17516273
212	0x3ea616ce	0.32439274
213	0x3e82a8e9	0.25519493
214	0xbd30886e	-0.04309886
215	0x3e5f50e5	0.21808203
216	0x3e90ab28	0.28255582
217	0x3dc65aad	0.09685264
218	0xbd054841	-0.03253961
219	0x3cf8e3ed	0.030382121
220	0x3e07fde4	0.13280445
221	0x3ed1ca1d	0.40974513
222	0x3ec98f98	0.39367366
223	0xbd4e1635	-0.050314147
224	0x3e826feb	0.25476012
225	0x3ec49cf0	0.38400984
226	0x3e63909e	0.22223136
227	0x3cd8744d	0.026422644
228	0x3c1421b2	0.009041237
229	0xbcf4ee1d	-0.029898698
230	0xbc299905	-0.010351424
231	0x3cbcd838	0.02305232
232	0x3e87efe3	0.26550207
233	0x3e9d9c35	0.3078324
234	0xbd1bfb67	-0.038081553
235	0x3e93008e	0.2871136
236	0x3ea022b6	0.31276482
237	0x3ee8e555	0.45487466
238	0x3dbbf74f	0.0917803
239	0x3cca3fbb	0.024688592
240	0xbd15502a	-0.036453404
241	0xbc8f459b	-0.017489245
242	0x3e256340	0.16151142
243	0x3e5e7b38	0.21726692
244	0xbe91342e	-0.28360122
245	0x3e5667ee	0.20938084
246	0x3ec9957b	0.39371857
247	0x3e34bebb	0.17650883
248	0xbcb5865c	-0.022158794
249	0x3e2836c1	0.16427137
250	0x3ecb879d	0.39751902
251	0x3d740702	0.059576996
252	0xbd15d6ae	-0.036581688
253	0xbde5d557	-0.11222332
254	0x3dba9d6a	0.091120556
255	0x3e06fe49	0.1318294
