current_algos/LSTM_TD3/LSTM_TD3_Agent_actor_weights.pth (torch, 213849 bytes, 13 tensors)

curr_fe_dense1.weight f4 [64, 50]
000000 32 da 7f 3c 29 10 9e be ea cd 29 be 7c 83 20 be
       0.015615987 -0.30871704 -0.16582456 -0.15675157
000010 84 64 a4 bd be c6 86 3d b3 2a 8b bd 18 af a2 bb
       -0.08026984 0.06580876 -0.067952536 -0.0049647205
000020 bb bc 11 3d 31 2c 77 be 9f 40 d3 be a2 62 99 be
       0.035580378 -0.24137951 -0.4126024 -0.29958063
000030 14 02 1f be a3 d9 b1 bc 45 89 bd 3e 13 ff 7b 3e
       -0.15528136 -0.021710223 0.3701879 0.24609022
000040 c1 de 0b 3e 24 9a dc 3d 78 a2 21 3e 96 4a 1b be
       0.13659193 0.107715875 0.15784633 -0.15165171
000050 9d a3 04 be ba 35 ee 3d bf c6 5a 3c 4b 01 77 be
       -0.12953039 0.11631341 0.013353049 -0.24121587
000060 99 8e 0d be fc 9f 97 3d 9e 7f c7 3e 09 72 ba 3d
       -0.13823928 0.074035615 0.38964552 0.09103782
000070 4f e7 15 3e ff 91 34 3c c8 bd af 3d ec 19 20 3e
       0.14639018 0.011021136 0.0858112 0.15634888
000080 db 65 81 3c a7 1c 2e 3d c4 fd 74 3d 9d fd 92 bd
       0.015795639 0.042507794 0.059812322 -0.07177279
000090 9d e9 2b 3d 16 63 14 bd ac c1 52 bd bd e0 29 bb
       0.041970838 -0.03622731 -0.05145423 -0.0025921308
0000a0 f3 12 5e bd ac b0 c2 be 2c 12 24 be ea bf fc bb
       -0.05421729 -0.38025415 -0.16022557 -0.0077133076
0000b0 8e 3d 77 3d 0f 77 f3 3d f0 f3 00 3e c7 8d ad bc
       0.060361437 0.11887943 0.12593055 -0.021185769
0000c0 ac 06 d4 bd b8 f5 ae be ca 60 fd bc 50 81 a4 3c
       -0.10352835 -0.34171844 -0.030929942 0.020081192
0000d0 27 54 b3 be 2d fe ef bc 1d b3 e4 bd 3e e9 76 be
       -0.3502514 -0.029296005 -0.11166976 -0.24112412
0000e0 35 8c 94 3d fc e4 8a 3d 70 36 6a 3d 01 92 92 3e
       0.07253305 0.067819566 0.057180822 0.28627017
0000f0 2f 22 02 3e 1a 55 32 be de e8 a8 3e 4c 89 81 3e
       0.12708353 -0.17415276 0.32990164 0.25300062
000100 a4 1e 16 3e 5f 20 f0 3d d3 fd 51 3d 6f f2 38 3e
       0.14660126 0.11724924 0.051267456 0.18061231
000110 76 17 6e bd d7 e1 a4 3c b6 d0 d8 3c 8f 02 78 3d
       -0.058127843 0.02012722 0.026466709 0.060549315
000120 38 b5 4b 3d df 71 97 3c 90 03 3e 3d 8f 97 60 bc
       0.04973337 0.018486915 0.046390116 -0.013708009
000130 c1 85 09 be 11 3a cd 3d 6d 57 b6 bc e9 8d 91 3d
       -0.1342993 0.10020841 -0.022258485 0.07107145
000140 85 d7 6f be 95 19 3a be ae dd af bd e9 aa fc 3d
       -0.23422058 -0.18173821 -0.08587204 0.12337286
000150 97 31 f5 3d 8e 82 cb bd f0 db 74 be 09 78 1b be
       0.11972349 -0.09937011 -0.23912024 -0.15182509
000160 07 d1 8e 3d c7 6b 69 3e f7 11 94 bd b9 82 2a be
       0.069734626 0.2279502 -0.07229989 -0.16651429
000170 6a 8c 0c be 64 1f da 3b 7d ec 91 3e f9 4d 20 3d
       -0.13725439 0.006656574 0.2850074 0.03913686
000180 cb ac f4 bd 20 a6 5d bd 40 17 ef be 92 25 e4 bd
       -0.1194702 -0.054113507 -0.46697426 -0.111399785
000190 49 a5 4e 3c 24 c5 8e 3e 37 1a 4b 3e 27 e1 8d 3e
       0.012612649 0.2788478 0.19834219 0.2771084
0001a0 87 68 95 bd 33 77 94 bd 56 f4 38 3b 03 89 ef 3d
       -0.07295328 -0.07249298 0.0028221807 0.11696055
0001b0 07 a5 78 bd 53 17 6c 3e a1 70 9a bd 56 ac 42 bd
       -0.060704257 0.23055772 -0.075410135 -0.047527634
0001c0 0b c0 1d 3d 5a 51 21 bd 34 bc 62 bf f3 f2 61 3e
       0.038513225 -0.039384224 -0.88568425 0.22065334
0001d0 6c 26 e7 3d 17 d9 59 bd e8 26 19 be f1 1a 30 3c
       0.11286625 -0.05318555 -0.14956248 0.010748611
0001e0 fc 70 f9 3d ae 7c 76 be 8b 97 01 bc c2 1f 33 be
       0.12179753 -0.24070999 -0.007909666 -0.17492583
0001f0 2c 69 4f be ad a1 67 bd f0 fa 1e 3e 3d 4c 82 3e
       -0.20254964 -0.05655067 0.15525413 0.2544879
000200 d1 cd b8 bd ea 26 f1 3d 51 42 75 bc 2b d9 26 3e
       -0.09023631 0.117750004 -0.014969424 0.1629378
000210 fd 17 6b 3c da 9e fe bd 4c 96 61 be 72 41 e9 bd
       0.014348981 -0.12432642 -0.2202999 -0.11389436
000220 a1 2f be 3d 04 3a 3d 3d 01 d6 38 3e 01 82 3c be
       0.09286428 0.046197906 0.18050386 -0.18408968
000230 07 c1 18 bf 1f c6 c1 bd 04 a5 0f 3e 56 07 9d be
       -0.59669536 -0.09461617 0.14027792 -0.3066966
000240 ee 1a 5c 3e 2e d4 a0 3d b0 7a 7c 3e fc 57 2c 3d
       0.21494648 0.0785297 0.24656177 0.042076096
000250 17 6d 66 3e 0e ef 0b be 9e f3 82 3c 6d d6 94 38
       0.22502552 -0.13665411 0.015985306 7.09713e-05
000260 04 2e bb bd 05 42 f0 3e f2 da d2 3e 67 a8 2c bd
       -0.09139636 0.4692537 0.41182667 -0.04215279
000270 4c 61 91 3c be ab e4 3d f6 9b 1f 3e 2b c7 83 3d
       0.01774659 0.1116557 0.15586838 0.06434473
000280 b0 19 b3 3d 2b 40 66 be 9a 21 9d 3d 81 13 c9 3c
       0.08745134 -0.22485416 0.076724246 0.024545433
000290 3b bf 52 be 6e da 03 3e 23 49 fd 3d 8d fa 05 3e
       -0.20580761 0.12876293 0.12367465 0.13083859
0002a0 82 ef 5b 3e 0b 38 1c be 66 39 ac 3e 1f 7d 5a 3e
       0.21478084 -0.15255754 0.33637542 0.21336792
0002b0 bc 00 51 bc 8c 1c 9e 3d 43 90 2f be c7 ee ee bd
       -0.012756523 0.07720289 -0.17144875 -0.11666637
0002c0 3f 78 74 bd 15 64 3f be 26 fa 9e be 48 fd af 3c
       -0.059684988 -0.18690522 -0.31050223 0.021483079
0002d0 9c fe 68 3d a1 bb bf 3c 5c 19 88 3e 88 12 8b 3e
       0.05688344 0.023404898 0.26581848 0.27162576
0002e0 67 0f f9 3d 7d 88 bf 3d 64 7a 7a 3c e9 ca 5b 3e
       0.12161141 0.09352205 0.015287969 0.21464123
0002f0 49 b3 5e 3d cb 4d c4 bc 07 ac 8d be c1 4a f4 bd
       0.0543702 -0.023962876 -0.2767031 -0.11928321
000300 24 29 3d be 49 18 c8 3d a7 03 21 3d e7 9a a1 3d
       -0.18472725 0.09770257 0.039310124 0.078908734
000310 5e 3b 8f 3d 76 cd b8 be 83 5e 12 3c cf c3 73 be
       0.06993745 -0.36094254 0.008933666 -0.23805164
000320 66 60 03 bd a6 c6 c3 bd ef 4b 15 be d9 39 d6 bd
       -0.032074355 -0.095593736 -0.14579748 -0.10460252
000330 78 e3 56 3d 6d f4 ba 3d 25 c9 1a 3e a6 a0 10 3c
       0.052463025 0.09128652 0.15115793 0.008827364
000340 8d c7 75 be 55 ac 37 be 37 bd 53 be 41 3f b1 3d
       -0.24001904 -0.17936833 -0.20677648 0.08654643
000350 da b9 25 bd 9b 85 1b bd f1 00 47 bf ef 0d cc 3e
       -0.040460445 -0.037969213 -0.7773581 0.3985438
000360 23 5b 93 be ce 43 5a be 0d 95 37 be 40 51 1c be
       -0.2878047 -0.21314928 -0.17927952 -0.1526537
000370 a4 5e 38 bf 53 26 ca 3d 5b e9 3f be 27 e4 8c bd
       -0.7201941 0.09870591 -0.18741362 -0.06879454
000380 cd f3 20 be 14 42 da bd 04 7e 87 3e 65 11 c2 be
       -0.15718003 -0.10657135 0.2646333 -0.37903896
000390 16 12 24 3e e5 15 e0 3d 89 87 85 3d 73 d1 c6 3c
       0.16022524 0.10941676 0.06519992 0.024269795
0003a0 65 7d 5e 3e 61 4f 5f be 2f fe 2d 3b d7 59 8e 3d
       0.21727522 -0.21807624 0.002654921 0.06950729
0003b0 34 77 21 bd 18 2e bb bc 97 7a 4b 3e 74 6e c2 be
       -0.03942032 -0.022849128 0.19870983 -0.37974894
0003c0 e9 35 e9 3d c3 e0 95 bd 43 50 b1 bd 37 f8 04 be
       0.11387236 -0.073182605 -0.08657887 -0.12985311
0003d0 85 44 09 3e 58 fb bc bd 65 f4 2d be 05 f5 b5 be
       0.13405044 -0.092276275 -0.1698776 -0.35538498
0003e0 a5 a8 ad be db d1 ea bd 23 78 92 bc 5a c2 81 be
       -0.33917728 -0.11465808 -0.017879551 -0.2534359
0003f0 1b 14 d8 bc ce 15 17 3e 3d 69 42 3e 87 75 86 bc
       -0.026376775 0.14754412 0.18985458 -0.016413463

curr_fe_dense1.bias f4 [64]
000000 08 ff a2 bd 26 05 88 bd 05 d1 74 3c 9c 6b 0d be
       -0.079587996 -0.06641607 0.014942412 -0.13810581
000010 13 73 cf bd e0 0a 9a 3c 35 08 3f 3d f9 30 a0 3d
       -0.101293705 0.018804014 0.046638686 0.07821841
000020 a0 d9 03 be 94 aa 48 3e fb da ba bc 7b 73 5c bd
       -0.12875986 0.1959632 -0.022809496 -0.05382107
000030 21 d7 91 bd 73 0b 72 be 24 07 5f be 61 7b ee bd
       -0.07121111 -0.2363718 -0.21780068 -0.116446264
000040 7e c3 0e 3d a2 be 68 3d f8 22 ce ba ab 38 48 3d
       0.034854405 0.056822427 -0.0015726974 0.048882168
000050 0b c7 3f 3e 92 3e a1 3c 10 3f 65 be 08 82 0d be
       0.18728273 0.019683156 -0.22387338 -0.13819134
000060 e5 f0 b3 3d 82 47 48 bd be 3e 89 be ee be c6 3d
       0.08786181 -0.04889632 -0.2680568 0.09704386
000070 28 7f ee bd 4c ae 6f bd b1 da 2e bd 78 08 d8 3d
       -0.11645347 -0.05851583 -0.04268903 0.1054849
000080 98 dc 02 3e cc e9 84 3d db eb 94 3d f3 ae 98 be
       0.12779462 0.06489906 0.07271548 -0.29820976
000090 7e 3a 61 bc a9 00 f5 bc 84 09 90 bd 5d 0e f6 bb
       -0.013746856 -0.029907541 -0.07033065 -0.0075090365
0000a0 fc cc 3a 3e de 6c 95 be e3 79 79 bc d1 2c 8a 3d
       0.18242258 -0.29184622 -0.015226814 0.06746829
0000b0 d2 6e f7 3c 3c a1 48 bd 29 89 30 3e f9 3f 00 3d
       0.03020421 -0.04898189 0.17239822 0.03131101
0000c0 b5 7e 31 3c 91 d9 95 bc cb 36 6d 3e a4 6f 12 3d
       0.010833432 -0.01829222 0.23165433 0.035751
0000d0 8c 65 f4 3d 58 9a 4e 3e 90 11 5c bd 0f 59 a0 bd
       0.11933431 0.20176065 -0.053727686 -0.078294866
0000e0 3f d5 d4 3b 90 34 09 3e 6f da 03 3e b7 83 ed bd
       0.0064951475 0.13398957 0.12876295 -0.11597388
0000f0 93 01 9b bd 75 cd ba 3b 6f 5b 03 3d 7b 3b 18 be
       -0.0756866 0.005700762 0.03206962 -0.1486644

curr_fe_dense2.weight f4 [64, 64]
000000 89 4b 12 3d 05 f2 0c be fd 1c 87 ba c4 1f df be
       0.035716567 -0.13764198 -0.0010308322 -0.43578923
000010 74 fc c5 3e ce 2c 6a bd 2c 31 91 be cd 89 12 3e
       0.3866917 -0.057171635 -0.28357828 0.1431038
000020 b9 e1 34 3d 2c 25 8b be d0 a4 f5 bd 52 60 4b 3e
       0.04416058 -0.27176797 -0.11994326 0.19860962
000030 56 db c1 3e 33 75 84 be 84 d2 92 bb 4c 6a d6 3d
       0.37862653 -0.25870666 -0.004480662 0.10469493
000040 f9 a8 63 be f3 73 04 3e 36 ca 02 bf 4c 45 1b 3e
       -0.22232427 0.12934856 -0.510898 0.15163153
000050 ef 52 69 be 3d 74 11 3e 29 e2 63 3e 14 29 3c 3d
       -0.22785543 0.14204498 0.22254242 0.045937613
000060 2c e4 84 bd 27 b6 0e be f1 05 a4 be c6 37 ca bb
       -0.06488833 -0.13936673 -0.32035783 -0.0061711995
000070 aa 70 75 3e 01 93 1d be 1c 27 a1 3e 80 98 72 3d
       0.23968759 -0.15388109 0.3147515 0.059227467
000080 c9 42 82 be 5e 83 7e bc 9d 5e 26 3d 4a b0 12 bd
       -0.25441578 -0.01553425 0.040617574 -0.035812654
000090 6d 23 61 bc 05 c4 b6 3d 46 37 c9 bd 50 3d e8 be
       -0.013741356 0.089241065 -0.09824996 -0.45359278
0000a0 63 44 42 3e 4f 41 4a bd df e0 80 be 1c 45 e2 bd
       0.189714 -0.04937869 -0.25171563 -0.11048338
0000b0 14 e1 45 3d 06 1a 68 3e 41 51 2c 3e 39 71 de be
       0.048310354 0.22666177 0.16827871 -0.43445757
0000c0 7a 61 99 bd 6d d2 ad bd f5 88 41 be 8f 17 a3 3e
       -0.07489295 -0.08487401 -0.18899901 0.3185391
0000d0 14 88 c0 3c 18 8c 8e bc 14 65 2e bd 4a 7b 93 bc
       0.023502387 -0.017400786 -0.042576864 -0.018003125
0000e0 58 1c 81 3e 09 6e 96 bc af 08 60 3e 01 d6 15 3d
       0.25216937 -0.018363016 0.21878313 0.036581043
0000f0 c5 04 bf 3d e1 ff 2d 3d 33 06 38 3e 43 e9 ef 3d
       0.093270816 0.042480353 0.17971115 0.11714413
000100 2e 5f d8 3c 01 87 3e 3e ff 69 4a be a8 0e b0 be
       0.026412573 0.18606187 -0.19766997 -0.34386182
000110 73 f9 8f be e4 3f 26 be fc 83 a7 bd 9c 5a a3 bb
       -0.28120002 -0.1623531 -0.08179471 -0.0049851667
000120 a9 b3 91 be 51 7b 20 be 96 76 93 be 02 ba 89 3e
       -0.28457382 -0.15672041 -0.2880141 0.26899725
000130 2f 3f 38 be 45 81 58 be 23 3f 48 bd 3f 64 d2 be
       -0.17992853 -0.21143062 -0.048888337 -0.41092107
000140 be 96 39 bd eb 34 7e 3e cc a5 36 3c bb b1 12 3e
       -0.045309775 0.24824874 0.0111479275 0.14325611
000150 04 4c 41 3d 4d 8b 82 be 4d 38 62 bd 76 22 1e 3e
       0.047191635 -0.25496903 -0.055229474 0.15442833
000160 b4 1a 0c 3e 2c 8f 7d be bc 22 c6 bd db 19 4c bd
       0.13682061 -0.24761647 -0.09674594 -0.049829345
000170 f8 2e 52 3d 7a d9 70 3d 36 b9 19 be 1d f4 a5 bd
       0.051314324 0.05880115 -0.15012059 -0.081032015
000180 4c db 08 be 44 2e be be 51 cc 6b 3d 36 cd 94 be
       -0.13364905 -0.37144673 0.0575679 -0.29062814
000190 1c 14 9b be 19 d5 4e be a3 1e e0 be 97 43 9b bc
       -0.3028878 -0.20198478 -0.43773374 -0.018953128
0001a0 c8 3a dd 3d 70 1b 9b be a3 58 d0 be 80 b3 6f be
       0.10802227 -0.3029437 -0.40692624 -0.23408318
0001b0 78 19 41 3e b3 cb e8 3c da 99 26 be e8 74 e8 bd
       0.18857372 0.028417444 -0.16269627 -0.11350423
0001c0 23 bb 80 be 99 32 c4 bd 9f c4 9d 3c 7a 71 c7 3d
       -0.25142774 -0.09579963 0.019258795 0.09738441
0001d0 3e 51 28 be 2c 35 8c be 2a 21 c8 bd 1a 21 00 bd
       -0.16437241 -0.27384317 -0.097719505 -0.031281568
0001e0 6e b5 23 3e 83 70 d1 3d b2 4b 73 be 2c 7e 20 be
       0.15987179 0.10226538 -0.23759344 -0.15673131
0001f0 12 69 64 be 16 c6 7a be aa a6 72 be 57 8a 7d be
       -0.22305706 -0.24489626 -0.2369639 -0.24759804
000200 e6 3d 64 3e 46 af b2 3e b0 77 e3 be 6c bf ed bd
       0.22289237 0.34899348 -0.44427252 -0.116087765
000210 1c 74 e2 be b3 03 32 be ae e8 7f be 40 1c 90 bc
       -0.4422921 -0.17384224 -0.24991104 -0.017591596
000220 cd dd 4f be e5 65 2f bd f5 90 9c bc 63 f3 a7 be
       -0.20299454 -0.042821784 -0.01911209 -0.32802877
000230 92 92 f7 be 9d 79 a1 be 9d 6a d6 3a 7c 1a e1 be
       -0.48354012 -0.31538096 0.0016358678 -0.43965518
000240 78 31 b6 be ad 30 3f 3e d2 24 77 be a9 4f 8a be
       -0.35584617 0.18670912 -0.2413514 -0.270139
000250 d4 90 4a 3e 82 5f 5a bc 88 5d 35 be 7b 60 16 bd
       0.1978181 -0.013328435 -0.1771146 -0.036713105
000260 1d fb 6f 3d 70 d4 e8 bd b1 08 9b be 05 20 05 be
       0.05858909 -0.11368644 -0.3028007 -0.13000496
000270 63 29 28 be 9b b4 d5 3e db dd 38 be d3 fc 25 be
       -0.16422038 0.41739354 -0.18053381 -0.16209726
000280 88 41 54 3d 8f 86 ea 3d 16 df 13 3d 2b ff 8b be
       0.051820308 0.11451446 0.036101423 -0.27343115
000290 5f fd 62 bd 1a 2b 1f 3d 4d b9 cb 3c 1d 2e 1d be
       -0.055417415 0.038859464 0.024868632 -0.15349622
0002a0 60 fb 43 39 54 b7 89 be c6 43 7e 3d c7 8c c2 bd
       0.00018690294 -0.2689768 0.062076353 -0.094995074
0002b0 01 d4 d7 3d 87 0b ba be 40 8a 05 3e ff 5f fa 3c
       0.105384834 -0.3633692 0.1304102 0.030563353
0002c0 63 62 ee be 5d 5d 65 3e a2 01 2d be a9 84 fd 3c
       -0.46559438 0.22398897 -0.16895154 0.030947046
0002d0 82 83 16 be 1a 0a 08 3d cb 78 92 be 7c d3 83 3e
       -0.14698604 0.03321276 -0.28607783 0.25747287
0002e0 af 78 8e bd 55 3c 5e 3e fb 33 d0 3e 4e 56 17 3e
       -0.06956612 0.21702702 0.40664658 0.14779016
0002f0 7a 7b 48 bc 08 97 43 bd 34 14 87 bd d0 10 53 3e
       -0.01223647 -0.047751456 -0.0659565 0.20611882
000300 b6 2a e2 3d fc fc d8 3e 61 e4 20 be 21 32 9b be
       0.11043303 0.42380512 -0.1571212 -0.30311683
000310 66 fe 80 bd be 1c 25 be 31 10 6d be f0 41 95 bd
       -0.06298523 -0.16124246 -0.23150708 -0.07287967
000320 47 ac 46 be a4 b3 97 3c 43 e4 00 be 10 96 a9 be
       -0.19401656 0.018518277 -0.12587075 -0.331223
000330 1b a0 94 be 48 ab b4 bc 52 a4 28 be 2c 8f 86 bd
       -0.290284 -0.02205433 -0.16468933 -0.065702766
000340 bc e7 2d be 76 80 99 3d 4b bc d8 be 67 74 53 3c
       -0.16982931 0.07495205 -0.42331156 0.01290617
000350 83 ba 48 3d 10 da b6 3c 45 36 d4 bd cc 3f 68 bd
       0.049005996 0.022320777 -0.103619136 -0.056701466
000360 bc 3f 90 be 46 5d 88 3e 4c 61 80 be 23 3f 0c 3d
       -0.28173625 0.26633662 -0.25074232 0.0342399
000370 c6 cb d8 3b 09 44 90 3d b4 11 50 3e ad 28 45 3e
       0.0066160886 0.07044227 0.20319253 0.19253798
000380 ad 5b e7 bb 85 e7 54 3e 2d b8 21 3d a3 48 5e bd
       -0.007060489 0.20791443 0.039482284 -0.05426849
000390 1e e6 92 be cd a1 2a 3e a5 60 90 3e 6c f2 c0 3d
       -0.2869119 0.16663285 0.28198734 0.09421238
0003a0 9c 19 e9 3d 7b 61 c6 bd 16 fa 7a be c2 74 45 be
       0.11381838 -0.09686562 -0.24509463 -0.19282821
0003b0 6f 44 c0 be 0f a2 09 3d c2 26 a1 be 6c 41 f0 bd
       -0.3755221 0.033601817 -0.31474882 -0.11731228
0003c0 e8 f6 66 be 3d 2b 65 3e 59 7b 25 be b1 3e 65 3d
       -0.22555125 0.22379775 -0.16160335 0.05596799
0003d0 a7 95 72 3c bd 48 34 3e 53 89 02 3d b0 6b d5 bd
       0.014806188 0.17605872 0.031869244 -0.104209304
0003e0 00 70 01 be 7f 2c c3 bd 0b a3 7e bd 7a 13 39 be
       -0.12640381 -0.09529971 -0.06216721 -0.18073836
0003f0 41 0b 3d 3e 62 6e 38 be c4 6d 10 be 70 73 c9 be
       0.18461324 -0.18010858 -0.14104372 -0.39345884

curr_fe_dense2.bias f4 [64]
000000 b7 82 04 bb 0a 8c 8d be e8 f7 11 bd c3 2a 69 3d
       -0.0020219514 -0.27645904 -0.035636812 0.056925546
000010 6c 32 b5 3c 69 85 f5 3d b3 93 d5 bc da a7 9c bc
       0.02211877 0.119883366 -0.026071405 -0.019123007
000020 f9 d0 28 3e b5 26 84 3d 67 b8 13 3e 1b 79 b4 3d
       0.16485967 0.06452695 0.14425813 0.088121615
000030 f1 af 2a bd 6f 58 fe 3d 43 04 8c bd 46 24 52 bd
       -0.041671697 0.12419211 -0.0683675 -0.051304124
000040 a8 fc 95 bd 17 27 2d be d4 bd d3 3c ec 32 4b 3d
       -0.07323581 -0.16909443 0.025847353 0.04960911
000050 45 a9 64 bd f6 b7 e2 bd 0c be 2f be d3 74 90 be
       -0.05582549 -0.11070244 -0.17162341 -0.2821413
000060 09 10 29 bd 9a 12 19 bd 83 7c 17 3d 5b ef 0c be
       -0.041275058 -0.037371255 0.036983978 -0.13763182
000070 50 5c 6e bc 8a 05 7c bd ca ce 0e 3e 8d 6f 8e bb
       -0.014548376 -0.06152872 0.13946071 -0.004346794
000080 be fc c8 ba 76 61 91 bd 7f 27 5a 3d 77 e5 69 be
       -0.0015334112 -0.07098667 0.053260323 -0.2284144
000090 ee b1 08 bd c9 0b 32 3e de dd 36 3d 02 1a 0b be
       -0.033372812 0.17387308 0.044645183 -0.1358414
0000a0 40 60 28 3e 1a 4b 95 3d 57 c9 04 3e 29 71 24 3d
       0.16442966 0.07289715 0.1296743 0.04014698
0000b0 38 f8 3a bd d4 59 ce bd 93 0d 95 bd 85 39 71 be
       -0.045646876 -0.10075727 -0.0727798 -0.23557098
0000c0 10 b8 a5 3c 41 a9 03 be e4 f9 b1 3d 91 5b 12 be
       0.02022937 -0.12857534 0.08690241 -0.14292742
0000d0 57 d7 96 bd 32 95 18 3d 47 f6 bb 3c e5 43 a0 bd
       -0.073652916 0.03725166 0.022944583 -0.0782545
0000e0 23 6a fb bc 9f ed 37 bd dd cc b8 bd b9 86 85 bc
       -0.030690258 -0.044904348 -0.090234496 -0.016299592
0000f0 a0 14 0a bc 59 dc 46 bc 9e cf 18 bc 97 21 23 bc
       -0.008427769 -0.012137496 -0.009326844 -0.009956739

mem_dense.weight f4 [64, 50]
000000 71 8d 57 ba 4a 29 3f be cf bd b0 be c5 fc 94 3c
       -0.00082226755 -0.18668094 -0.34519812 0.018186936
000010 7e df 4f 3e 5a 71 f9 3d 43 bf ef 3d cc 6e 4b 3d
       0.20300099 0.12179823 0.11706402 0.04966621
000020 19 46 d6 be 4f 07 a2 be 9b f5 2e 3e 92 b8 80 3b
       -0.41850355 -0.316462 0.17085879 0.0039282525
000030 8e a0 40 3d 60 c4 d5 bc ce fd fe be b6 10 28 be
       0.047028117 -0.026094615 -0.49803013 -0.16412625
000040 5a 6e a1 3d 5c 88 ab 3d 5c bd 93 3e 28 f2 8a be
       0.07882376 0.08375618 0.28855407 -0.27137876
000050 d4 38 8d be e2 f0 7e bd 87 8f 1c be e4 57 b9 3d
       -0.2758242 -0.062241443 -0.15289126 0.09049967
000060 4e 07 3b be 3d 99 03 be 8f 6a 81 be 82 a6 9b 3e
       -0.18264505 -0.12851425 -0.2527661 0.30400473
000070 5e a4 dc 3c a4 d1 fb bb 41 cc 3c be b9 35 98 3d
       0.026933845 -0.007684903 -0.18437292 0.07432122
000080 22 04 6b be 9c f9 47 be 9d ad ff 3d 86 8b 46 3e
       -0.22950795 -0.19528812 0.12484286 0.19389161
000090 ed b1 ee bd ed 53 2e ba 61 ac 8c 3e 70 b8 96 3d
       -0.116550304 -0.0006650079 0.27475265 0.073593974
0000a0 10 ff 17 3c 44 42 a5 be 9a 23 84 be 84 2d 90 bd
       0.00927712 -0.3227712 -0.25808412 -0.070399314
0000b0 bc a0 65 3c b7 09 1b 3e e7 55 af 3e b7 e7 c9 3e
       0.014015373 0.15140425 0.34245226 0.39434597
0000c0 4e db 36 3e e7 2e 47 3e e8 6a 40 3c 3a 26 4a 3e
       0.17857096 0.19451486 0.011744238 0.19741145
0000d0 5a ba 08 be ab 2c 12 3e fa 09 b5 3e ed 38 5b 3e
       -0.13352337 0.14274852 0.35359174 0.21408434
0000e0 9f 39 94 3e 8b 11 a6 bd df 7c 95 be d5 33 58 be
       0.2895021 -0.08108815 -0.29196832 -0.21113522
0000f0 1a be 94 bd 92 f7 e0 bd d0 c6 1e 3c f9 39 bb bc
       -0.072628215 -0.1098472 0.009690955 -0.022854792
000100 e1 e2 91 3d 5a 1d 1d 3e e5 5c 2f be 79 c3 99 be
       0.07123352 0.15343228 -0.1712528 -0.30031946
000110 4f 2c fa 3c 80 18 e8 bc 4e 57 9e bd 90 a1 c8 3d
       0.030538706 -0.028331995 -0.07731496 0.097964406
000120 6e b8 30 3e 02 a4 00 bf 3d 45 0f 3e db 17 4d 3d
       0.17257854 -0.50250256 0.13991256 0.05007158
000130 45 99 5a 3c e1 35 28 bc ce 64 16 3e 58 cd c6 bd
       0.013342206 -0.010266752 0.14686891 -0.09707135
000140 64 a2 16 be 59 02 ca 3d 1e 30 de bc a2 ac 29 3e
       -0.14710385 0.09863729 -0.027122553 0.1656976
000150 61 91 8c bd db ed 07 be cf 57 48 be 18 88 c8 3d
       -0.06863666 -0.13274328 -0.19564746 0.09791583
000160 b4 4a 9d bd 62 d8 96 3c 78 d2 66 3e 14 cf 2d be
       -0.07680264 0.018413726 0.22541225 -0.16973525
000170 c8 1f e5 bd f0 a7 ff bd 26 25 85 3e 49 62 b7 3d
       -0.111877024 -0.124832034 0.26004905 0.08954293
000180 8e 21 c5 be 37 78 6d 3e 54 5d 02 3e fb b4 a2 3d
       -0.38502163 0.2319039 0.12730914 0.079446755
000190 2a 75 05 3c 8c f0 93 be e0 4c 09 be 0c 3f 84 3d
       0.00814561 -0.2889446 -0.13408232 0.06457338
0001a0 b8 7e 0d 3d 29 d7 21 3e f1 df 88 3c 48 97 2b bd
       0.034544677 0.15804733 0.016708346 -0.04189232
0001b0 61 b9 03 be 8c b0 ea bd 34 54 a1 be ee 44 41 3d
       -0.12863685 -0.11459455 -0.31509554 0.047184877
0001c0 7d 58 26 3d 93 d8 28 bd d8 ba 52 be 3f 02 06 bf
       0.040611733 -0.041222166 -0.20579088 -0.5234718
0001d0 e9 d9 b6 bd 9a c6 2b be 1f 72 a7 bd 6e 89 7a bd
       -0.08928282 -0.16774979 -0.08176064 -0.06116622
0001e0 c1 e6 11 3f 76 33 87 3e cb a1 ab be d0 48 1d be
       0.5699273 0.2640645 -0.33521876 -0.15359807
0001f0 17 32 d5 bd 29 ce 8c 3c 3a 26 3b be 0e 5c e8 3d
       -0.104099445 0.017188149 -0.18276301 0.11345683
000200 b1 1e 4b 3d 3e 1b 33 bd 64 e5 80 be 66 1e 0c be
       0.049589816 -0.043727152 -0.2517501 -0.13683471
000210 c9 b0 cf be a5 0f 6f be cb 17 44 3e e2 8f 85 3e
       -0.40564564 -0.23345812 0.19149701 0.26086336
000220 88 39 ff 3d f5 59 46 bd 7b e8 98 3d 47 ad ef bd
       0.12462145 -0.048425633 0.07466217 -0.11702972
000230 dd 2b 91 be d6 de 68 bd 1c 5d 7b 3d 8d fe 02 be
       -0.28353778 -0.056853138 0.061368093 -0.12792416
000240 d3 12 e2 be d6 1d 5d be 3b fe 1d 3e e8 93 94 bc
       -0.44154987 -0.21593413 0.15429012 -0.018136933
000250 77 cd 56 3e d8 93 13 bb 2f cb be 3b 58 1c 6c 3d
       0.20976816 -0.0022518542 0.005822561 0.05764422
000260 0d 85 76 bd d6 37 44 be c8 2b 9c 3d 02 6f 31 3e
       -0.06018548 -0.19161925 0.07625538 0.17327502
000270 f1 84 3c 3e 1a 31 29 3e 06 20 63 be 3a ef 31 be
       0.18410088 0.16522637 -0.22180185 -0.17376414
000280 60 02 be 3a 01 61 b7 bd 1c f0 ee 3d 22 63 21 3b
       0.0014496557 -0.08954049 0.11666891 0.0024625738
000290 fd c6 e2 bc 2c 29 b7 be b6 4d cd be 5e af 7b bd
       -0.027682776 -0.357736 -0.4009835 -0.06144654
0002a0 d4 9b 5b 3e 5e 70 95 bd f4 6a a1 3e 36 ac cd be
       0.21446162 -0.07296823 0.3152691 -0.4017045
0002b0 15 7f af bd dc 26 61 be 47 38 c7 bd f3 ac 46 be
       -0.08569161 -0.2198748 -0.09727531 -0.19401912
0002c0 7f b3 1a 3e 23 2b 50 3c bf 83 63 3d 7f 03 30 be
       0.15107535 0.012705597 0.055545565 -0.17188834
0002d0 9d b2 89 be 99 4c 2a be 59 8b dc be bb bb 88 be
       -0.26894084 -0.16630782 -0.43075064 -0.26705727
0002e0 08 e4 88 be e1 a1 23 be dc 8a 6f be 24 9d 5d bd
       -0.26736474 -0.1597972 -0.23392814 -0.05410494
0002f0 06 33 f8 3d 72 c6 a4 3e 8e be 78 3d 16 51 f4 bd
       0.12119107 0.32182652 0.060728602 -0.119295284
000300 f5 07 d3 3c fb 38 c1 3d 27 5b 18 be 13 29 2d 3e
       0.02576063 0.09434696 -0.14878522 0.169102
000310 08 58 6f 3e ef eb 61 3d 5a f6 86 3e 14 34 2c bb
       0.23373425 0.055156644 0.26359826 -0.0026276158
000320 66 5a 6f bc f9 c1 ba be 89 a4 c0 be ea c9 6d be
       -0.014608955 -0.36476114 -0.3762553 -0.23221555
000330 f1 6e 4a bd 4a fe e8 bd 07 f7 09 be 0e 78 df bc
       -0.04942221 -0.11376627 -0.1347314 -0.027278926
000340 1b 38 0d 3d 2e f6 4e 3e ac fa 8a be 7e e8 4c 3d
       0.034477334 0.20211098 -0.27144372 0.05002641
000350 e0 1f 81 bd 41 59 7c bc b5 f1 3a bf 3b e2 ab bd
       -0.06304908 -0.015402139 -0.73025066 -0.083927594
000360 e0 d0 0a 3e 94 54 77 3e 5b d1 ab 3d 5b c9 ea bd
       0.13556242 0.24153358 0.08389541 -0.11464187
000370 5e d2 c1 3d 0c 23 bf 3d b2 73 23 3e 03 b2 d3 bd
       0.094639525 0.093328565 0.15962103 -0.103366874
000380 85 19 ba 3d 8d ee e6 bd e2 61 32 3f 36 31 e8 3d
       0.09086899 -0.11275969 0.6968061 0.11337511
000390 b5 60 dc 3e 99 3e 77 3e 35 67 e3 3c 8d 98 29 be
       0.43042532 0.24144973 0.027759174 -0.165621
0003a0 dc 2a 8d 3d 73 01 6b 3e 9e fb 86 bd d7 4c 22 3d
       0.068929404 0.22949772 -0.06590961 0.03962406
0003b0 b5 43 01 be 33 95 2a 3d 25 14 dd 3d 05 7f 9a bd
       -0.12623484 0.041646194 0.10794858 -0.07543758
0003c0 5c 1f fc 3d 12 b9 9f 3d 27 f1 70 3d 23 61 81 3d
       0.12310669 0.07798971 0.05882373 0.063173555
0003d0 f5 04 e0 bc 06 b7 d4 bd df 8d 65 bd 21 5b 5b 3e
       -0.027346114 -0.103864715 -0.056043502 0.21421482
0003e0 91 e6 09 3d 49 ed d0 bd 91 9a 20 3c 8f 88 b4 be
       0.03366715 -0.102015086 0.0098024765 -0.35260436
0003f0 57 78 36 3d 37 05 76 bc 39 59 24 3f 15 d2 2a 3e
       0.04454836 -0.015015892 0.6419864 0.16681702

mem_dense.bias f4 [64]
000000 61 24 80 bd da 8a 99 3d 62 97 e1 bd e5 d5 76 bd
       -0.06256939 0.07497187 -0.11015202 -0.06026258
000010 74 40 91 bd 7d 58 e5 bd d7 a1 53 bd f0 6a 1d 3e
       -0.070923716 -0.111985184 -0.051668014 0.15372825
000020 ff 07 16 be 9f 86 21 bd 38 8f b0 bd df 19 3d bd
       -0.14651488 -0.039435025 -0.08621067 -0.04616725
000030 60 27 c8 bd a2 e3 e1 3d 19 54 bc 3d 67 d8 c8 bd
       -0.09773135 0.11029746 0.09195728 -0.098069005
000040 63 88 55 bd fb fb 2b be bb 97 45 bd 8f eb 9a bc
       -0.05213202 -0.16795342 -0.048240405 -0.018911151
000050 ee 46 0f bd 27 a2 bd bd 67 70 01 3e b1 0b 2d bd
       -0.034979753 -0.09259444 0.12640534 -0.042247478
000060 2d 80 ac be ea f4 12 3d 87 94 08 3d 5e a7 3e be
       -0.3369154 0.0358781 0.03334477 -0.18618533
000070 c2 dd 00 be 14 84 2b be 39 50 7a bd c7 80 05 3e
       -0.12584594 -0.16749603 -0.061111663 0.13037406
000080 c0 ad 3c bd 8a bf bd bd 2c eb 93 3c 12 44 84 bd
       -0.04606414 -0.09265049 0.018056475 -0.06458296
000090 40 33 cc bd 48 40 b4 3d 48 b1 00 be ad 2e 4f be
       -0.09970713 0.08801323 -0.12567627 -0.20232649
0000a0 2b 25 84 3d 54 d5 34 be 57 00 a1 3c ed c0 f5 bd
       0.06452402 -0.17659503 0.019653482 -0.11999688
0000b0 3b d8 95 bd 7a 1f 60 bd 20 5b 03 bd 7d 98 e0 3d
       -0.07316633 -0.05471752 -0.032069325 0.10966585
0000c0 f8 e6 c9 3d 61 12 e5 bd 84 51 80 bd a8 5d 26 3e
       0.09858507 -0.11185146 -0.06265548 0.16246665
0000d0 2b 59 09 be b6 90 5e bd 49 7b 5c 3d 8a f4 24 bd
       -0.13412921 -0.054337226 0.05382851 -0.040272273
0000e0 55 cd 71 be 06 dc 83 bd c2 42 71 bd a5 31 25 bd
       -0.23613484 -0.064384505 -0.058901556 -0.040330548
0000f0 52 f4 ac 3c c4 62 fe 3d b0 cc a2 bd 95 9f d2 3c
       0.021112595 0.12421182 -0.07949197 0.02571086

mem_LSTM.weight_ih_l0 f4 [256, 64]
000000 56 07 25 3e 8d f7 e7 3d dc bb c3 3e 61 9a ef bd
       0.1611608 0.113265134 0.38229263 -0.11699367
000010 8f d1 c1 be 50 ad 8e bd 8c 48 42 be e4 38 40 bd
       -0.37855193 -0.069666505 -0.18972987 -0.046929255
000020 11 f9 29 3e 38 a0 44 bc 71 01 1b 3f 1a 00 15 be
       0.16598918 -0.01200109 0.60549074 -0.1455082
000030 fa ae 7c bd 72 10 b1 be df 6b 3a 3d e7 c4 05 3c
       -0.06169031 -0.3458286 0.04551303 0.008164621
000040 ec 41 f0 bd fb 17 2b bc 53 fb 8d bd 9c 90 6d 3d
       -0.117313236 -0.010442729 -0.06932702 0.05799924
000050 1a 88 91 be 30 ec 1c 3e 19 24 62 3e 06 fe 93 3e
       -0.2842415 0.15324473 0.22084083 0.28904742
000060 84 cc f6 be 71 9f 56 3e b3 e6 7e 3d 00 17 8f 3e
       -0.48202908 0.2095926 0.06223173 0.27947235
000070 b6 22 99 3d c8 e4 8d 3e 94 19 8d bd bb 60 bf bd
       0.07477324 0.2771361 -0.06889644 -0.09344622
000080 88 bb 9c 3e cf dc 52 3e c0 16 56 3e e9 32 68 be
       0.30611825 0.20592044 0.20907116 -0.2267567
000090 cb 12 f9 bd dd ef 0d bf 62 1e 55 3e 0a 42 aa bb
       -0.121617876 -0.5544413 0.20812371 -0.0051958608
0000a0 72 1c dd 3d a8 89 7c be e0 d4 2f be 05 70 ff bd
       0.10796441 -0.24661887 -0.17171049 -0.12472538
0000b0 42 bd cf be 8f cb b6 3e 11 7d 91 3e 0d 7f 9a 3e
       -0.4057408 0.35702178 0.2841573 0.30175057
0000c0 8b fa 44 3e 3a 81 a9 be ab df d9 bd 0d 81 16 bf
       0.192362 -0.33106405 -0.106383644 -0.58790666
0000d0 44 1b 74 be 09 b2 2a 3f e1 89 8c be 01 ab 9a 3e
       -0.23838526 0.6667791 -0.27448943 0.3020859
0000e0 37 f6 b2 bd c2 91 fe 3c eb f4 96 3d 66 d0 ba bc
       -0.08738368 0.031075362 0.07370933 -0.02280445
0000f0 81 0d 14 3d 76 e3 bc be 3f 28 74 bf 6a b9 7e bd
       0.03614569 -0.3689229 -0.9537391 -0.062188543
000100 a5 22 25 be 57 96 8e 3e 9a 66 56 be 8c dc 77 be
       -0.16126497 0.27849075 -0.20937577 -0.24205226
000110 d5 b5 9f bc da ac 2a be 9e cb f3 bd 26 18 d1 3d
       -0.019495884 -0.166675 -0.11904071 0.10209684
000120 c2 1d 74 3e db 9a 01 3e 63 94 34 3e 8e 7f 7c 3e
       0.23839477 0.12656729 0.1763473 0.24658033
000130 7c d0 9b be 59 3d 29 3d ef 3e 04 3d 4d 3b ba bd
       -0.30432498 0.04131827 0.03228658 -0.09093342
000140 a5 de 32 3e c5 ca 3b 3e 0b 6a 34 bf 2b 4a a7 3d
       0.17467745 0.18339069 -0.7047431 0.08168443
000150 31 ce fa 3c 36 05 b4 bd f7 6a 5d bd 25 63 40 be
       0.030615898 -0.087900564 -0.054057088 -0.1878782
000160 60 7c 26 be ed 67 9f 3e d8 54 f6 bd 34 98 29 3f
       -0.16258383 0.31133977 -0.120279014 0.6624787
000170 41 c5 13 be 02 d4 4e be 03 e4 eb bc f5 25 a1 be
       -0.14430715 -0.20198062 -0.028795248 -0.3147427
000180 cf d2 c8 3e e6 27 19 be 63 30 15 3e 49 35 0d 3e
       0.39223334 -0.14956626 0.1456924 0.13789858
000190 3e 69 99 be 4e e1 29 be 22 24 86 be 8f 74 42 3e
       -0.29963106 -0.16589853 -0.26199442 0.18989776
0001a0 00 a9 d3 bd 9b 28 42 3e 16 d2 08 3e f6 b8 e6 be
       -0.103349686 0.18960802 0.13361391 -0.4506299
0001b0 8a b2 14 bd 5c 54 87 3e 75 1e 47 be 4a 07 b5 be
       -0.03630308 0.2643155 -0.19445212 -0.35357124
0001c0 0b 96 29 be 49 31 a3 bd d0 18 0b bb 07 eb 2c 3e
       -0.16561143 -0.07968385 -0.0021224506 0.16886531
0001d0 fc 82 c2 be 80 66 85 3e a5 1e 29 3e f6 e6 c8 3b
       -0.37990558 0.26054764 0.16515596 0.0061310483
0001e0 01 d2 49 3d d1 af e8 3c c8 e6 92 be e7 44 0e 3f
       0.04927254 0.028404148 -0.28691697 0.55573887
0001f0 c5 f8 17 bf ac 2b 26 3e ae a9 3d be b8 24 f7 be
       -0.5936397 0.16227597 -0.18521759 -0.48270202
000200 36 8e f7 bd 06 ab bd 3d 81 f8 ed be b2 4d a5 3d
       -0.120876715 0.09261136 -0.46478656 0.0807146
000210 c0 50 82 3e da b5 0e bd fd c9 28 bc ac 93 9c bd
       0.25452232 -0.034841396 -0.010302064 -0.07645354
000220 a6 52 2a 3e 52 3a d8 3d 46 9e 02 be 5d 28 37 3e
       0.1663309 0.10557999 -0.12755689 0.17886491
000230 4d 78 76 be aa 85 e9 be 75 5d 25 3c 06 e5 8e 3e
       -0.24069329 -0.4560979 0.010093083 0.27909106
000240 98 d5 74 3e 61 25 a9 bd 80 63 cc be fb c7 c4 3e
       0.23909605 -0.082590826 -0.39919662 0.38433823
000250 20 56 b3 3e b1 4e 4c 3e d1 c7 e1 3b 74 93 4a be
       0.35026646 0.19951893 0.006890275 -0.19782811
000260 e9 a2 54 be 28 be dc 3e 34 5b dd be 98 9b ed 3e
       -0.2076527 0.43113828 -0.43233645 0.4640777
000270 9b a3 1f be 75 ad 13 bf 02 53 12 bf e4 7c 98 3e
       -0.15589754 -0.5768655 -0.5715791 0.29782784
000280 d3 54 66 3e d9 cd b9 be 49 1d 04 be 65 24 a0 bd
       0.22493295 -0.36289862 -0.12901796 -0.07819442
000290 63 de b2 be 20 9a f3 3d f2 a8 78 3e df 6c de bd
       -0.34935293 0.118946314 0.24283198 -0.10860609
0002a0 56 c4 92 bc 64 7d dc be 1e 45 7d 3d 31 26 8f 3e
       -0.017915886 -0.43064415 0.061833493 0.27958825
0002b0 8b ca 9c 3e 8f 3d e4 3d 99 c9 73 bd bf d6 67 3e
       0.30623278 0.11144554 -0.05951843 0.22640513
0002c0 bf 70 8f be 83 3c f8 be ed 03 9c 3e ca d5 f8 bc
       -0.28015706 -0.48483667 0.30471745 -0.03037538
0002d0 35 7b 3d be 21 31 9b be 9b 80 05 3f 63 ed 61 be
       -0.18504031 -0.3031092 0.5214936 -0.22063212
0002e0 04 29 e5 be f7 3b f2 bd 7b 6d 18 3d e9 93 97 3e
       -0.44757855 -0.11827844 0.037213784 0.29605034
0002f0 ac e7 b6 be a3 1e 0a 3e 45 03 17 3d b8 e9 d6 be
       -0.35723627 0.1348825 0.036868352 -0.41975188
000300 78 89 9a be 9c 8b 86 3e fe b4 40 3d 97 29 0a be
       -0.30183005 0.26278389 0.047047608 -0.13492428
000310 83 20 b4 3c a6 4a 97 3e 3e 50 c3 bb 00 e1 62 be
       0.021988159 0.2954914 -0.0059604933 -0.22156143
000320 c6 bf 0c be f4 57 d3 3e ac c5 7c 3e d3 eb 1d bf
       -0.13745031 0.4127804 0.24684781 -0.61687964
000330 91 03 3c be f7 6d 8d be 23 d9 ad 3e 4c 6d f0 3d
       -0.18360735 -0.2762296 0.33954725 0.11739597
000340 aa 19 14 3e d7 64 fc 3d e8 8e a2 bc 05 cc 2a 3e
       0.14462915 0.12323921 -0.019843534 0.1667939
000350 e6 b4 ed 3d 43 88 aa bd b8 97 20 be 4c 87 c8 bd
       0.11606769 -0.08326771 -0.15682876 -0.09791431
000360 2a 80 a5 be 38 ff 4a 3e 34 b7 b8 3e 4e 34 57 3e
       -0.32324344 0.1982392 0.36077273 0.21016046
000370 f6 1b 3b bd 9e 6d 84 3d 14 12 88 3d c3 3f 04 3e
       -0.045680963 0.0646622 0.06644073 0.12914948
000380 f1 59 24 bd 1d 01 98 bb 5a 4d 05 3f c2 c0 a9 3e
       -0.040124837 -0.0046388046 0.52071154 0.33154875
000390 2a 71 ce bd 36 20 a7 bd 6e 96 06 3e 5f c1 86 3e
       -0.10080178 -0.081604406 0.13143322 0.26319405
0003a0 b0 30 8a 3e a6 0b 90 3e 55 9a 59 3e c1 1e fe be
       0.2699027 0.28133887 0.21250279 -0.49632838
0003b0 f0 a2 10 3e ae 4b e0 3e dd 0d 0a 3d 52 1e ca bd
       0.14124656 0.4380774 0.033704627 -0.098690644
0003c0 8e d2 83 3e 62 fa 9d 3d 75 96 29 3d d3 2a a8 bd
       0.25746578 0.07713772 0.041403253 -0.08211293
0003d0 14 c1 b8 bd 76 15 52 3f 1f 85 b0 3d de 6a 45 3e
       -0.09021202 0.82063997 0.08619141 0.19279048
0003e0 3b 75 78 bd 58 93 01 be 35 c7 ea 3c 51 f0 fa 3e
       -0.060658675 -0.12653863 0.028659442 0.49011472
0003f0 d2 90 b4 bd 04 b8 87 bd 70 0b 6d 3e ec f3 c3 bd
       -0.08816685 -0.06626895 0.23148894 -0.09568009

mem_LSTM.weight_hh_l0 f4 [256, 64]
000000 9c e4 75 bc e4 a9 2b 3e 4d 9e 49 3e d8 48 24 3e
       -0.015008118 0.16764027 0.19689293 0.16043413
000010 c8 5d f2 3d e6 ad ca 3e 1c 24 24 be 84 50 da 3d
       0.118342936 0.395858 -0.160294 0.106598884
000020 51 10 70 3e f2 ca a5 3e a2 c0 89 3d 70 eb 67 be
       0.23443724 0.32381397 0.06726195 -0.22648406
000030 a7 ca b6 3d cf 32 3c 3e f0 58 10 3e 2d 40 b6 3c
       0.089253716 0.18378757 0.14096427 0.022247398
000040 d1 6a 96 3e f8 b3 cc bd 21 af a4 bd 68 dc 9a 3e
       0.2937837 -0.09995264 -0.08041216 0.30246282
000050 d8 d6 51 3d e9 e0 bd bd 5b 6d 32 be 33 1a a7 3d
       0.05123028 -0.09271414 -0.17424528 0.08159294
000060 71 d6 51 be cc 69 47 3d 0a ac 65 be 63 a6 64 3e
       -0.20491959 0.04868488 -0.22428909 0.22329096
000070 3b 48 9b 3d 7f 00 ca 3c d5 b8 3e 3e fa d0 fb 3c
       0.07582136 0.02465844 0.18625195 0.030739296
000080 31 36 ba 3c ad 15 0b be 10 48 3b 3e 52 71 f9 3d
       0.022730919 -0.13582487 0.18289208 0.12179817
000090 c0 18 37 be 79 1a 3b 3e e7 30 71 3c 93 49 5d bc
       -0.17880535 0.18271817 0.014721132 -0.013506311
0000a0 6d 3d 4c bd 05 43 10 3e 15 45 ae 3d 50 fc 8f 3e
       -0.049863268 0.14088066 0.0850927 0.28122187
0000b0 f6 f0 cb 3d 65 b9 ae bc b9 c1 84 3d 3d 36 3a 3e
       0.09958069 -0.021328637 0.06482262 0.18184753
0000c0 97 94 9d bd 3c 8a cd 3d 15 3a 47 be 24 fd 98 be
       -0.07694357 0.10036132 -0.1945575 -0.2988063
0000d0 26 ef 3d 3e cf c8 0a be 29 20 2b be 2d c1 5c 3c
       0.18548259 -0.13553165 -0.16711487 0.013473791
0000e0 3f 4b 58 bd e9 5d 68 3e 81 f2 26 be f6 11 1c 3e
       -0.052806135 0.22692074 -0.16303445 0.15241227
0000f0 19 e2 14 3e 6e 0b a5 be bd 8d ad 3e 89 c6 19 be
       0.14539374 -0.32235283 0.338972 -0.15017141
000100 c2 39 99 bd 11 ad 96 3e 67 18 ea be d5 40 6b be
       -0.074817196 0.29428914 -0.45721743 -0.2297395
000110 48 87 cc be e9 79 62 3e e2 7f f4 3d b9 05 bd 3d
       -0.3994696 0.22116818 0.11938454 0.09229607
000120 c4 0b 06 3e 93 51 d8 bd fb c6 73 be 16 62 0a bf
       0.13090426 -0.10562434 -0.23806374 -0.5405592
000130 ca 42 41 be c9 58 6e be 03 b7 d2 3e 83 96 bd 3d
       -0.18873134 -0.23276056 0.41155252 0.092572235
000140 d0 1d 47 3e dc 33 02 3e b2 3f b7 bd af 18 d9 be
       0.19444966 0.12715095 -0.08947696 -0.42401645
000150 88 04 a1 3b c0 bc 54 3e 14 26 37 3e 44 c8 05 be
       0.0049138702 0.20775127 0.1788562 -0.13064677
000160 b8 c4 89 be 46 a9 09 bf 3a 69 e4 bc 7d 80 41 3e
       -0.26907897 -0.53773916 -0.027882207 0.1889667
000170 33 7f 08 3e f1 92 8d be 6a d5 0c be 45 ab a6 3d
       0.13329773 -0.2765117 -0.13753286 0.08138136
000180 28 fd 6e bd 65 c7 17 be 07 a7 38 3e a0 0c 59 be
       -0.058346897 -0.14822157 0.18032466 -0.21196222
000190 5e 56 9e be 12 21 d3 3e 33 48 84 3d f5 87 80 3e
       -0.30925268 0.41236168 0.064590834 0.25103727
0001a0 49 0a 5f be e5 4a ad be 7f 9a 49 3e 61 e6 8f be
       -0.21781267 -0.33846202 0.19687842 -0.28105453
0001b0 dc 76 87 bd c9 a1 90 be 1d 43 2e 3e df 10 21 3b
       -0.066144675 -0.28248432 0.17017789 0.0024576706
0001c0 bc ea a3 3e 1e 9f ad bd 35 6f b8 bc 99 2f 85 be
       0.32015026 -0.08477615 -0.022513965 -0.26012877
0001d0 7c 61 af 3e 57 39 0f 3e 1b c9 b9 bb de eb 70 3e
       0.34254062 0.13986717 -0.0056697256 0.23527476
0001e0 c1 9a 90 3c f2 7b 2e 3e 90 62 1f be fd cd 13 bd
       0.017651917 0.17039469 -0.15564942 -0.036085118
0001f0 b6 18 53 3e ea 95 cf bb d7 4c aa 3e 7b c3 e3 be
       0.20614895 -0.00633501 0.3326175 -0.44485077
000200 b6 d1 79 3e fa 67 b2 3e 92 54 0a be fe 2e 15 3e
       0.24396405 0.34844953 -0.13508824 0.14568707
000210 ac 14 44 be 49 b5 80 3e 36 7a e5 bd 32 d6 90 3e
       -0.1914851 0.2513831 -0.112049505 0.28288418
000220 32 a8 94 3e c7 ea d1 be 95 cb ad be f8 06 30 3e
       0.29034573 -0.40999433 -0.33944383 0.17190158
000230 6a 4b 2e 3c ef 57 c8 3d af 43 42 3e d5 52 de 3e
       0.010638097 0.09782397 0.18971132 0.4342257
000240 49 86 27 3e ea 43 b1 bd 9c 2d 9e be 2a 55 50 be
       0.1635982 -0.08655532 -0.30894172 -0.20344988
000250 51 71 79 3e 17 0c bb be 7b 88 1d 3e 35 3a b9 3e
       0.24359633 -0.3653266 0.15384094 0.3617722
000260 05 cc bb 3e 07 06 5f be 92 93 0c bf d4 af 28 3d
       0.36679092 -0.21779643 -0.54912674 0.041183308
000270 c9 f2 d2 be e2 09 b5 3d 40 2a c7 be 03 2d f0 bc
       -0.41200855 0.088397756 -0.38899422 -0.029318338
000280 7b 14 e6 3c bb 80 a6 3e 1f 5f 35 3e 74 46 07 3d
       0.028085938 0.3252009 0.17712067 0.033026174
000290 f3 c1 e3 be fb 13 77 3c bf 90 24 3f a0 55 e2 bd
       -0.4448391 0.015080447 0.64283365 -0.11051488
0002a0 27 a9 9a 3d 1d 08 ac 3d 78 7b 5f 3e 22 1d f4 3c
       0.075517945 0.08399985 0.21824443 0.029799048
0002b0 04 ef 99 3e 6e fc b2 3d 46 b4 e5 3e f4 7a 22 3e
       0.30065167 0.087395534 0.448641 0.15867215
0002c0 0f da 95 be 6f 52 c7 be 29 cc ab 3c bb 6f eb bd
       -0.29267928 -0.3893008 0.020971375 -0.1149592
0002d0 a9 d6 ef 3e 58 05 8b bd b8 27 58 be c6 95 95 3e
       0.4684346 -0.067881286 -0.21108902 0.2921583
0002e0 8c 61 01 3f 51 ea b4 be 8f 00 92 3e 42 2f 86 3e
       0.5053947 -0.3533502 0.2851605 0.2620793
0002f0 41 11 9b bd 19 91 88 be c0 68 b4 3e d9 76 29 3e
       -0.0757165 -0.266732 0.35236168 0.16549243
000300 a7 f0 38 3e c2 f0 bc 3e 1c f7 c9 3d 4b 77 c3 bd
       0.18060552 0.36902434 0.098615855 -0.09544238
000310 47 78 3e 3e cd 13 bf 3e 04 51 b9 bd a2 55 f9 3e
       0.1860057 0.37319794 -0.09048656 0.48698145
000320 18 6b 84 3e 4c d3 89 be e1 b6 c1 be 41 e0 f9 be
       0.25862956 -0.2691902 -0.37834838 -0.48803905
000330 b7 6f 06 3e 57 6c 51 be 08 62 96 be 5c e0 57 3e
       0.13128553 -0.20451485 -0.29371667 0.2108168
000340 e8 f4 9a 3e 6f d4 db be 36 e2 b6 bd 67 45 36 bc
       0.30264974 -0.4293551 -0.08929865 -0.011124945
000350 17 56 1a be 8f cf be be 0f b1 76 be bc b7 c4 3e
       -0.15071903 -0.3726773 -0.2409098 0.38421428
000360 3d 07 8c be 2d cf df 3d c3 85 c2 bc 95 27 a5 3e
       -0.27349272 0.109281875 -0.023745423 0.3225676
000370 f2 ad d4 bd ed ea 77 3e 40 a6 df 3d f5 8b a8 3e
       -0.1038474 0.24210711 0.109203815 0.3291928
000380 26 22 05 3e 70 ac 63 3d a7 43 51 3e d6 99 da 3d
       0.13001308 0.05558437 0.20435964 0.10673873
000390 00 57 0a bf 0f 0c 82 3e 46 14 95 3b dc 62 30 be
       -0.54039 0.25399825 0.004549536 -0.17225212
0003a0 c3 a3 f0 3d b3 3a c7 be 96 79 83 3e c5 82 87 be
       0.11749985 -0.3891197 0.256787 -0.26466957
0003b0 23 6a c1 3e ba 4d 8b 3e 7b a3 25 3e d5 e7 cf 3e
       0.37776288 0.27207738 0.16175644 0.4060656
0003c0 36 1e 7f be b2 37 95 3e c9 ea 91 be 07 fd 5e 3c
       -0.24913868 0.29144055 -0.2849944 0.013610131
0003d0 16 b0 aa be 91 94 d2 be ab db 8b bc d2 bc d2 3d
       -0.33337468 -0.41128972 -0.01707252 0.10289921
0003e0 65 09 46 3e 73 80 5a 3e 7e 52 52 3e de c9 a2 3e
       0.19339521 0.21338062 0.20539281 0.31794637
0003f0 e6 fd 0d 3f 52 fb 82 be 98 ec 9c 3e b6 f2 3b 3e
       0.55465543 -0.25582367 0.30649257 0.18354306

mem_LSTM.bias_ih_l0 f4 [256]
000000 33 69 fd bd 60 2b fb bb fb 5c 85 3e c8 3f 37 3c
       -0.12373581 -0.007665083 0.260475 0.01118464
000010 87 0e 65 bb f2 74 92 bd 56 72 b2 3d 12 26 73 bd
       -0.0034951286 -0.07151212 0.08713214 -0.05936248
000020 e8 9b af 3b f4 aa a0 3b 2a 45 8e 3e d3 d6 d2 3d
       0.0053591616 0.0049031917 0.27787143 0.10294881
000030 59 d4 e0 3c 5d 4c 19 be ae 33 0e bd 1d 97 1e be
       0.027445005 -0.14970537 -0.034717254 -0.15487333
000040 48 10 07 be 64 8e 98 bd f2 a4 e3 bd d7 0f 10 3e
       -0.13189805 -0.07449034 -0.11115445 0.14068542
000050 9c 62 41 be 7c 08 b4 3d 6a 4a b2 3d f9 d2 52 3e
       -0.18885273 0.08790681 0.087055996 0.20588292
000060 a0 e3 3a bd f2 c3 a7 3d 3d f6 6f 3e 32 4a 03 3e
       -0.045627236 0.081916705 0.23433776 0.12821272
000070 34 17 14 3d 13 42 80 bd a6 a1 e9 bd ad d6 5f bd
       0.03615494 -0.06262603 -0.11407785 -0.05464809
000080 33 44 61 3d fe b1 98 bb 97 9d 45 be 01 e2 d6 bd
       0.05499668 -0.00465989 -0.19298397 -0.104923256
000090 6a 0d 1e 3e 8a b3 a1 3d f9 38 44 be 96 21 51 3d
       0.15434805 0.078955725 -0.19162358 0.05105742
0000a0 49 6b c0 3d 51 56 33 3e 96 40 15 be 15 3b 3d be
       0.09395463 0.17513396 -0.14575419 -0.1847957
0000b0 0c d7 8d 3e 19 51 e4 3b c4 ee c6 bd db 4d cc bc
       0.2770313 0.0069676754 -0.0971351 -0.024939468
0000c0 ab 3f 35 3e 75 93 ce bd 8d 93 ad bd 4c d4 48 bd
       0.17700069 -0.10086719 -0.08475409 -0.049030587
0000d0 02 64 52 be 04 4f 5c bc fb 9d 44 be d6 ab 5d be
       -0.20545962 -0.013446573 -0.1920089 -0.21647581
0000e0 8f de 50 3e 89 0f ae bd e2 1f 78 bd 25 4d c1 3d
       0.203974 -0.08499057 -0.06057728 0.09438542
0000f0 5d 2f a6 bd 16 9a 53 3e 7e 85 7d bd a8 0b ea 3d
       -0.081145026 0.20664248 -0.061894886 0.114280045
000100 15 90 92 bd b4 02 c2 3d 0d 7e 11 3e f6 02 ce be
       -0.07156388 0.09473172 0.14208241 -0.40236634
000110 99 b0 f2 bd e1 98 16 be 00 fe b8 bc 9e 37 7a bd
       -0.118500896 -0.14706756 -0.022582054 -0.061088197
000120 37 91 10 3d de 63 91 3c 5d 55 78 3d d6 b9 c1 be
       0.035294738 0.017747816 0.060628284 -0.37837094
000130 fe a7 bf be be 03 bb 3d 05 25 0d 3e 47 71 49 bc
       -0.37432855 0.09131573 0.13783653 -0.012295074
000140 8e 7e b7 3d 90 6a 2a bd 2a 97 fa bd 03 6b 5a bc
       0.08959685 -0.041605532 -0.122358635 -0.013331178
000150 ce 77 ed bd 70 1c d1 bd c0 a7 77 3b 30 9e 6c 3d
       -0.115951166 -0.10210502 0.0037789196 0.057768047
000160 a2 36 5f bd 3f 02 81 bd b0 8a 20 3d 8f d3 45 3d
       -0.05449546 -0.062992565 0.039194763 0.04829746
000170 84 65 96 3d d6 39 8f bd 71 57 39 be c2 54 94 3c
       0.07343581 -0.06993453 -0.18099762 0.018106822
000180 9b 67 85 3d b2 fb 8d bd d8 db cb 3c 75 a4 00 bd
       0.06513902 -0.06932773 0.024885103 -0.03140684
000190 b4 bf 2e be 06 aa 0d 3c 92 b2 0b be e0 c9 a4 3d
       -0.17065316 0.008646494 -0.13642338 0.08046317
0001a0 51 6c 0d bd 20 d8 21 bd f5 71 b9 3d 35 46 b4 bc
       -0.034527127 -0.039512753 0.09054939 -0.022006134
0001b0 01 36 32 3d 61 d0 92 bd aa 74 14 be 31 f1 a5 bd
       0.043508533 -0.07168651 -0.14497629 -0.08102644
0001c0 85 9d 15 3d 5e 36 e2 3a bb 76 67 3d 05 e6 e1 bc
       0.036527175 0.0017258634 0.056509715 -0.027575502
0001d0 d7 ab 80 be 54 c2 98 3d fe b6 e8 bd 86 ab 09 be
       -0.25131103 0.0745894 -0.11363028 -0.13444337
0001e0 dc b8 ac bd fa 41 ac 3c d3 6f 9f bd a1 50 c2 3d
       -0.08433697 0.021027554 -0.07785001 0.09488035
0001f0 ed ee 42 3d 73 11 17 3d c6 41 b2 3c 04 6e b5 3c
       0.04759114 0.036881875 0.021759879 0.022147186
000200 27 25 de 3c b4 e4 84 3d ed 95 b6 3d 72 79 0f 3d
       0.027117325 0.06488934 0.08915315 0.03502793
000210 fc 11 14 3d 2f 35 22 3e 55 5b b9 bd 31 c4 39 3e
       0.036149964 0.158406 -0.09050623 0.18141247
000220 72 bb 86 3b 81 e2 a5 bd e6 61 f9 bd 10 a8 61 3c
       0.0041117007 -0.08099843 -0.12176876 0.013772979
000230 3c 6e 96 3d fd da e0 3c f4 42 9b bd ba 4e 95 3d
       0.07345244 0.027448172 -0.0758113 0.072904065
000240 30 d3 79 3d 3e f9 68 3d 37 f0 6d bc 73 00 91 bb
       0.06099242 0.05687832 -0.014522604 -0.0044251024
000250 87 2c 9e 3d 29 36 10 be a4 de 22 3d 26 9c 0b 3c
       0.07723337 -0.1408316 0.039763108 0.008521115
000260 50 f7 0c 3e 22 33 60 bd 35 1d 9a bd df 41 07 3d
       0.13766217 -0.054736264 -0.07525102 0.033021804
000270 2e 29 e7 bd 45 68 7b bc 04 ee 48 be 84 c5 bc bd
       -0.11287151 -0.015344684 -0.19622046 -0.092173606
000280 2f 50 94 3c 69 e7 43 3d 74 c8 c9 bd c7 ed 03 3d
       0.01810464 0.04782811 -0.098526865 0.032209184
000290 f3 ae 57 be da 62 b8 bd a5 00 b5 3c fa 7c a6 bd
       -0.21062832 -0.090032294 0.022095034 -0.08129306
0002a0 c0 96 d6 bd f2 5b a4 bd 9a 3f 06 3d ea 52 fc bc
       -0.10477972 -0.0802535 0.0327755 -0.030801255
0002b0 cf 25 3b bd 7f 9b d9 3d d2 1e 67 3c 8b 77 bd 3d
       -0.045690354 0.10625362 0.014106469 0.09251317
0002c0 8b df 87 bd 27 1e 70 3c 08 b0 2b 3d ab 0c df bd
       -0.06634434 0.014655626 0.041915923 -0.10891088
0002d0 d2 37 e3 3d 1b 54 7d bc 6a 4d f4 bd 5b 8e 5f 3c
       0.11094631 -0.015461947 -0.11928828 0.01364478
0002e0 70 24 5a 3d 1c c0 e4 bc 9b dc 30 bd e1 b4 13 3e
       0.053257406 -0.027923636 -0.043179136 0.14424469
0002f0 fd c8 a8 3d 75 c2 d0 3c 8c a7 b4 bd 8d e3 dd 3d
       0.082414605 0.02548335 -0.088210195 0.108344175
000300 8f e5 9f bd ef 59 cc 3d 05 95 9e 3d ea b9 22 be
       -0.07807457 0.09978091 0.07743267 -0.15891233
000310 36 55 b1 3d 21 a0 00 3e 5c 79 bd 3d cb 46 05 be
       0.08658831 0.12561084 0.09251663 -0.13015287
000320 4f ee d3 bd f3 26 12 3d 86 8e 93 3d a0 7d 6f ba
       -0.10348188 0.035681676 0.072049186 -0.0009135846
000330 b5 df 91 3d 62 15 b4 bd 86 1b 45 3d 96 ae 63 be
       0.07122747 -0.08793141 0.04812195 -0.22234568
000340 d7 59 b4 3d c2 d2 94 3d b7 f4 6d be 0c c0 2a 3c
       0.08806198 0.07266761 -0.23237883 0.010421764
000350 56 99 76 bd ab d2 8d 3d 70 80 36 bd b8 51 7f 3e
       -0.060204826 0.06924947 -0.04455608 0.24933517
000360 a4 ee b9 bd ab 20 4a 3d ff 2f 80 3e 3a 8e d9 3d
       -0.0907872 0.04934756 0.25036618 0.10622831
000370 e4 19 89 3d a0 ea 07 be 9a 5e 34 bd 3c 5c 33 be
       0.06694391 -0.13273096 -0.04403553 -0.17515653
000380 5a b9 a7 bd 03 f0 46 3d e7 45 76 bd b7 00 f0 3c
       -0.0818965 0.048568737 -0.060125258 0.029297216
000390 04 82 d1 3d fc 37 19 be bd 2f 3a be 45 e3 62 3e
       0.10229877 -0.14962763 -0.18182273 0.22157009
0003a0 81 78 d8 3c ba 04 88 3e 05 15 64 bd c4 0e 01 be
       0.026424648 0.26566106 -0.05568411 -0.12603289
0003b0 ec 6a 10 3e 60 f8 ad bd eb 06 a1 bc ea 3f cc 3c
       0.14103287 -0.084946394 -0.019656619 0.02493282
0003c0 e4 13 27 3c 07 20 0c be a5 de f5 bd 17 fe c0 3d
       0.010197613 -0.13684092 -0.12005357 0.09423464
0003d0 2d 99 1d 3d dc 7a 3c 3d 90 a5 03 be bf 16 02 be
       0.038476158 0.046015605 -0.12856126 -0.1270399
0003e0 38 8d 2b 3e 34 55 61 bd df 83 57 be eb aa 57 3d
       0.1675309 -0.055012897 -0.21046399 0.052653234
0003f0 aa c1 01 be 54 84 b0 3c 00 2f 1b be 49 5c 87 bc
       -0.12671533 0.021547474 -0.15154648 -0.016523497
