current_algos/LSTM_TD3/LSTM_TD3_Agent_actor_weights.pth (torch, 213849 bytes, 13 tensors)

curr_fe_dense1.weight f4 [64, 50]
000000 4c fb cb bc ca 3c c0 be c0 47 89 be 45 ca 15 3e
       -0.024900101 -0.37546378 -0.26812553 0.14627941
000010 e5 a7 e6 3e fb 7d 4a 3e f8 de a8 3d d0 99 88 3d
       0.45049968 0.1977462 0.08245653 0.066699624
000020 0e 87 ab 3e 3b cb a3 3e 56 af 73 3d 47 8f 08 3e
       0.33501476 0.3199099 0.059493385 0.13335906
000030 33 19 df 3d 18 e5 3f 3e de 58 38 be 3b 4f 27 bd
       0.10893478 0.18739736 -0.1800265 -0.040847044
000040 6b 41 04 be 91 9d 93 be 4c cc 31 3c 9f bf 85 be
       -0.1291558 -0.2883115 0.010851931 -0.26122758
000050 29 f9 d2 be 76 d0 3e 3e 13 32 46 3d fe 2e 1a be
       -0.4120572 0.18634209 0.0483876 -0.15056989
000060 fd 30 09 bf fc cf 6b 3e 0d d3 8f 3e 43 7d 74 be
       -0.53590375 0.23028558 0.28090706 -0.23875909
000070 75 0a ac be 9f 73 21 bf 06 f3 2f be 57 4a 13 be
       -0.33601728 -0.6306705 -0.1718255 -0.14383827
000080 c2 3c b5 bd 76 31 d1 be 45 c3 a6 be b6 7a a7 be
       -0.08849479 -0.40858048 -0.32570854 -0.3271081
000090 25 e6 b9 bc b3 b6 db 3d 2e 31 f5 3e 98 7b 9f be
       -0.02269275 0.107282065 0.47889084 -0.31148982
0000a0 57 8b 2a 3e fc ce 21 be e7 86 ce be af 90 27 bd
       0.16654716 -0.15801615 -0.40337297 -0.040909465
0000b0 7c 11 e6 3e 66 4f 5b bd 4f ba 90 be ed 99 a3 3d
       0.44935215 -0.053542517 -0.28267142 0.079883434
0000c0 86 b5 1d 3e 05 a4 f6 bd 56 01 a9 bc 63 9a 27 be
       0.15401277 -0.12043003 -0.02063052 -0.16367488
0000d0 26 b4 68 3e a7 b8 9e 3d f2 d3 98 3e 68 38 4b 3e
       0.22724971 0.077500634 0.298492 0.19845736
0000e0 ab f1 10 3e d8 c4 0c 3e 12 68 4b be b7 1b 34 3d
       0.14154689 0.13746965 -0.19863918 0.043971743
0000f0 fa 89 c6 3e 99 f2 5a bc 91 e8 10 3e bd 05 89 bd
       0.38777143 -0.013363504 0.14151217 -0.066905476
000100 b2 bd 18 bf 8a 84 a4 be 14 e9 b9 3e fc d1 a5 be
       -0.5966445 -0.3213237 0.36310637 -0.32386768
000110 29 5b 12 be 29 de 44 be a5 54 63 3e 3d b4 34 3e
       -0.14292587 -0.19225372 0.22200258 0.1764688
000120 0a 55 37 3d 22 2a 9a bd 18 f6 09 3e 62 cc 03 be
       0.044758834 -0.075275674 0.13472784 -0.12870935
000130 ed 67 30 3e 28 11 44 bf 1c 2a 06 bf b8 6b 0a bf
       0.17227145 -0.7658868 -0.52408004 -0.54070616
000140 46 0b da bc ba ef 6a bd 1d 60 ae bd 0b e3 5b be
       -0.026616704 -0.057357527 -0.08514426 -0.21473329
000150 ba e7 6a be 93 8b 38 be 2d eb 2a be 79 5e 2e 3e
       -0.22939959 -0.18021993 -0.16691275 0.17028226
000160 7f e8 32 3d 23 97 9d be 61 05 04 bf 8f e0 46 bf
       0.043678757 -0.3077937 -0.5157071 -0.776864
000170 24 cc 59 be 4a 53 8e bd da b7 92 be bd 8a a4 bd
       -0.2126928 -0.0694948 -0.28655893 -0.08034275
000180 e9 76 63 3e 46 0b 85 bd d0 81 93 bc 6d e2 d8 3d
       0.2221333 -0.06496291 -0.018006235 0.10590062
000190 ef d3 65 3b 13 dd b3 be 76 42 23 3e 11 e3 5c bd
       0.003506895 -0.35129604 0.15943322 -0.053927485
0001a0 08 d8 2d bf 0f 8b 1a bd 34 40 4d bc c1 3e 57 3c
       -0.6790776 -0.037730273 -0.012527514 0.01313752
0001b0 98 de 00 bd 0f a0 ce bc c1 53 cf be f4 7a 10 3d
       -0.031462282 -0.025222806 -0.40493587 0.035273507
0001c0 1f 5b 1f bc 8f d1 5f 3c 86 00 c2 be 85 c2 14 be
       -0.009726315 0.0136608025 -0.37891024 -0.14527328
0001d0 62 af a7 3f 77 02 85 bd 7a ac 8c 3d f4 76 37 be
       1.3100398 -0.06494611 0.06868835 -0.17916471
0001e0 27 85 87 3c 58 94 a6 bd 0d fe ef bf 7e 90 86 bd
       0.016542984 -0.08133763 -1.8749405 -0.065705284
0001f0 ac 43 9a 3d b9 c9 43 bc f6 ed 23 be 63 6d b8 3e
       0.07532439 -0.01194995 -0.16008744 0.36020955
000200 45 bc 3e be e8 85 08 bd 0b 71 96 bc 48 83 03 be
       -0.18626507 -0.033330828 -0.01836445 -0.12843049
000210 7c 4b 4c be a0 18 d7 3d 1a 7e 91 3d 7f 61 2d 3e
       -0.1995067 0.10502744 0.0710413 0.16931723
000220 e0 a0 af 3d 59 a2 57 bd d0 e1 7f 3d 88 fa 98 be
       0.08575606 -0.05264506 0.06247121 -0.2987864
000230 0a 16 06 3d ea e2 48 3e 5b 78 c2 bd bc f8 08 3e
       0.03273586 0.19617811 -0.09495612 0.13376135
000240 71 2a 15 3e f9 25 2c be e4 b9 00 bf 99 52 d6 3c
       0.14566971 -0.1681136 -0.50283647 0.026162433
000250 71 2b 2f 3e d5 d8 89 bc 7e d4 24 bd 55 c4 a8 be
       0.17106415 -0.016827026 -0.04024171 -0.3296229
000260 1c e5 16 bc 0a cf f9 3c 3f 63 5f 3e 48 a6 f1 3d
       -0.009209897 0.030494232 0.21815203 0.11799294
000270 aa f7 00 3e 55 d1 de bc 67 4b 3a be 91 a3 6e 3e
       0.12594476 -0.027199427 -0.18192826 0.23304583
000280 6e c4 42 3e 08 87 11 3d fe b0 f9 bd 1f 43 51 3d
       0.19020244 0.035529166 -0.12191962 0.051089402
000290 0b ab 5f 3e e0 bb 8c 3c 54 ef 91 be 4d 77 39 bf
       0.21842591 0.01717943 -0.28502905 -0.72447664
0002a0 bc 59 e8 be f4 84 73 be 5f 29 84 3e 33 93 01 3e
       -0.45380962 -0.23781186 0.25812814 0.12653808
0002b0 1d 7b 5c 3e 59 94 bf 3d da 62 37 be 85 d8 ab bc
       0.21531339 0.09354467 -0.17908803 -0.020977268
0002c0 94 36 7f bf 3b c5 43 3e 7a 4f e6 be a4 10 07 be
       -0.99692655 0.19118206 -0.4498251 -0.13189942
0002d0 25 48 8e bd 12 70 c6 bc 11 14 df bd 49 f2 94 bc
       -0.06947354 -0.024223361 -0.10892499 -0.018181937
0002e0 76 8e 9b 3d f2 67 ef bc 47 93 11 be e7 04 38 be
       0.07595532 -0.02922437 -0.14216338 -0.1797062
0002f0 f0 16 5d 3d f2 e7 8f 3e 51 fc 39 be 9f fa 8e bd
       0.053976953 0.28106648 -0.18162657 -0.06981396
000300 35 87 d3 3d 3c 92 32 be db f5 7e be ef e4 8f be
       0.10328523 -0.17438596 -0.24898474 -0.2810435
000310 ae 7e ca be 2a 7b a5 be 8a 51 9d be d4 bf 93 be
       -0.39549774 -0.3232053 -0.30726272 -0.2885729
000320 d9 90 24 3c f8 45 47 bd df bc 89 3c 27 32 f2 bd
       0.0100443 -0.04865071 0.016813694 -0.11825972
000330 61 94 0f bf c9 cf c2 bd 6e 0e 1a bd bf 59 fa bc
       -0.56085783 -0.09512288 -0.037611417 -0.030560372
000340 a1 34 3b bc ba 2b c3 bd ae f7 a9 3e bd ac 26 3d
       -0.011426122 -0.095298246 0.33196777 0.04069208
000350 7c c9 92 3c 84 e7 76 3d f4 14 15 3e e7 8a cb bd
       0.01791834 0.060279384 0.14558774 -0.09938603
000360 ed a8 76 40 a9 2c 56 3e bd 53 e7 3d 00 6e 9e 3d
       3.8540604 0.20915474 0.11295269 0.077358246
000370 a5 97 57 3d 3f cb 30 3d 6e 3b 85 3e f0 5d f6 3b
       0.052634854 0.04316258 0.26021904 0.0075185224
000380 8d 58 00 3d c6 87 83 ba 45 7a ac 3c d6 61 aa 3c
       0.03133445 -0.001003497 0.021054396 0.020798605
000390 6a f0 89 3e ff 11 8d bd c6 4b e2 bc b3 3d 4b 3d
       0.26941234 -0.06888198 -0.027624022 0.049619388
0003a0 44 69 96 bd f8 3a 04 bd 7e 7a ed 3e d5 79 19 3e
       -0.073442966 -0.0322828 0.46382517 0.14987881
0003b0 d8 90 4a 3e 6d 6e 34 3e 02 21 82 3d d2 2c a6 ba
       0.19781816 0.17620249 0.06353952 -0.0012678152
0003c0 98 4a 65 3f 75 92 66 3e 86 ad e3 3d 6b 68 b8 3d
       0.89566946 0.22516806 0.11117081 0.09004291
0003d0 29 f4 88 3c 8b 80 7e 3c 9d 4d 17 3f 6f ba 9b 3d
       0.016717987 0.015533577 0.59102803 0.07603919
0003e0 71 27 b7 3d d0 e6 08 3e 1a b6 f9 ba 1c 05 27 bf
       0.0894307 0.13369298 -0.0019051463 -0.6524217
0003f0 62 4b 11 3e 43 44 c3 bb 09 92 53 be 6b 26 7b 3e
       0.14188913 -0.005959065 -0.20661177 0.24526374

curr_fe_dense1.bias f4 [64]
000000 12 76 b3 bc eb 4f 9f 3d fe 81 13 bd 30 78 9f 3d
       -0.021906886 0.07778915 -0.036012642 0.07786596
000010 ea 35 c5 bd 92 aa f2 3c 2b 0d a3 be 8e 13 29 3e
       -0.09629424 0.02962235 -0.31845984 0.16511366
000020 5c 4a 42 bc 8a f5 cd bd 4c 09 0c be ba f2 75 3d
       -0.011858549 -0.100565985 -0.13675421 0.060045935
000030 3f 2e ec 3c 10 eb 9b bd ce 32 27 be b1 70 3a be
       0.028830646 -0.07613194 -0.16327974 -0.18207051
000040 82 10 ea 3d 8b 33 a3 bd 24 f3 cb bd cc df 00 3e
       0.1142893 -0.079688154 -0.09958485 0.12585372
000050 08 94 4e bd 53 89 19 3c 39 00 d6 bc 91 c0 8d be
       -0.050434142 0.00937112 -0.026123153 -0.2768598
000060 25 f4 18 3e 8b cf 10 3e 57 b1 ec 3d 1f ea 5a be
       0.14936884 0.14141671 0.115572624 -0.21378373
000070 06 b6 a6 bd 76 a7 69 be 19 8f 77 bc 31 a9 1c be
       -0.08140187 -0.22817788 -0.015109801 -0.15298916
000080 45 b4 02 be eb 48 05 be 0f c9 89 3e 6f 59 a8 be
       -0.1276408 -0.13016097 0.26911208 -0.32880732
000090 f1 7f 98 bd 93 8e b7 3c b4 bd 53 3e 2c d7 f1 3d
       -0.07446278 0.022406852 0.20677835 0.11808619
0000a0 e7 b8 5b bd 2d b3 ac 3d 8d df 1b 3d 5f 59 84 3c
       -0.053643133 0.084326126 0.03805499 0.016155897
0000b0 ba fe 2a be d9 9f 2d bd d6 63 99 bd bb 23 1b bc
       -0.16698733 -0.04238877 -0.07489745 -0.009468968
0000c0 03 2f 76 3d a5 66 5a 3e c7 f5 9a bc 2b cd 20 3e
       0.060103428 0.21328218 -0.018916024 0.15703265
0000d0 68 2a 86 3d 5c d0 a2 3d 80 6d 22 3e 9c 1a b7 bb
       0.06551057 0.07949898 0.15862083 -0.005587889
0000e0 17 3f 33 3c 13 fe d7 bc 77 91 0a 3a f4 92 28 3e
       0.010940335 -0.02636627 0.0005285958 0.16462308
0000f0 96 6f 9e be bc e0 1b bd c1 85 14 be 99 41 bb 3d
       -0.30944508 -0.03805612 -0.14504148 0.09143371

curr_fe_dense2.weight f4 [64, 64]
000000 9c 49 67 be d6 96 f4 3e 22 77 af 3d 6c e7 57 be
       -0.22586673 0.4777133 0.08567645 -0.21084374
000010 02 1c 9d bd 94 10 a8 3c 12 d1 f5 be d6 5d b7 3e
       -0.07671358 0.020515718 -0.4801107 0.3581378
000020 c8 b9 af 3e b1 54 c8 be 73 d0 df bd c8 36 f3 be
       0.34321427 -0.39127114 -0.109284304 -0.47502732
000030 83 a4 bd 3e bc 2c ab bc e9 2d 34 be 2c 57 98 be
       0.37039575 -0.020895354 -0.17595638 -0.29754007
000040 8a 43 ad be ef 5b e3 be a0 0f 89 bd ba f5 64 be
       -0.3384059 -0.44406077 -0.06692433 -0.22359362
000050 8d 47 dd bb b2 fa ed bc 65 52 31 3d 2d ee ff bd
       -0.0067529143 -0.029050205 0.04329147 -0.124966
000060 1f 40 fc 3d d2 f0 01 3e de b8 56 be 47 86 94 be
       0.12316918 0.12689522 -0.20968959 -0.29008695
000070 8c c9 12 be eb c0 7a bd 74 a7 6c 3d 7e 88 3c 3d
       -0.14334697 -0.061219137 0.057776883 0.046028607
000080 34 82 f1 bc 56 92 8c 3e 52 52 fd be 06 ff 12 3c
       -0.029481031 0.27455395 -0.49476868 0.008971935
000090 b4 49 fb 3c ea 18 81 3c 2c 0f dc 3d 53 39 7d be
       0.030674793 0.01575895 0.10745081 -0.24728899
0000a0 db 19 a0 be fe 93 11 be 7c 5f 1f 3e 4c 60 15 bf
       -0.31269726 -0.14216611 0.15563768 -0.5835006
0000b0 45 ea 97 3e 96 78 ab be 07 8d 46 3d 8b 89 89 3d
       0.2967092 -0.33490437 0.048474338 0.06715687
0000c0 17 d8 32 3e e4 cd 90 bd 36 e1 8f be 21 a1 1e 3e
       0.17465244 -0.070705205 -0.2810151 0.15491153
0000d0 20 e4 e7 bd b2 ec 45 3d d6 54 6e 3d 9e 33 d3 3d
       -0.11322808 0.048321433 0.058186375 0.103125796
0000e0 57 b8 1e bd a3 99 e1 bd 98 02 f3 3e 32 0a 8a be
       -0.03875002 -0.11015632 0.47462916 -0.26960903
0000f0 e3 71 d6 3e 13 0c 82 be 28 18 7f 3e 8e 19 a2 bc
       0.41883764 -0.25399837 0.24911559 -0.019787576
000100 8e 65 ac bd 55 c0 bf 3d f0 58 5a be 8c 02 2c 3d
       -0.084178075 0.09362856 -0.2132299 0.041994616
000110 ac ae d1 3d 0b 86 e4 be ad c4 54 3e fb a5 d0 be
       0.10238394 -0.44633517 0.20778151 -0.40751633
000120 91 cb ab be 64 c5 db 3d 7a c5 8e 3e 5f f4 bf be
       -0.33553746 0.10731009 0.27885038 -0.37491128
000130 c0 79 d0 3d b7 6e 95 bd a3 ce f0 3e 6b 84 20 3b
       0.10179472 -0.07296508 0.4703265 0.002449299
000140 c7 d6 a9 bd 22 58 14 be 12 ce 27 be 34 85 ba ba
       -0.08292919 -0.14486745 -0.16387203 -0.0014230371
000150 20 2f 9e be 6c a1 29 3e fa 4d 3a be fa 7f 78 3d
       -0.3089533 0.16565484 -0.18193808 0.060668923
000160 b9 dc e8 3e f3 98 37 be 2d 34 14 3d 48 db b5 bd
       0.45480898 -0.17929439 0.03618257 -0.08879715
000170 71 6b d2 be b2 e9 b2 be 79 28 56 be 10 eb b6 bd
       -0.41097596 -0.3494392 -0.20913877 -0.08931553
000180 60 a1 9a 3e fa 3f 49 3e c2 b5 39 be c7 8d a8 3e
       0.30201244 0.19653311 -0.18135741 0.32920668
000190 e5 9f 91 bd ae 7d e4 be 6d 2a 84 be 62 db bc be
       -0.071105756 -0.44627136 -0.25813618 -0.36886126
0001a0 d2 c5 99 be 17 14 96 bd 93 e0 9c be 01 a7 e7 bd
       -0.30033737 -0.073280506 -0.30640087 -0.1131115
0001b0 5b 57 0f bf e8 7d 0a bf 93 83 f6 be c5 d2 0c bf
       -0.5599267 -0.5409837 -0.48147258 -0.5500911
0001c0 b5 f5 8a be 3a 3a 82 bd cd f0 6d be 51 47 5a be
       -0.27140585 -0.06358762 -0.2323639 -0.21316268
0001d0 86 47 65 be c5 20 b5 3d b5 20 75 3d 9d 7e 42 bd
       -0.22390565 0.08844141 0.059845645 -0.04748403
0001e0 56 eb 04 bf 13 fb ef 3d ae 67 ee be 18 57 79 bf
       -0.51921594 0.117178105 -0.46563476 -0.9739852
0001f0 18 64 e6 be db d3 df be a0 f0 9b 3b cb 1c dc bd
       -0.4499824 -0.4371632 0.0047589093 -0.10747679
000200 53 fe a7 be 5a 4b ba 3e 41 2e 9d be 74 af 25 3e
       -0.3281122 0.36385614 -0.3069935 0.16180211
000210 ad 18 a6 be a0 91 70 3c 7a b2 29 bd 62 3f ec 3d
       -0.324407 0.014683157 -0.041429974 0.11535527
000220 b4 5d 82 bd 94 f5 cb be 7c 49 e5 be 5d fd 42 3e
       -0.06365529 -0.398358 -0.44782627 0.19041963
000230 2d 10 e2 bd 62 b3 a1 3e 36 f2 d8 bc f7 a9 d9 be
       -0.110382415 0.3158217 -0.026482683 -0.42512485
000240 e4 a0 f5 be 36 51 a8 be 68 0d cc 3d e8 e4 65 3d
       -0.47974312 -0.3287446 0.099634945 0.056126505
000250 37 b6 3c 3e 93 e5 25 3e ec f7 30 be 6b c9 f0 3c
       0.18428884 0.16200857 -0.17282075 0.029392919
000260 c3 70 23 bd c1 fb 47 3d 45 23 8e 3b 16 5c 57 bd
       -0.03990246 0.048824076 0.0043377005 -0.052578054
000270 f9 58 c3 be 05 79 33 3a 28 3c 96 3e fc 14 7d 3c
       -0.38153818 0.00068463414 0.2934277 0.015446898
000280 b8 b8 f1 bd 99 27 f7 3d ca a7 04 3f 1a 67 52 3d
       -0.118028104 0.120680995 0.51818526 0.051367857
000290 aa 70 6c 3e 90 f3 2e be 6b ab 0c be 10 e2 80 be
       0.23089853 -0.17085099 -0.13737266 -0.25172472
0002a0 89 08 78 bf f7 40 5f 3e ce 78 07 3e 3f 4d 5c be
       -0.96888024 0.21802126 0.13229677 -0.21513842
0002b0 d5 03 01 bf ae 14 04 be cb c5 f8 be 39 e4 73 bf
       -0.5039647 -0.12898514 -0.48588404 -0.95270115
0002c0 e3 dc 6d be 00 ff 03 3e 22 64 0d be ad 6a 54 3e
       -0.23228793 0.12890244 -0.13807729 0.20743819
0002d0 4b cb 1b be 55 87 0f bf 66 6b 97 bf e4 96 da 3e
       -0.15214269 -0.56065875 -1.182965 0.42693245
0002e0 8d 64 f1 3d 48 38 b8 be e7 75 65 3e da 41 85 be
       0.11786757 -0.3598044 0.22408257 -0.26026803
0002f0 52 3c 4d 3d 4d 68 05 be f1 17 b8 bd 9b 30 82 be
       0.050106354 -0.13028069 -0.089889415 -0.25427708
000300 13 71 a1 bd 7c 0d 3f 3e a8 9c 8b be 0a 0e 14 be
       -0.07882895 0.18657488 -0.27267957 -0.1445848
000310 e2 de 2c bf a8 03 e8 bd 12 f8 6c 3e 62 66 06 3f
       -0.6752759 -0.113288224 0.23141506 0.52499974
000320 72 ba a2 3e 50 30 b8 3e 08 b6 b9 3d ba b4 98 be
       0.3178287 0.3597436 0.09067923 -0.29825383
000330 bc 31 7c 3e 9b cc 8a bc 04 80 7e 3e 84 dc ee be
       0.24628347 -0.016943267 0.24853522 -0.46652615
000340 96 c2 ba 3e 42 46 11 bf 7b 69 4a be 69 5f 46 3c
       0.36476582 -0.5674783 -0.197668 0.0121077085
000350 b8 fe 6d 3e 26 60 9e 3d 5b 19 8d 3d 06 5d a7 be
       0.23241699 0.077331826 0.06889602 -0.3268816
000360 39 c8 1a bf 44 6a 17 bf 4a 33 82 bd 5e 06 fd bd
       -0.60461766 -0.59146523 -0.06357439 -0.1235473
000370 e6 c2 90 3e 7f 59 9f 3e 83 68 df be 26 a5 74 3d
       0.28273696 0.31122968 -0.43634424 0.05972781
000380 0c c6 fe bd d0 a9 ef bd ea 12 b9 3e 64 1e 1a bf
       -0.12440118 -0.11702311 0.36147243 -0.6020262
000390 a6 0e 48 be d0 a6 df 3d 83 1c dd bd 50 f0 0c bf
       -0.19536838 0.10920489 -0.10796454 -0.5505419
0003a0 d5 16 c1 be ee f2 da be f0 84 e1 3e c4 79 68 bf
       -0.37712732 -0.42763466 0.44046736 -0.908108
0003b0 36 ed 46 be 7d 42 e3 bd 0b 9e b0 be b6 0b 02 be
       -0.19426426 -0.11096666 -0.34495577 -0.1269978
0003c0 2e c5 70 be b2 fb 07 bc ae 92 2c be 86 11 e6 be
       -0.23512718 -0.008299755 -0.16852829 -0.44935244
0003d0 11 45 36 bf 23 3d c9 3d 5c b4 17 be b0 8e 11 bd
       -0.71199137 0.09826114 -0.14814895 -0.035536468
0003e0 7c 8e 39 bd cd 84 40 3d 2d 83 7f 3e 16 17 5a bf
       -0.0453019 0.04700165 0.24952383 -0.85191476
0003f0 58 70 c6 be f1 6d b7 be b1 51 0b bf 1b 8e 2e bf
       -0.38757586 -0.35826066 -0.54421526 -0.68185586

curr_fe_dense2.bias f4 [64]
000000 ff 7a 00 3e d9 02 2b 3c d8 c1 40 3d cb 2d e9 3d
       0.1254692 0.010437691 0.047059864 0.113856874
000010 a3 e8 e7 bd 21 0a 85 3e f7 47 4e 3e ec d2 f2 bd
       -0.11323669 0.2598429 0.2014464 -0.118566364
000020 a0 ea 4e 3d db 46 66 3e c4 5a 0a 3d 80 a9 a8 bb
       0.050516725 0.22487967 0.033777967 -0.005147159
000030 3b 73 29 be ac 77 a2 3d 0d ed 41 3e 18 26 35 3d
       -0.16547863 0.07932982 0.18938084 0.044225782
000040 dc 29 5e be 7b c9 3b 3d 87 d0 2e 3e 7f a8 b6 3d
       -0.21695656 0.045846444 0.17071734 0.08918857
000050 44 16 4d 3d 16 e1 2c be 57 df 77 bd c9 44 74 be
       0.050070062 -0.16882738 -0.060515728 -0.23854364
000060 5e b4 03 3e 93 eb 21 3e 0b 35 80 3e b1 ad f1 bd
       0.12861773 0.1581252 0.2504047 -0.11800707
000070 f6 60 91 bc c0 cf 46 3e ed f1 b3 3d 40 46 88 3e
       -0.01774643 0.19415188 0.08786378 0.26616096
000080 f4 6b 24 3e ff ae 13 3e 7f f5 ed bd fc 58 29 3d
       0.16056806 0.14422224 -0.1161909 0.041344628
000090 98 d0 17 be a1 a6 37 3d 44 e8 3a be 1d 4f 41 3e
       -0.14825666 0.044836644 -0.18252665 0.18877836
0000a0 f1 90 e7 3c 42 7f c5 3d 0a da a1 bd 22 64 a2 3d
       0.028267356 0.09643413 -0.07902916 0.07929255
0000b0 82 0f 04 be 1a 3f 3e bc 3f 30 84 bd cc f3 31 be
       -0.12896541 -0.011611724 -0.06454515 -0.17378157
0000c0 03 4e be bd 0b 51 35 3e 8f 30 4e be 7f f9 25 3d
       -0.09292223 0.17706697 -0.20135711 0.04052114
0000d0 41 d7 bc 3d de 40 94 bd b5 3e 45 be 88 0f 09 bd
       0.09220744 -0.07238935 -0.19262202 -0.033462077
0000e0 75 d0 9f bc 8b 99 b6 bd 99 01 fa 3d f5 97 c0 3d
       -0.01950858 -0.08916005 0.12207336 0.094039835
0000f0 73 33 b2 bd 72 43 05 be 6a a3 04 bc 84 75 b0 3d
       -0.087012194 -0.1301401 -0.008095602 0.08616164

mem_dense.weight f4 [64, 50]
000000 93 cf ca bd ba 0c fd be 76 ec c4 3e 73 48 42 bd
       -0.09902873 -0.49423772 0.38461655 -0.047432374
000010 b9 85 67 be 07 cb 3a be 6e 76 ee 3d 2e 1c 41 be
       -0.22609605 -0.18241511 0.116436824 -0.18858406
000020 ee e0 12 3f be 95 63 3f b9 25 c9 bd ad f1 6c bd
       0.57374465 0.88900363 -0.09821648 -0.057847667
000030 dc 68 71 3e 46 b3 81 bd 75 ce 33 be b6 51 d8 3e
       0.23575157 -0.06333022 -0.17559226 0.4224984
000040 cc 7f cf 3d 4d 2a 49 3d 98 1f 42 3e 74 6b 60 be
       0.10131797 0.049112607 0.18957365 -0.2191599
000050 27 3d 42 3f b0 e2 6f bf 7b 14 82 3e aa 69 94 3d
       0.7587456 -0.9370527 0.2540625 0.07246716
000060 4c 41 4c 3e be 07 8d 3e 60 1e 4d be 7a 96 bb bd
       0.19946784 0.2754497 -0.20031118 -0.091595605
000070 61 ed bf be b2 7c 26 be 77 56 09 be ca e9 4a bd
       -0.37485793 -0.16258505 -0.1341189 -0.049539365
000080 5a b9 24 3f 58 a6 ac 3e cc 61 94 bd 88 1e 89 be
       0.64345324 0.3372066 -0.07245216 -0.26781106
000090 e5 cb 67 3a d8 34 37 3e 65 f8 c0 3e 94 ed 73 be
       0.00088423333 0.17891252 0.3768951 -0.23821098
0000a0 e6 1a 48 be 72 f8 a9 3b 67 53 9c be e5 66 64 3c
       -0.19541511 0.0051870877 -0.3053238 0.013940548
0000b0 1c 5f 1c 3f 01 4b fb 3d 69 84 a9 be 6e f9 1a be
       0.61082625 0.12270165 -0.33108833 -0.15134212
0000c0 32 a1 d2 bd ee 05 23 3e 1e 9c 9c bc 0f c5 03 be
       -0.10284652 0.15920231 -0.019117411 -0.1286814
0000d0 02 ad 6f be 1a bb c1 be a5 b5 b4 be 80 ca 12 be
       -0.23405841 -0.3783806 -0.35294834 -0.1433506
0000e0 fa dd 63 3e 46 b9 42 3c 72 f1 c9 be a0 87 81 bf
       0.22252646 0.011884993 -0.3944202 -1.0119514
0000f0 6b ec 2c 3f b7 c6 06 3d e5 2a 9e ba c8 95 91 3b
       0.67548245 0.032904353 -0.0012067227 0.004442904
000100 59 56 53 be e2 9f 9a 3e ca a8 95 3e 16 1a 87 3d
       -0.20638408 0.30200106 0.29230338 0.065967724
000110 7a 38 52 3d c3 20 b2 be 55 91 30 3e 5b 6a a7 3e
       0.05132339 -0.3479062 0.1724294 0.3269833
000120 33 9e f3 bf 54 f7 8b be 5b 25 15 bd 51 c5 c7 3b
       -1.9032654 -0.27337134 -0.036412578 0.00609652
000130 4d 04 1f 3e 0c db d1 3e 87 bb 41 be fd 9c c2 be
       0.15528984 0.40987432 -0.18919192 -0.38010398
000140 22 7e a9 bd 55 01 b1 3d 7f 12 f9 3e c2 4d 27 3e
       -0.08276011 0.08642832 0.48646924 0.16338256
000150 44 c9 90 3e 5e e6 14 be ec 63 0e 3e 20 ba bd 3d
       0.28278553 -0.14541003 0.13905305 0.09264016
000160 07 79 c2 bd 67 b3 e3 be 54 a3 4f bd f6 29 1e bf
       -0.094957404 -0.4447281 -0.05069287 -0.6178278
000170 88 3e 01 3e 9d 26 17 bd 06 e9 00 3d 95 6a 38 be
       0.1262151 -0.03690206 0.03147223 -0.18009408
000180 20 07 f6 3d 84 f4 70 be 42 b7 5a bd f3 01 28 3e
       0.12013078 -0.23530775 -0.053397425 0.16406994
000190 99 7c aa bd 83 27 da bd 9e 34 d8 bd b5 8b 09 bd
       -0.08324546 -0.106520675 -0.10556911 -0.0335805
0001a0 d3 14 de be 6a 87 97 3c 73 8a 6a bd 84 76 81 bc
       -0.43375263 0.018497188 -0.05726094 -0.015803583
0001b0 d2 1c 9c be 1e 64 05 c0 7c 25 d1 3d 25 d0 07 be
       -0.30490738 -2.0842357 0.10212228 -0.13262995
0001c0 6c 13 d0 3a e3 d9 9a 3d 2a 5c 43 3e 5b 24 48 be
       0.0015874929 0.0756109 0.19078127 -0.19545119
0001d0 f9 4a 05 be 09 aa 2e bc 4c 1f 11 be 6e 62 8a be
       -0.13016881 -0.010660657 -0.14172095 -0.2702822
0001e0 ec 8b c1 bf d1 62 2f 40 c0 80 a4 be 58 60 6b be
       -1.5120826 2.7404063 -0.32129478 -0.22985971
0001f0 1a 7f f3 bd bf 59 1d 3c 72 f2 b1 3d dd 6f 85 3e
       -0.11889477 0.009603917 0.08688821 0.26061907
000200 bb 21 73 3c 0d 0a 1c 3e 4a 16 79 3d 30 97 0f 3e
       0.014839585 0.15238209 0.060812272 0.14022517
000210 29 1b ae 3e 3f 38 ed be 78 7a 67 bd 89 90 53 3e
       0.34005097 -0.46331975 -0.05651328 0.20660605
000220 59 89 ec 3d 8b f2 9d 3d e7 a1 a3 be c3 a0 9b be
       0.115496345 0.07712277 -0.3195946 -0.3039609
000230 f7 75 17 be d6 41 5b be 00 5d e6 be db 87 2e bc
       -0.14791094 -0.21411833 -0.44992828 -0.010652508
000240 c7 15 9f bd 09 6b 46 3f fe 9f f4 be b6 b9 5c be
       -0.077678256 0.7750707 -0.47778314 -0.21555218
000250 3a 4a 03 bf 27 27 1b bf 85 7e 1d 3d 5d a2 34 3f
       -0.51285136 -0.60606617 0.038450737 0.70560247
000260 a6 53 db 3c 2f 59 4b 3e c9 5d 2a 3f 2f ad 78 3e
       0.026773285 0.1985824 0.66549355 0.24284814
000270 06 76 93 be a1 ca 12 3b 8c c7 b1 3e b5 ec 11 3f
       -0.28800982 0.0022398608 0.34722555 0.5700181
000280 43 77 c2 bd 42 13 2b 3d d4 56 9a be 9b b7 8a be
       -0.094954036 0.041766413 -0.3014437 -0.27093205
000290 74 37 da bd 1b d0 a0 3c f8 64 95 3e 97 5b 94 be
       -0.10655108 0.019630482 0.29178596 -0.28976128
0002a0 13 73 e3 be ba cf 57 3e c6 cc 09 bf 75 c7 b7 3d
       -0.44423732 0.21075335 -0.53828084 0.0897359
0002b0 8b 4f d4 bd 32 c3 7f 3f 0a bf bb 3d a5 d8 0c be
       -0.10366734 0.9990722 0.09167297 -0.13754518
0002c0 d3 de a3 bd 62 f8 9e be fb 01 03 bf e1 25 3b 3d
       -0.08001485 -0.31048876 -0.51174897 0.04569042
0002d0 ff f5 04 be 60 98 0c bd 76 9e c5 3d a1 4d 0f bf
       -0.12984465 -0.034325004 0.09649365 -0.5597783
0002e0 03 c7 47 3d 32 12 a4 be 51 d8 83 3d 93 42 8f 3d
       0.048773777 -0.32045132 0.064377435 0.0699512
0002f0 23 ef 34 3e f9 46 18 bf 21 aa 26 be 08 93 ba 3e
       0.17669348 -0.59483296 -0.16275837 0.364403
000300 87 4a c7 3e 07 5f bb 3b a3 e6 76 3f 39 f9 af be
       0.38924047 0.0057181153 0.96445674 -0.3436983
000310 cb 94 16 be 74 cc 02 bf a2 51 99 bd bd 12 d3 3c
       -0.14705198 -0.5109322 -0.07486273 0.025765771
000320 47 f6 2e bd b2 a9 94 3e 28 07 eb bd f6 e8 3d be
       -0.042715337 0.29035717 -0.11475974 -0.18545899
000330 b9 0a 88 be 6f 4a 2b 3e 4f 5d b8 3d ba 6c e2 3d
       -0.2657068 0.16727613 0.09002172 0.11055894
000340 f5 54 47 be 1c 59 a7 bf 92 85 8a bf 7f 51 3b be
       -0.19466002 -1.3074069 -1.0822012 -0.18292807
000350 90 9d 86 be 9f 8a b7 bb ff 72 cf be e1 bc d9 be
       -0.26292086 -0.0056012417 -0.40517423 -0.42526916
000360 0e 23 12 be a8 e2 1c be 4c 54 63 ba cb 6d 90 3e
       -0.14271185 -0.15320837 -0.0008671924 0.28208765
000370 3e 4b 1d bf d0 45 1b bd 28 4d 9b 3b 0b 9c 17 bd
       -0.61442935 -0.037908375 0.0047394224 -0.03701405
000380 26 b1 2f 3e 27 df 3d be 1c 1c 3f be 9c e2 d8 be
       0.1715742 -0.18542157 -0.18663067 -0.4236039
000390 ce 6a 41 be ae 2b a7 be af 90 b7 3d 98 11 c2 bd
       -0.18888399 -0.32650512 0.08963143 -0.09476012
0003a0 b8 11 f0 3e ce 43 cd 3d 6f e3 99 be 1d 83 c1 bc
       0.46888518 0.10022698 -0.3005633 -0.02362209
0003b0 2c ba 56 3e 16 d6 0c 3e 36 ed 0d 3e e8 d4 d8 3e
       0.20969456 0.13753542 0.1386002 0.42349935
0003c0 01 c9 1a 3e d2 ff 79 3e 65 9f d4 3e 39 e1 bd be
       0.1511574 0.24413994 0.41527858 -0.37085894
0003d0 75 d8 fe 3e 9f 8f 79 bf 09 b0 4d 3e 1b da 27 3d
       0.4977452 -0.97484773 0.20086683 0.040979486
0003e0 64 4d 11 3e 67 a9 9e 3e e2 26 1f bc 86 11 87 be
       0.14189678 0.3098862 -0.00971386 -0.26380557
0003f0 2f af e2 3e 78 29 87 3f d1 9c fc 3e 23 14 a4 3e
       0.4427428 1.055953 0.4933839 0.32046613

mem_dense.bias f4 [64]
000000 87 11 24 3d 87 d9 52 3d e1 90 0b 3e 50 bc 8e bd
       0.040055778 0.05147698 0.13629486 -0.069695115
000010 f6 86 57 3e b1 da ec 3d 9c 7c e4 bd 03 2b 86 3d
       0.21047577 0.115651496 -0.1115658 0.065511726
000020 62 16 9e 3d a6 96 3b 3e be 39 a1 3e db 73 ab 3d
       0.07719113 0.18319187 0.31489366 0.08371707
000030 2d 4a 3b 3d 6b 5a 37 3e a1 2d b5 3d ef 59 91 bd
       0.045725036 0.17905585 0.08846594 -0.070972316
000040 c2 d4 16 3d b4 13 85 3e f2 1d de 3c 0a 5e 0a 3e
       0.036823995 0.25991595 0.027113888 0.13512436
000050 2b d4 50 3e 53 db 37 3d 36 4b c7 bb e7 b8 af 3d
       0.20393436 0.0448869 -0.006081964 0.08580189
000060 4b 30 b1 3d 9a 0b 22 3e 41 1d d2 3c 78 c9 a7 3e
       0.08651789 0.15824738 0.025648715 0.32770896
000070 df 42 08 be 20 9c 0c 3e fa 61 a3 3d 07 fb b1 3e
       -0.1330676 0.13731432 0.07977672 0.3476183
000080 99 80 4d 3e b6 81 00 3e 06 a0 e2 bd 71 cd 12 be
       0.20068587 0.12549481 -0.11065678 -0.14336182
000090 b0 a9 76 be 30 e8 4c be 7d e1 d0 3d be d6 bc 3e
       -0.24088168 -0.20010448 0.101992585 0.36882585
0000a0 00 c3 dd bc 9d 0e 36 3d 82 5a bd 3c 57 1f 9a be
       -0.027070522 0.04444753 0.023114447 -0.30102035
0000b0 8a c0 44 3c 15 8e 38 3e d3 ea 74 3d 07 97 11 3b
       0.0120087955 0.1802295 0.05979426 0.0022215263
0000c0 16 5e df 3c d2 73 da bb 0b cd 00 bd 7b d4 e9 3d
       0.027266543 -0.006666639 -0.031445544 0.114174806
0000d0 9d 05 1b bc d8 18 90 3e 5c f4 c5 3d 4a d1 15 bd
       -0.0094617875 0.28143954 0.096657485 -0.036576547
0000e0 7d b3 0b bd e9 4c 40 be 7b b2 98 3c 57 0d 3e 3d
       -0.03410672 -0.18779339 0.018639794 0.04639944
0000f0 6c 12 b5 bc 33 46 b7 bd 2c e5 ac bd b4 39 69 3d
       -0.02210351 -0.08948936 -0.084421486 0.056939796

mem_LSTM.weight_ih_l0 f4 [256, 64]
000000 c3 ac 87 3f 08 03 10 3e 5c 0b 2f be 21 1b 40 3e
       1.0599598 0.14063656 -0.17094177 0.18760349
000010 7e 6e 44 3b 90 54 7a bc 72 18 c0 3e 02 b4 40 3c
       0.0029973085 -0.01527895 0.3751865 0.011761667
000020 42 8e 52 3e 68 da bf bd c2 31 1e be c2 e9 88 bd
       0.2056208 -0.093678296 -0.15448669 -0.06685211
000030 dd 24 e1 3e 1a 38 ef 3e a3 46 3c 3f 71 89 9a 3e
       0.43973437 0.4672249 0.73545283 0.30182984
000040 d7 84 8f 3f 8c e9 62 3f 2c 54 49 3d 78 cf a9 be
       1.1212415 0.88637614 0.04915254 -0.331661
000050 6c e0 a8 bd 56 71 3f be 74 6d 99 3f 87 f7 d9 be
       -0.0824593 -0.18695578 1.1986527 -0.4257166
000060 64 de 02 3f 35 95 0b bf 84 45 eb 3e 15 a8 db be
       0.5112059 -0.54524547 0.45951474 -0.42901674
000070 82 dc 94 3c b5 d2 8c 3f 47 0c c3 be 40 b6 b5 3e
       0.018171553 1.1001803 -0.38095304 0.35490608
000080 c5 22 05 3e 69 98 1a bd 85 c0 8f bd e4 5d 08 3e
       0.13001545 -0.037743006 -0.07019142 0.13317066
000090 8b e8 e9 bd ac 7c be be 82 07 d8 3c ef 9d 71 bc
       -0.11421307 -0.37204492 0.026370768 -0.014747127
0000a0 08 6c 45 be 79 cf 10 3e d6 8d 69 3f 3d 4e 48 3e
       -0.19279492 0.14141645 0.9123205 0.19561096
0000b0 b8 68 3f 3f c3 0f 71 be 9d f1 ed 3b bb 89 cb 3e
       0.74769163 -0.23541169 0.0072614686 0.39753518
0000c0 27 d5 3a 3e 7a 51 94 3d d9 41 30 3f 30 55 ec 3e
       0.18245374 0.07242103 0.68850476 0.46158743
0000d0 f4 29 14 3f 87 7b ee 3e 42 64 3b 3f c6 27 86 be
       0.57876515 0.4657862 0.73199856 -0.2620222
0000e0 71 c5 82 3f e6 ef a1 bd f9 42 ca 3e 39 57 51 3f
       1.0216504 -0.07907085 0.3950422 0.81773716
0000f0 47 6c 06 3f ec b6 42 3f e4 56 a6 3e b9 b3 17 3b
       0.5250897 0.76060367 0.32488167 0.0023147895
000100 ec 25 92 3e 7e 11 36 bf 25 d9 91 be bd c9 80 ba
       0.28544557 -0.7112044 -0.2848598 -0.0009825748
000110 b0 d3 5a 3f 46 7b b2 bc 72 14 0d be 31 8b 89 3e
       0.8547926 -0.021787297 -0.1377733 0.26864007
000120 99 4c e6 be 61 26 d0 3c 5b a7 9f 3e 4f 44 7b 3e
       -0.44980314 0.025408925 0.3118237 0.24537776
000130 b5 65 1d 3e 2b da fe 3e a9 ad 93 3e 36 29 8b 3e
       0.1537083 0.49775824 0.2884343 0.2717988
000140 9d be b3 3e 6e 09 05 bf ba 84 fc 3e 53 8b ca be
       0.35106364 -0.51967514 0.49320012 -0.3955942
000150 8f 62 55 3e 08 cd 24 be 45 f1 fe 3e 0d 66 13 bf
       0.20838378 -0.16093838 0.4979345 -0.5757759
000160 89 cc 8e 3e f6 37 09 bf 0b 72 ad 3e f7 9d 11 be
       0.27890423 -0.53601015 0.3387607 -0.14220415
000170 02 50 61 3f fb 7a 10 3f 57 10 bf bb b1 98 5f 3e
       0.8801271 0.56437653 -0.0058308053 0.21835591
000180 d1 77 9f 3d ea 78 a8 3e 43 a3 8f bd fa e8 4d 3e
       0.07786525 0.3290475 -0.070135616 0.20108405
000190 32 cf 50 be 33 76 53 3f c0 f9 c0 bc 2b 6f f9 3d
       -0.20391539 0.8260223 -0.02355659 0.12179407
0001a0 e6 72 28 3f 8f 05 32 be 07 f1 13 3e 9d e6 5c 3e
       0.6580032 -0.17384933 0.14447413 0.21572347
0001b0 05 0c 9e 3e a2 92 07 be 86 3c 5c 3d 07 b0 ab 3e
       0.30868545 -0.1323953 0.053768657 0.33532736
0001c0 75 99 a3 bd e9 14 14 bf 68 14 18 3f fb 40 82 bd
       -0.07988254 -0.57844406 0.5940614 -0.0636005
0001d0 c7 6f b9 3e 9e ec d3 3d 55 8d 04 3f b7 aa 00 3f
       0.36218092 0.103478655 0.51778156 0.5026049
0001e0 7f 89 75 3d 6e c1 c9 3e 15 2a 34 3f d8 ff 65 be
       0.05994558 0.39405388 0.7037671 -0.22460878
0001f0 03 6f a3 3e cb fc bc 3e 93 b0 12 be 7e 6c 81 3d
       0.31920633 0.36911616 -0.1432517 0.06319521
000200 02 0c 36 3f 2e 2b 7e 3e eb 23 24 3f e3 d2 63 3c
       0.7111207 0.24821159 0.64117306 0.01390526
000210 e7 b4 b4 3e cb 20 47 3f ce 26 ed 3e 1a a2 a7 3e
       0.35294268 0.77784413 0.46318668 0.3274086
000220 e1 ef ca 3d 05 0d 14 bc 8f 52 19 3e 92 9d 0c 3f
       0.099090345 -0.009036307 0.149729 0.54927933
000230 20 c5 57 bd 5f c3 68 3d 79 68 ce 3e 48 fc c1 3e
       -0.052678227 0.056826945 0.4031408 0.37887788
000240 78 c9 a4 3e 97 7d 81 be 2c 51 fd be 5f c4 03 3f
       0.32184958 -0.2529113 -0.49475992 0.51471514
000250 87 fe 8b 3e af 68 5e 3f 03 22 7b 3e f5 dc 39 3f
       0.27342626 0.86878484 0.24524693 0.7260278
000260 62 c0 10 3f 3c f7 48 3e a8 c4 30 3f 3f ca 53 be
       0.5654355 0.19625562 0.69050074 -0.2068262
000270 c7 2f 08 3f b7 17 a6 be 93 04 d0 3e ba b2 26 3f
       0.531979 -0.32439968 0.4062849 0.65116465
000280 96 ff 47 3f e6 ef 2f 3f 7b 25 c1 3e cb fc cf bc
       0.7812437 0.6872543 0.37723908 -0.025389096
000290 65 44 2a 3f c3 bf c6 be ad 69 12 3e 4b e5 a7 3e
       0.6651061 -0.38818178 0.14298125 0.32792124
0002a0 d4 07 b1 3f e4 a2 58 be 86 f6 83 3e f2 e8 28 3f
       1.3830514 -0.21155888 0.2577402 0.65980446
0002b0 6e 33 0b 3f 70 7b 30 3f 43 5c a3 3f 01 05 d2 3e
       0.5437535 0.6893835 1.2762531 0.41019443
0002c0 5b c5 60 3c 01 e1 fe 3e cb 13 87 3e 93 4f 88 3f
       0.013718928 0.4978104 0.26382288 1.0649284
0002d0 3e f9 f5 3e 70 4e 70 3e 84 fa 5e 3e ab 86 75 3e
       0.4804172 0.23467422 0.21775252 0.23977153
0002e0 ca 23 3a 3e 8a 49 cf 3e 1d 57 ed 3e 21 ca b0 3e
       0.18177715 0.40485793 0.46355525 0.34529212
0002f0 aa 00 49 3f 10 5c 11 3f 2c 1b 97 3e 52 d7 81 3f
       0.7851664 0.567811 0.29512918 1.0143836
000300 55 83 fa 3e 07 65 db be 65 a6 0e 3f 59 0d 3e 3f
       0.48928323 -0.42850515 0.5572265 0.74239117
000310 da 69 f8 bc 24 02 4d 3d 0e 3d 5f 3e 7d 6d 9d be
       -0.030323911 0.05005087 0.21800634 -0.30747595
000320 2b c2 00 bf 14 33 99 be 71 5d 44 3f 9e 54 0e bf
       -0.50296277 -0.29921782 0.7670508 -0.55597866
000330 c4 99 c6 3e fa 7d 81 bd e0 c7 51 bc d9 71 83 bd
       0.3878919 -0.06322856 -0.012804002 -0.06418199
000340 d6 88 e3 3d ba dd f6 3e bc 14 ad be 84 bc 82 3e
       0.11110084 0.4821604 -0.33804882 0.2553445
000350 56 0f 0e bf 1a c4 94 3e 8c 35 a6 be 89 91 1f 3e
       -0.5549215 0.29055864 -0.32462728 0.15582861
000360 2d 5a 8e 3c 47 69 b7 3e 62 4a c9 3e 6e 8e 36 be
       0.017376984 0.35822508 0.39314562 -0.1782777
000370 e2 a9 d6 bd e1 4c 97 be 8e 20 6e bc 14 3c 9e 3e
       -0.10481621 -0.2955084 -0.014534129 0.3090521
000380 84 8a 47 3d d6 fe 9e bc f3 59 a8 3e b8 a0 59 be
       0.048716083 -0.019408625 0.32881126 -0.21252716
000390 92 db 1e be 82 cc 46 3f 40 5e 02 bf 05 d6 a7 3d
       -0.15513447 0.77655804 -0.50925064 0.08195118
0003a0 6a 8b 03 3f ed a7 19 3e d6 31 dc 3e 81 7d 88 3e
       0.51384604 0.15005465 0.43006772 0.26658252
0003b0 42 32 44 bc 32 e4 0c 3f cb e6 b3 bd ba b8 7a 3e
       -0.011974873 0.550357 -0.08784255 0.2448453
0003c0 9f a6 87 3e b9 c1 57 3d 31 30 29 bc 45 64 7b 3e
       0.2649431 0.052674983 -0.010326431 0.24549969
0003d0 aa fa ca 3e 10 af 87 3f fa c7 d9 bd 70 4f ab 3e
       0.39644367 1.06003 -0.106338456 0.33459044
0003e0 67 da c5 3d d1 67 39 bd 33 99 8c 3e 1a 22 e1 bc
       0.096607976 -0.045265023 0.27460632 -0.027482081
0003f0 fc 11 1c 3d 67 b5 b6 3e 22 bc 9d 3e 6f b1 a6 3c
       0.03810309 0.35685274 0.30807596 0.020348279

mem_LSTM.weight_hh_l0 f4 [256, 64]
000000 b7 34 82 3e a6 f4 f6 3d 04 3e d0 3e 37 b7 00 3f
       0.25430843 0.12058382 0.40672314 0.50279564
000010 f7 3a 7e bf a3 1e 56 be 9d c8 a5 3e dc b0 31 bf
       -0.99308723 -0.20910124 0.32379618 -0.6941049
000020 2c b3 bf 3e 78 65 25 be 70 49 61 3e e1 bb cf 3e
       0.37441385 -0.16151989 0.2200067 0.40573028
000030 83 3a 6d 3e 6b f2 08 bf d0 4d 21 be c3 74 a6 bd
       0.23166852 -0.534949 -0.1575234 -0.08127739
000040 1c d0 55 be ae 96 10 3e 23 47 18 3e d5 a2 e8 be
       -0.20880169 0.1411998 0.14870887 -0.4543673
000050 0c 02 2d bf 2a bc 96 be b6 ec 8a 3e df a1 14 bf
       -0.6758125 -0.29440433 0.2713372 -0.58059496
000060 d2 22 29 3e 4a e3 92 be 09 98 a1 be 44 3a 0e 3a
       0.16517189 -0.28689033 -0.31561306 0.00054255524
000070 1e c0 95 3d 16 72 3d bf 1f 09 aa 3c a1 e9 f4 bd
       0.07312034 -0.74002206 0.020756302 -0.11958624
000080 f6 f1 82 3e 01 d2 c2 3d 17 c0 22 3f 85 84 e2 3e
       0.25575227 0.09512711 0.63574356 0.4424173
000090 f3 a3 7a 3e 8d f6 8e 3c 40 98 19 bd 73 e3 a7 3e
       0.24476604 0.017451549 -0.037498713 0.32790717
0000a0 1d e6 28 bf 4c 55 d3 be 8f 90 64 be 37 49 49 bf
       -0.65976125 -0.41276014 -0.2232077 -0.7862734
0000b0 07 23 42 3e 5d 63 81 be 1d c8 2f 3f b6 30 ee 3e
       0.18958674 -0.2527112 0.68664724 0.46521538
0000c0 e7 de dc 3e 58 1f 2b be ab 84 86 3e 84 83 69 be
       0.4313881 -0.16711175 0.26273093 -0.22804075
0000d0 af c1 b7 3e 62 1e 20 be c5 4f 47 be 39 9e 0e 3f
       0.35889956 -0.1563659 -0.19464023 0.5571018
0000e0 02 90 9c bf 79 14 20 bf f4 b6 ea 3e 53 fd 02 bf
       -1.2231448 -0.6253124 0.45842707 -0.5116779
0000f0 5f dc 5a 3e 22 e1 7e 3e bb d9 36 b9 eb 78 8e 3d
       0.21373127 0.24890569 -0.00017437983 0.06956657
000100 e5 0a 4c be 2b 36 06 3f e3 45 5f be d5 48 d9 3e
       -0.19926031 0.52426404 -0.21804003 0.4243838
000110 81 3e 6a be 49 1c 6f 3e e7 26 1a bf 99 43 0d bf
       -0.22875406 0.23350634 -0.6021561 -0.5518127
000120 53 1e ec be bf 48 bf 3e b4 ec 75 3e 18 5f a7 bd
       -0.46116886 0.37360188 0.24016076 -0.081724346
000130 73 17 c3 bc f0 0d 2b be f7 51 af bd dc fd e0 be
       -0.023814892 -0.16704535 -0.085605554 -0.4394368
000140 cd 24 f3 bd b6 14 96 3e 37 5b 24 3e 74 5a bd 3e
       -0.118722536 0.29312676 0.1605042 0.36983073
000150 a2 f8 19 3e 5d 20 76 3e 9c 96 01 bf 24 21 4d be
       0.15036252 0.24035783 -0.50620437 -0.20032173
000160 a5 30 1c bd f3 83 a4 bb f4 65 d9 bd 6e 6f 10 bf
       -0.03813233 -0.0050206124 -0.10615149 -0.5642003
000170 9e 24 8e be 7f 99 a5 be 29 d7 14 be 65 39 e6 3e
       -0.27762312 -0.3234367 -0.14535202 0.44965664
000180 96 95 84 bd fc 5d 86 bd 2c 3e 73 3e f0 f0 39 bf
       -0.06473844 -0.06560895 0.23754185 -0.72633266
000190 38 1c 83 3e 01 c2 19 3e 1e 32 5f 3e fd cd d3 bc
       0.25607467 0.15015413 0.21796462 -0.025855059
0001a0 43 16 92 3d 1e 33 7f 3f 83 e2 af bd d0 11 c2 be
       0.07133152 0.99687374 -0.085881256 -0.37904215
0001b0 7d 72 d6 3e 03 8c 78 be f0 17 66 be a7 54 ba 3d
       0.41884223 -0.2427216 -0.22470069 0.090981774
0001c0 27 02 51 3b c1 cf 1f bf d1 f4 5a bd 0d 7a 1a be
       0.0031892152 -0.6242638 -0.05345613 -0.15085621
0001d0 c1 ad 26 be 69 ee d5 be 4f 1f 30 3f 57 f3 98 3d
       -0.1627722 -0.41783455 0.68797773 0.074682884
0001e0 fb a0 27 3f 1b 71 70 bb aa ac 85 3e f2 4d 0e 3f
       0.6548001 -0.003668851 0.26108295 0.55587685
0001f0 a2 72 e2 bd d8 1c 52 bd 74 ee 10 3f e4 bf 1a 3e
       -0.11057021 -0.05129704 0.5661385 0.15112263
000200 87 7f dc 3d ca 28 38 3f 97 6e ba 3e cb fa 96 3e
       0.107665114 0.7193724 0.36412498 0.29488215
000210 36 9b b5 be 99 dc 0e be 31 4c 99 bd 1d 2a af 3e
       -0.3546998 -0.13951339 -0.074852355 0.34211817
000220 56 38 ec 3d b8 c1 99 be 61 67 8b be 62 79 33 3e
       0.11534183 -0.30030608 -0.2722731 0.17526773
000230 13 ab d6 be d7 99 50 be e6 17 24 3e 12 6b 1a 3e
       -0.41927394 -0.20371185 0.16024742 0.15079907
000240 20 74 9f be d7 da 7f be 8b 18 b6 be 4b f9 2f 3d
       -0.31143284 -0.24985825 -0.355656 0.042962354
000250 b6 47 61 3d 1b bc fb bb d5 5e ce 3c c7 55 8d 3e
       0.05500003 -0.007682336 0.025191704 0.27604505
000260 62 12 2d be a9 77 6d 3e f0 02 1e bf 86 40 ae 3d
       -0.16901544 0.23190178 -0.6172323 0.085084006
000270 97 f8 ec 3e 30 72 b1 3e cb 5e 31 3f 1b e2 c0 be
       0.4628341 0.3465743 0.6928527 -0.37672505
000280 88 ef c5 3d 89 fd 37 bd 27 23 d6 be 52 45 9f bc
       0.096648276 -0.044919524 -0.41823694 -0.019442234
000290 23 ab ed be 75 47 32 be 34 b2 18 3e 00 38 78 3e
       -0.4641963 -0.17410071 0.14911729 0.24240112
0002a0 39 13 84 3e 70 c8 2a be ca 48 c2 be 48 e3 b7 be
       0.25795916 -0.16678023 -0.3794616 -0.3591559
0002b0 df 9e 03 be a8 1d c8 3e 52 b1 a4 3e c5 58 49 bd
       -0.12853573 0.39085126 0.32166535 -0.049156923
0002c0 4e 3b 12 3e 28 85 5d ba ed aa 3b 3e 74 bb 1e 3e
       0.14280435 -0.0008450323 0.18326922 0.15501195
0002d0 61 d6 fc 3e af b2 26 be 30 50 95 bd d4 4f 0e bf
       0.49382308 -0.162791 -0.07290685 -0.5559056
0002e0 44 fd e3 be 5b ee 56 be ee 68 52 3d de ae f2 3d
       -0.44529164 -0.20989363 0.0513696 0.118497595
0002f0 20 c5 8a 3e 62 c8 36 3e d6 80 90 bd c2 8d bc bc
       0.2710352 0.17849877 -0.070558235 -0.023016814
000300 9b 46 d7 3e f6 21 de be 8b 8c cf bd c0 a6 2b 3f
       0.42046055 -0.43385285 -0.10134228 0.67051315
000310 6d 57 45 3f dc 40 a6 be 5f 62 4e 3e aa 53 08 be
       0.77086526 -0.3247136 0.20154713 -0.13313165
000320 59 d8 c8 3e cd d4 2d bf d7 f9 b5 3d 8d 50 ac be
       0.3922756 -0.67902833 0.08885544 -0.33655205
000330 ef a0 cd bd 3a a8 0b 3c b3 15 b8 be 77 eb 43 3e
       -0.10040461 0.008523995 -0.35954055 0.19132791
000340 10 b3 81 bd ca 09 f5 3e ed c2 d8 3e 56 79 a0 be
       -0.063329816 0.4785903 0.42336217 -0.31342572
000350 9f 49 b6 3e 70 51 36 3d 15 3d 0b bf 40 13 d7 be
       0.35603043 0.04451126 -0.5439008 -0.42006874
000360 43 70 35 3e 26 0e 98 3e a3 fd fa be 54 d0 11 bf
       0.17718606 0.29698294 -0.49021634 -0.5695851
000370 d7 6d f1 3e 97 1a 90 be 2e 69 17 bf 21 0f 3d 3e
       0.47154114 -0.28145286 -0.59144866 0.18462802
000380 41 35 f1 3d 20 2a e0 be e0 5e a6 bb 84 4f 6a bd
       0.117777355 -0.4378214 -0.005077228 -0.05720474
000390 f7 04 e4 3e 02 fe d9 3e b9 88 e1 3e 63 2d b1 3d
       0.44535038 0.42576605 0.44049624 0.08651235
0003a0 2c 92 08 3e a2 2b 33 3e 93 54 84 be be 10 16 3f
       0.1333701 0.17497113 -0.25845775 0.58619297
0003b0 f4 58 14 3f 95 38 e1 be d5 f8 84 bd 89 bf f6 be
       0.5794823 -0.4398848 -0.064927734 -0.48193005
0003c0 91 b4 03 bc 56 7b ba bd d8 91 69 3e 51 67 02 bf
       -0.008038656 -0.09105556 0.22809541 -0.509389
0003d0 83 a2 df 3e df 3f 3e 3e a1 16 21 be 85 b2 3c 3f
       0.43678674 0.18579052 -0.15731288 0.737099
0003e0 14 30 a1 3e 0d c8 ab 3e 82 ec 29 3e d1 ea 3d bf
       0.31481993 0.33551064 0.16594127 -0.74186426
0003f0 81 b2 be be fc 06 30 bf 15 62 4a 3d a0 3b 52 3e
       -0.37245563 -0.6876066 0.049409945 0.20530558

mem_LSTM.bias_ih_l0 f4 [256]
000000 62 8b bc 3e 47 24 7d 3d f6 1a 12 3f 01 da 15 3d
       0.3682509 0.061802175 0.5707239 0.036584858
000010 85 b1 0f be 19 a3 01 3d 49 78 9f be d8 68 c3 be
       -0.14032562 0.031649683 -0.31146458 -0.38165927
000020 17 5b 0a bc 9f f8 8e 3d 2a 65 de 3d 32 9d cf 3e
       -0.008444569 0.069810145 0.10859139 0.40549618
000030 05 94 fd bd 63 7a a5 be 92 d9 1d 3e 82 ae 22 3e
       -0.12381748 -0.32319936 0.15415028 0.15886882
000040 a5 7e 99 3e 5a 93 22 be 53 5c bf bc c2 c3 fd 3d
       0.29979435 -0.15876523 -0.023359453 0.123908535
000050 39 e0 2c 3e f5 8f a8 3c 34 20 1d 3e 9a 75 f1 3d
       0.16882409 0.020576457 0.15344316 0.11790009
000060 2b 95 71 3c f8 65 3d 3d ac 19 d3 3d 84 39 2b bd
       0.014745037 0.046239823 0.10307631 -0.041802898
000070 b1 36 b7 3d d7 b9 7c bd 1f 43 9f 3d 5c ec 13 3e
       0.089459784 -0.06170067 0.07776474 0.14445633
000080 3e 8f 16 3e a0 64 73 3e 68 00 ae bd 47 90 05 3f
       0.1470308 0.23768854 -0.08496171 0.52173275
000090 36 94 c5 bd c9 b6 92 3e 0f 3e ff bd 87 5e 51 be
       -0.096474096 0.2865508 -0.124630086 -0.20446216
0000a0 0c cb 78 3e bd 79 b1 bd 0f 82 a4 bd 29 8f c4 3b
       0.24296206 -0.08665798 -0.08032619 0.0059985113
0000b0 aa 4b 59 3d d2 19 3b 3e 81 79 b2 3d 9e f1 83 3d
       0.053050674 0.18271568 0.08714581 0.06442569
0000c0 dc 58 af 3d 3f 99 99 3e e7 51 95 3d b1 c6 9a 3e
       0.085618705 0.2999973 0.07291012 0.30229715
0000d0 85 5b 68 bd e8 58 3f be f9 ad c8 bd 33 58 9c 3e
       -0.056727905 -0.18686259 -0.09798808 0.3053604
0000e0 af 1e 7b bd c4 74 d7 3c 67 7a d9 3e 56 0e 45 bd
       -0.06130856 0.026300795 0.42476198 -0.048109375
0000f0 a4 e8 1a 3e c5 10 8e 3e 5f 84 5c 3d a9 d9 31 be
       0.15127808 0.2774717 0.053837176 -0.17368187
000100 6c 41 c2 bc ee ca de 3d c6 ee bd 3d c8 a2 ac bc
       -0.023712836 0.108785495 0.09274058 -0.021073714
000110 0b 55 0b 3e d7 3f ef bd c5 1a f6 3d b1 d9 a5 bd
       0.1360666 -0.11682098 0.12016825 -0.08098162
000120 da 31 45 bd 13 d1 4a be 39 ff 61 3e 81 bf 19 3e
       -0.048143245 -0.19806318 0.22070016 0.15014459
000130 36 06 d4 3e 8e ac b3 3d 07 cb 3c 3e cc fa d8 bd
       0.4141099 0.087731466 0.18436824 -0.10594711
000140 0c 0f fe 3d 2d 2e e7 3c 1e bc 12 bd 0a f3 f4 be
       0.12405214 0.02822026 -0.035823934 -0.47841674
000150 39 f3 48 be 28 cc aa bd cb 5d c1 3d 22 3a 73 be
       -0.19624032 -0.08339721 0.09441718 -0.23752645
000160 ff 78 ba 3d ac ea 96 bd 1c 94 a3 3c f4 a4 78 bd
       0.091051094 -0.07368979 0.019968085 -0.060704187
000170 6f b1 5f bd e0 35 62 3c bb 7f ad 3e f9 2f c8 be
       -0.054612573 0.01380679 0.33886513 -0.390991
000180 c0 ce 1c 3e 64 80 44 bb 09 21 bf be 17 40 23 be
       0.15313244 -0.0029983753 -0.3732989 -0.15942417
000190 40 48 7e be 38 d2 c2 bd f0 09 22 bf 1c bf 10 be
       -0.24832249 -0.09512752 -0.63296413 -0.14135402
0001a0 f5 ca b2 3e cc 06 29 3c e6 69 ba be 4c 11 d5 bd
       0.3492047 0.010316562 -0.3640892 -0.1040369
0001b0 3c 9e 97 bd 2f 29 c1 3d 81 83 99 3d 33 23 13 be
       -0.07403228 0.09431683 0.074957855 -0.14368896
0001c0 1d 97 8a 3e 7e 0c 8d 3e 6b d5 16 3e 73 88 9b 3e
       0.27068415 0.27548593 0.1472985 0.3037754
0001d0 32 19 5c 3e b4 d3 08 bf 8d 34 6c be 04 b6 0e bd
       0.21493986 -0.53448033 -0.23066922 -0.034841552
0001e0 bc 84 61 bc fd 07 d2 3d c6 d3 36 3e 10 91 05 bd
       -0.0137645565 0.1025543 0.17854223 -0.032609046
0001f0 6f e8 3d be 8e bc d5 bd 85 57 68 3e 46 cc 13 be
       -0.18545698 -0.104363546 0.22689636 -0.14433393
000200 99 13 d2 bd 8c dc e0 bc cd e2 dd bc 1d b5 80 be
       -0.10257644 -0.027448915 -0.027085686 -0.25138178
000210 39 29 3f be de 62 9c 3d 20 d1 4a bc 51 c7 38 3d
       -0.18668069 0.07636045 -0.012378961 0.045111958
000220 68 ce ca be d2 ae e4 bc 63 7a 89 bc 32 13 a5 3d
       -0.396106 -0.027915392 -0.016781991 0.08060302
000230 fb b4 b4 bd e6 72 85 3e 5c 95 ad 3d eb 6b 06 be
       -0.08823582 0.26064223 0.08475754 -0.13127105
000240 50 2b ff bc b7 4c bb 3d 3e 25 19 bd f8 16 34 3d
       -0.031148583 0.091454916 -0.037389033 0.043967217
000250 0f 02 d4 bd df 77 de 3d de 26 13 3e 7f 1c c9 bd
       -0.10351955 0.10862707 0.14370295 -0.09819888
000260 64 aa b9 bd 59 85 5e 3d a0 4c da bb eb 36 1d 3e
       -0.090657026 0.05432639 -0.0066619664 0.15352981
000270 0b 9e ab be c1 66 dc ba 51 13 d2 bc 95 7f c8 3c
       -0.33519015 -0.0016815291 -0.025643976 0.024474898
000280 22 df be 3d 19 9d fa 3d bc 1a 29 bd 0e fd 92 bd
       0.09319903 0.12236995 -0.04128526 -0.071771726
000290 34 5b 23 be a2 c3 17 be 91 a5 fe be 0a c5 07 3e
       -0.1595276 -0.14820722 -0.49735692 0.13258758
0002a0 3c e7 7c bd 33 05 2d 3d 42 fd 24 bd e4 89 c8 bd
       -0.06174396 0.042241286 -0.040280588 -0.097919255
0002b0 7c 46 d7 3d 09 47 81 3d e6 4e 8f bd e9 95 c2 3c
       0.10511491 0.06312377 -0.069974706 0.023753123
0002c0 24 fd 30 3e 32 6f 14 be 97 60 24 3e a2 83 ae 3c
       0.17284065 -0.14495543 0.16052471 0.021303002
0002d0 03 87 90 be e3 45 3d 3d 7c e9 35 be 1f 80 d5 3d
       -0.28228006 0.046209227 -0.17764848 0.10424828
0002e0 95 14 ee bb 96 a7 bb 3d 18 39 4c 3d d8 7b 39 be
       -0.007265637 0.09162824 0.049859136 -0.18113649
0002f0 56 c5 62 bd c5 a1 16 3e 42 74 5d 3c a4 5f 85 3d
       -0.055363975 0.14710148 0.013516488 0.065123826
000300 63 25 32 be 94 8f 70 3d 61 14 73 3e 6c 96 e4 3d
       -0.17397074 0.058730677 0.23738243 0.11161503
000310 9f bd 26 3e cc 5f 45 3d cf bd 19 be f0 de 81 bc
       0.16283272 0.048187062 -0.15013812 -0.015853375
000320 75 4e 1a 3e 75 df 0c be d8 16 32 3e 3c 91 28 3e
       0.15068991 -0.13757117 0.17391527 0.16461653
000330 5c 03 f8 3d 45 ac 2c be 73 5b ac 3d 09 bf 93 3d
       0.12110016 -0.1686259 0.0841588 0.072141714
000340 b0 6e c8 3d 36 fc 31 3e a3 15 01 3f e9 29 89 bd
       0.09786737 0.17381367 0.5042364 -0.06697447
000350 ff a7 21 3e 77 b2 79 3e e2 ee 48 3e b2 7c 1a 3e
       0.15786742 0.24384485 0.19622377 0.1508663
000360 ac 9d 87 3e 9c e6 96 bd 7b 1d 5d 3e 87 ae b1 3e
       0.26487482 -0.07368204 0.21593277 0.34703466
000370 fb 28 e5 3c 4c 58 57 bd fb a8 ff bb 45 52 e8 3e
       0.027973643 -0.05257444 -0.0078021265 0.45375267
000380 14 89 0f 3e 33 9e 01 3e 62 86 7f bc 9b cd cf 3e
       0.14017135 0.12658004 -0.015596004 0.40586552
000390 19 eb a7 bd ef a8 d2 3d 2e 39 a5 be 70 f7 ce 3c
       -0.08199138 0.10286128 -0.32270187 0.025264472
0003a0 15 43 d2 3e 9a ca 30 3e 73 bb 0d bd 8e 1e d0 3c
       0.41066805 0.17264786 -0.034602594 0.025405195
0003b0 59 e6 ea 3d 52 9e 0b 3e 55 1e 3b 3e 81 a0 0a 3e
       0.114697166 0.13634613 0.1827329 0.1353779
0003c0 f4 d1 9f 3e ca e4 9f 3e d7 c5 26 bc 8e 17 dd 3d
       0.3121487 0.3122924 -0.010179005 0.10795508
0003d0 4e f5 2d bd cb 79 a6 3d d3 2c c2 3d 70 75 6b 3e
       -0.04247027 0.08128699 0.09481206 0.22994018
0003e0 b1 4d 1a 3e 69 75 96 3d 5b e2 2e 3e d4 0a 84 bd
       0.150687 0.07346613 0.17078535 -0.06447378
0003f0 f4 c4 80 3e aa 3b 81 3d bb 5a fc 3c 42 10 11 be
       0.25150263 0.06310208 0.030804982 -0.14166358
