current_algos/LSTM_TD3/LSTM_TD3_Agent_actor_weights.pth (torch, 213849 bytes, 13 tensors)

curr_fe_dense1.weight f4 [64, 50]
000000 db 4b 45 3d 83 8d 89 be 31 1c 35 be e6 b9 22 3f
       0.048168045 -0.26865777 -0.17686535 0.6356491
000010 e8 14 3c 3e ee 1f 81 bd 7f 6d 6b 3d ae a9 bf 3d
       0.1836735 -0.06304918 0.05747747 0.09358536
000020 87 65 46 3e 3b ed f6 3d fe 9a 6d 3c 90 27 3a be
       0.19374667 0.12056967 0.014502285 -0.18179154
000030 7e bf 50 3f 43 07 28 bd d5 95 f0 bd 7f 19 4e be
       0.81542194 -0.04102255 -0.11747328 -0.20126913
000040 cb f4 bb 3e 5b 1d 91 be 3d c3 2a 3d 53 6b ba 3d
       0.367102 -0.2834271 0.0416901 0.09102502
000050 49 fd 4b 3e 33 36 8f 3d 8f eb f2 be 54 ec 10 3e
       0.1992084 0.069927596 -0.47445342 0.14152652
000060 60 f2 f1 3e 7b 99 87 3e e4 56 64 bc 8a aa 0e 3e
       0.4725523 0.26484284 -0.013936732 0.13932243
000070 43 8d 63 3e e5 2b 46 be 8d 95 86 bc 3a 25 54 3c
       0.22221856 -0.19352682 -0.016428733 0.012948329
000080 b9 34 95 be 2e f3 3c bf 0a 88 22 be ba 3b 2c bf
       -0.29141787 -0.7380856 -0.15872207 -0.67278636
000090 43 33 e1 be ae f4 80 3c a0 3c 95 3e 8f 80 36 be
       -0.43984422 0.015741672 0.29147816 -0.17822479
0000a0 b0 40 82 be dc 4f 3c 3e a2 5d 7e be 35 f7 75 be
       -0.25439978 0.18389839 -0.24840406 -0.24020083
0000b0 43 6d 90 3e 55 10 4b 3d 99 ae ed 3c 03 e3 4d 3e
       0.2820836 0.049576122 0.029013919 0.2010613
0000c0 27 2c ca bd b7 dd 91 be 44 ba 99 3d 3d 47 14 3e
       -0.09871703 -0.28489468 0.075062305 0.144803
0000d0 a7 e4 56 be ea 26 a1 bc 4f 13 41 3e c3 b9 60 3f
       -0.20985661 -0.019671876 0.18855022 0.8778345
0000e0 80 fa 8c 3e 3f 51 be 3e 7c bd b5 bf e2 18 26 be
       0.27534866 0.3717136 -1.4198451 -0.1622043
0000f0 2e 55 01 bd 8a 9e ec bc f5 5c 00 3e 2f eb 9f 3b
       -0.031575374 -0.028884191 0.1253546 0.004880331
000100 eb 35 90 3e b1 e2 f6 3d f5 0c de bc 3a df f5 be
       0.28166136 0.12054957 -0.027105788 -0.4802187
000110 f6 c3 93 3e 6b 58 b6 3e a4 ab 15 3f 7e 99 07 be
       0.28860444 0.35614333 0.5846503 -0.13242146
000120 f6 5e 33 bf 3f c3 36 3e b3 cc 48 be 2f 66 51 3d
       -0.70066774 0.17847918 -0.19609337 0.05112284
000130 14 7b 8d be ea cf 73 3e 52 47 5c be 52 19 78 3e
       -0.27632964 0.23809782 -0.21511582 0.24228409
000140 81 9e 6a be 2b da c1 be 29 5f 92 bf d1 d6 2f 3e
       -0.22912027 -0.3786176 -1.143529 0.1717179
000150 0a 88 99 be c1 ef 90 be 26 33 03 bc ce 73 80 3d
       -0.29986602 -0.28307918 -0.0080078 0.06272088
000160 ff 08 41 3e d0 ec 55 be 04 fc b9 3e e4 75 8c 3e
       0.18851088 -0.20891118 0.36325085 0.27433693
000170 46 2e d2 3d fe c5 7e be 96 55 50 3e e0 19 33 3e
       0.10262732 -0.24880216 0.20345148 0.1749034
000180 58 e6 5b be 34 68 0c 3d 1a e9 d6 3c b3 c5 1d be
       -0.21474588 0.034279063 0.026234198 -0.15407448
000190 71 6b 2b 3c 9d 42 1a 3e 13 38 76 3d 2f f4 2a 3f
       0.010462628 0.15064473 0.06011207 0.66778845
0001a0 69 7f 10 bd 00 be 6a 3f 9d c9 2d 3f e5 f3 0b 3e
       -0.035277758 0.91696167 0.6788576 0.13667257
0001b0 5a 2a 2a 3d 6b 3f 2c be a9 f0 a9 3d f9 4b e5 3e
       0.041544296 -0.16821067 0.082978554 0.44784525
0001c0 eb be 2f 3e 60 14 16 3d f1 c1 ac 3e 77 49 b2 3d
       0.17162673 0.036640525 0.33741716 0.087054186
0001d0 f7 1f 48 3e 26 ba 11 bf 6f 90 39 be 4d ce b4 3e
       0.19543444 -0.56924665 -0.18121503 0.35313645
0001e0 40 41 0f 3d 68 43 be 3e d1 08 98 3e b1 09 57 be
       0.034974337 0.37160802 0.29694226 -0.2099979
0001f0 3c a3 4e 3e e0 96 9a 3c 3f 65 13 be 8d 03 79 3e
       0.20179456 0.01887077 -0.14394091 0.24317761
000200 5d 1f 9a be f2 b9 54 be f0 2f 2d bf 11 86 82 be
       -0.30102053 -0.20774058 -0.6765127 -0.2549291
000210 f8 df 45 3e ff cd 9a bd 01 6e ee 3d 9d 65 dd be
       0.19323719 -0.07558822 0.11642075 -0.43241587
000220 67 a9 6b bc 99 9c e4 bd 8e bb af be 01 cd 3a 3d
       -0.01438365 -0.11162681 -0.3432278 0.045605663
000230 92 c9 11 be 9b b5 2b be a0 0a 46 3e 5f ad bc 3e
       -0.14237049 -0.16768496 0.1933999 0.36851022
000240 d2 ae 0e 3d 7a e9 45 be b5 c7 58 3e ea 62 5b 3e
       0.03483469 -0.19327345 0.21169932 0.21424451
000250 88 b2 63 3d ca 31 a5 3e 6f 94 bc bc a4 7c e0 be
       0.055590183 0.3226455 -0.023019997 -0.43845093
000260 76 c6 7b bd 2c 0e cd 3e 9e 60 fd 3d 41 39 b2 3e
       -0.061468564 0.40049875 0.12371944 0.34809306
000270 14 cd d1 3c bf 79 87 bc d8 18 42 be 82 40 de 3e
       0.025610484 -0.016537545 -0.1895479 0.4340859
000280 6f 05 3f 3e f0 53 90 3f 5a 3d 85 3e 5f 25 b1 3e
       0.18654417 1.1275616 0.2602337 0.34598824
000290 eb 58 64 be c6 4e 2c 3e 2a 49 e4 bb 64 2f ae be
       -0.22299545 0.16826925 -0.0069667296 -0.3402053
0002a0 89 9c c5 bd fe a3 84 be 69 f0 51 be ed 0b 7f be
       -0.09648997 -0.25906366 -0.20501865 -0.24906893
0002b0 4f c5 35 be c8 5e da bc 71 fd 86 be 77 36 8e 3e
       -0.17751049 -0.026656523 -0.26365235 0.27775928
0002c0 ed 63 93 be f0 d9 cb be c4 f7 6a be 96 35 46 3d
       -0.28787175 -0.3981471 -0.22946078 0.048390947
0002d0 99 97 cc 3e 01 4b 83 be f2 51 0c bf 49 55 b7 be
       0.3995941 -0.2564316 -0.5481254 -0.35807255
0002e0 08 8d 0d be 78 47 0d bf 72 bf 66 bb ce ff af be
       -0.1382333 -0.5518718 -0.0035209325 -0.3437485
0002f0 18 c8 73 3e 83 2a 81 bc 67 cb 5b be 46 69 ab be
       0.23806798 -0.015767341 -0.2146431 -0.33478755
000300 60 da ac be 6b f3 26 3e 12 cb c9 bd e5 54 30 bb
       -0.33760357 0.16303794 -0.09853186 -0.002690607
000310 58 d4 09 be 46 d6 a3 be 01 0c 8b bd 74 a8 d2 bd
       -0.13459909 -0.31999415 -0.06789399 -0.10286036
000320 df a5 b8 3c c8 94 6a bd 81 b5 e1 bd f8 cd 3b bf
       0.022540031 -0.057270795 -0.11020947 -0.7336116
000330 b9 32 80 be 98 73 5d be 65 83 78 3e b7 ae 42 3e
       -0.25038698 -0.21626127 0.24268873 0.19011961
000340 9c 26 92 3d 64 f2 61 be b6 f6 3b 3e 9b 9a 2a 3e
       0.071362704 -0.22065121 0.18355832 0.1666054
000350 ab b3 82 3e 12 e6 1f 3e a5 33 5b 3e 3d 0a 45 3d
       0.255277 0.15615109 0.2140642 0.048105467
000360 8a da c1 3e fe 44 c7 3e d7 80 83 3d 67 8e 29 3e
       0.37862045 0.38919824 0.064210586 0.16558228
000370 cd d6 18 3f 31 eb 77 3f 82 5a 00 3f 6a 46 1e 3f
       0.5970276 0.9684325 0.50138104 0.61826193
000380 50 62 13 3e 60 67 31 3e 67 9d b1 bd 69 b8 9a be
       0.14392972 0.1732459 -0.086726 -0.3021882
000390 b8 c4 04 bd bf ba 81 be 91 a4 4e be dd bb 8e be
       -0.032414168 -0.25337788 -0.20179965 -0.27877703
0003a0 40 e7 47 bf ed 2a 44 bf 77 5e 9a be de 01 e2 be
       -0.78087234 -0.76628 -0.30150196 -0.4414205
0003b0 a3 e2 89 be 80 4d aa bc a4 51 05 be 21 e7 a4 3e
       -0.26930723 -0.020788908 -0.13019425 0.32207587
0003c0 f6 6d b5 3e d0 40 a2 bd de 49 e6 bd 53 51 43 3e
       0.35435456 -0.07922518 -0.11244558 0.19073991
0003d0 27 11 94 3e f4 39 28 bc 58 cc ac 3e 8e b8 18 be
       0.28919336 -0.010267723 0.33749652 -0.14914152
0003e0 03 36 5c 3d ed d0 4d bd 11 d3 9f bb 29 77 24 bc
       0.053762447 -0.050248075 -0.004877456 -0.010038176
0003f0 b5 8c 48 bc 93 62 d1 ba a2 c8 5a c0 fc bc 3a bd
       -0.012240578 -0.0015974812 -3.4184957 -0.045590386

curr_fe_dense1.bias f4 [64]
000000 4e e7 9c 3c 0f c0 c9 bd 49 03 a6 3e 07 87 f3 bd
       0.019153263 -0.098510854 0.3242438 -0.11890989
000010 80 61 73 be 38 b8 0f 3e 00 e6 3c 3e 1f a4 bd bd
       -0.23767662 0.14035118 0.18447113 -0.09259819
000020 a0 e6 06 bf 6b de 19 3f 7c ca f7 3c ec 53 81 3e
       -0.52695656 0.6010501 0.03024792 0.2525934
000030 df 84 0e be ec a2 66 3e 85 b5 65 3e 8c a7 e5 3d
       -0.13917874 0.22523087 0.22432525 0.11213598
000040 f2 80 e7 3e a7 e6 85 bd e1 7e 2c bd af 2a 23 bd
       0.45215565 -0.06538134 -0.04211319 -0.039835628
000050 5c cb ab 3e e9 96 0d be 40 fd 23 3d 52 b6 d9 3b
       0.33553588 -0.13827099 0.04003644 0.0066440487
000060 59 25 64 be f8 50 89 be 87 ea 31 be 01 03 97 3e
       -0.22279872 -0.26819587 -0.17374621 0.2949448
000070 58 84 17 be ef 9d 28 3e bc fc a4 be 10 9d 04 3e
       -0.14796579 0.16466497 -0.3222407 0.1295054
000080 c8 43 98 3d c6 e9 bf 3d 2e 1f 83 bc 5b 64 cb be
       0.07434803 0.093707606 -0.016006079 -0.39725003
000090 a9 c3 90 bc 25 8f 1f 3c c7 a1 7d bd 0d 06 05 be
       -0.017671423 0.009738718 -0.06192186 -0.1299059
0000a0 36 48 0b be a1 59 e1 bd 21 5b 2f 3e de 11 bb be
       -0.13601765 -0.110034235 0.17124607 -0.3653707
0000b0 d8 2f 45 be e0 20 4f be 54 bb 5f bc 43 1a a5 bd
       -0.19256532 -0.20227385 -0.013655502 -0.0806165
0000c0 e5 c0 8e 3c fc 8d d8 bd 48 be 9d 3c 86 db 3a 3d
       0.017425964 -0.10573956 0.019255772 0.04561951
0000d0 7c cb b2 3c ea 9b 05 3e b3 54 41 be 9d 44 66 be
       0.021825545 0.13047758 -0.18879966 -0.22487111
0000e0 59 42 be bd 8d 35 0b 3e 24 8d f2 bb 77 97 25 be
       -0.092899986 0.13594647 -0.007402079 -0.1617106
0000f0 82 69 a2 bd 33 25 d9 bd 05 24 82 be e1 01 83 3e
       -0.0793028 -0.10602798 -0.25418106 0.2558737

curr_fe_dense2.weight f4 [64, 64]
000000 60 52 a6 be 01 fb d7 bd 49 7b 1f bf fe 1b 91 bf
       -0.32484722 -0.10545922 -0.62297493 -1.1336668
000010 07 7c 73 bd 65 74 ba 3e a0 97 2f 3d 63 c2 82 be
       -0.059444454 0.36416927 0.04286921 -0.2553893
000020 2a 32 b2 be be f5 a3 be 3c ab 21 3e 35 ff 7e 3c
       -0.34803897 -0.32023424 0.15787977 0.015563776
000030 a7 b0 b1 be c8 96 ba bd a9 8d 4e 3e 4e 79 d7 3c
       -0.34705088 -0.091107905 0.20171227 0.02630296
000040 de e9 65 be 3c 17 4a be 14 f4 88 be b5 6c f6 3e
       -0.22452495 -0.19735426 -0.26748717 0.48129812
000050 00 a2 88 be fb 58 76 bf b7 cb 94 3e 5c 8d f5 3e
       -0.26686096 -0.96229523 0.29061672 0.4795941
000060 32 9c 08 bf f6 32 39 be 66 31 fd bc 73 a5 26 be
       -0.53363335 -0.18085846 -0.030907344 -0.16274051
000070 e2 16 6e bd d0 6b c8 3c 2c fe 90 be a8 b7 c0 bc
       -0.05812729 0.024465472 -0.28318918 -0.023525074
000080 77 78 b1 b9 c4 6c 62 be e8 74 bf 3e 9c 54 10 3f
       -0.00033849824 -0.22111803 0.3739388 0.56379104
000090 ff cc 96 be ea 79 90 3e 2f 34 dc 3d 4a 5b 06 3e
       -0.29453275 0.28218013 0.10752141 0.13120762
0000a0 5d aa 18 bf 36 04 eb bd bc 16 14 3e f5 79 db bd
       -0.59634954 -0.114754125 0.14461797 -0.10716621
0000b0 e7 9e b0 3e d7 bb 66 be 6a cf 80 3d 50 56 93 bd
       0.34496233 -0.22532593 0.06289561 -0.07194197
0000c0 8d 51 1c 3f 57 2f 9d 3d 9d e9 31 3b af cb 3d 3e
       0.61061937 0.07675045 0.00271473 0.1853473
0000d0 97 67 e7 bd 32 60 31 bd f1 27 8e 3e 43 96 28 bf
       -0.11299055 -0.04330463 0.27764848 -0.6585428
0000e0 f5 e9 3d 3e a0 cc c2 be 9c 77 82 3d d1 19 3a 3e
       0.18546279 -0.3804674 0.0637047 0.1817391
0000f0 25 4e 9e bb 40 66 bf bc 5d 7f 34 be 6d 93 1b 3e
       -0.004831093 -0.023364186 -0.1762671 0.15192957
000100 57 16 e6 bd d4 0a ed bd b7 9f af bd 9b 7f aa be
       -0.1123473 -0.11574331 -0.08575385 -0.3330048
000110 8e 98 8a 3e 9c 13 b5 3e 34 08 74 be 25 1b 91 bd
       0.27069515 0.35366523 -0.23831254 -0.070852555
000120 46 79 9c 3e 15 3b e9 3d e4 38 ed 3e 31 d2 af be
       0.30561274 0.11388222 0.46332467 -0.3434005
000130 6a 31 e3 bd d2 48 88 3f 39 47 d8 3e da 13 8a bd
       -0.11093409 1.0647223 0.4224184 -0.06742068
000140 6e 0f 24 3e cb db 73 be 39 a9 93 3e 9a e6 b5 3e
       0.16021511 -0.23814313 0.28840044 0.35527498
000150 25 68 a6 be e7 7f ac 3e 86 4c 18 3e dc a7 e3 bc
       -0.3250133 0.33691332 0.14872941 -0.027790003
000160 43 a1 10 be cb d3 2f bd d4 db f5 3e b0 fc 69 be
       -0.14124016 -0.04292659 0.48019278 -0.22850299
000170 0e 01 29 3e d9 d5 24 be 7e 54 c6 3e 71 61 57 3e
       0.16504309 -0.16097201 0.38736337 0.21033265
000180 de 4b 30 3d dc 8b 71 be cc cd 0a 3e 4d 2c 9f 3b
       0.043041103 -0.23588508 0.13555068 0.004857576
000190 b6 33 02 3f e5 ed 96 be 68 67 50 bf 0b 37 56 bd
       0.50860155 -0.29478374 -0.81407785 -0.052298587
0001a0 28 d1 0a bf 89 37 11 3f bd 6b dc bd a2 20 03 3f
       -0.542254 0.56725365 -0.10762737 0.5122167
0001b0 2f ce 70 3d d2 cd 11 3e ab e5 8f 3e 4d 47 b0 be
       0.058790382 0.1423867 0.2810491 -0.34429398
0001c0 da 8f 00 be 60 59 fc bd ec 5f 78 3e a7 01 16 bf
       -0.12554875 -0.123217344 0.24255341 -0.5859627
0001d0 98 23 be 3e f8 d4 ac 3e b9 6a f8 be fc 3a 07 bf
       0.3713653 0.33756232 -0.48518923 -0.5282438
0001e0 db 74 09 3f ad 81 06 3e 4b 6c 55 3e 8a 5e a6 3e
       0.5369393 0.13135405 0.20842092 0.32494003
0001f0 94 d8 84 3e ca c5 b8 3d ee 9a 38 3e b6 02 0b 3e
       0.25946486 0.090221 0.18027851 0.13575253
000200 e2 37 8c be 0e 13 64 3d df e2 e0 3e 83 cc 40 3e
       -0.27386385 0.055682234 0.4392309 0.18828015
000210 90 c1 0d be d1 34 6a bd 08 c0 31 3e 92 88 aa be
       -0.1384337 -0.057179276 0.1735841 -0.3330732
000220 bf 1d d4 3d eb 6b d4 3d 18 82 bb 3e b9 af e9 3c
       0.10357236 0.10372146 0.3662269 0.028526174
000230 9a b2 b8 3d d0 88 ea be a8 42 21 3e d6 2d 0d bd
       0.090184405 -0.45807505 0.15748084 -0.03446754
000240 1a 6c 3c be ef 31 78 be ad 16 17 3f 54 72 16 3f
       -0.18400612 -0.24237798 0.59018975 0.587682
000250 1b f0 84 bb 0b a1 69 3d 1a 97 b2 bc 90 50 b7 3d
       -0.004056943 0.05703835 -0.021800566 0.08950913
000260 fe 78 57 3e 7c 76 61 be ff e5 47 3e da ec 9c 3c
       0.21042249 -0.22017854 0.1952133 0.019155908
000270 82 5c db be e1 8b 66 be ea ab 10 3e 4e 8c 16 3e
       -0.42844015 -0.22514297 0.1412808 0.1470196
000280 5a 24 89 be 6e dc 8f bd 9f ae 9a bd 60 f7 3e bd
       -0.26785547 -0.070244655 -0.075528376 -0.046622634
000290 42 34 80 3d a5 f3 5b 3e bb b7 3b 3e 9e 9e 93 bd
       0.062599674 0.21479662 0.18331806 -0.07207988
0002a0 65 79 fc 3d 74 99 5a 3d d4 c4 7d be 56 ac 86 bc
       0.12327842 0.053369 -0.24782115 -0.016439598
0002b0 a6 5e 37 be d1 1e 5c bf cf 82 58 bf 2f df 3f 3d
       -0.179072 -0.8598452 -0.845746 0.046843704
0002c0 65 46 5e be 98 e0 97 3e 75 92 17 3f 96 fb 04 bf
       -0.21706541 0.2966354 0.5920785 -0.5194639
0002d0 37 14 35 bd 95 05 2e 3e ac 55 3c be 7d ba 68 bd
       -0.04420873 0.16994317 -0.18392056 -0.056818474
0002e0 32 b8 d3 3c 17 32 6a 3d 3a 8e 1d be 57 7d 38 3d
       0.025844667 0.057176676 -0.15386286 0.04504141
0002f0 85 76 a3 be 77 1d 1d be f6 dd 30 3d 5d 2f 96 3d
       -0.3192636 -0.15343271 0.04318043 0.073332526
000300 8c 10 38 3e 64 6f fb bc cc 15 cb be 83 ec 93 3e
       0.17975062 -0.030692764 -0.39665067 0.28891382
000310 9d a6 39 be 92 be d2 3b 9d 70 c6 3d f7 af fe 3c
       -0.18129964 0.006431409 0.09689448 0.031089766
000320 65 8c ed 3d 7d 95 c4 3d 0b 0a bc 3b a0 a3 3f be
       0.11599044 0.09598825 0.005738502 -0.18714762
000330 ae 7d 73 bc ec e1 6d 3f c2 d2 ca be 68 3a cd be
       -0.014861507 0.92922854 -0.3961392 -0.40083623
000340 0b 33 87 be 6e 9e 82 3e 93 13 a8 bd 61 dc 3c be
       -0.2640613 0.25511497 -0.082068585 -0.18443443
000350 76 95 6f bd e3 4a eb 3e a0 5b ee be 11 9f bc be
       -0.058492146 0.45955572 -0.4655428 -0.36840108
000360 8c 6c 53 3e 62 f9 c1 3d 80 c2 07 3d 5f b9 f6 3d
       0.20646876 0.09471394 0.033144474 0.120470755
000370 06 19 6e 3d 9c 4f 17 3e 09 d7 8c be f3 78 4e bf
       0.058129333 0.14776462 -0.2750781 -0.80653304
000380 ed 4d 6b 3e 38 c5 85 bc 4d 55 fd 3d 17 f8 ad be
       0.22978945 -0.016329393 0.123697855 -0.3397834
000390 3e 76 13 bf 02 54 56 3e a0 12 f3 be 3b 85 9e 3e
       -0.576023 0.20930484 -0.47475147 0.30961022
0003a0 da 18 d2 bd 1e 66 e7 be 21 c5 b1 3d c3 b4 25 bc
       -0.10258646 -0.45195097 0.086801775 -0.010113898
0003b0 b5 f2 ad 3e db a9 a8 3e e9 8e 11 3e d6 c9 a9 3d
       0.33974233 0.3294209 0.14214672 0.0829045
0003c0 87 0b 63 bd d9 36 ed 3d 20 d4 0a 3d 3f 5c 96 be
       -0.055430915 0.11582727 0.033893704 -0.29367253
0003d0 6f 98 3d be 62 91 37 3e e6 5a 19 be 78 8f 48 be
       -0.1851518 0.17926553 -0.14976081 -0.19585979
0003e0 c7 72 c8 3d a5 45 80 bd 5f d5 d4 3d 20 55 d4 bd
       0.09787517 -0.06263284 0.1039226 -0.10367799
0003f0 74 e5 fd bd 89 6c 04 3e de 45 dc 3e 87 81 3d be
       -0.1239728 0.12932028 0.43022054 -0.18506442

curr_fe_dense2.bias f4 [64]
000000 c8 40 29 3d dc 81 bb 3d 9b 2b ad bd 0e 86 ab bd
       0.041321546 0.09155628 -0.08455583 -0.08375178
000010 7a e9 1f bd 7f 1b b5 be 26 6b 0b be 82 07 b2 3e
       -0.03904102 -0.3537254 -0.13615093 0.34771353
000020 d1 1a 5a be e4 12 9a 3e ba 84 0a be d0 b2 2c be
       -0.21299292 0.30092537 -0.13527194 -0.16865087
000030 12 18 1d 3d e1 94 c6 3e 82 65 60 3d 8a 0a 85 3e
       0.038353033 0.3878546 0.054784305 0.25984603
000040 46 ef 9b bd 8c d6 e0 3e 8b 67 99 3d 7b 49 31 3e
       -0.07613997 0.43913686 0.074904524 0.17313187
000050 52 4c 19 3e fa 47 c6 be b0 34 4f 3c 6d 3a 30 be
       0.1497052 -0.3872679 0.012646839 -0.17209788
000060 06 ba 72 3e 7d d2 5b 3d 76 fb 23 bb a5 83 b9 3c
       0.23703775 0.053667534 -0.0025021709 0.02264578
000070 e8 86 96 be 70 07 81 be 36 37 41 3e c7 5d 86 3e
       -0.293998 -0.25200987 0.18868718 0.2624342
000080 bc a7 07 bd e3 02 4b 3e e4 8d 04 be aa dd 82 be
       -0.03311895 0.1982532 -0.12944752 -0.2555974
000090 30 64 b6 bc 02 bd 8b be 82 5e 8b 3e 6b 00 03 3e
       -0.02226457 -0.2729264 0.2722054 0.12793128
0000a0 60 d8 a3 be ac fc 01 bb 3e e9 8e be 0f d9 be bd
       -0.3200102 -0.0019834442 -0.27912325 -0.093187444
0000b0 ca 73 ee bc f0 6c 9c be 91 22 3a bd 87 53 19 bd
       -0.029107947 -0.30551863 -0.04544312 -0.037433174
0000c0 9b 46 0b be 52 b0 9d bd 44 0d f7 3e da f4 88 be
       -0.13601153 -0.07699646 0.48252308 -0.26749307
0000d0 6f 8d 6b bd aa d4 89 3d 32 fb 0e 3e ee f5 62 3d
       -0.05750793 0.067300156 0.13963011 0.055410318
0000e0 38 d8 e0 3d fa 04 52 be 1e b9 a9 3d fd 27 d1 3d
       0.109787405 -0.20509711 0.082872614 0.10212705
0000f0 f9 43 40 3e 98 6c 9b be 21 cc 4c 3d 16 6a 0e bc
       0.1877593 -0.30356288 0.04999936 -0.008692285

mem_dense.weight f4 [64, 50]
000000 64 ab 05 3d c8 4d b5 3c 39 b9 32 bd e0 40 a7 3d
       0.032634154 0.022131816 -0.043633673 0.08166671
000010 ef 21 45 bc f2 73 53 3f 6a a0 94 3f 37 2d 0f 3e
       -0.012032016 0.82598794 1.1611454 0.13982092
000020 44 e1 aa 3e fd 2c 44 3e 51 d2 68 3e 19 89 85 3d
       0.3337499 0.19157787 0.2273648 0.0652029
000030 e4 37 94 be 3b 35 92 3b c9 d1 89 3d 52 5b 52 bd
       -0.2894889 0.004461912 0.067294665 -0.05135662
000040 75 a1 88 bd 38 3a 96 be d1 d5 9b bf d9 f6 f8 bd
       -0.066714205 -0.29341292 -1.2174627 -0.121564575
000050 90 01 8b be d2 5b 88 be a8 d9 10 bf 09 c3 12 3e
       -0.2714963 -0.26632553 -0.5658212 0.14332213
000060 d2 28 90 3b 7d c0 d9 3d 71 3c 2f 3b ac 4d 55 be
       0.0043993974 0.10632417 0.0026738907 -0.2083041
000070 07 35 4f be 1a 1a 9c be 08 5d c4 3e 9f 87 16 be
       -0.20235072 -0.30488664 0.38352227 -0.14700173
000080 d1 5f 21 bf 11 30 29 bf ea 24 67 3e 98 ff 51 bd
       -0.6303683 -0.6608897 0.22572675 -0.051269144
000090 22 03 0b 3e 4e 55 74 bd ed de 12 3e ca ac b4 3e
       0.13575414 -0.059651665 0.14342852 0.35288078
0000a0 be 3b 23 3d 49 66 7a bc 9d d9 a9 be 7b 9f 71 3e
       0.039851896 -0.015283176 -0.33173838 0.23595993
0000b0 b9 87 5a 3e c3 f4 1a 3e 3a 56 35 3e 2e a2 0d be
       0.21340837 0.15132432 0.17708674 -0.13831398
0000c0 34 bc a5 be 55 2c d6 3d 0b a3 e2 3c 45 b5 24 3d
       -0.3237015 0.104576744 0.027665636 0.040211935
0000d0 e6 05 3e bd 57 ad 6a 3e 4a d6 14 3e 04 b7 6f 3e
       -0.046392344 0.22917686 0.1453487 0.23409659
0000e0 5e e5 4f 3d a7 2b 1f 3c 7d 1a 9a bd cc 4a ae 3c
       0.05075585 0.009714997 -0.075245835 0.0212759
0000f0 00 c0 70 3d bf 10 62 3f 29 1f d5 be 72 95 3f bd
       0.058776855 0.883068 -0.41625336 -0.04677338
000100 85 9d 78 bd 23 02 c2 bd 6b 0a 24 be 40 86 42 3e
       -0.060697097 -0.09473064 -0.16019599 0.18996525
000110 2d 0b 1b bd b3 8d 9a 3d ae 48 f3 bc 41 da 53 3d
       -0.037852455 0.07546558 -0.029697742 0.051721815
000120 e5 d5 ee bd b5 c3 3f 40 90 6b dd be 43 1e 39 3d
       -0.11661891 2.99632 -0.43246126 0.045194875
000130 37 e1 5d 3d 72 3a d3 3d e5 ad f2 3d 4b c8 fa 3e
       0.05416986 0.10313882 0.11849574 0.48980936
000140 69 98 3b 3e b2 66 2f 3e 76 59 1c 3d 44 94 e2 3b
       0.18319859 0.17129019 0.038171254 0.0069146473
000150 df ad 1b 3e e6 56 33 3f 4e 4b f8 be c9 e7 ef bd
       0.15203045 0.7005447 -0.48494953 -0.117141314
000160 9d 4f 2b be 99 7a db 3c 3d 27 37 bd 05 12 8f 3c
       -0.16729589 0.026791858 -0.044715155 0.017464647
000170 b8 72 08 bd 3d bb 95 3d d8 ec db 3c 0b f4 c9 3e
       -0.03331253 0.073111035 0.026846334 0.39444003
000180 2e b9 90 be eb 81 d9 3e b1 35 86 be e0 f6 50 3e
       -0.2826628 0.42481932 -0.26212838 0.20406675
000190 38 eb 8b bc 6c 9c 02 3d 7f 4b 4b 3e 67 ff 9a 3e
       -0.017079934 0.031887457 0.19853018 0.30272982
0001a0 01 cc 0f 3f b6 89 92 3f 07 f6 1b be 0e cd 07 be
       0.5617066 1.1448276 -0.1523057 -0.13261816
0001b0 37 ad 2a 3e 4c b6 8b 3e c4 fd 08 3f be e6 f1 3e
       0.16667639 0.2728752 0.53512216 0.47246355
0001c0 0b 4a 21 3e 80 cc ed 3e 09 39 16 be 8a 2b e6 3e
       0.15750901 0.46445084 -0.14670195 0.44955093
0001d0 6f 9b 62 3e d9 a1 a0 be 78 ab 7d 3e f4 f1 59 3e
       0.22129606 -0.3137348 0.24772441 0.21283704
0001e0 6f 10 92 be ea a5 1e 3e 50 ab cb 3e d4 4a 86 3e
       -0.28528163 0.15492979 0.3977914 0.26228964
0001f0 e4 cf 19 3e 89 9a 04 be a8 56 11 bf 19 d5 20 bf
       0.1502071 -0.12949575 -0.5677285 -0.6282516
000200 9a a5 a5 bf 24 5f a7 be 3a a6 0e bf 83 66 02 be
       -1.2941163 -0.32689774 -0.5572239 -0.12734418
000210 34 9d 40 be d3 f2 b0 be 90 d7 89 bd 28 e0 74 bd
       -0.18809968 -0.3456026 -0.067305684 -0.059784085
000220 40 a3 11 bf 27 fb 05 3d 64 55 1a 3c 05 23 b0 bc
       -0.56889725 0.03271022 0.009419773 -0.021501074
000230 51 c6 68 be b8 08 11 3e 5a 92 d0 3d cb d5 92 be
       -0.22731902 0.14163482 0.10184164 -0.28678736
000240 ea b0 57 bd ad 07 a4 be 73 49 2f bd e0 fd 3b 3c
       -0.052658953 -0.32037106 -0.042794656 0.011474103
000250 9f ce f5 3b 1d 39 90 3d 00 a8 81 3b b7 b0 e2 bc
       0.007501438 0.070421435 0.0039567947 -0.027672155
000260 8e ce 3a 3e 44 08 93 bb 58 21 9e be c4 2e 36 be
       0.18242857 -0.0044870693 -0.30884814 -0.17791277
000270 bc 13 ea 3d 8c cd 61 3e cc 13 99 3e 5f f7 d3 be
       0.11429545 0.22051066 0.29897916 -0.41399667
000280 98 40 19 40 af 8f b3 3d 38 ae b3 bd 8f 24 14 be
       2.3945675 0.0876764 -0.08773464 -0.14467071
000290 28 99 2d 3e 9a 49 d5 3d 87 31 67 bd 2e 9c db 3b
       0.16952956 0.10414429 -0.056443717 0.0067019677
0002a0 b9 13 9a 3d 93 7c a2 bd 7f 00 db 3d 9b 87 7c be
       0.07523293 -0.07933917 0.10693454 -0.24661104
0002b0 e6 b4 20 3f 90 44 88 3e 20 08 4c be 5f 0f e8 bb
       0.6277603 0.2661481 -0.19924974 -0.0070819105
0002c0 84 f1 96 3d 32 5a f8 3d 32 76 04 bd 7e d8 65 bd
       0.07370284 0.121265784 -0.032339282 -0.056114666
0002d0 3d 46 ec 3d 6c 85 13 3e 8f d6 75 be 18 ea 8e bf
       0.115368344 0.14406365 -0.24007629 -1.116519
0002e0 34 bf 9e be 52 6c 60 3e 8b cb 5c bd 16 9f d4 3d
       -0.3100525 0.21916321 -0.05390505 0.10381906
0002f0 cd e5 3a 3d 0c 84 7a bd 14 d6 a1 bd 03 ab 4d 3c
       0.04562931 -0.061161086 -0.0790216 0.012552979
000300 e5 39 4c 3e f6 f3 0f 3e 20 69 d7 3b 83 3f e1 3e
       0.1994396 0.14057907 0.006573811 0.43993768
000310 62 ea 70 bc eb 0a d4 3c c2 a2 16 3e 8b 74 35 be
       -0.014704319 0.025884112 0.14710525 -0.17720239
000320 75 01 6c bd a9 3d 10 3e 3b c2 5a 3e a2 39 3f 3d
       -0.057618577 0.14086021 0.21363156 0.046685822
000330 e7 bc bc 3d 78 f4 e1 bd 3d cf 8b 3d dd e9 0e bc
       0.09215718 -0.11032957 0.06826637 -0.00872275
000340 3b a0 9f 3e 90 6e f7 bf ec cb 12 bf da b6 96 be
       0.31176934 -1.9330616 -0.5734241 -0.2943638
000350 65 08 55 be 8d 90 1a be 5d 49 4f bd 86 00 26 3d
       -0.20803984 -0.15094204 -0.050607074 0.040527843
000360 08 7f 0e be 05 fc cf 3d 4c 8c 82 3e 88 64 85 bc
       -0.13915646 0.10155491 0.25497663 -0.016283289
000370 0e 2e e3 bd 76 d8 cf 3e 1b 89 54 3f 24 cd fe be
       -0.110927686 0.40594834 0.83021706 -0.49765885
000380 15 79 08 bd b1 43 f6 3d 19 d6 a0 bd db 5d d6 3c
       -0.033318598 0.1202463 -0.07853336 0.0261678
000390 23 a3 1b 3d a8 ad 01 be 19 b5 51 3e d8 2b 26 3e
       0.037997376 -0.12663901 0.2047924 0.16227663
0003a0 13 8d af be 69 c3 e0 be fe 91 cb be 4e d0 df bc
       -0.3428732 -0.43899086 -0.3975982 -0.027321007
0003b0 6a 92 68 bd 2e aa 5d 3e b3 db 88 bd 51 09 ed 3d
       -0.056780256 0.2164695 -0.06682529 0.115740426
0003c0 b7 cf eb 3d 76 5f d3 3e 10 50 25 3e d5 0b bd 3d
       0.11514228 0.41283768 0.16143823 0.092307724
0003d0 f8 e9 f1 bd 7e b2 94 be 83 c2 2a bf b6 84 05 be
       -0.11812204 -0.2904243 -0.6670305 -0.13038906
0003e0 48 46 86 be 18 2f 36 3e f7 6f 36 3d 9b 64 17 bd
       -0.26225495 0.17791402 0.04454037 -0.03696118
0003f0 54 53 3f 3e 0d b5 ff bc d9 44 8b be 49 66 be 3d
       0.18684131 -0.031214261 -0.27200964 0.09296853

mem_dense.bias f4 [64]
000000 79 13 ff 3d 75 d1 71 3e f3 8f fd 3d 44 ea 84 3e
       0.12454886 0.23615058 0.12380972 0.2595998
000010 9e 7f e1 3e 88 bb bf 3e 6e 46 f7 3d 5a 27 eb 3b
       0.44042677 0.37447762 0.1207398 0.007176322
000020 e8 47 07 3d ad 9b 5c 3e d0 9b 35 3e 7a 2e 89 3d
       0.03302756 0.2154376 0.17735219 0.06698318
000030 15 fc 17 3e 51 22 2f 3e c0 ba 84 bd 14 49 3f 3d
       0.14842255 0.17102934 -0.06480932 0.046700552
000040 3c ca 4f 3e 1b 2c 2a 3e a4 9c ca 3b 2f 92 82 3e
       0.2029199 0.16618387 0.006183224 0.25502154
000050 be b8 8f 3d 0d 33 ca 3c e1 24 e4 3d 7e c6 7d 3e
       0.07017659 0.024682546 0.111398466 0.2478275
000060 c3 79 4c 3e b3 f7 8d 3e ab 6f 02 3e 91 02 69 bd
       0.19968323 0.27728042 0.1273791 -0.056887213
000070 ac bc 79 3e 91 b1 3e 3e 13 2e 7a 3e d0 12 00 3e
       0.24388379 0.18622424 0.24431638 0.12507176
000080 b3 5e c9 bc ea 66 8d 3e d6 4a 26 bd 7d 31 b3 3e
       -0.024581289 0.2761758 -0.040598713 0.34998694
000090 97 77 de bd 12 16 2b 3e 2b bf 88 3e 73 4a 13 3e
       -0.10862654 0.16707638 0.2670835 0.14383869
0000a0 bc 12 39 bd 2d fe 56 3e 48 44 b0 3e 59 01 66 3d
       -0.045183882 0.20995398 0.34427094 0.05615363
0000b0 37 2e 44 be 85 c8 3a 3d ad 6c e4 3e 53 1f 6b 3d
       -0.19158255 0.045601387 0.44614163 0.05740292
0000c0 6b e5 82 3d f5 39 d7 3d 05 a2 25 be 8a 09 ca bc
       0.06391414 0.10509101 -0.16175087 -0.024662752
0000d0 10 13 9f be 9d d7 0e 3e 66 5c 20 3d 2f 33 03 be
       -0.3106923 0.13949437 0.039150618 -0.12812494
0000e0 20 d1 05 3d a9 4f 25 3e 7f 6b 0f be c9 e5 0d 3e
       0.03267014 0.16143669 -0.1400585 0.13857187
0000f0 9b b1 ec bc 97 af ef 3d 8f 78 a0 bc c1 6e 29 3e
       -0.028893283 0.11703413 -0.019588737 0.16546156

mem_LSTM.weight_ih_l0 f4 [256, 64]
000000 ad 6d 4e 3f 44 27 3d 3f ab 74 6f bd 8f f0 55 be
       0.806361 0.7388804 -0.058460873 -0.20892547
000010 50 67 a2 be f9 6d 2e bf b7 67 04 3f 28 74 0c 3f
       -0.31719446 -0.68136555 0.51720756 0.5486474
000020 f0 cc b9 bd 34 c1 39 be 9a d7 cf bd cc 74 6f bf
       -0.09072292 -0.18140107 -0.101485446 -0.9353759
000030 27 eb 9b be 5f ad e2 3e a8 90 12 3f 1a 22 04 bf
       -0.30452845 0.44272897 0.5725198 -0.51614535
000040 b3 99 d5 3d 93 7b 91 be 8b e2 6c 3e 7a e4 b5 bd
       0.104297064 -0.28414592 0.23133294 -0.08881469
000050 a5 71 11 3f 43 cf cf 3e 0f d7 47 3f 69 28 a4 3e
       0.5681403 0.40587816 0.7806253 0.3206208
000060 a5 a7 57 be ee 7f 2c be c9 ea 3a 3d fc 2a 50 3f
       -0.21060045 -0.16845676 0.045634065 0.8131559
000070 06 87 37 bf 2a fc c2 3f b4 78 94 be 0c 20 9f 3f
       -0.71690404 1.5233204 -0.2899834 1.2431655
000080 32 6c 0c 3f ff d7 42 3f bc 8b a4 bd 5a 54 23 be
       0.5485259 0.76110834 -0.08034465 -0.15950146
000090 4b 05 55 3e 08 a2 35 be fb 5e ee be d1 aa 51 be
       0.208028 -0.17737591 -0.4655684 -0.20475318
0000a0 26 39 86 3e 69 47 dc 3d 57 af 22 3e 4a 78 c6 3e
       0.26215476 0.10755808 0.158872 0.38763648
0000b0 53 ca 44 3f fc 2e 30 bf 01 9b 3d be 45 46 0f 3f
       0.7687122 -0.6882169 -0.1851616 0.559666
0000c0 3d ed 2a 3f 80 d3 28 be 64 a0 8e be 04 4f e6 be
       0.66768247 -0.16486931 -0.27856743 -0.4498216
0000d0 2c 34 3b be bf 57 cb be af 1a fb be 47 b3 1b bf
       -0.1828162 -0.39715382 -0.49043795 -0.6082043
0000e0 52 37 c1 be f6 20 36 bd f2 a2 b6 be 4b a3 bd bd
       -0.3773752 -0.044465028 -0.35671192 -0.09259661
0000f0 2b 3b 34 3f 3b 3a 13 3f 09 a4 5d bf 01 b3 6d bf
       0.70402783 0.5751073 -0.8657842 -0.92851263
000100 3c 5e ec 3d 1c 8d bc 3e 35 e2 5c 3e a2 72 8d bd
       0.11541411 0.36826408 0.21570666 -0.0690663
000110 a9 a9 39 3f 94 1b 57 3f c4 f1 40 3c 46 c4 8d 3e
       0.72524506 0.84026456 0.011776391 0.27688807
000120 df ee a3 3d f4 53 0b 3f 44 06 ed 3e ff 2d a5 3e
       0.080045454 0.5442498 0.46293843 0.32261655
000130 47 3c 94 3d 0c 7e 32 3e 43 50 98 be 29 d0 b6 3e
       0.072380595 0.17430896 -0.29748735 0.3570569
000140 ff f3 db bd 26 49 02 be 38 8a 20 3e f3 2c a4 3d
       -0.10739898 -0.12723216 0.15677726 0.08016386
000150 4e 66 0a 3f b6 73 13 be d6 c0 97 3e c2 80 06 3f
       0.54062355 -0.14399609 0.2963931 0.5254022
000160 77 11 97 3e ed da 19 3d b8 ab 4c be 65 7e 9a 3e
       0.29505512 0.0375623 -0.1998738 0.30174556
000170 0d 68 44 3e b1 b4 96 3e b4 43 67 3e de f7 9a be
       0.19180317 0.29434732 0.2258442 -0.30267233
000180 13 ca ff 3d 1f 24 4d be d3 33 79 3e 09 3c f4 bd
       0.124897145 -0.2003331 0.24336176 -0.11925513
000190 ec 8d 0d bf 8f 26 cf bc 3e 57 0e be b2 5e db bd
       -0.5529468 -0.02528694 -0.13900468 -0.10711421
0001a0 a3 5d 4c 3e 8c 16 0f 3b de 8f dc 3e 43 0b 12 3e
       0.19957595 0.0021833507 0.43078512 0.14262109
0001b0 0c 97 34 3e 04 ec 2e 3f d0 af 28 bf 94 c3 4f bf
       0.17635745 0.6832888 -0.6589327 -0.81157804
0001c0 4b a1 82 be f6 72 33 3f 36 fb a5 3e d5 54 79 3c
       -0.25513682 0.7009729 0.3241822 0.015217979
0001d0 0e 43 14 3f 93 b6 50 3e c4 6b 32 3d 88 c3 c0 bd
       0.5791482 0.20382147 0.043559805 -0.094122946
0001e0 ec 1e 55 3e fb 09 fa be ad 15 cd 3e 12 38 df 3e
       0.20812577 -0.4883574 0.400556 0.43597466
0001f0 bc ed 3b 3d 5e 7a 65 be 2a e0 89 be 31 a3 f5 bd
       0.045881018 -0.2240996 -0.26928836 -0.11994017
000200 d7 22 a2 bd 7f c7 9e 3e 78 10 25 bf b8 f2 74 be
       -0.079168014 0.31011578 -0.64478254 -0.23920715
000210 25 be 2b bd d9 40 9b 3b 2f c3 08 bf c9 b0 66 bf
       -0.041929383 0.004737955 -0.53422827 -0.901135
000220 d6 f7 ed 3d c7 64 15 3e a5 a3 f6 3e a5 ab 88 3e
       0.116195366 0.14589225 0.48171726 0.26693454
000230 40 c6 fc 3e 5a 1e aa bc 3f 00 31 bf 67 0b ac bd
       0.49370003 -0.020766426 -0.69141 -0.08400612
000240 ed 0c 01 bd bc 95 1d 3f b9 a6 ae 3e 96 a6 50 3f
       -0.031506468 0.615566 0.34111574 0.8150419
000250 83 90 02 be 02 10 a2 3d 74 a6 1d be 7e 22 f4 be
       -0.1275044 0.079132095 -0.15395528 -0.47682565
000260 27 8b 1f 3f 52 75 13 3f 7c 17 51 3f 50 da 81 3e
       0.62321705 0.5760089 0.8167646 0.25361872
000270 ee 06 93 3d da 35 c5 3e 4d 14 cc 3e 72 7e 23 bf
       0.07179056 0.38517648 0.39859238 -0.63864815
000280 88 c3 c5 3e 5a 76 b7 be 62 27 b8 3e e1 d1 d6 3e
       0.3862574 -0.35832483 0.35967547 0.41957
000290 15 95 3f bf ea d4 ba 3d da 42 cf 3d 1e 84 71 3f
       -0.74836856 0.091226414 0.10120173 0.9434222
0002a0 2c 15 1c 3e 3b 2a 48 3e 67 0b 0a 3f ef 0e e9 be
       0.15242451 0.1954736 0.5392365 -0.45519206
0002b0 f5 47 c6 be 13 3f 32 3f c7 8e 8e 3e 69 30 a9 3f
       -0.38726774 0.69627494 0.27843305 1.3217899
0002c0 f3 9f c1 3e 42 ff ee 3e ff ec 52 3e 41 3a cf 3e
       0.37817344 0.4667912 0.2059822 0.40474132
0002d0 05 c8 3c bf 16 7a 3c be 96 fa 04 3f e7 93 09 3e
       -0.73742706 -0.18405947 0.51944864 0.13435327
0002e0 40 ff db be 15 84 45 3f c6 af ee bc 0d 68 02 bf
       -0.42968178 0.77154666 -0.02913655 -0.5094002
0002f0 7e 9e 5c 3f e7 b1 30 bd 3d 7e d3 3e ab 26 1b 3e
       0.8617934 -0.04313841 0.4130725 0.1515147
000300 0a 85 bc bd 18 9b 06 3e 36 a0 45 3e d6 9b ff be
       -0.09205063 0.13145101 0.19299397 -0.4992358
000310 2e b4 08 3f 97 13 ce bd ad a2 54 3f 65 81 be 3e
       0.5339993 -0.1006233 0.83060724 0.37208095
000320 59 c3 54 be d0 dc bd 3e b2 d7 80 3e 5d 6b 93 be
       -0.20777644 0.3708253 0.25164562 -0.2879285
000330 43 a2 99 3e d5 aa 40 bc 9c b7 01 3f 70 e3 07 bf
       0.30006608 -0.0117594795 0.5067079 -0.5308142
000340 f7 1e 9e 3f 96 af a9 3e 0f 2a 9d 3d c4 28 d0 3d
       1.23532 0.33141774 0.07674038 0.101640254
000350 8d 22 b4 3e 8c 32 6b 3e 4e 56 2e 3e 9e ac b1 3e
       0.3518261 0.22968501 0.1702511 0.3470201
000360 1b ab cf bc 67 c1 25 3f 50 6c 8c 3f 38 ba 52 be
       -0.025350144 0.64748234 1.0970554 -0.2057885
000370 f7 56 b6 3e a1 b4 04 3d 21 14 7e bd c4 0f 3e be
       0.35613224 0.032398824 -0.062030915 -0.18560702
000380 c3 4d 74 3f 73 32 aa 3e 5a c0 88 3e 5d 90 dd 3e
       0.95431155 0.33241615 0.26709253 0.43274203
000390 e1 be 0e bd de ea 2d 3f 6c 78 c1 bd 1d 36 00 3e
       -0.034850005 0.67936504 -0.09446797 0.12520643
0003a0 ba b6 8f 3e ee 47 09 bf 67 c7 ab be d0 f2 9b bf
       0.28069097 -0.5362538 -0.3355057 -1.2183475
0003b0 e3 b9 67 3e 5d cd d2 3e 2b c2 d3 be a8 2e 4d 3f
       0.22629504 0.41172305 -0.41359076 0.80149317
0003c0 cb 65 74 3f 4d df fe be f0 32 cb be c7 ba ad be
       0.95467824 -0.4977974 -0.396873 -0.33931562
0003d0 e3 6d 10 3f 21 c2 c7 be df 07 ea be 68 0c 40 bf
       0.56417674 -0.39015296 -0.4570913 -0.7501893
0003e0 c6 dc 98 bd a3 5d 83 bf 72 69 27 bd 16 97 f7 3e
       -0.07463984 -1.0262951 -0.040872045 0.48357457
0003f0 5c 01 88 3e 37 01 7b 3f 5b 83 59 3f 02 f6 f5 bc
       0.26563537 0.9804873 0.8496606 -0.030024532

mem_LSTM.weight_hh_l0 f4 [256, 64]
000000 73 d6 95 bd 55 52 48 3e 42 b4 db bd 24 e3 5e be
       -0.073162936 0.19562657 -0.10727741 -0.21766335
000010 f4 f5 6f be f9 92 8d be 4b e5 6f 3e b3 b3 8c 3f
       -0.23433667 -0.27651194 0.23427312 1.099234
000020 be ab 07 3f 6b b1 18 be ad 0e a0 bd a4 95 c2 bd
       0.5299643 -0.1491143 -0.07815299 -0.09501198
000030 ec c5 82 3e a8 cb 23 3f 8c 7a 70 be d5 48 ed bd
       0.25541627 0.6398263 -0.23484248 -0.11586157
000040 3f 42 43 3e f6 08 aa bd f8 f4 d3 3c 90 2c 5f be
       0.1906824 -0.083024904 0.025873646 -0.21794343
000050 65 01 b1 3d a4 65 07 3c bf 8e a8 3e 09 f1 8c be
       0.08642844 0.008263979 0.32921407 -0.27527645
000060 6c 19 f2 bc d4 47 37 3e 8d 0f 4e 3c fa 85 7f 3e
       -0.029553138 0.17898494 0.01257695 0.24953452
000070 52 41 ff 3e 55 75 4c bf 05 b8 0c 3e 64 ea 8a be
       0.49854523 -0.79866534 0.13742073 -0.2713195
000080 0b ba 1a bf 1c 71 46 3e 87 27 a3 3e a8 79 00 3d
       -0.6044013 0.19379085 0.31866094 0.03136602
000090 4c 32 23 3d ec 3c 1f bf fa a9 f6 3e 5b fe 02 3f
       0.03984289 -0.62202334 0.48176557 0.51169366
0000a0 57 b7 9e be 53 e8 cf be d6 47 3f 3e 9a 6c 80 3f
       -0.30999252 -0.40606937 0.18679747 1.0033143
0000b0 5e 3c 9e be 34 a2 b6 3e 8c 04 b4 be 93 eb bd be
       -0.30905432 0.35670626 -0.3515972 -0.3709379
0000c0 ca 42 f0 3c 6c d5 10 bf ee 1b f7 3d 3d 1b 6d 3f
       0.029328723 -0.56575656 0.12065874 0.9261969
0000d0 bc 5e ac 3e a1 40 eb 3c c1 d1 7c 3d a5 d5 31 3c
       0.33666027 0.02871734 0.061723474 0.0108541595
0000e0 82 a6 ab 3d ac 6f bd 3e 36 02 1f bc 72 04 ac bd
       0.08381368 0.3699926 -0.009705117 -0.083992854
0000f0 ee 0c 89 3e 82 80 16 3f bf 13 95 be 3e 7d b9 be
       0.26767677 0.5878984 -0.29116628 -0.36228365
000100 c5 b3 95 3d a9 3d 20 3f 33 ad 08 3f 8e 61 27 3d
       0.07309679 0.62594086 0.5338928 0.04086452
000110 e8 b7 83 3e 93 38 cc bd 31 23 ea be 0e ad c8 3d
       0.25726247 -0.09971728 -0.45729974 0.097986326
000120 22 74 86 ba 27 64 7e be 73 65 46 be 96 2d 2b be
       -0.0010257999 -0.24842893 -0.19374637 -0.16716608
000130 5a fe a6 3c 93 45 1d be c5 fa 97 be 49 ce 0c be
       0.020384956 -0.15358572 -0.2968351 -0.13750567
000140 9b e7 83 be f3 82 db 3e 21 31 9e be 80 53 40 3c
       -0.25762638 0.42873344 -0.30896857 0.011738658
000150 3c 5e 82 bd b0 0a 50 bf 97 ae 66 3b 30 8b 87 be
       -0.0636563 -0.8126631 0.0035199278 -0.2647338
000160 12 33 d1 bd 08 0b 94 3e d4 c2 c9 3e 4a de 25 bd
       -0.10214819 0.28914666 0.39406455 -0.040495194
000170 bc 6a 28 3e d1 15 6f bd 41 1e 95 bd 3e 11 cc 3e
       0.16446966 -0.058370415 -0.07281161 0.39856905
000180 1b c8 d2 be 88 1d 09 bf 1b 31 02 bf 72 9f c4 3d
       -0.41168293 -0.53560686 -0.5085618 0.09600724
000190 4c df 4b 3d 42 b6 22 3e 4d 97 0a be a5 75 4a 3d
       0.0497735 0.15889838 -0.13534279 0.0494286
0001a0 44 d1 f2 bb c5 7e 21 3e 8a ec 36 3e 05 74 0d 3c
       -0.0074102003 0.15771015 0.1786367 0.008633618
0001b0 f9 ce 58 be 37 52 cf be ed 27 17 be b0 20 e5 3e
       -0.21172704 -0.40492412 -0.14761324 0.447515
0001c0 29 b0 0b bf a5 4b a0 3e 52 56 88 3d ff 9c 55 3f
       -0.54565674 0.31307712 0.06657089 0.8344268
0001d0 00 17 a8 be 9b 61 14 3f 3c 2d b4 b8 52 33 66 bf
       -0.32830048 0.57961434 -8.5914944e-05 -0.8992206
0001e0 58 dd 1d be 12 5a ff 3e 7f 39 84 3d 01 03 fb 3e
       -0.15416467 0.49873406 0.06456279 0.4902573
0001f0 39 9d c8 3e 8f 5b a9 3d 8c b7 59 be fd bb 3d 3f
       0.3918245 0.082694165 -0.21261424 0.7411497
000200 5c 44 2f 3f 45 1c 30 bc 87 11 70 be 1a b3 36 bf
       0.68463683 -0.0107489275 -0.23444186 -0.7136704
000210 46 7e 33 3c 98 7e 0d 3e d8 aa ec 3e 2d ee b5 3d
       0.010955399 0.13817823 0.46224093 0.08883319
000220 14 f3 35 bd 25 36 0a be f4 bd 71 3d 3e 6d 32 3e
       -0.04442127 -0.13497217 0.059019044 0.17424485
000230 99 3b 1e bf ec 17 66 bd 07 90 62 bf c6 56 4a be
       -0.6180969 -0.056175157 -0.8850102 -0.19759664
000240 5f b0 11 bf a4 50 9b be 62 7e 06 3c af c2 3e be
       -0.56909746 -0.3033496 0.008208843 -0.18628953
000250 d2 54 92 be 6f 83 35 bf 08 3b 0b 3f 88 d5 32 bd
       -0.28580338 -0.70903677 0.5438695 -0.04366067
000260 4f 83 0b 3f 33 56 f8 3e 90 60 05 3e 33 62 44 3d
       0.54497236 0.48503265 0.13025117 0.047945213
000270 5d e5 be 3e c4 e8 f1 3c d1 ef 15 be a8 5b 01 3b
       0.37284365 0.029529937 -0.14642264 0.001973847
000280 11 3f 3b bf 22 0c 40 be 73 32 b6 3d 8b 62 53 3e
       -0.73143107 -0.18754628 0.08896341 0.2064306
000290 0b ea 4f 3f 8a d9 d9 3d ac 9c 1a bf 04 fe 3a 3e
       0.81216496 0.106371954 -0.6039531 0.18260962
0002a0 47 ad 6c be a9 df 53 be 6f 79 93 3e 34 3d 6b be
       -0.23112975 -0.20690788 0.28803584 -0.22972566
0002b0 99 e4 9c 3e 50 d3 6f bd 5f 84 f7 3e f7 68 41 3d
       0.30643156 -0.058551133 0.4834318 0.047219243
0002c0 ca 9e 77 be 0d 6f 0b 3e 66 f4 e5 bd e4 e9 77 3e
       -0.24181667 0.13616581 -0.11228256 0.24210316
0002d0 d5 81 01 3e ca f2 9e 3e f4 4e d1 3e 03 6d 0c bf
       0.12647183 0.31044608 0.4088055 -0.5485384
0002e0 56 99 7f 3f 55 74 c5 3e 0d f9 04 3d 04 1b 82 be
       0.9984335 0.38565317 0.032464076 -0.25411236
0002f0 d6 84 2c 3f f1 0c 08 3f 1f a9 ba be a9 fe 12 3f
       0.6739019 0.53144747 -0.36457154 0.5741983
000300 69 a0 b7 3e 70 57 38 bf 1e 42 13 3f 38 d7 05 3f
       0.3586457 -0.7200842 0.5752276 0.5228152
000310 28 df f6 bd 8f 39 05 bd 85 17 b6 3e bb ca 13 3e
       -0.120542824 -0.032525595 0.3556482 0.14432804
000320 64 4b 0b be 40 16 c2 be 93 3c 46 bd 4b 87 d6 be
       -0.13602978 -0.379076 -0.04839761 -0.41900095
000330 bf 16 aa bd 74 6f 7d 3e 94 d6 a8 bc 25 64 64 3f
       -0.0830512 0.24749547 -0.020610131 0.8921531
000340 e7 c6 b7 be 24 bb b1 3d 09 28 db bd 86 c6 68 bf
       -0.35893938 0.08678272 -0.107009955 -0.9092792
000350 cc 96 2f bf e7 d2 ab be 41 ca 4f be 6a b1 04 3f
       -0.6858947 -0.33559343 -0.20291997 0.5183321
000360 cf 92 d6 3e 27 62 e4 3e fb 7a 37 be 74 56 82 bf
       0.4190888 0.44606134 -0.17918007 -1.0182633
000370 2f 5c dd 3e c5 10 2a be 3c fe d9 be ce 14 23 3f
       0.43234393 -0.1660796 -0.42576778 0.6370362
000380 b9 aa f1 be be f9 84 be d3 34 17 3e 4b fd a2 be
       -0.47200564 -0.25971788 0.14766245 -0.31833872
000390 f3 42 ab 3e 60 5a 0e bf 52 65 64 bc a8 8a d6 3e
       0.33449516 -0.5560665 -0.013940172 0.4190266
0003a0 d4 68 d6 bd 78 6c e6 bd 34 1f e1 3e 47 b6 0b 3c
       -0.10469213 -0.112511575 0.4396912 0.008527345
0003b0 93 d9 3d 3f 66 2e 8c 3d 42 b8 9d 3e 0a cd 3a be
       0.74160117 0.06844787 0.3080464 -0.18242279
0003c0 1a 2a 16 3c 77 48 49 be a0 45 4c bf 98 2c 87 3e
       0.009165311 -0.1965655 -0.7979374 0.2640121
0003d0 ad 45 72 be 5a ed a8 be 75 6e 00 3f 61 eb b9 3e
       -0.23659392 -0.32993585 0.50168544 0.36312392
0003e0 1d 28 f9 3e db b3 17 bf e0 29 36 be 24 33 34 3f
       0.48663417 -0.5925881 -0.17789412 0.70390534
0003f0 03 83 bb 3e b0 c9 11 3f 6f b7 1a bf 64 5f f9 bd
       0.36623392 0.56948376 -0.6043615 -0.121763974

mem_LSTM.bias_ih_l0 f4 [256]
000000 07 3b da 3d e7 b3 35 3e c8 32 4e 3e a6 4d 37 bb
       0.1065579 0.17744409 0.20136559 -0.0027969866
000010 2c 39 7c 3e 15 19 af be 82 b1 fe bc fe 72 ce 3e
       0.24631184 -0.34198824 -0.031090502 0.40322107
000020 1c 4f 3a 3c 91 34 79 3e ca ed 92 be 60 73 f6 bc
       0.0113714 0.24336459 -0.28697044 -0.030084312
000030 b6 ad 09 bc 59 16 77 bd 83 47 45 be 32 23 f6 bd
       -0.008403232 -0.060324047 -0.19265561 -0.12018432
000040 7d ed 58 bd 86 72 0e be 29 dc e7 bd 5a 9a d1 3e
       -0.05296086 -0.13910875 -0.11321289 0.40938073
000050 c5 2f 61 3e 6d 0f 54 3e c9 97 20 be 1a cc 71 3e
       0.21990879 0.2070901 -0.15682901 0.23613015
000060 ee 01 80 ba 55 f5 91 be c2 45 f8 bd 19 d3 2a be
       -0.00097662 -0.28507486 -0.1212268 -0.1668209
000070 86 d9 7d 3e bd 99 7f 3e 16 b8 99 3e ce ab 46 bd
       0.2479001 0.2496099 0.3002326 -0.04850369
000080 b0 80 3e 3d ca d6 3b be 7d 6c 86 3d ed a6 22 3d
       0.046509445 -0.18343654 0.06563661 0.039709974
000090 38 b8 0f 3d f9 f8 a2 3e 37 19 93 3e 9c fb 90 bd
       0.035087794 0.31830576 0.28730175 -0.07079241
0000a0 3a 6f af bd b1 ae c5 3d 3d 48 b5 3c e5 15 83 bd
       -0.08566137 0.0965246 0.022129172 -0.064006604
0000b0 d3 bf 64 be f4 32 ec 3e 00 fa e2 bc 16 48 f4 bd
       -0.223388 0.46132624 -0.0277071 -0.11927812
0000c0 3d d4 aa bd 43 9d 2f be 84 f5 42 3e 40 ee 68 3d
       -0.083412625 -0.17149834 0.1903897 0.056867838
0000d0 b5 ae 4e be 8e b5 33 3d 0f ca 31 be ef 83 ed bb
       -0.20183833 0.043874316 -0.17362235 -0.0072483937
0000e0 84 2a e8 bd ee 33 19 bd 31 b9 38 3e 97 80 b4 3e
       -0.11336234 -0.03740304 0.18039395 0.35254356
0000f0 50 9e e0 3c 21 13 25 3e b1 30 00 3e 6d f8 54 bd
       0.02741924 0.16120578 0.12518574 -0.05199473
000100 51 da 6f be 59 9d 59 be 37 ef d4 3d 42 78 85 3e
       -0.23423125 -0.2125143 0.10397189 0.26068312
000110 2e 59 c7 bd 5b fa 99 be 0c 26 70 3e ae 95 00 3d
       -0.097338066 -0.3007382 0.23452014 0.031392746
000120 d1 67 14 3d 95 25 8d 3d 44 a1 75 be e3 50 98 3c
       0.03623182 0.06891934 -0.23987299 0.018593257
000130 2f 24 e2 3d 9b f8 b0 be d7 f4 4a be 95 7f 4f be
       0.11042058 -0.3456467 -0.19819961 -0.20263512
000140 f9 20 0c 3e 30 a7 05 3e 73 32 1c bd a1 59 25 3e
       0.13684453 0.13052058 -0.03813405 0.16147472
000150 7a 53 2f 3d c7 c1 6a 3e 4b 90 5c be 4e 7c 0e 3e
       0.04280422 0.22925483 -0.21539418 0.13914606
000160 45 00 43 be b7 f6 60 3e 82 8c 72 3e 1c ca d7 bc
       -0.19043072 0.21969114 0.23686412 -0.02634149
000170 ef 46 32 3d 69 8c b9 bd e6 26 39 bc c4 e5 8d bd
       0.04352468 -0.09059984 -0.011300778 -0.0692859
000180 59 97 21 bd 63 28 95 3d e3 e1 a2 be 23 e5 19 be
       -0.039450977 0.07283094 -0.31812963 -0.15028815
000190 bf 08 1f bd 1a 09 cc 3d 1e 31 19 3e 34 41 70 bd
       -0.0388267 0.099626735 0.14960143 -0.058655933
0001a0 67 45 1b be 91 2f 59 be e2 02 0d bd d0 c6 35 3e
       -0.15163194 -0.21209551 -0.034426577 0.17751622
0001b0 73 ff 85 be ca 02 60 3e e0 5d dd be 5e 5f cd 3c
       -0.26171455 0.21876064 -0.43235683 0.025069889
0001c0 14 b8 5c 3d e0 92 c8 bd 19 3b ad 3c b3 b5 07 3e
       0.053886488 -0.09793639 0.021146344 0.13252907
0001d0 44 03 e0 bd f9 c7 42 bc 44 cd 5c 3e b4 a8 0c 3e
       -0.10938123 -0.0118884975 0.21562678 0.1373623
0001e0 e8 11 18 3e 7d 9c b4 3d 8c e9 af bd a1 cd 78 3e
       0.1485058 0.0881891 -0.085894674 0.24297191
0001f0 75 f3 81 3e c4 de c0 3e 4b 8c 88 3e a0 e1 51 be
       0.25381055 0.37669957 0.26669535 -0.20496225
000200 5e b7 27 be 54 8c 10 3e 90 d1 2a bb 04 17 9f bd
       -0.16378543 0.14116031 -0.002606485 -0.07768062
000210 dd cf db bc a6 5a 8a bd 53 16 5e 3e 49 5a 8f 3e
       -0.026832515 -0.06755571 0.21688204 0.2799857
000220 37 34 6c be a3 f2 70 3d 7a 43 d0 bd 3e e7 4e bc
       -0.23066793 0.058825146 -0.1016912 -0.012628375
000230 a5 91 c3 3e ca ba 13 bc 38 45 4b bd b6 16 80 3b
       0.38197055 -0.009016702 -0.04962656 0.0039089574
000240 a0 7e 99 3e 35 a4 a8 bc ab d3 bd bc bc 35 7a 3e
       0.2997942 -0.020586113 -0.02317222 0.2443456
000250 2b 5e 38 3e 9f cd 5f bd 0a c7 e8 bc 80 a3 26 3e
       0.18004672 -0.054639455 -0.028415222 0.16273308
000260 f1 de 19 bd ed e0 21 3e 7d 67 1d bd 2a 91 76 3e
       -0.03756613 0.15808459 -0.038428772 0.24078813
000270 f1 4e c3 3d 62 e4 f2 3d 75 54 b2 3d 5b 43 8d 3d
       0.09536541 0.11859967 0.08707515 0.06897613
000280 04 53 e0 bd d2 bf 83 3e c7 36 02 3d 2a db 31 3c
       -0.10953334 0.25732285 0.03179052 0.010855475
000290 7d fc f9 3c f0 79 32 be e9 d5 df 3d f8 c1 5f be
       0.030515904 -0.17429328 0.10929472 -0.21851337
0002a0 03 b3 ed bc 45 f6 0b 3d 3b 52 8a 3c a6 7a 08 3e
       -0.029016024 0.034170408 0.016884914 0.13328037
0002b0 01 76 88 3d 19 35 7e be 2f 67 4d bb de 91 1b 3d
       0.066631325 -0.24824943 -0.003134202 0.037980907
0002c0 b4 16 c3 be 5e 24 5c 3e 63 85 c1 3d 43 b4 d2 bd
       -0.3810326 0.21498248 0.094492696 -0.102882884
0002d0 d1 0a 63 be c6 e8 66 3e 99 ee 95 3d 7d 9a 5b 3e
       -0.22172095 0.22549734 0.073208995 0.21445651
0002e0 9f 06 de bc ab 4c af bd b0 18 42 3e 67 40 85 3e
       -0.027102767 -0.08559545 0.1895473 0.26025698
0002f0 3d 79 a8 3e b2 f8 8e be e6 80 8d be 29 78 b1 be
       0.32904997 -0.27924114 -0.27637404 -0.34661987
000300 ed a5 72 be 4e 7a b3 bd f7 9e 0b 3d e2 a9 f3 3d
       -0.23696108 -0.08763562 0.034087148 0.11897637
000310 97 6a bd 3e 0b 32 85 be 5e 68 98 be f9 7c 4e be
       0.36995384 -0.26014742 -0.29767126 -0.20164861
000320 f0 6a 1d be 2f e0 61 bc 45 70 38 bd 7d 38 62 bd
       -0.15372825 -0.01378636 -0.045028944 -0.055229653
000330 49 de 01 3e 2b ce 81 3e 6b 43 22 3e 5d 01 25 3e
       0.12682451 0.25352606 0.1584603 0.16113801
000340 97 91 b9 bd 4e 16 6b be 4b a6 82 3e 1d a0 9f 3e
       -0.09060972 -0.22957727 0.25517496 0.31176844
000350 99 54 1f 3e ad eb bb 3c a5 7f 7e 3d 86 05 8c 3e
       0.15559615 0.022939527 0.06213345 0.27347964
000360 41 13 a5 3c 4d 67 36 3d e5 0b cb 3e d8 0c 52 be
       0.020150783 0.04453211 0.39657512 -0.20512712
000370 f7 fa 24 3e 03 b3 39 bb 25 97 2c be 80 21 73 bc
       0.1611136 -0.002833546 -0.16854532 -0.01483953
000380 34 58 27 3e 77 e8 6f bd c6 a5 cd bd a9 47 04 3e
       0.1634224 -0.058571305 -0.100413844 0.12917961
000390 b8 58 92 3c 53 bd c7 ba 39 81 01 bd 55 c9 0b 3e
       0.01786457 -0.0015238918 -0.031617377 0.13651021
0003a0 3b bb 5d bd 7d ed 12 3d a8 42 d4 3e 25 71 2e 3e
       -0.054133635 0.035871018 0.41457105 0.17035349
0003b0 a2 e2 16 3e 39 0c 16 3e 6a ce 81 bd a2 9a 15 be
       0.14734891 0.146531 -0.063381985 -0.14609769
0003c0 83 ab 33 bd 8b c1 4a be b5 a2 b3 3e 68 a1 55 bc
       -0.04386474 -0.19800393 0.35085073 -0.0130389705
0003d0 f4 8b b0 bd 5e 55 87 bd d2 1a c3 3d 1d d4 2c 3e
       -0.08620444 -0.066080794 0.095266 0.1687779
0003e0 38 95 ac bd d2 63 ab 3d 59 54 9b 3d df 4a c9 3d
       -0.08426899 0.083686486 0.075844474 0.09828734
0003f0 f5 dc 26 3e a7 f0 d9 3e bd 83 9a 3e 55 60 8f 3d
       0.16295226 0.42566416 0.30178633 0.07000796
