current_algos/LSTM_TD3/LSTM_TD3_Agent_critic_weights.pth (torch, 427715 bytes, 26 tensors)

curr_fe_dense1_q1.weight f4 [64, 51]
0.0038094164 -0.023301875 0.09397152 -4.52825 -0.013560308 0.013215975 -0.014813697 -0.015840799
-0.013392596 -0.022127258 0.030727873 0.015220311 0.03222711 -0.029196944 0.019732453 -1.4346813
0.028946161 0.031040844 -0.01604095 -0.001022107 0.021197254 0.024998477 0.03798903 0.02306337
-0.0035056404 -0.03421296 0.060320936 0.15913874 0.008624871 0.018885419 0.019464707 -0.014472147
-0.0070892214 0.003624037 0.04116105 0.009593931 -0.00093528995 -0.007642602 -0.023380494 -0.21956576
0.09141098 0.049587063 -0.02016017 -0.022298886 -0.0037630012 0.03342613 0.07801675 0.042519208
-0.011357739 -0.04144026 -0.011249473 0.0034858834 0.061269574 -0.082341425 0.026800165 0.06986434
0.009314806 0.04184336 0.0016007917 -6.0821333 -0.14565177 -0.14001796 -0.045671925 -0.03592048
0.015175775 -0.01104656 0.011922732 -0.027463185 -0.017517624 -0.025268506 -0.023691466 0.905351
-0.017352581 0.0036685 0.0042843344 -0.017861487 -0.011501684 0.0121029485 0.027617149 0.060291704
0.020151604 -0.013204109 0.007740942 -0.13437416 -0.052250635 -0.083894685 -0.004133711 -0.045772534
0.025424864 -0.018033357 0.02633817 -0.008500344 0.057410527 0.034930266 0.020751657 -0.066787034
-0.013191151 -0.052729607 0.014884622 -0.020498259 -0.05506861 0.008225625 0.018267853 0.13217805
-0.1281143 0.7118599 0.7800866 0.41222164 0.23658535 -0.10134458 0.27131844 0.030892989
-0.050568268 0.14635079 0.08470384 0.23693602 -0.1678525 -0.59551233 -0.6159551 0.06416413
0.19811869 0.00040131022 0.11068305 0.15522386 -0.06864265 0.116663136 0.051549416 0.08460861
-0.36100334 -0.32887813 -0.2166357 0.04106983 -0.087218955 -0.05976234 0.02045802 -0.14982936
-0.12836619 0.00023598819 0.18701869 0.056191385 -0.108698145 0.13517426 -0.379883 -0.42428902
-0.0746706 0.2318012 -0.013987003 0.042463433 -0.20092204 -0.03300288 0.16549341 0.12077591
-0.017720077 -0.00035570114 -0.21155818 0.0638519 0.07415188 0.15463738 -0.037219092 -0.037038527
0.016499156 0.13142167 -0.84110683 -0.8254417 -0.3781891 -0.05460175 -0.04541857 0.1053929
0.22419396 0.07680488 -0.010637293 0.061262097 0.03808584 -0.1415573 -0.17938212 -0.18311693
-0.065472126 -0.08497217 -0.040936176 0.17630193 0.3346387 0.2970856 -0.09241534 -0.12609838
-0.10960961 -0.04991297 -0.2160118 -0.44426656 -0.29809022 0.00080812984 0.05662317 0.050078794
0.31130347 0.17576587 0.103315495 0.071080856 0.07793775 0.09782002 0.14048322 -0.14716122
-0.06314173 -0.19250615 -0.14734454 0.00723181 -0.03798201 0.032624234 -0.18618095 -0.25118026
-0.18420166 -0.091848396 0.019009493 0.052779812 0.029167073 0.41804463 0.3946201 0.37407735
0.08149937 0.044431888 -0.22159676 0.07728259 -0.74570227 0.027562832 -0.16988833 -0.16071899
0.4756096 0.33128884 0.2248823 0.2853291 -0.3287654 -0.15383236 0.20086034 0.4630218
0.5397292 0.10513124 -0.08871109 0.04501238 0.22023478 0.23865786 -0.14233753 -0.2997425
-0.3948662 -0.18715477 -0.12770295 -0.59049433 -0.014009593 -0.076301 0.03126676 0.0030641437
0.26206228 0.19030839 -0.05269126 0.06620323 0.2537788 0.049920715 -0.025659837 -0.025219508
00000000: 67a7 793b 93e3 bebc 2474 c03d 6de7 90c0
00000010: 0e2c 5ebc d187 583c 26b5 72bc 90c4 81bc
00000020: 9e6c 5bbc 3944 b5bc 05b9 fb3c 9c5e 793c
00000030: 9300 043d 6e2e efbc f4a5 a13c a3a3 b7bf
00000040: 8020 ed3c 5e49 fe3c 4f68 83bc 38f8 85ba
00000050: dda5 ad3c 9bc9 cc3c 639a 1b3d 64ef bc3c
00000060: e3be 65bb e422 0cbd 1613 773d 44f5 223e
00000070: 554f 0d3c 98b5 9a3c 7374 9f3c 961c 6dbc
00000080: b34c e8bb 4081 6d3b 7d98 283d dd2f 1d3c
00000090: 3f2e 75ba cb6e fabb 7388 bfbc d9d5 60be
000000a0: ae35 bb3d ce1b 4b3d f126 a5bc 27ac b6bc
000000b0: af9c 76bb d6e9 083d 3fc7 9f3d 9f28 2e3d
000000c0: cf15 3abc 43bd 29bd b64f 38bc 6b73 643b
000000d0: cef5 7a3d 9fa2 a8bd 058c db3c 0915 8f3d
000000e0: 219d 183c f163 2b3d a8d1 d13a d6a0 c2c0
000000f0: bd25 15be de60 0fbe 7c12 3bbd 5a21 13bd
00000100: d0a3 783c a1fc 34bc 9057 433c 79fa e0bc
00000110: 1f81 8fbc e6ff cebc 9b14 c2bc 15c5 673f
00000120: 0027 8ebc 386b 703b 9a63 8c3b 4152 92bc
00000130: 8f71 3cbc 724b 463c 5c3d e23c 6ff4 763d
00000140: fa14 a53c 0c56 58bc baa7 fd3b 6199 09be
00000150: c304 56bd fad0 abbd 1574 87bb fb7b 3bbd
00000160: ce47 d03c b1ba 93bc 25c3 d73c 0745 0bbc
00000170: 4d27 6b3d 0a13 0f3d 61ff a93c a4c7 88bd
00000180: b31f 58bc 00fb 57bd a1de 733c f7eb a7bc
00000190: 9f8f 61bd c6c4 063c 77a6 953c af59 073e
000001a0: 6530 03be 733c 363f c1b3 473f b70e d33e
000001b0: 6e43 723e bf8d cfbd 40ea 8a3e 4b13 fd3c
000001c0: ac20 4fbd fbdc 153e 3579 ad3d 5b9f 723e
000001d0: 87e1 2bbe 7f73 18bf 3caf 1dbf 7c68 833d
000001e0: a0df 4a3e f266 d239 cbad e23d 01f3 1e3e
000001f0: 8594 8cbd 15ed ee3d 7b25 533d 4747 ad3d
00000200: 6ed5 b8be b762 a8be c0d5 5dbe d738 283d
00000210: da9f b2bd 5bc9 74bd 9497 a73c de6c 19be
00000220: 6d72 03be 9973 7739 d481 3f3e f028 663d
00000230: 229d debd 1f6b 0a3e 0680 c2be 693c d9be
00000240: e6ec 98bd 4b5d 6d3e be29 65bc 23ee 2d3d
00000250: 82be 4dbe 072e 07bd 1b77 293e 5c59 f73d
00000260: b229 91bc 667d bab9 b5a2 58be c9c4 823d
00000270: f1dc 973d 4359 1e3e 0c73 18bd b6b5 17bd
00000280: 3d29 873c 6793 063e c752 57bf 2650 53bf
00000290: 00a2 c1be 16a6 5fbd d308 3abd 3cd8 d73d
000002a0: 1a93 653e e04b 9d3d 0a48 2ebc f7ed 7a3d
000002b0: e6ff 1b3d 66f4 10be f2af 37be 0183 3bbe
000002c0: 4016 86bd e405 aebd b1ac 27bd 7e88 343e
000002d0: c455 ab3e 9b1b 983e 4144 bdbd ef1f 01be
000002e0: 017b e0bd 8b71 4cbd 3332 5dbe e876 e3be
000002f0: 489f 98be add8 533a b2ed 673d 6c1f 4d3d
00000300: 2b63 9f3e f8fb 333e 1397 d33d d792 913d
00000310: d49d 9f3d dd55 c83d d5da 0f3e 6eb1 16be
00000320: 7450 81bd 5520 45be 7de1 16be d2f8 ec3b
00000330: 0693 1bbd fda0 053d 38a6 3ebe b39a 80be
00000340: 5c9f 3cbe 031b bcbd ccb9 9b3c a52f 583d
00000350: c9ef ee3c f209 d63e a50b ca3e 1187 bf3e
00000360: 24e9 a63d 36fe 353d 43ea 62be 5646 9e3d
00000370: 58e6 3ebf 73cb e13c 35f7 2dbe 8593 24be
00000380: 1a83 f33e b19e a93e 8c47 663e a816 923e
00000390: f053 a8be 3b86 1dbe 55ae 4d3e 3211 ed3e
000003a0: b12b 0a3f 0c4f d73d 29ae b5bd e75e 383d
000003b0: 3a85 613e ba62 743e eec0 11be d977 99be
000003c0: e72b cabe 80a5 3fbe 90c4 02be a32a 17bf
000003d0: 7e88 65bc b343 9cbd 9311 003d cdcf 483b
000003e0: 072d 863e 34e0 423e cad2 57bd 8f95 873d
000003f0: 4bef 813e aa79 4c3d 9434 d2bc 2499 cebc

curr_fe_dense1_q1.bias f4 [64]
0.21157031 0.1839422 0.14631556 -0.09530347 -0.10995415 -0.055239208 -0.3475868 0.19715385
-0.05315388 -0.112034656 0.20398468 -0.024246851 0.0056679845 0.45621896 -0.5017918 -0.29586187
-0.048773557 0.17574954 0.05206295 -0.17397419 0.045452356 0.094004296 -0.10808743 0.08277196
-0.1488553 -0.27773803 -0.012574328 -0.14464335 0.45274848 -0.04089757 -0.07062486 -0.29107058
0.13664685 -0.37446284 0.1271144 0.0665634 0.18362945 0.30835125 0.18161911 0.06622282
0.09499505 -0.009303017 0.018638946 0.08811461 -0.14579406 0.27228394 -0.3809488 0.18613058
-0.07962735 0.51226646 0.16067038 -0.08976299 -0.45843324 -0.106287815 0.113108255 0.2045494
0.23064426 0.27195644 0.06078916 0.04438684 0.1278352 -0.028565804 -0.060837958 0.12694015
00000000: e3a5 583e 585b 3c3e bfd3 153e 772e c3bd
00000010: a42f e1bd 8242 62bd e6f6 b1be b3e2 493e
00000020: e2b7 59bd 6d72 e5bd 5ce1 503e 55a1 c6bc
00000030: 80ba b93b 8895 e93e 6d75 00bf 357b 97be
00000040: c8c6 47bd b0f7 333e f63f 553d 4a26 32be
00000050: 402c 3a3d 5385 c03d f15c ddbd 5884 a93d
00000060: 866d 18be ae33 8ebe 8e04 4ebc 631d 14be
00000070: a6ce e73e 3684 27bd c4a3 90bd 3407 95be
00000080: 27ed 0b3e 98b9 bfbe 472a 023e 6452 883d
00000090: 5c09 3c3e 37e0 9d3e 5cfa 393e d49f 873d
000000a0: c48c c23d ae6b 18bc b4b0 983c 6f75 b43d
000000b0: 0a4b 15be cd68 8b3e b90b c3be 0499 3e3e
000000c0: aa13 a3bd e523 033f c786 243e a9d5 b7bd
000000d0: c3b7 eabe 6dad d9bd 4da5 e73d 6675 513e
000000e0: 022e 6c3e e03d 8b3e 0efe 783d face 353d
000000f0: 3be7 023e d502 eabc 3931 79bd 99fc 013e

curr_fe_dense2_q1.weight f4 [64, 64]
-0.10860216 -0.2005876 -0.7032706 -0.003922427 -0.09873142 -0.1350648 0.089723565 -0.11028998
0.27738997 0.11860191 -0.6131187 -0.20566684 0.092453614 0.11050135 -0.6663669 0.27399677
-0.1514964 -0.12224583 -0.21268506 -0.23140486 -0.1059249 -0.06359985 -0.63511527 -0.34890428
0.3547306 0.010897337 0.097171076 0.22002912 -0.0066574416 -0.03664263 -0.1702417 0.27976045
-0.09572643 0.26990837 0.023691976 -0.22825319 -1.1889209 0.08103175 0.3281635 0.14152022
0.10723693 0.21879874 -0.05898921 0.06269194 -0.25675917 0.031240974 -0.2966527 0.16012137
0.08586471 -0.052714378 0.15821363 0.021661926 -0.20010488 0.69697833 -0.45667374 0.5611786
-0.30552825 -0.75959444 -0.17490077 -0.37343267 -0.28206116 0.15807785 0.0730573 0.2245519
0.22339289 1.1193327 0.31949833 -0.058562525 0.21869054 0.17069536 0.47568595 -0.24886583
0.43065062 0.20541243 0.16682465 0.265815 0.11717497 -0.09361656 0.31016833 0.3808646
0.051001556 -0.11916435 -0.17217517 0.14110976 -0.04298462 0.024756992 0.05541866 0.091940545
0.36204478 0.09273172 -0.014995115 0.23222634 0.3794909 -0.05405546 -0.2766566 -0.2058436
-0.03475371 -0.08286578 0.17701331 0.2212325 0.20684236 0.18440722 0.20284629 0.6558653
0.27539134 -0.27132952 0.001958413 0.18927473 0.03322235 0.053994544 -0.14313468 0.39787933
-0.039316904 0.09025591 -0.0015567808 0.036473405 0.17502385 0.1615915 0.0005820684 1.1582582
-0.08949655 0.38363898 -0.12933384 -0.13644579 0.1300307 0.036404543 0.045409143 0.085039355
0.11698525 -0.58097965 -0.6599654 -0.3464314 0.055711024 0.12250868 0.2128936 0.00076233956
0.06675277 -0.29632968 -0.28530255 0.059008405 0.2166502 -0.13136815 -0.5949943 -0.40326527
0.07861334 0.13672042 0.062424675 0.09695496 0.12278134 -0.06429872 0.048859656 -0.12403973
0.14285049 0.07728899 -0.1999196 0.16711809 0.09111197 -0.10627207 -0.024726676 0.0044752434
0.2992883 0.26081443 0.20050709 -0.3302569 0.11911577 0.11323464 0.00413149 0.04144678
-0.61869407 -0.123014644 0.12046364 0.31549174 -0.039322194 0.16599853 0.30978885 -0.0077571315
0.05793405 0.1482212 0.31369087 -1.5018759 -0.17933902 0.3925739 0.5741473 -0.23867142
0.017675404 -0.25013855 -0.5892909 -0.48438206 -0.33775917 -0.34509307 -0.1320181 0.03408998
0.44472703 0.020970201 0.27250838 -0.0025176392 -0.041329917 -0.04349721 0.14390874 0.040849395
-0.04051001 0.15849024 -0.42719257 0.09416594 0.010440024 -0.015119193 0.14696918 -0.014628955
0.11195775 -0.08067028 -0.9086894 0.06985519 0.35992038 -0.035835963 -0.47351816 -0.43754864
0.08319332 -0.00919575 -0.08157415 0.0030272556 -0.009285486 -0.010511564 0.15995029 0.1253002
0.32251483 0.39835435 0.083538614 0.23781075 -0.12517905 0.07347199 -0.70088595 0.023440415
-0.36327052 -0.11181158 -0.034492683 0.07325183 -0.4537582 -0.024605386 0.11456311 0.013717616
0.3392773 0.06046468 -1.2148745 0.1621508 0.094280034 -0.14605062 0.053788178 1.1267298
0.018505976 0.091790244 -0.55799407 0.07847986 -0.34160015 -0.5183439 0.156247 -0.07455204
00000000: cf6a debd d666 4dbe 8b09 34bf b487 80bb
00000010: b333 cabd 6d4e 0abe fdc0 b73d b7df e1bd
00000020: 0f06 8e3e 8fe5 f23d 59f5 1cbf 549a 52be
00000030: 5258 bd3d 884e e23d 0597 2abf 4e49 8c3e
00000040: df21 1bbe 065c fabd 1dca 59be 65f5 6cbe
00000050: 27ef d8bd a340 82bd ea96 22bf 95a3 b2be
00000060: 409f b53e bf8a 323c a101 c73d 504f 613e
00000070: ab26 dabb 9516 16bd d753 2ebe c33c 8f3e
00000080: 380c c4bd 6e31 8a3e ad15 c23c 34bb 69be
00000090: 8f2e 98bf f9f3 a53d 0c05 a83e adea 103e
000000a0: 099f db3d c70c 603e ab9e 71bd a264 803d
000000b0: f075 83be 12ed ff3c dde2 97be dbf6 233e
000000c0: d6d9 af3d 08eb 57bd c102 223e 5a74 b13c
000000d0: 4be8 4cbe 2c6d 323f 24d1 e9be 67a9 0f3f
000000e0: 336e 9cbe c874 42bf 3019 33be 9132 bfbe
000000f0: 526a 90be 29df 213e 119f 953d eff0 653e
00000100: 1bc1 643e 4b46 8f3f 4995 a33e 42df 6fbd
00000110: 6af0 5f3e c4ca 2e3e 1c8d f33e afd6 7ebe
00000120: 3d7e dc3e a357 523e 15d4 2a3e e718 883e
00000130: 6ef9 ef3d 0aba bfbd 62ce 9e3e af00 c33e
00000140: 02e7 503d 700c f4bd b04e 30be 147f 103e
00000150: a410 30bd 2dcf ca3c adfe 623d 534b bc3d
00000160: ef5d b93e 21ea bd3d 12ae 75bc becc 6d3e
00000170: a24c c23e 4269 5dbd efa5 8dbe aac8 52be
00000180: e859 0ebd 89b5 a9bd fa42 353e c68a 623e
00000190: 7cce 533e 3fd5 3c3e f0b6 4f3e cae6 273f
000001a0: 1800 8d3e b4eb 8abe b858 003b 3cd1 413e
000001b0: 2914 083d 6229 5d3d e691 12be d7b6 cb3e
000001c0: c30a 21bd 17d8 b83d e50c ccba 2365 153d
000001d0: 7439 333e 3e78 253e f395 183a ce41 943f
000001e0: f849 b7bd 546c c43e 1770 04be 72b8 0bbe
000001f0: c526 053e ee1c 153d f0fe 393d 1d29 ae3d
00000200: f695 ef3d 15bb 14bf 7ef3 28bf 755f b1be
00000210: 3e31 643d d5e5 fa3d c800 5a3e bed7 473a
00000220: adb5 883d 86b8 97be 2d13 92be ccb2 713d
00000230: 8dd9 5d3e 5f85 06be 8c51 18bf c978 cebe
00000240: 0800 a13d 7000 0c3e 04b1 7f3d 5290 c63d
00000250: c874 fb3d 0caf 83bd 1021 483d 8b08 febd
00000260: 6647 123e b149 9e3d b9b7 4cbe 0121 2b3e
00000270: ea98 ba3d 2ca5 d9bd 998f cabc 10a5 923b
00000280: 513c 993e 7889 853e bb51 4d3e 6f17 a9be
00000290: f8f2 f33d 90e7 e73d 7361 873b 19c4 293d
000002a0: bc62 1ebf 1aef fbbd a4b5 f63d 2288 a13e
000002b0: 4f10 21bd 85fb 293e a59c 9e3e 892f febb
000002c0: 414c 6d3d 4cc7 173e 179c a03e 783d c0bf
000002d0: a6a4 37be 72ff c83e 51fb 123f 4866 74be
000002e0: 02cc 903c 2912 80be c5db 16bf ed00 f8be
000002f0: c5ee acbe 0ab0 b0be c12f 07be efa1 0b3d
00000300: 43b3 e33e b3c9 ab3c 3886 8b3e fafe 24bb
00000310: 8f49 29bd 212a 32bd d05c 133e b251 273d
00000320: d3ed 25bd 444b 223e fcb8 dabe 13da c03d
00000330: a20c 2b3c 7eb6 77bc 177f 163e 49ae 6fbc
00000340: 1b4a e53d 7636 a5bd de9f 68bf 3d10 8f3d
00000350: 7c47 b83e bbc8 12bd f970 f2be 6006 e0be
00000360: 4261 aa3d c5a9 16bc 5910 a7bd ec64 463b
00000370: 2722 18bc b238 2cbc 02ca 233e b24e 003e
00000380: aa20 a53e 1af5 cb3e 4b16 ab3d a984 733e
00000390: f02e 00be 7c78 963d 436d 33bf 1d06 c03c
000003a0: 98fe b9be 78fd e4bd 3348 0dbd 0e05 963d
000003b0: ff52 e8be 3c91 c9bc 10a0 ea3d dabf 603c
000003c0: c1b5 ad3e d0a9 773d 0281 9bbf dc0a 263e
000003d0: e415 c13d 4b8e 15be fe50 5c3d af38 903f
000003e0: d899 973c 86fc bb3d b3d8 0ebf 0dba a03d
000003f0: 37e6 aebe 30b2 04bf 37ff 1f3e bdae 98bd

curr_fe_dense2_q1.bias f4 [64]
0.11915871 -0.083589636 -0.08809362 -0.0053453012 0.58419603 0.11840697 -0.061075654 -0.024694838
-0.10993231 -0.13667554 -0.056351274 0.1397424 -0.0969033 0.27780747 0.2097035 0.111149125
0.00027768593 0.38934633 0.0060151024 0.20481667 0.04183465 0.03893115 0.0047981357 -0.1612293
0.13450526 0.2794085 0.14108789 0.08445051 -0.33793393 -0.24191593 0.1958972 0.026881311
0.19385113 0.111475065 -0.2330155 -0.164016 -0.15273829 -0.23796676 0.08750466 -0.035874944
0.071517035 0.07897289 -0.026166411 -0.10848212 0.030896377 -0.24064298 0.25981864 -0.007570528
-0.07206654 0.10562353 0.21710178 -0.02962786 0.09460315 0.22771621 0.060248297 -0.1326089
0.16856168 -0.00014960591 -0.022807857 -0.11395393 0.25650147 0.03567594 0.1269291 0.10788891
00000000: 7b09 f43d 0b31 abbd 6e6a b4bd a327 afbb
00000010: df8d 153f 5a7f f23d 772a 7abd d44c cabc
00000020: 3124 e1bd acf4 0bbe 98d0 66bd a218 0f3e
00000030: 3d75 c6bd c83c 8e3e 84bc 563e 27a2 e33d
00000040: 6096 9139 6758 c73e 561a c53b 76bb 513e
00000050: cf5a 2b3d 4576 1f3d ae39 9d3b 4b19 25be
00000060: bfbb 093e a20e 8f3e 5879 103e 64f4 ac3d
00000070: ad05 adbe cfb8 77be 4799 483e 3236 dc3c
00000080: e980 463e 0a4d e43d 9d9b 6ebe cff3 27be
00000090: 6d67 1cbe 8fad 73be a535 b33d 9bf1 12bd
000000a0: 8677 923d 8abc a13d f15a d6bc e02b debd
000000b0: 661a fd3c 1d6b 76be f306 853e 3112 f8bb
000000c0: 9f97 93bd 2651 d83d ee4f 5e3e 20b6 f2bc
000000d0: 4cbf c13d 702e 693e ebc6 763d a1ca 07be
000000e0: 6f9b 2c3e 88df 1cb9 8bd7 babc ae60 e9bd
000000f0: 2954 833e ef20 123d b4f9 013e dcf4 dc3d

mem_dense_q1.weight f4 [64, 50]
-0.01982875 -0.084346525 0.42295057 0.84845024 0.42405695 0.22972196 0.38202366 0.2522567
0.7226801 1.5779673 -0.17255425 0.15079972 -0.16195181 0.16932136 -0.15062484 -0.33793643
-0.34057692 0.31913793 0.13258907 -0.26030904 -0.1973022 -0.1039137 -0.12440428 0.18225434
-0.21184826 0.16610251 -0.4024795 0.14759527 0.31097442 -0.12966931 -0.47546682 -0.04129345
-0.005908869 0.097778484 -0.15330464 -0.2936309 -0.64273214 -0.017726779 -0.08434859 -0.016666608
-0.07181303 -0.0071644513 -0.051645014 0.3650602 -0.015818307 -0.035353135 0.15756309 0.12663
0.36236012 -0.3262589 -0.028047549 0.012941431 0.16077992 0.0046858853 0.3016252 -0.1646631
0.12155759 -0.052925214 0.86810726 0.5544657 -3.2730734 -0.4720338 0.026262661 -0.13564308
0.020192781 -0.10972301 0.06576534 0.111113094 0.09227209 0.055130213 0.19192678 0.25801498
0.28924215 0.29066557 -0.137126 0.19808601 0.027874801 0.22643799 0.17668037 0.1681084
0.070130445 0.10921195 -0.323529 -0.59800583 -0.044113807 -0.1676495 0.035138413 0.013253377
-0.12683594 -0.026612177 -0.051229976 -0.036722764 -0.07944327 0.18264358 0.19137487 0.14646807
-0.1887683 0.15097804 0.065207414 -0.016502399 0.028631557 0.1812701 -0.04782055 0.028186858
-0.552694 0.07977294 -0.11538171 0.00031417815 -0.05990714 0.08210042 0.19570829 -0.29274586
0.21766649 0.08394034 -0.10012668 0.0022577276 -0.16334598 -0.13835983 -0.21850838 -0.020699691
0.0064870846 0.06309571 0.3830758 -2.790133 -0.09020071 -0.08525825 0.072776645 -0.15726651
-0.32161087 -0.07506901 0.048498586 0.128043 0.20010482 0.2386722 0.30556095 0.9074935
0.21754873 0.18021804 -0.2346407 -0.07094629 -0.03283501 -0.3440409 -0.19890203 -0.05486554
-0.02606219 0.17163472 0.3434293 -0.07609074 0.057919085 -0.17297961 -0.021612799 0.14940666
0.0866187 -0.016420742 0.04062063 -0.028527105 -0.015781589 -0.0015735119 0.04135121 0.14895557
-0.16188134 4.76847 -0.00048759574 -0.05624348 -0.067335755 -0.04649614 -0.15485285 0.02436319
-0.0005001303 0.050463084 -0.00074155384 -0.12267988 -0.20123015 1.1020626 -0.13372298 -0.03307669
-0.036591038 0.01912085 -0.035528675 -0.02744922 -0.0038974395 -0.10289055 0.02062328 -0.08409723
-0.22710659 0.61055166 0.050596576 -0.066107884 -0.0373586 -0.11953497 -0.12274504 -0.04652815
-0.02290775 0.072668284 0.05434108 -0.15075687 -0.110176586 0.40788943 -0.009018335 -0.022940462
-0.026477953 0.03306839 0.07061445 -0.11930886 -0.2215117 0.013482157 0.03473492 0.008707393
0.015001531 0.2541559 1.264404 -0.28507665 -0.107182704 -0.070912294 -0.10983271 -0.09880572
-0.16553755 0.018324189 0.05371269 0.04845723 -0.056773663 -0.1785712 3.7793202 -0.3133138
-0.10545859 -0.014310765 0.021792464 -0.067260854 -0.010215159 0.029090272 -0.011002372 0.076705225
-0.050683577 0.098862976 0.5627711 -0.21299444 -0.10259615 -0.080401644 -0.0027947733 -0.01062893
-0.10111666 -0.083678626 -0.049382024 0.14027178 -0.0811171 -0.10088759 0.6175421 -0.059536383
-0.035111133 0.027481737 0.01593822 -0.20478708 0.097676724 0.05049523 0.13015905 0.32312113
00000000: e76f a2bc dfbd acbd fa8c d83e 0934 593f
00000010: fe1d d93e 3c3c 6b3e 9b98 c33e ca27 813e
00000020: 9001 393f d5fa c93f 10b2 30be 3e6b 1a3e
00000030: b2d6 25be 9462 2d3e 663d 1abe 0106 adbe
00000040: 1960 aebe 0c66 a33e 6ec5 073e 3a47 85be
00000050: 9709 4abe b5d0 d4bd acc7 febd e2a0 3a3e
00000060: c0ee 58be c716 2a3e cb11 cebe 3723 173e
00000070: 0a38 9f3e 08c8 04be 6370 f3be 5223 29bd
00000080: 309f c1bb 1640 c83d e4fb 1cbe ca56 96be
00000090: 188a 24bf c037 91bc f4be acbd 6988 88bc
000000a0: b612 93bd c6c3 eabb b989 53bd 2ce9 ba3e
000000b0: 6595 81bc 73ce 10bd 3858 213e 4bab 013e
000000c0: 4487 b93e 680b a7be f9c3 e5bc 4c08 543c
000000d0: 7ea3 243e 0e8c 993b 9e6e 9a3e 729d 28be
000000e0: 30f3 f83d 1cc8 58bd 473c 5e3f 77f1 0d3f
000000f0: 097a 51c0 6aae f1be cb24 d73c 05e6 0abe
00000100: 556b a53c 75b6 e0bd fbaf 863d 438f e33d
00000110: 26f9 bc3d 38d0 613d 7488 443e 8a1a 843e
00000120: 8c17 943e 1ed2 943e c26a 0cbe 0fd7 4a3e
00000130: b259 e43c 5cdf 673e b3eb 343e 9c24 2c3e
00000140: 8da0 8f3d 84aa df3d 98a5 a5be e916 19bf
00000150: aeb0 34bd 4fac 2bbe 4ced 0f3d b124 593c
00000160: 48e1 01be c801 dabc 86d6 51bd 9c6a 16bd
00000170: 27b3 a2bd eb06 3b3e c6f7 433e bafb 153e
00000180: 7a4c 41be fd99 1a3e 778b 853d 0a30 87bc
00000190: ba8c ea3c de9e 393e 7bdf 43bd 20e8 e63c
000001a0: 5b7d 0dbf ff5f a33d 3f4d ecbd 47b8 a439
000001b0: 3061 75bd 4424 a83d c167 483e c9e2 95be
000001c0: f7e3 5e3e eae8 ab3d 380f cdbd 62f6 133b
000001d0: 2b44 27be 33ae 0dbe a9c0 5fbe 6692 a9bc
000001e0: 9c91 d43b 5338 813d 8322 c43e 8a91 32c0
000001f0: 26bb b8bd e19b aebd ec0b 953d 790a 21be
00000200: 2eaa a4be c8bd 99bd 74a6 463d b41d 033e
00000210: 47e8 4c3e 7c66 743e 7c72 9c3e 7e51 683f
00000220: 18c5 5e3e 148b 383e a745 70be 4a4c 91bd
00000230: 017e 06bd 2126 b0be f9ac 4bbe b0ba 60bd
00000240: 6080 d5bc 03c1 2f3e f7d5 af3e 76d5 9bbd
00000250: 903c 6d3d 9121 31be 530d b1bc 0ffe 183e
00000260: 2565 b13d cb84 86bc d161 263d adb1 e9bc
00000270: 6448 81bc 4c3e ceba e35f 293d cf87 183e
00000280: 39c4 25be 4e97 9840 fea3 ffb9 905f 66bd
00000290: 54e7 89bd bd72 3ebd bf91 1ebe 5095 c73c
000002a0: 2d1b 03ba 61b2 4e3d d664 42ba 973f fbbd
000002b0: 470f 4ebe 6310 8d3f adee 08be 6c7b 07bd
000002c0: 7ce0 15bd 54a3 9c3c 8486 11bd 30dd e0bc
000002d0: 2f6c 7fbb 48b8 d2bd 27f2 a83c 2b3b acbd
000002e0: a18e 68be 1d4d 1c3f 5b3e 4f3d 9263 87bd
000002f0: 5505 19bd c0ce f4bd c061 fbbd 4d94 3ebd
00000300: 09a9 bbbc 1cd3 943d c194 5e3d 0260 1abe
00000310: 43a4 e1bd e2d6 d03e a3c1 13bc a3ed bbbc
00000320: 4be8 d8bc b872 073d 4f9e 903d 3458 f4bd
00000330: f7d3 62be 44e4 5c3c 3446 0e3d 74a9 0e3c
00000340: fbc8 753c b920 823e fed7 a13f 91f5 91be
00000350: 9b82 dbbd 773a 91bd f9ef e0bd a75a cabd
00000360: ad82 29be 9c1c 963c d601 5c3d 177b 463d
00000370: 808b 68bd 5edb 36be 62e0 7140 ab6a a0be
00000380: acfa d7bd b377 6abc 1c86 b23c 0fc0 89bd
00000390: 7b5d 27bc b94e ee3c 4b43 34bc a117 9d3d
000003a0: 9599 4fbd ac78 ca3d c411 103f 371b 5abe
000003b0: ee1d d2bd 9ea9 a4bd 8428 37bb f724 2ebc
000003c0: 4016 cfbd b35f abbd ce44 4abd 68a3 0f3e
000003d0: b920 a6bd 279e cebd 3d17 1e3f 6cdc 73bd
000003e0: b1d0 0fbd 6121 e13c df90 823c b4b3 51be
000003f0: bc0a c83d 16d4 4e3d 6a48 053e 2270 a53e

mem_dense_q1.bias f4 [64]
0.46555817 0.15496297 0.17135528 -0.10485623 0.45897684 0.553797 -0.21939176 0.036706034
0.023026956 0.14076868 0.034015067 0.042582065 0.24069408 0.14952719 0.18162788 0.361981
0.01885429 -0.21089882 -0.0019954352 0.071801364 -0.04593918 0.07007698 0.018259484 0.06555849
0.17004058 0.26277307 0.23613846 -0.016549537 -0.09268497 0.23122951 0.010189703 -0.0007670799
0.2357359 0.44657618 0.5782389 -0.042747077 -0.12288614 0.28537554 -0.05536471 -0.12336929
0.28211683 0.30764472 0.062380753 0.135742 0.3321389 0.13755931 -0.09311742 0.5090158
0.003205205 0.3436102 0.052200433 0.32115722 -0.016656818 0.2833949 0.2801679 -0.030549264
0.8214585 0.64254516 0.61011285 0.2811525 0.34193966 0.1681985 0.13534188 0.37255362
00000000: a45d ee3e 9dae 1e3e c277 2f3e ddbe d6bd
00000010: 03ff ea3e a4c5 0d3f 3ca8 60be 1159 163d
00000020: 07a3 bc3c aa25 103e 6253 0b3d 886a 2e3d
00000030: 8278 763e a81d 193e a9fc 393e 9355 b93e
00000040: 5074 9a3c dcf5 57be d9c5 02bb 980c 933d
00000050: b92a 3cbd 8584 8f3d ea94 953c 8843 863d
00000060: 1e1f 2e3e 318a 863e 48ce 713e e592 87bc
00000070: 9ed1 bdbd 6ec7 6c3e b6f2 263c dc15 49ba
00000080: c064 713e a2a5 e43e 7707 143f 8f17 2fbd
00000090: bbab fbbd be1c 923e 1bc6 62bd 0aa9 fcbd
000000a0: 9e71 903e 9c83 9d3e f682 7f3d f3ff 0a3e
000000b0: 1c0e aa3e 59dc 0c3e 59b4 bebd dc4e 023f
000000c0: 6b0e 523b aded af3e 1fd0 553d b86e a43e
000000d0: e173 88bc 2319 913e 2b72 8f3e 7342 fabc
000000e0: 1b4b 523f d77d 243f 5b30 1c3f 38f3 8f3e
000000f0: b712 af3e 3a3c 2c3e 1097 0a3e 59bf be3e

mem_LSTM_q1.weight_ih_l0 f4 [256, 64]
0.1968546 -0.29730594 -0.5573322 0.1910712 0.57559216 0.27296537 -0.3201952 0.23391451
0.3186623 -0.37609184 -0.2498531 -0.29615447 0.3504799 -0.11017859 -0.087850496 -0.0038685952
-0.2932308 0.7306415 -0.6273467 -0.39035457 -0.418899 -0.14768164 0.52035743 0.025141785
0.6125934 0.55583763 0.71816367 0.42133537 1.0568727 -0.26755896 -0.20474243 0.1846616
0.071912706 0.23873353 0.29827625 -0.7508879 0.31177127 0.3640259 -0.042489864 0.18529737
0.43696937 -0.91541815 -0.097105525 0.32560578 -0.07458991 0.7778828 -0.2739941 0.15478435
-0.18226178 -0.67160714 -1.0530907 0.23902938 -0.56819695 -0.1290453 -0.5434064 -0.43224913
-0.08954244 0.639005 0.85061455 -0.28591242 -0.641211 0.565011 0.15595904 0.41399232
0.34506533 -0.024462815 0.47028846 -1.0146344 -0.060940426 -0.30041626 -0.3376369 -0.20789339
0.046241324 -0.24445727 0.06575515 1.2619196 -0.48040372 -0.3823223 0.13528964 0.2506291
-0.12695433 -0.5312916 -0.09896353 -0.1665832 -0.15831202 0.067351796 0.08609408 -0.48704913
0.3200316 -0.5738694 0.104737654 -0.081622116 0.10235246 0.23687796 -0.09165508 -0.4701684
0.031906966 0.19620226 -0.6877195 -0.08131143 0.5830697 -0.19771264 -0.026642311 -0.016834298
-0.1173252 -0.4834218 0.22815453 0.27894154 0.44685072 0.9520315 0.21325177 0.17431006
0.12389349 -0.35188842 0.5638849 0.16688068 0.21972501 -0.64307296 -0.22111501 -0.53722453
0.72568893 0.5105826 0.30282763 0.27115905 0.8488262 0.34465194 -0.30611292 0.14943036
-0.4114818 -0.1334378 -0.0332953 0.37703213 0.107311994 0.64497775 -0.12074179 0.23577684
-0.32412514 0.048208203 0.44314852 -0.12240469 -0.36906028 0.54857725 -0.16314135 0.67215496
0.0034871367 0.10711339 0.50345653 -0.6675064 0.19961494 0.16955364 0.11878922 -1.0772927
0.070099525 0.2665782 -0.37214452 -0.12343791 0.19775897 -0.6520983 0.068888545 0.38236582
1.0159363 0.09720268 0.39572474 0.47690642 -0.058779307 -0.62423605 -0.16908288 0.31521744
0.27867687 0.030276297 -0.6570346 -0.33053938 -0.51814145 0.63059723 -0.39523682 -0.37412807
-0.13173948 1.0830257 -0.022216067 -0.092371956 -0.12344993 0.9931893 -0.3226039 0.08911867
-0.20736592 -0.16901314 0.044639535 0.31336915 0.9218979 -0.31390756 -0.08750492 -0.23926206
0.21130148 0.0048227245 -0.32609215 -0.7543627 0.19012919 -0.11622081 -0.9529656 -0.07640976
0.13046089 -0.047195185 -0.58928776 -0.36165822 0.1836405 -0.064069726 0.2715599 -0.72329575
-0.29838595 1.0797726 0.3712314 -0.37828466 0.48451495 0.6567962 -0.08272767 -0.46207973
-0.4892095 0.51763374 0.29993567 -1.0939069 -0.08540551 0.15521334 -0.64384687 0.79976976
0.7798023 -0.40160176 0.24028905 0.2131149 0.51644117 -0.15648304 -0.052510653 1.1021975
-0.08912274 -0.80549234 -0.6669353 0.591299 -0.4310831 -0.52982426 0.5002099 -0.01072546
-0.10019876 0.27726677 0.06512998 -0.18027514 0.28662577 0.0062247054 -0.28093907 0.3936456
0.092241436 -0.39731148 0.29926708 -0.20046987 -0.18330407 1.0267832 0.17334172 -0.024447504
00000000: 4194 493e 7c38 98be 53ad 0ebf 2ba8 433e
00000010: 025a 133f 1ec2 8b3e a0f0 a3be 4987 6f3e
00000020: b427 a33e 1c8f c0be 7ed9 7fbe 8fa1 97be
00000030: 1a72 b33e 50a5 e1bd f6ea b3bd 4288 7dbb
00000040: 5922 96be 520b 3b3f cb99 20bf 8edc c7be
00000050: ee79 d6be db39 17be 2536 053f 25f6 cd3c
00000060: ecd2 1c3f 604b 0e3f 93d9 373f 45b9 d73e
00000070: 9b47 873f 7dfd 88be 00a8 51be ee17 3d3e
00000080: f846 933d 9076 743e aab7 983e 303a 40bf
00000090: 7ca0 9f3e 9a61 ba3e da09 2ebd 98be 3d3e
000000a0: 73ba df3e d858 6abf 43df c6bd cdb5 a63e
000000b0: 98c2 98bd 5423 473f f448 8cbe ca7f 1e3e
000000c0: d5a2 3abe 72ee 2bbf adcb 86bf 1ec4 743e
000000d0: 5b75 11bf 7324 04be af1c 0bbf c24f ddbe
000000e0: 0762 b7bd d595 233f e0c1 593f 1d63 92be
000000f0: 6726 24bf 90a4 103f bab3 1f3e cdf6 d33e
00000100: 67ac b03e 3e66 c8bc a6c9 f03e 8adf 81bf
00000110: ab9c 79bd 29d0 99be bede acbe 01e2 54be
00000120: 8b67 3d3d 0253 7abe a3aa 863d 9586 a13f
00000130: 7af7 f5be c0bf c3be 5e89 0a3e 7552 803e
00000140: 5100 02be ba02 08bf 64ad cabd c994 2abe
00000150: 8c1c 22be bdef 893d 1852 b03d 815e f9be
00000160: 2fdb a33e 1be9 12bf b280 d63d 7f29 a7bd
00000170: 2b9e d13d 2390 723e a9b5 bbbd eab9 f0be
00000180: e1b0 023d 3fe9 483e 630e 30bf 9b86 a6bd
00000190: 0e44 153f 2f75 4abe fa40 dabc 15e8 89bc
000001a0: 3248 f0bd 1083 f7be 57a1 693e 6dd1 8e3e
000001b0: 9ec9 e43e 56b8 733f ac5e 5a3e 567e 323e
000001c0: dfbb fd3d b82a b4be c35a 103f c5e2 2a3e
000001d0: 98ff 603e 6ea0 24bf f96b 62be 8c87 09bf
000001e0: c0c6 393f 8bb5 023f 390c 9b3e 5cd5 8a3e
000001f0: ad4c 593f 3876 b03e d5ba 9cbe 4604 193e
00000200: bead d2be eba3 08be a760 08bd 5b0a c13e
00000210: 64c6 db3d 431d 253f 7947 f7bd 7c6f 713e
00000220: bbf3 a5be f775 453d 5de4 e23e 4faf fabd
00000230: 78f5 bcbe 8f6f 0c3f 870e 27be 5912 2c3f
00000240: 7288 643b 445e db3d 87e2 003f b3e1 2abf
00000250: dc67 4c3e 789f 2d3e c347 f33d bae4 89bf
00000260: 5790 8f3d f07c 883e ba89 bebe 04cd fcbd
00000270: 5481 4a3e eaef 26bf 7015 8d3d 74c5 c33e
00000280: 330a 823f 3312 c73d 6f9c ca3e 142d f43e
00000290: 92c2 70bd efcd 1fbf 1024 2dbe 2e64 a13e
000002a0: bcae 8e3e ff05 f83c 6b33 28bf 753c a9be
000002b0: eba4 04bf d26e 213f 7b5c cabe b78d bfbe
000002c0: b7e6 06be 96a0 8a3f 78fe b5bc 822d bdbd
000002d0: 51d3 fcbd a741 7e3f 572c a5be d983 b63d
000002e0: bb57 54be c811 2dbe f2d7 363d ec71 a03e
000002f0: 8001 6c3f 7eb8 a0be c835 b3bd 1d01 75be
00000300: 6a5f 583e f207 9e3b 8df5 a6be ea1d 41bf
00000310: 3ab1 423e 2d05 eebd 8ef5 73bf b87c 9cbd
00000320: 8a97 053e bd4f 41bd 90db 16bf 442b b9be
00000330: 410c 3c3e fd36 83bd e609 8b3e e929 39bf
00000340: 0bc6 98be fd35 8a3f 0b12 be3e 87ae c1be
00000350: 5812 f83e cc23 283f 206d a9bd b795 ecbe
00000360: ab79 fabe a583 043f 2b91 993e 2405 8cbf
00000370: 16e9 aebd 3ff0 1e3e 26d3 24bf b6bd 4c3f
00000380: 20a1 473f bf9e cdbe 550e 763e cb3a 5a3e
00000390: 7d35 043f 173d 20be 6915 57bd cf14 8d3f
000003a0: fc85 b6bd bf34 4ebf 46bc 2abf 5f5f 173f
000003b0: edb6 dcbe 90a2 07bf c20d 003f d7b9 2fbc
000003c0: 0235 cdbd e9f5 8d3e de62 853d 0c9a 38be
000003d0: 9dc0 923e 9df8 cb3b 3fd7 8fbe eb8b c93e
000003e0: 14e9 bc3d 696c cbbe 8939 993e f947 4dbe
000003f0: 10b4 3bbe a26d 833f 7e80 313e 2246 c8bc

mem_LSTM_q1.weight_hh_l0 f4 [256, 64]
1.0883129 -0.5777664 -0.007897985 0.3054969 -1.2110672 0.80911887 1.472487 0.2989542
-0.59704614 -0.16199648 -0.31528106 0.4583329 -0.0055051195 0.48453113 0.4375259 -1.1049619
0.04469813 0.52419186 0.59916437 -0.509815 0.0035565007 0.16956072 0.19703285 -0.015147939
-0.35636526 -0.4403272 -0.710588 -0.13610989 0.28680852 -0.628657 0.6890944 0.6346244
1.0333972 -0.23569222 0.09413995 0.41408798 -0.5733544 0.14336754 0.4512229 -0.48191634
0.5474167 -0.4206643 -0.51412326 0.80782026 0.054878075 0.39458832 0.5862387 -0.36717382
0.18916374 -0.76279306 -1.0188531 -0.029326066 0.023593318 0.83500654 0.050295427 -0.14469181
0.20556326 0.19745906 0.593397 -0.37299815 -0.20998827 -0.4326892 -0.194694 -0.0076795155
-0.24989872 -0.17434102 0.96533054 0.5317877 -0.14280544 0.4719561 0.2518979 -0.36060247
-0.80575603 -0.12322357 -0.3782622 0.1564129 0.20507137 -0.4247783 0.51918274 0.49723062
0.28369746 0.42708644 -0.73415476 0.15299948 -0.35956386 0.07484605 -0.36570668 0.22629103
-0.36694965 0.26379278 -0.3742259 -0.5338025 0.26940772 0.21196717 -0.4999003 0.49365786
0.893179 -0.39947873 -0.016446043 -0.8102585 0.6151892 -0.52353555 -0.16984165 -0.22954778
-0.07233172 0.14969014 -0.19224688 -0.13342081 -0.1728437 -0.45539472 -0.050493393 0.34881017
-0.56019473 -0.15989023 0.8988371 0.3120209 0.37166154 0.52057236 0.5518674 0.022398075
-0.010703374 0.82004607 -0.021288823 0.63247806 0.6588746 -0.13000065 -0.49558142 -0.45890743
-0.14023706 -0.28935742 0.20858991 -0.47150505 -0.49914348 0.21884568 0.13141996 0.15005112
-0.20404558 -0.11252834 -0.36986718 0.5673726 0.055965424 -0.111134976 -0.11573368 0.39660835
-0.36698368 0.44757047 -0.3597125 0.5709035 0.53179324 -0.001738426 0.1490176 0.4001575
0.29344013 -0.014995236 -0.67373765 -0.38981032 -0.59618175 0.05071393 -0.28556234 0.035687912
0.21744299 0.32246783 0.19525594 -0.43837237 -0.16853309 -0.68838394 0.012114109 -0.09073901
0.22502314 0.21507204 0.20597462 -0.71390516 -0.6888023 -0.15758723 0.15743904 -0.38386548
0.28088573 -0.13870716 0.10235088 -0.43938372 -0.45449188 -0.37304506 -0.43272918 -0.047273565
0.57451075 -0.19525546 -0.5418163 0.41231874 0.42678636 -0.08529903 -0.31825635 0.4931671
0.15764436 -0.2137137 0.6933823 1.0914872 -0.2075912 0.5462242 0.32409748 -0.038388163
0.34169188 -0.93262213 -0.20759778 0.048170518 -0.31405506 -0.1110716 0.084398195 -0.107801355
0.2635266 0.53998315 -0.6733076 0.3590611 0.42824227 0.026155924 -0.98050624 0.71279526
0.10878673 -0.4862145 -0.94740033 -0.7896729 0.09354844 0.04577279 0.63033044 0.5514789
-0.74704385 -0.068784 -0.41132462 0.17644899 -0.063110486 -0.34177297 0.51694626 -0.79243255
-0.27353215 0.22706263 -0.15522236 -1.2248574 -0.51550287 -0.65860295 -0.2808401 -0.24908395
-0.33944577 -0.6351012 -0.95819527 0.09859746 -0.9281168 0.4090505 0.16750677 0.24646463
0.5698768 0.0428615 0.19431496 -0.01264949 -1.1114147 0.051515523 0.059759106 -0.5883927
00000000: d64d 8b3f 80e8 13bf 8d66 01bc 176a 9c3e
00000010: 4004 9bbf 6a22 4f3f 747a bc3f 8610 993e
00000020: 04d8 18bf 68e2 25be 856c a1be 9caa ea3e
00000030: 4a64 b4bb 7714 f83e 6503 e03e 646f 8dbf
00000040: 6315 373d 7031 063f d662 193f 3c83 02bf
00000050: 2e14 693b 53a1 2d3e fbc2 493e 102f 78bc
00000060: 8275 b6be 9172 e1be 18e9 35bf 6460 0bbe
00000070: 91d8 923e aaef 20bf 7e68 303f bf76 223f
00000080: 5c46 843f 4d59 71be 72cc c03d 5703 d43e
00000090: 5bc7 12bf f1ce 123e b006 e73e bdbd f6be
000000a0: 8023 0c3f 5061 d7be 959d 03bf 4fcd 4e3f
000000b0: d5c7 603d 7b07 ca3e bd13 163f 35fe bbbe
000000c0: 24b4 413e 6846 43bf c769 82bf 383d f0bc
000000d0: c646 c13c fdc2 553f 9402 4e3d 172a 14be
000000e0: 2d7f 523e b532 4a3e dee8 173f 9df9 bebe
000000f0: 2a07 57be 7089 ddbe dd5d 47be 72a4 fbbb
00000100: 73e5 7fbe 7486 32be e71f 773f 3d23 083f
00000110: 973b 12be 3ba4 f13e c3f8 803e e3a0 b8be
00000120: 0746 4ebf a45c fcbd 95ab c1be b42a 203e
00000130: 3bfe 513e 8b7c d9be 29e9 043f 0395 fe3e
00000140: cb40 913e 13ab da3e 91f1 3bbf e5ab 1c3e
00000150: c118 b8be e348 993d e83d bbbe d6b8 673e
00000160: d3e0 bbbe d90f 873e 8a9a bfbe 48a7 08bf
00000170: cfef 893e ec0d 593e eff2 ffbe b9c0 fc3e
00000180: 61a7 643f 7a88 ccbe dab9 86bc 1a6d 4fbf
00000190: 0a7d 1d3f 6d06 06bf f8ea 2dbe 930e 6bbe
000001a0: a722 94bd 5f48 193e 5edc 44be 779f 08be
000001b0: f0fd 30be 7f29 e9be 29d2 4ebd 3f97 b23e
000001c0: ec68 0fbf 44ba 23be 301a 663f 34c1 9f3e
000001d0: 6c4a be3e 3b44 053f 2f47 0d3f 2b7c b73c
000001e0: 345d 2fbc 8aee 513f e665 aebc 15ea 213f
000001f0: 01ac 283f e41e 05be d9bc fdbe eaf5 eabe
00000200: 4e9a 0fbe a826 94be 9898 553e 1c69 f1be
00000210: bc8f ffbe 1519 603e f492 063e 00a7 193e
00000220: 53f1 50be 4275 e6bd 3b5f bdbe 553f 113f
00000230: 003c 653d bc9a e3bd c805 edbd 4010 cb3e
00000240: 49e5 bbbe f527 e53e 3d2c b8be bb26 123f
00000250: 9a23 083f e6db e3ba 1298 183e 72e1 cc3e
00000260: c93d 963e 94ae 75bc 127a 2cbf 3895 c7be
00000270: 5e9f 18bf 69b9 4f3d 3a35 92be 7d2d 123d
00000280: 60a9 5e3e 811a a53e 2cf1 473e 5872 e0be
00000290: f093 2cbe ee39 30bf 417a 463c 60d5 b9bd
000002a0: 776c 663e d83b 5c3e 03eb 523e 7dc2 36bf
000002b0: 5955 30bf 8c5e 21be b337 213e 048a c4be
000002c0: 41d0 8f3e 4009 0ebe 579d d13d e7f6 e0be
000002d0: 29b3 e8be c3ff bebe ae8e ddbe eda1 41bd
000002e0: 2313 133f 0cf1 47be 79b4 0abf 711b d33e
000002f0: be83 da3e 42b1 aebd 7ff2 a2be 6680 fc3e
00000300: 866d 213e c4d7 5abe 8181 313f dab5 8b3f
00000310: ca92 54be 59d5 0b3f 1bf0 a53e e83c 1dbd
00000320: 3df2 ae3e 53c0 6ebf 8394 54be 734e 453d
00000330: d3cb a0be 8279 e3bd f6d8 ac3d f5c6 dcbd
00000340: f5ec 863e 563c 0a3f e35d 2cbf dbd6 b73e
00000350: 9242 db3e f344 d63c 7502 7bbf c079 363f
00000360: 94cb de3d 1bf1 f8be d488 72bf 0128 4abf
00000370: 5396 bf3d 407c 3b3d 565d 213f b92d 0d3f
00000380: 443e 3fbf a0de 8cbd 2499 d2be 0baf 343e
00000390: 1240 81bd defc aebe 9756 043f dcdc 4abf
000003a0: 680c 8cbe 1b83 683e 9cf2 1ebe 21c8 9cbf
000003b0: fff7 03bf 349a 28bf 46ca 8fbe dd0f 7fbe
000003c0: d6cb adbe fe95 22bf 494c 75bf 77ed c93d
000003d0: 1099 6dbf 116f d13e e586 2b3e 3961 7c3e
000003e0: 72e3 113f 8a8f 2f3d 80fa 463e ce3f 4fbc
000003f0: d642 8ebf f101 533d f7c5 743d e7a0 16bf

mem_LSTM_q1.bias_ih_l0 f4 [256]
-0.3972864 0.07617116 0.093427554 0.081024 0.116003 -0.1123031 0.34267914 -0.0140021965
0.30335698 0.10195058 -0.40255377 0.2973558 0.027591154 0.30231753 0.16920379 -0.084744655
0.104571894 0.36701053 0.20316796 -0.009318097 0.3298962 0.03495484 -0.30808064 0.105170906
0.5264715 -0.07315954 0.26982042 0.31273535 0.29798022 0.22752044 0.0722962 0.078185216
0.27478397 0.25574547 0.41970408 0.31735638 -0.04743897 0.40999287 0.54147875 0.4192786
0.020547716 -0.128237 0.119515434 0.5326598 0.3286178 0.060527425 0.062359054 -0.0480375
0.22962941 -0.06830787 0.48565358 0.098065384 0.19289204 0.1482806 -0.09512892 0.00025452068
0.18529591 0.3772801 0.11786703 -0.33657527 0.1397154 0.3995256 0.4858158 0.12544912
-0.23699312 -0.3730873 0.008337327 -0.24113967 -0.20538244 0.11126078 -0.04285199 -0.25068057
0.09498363 -0.31603783 -0.24547221 -0.06437527 -0.36092198 -0.1785127 -0.14854638 -0.19937639
-0.0057619885 -0.23365583 0.1768113 -0.5544153 -0.28385976 0.16315635 -0.21797173 -0.15433837
-0.121926636 -0.50635594 0.30931282 0.05097229 -0.07751088 -0.116297044 -0.2244037 0.06354353
-0.189233 -0.16663344 0.028293224 -0.08477126 -0.2791304 0.033508893 0.06875865 0.09187219
-0.2405853 -0.22700879 0.032102413 0.14744322 -0.20929919 -0.5694292 -0.16947818 -0.24281736
-0.13498059 -0.22285111 -0.1448772 -0.077672444 0.3603372 -0.04250553 -0.21291222 -0.04624237
-0.05849944 -0.13544253 0.105503716 -0.03286179 0.16786309 0.00015037926 0.014868184 -0.15043676
0.2996205 -0.015883472 -0.057015263 0.007411857 0.36215618 -0.11240875 -0.22055049 0.047831703
0.19148728 -0.060088124 -0.029740248 -0.07498084 -0.2545425 -0.20276745 0.052283786 0.26306283
-0.009213965 -0.1764969 0.077862315 -0.09685739 0.23676808 -0.44666535 -0.42238855 -0.07768942
0.0077182977 -0.22057027 -0.009269681 -0.10480664 -0.35429865 0.19612104 0.50265455 -0.2750503
0.0029599173 0.11784614 0.058950655 -0.2325561 -0.27365714 0.22586718 -0.16180126 0.16241132
-0.030386759 0.0123305125 0.087152444 -0.08043325 -0.05516999 -0.27948192 0.1449821 -0.15173036
0.13640985 0.11614826 -0.07083637 0.4191965 -0.06121221 -0.0607111 -0.16227363 -0.3852282
-0.05618584 -0.14071414 0.26041594 0.008939804 0.28852054 -0.23003891 -0.076584086 0.13795099
-0.097638816 0.19282496 0.3475268 0.034095854 0.017762242 -0.20900728 0.17282747 0.41756338
0.1350168 0.010151947 0.04981068 0.1137261 -0.22606206 0.2581046 -0.092724025 -0.14089432
-0.082881846 0.38130188 -0.020711454 -0.028654462 0.1935709 0.32342574 0.04554498 0.12396272
-0.017601013 0.19530232 0.31704074 0.4128795 0.2621609 0.27526766 0.08298123 0.46056932
0.3181845 0.32258138 0.47512096 0.31165373 -0.08485934 0.36948493 0.24498767 0.2129083
-0.18014343 0.008056188 0.2695806 0.2772732 0.25587574 -0.18387824 0.2807897 0.11591731
0.28766346 -0.047648493 0.23405997 0.11758095 0.49695262 0.21503232 0.10235594 0.06989664
0.09761178 0.21447884 0.0058199256 0.53882146 0.0133532025 -0.0018784078 0.20972542 0.31959867
00000000: 1f69 cbbe a0ff 9b3d f256 bf3d e9ef a53d
00000010: fb92 ed3d 2bff e5bd a473 af3e 7869 65bc
00000020: 9b51 9b3e 77cb d03d 871b cebe 053f 983e
00000030: d806 e23c 5dc9 9a3e c243 2d3e 9b8e adbd
00000040: ca29 d63d cee8 bb3e 430b 503e eeaa 18bc
00000050: 28e8 a83e ce2c 0f3d bfbc 9dbe d863 d73d
00000060: d6c6 063f abd4 95bd e725 8a3e d91e a03e
00000070: dd90 983e 1efb 683e 0810 943d 921f a03d
00000080: 7cb0 8c3e 12f1 823e 74e3 d63e 897c a23e
00000090: 5e4f 42bd 96ea d13e 5a9e 0a3f afab d63e
000000a0: af53 a83c 8f50 03be 82c4 f43d 655c 083f
000000b0: 9840 a83e 9beb 773d 356c 7f3d f8c2 44bd
000000c0: f923 6b3e ffe4 8bbd 96a7 f83e 81d6 c83d
000000d0: 7e85 453e dfd6 173e f4d2 c2bd 3071 8539
000000e0: 36be 3d3e db2a c13e 4564 f13d 9853 acbe
000000f0: 8e11 0f3e 9f8e cc3e d9bc f83e bc75 003e
00000100: 53ae 72be 4c05 bfbe 4999 083c 51ed 76be
00000110: c64f 52be b1dc e33d 9185 2fbd 3459 80be
00000120: c786 c23d b6cf a1be 115d 7bbe 2ed7 83bd
00000130: c4ca b8be 09cc 36be 8b1c 18be 5329 4cbe
00000140: 10cf bcbb 7943 6fbe 050e 353e 29ee 0dbf
00000150: 1156 91be 7512 273e fb33 5fbe e10a 1ebe
00000160: acb4 f9bd 8ba0 01bf 405e 9e3e 52c8 503d
00000170: 06be 9ebd 252d eebd 15ca 65be 1c23 823d
00000180: 4cc6 41be f5a1 2abe 31c7 e73c 8e9c adbd
00000190: 2eea 8ebe 9f40 093d 56d1 8c3d 7d27 bc3d
000001a0: fe5b 76be fe74 68be d27d 033d 5bfb 163e
000001b0: 8752 56be 1dc6 11bf b08b 2dbe 1da5 78be
000001c0: 5a38 0abe 1533 64be b05a 14be bb12 9fbd
000001d0: 1e7e b83e 471a 2ebd a905 5abe a468 3dbd
000001e0: 1c9d 6fbd 72b1 0abe 5512 d83d 169a 06bd
000001f0: 4de4 2b3e 20af 1d39 af99 733c 180c 1abe
00000200: dc67 993e 0e1e 82bc d688 69bd 2adf f23b
00000210: 896c b93e 8f36 e6bd fdd7 61be 2deb 433d
00000220: 3e15 443e f71e 76bd d2a1 f3bc 8e8f 99bd
00000230: 6553 82be 45a2 4fbe 8627 563d 2cb0 863e
00000240: 2cf6 16bc 9abb 34be 4776 9f3d 2b5d c6bd
00000250: 5573 723e 52b1 e4be 5043 d8be a11b 9fbd
00000260: c6e9 fc3b 2cdd 61be dcdf 17bc dda4 d6bd
00000270: a266 b5be f4d3 483e f8ad 003f 65d3 8cbe
00000280: 2cfb 413b 5159 f13d 3e76 713d 3023 6ebe
00000290: ca1c 8cbe ba49 673e 3baf 25be 274f 263e
000002a0: a7ed f8bc eb05 4a3c fb7c b23d 30ba a4bd
000002b0: edf9 61bd 4118 8fbe 3076 143e 345f 1bbe
000002c0: 06af 0b3e 24df ed3d a912 91bd eca0 d63e
000002d0: a8b9 7abd 34ac 78bd 0f2b 26be a13c c5be
000002e0: 2023 66bd 5e17 10be 3d55 853e 4178 123c
000002f0: f7b8 933e 528f 6bbe 1ed8 9cbd 0643 0d3e
00000300: dcf6 c7bd e873 453e 08ef b13e 18a8 0b3d
00000310: 1f82 913c 0106 56be aff9 303e deca d53e
00000320: d841 0a3e 5a54 263c 4906 4c3d 3be9 e83d
00000330: d07c 67be 4926 843e 18e6 bdbd 9a46 10be
00000340: f5bd a9bd 003a c33e 11ab a9bc c3bc eabc
00000350: 7337 463e 0f98 a53e 5f8d 3a3d 2be0 fd3d
00000360: 0030 90bc 55fd 473e 2a53 a23e f164 d33e
00000370: f439 863e e2ef 8c3e 10f2 a93d becf eb3e
00000380: 14e9 a23e 6329 a53e 0e43 f33e 1491 9f3e
00000390: bcca adbd 212d bd3e 0cde 7a3e a204 5a3e
000003a0: 8577 38be 1afe 033c 7806 8a3e c1f6 8d3e
000003b0: 2502 833e 944a 3cbe abc3 8f3e 0e66 ed3d
000003c0: a048 933e 112b 43bd 6bad 6f3e 48ce f03d
000003d0: 9370 fe3e 6f31 5c3e fe9f d13d f825 8f3d
000003e0: afe8 c73d 57a0 5b3e 13b5 be3b 34f0 093f
000003f0: 64c7 5a3c e834 f6ba 43c2 563e 70a2 a33e

mem_LSTM_q1.bias_hh_l0 f4 [256]
-0.22343963 0.052382164 0.17851403 -0.05470616 0.14439352 -0.09565053 0.4566498 -0.0020563863
0.23278628 -0.04816012 -0.4520382 0.28582942 0.024890548 0.1483077 0.17279664 -0.0960583
0.28147453 0.18600518 0.22532335 0.14721361 0.19438298 0.10020676 -0.34420717 0.10275815
0.4478501 0.020644126 0.2290966 0.13273172 0.3400986 0.12575722 0.22653963 0.05717795
0.19174236 0.30430126 0.47538668 0.32783094 0.12770022 0.4705833 0.60332894 0.1860619
0.09508597 -0.047752466 0.13180299 0.35654864 0.11091064 0.007838389 0.04102274 0.0801098
0.31639075 -0.09436137 0.36556122 -0.0965841 0.13610569 0.07483852 -0.03188652 0.038884178
0.15341064 0.3117393 -0.03640978 -0.33805028 0.13900054 0.23659313 0.33901557 0.20228674
-0.3017941 -0.38442546 -0.0072475052 -0.21557616 -0.18834907 -0.015577946 -0.10336675 -0.067407556
0.12285058 -0.20507376 -0.2713188 -0.12577613 -0.36015898 -0.1680495 -0.2449191 -0.08969195
-0.09626441 -0.29879418 0.006798556 -0.34279653 -0.2514367 0.31179383 -0.24616095 -0.048580047
0.020489646 -0.3874204 0.14698958 0.039093763 -0.00075979036 -0.021234136 -0.31838652 -0.13913588
-0.30513778 -0.07927779 0.15252605 0.057103634 -0.17896101 -0.19312173 0.1521504 -0.0440857
-0.37051606 -0.073127806 -0.0446641 0.11380822 -0.0065309685 -0.42602962 -0.19974822 -0.14600267
0.026901616 -0.27510482 -0.10459684 -0.026302563 0.33242476 -0.16196768 -0.32339275 -0.15506287
0.0794219 -0.10648441 0.11815268 -0.15823573 0.13548608 0.05439939 0.072486706 -0.18110731
0.29176646 0.1983594 -0.09430517 0.05357081 0.26933736 0.015413981 -0.26846236 -0.13239072
0.13198242 -0.19524899 -0.1007503 -0.09031054 -0.24771158 -0.20479655 0.15593241 0.19824013
-0.1673705 -0.35700965 -0.00636443 0.043984983 0.19893032 -0.39433837 -0.3495221 0.028999846
-0.11105371 -0.18970126 -0.022399584 0.018962463 -0.17084141 0.39252505 0.3685699 -0.1573493
0.10354517 0.20445496 -0.011540375 -0.15327619 -0.10131592 0.072981134 -0.13981944 0.23959038
0.020437965 0.05023889 0.023483472 -0.085883826 0.09260008 -0.26344368 0.16743705 0.01920054
-0.0087202815 -0.060924873 -0.005886736 0.3595889 0.1502149 -0.11302602 -0.3549996 -0.34616983
-0.1843547 -0.21726446 0.24964575 0.072538555 0.20190272 -0.05246316 -0.11977476 0.2892539
-0.13693745 0.27261677 0.37930638 -0.20326762 0.0023608922 -0.15754329 0.26973492 0.5180058
0.10748883 -0.062405914 0.09655474 0.1271605 -0.3793692 0.3876314 -0.1131688 -0.047246963
0.009796792 0.39377627 -0.08196017 -0.08995574 0.18894732 0.25860265 0.2204159 0.029085558
0.036176898 0.0642612 0.3377982 0.34643927 0.22536093 0.39574146 -0.10633723 0.5385192
0.3539372 0.28265262 0.3008542 0.23613408 -0.013044605 0.3936093 0.228963 0.14336194
-0.20009214 -0.11773551 0.2532342 0.39415497 0.23454417 -0.031439047 0.2433478 0.16492164
0.35478988 -0.03779188 0.09167282 0.06494733 0.5870131 0.16328791 -0.023871167 -0.028226683
0.08823906 0.22621089 0.020209033 0.46871936 -0.16758716 0.063592434 0.20881107 0.37168714
00000000: 5ccd 64be ae8e 563d 62cc 363e 9113 60bd
00000010: e5db 133e 6de4 c3bd 01ce e93e 70c4 06bb
00000020: 875f 6e3e 8c43 45bd 8d71 e7be 3c58 923e
00000030: 43e7 cb3c f9dd 173e 9af1 303e 37ba c4bd
00000040: 6e1d 903e 2478 3e3e 2abb 663e 2abf 163e
00000050: 550c 473e 3439 cd3d ec3b b0be dd72 d23d
00000060: 9c4c e53e df1d a93c 4d98 6a3e d3ea 073e
00000070: 6721 ae3e 80c6 003e 01fa 673e 6d33 6a3d
00000080: 1c58 443e 60cd 9b3e e265 f33e 75d9 a73e
00000090: d9c3 023e 4bf0 f03e c473 1a3f 0387 3e3e
000000a0: 6fbc c23d 1798 43bd 5df7 063e 8b8d b63e
000000b0: 1e25 e33d 966c 003c 7607 283d 9b10 a43d
000000c0: f8fd a13e 8940 c1bd d72a bb3e e2cd c5bd
000000d0: 4a5f 0b3e f044 993d 719b 02bd 0445 1f3d
000000e0: ae17 1d3e 4b9c 9f3e 6c22 15bd ed14 adbe
000000f0: 2856 0e3e 7845 723e 7393 ad3e 4124 4f3e
00000100: c284 9abe 6ad3 c4be 7b7c edbb ffbf 5cbe
00000110: 94de 40be a43a 7fbc f2b1 d3bd f90c 8abd
00000120: 1699 fb3d dbfe 51be 4cea 8abe 75cb 00be
00000130: c266 b8be 2b15 2cbe 13cc 7abe 6ab0 b7bd
00000140: 4626 c5bd 8dfb 98be 6cc6 de3b 0783 afbe
00000150: 50bc 80be 71a3 9f3e 9e11 7cbe dffb 46bd
00000160: e7d9 a73c f75b c6be 7084 163e c820 203d
00000170: ab2c 47ba 36f3 adbc 8f03 a3be a379 0ebe
00000180: 053b 9cbe 655c a2bd ca2f 1c3e 80e5 693d
00000190: 8e41 37be b4c1 45be 51cd 1b3e 3593 34bd
000001a0: 48b4 bdbe 08c4 95bd b4f1 36bd 4914 e93d
000001b0: bc01 d6bb 8e20 dabe cc8a 4cbe b981 15be
000001c0: c760 dc3c 8ada 8cbe de36 d6bd 7978 d7bc
000001d0: 9433 aa3e dbda 25be bc93 a5be cdc8 1ebe
000001e0: f3a7 a23d 8014 dabd 08fa f13d 8c08 22be
000001f0: ddbc 0a3e e5d1 5e3d e973 943d 3274 39be
00000200: 6a62 953e ba1e 4b3e 1223 c1bd 116d 5b3d
00000210: 96e6 893e ec8a 7c3c e673 89be 6f91 07be
00000220: 6626 073e 5aef 47be 2c56 cebd bbf4 b8bd
00000230: 1ba8 7dbe 30b6 51be bfac 1f3e 76ff 4a3e
00000240: 2c63 2bbe f8c9 b6be b58c d0bb 9929 343d
00000250: 64b4 4b3e b8e6 c9be 90f4 b2be 1691 ed3c
00000260: 2170 e3bd 0c41 42be 557f b7bc 2b57 9b3c
00000270: 0df1 2ebe 0bf9 c83e 32b5 bc3e 2d20 21be
00000280: 7d0f d43d a45c 513e d713 3dbc 6ff4 1cbe
00000290: b97e cfbd 2277 953d d42c 0fbe 2e57 753e
000002a0: 856d a73c 4bc7 4d3d 6960 c03c dce3 afbd
000002b0: 1ca5 bd3d 17e2 86be 9e74 2b3e 734a 9d3c
000002c0: 83df 0ebc 5c8c 79bd 85e5 c0bb 091c b83e
000002d0: efd1 193e 307a e7bd 82c2 b5be 2c3d b1be
000002e0: 7ac7 3cbe 937a 5ebe 23a3 7f3e 188f 943d
000002f0: 96bf 4e3e 9ce3 56bd 784c f5bd 1619 943e
00000300: 5539 0cbe 6d94 8b3e 7234 c23e 6325 50be
00000310: 33b9 1a3b 0753 21be b21a 8a3e 079c 043f
00000320: 1b23 dc3d 589d 7fbd 7ebe c53d 5d36 023e
00000330: ae3c c2be 9f77 c63e 0bc5 e7bd 0886 41bd
00000340: b982 203c 0b9d c93e bcda a7bd b73a b8bd
00000350: 687b 413e 9167 843e b5b4 613e d644 ee3c
00000360: 3a2e 143d 609b 833d e3f3 ac3e 7d60 b13e
00000370: 04c5 663e a09e ca3e 55c7 d9bd 65dc 093f
00000380: 4237 b53e d8b7 903e 9009 9a3e 22cd 713e
00000390: 0ab9 55bc 2887 c93e 4775 6a3e 79cd 123e
000003a0: f4e4 4cbe 511f f1bd eaa7 813e aece c93e
000003b0: 592c 703e 3bc6 00bd 2a30 793e 38e1 283e
000003c0: 05a7 b53e a9cb 1abd f6be bb3d 1b03 853d
000003d0: 7e46 163f f234 273e 778d c3bc a53b e7bc
000003e0: aeb6 b43d d4a3 673e 6a8d a53c fcfb ef3e
000003f0: f89b 2bbe c03c 823d 92d2 553e c74d be3e
