current_algos/LSTM_TD3/LSTM_TD3_Agent_critic_weights.pth (torch, 427715 bytes, 26 tensors)

curr_fe_dense1_q1.weight f4 [64, 51]
0	0xbc97b116	-0.018517058
1	0xbd8723b5	-0.065986075
2	0xbf593c08	-0.84857225
3	0x3f04b0c4	0.5183222
4	0x3ed658ce	0.41864628
5	0x3f0a8984	0.5411608
6	0xbe129255	-0.14313634
7	0xbced40c9	-0.028961556
8	0xbec512f4	-0.38491023
9	0xbe48f231	-0.19623639
10	0x3d5b7f77	0.053588357
11	0x3e48ce4f	0.1960995
12	0xbd883dd5	-0.066524185
13	0x3d060bbc	0.032726035
14	0x3d6ca9ec	0.057779238
15	0xbcd24cbd	-0.025671357
16	0xbe21330a	-0.15742126
17	0xbe9ac65f	-0.3022947
18	0x3cbdf6c9	0.023188965
19	0xbbe9eb6e	-0.007138661
20	0x3eca71fe	0.39540094
21	0x3ddb73df	0.1071546
22	0x3e34b43b	0.17646877
23	0x3db8438b	0.08997258
24	0x3db76173	0.08954134
25	0x3cb1496b	0.021641454
26	0xbe1ba736	-0.15200505
27	0x3e87d7b1	0.26531747
28	0x3f0fab5c	0.5612085
29	0x3eeacb7d	0.45858374
30	0x3e328a97	0.1743568
31	0x3e1f9e18	0.15587652
32	0xbe0a791f	-0.13522767
33	0xbdd90b8b	-0.10597905
34	0xbc01d51d	-0.007924345
35	0x3d17020e	0.036867194
36	0x3c293624	0.01032785
37	0x3dbd4761	0.0924213
38	0x3e0486ba	0.12942019
39	0xbe899575	-0.2687184
40	0xbf250375	-0.644584
41	0xbf3d6a51	-0.7399035
42	0xbf0b6810	-0.5445566
43	0xbdba618f	-0.09100639
44	0x3ea2bdc6	0.3178541
45	0xbe036e94	-0.12835151
46	0x3e0351b8	0.12824142
47	0x3dd2134d	0.102575876
48	0x3e4cf98b	0.20017068
49	0xbe98bf09	-0.29833248
50	0xbd810d4a	-0.06301363
51	0xbaba758f	-0.0014225709
52	0x3e2586ee	0.16164753
53	0x3e65af5b	0.22430174
54	0xbed53006	-0.416382
55	0x3ee2e0d4	0.44312155
56	0x3f40d43d	0.7532385
57	0xbbf37885	-0.0074301385
58	0xbe42bece	-0.19018099
59	0xbd189f73	-0.037261438
60	0xbf0d11c7	-0.5510525
61	0xbe60f0df	-0.21966885
62	0x3f0b72eb	0.54472226
63	0x3eccbc04	0.39987195
64	0x3ed06526	0.4070217
65	0xbe9549db	-0.2915791
66	0x3de343b5	0.110968985
67	0x3ed2c707	0.4116747
68	0xbe30ea62	-0.1727691
69	0xbf5af216	-0.85525644
70	0x3db360c6	0.087586924
71	0x3e437209	0.1908647
72	0x3f50a108	0.81495714
73	0x3f1584e2	0.5840589
74	0x3f09f48b	0.5388877
75	0x3e70a5d6	0.23500761
76	0x3e619a48	0.2203151
77	0x3e1a2506	0.15053186
78	0xbe0b6157	-0.13611351
79	0x3d2bba49	0.041925702
80	0xbdb3088b	-0.08741864
81	0xbed62a29	-0.4182904
82	0xbf358b65	-0.70915824
83	0xbee08521	-0.4385157
84	0xbf102c66	-0.56317747
85	0xbf6d237f	-0.9263229
86	0xbf8e8e4a	-1.1137173
87	0xbf7a9386	-0.9788135
88	0xbe848b3d	-0.2588748
89	0xbe2d507d	-0.16925235
90	0x3e0443cb	0.12916486
91	0xbf0f97f1	-0.5609122
92	0xbde5a736	-0.112135336
93	0x3f203951	0.6258746
94	0xbec1c569	-0.37845924
95	0x3d912671	0.0708741
96	0x3f337e79	0.70114857
97	0x3f87b191	1.0601064
98	0x3f2c3680	0.6727066
99	0x3f088a08	0.5333562
100	0xbf15f617	-0.5857863
101	0x3d36fe5d	0.044676173
102	0xbcb3571f	-0.021892129
103	0xbb81bb4e	-0.003959096
104	0xbd76d487	-0.060261276
105	0xbd5ef718	-0.054434866
106	0x3b40b59e	0.0029405127
107	0x3eb351c8	0.35023332
108	0x3e8e190c	0.27753484
109	0x3df98d7e	0.121851906
110	0x3efc3903	0.49262246
111	0x3ee31d8e	0.44358486
112	0x3e95d543	0.29264268
113	0x3ecd0d34	0.40049136
114	0xbe3a52c2	-0.18195632
115	0x3f4dfc13	0.8046276
116	0xbe3e99db	-0.18613379
117	0x3e723174	0.23651677
118	0x3e8a3e0f	0.27000472
119	0x3b398bc0	0.0028312057
120	0xbf1a9be5	-0.60394126
121	0xbe4c6eeb	-0.19964187
122	0xbd009af0	-0.03139776
123	0xbead7c38	-0.33883834
124	0x3d23d3ef	0.039997038
125	0x3e8810c0	0.2657528
126	0x3f28245b	0.65680474
127	0x3f8a58d4	1.0808358
128	0x3d825b39	0.063650556
129	0x3e0a5047	0.13507186
130	0xbe681f0d	-0.22668095
131	0xbef8b2c4	-0.48573887
132	0xbdc172aa	-0.094456986
133	0x3dad9c54	0.08477083
134	0x3ede5f44	0.43432057
135	0x3e19f263	0.1503387
136	0xbec8a1f1	-0.3918605
137	0xbf101db0	-0.562953
138	0xbee23dac	-0.44187677
139	0x3ea16875	0.31525007
140	0x3deb8c0a	0.1150132
141	0x3d98a1ad	0.07452712
142	0x3e9020f7	0.2815015
143	0x3efacdde	0.4898519
144	0x3eb4ca8b	0.35310778
145	0x3f3f0131	0.7461119
146	0xbe74416c	-0.23853081
147	0x3e57154c	0.21004218
148	0xbe6dbb91	-0.23216082
149	0xbf21b2f4	-0.63163686
150	0x3ce89c46	0.02839483
151	0xbdb6b8a1	-0.08921934
152	0xbc13c46a	-0.009018997
153	0xbcda2ab9	-0.0266317
154	0x3d8965b8	0.067088544
155	0x3e6e67fb	0.23281853
156	0xbd1011d4	-0.035173252
157	0xbda7d2d6	-0.08194511
158	0xbe167b0a	-0.14695373
159	0xbd19ff1d	-0.03759681
160	0x3caf18cc	0.021374129
161	0x3d72fe04	0.05932428
162	0x3e18a30a	0.14905944
163	0x3dca1d03	0.09868815
164	0xbb7f6218	-0.003896838
165	0xbdc5944f	-0.09647428
166	0x3d8cf539	0.0688271
167	0x3dca7957	0.09886425
168	0x3e36186b	0.17782752
169	0x3e1b591e	0.15170714
170	0x3d5fd626	0.054647587
171	0x3e2da945	0.16959102
172	0x3c2ab29e	0.010418562
173	0xbe3c52d1	-0.18390967
174	0x3d9deee9	0.07711584
175	0x3d44a569	0.04800931
176	0xc049e818	-3.1547909
177	0xbe24de4e	-0.16100428
178	0xbdeb5e9e	-0.11492656
179	0xbbc4b193	-0.006002614
180	0x3d6d06db	0.057867866
181	0xbc3e46f7	-0.011613599
182	0xbcfbde92	-0.030745778
183	0x3c3ff875	0.011716952
184	0xbdb9907e	-0.09060763
185	0x3d844271	0.06457985
186	0xbc67fec2	-0.01415986
187	0x3d8d40c9	0.068971224
188	0x3f00bc65	0.5028747
189	0x3e9eee33	0.31041107
190	0x3dc51cf1	0.09624661
191	0x3dd59255	0.10428301
192	0x3de40194	0.111331135
193	0x3e663888	0.22482502
194	0x3e0600ee	0.13086292
195	0x3d930a14	0.071796566
196	0x3df12fc1	0.117766865
197	0xbdd9ffd7	-0.10644501
198	0xbe8c86ec	-0.27446687
199	0xbbcec70e	-0.0063103503
200	0xbf327798	-0.69713736
201	0xbde16255	-0.110050835
202	0xbe367a93	-0.17820196
203	0xbd5dbe59	-0.054136608
204	0xbd59ad8a	-0.053144015
205	0xbd95a098	-0.073060215
206	0x3ef08ce8	0.46982503
207	0xbb690257	-0.0035554373
208	0x3f414518	0.75496054
209	0x3f61104f	0.8791551
210	0x3e87a988	0.2649653
211	0xbe7b2729	-0.24526657
212	0x3f3fc34f	0.7490739
213	0x3e945203	0.2896882
214	0x3ef40d65	0.4766647
215	0x3ed673df	0.41885278
216	0xbcec9754	-0.028880753
217	0x3ef1495b	0.47126278
218	0xbe589947	-0.2115222
219	0xbe4790f5	-0.1948889
220	0xbf45087d	-0.7696608
221	0xbf0b0595	-0.5430539
222	0xbf00db95	-0.50335056
223	0xbf00c117	-0.5029463
224	0x3eb0937f	0.3448753
225	0x3e16078e	0.1465132
226	0x3dab2c64	0.08358076
227	0xbea90e72	-0.33018833
228	0x3dd2aa23	0.10286357
229	0xbe053762	-0.13009408
230	0xbf8db13e	-1.1069715
231	0xbfd91d0a	-1.6961987
232	0xbf919195	-1.1372553
233	0xbf126b61	-0.571951
234	0xbece37d7	-0.40276977
235	0xbd569f85	-0.052398223
236	0xbea0e470	-0.31424284
237	0x3db47fb5	0.08813421
238	0x3eaecd2c	0.3414091
239	0x3e03f150	0.12885022
240	0x3ed7685b	0.42071804
241	0xbf0aa480	-0.5415726
242	0xbea881e1	-0.3291159
243	0xbd90534f	-0.0704714
244	0xbd6086fd	-0.054816235
245	0xbe40c80b	-0.1882631
246	0xbee7d66a	-0.45280772
247	0x3d218884	0.039436832
248	0x3e5450a0	0.20733881
249	0xbefce089	-0.49390057
250	0x3e1ae449	0.15126146
251	0x3e0b2da7	0.13591634
252	0x3dce69fc	0.10078809
253	0xbe911dba	-0.28342992
254	0xbdac7cad	-0.084222175
255	0x3c91e1f8	0.017807946

curr_fe_dense1_q1.bias f4 [64]
0	0x3f2dd930	0.67909527
1	0xbea87956	-0.32905072
2	0xbee34abd	-0.44392958
3	0xbdbb8f81	-0.091582306
4	0xbe183d33	-0.14867096
5	0x3c8f9b60	0.017530143
6	0xbf052674	-0.520118
7	0x3eb4f7e8	0.35345387
8	0xbf998414	-1.1993432
9	0x3ed7019a	0.4199341
10	0x3ef02893	0.46905956
11	0x3e8450ea	0.25842983
12	0xbd828947	-0.0637384
13	0xbe40fbf7	-0.18846117
14	0xbeb27236	-0.3485276
15	0x3dc56004	0.09637454
16	0x3db3face	0.087880716
17	0x3f043af6	0.5165247
18	0x3e2f5b2b	0.17124622
19	0x3b5a08c1	0.0033269378
20	0xbde61626	-0.11234693
21	0x3e230e37	0.15923391
22	0xbd719a5a	-0.05898509
23	0xbfb1d3a4	-1.3892713
24	0x3d578f11	0.052626673
25	0x3f0e8b3c	0.55681205
26	0x3e0d304b	0.13787954
27	0xbf857822	-1.0427287
28	0x3e74c6b4	0.23903924
29	0x3e2e1066	0.16998443
30	0x3ed5116d	0.41614857
31	0x3edf1baf	0.43575808
32	0xbe9af520	-0.3026514
33	0xbe85cf24	-0.26134598
34	0x3f795d1b	0.9740769
35	0x3f6218b5	0.8831895
36	0x3d7d62c9	0.061861787
37	0xbe21d8e1	-0.15805389
38	0x3ec04487	0.37552282
39	0x3e2396a0	0.15975428
40	0xbe9d0396	-0.30666798
41	0xbb537b33	-0.0032269477
42	0x3ea0a6f0	0.31377363
43	0xbf0dfee4	-0.5546706
44	0x3ef2fcbe	0.47458452
45	0xbe7b439f	-0.24537514
46	0x3e087d97	0.13329159
47	0x3f2814bf	0.65656656
48	0xbf11478a	-0.56749785
49	0x3ed7c0fc	0.42139423
50	0x3da56d4e	0.08077489
51	0xbf3905be	-0.72274387
52	0x3e701865	0.23446806
53	0xbe25f7ef	-0.1620786
54	0xbf19c01e	-0.6005877
55	0x3fa46fb0	1.2846584
56	0x3e9899c9	0.2980483
57	0x3f3ea456	0.74469507
58	0x3f463224	0.7742026
59	0xbdd60642	-0.10450412
60	0xbdb7a589	-0.0896712
61	0x3ef34ec5	0.47521034
62	0xbf5f8f62	-0.8732816
63	0xbcf1764f	-0.02947536

curr_fe_dense2_q1.weight f4 [64, 64]
0	0xbf264447	-0.6494793
1	0x3ee0ddf0	0.43919325
2	0x3f4bed4b	0.79658955
3	0xbe97a86b	-0.2962068
4	0x3f4611d9	0.77370983
5	0xbe9fea4c	-0.31233442
6	0xbecc3b5e	-0.39889044
7	0x3e843a3e	0.25825685
8	0x3f12f6c0	0.5740776
9	0xbcde3564	-0.027125068
10	0xbf75f207	-0.9607243
11	0x3ea73822	0.32660013
12	0xbeac9884	-0.3371011
13	0x3f828cb7	1.0199193
14	0x3f1717b6	0.59020555
15	0xbe71c985	-0.2361203
16	0x3c9af85a	0.018917251
17	0x3e852a7b	0.26008973
18	0xbf4ee55d	-0.8081873
19	0xbc3c8722	-0.011506828
20	0xbd4fa640	-0.050695658
21	0xbe72ec14	-0.23722869
22	0xbf15a09a	-0.58448184
23	0x3f100005	0.5625003
24	0xbcde0ace	-0.027104761
25	0xbf01b081	-0.5065995
26	0xbdd99bb1	-0.10625399
27	0xbd52f50d	-0.05150323
28	0xbf52b76b	-0.82311124
29	0x3e3c1a6f	0.18369459
30	0xbf711406	-0.9417118
31	0xbdb6f5f8	-0.089336336
32	0x3e066d6b	0.13127677
33	0x3f3d8780	0.7403488
34	0xbf031917	-0.5121016
35	0xbec91765	-0.3927566
36	0xbddbe82a	-0.10737641
37	0xbd5696d3	-0.05238993
38	0xbf95e3e2	-1.1710169
39	0xbf7d719f	-0.990015
40	0x3f00bf9a	0.5029236
41	0xbc71c08d	-0.01475538
42	0xbf4aa941	-0.7916451
43	0x3e8b2d23	0.27182874
44	0x3e3e711d	0.18597837
45	0x3da3224d	0.07965527
46	0xbee39c57	-0.44455215
47	0x3ebbc559	0.36674002
48	0xbf0e7e9d	-0.55661947
49	0x3ec56274	0.38551676
50	0x3ebda2fa	0.37038404
51	0x3eecf51e	0.4628076
52	0x3d1c008d	0.038086463
53	0xbe2f5c5d	-0.17125078
54	0x3e93eb9e	0.288907
55	0xbe9f08b3	-0.31061324
56	0xbf2a5ccf	-0.66547865
57	0x3dcac44e	0.099007234
58	0xbf21d48d	-0.6321495
59	0xbd623d68	-0.055234343
60	0x3ef35f55	0.4753367
61	0x3f4bf8c2	0.7967645
62	0x3ebd0e55	0.36924997
63	0xbe6831d8	-0.22675264
64	0x3ecd4497	0.40091392
65	0xbf16ba9c	-0.58878493
66	0xbf6c41d5	-0.9228795
67	0xbeaa5c42	-0.33273512
68	0xbefaafe6	-0.48962325
69	0x3d31d2d7	0.043413963
70	0xbf04775b	-0.5174462
71	0x3f1c4ba2	0.61052907
72	0x3dae57e1	0.08512855
73	0xbb8ef3aa	-0.004362543
74	0xbe927b6f	-0.28609797
75	0xbf124a53	-0.5714466
76	0xbde44f78	-0.1114797
77	0xbe2d4622	-0.16921285
78	0x3e638e59	0.2222227
79	0x3dd6ebf4	0.10494223
80	0xbe326c6b	-0.1742417
81	0xbf1aaf1f	-0.60423464
82	0x3d0ae816	0.03391274
83	0xbff3c2d8	-1.9043837
84	0xbdb7af78	-0.08969015
85	0x3da19e0c	0.07891473
86	0xbf316d27	-0.6930718
87	0x3e936eea	0.28795558
88	0xbeb596da	-0.35466653
89	0xbe95be91	-0.29246953
90	0x3da69211	0.08133329
91	0x3ee40e85	0.44542328
92	0xbdc19f26	-0.09454183
93	0xbfa916ed	-1.3210121
94	0x3ddfbd1a	0.1092474
95	0x3e92c92c	0.28669107
96	0x3e4d5009	0.20050062
97	0xbfc8175a	-1.5632126
98	0xbe507001	-0.20355226
99	0xbebf145e	-0.37320226
100	0xbe12eed7	-0.14348923
101	0x3ee20af5	0.44148985
102	0x3e0936c9	0.13399805
103	0xbf37bc64	-0.71771836
104	0x3eb895f6	0.3605191
105	0x3e983440	0.29727364
106	0x3cafa930	0.02144298
107	0x3d9c84a3	0.07642486
108	0xbec24825	-0.37945667
109	0xbeb2a1af	-0.3488898
110	0xbe45c5f9	-0.19313802
111	0xbedbf919	-0.42963484
112	0xbe6baab7	-0.23014341
113	0xbf6e0d3e	-0.92988956
114	0x3d44a750	0.048011124
115	0xbe00955b	-0.12556975
116	0xbe64beb9	-0.2233838
117	0xbec4f656	-0.3846919
118	0x3ef90f5f	0.4864454
119	0x3e2eddf2	0.17076853
120	0xbdef5ce2	-0.11687638
121	0xbf22dd59	-0.63619
122	0xbf8b2be5	-1.087277
123	0xbebd5a76	-0.3698308
124	0xbdb3a5ea	-0.0877188
125	0x3e0d54b4	0.13801843
126	0xbf382596	-0.7193235
127	0xbe6a5497	-0.22883831
128	0xbf166af2	-0.58756936
129	0x3eccd0a1	0.4000292
130	0xbec55cec	-0.38547456
131	0xbd0b07a7	-0.033942845
132	0xbf487dfe	-0.7831725
133	0xbebf7ea3	-0.37401304
134	0xbf5fb4d3	-0.8738529
135	0xbdab1f95	-0.08355633
136	0x3f25dd5f	0.6479091
137	0xbf6b8ef2	-0.9201499
138	0xbf311384	-0.69170403
139	0xbee3f230	-0.44520712
140	0xbe8d7219	-0.27626112
141	0x3f36becb	0.71384877
142	0x3e293b49	0.16526522
143	0xbf81989c	-1.0124698
144	0xbe94f9b8	-0.2909677
145	0x3f5a5f60	0.8530178
146	0xbe6ce51e	-0.23134276
147	0x3dadaa78	0.0847978
148	0xbe9df6ba	-0.308523
149	0x3f433a25	0.76260597
150	0x3f2b4015	0.66894656
151	0x3e42663f	0.18984316
152	0xbf9471c2	-1.1597216
153	0x3d2276e4	0.039664164
154	0x3e50c30b	0.20386903
155	0x3eedd23f	0.46449468
156	0xbf0a2334	-0.53959966
157	0xbef6d4f4	-0.48209345
158	0xbf00c7f3	-0.503051
159	0x3ed4c599	0.41557005
160	0xbef2bf29	-0.4741147
161	0xbfc3d77d	-1.5300137
162	0xbfdfc5cd	-1.7482239
163	0xbe3ba9db	-0.18326513
164	0x3d1f0d25	0.038830895
165	0xbf95618e	-1.1670396
166	0x3e30291e	0.17203185
167	0xbde773f4	-0.11301413
168	0x3e8c2a17	0.27375862
169	0xbf0f0c22	-0.5587789
170	0xbec18f0f	-0.37804458
171	0xbe9cbc38	-0.3061235
172	0x3e5395d8	0.2066263
173	0x3d972993	0.073809765
174	0x3efc00bf	0.4921932
175	0xbf63e83f	-0.89026254
176	0x3e519625	0.20467432
177	0xbf57a2c1	-0.8423272
178	0xbe820915	-0.25397554
179	0xbf2af5a4	-0.6678107
180	0xbf131e0d	-0.5746773
181	0xbf1b156d	-0.6057957
182	0x3d411ff0	0.0471496
183	0x3e9c4dea	0.30528194
184	0x3eff01f6	0.49806184
185	0x3db911a9	0.090365715
186	0x3ce02811	0.027362855
187	0x3ef5db0f	0.4801869
188	0x3ebbcfe0	0.36682034
189	0xbe9f3f59	-0.31103018
190	0x3f125ec1	0.57175833
191	0xbfb07471	-1.3785535
192	0x3d719aff	0.058985706
193	0x3deefd5b	0.116694175
194	0xbf46ee34	-0.7770722
195	0x3df40c43	0.11916401
196	0xbdccb3d0	-0.09995234
197	0xbf5460e4	-0.82960343
198	0xbe06bc33	-0.1315773
199	0xbf9b1fb7	-1.2119054
200	0xc00817c2	-2.12645
201	0xbfc7ba63	-1.5603756
202	0xbcfc8c63	-0.03082866
203	0xbe626c8a	-0.22111717
204	0xbd27b5af	-0.04094475
205	0xbcbc02cc	-0.022950552
206	0xbfef27c9	-1.8684016
207	0xbea87693	-0.32902965
208	0x3ea30f50	0.3184762
209	0x3f22f0dc	0.6364877
210	0xbda05573	-0.07828798
211	0xbdaa06ae	-0.08302055
212	0x3cb4c428	0.02206619
213	0xc03f53fd	-2.9895012
214	0x3dc83fa4	0.097777635
215	0x3f1088e0	0.56458855
216	0xbd9d83bd	-0.07691143
217	0xbd99dd7f	-0.0751295
218	0xbfde2d41	-1.735756
219	0xbf346865	-0.70471793
220	0x3c02ada8	0.007975973
221	0xbe944eff	-0.2896652
222	0xbd7a1a62	-0.061060317
223	0xbe8262a7	-0.2546589
224	0xbf278ce9	-0.65449387
225	0x3de0bf1c	0.10973951
226	0x3eabf829	0.3358777
227	0xbe9e24fc	-0.30887592
228	0x3d959e5a	0.07305594
229	0xbfc5dc78	-1.5457907
230	0x3ddb7efe	0.10717581
231	0xbe38e84b	-0.18057363
232	0x3e6723ab	0.225722
233	0x3ce36c7e	0.027761694
234	0xbd6bfb36	-0.05761262
235	0xc0069c81	-2.1033022
236	0x3f902678	1.126174
237	0x3c31a97b	0.01084363
238	0x3d8ec2a9	0.06970722
239	0x3db843e4	0.08997324
240	0xbf458922	-0.77162373
241	0xbea07130	-0.31336355
242	0x3d3d0ac8	0.04615286
243	0xbddc0923	-0.1074393
244	0xbf06a36c	-0.5259311
245	0xbc106000	-0.008811951
246	0x3eaa8ed7	0.33312103
247	0x3d8efe90	0.06982148
248	0x3d9b98b8	0.07597488
249	0xbda137af	-0.07871949
250	0xbe124502	-0.14284137
251	0x3d0d0474	0.034428075
252	0xbf8b050b	-1.0860914
253	0xbe23dc44	-0.16001993
254	0xbf19e36f	-0.6011266
255	0xbccd26b3	-0.025042867

curr_fe_dense2_q1.bias f4 [64]
0	0xbe189e42	-0.1490412
1	0xbe0388bc	-0.12845129
2	0xbd9f75f6	-0.07786171
3	0x3ea35a17	0.3190467
4	0xbc263ef3	-0.010146844
5	0x3f6c70f6	0.92359865
6	0x3ac9d279	0.0015397809
7	0xbe631684	-0.22176558
8	0x3ce9b592	0.028528962
9	0x3ed468de	0.41486257
10	0xbed4071e	-0.4141168
11	0xbb632945	-0.003466205
12	0x3cbce799	0.023059653
13	0xbda9887b	-0.08277985
14	0x3bc500cc	0.006012058
15	0x3eab404f	0.334475
16	0x3f02dc16	0.51117074
17	0xbf1f58d6	-0.6224493
18	0xbece69b5	-0.40315023
19	0xbe9de5b3	-0.3083931
20	0xbde6ba8d	-0.112660505
21	0xbd375006	-0.04475405
22	0x3ec47e06	0.38377398
23	0xbf0615ec	-0.523772
24	0xbea82d08	-0.32846856
25	0x3e85a548	0.26102662
26	0xbf57724b	-0.8415877
27	0x3d95ab43	0.07308056
28	0x3da33f9f	0.07971119
29	0x3eeb812e	0.45996994
30	0x3f2b22d9	0.6685005
31	0x3db743df	0.08948492
32	0x3ed56d35	0.4168488
33	0x3e4cfe41	0.20018865
34	0xbf3ed215	-0.7453931
35	0x3cad683d	0.021167869
36	0xbf1be96e	-0.6090306
37	0xbe0d9dd1	-0.13829733
38	0x3d399f6d	0.045318056
39	0x3e9769ac	0.2957281
40	0xbd9ae581	-0.07563306
41	0xbe94bc38	-0.2904985
42	0x3e69f3c0	0.2284689
43	0x3e96a724	0.29424393
44	0xbe1178cb	-0.14206235
45	0xbdab6fc1	-0.08370925
46	0xbbee26e6	-0.0072678206
47	0xbeb1bf93	-0.34716472
48	0x3e1ce4f2	0.1532171
49	0x3eadebe6	0.3396904
50	0x3f003833	0.50085753
51	0xbf2a59c1	-0.66543204
52	0x3e7441f7	0.23853289
53	0xbed09dc7	-0.40745375
54	0xbe813f4c	-0.25243604
55	0xbeeb3c6b	-0.45944533
56	0xbf197df4	-0.59957814
57	0x3e3e3728	0.18575728
58	0xbe533472	-0.20625475
59	0x3ea06024	0.3132335
60	0x3ed79380	0.4210472
61	0x3dcd4dd8	0.10024613
62	0x3f6f4881	0.9347001
63	0xbd36d351	-0.04463512

mem_dense_q1.weight f4 [64, 50]
0	0x3c1e11bf	0.009647786
1	0x3d93f7a3	0.07224967
2	0x3e3cc9ff	0.1843643
3	0x3dbc51d8	0.09195298
4	0x3c231519	0.009953761
5	0xbc66b3c8	-0.014080949
6	0xbdcab740	-0.098982334
7	0x3c4ab771	0.012372837
8	0x3d939686	0.072064444
9	0x3d8a9d68	0.06768304
10	0xbd92e634	-0.07172814
11	0x403624fb	2.846007
12	0xbe231b70	-0.15928435
13	0xbcaaf6e0	-0.020869672
14	0x3da73c76	0.08165829
15	0xbdb7a49a	-0.08966942
16	0x3cd7b16b	0.026329717
17	0xbc8c1480	-0.017099619
18	0xbd712998	-0.058877558
19	0x3cdd905a	0.027046371
20	0xbd24a222	-0.040193684
21	0xbc846ae9	-0.01616426
22	0xbe58853e	-0.21144578
23	0x40480bcb	3.1257198
24	0xbe36e36f	-0.17860197
25	0x3d20e1e4	0.039277926
26	0x3d5ac696	0.053412043
27	0x3d414531	0.047185127
28	0x3d683822	0.056694157
29	0x3d09cb98	0.033641428
30	0xbc42e2a1	-0.011894853
31	0x3e0f41d3	0.13989954
32	0xbdb30aa8	-0.08742267
33	0x3e179b12	0.14805248
34	0xbdf73b65	-0.120718755
35	0x3fe237a1	1.7673227
36	0xbe95a218	-0.2922523
37	0x3d7d8861	0.06189764
38	0xbbe31d84	-0.006931009
39	0xbc547c4d	-0.012969089
40	0x3df28e54	0.11843553
41	0x3d2fb530	0.042897403
42	0x3e042af6	0.12907013
43	0xbd8f4e45	-0.069973506
44	0xbdb2f17a	-0.08737464
45	0xbe52d913	-0.2059062
46	0xbe8fc498	-0.28079677
47	0x3fa8f11b	1.319858
48	0xbe35b45c	-0.17744583
49	0x3df1655f	0.11786913
50	0xbbcf0a8e	-0.006318397
51	0x3cc06a8b	0.023488304
52	0x3d1ebb64	0.03875293
53	0xbe8c6c50	-0.27426386
54	0xbf24901b	-0.6428239
55	0x407c0f13	3.93842
56	0x3c2e30fb	0.010631795
57	0xbd403864	-0.04692878
58	0xbc095fff	-0.008384704
59	0x3dc7b338	0.0975098
60	0x3d76bccc	0.060238644
61	0xbd0a9c66	-0.03384056
62	0xbd2de5da	-0.04245553
63	0xbcbca13d	-0.023026103
64	0x3d5b43f7	0.053531613
65	0x3ddc2f45	0.107512034
66	0x3e73986d	0.23788615
67	0xbdbaef8e	-0.09127723
68	0x3e09c334	0.1345337
69	0xbd080b56	-0.033213936
70	0xbd174455	-0.0369304
71	0xbcd7a5cc	-0.026324175
72	0x3d8331d8	0.06405991
73	0xbbe1d2ba	-0.0068915756
74	0xbcd5fc9f	-0.026121436
75	0xbd4a9474	-0.049457982
76	0xbe0d3682	-0.13790324
77	0xbd70c4c4	-0.0587814
78	0x3e2c7f10	0.16845345
79	0x4038e3bd	2.8889
80	0x3e6291a0	0.22125864
81	0x3e5bf7c8	0.2148124
82	0x3d8003f8	0.06250757
83	0x3caa9f96	0.02082805
84	0x3dfe4b85	0.12416748
85	0x3d1062be	0.035250418
86	0x3e146a55	0.14493687
87	0x3e1359e8	0.14389765
88	0xbc7b516d	-0.015339238
89	0x3dad019a	0.08447571
90	0x3d634a30	0.055490673
91	0xbf83fcf7	-1.0311574
92	0x3dae219f	0.085025065
93	0xbd618fbc	-0.055068716
94	0xbcc51d70	-0.024061888
95	0x3b7e1d6d	0.0038774863
96	0x3db2b2b0	0.08725488
97	0x3dbeda26	0.09318952
98	0x3c5d8c3d	0.013522205
99	0xbd95531a	-0.07291241
100	0xbc2490b3	-0.010044265
101	0x3c6531b4	0.013988901
102	0x3f715afe	0.9427947
103	0xbf0cc4ce	-0.549878
104	0xbf0dc21a	-0.553743
105	0xbe9328df	-0.2874212
106	0xbdf05c8b	-0.11736401
107	0xbdd93e6a	-0.10607608
108	0xbdef0b89	-0.11672122
109	0x3ebdea5b	0.37092862
110	0xbced87a0	-0.028995335
111	0x3deaf9d0	0.11473429
112	0x3dc4fdaf	0.09618699
113	0xbdda41b7	-0.10657065
114	0xbf1e2db4	-0.6178849
115	0xbeb8949d	-0.36050883
116	0xbc56a34f	-0.013100459
117	0x3e33553d	0.17512985
118	0x3cda8e15	0.026679078
119	0xbddecb9c	-0.10878679
120	0x3dba5079	0.0909738
121	0x3daade74	0.08343211
122	0xbe011832	-0.12606886
123	0xbe6756b9	-0.22591676
124	0xbe1d5f61	-0.15368415
125	0x3c88b2ee	0.016686883
126	0xbe9cc1fa	-0.30616742
127	0x3fc2c607	1.5216683
128	0xbef2a81c	-0.47393882
129	0xbeec6499	-0.461705
130	0x3d3a93f7	0.045551267
131	0x3db8d5cb	0.09025153
132	0x3d1acce1	0.037793044
133	0xbe4ffebb	-0.20312016
134	0xbdc8e8a6	-0.09809999
135	0x3e883848	0.2660544
136	0x3e34bba7	0.17649709
137	0x3dc03d15	0.093866505
138	0xbea70850	-0.3262353
139	0xbf4f5ce2	-0.810011
140	0x3f4d3033	0.8015167
141	0xbe0d918f	-0.13825057
142	0xbdf0552d	-0.11734996
143	0xbcb6402f	-0.022247402
144	0xbd9bc602	-0.07606126
145	0xbba2a6a8	-0.0049637146
146	0x3dc91e50	0.09820235
147	0x3dc54308	0.09631926
148	0xbd8d974a	-0.06913622
149	0x3d5a68e0	0.053322673
150	0x3aaabd42	0.0013026374
151	0x3e0719c6	0.13193426
152	0x3db611b4	0.08890095
153	0xbc24dc59	-0.010062301
154	0x3bac574c	0.00525943
155	0xbd53da5b	-0.051721912
156	0x3b133454	0.002246161
157	0xbc696900	-0.014246225
158	0x3dc8bb08	0.098012984
159	0x3df15fc6	0.117858455
160	0x40bffe08	5.9997597
161	0xbd99e748	-0.075148165
162	0x3c2fb403	0.0107240705
163	0xbd43afb4	-0.047774985
164	0x3df083a4	0.117438585
165	0x3dce64b1	0.10077799
166	0x3839fb7f	4.434166e-05
167	0xbc418065	-0.011810397
168	0xbd890152	-0.06689705
169	0xba93d77d	-0.001127943
170	0xbdad18f1	-0.08452023
171	0xbd521763	-0.051291835
172	0xbf219c2b	-0.6312892
173	0xbc876fda	-0.016532827
174	0x3c619408	0.013768204
175	0x3c7a7f92	0.015289204
176	0x3d27f840	0.041008234
177	0x3d21a909	0.039467845
178	0x3de77fe1	0.11303688
179	0x3d3cb1b4	0.04606791
180	0xbc6fd4ac	-0.014638107
181	0x3e087bca	0.13328472
182	0xbd3a6596	-0.045507036
183	0x3daa4fc6	0.08315997
184	0x3ff9549e	1.9478948
185	0xbbbea37b	-0.0058178282
186	0x3d9d6960	0.07686114
187	0xbbe81769	-0.007082869
188	0x3cb1e605	0.021716127
189	0x3d197a40	0.037470102
190	0xbd921f49	-0.071348734
191	0xbe09cc2c	-0.13456792
192	0xbe058acf	-0.13041233
193	0x3d032b80	0.032023907
194	0xbca630f9	-0.020287024
195	0xbe0da962	-0.13834146
196	0x3ee82354	0.45339453
197	0x3c01b310	0.007916227
198	0x3d68d39b	0.056842428
199	0x3d5e44c0	0.054264784
200	0xbb2dcf9d	-0.0026521452
201	0xbd9feed8	-0.07809228
202	0xbc0b2f03	-0.008495095
203	0x3de7c067	0.11315995
204	0xbc03d872	-0.00804721
205	0x3bc2755d	0.005934401
206	0xbbe4248c	-0.0069623645
207	0x3af1e709	0.0018455695
208	0x3c9e6a32	0.019337747
209	0x3cc3e21e	0.023911532
210	0xc12639c0	-10.389099
211	0xbdf9c1e8	-0.12195188
212	0xbd0f9bd7	-0.03506073
213	0x3b12f6c4	0.0022424916
214	0xbb1505e5	-0.002273911
215	0xbcc29442	-0.023752335
216	0x3cca8043	0.024719363
217	0x3c809a15	0.015698472
218	0xbd5196e2	-0.051169284
219	0xbda97995	-0.08275143
220	0xbb74e679	-0.0037368818
221	0x3cd2f697	0.025752349
222	0x3ddae109	0.10687453
223	0x3d9cdaa7	0.07658892
224	0x3d98c7a2	0.07459952
225	0x3c3a2ac2	0.011362733
226	0x3c2892fa	0.010288948
227	0x3d0e1eba	0.034697272
228	0x3c500679	0.012696856
229	0x3c39470d	0.011308444
230	0x3d955c43	0.07292988
231	0xbca9789b	-0.020687392
232	0x3c8ab485	0.016931782
233	0x3d3c8bfc	0.046031937
234	0xbeb9c22a	-0.36280948
235	0xbe2697f0	-0.16268897
236	0xbd30a4f3	-0.043126058
237	0x3aa09897	0.0012252507
238	0x3cd0ae94	0.02547387
239	0x3d386763	0.045020472
240	0x3c4d870c	0.012544405
241	0xbbb1f5c2	-0.005430908
242	0xbc1ae924	-0.009454999
243	0xbda0c768	-0.07850534
244	0xbd4fbd28	-0.050717503
245	0xbd139c73	-0.036037873
246	0x3d96f8ac	0.07371649
247	0x3da2d9fc	0.079517335
248	0x3d46e098	0.048554033
249	0xbc85c4a5	-0.016329119
250	0xbbd50180	-0.006500423
251	0xbebf5d4c	-0.37375867
252	0xbdd3c9eb	-0.10341247
253	0xbfbc456e	-1.4708688
254	0xbe03b7bf	-0.12863062
255	0xbd6313d2	-0.055438824

mem_dense_q1.bias f4 [64]
0	0x3f0bb56d	0.5457371
1	0x3e7051c2	0.23468688
2	0x3f1b3905	0.6063388
3	0x3ee55ab9	0.44795778
4	0x3e59ff7b	0.21288864
5	0x3ea3787e	0.31927866
6	0xbb6cf0e4	-0.0036154324
7	0x3f1bc783	0.60851306
8	0x3f2d552f	0.67708105
9	0x3f13ea60	0.577795
10	0x3f139869	0.57654434
11	0x3e92cf5e	0.28673834
12	0x3f5875b2	0.8455459
13	0x3ee0118f	0.43763396
14	0x3f353134	0.70778203
15	0x3f21dfce	0.63232124
16	0x3b0306f3	0.0019993156
17	0x3e1f760c	0.15572375
18	0x3e8dcba3	0.27694425
19	0x3f2e96cd	0.68198854
20	0x3f579e57	0.8422598
21	0x3f366e4f	0.7126207
22	0x3cf77143	0.030205375
23	0x3f1bb9d7	0.60830444
24	0x3f35f341	0.710743
25	0x3f192637	0.59823936
26	0x3e6d2420	0.23158312
27	0x3f2725b5	0.6529191
28	0x3e63000b	0.22167985
29	0x3e54c573	0.20778446
30	0x3f6e397f	0.9305648
31	0x3f1c6c83	0.61103076
32	0x3f20bcde	0.6278819
33	0x3f53ed7a	0.82784235
34	0x3f45ce41	0.77267843
35	0xbc08f1d2	-0.008358436
36	0x3fa99753	1.3249305
37	0xbeacb41a	-0.33731157
38	0x3f025407	0.50909466
39	0x3e0d0855	0.1377271
40	0x3f22d71c	0.6360948
41	0x3f53d8ef	0.8275289
42	0x3f41eb58	0.7574973
43	0x3f45b8f7	0.7723536
44	0x3ee42b87	0.4456446
45	0x3f48d7fa	0.78454554
46	0x3f18851d	0.59578115
47	0x3ed60e6d	0.4180788
48	0x3f83bee8	1.0292635
49	0x3e0442e3	0.1291614
50	0xbcbf4cd3	-0.023352062
51	0x3e2ac439	0.16676416
52	0x3f2c1349	0.67216927
53	0x3e35b9ad	0.17746611
54	0x3c6cc0ec	0.014450293
55	0x3f0e3025	0.5554221
56	0x3f0c23e2	0.5474225
57	0x3ed81449	0.42202976
58	0x3f022fc6	0.50854146
59	0x3e203410	0.1564486
60	0x3eb9c18c	0.36280477
61	0x3f66c86e	0.9014958
62	0x3ef7080e	0.48248333
63	0x3d966bc8	0.073447764

mem_LSTM_q1.weight_ih_l0 f4 [256, 64]
0	0xbd91e1a0	-0.07123113
1	0xbc814944	-0.015782006
2	0xbf15ec25	-0.5856345
3	0xbdad3ca6	-0.084588334
4	0x3e0eeae6	0.13956794
5	0xbe180b39	-0.14848031
6	0x3d795099	0.06086788
7	0x3e549f70	0.20763946
8	0xbe4ea12a	-0.20178667
9	0xbc3b294d	-0.011423421
10	0xbf4bb057	-0.7956595
11	0xbf62ebca	-0.88641036
12	0xbe6f09b3	-0.23343544
13	0xbe4bae8d	-0.19890805
14	0x3df8b728	0.12144309
15	0xbc595bce	-0.013266517
16	0xbddf250e	-0.108957395
17	0xbe850a01	-0.25984195
18	0xbe880b3f	-0.2657108
19	0x3e44589f	0.19174431
20	0x404bfc45	3.1872723
21	0xbcf2de3e	-0.029646989
22	0xbd095cc6	-0.03353574
23	0x3e9fdd8e	0.3122372
24	0x3d972fe0	0.07382178
25	0xbe8a724c	-0.27040327
26	0xbdffc76a	-0.12489207
27	0x3d8a4311	0.06751073
28	0xba66a53e	-0.0008798427
29	0xbdffa02d	-0.12481723
30	0xbe7d371b	-0.24728052
31	0xbd74618f	-0.05966335
32	0xbe851c91	-0.25998357
33	0xbc8418fe	-0.016125198
34	0xbf58bb92	-0.8466121
35	0x3e84a6f9	0.2590864
36	0xbbe4919d	-0.0069753663
37	0xbdb85f5b	-0.090025626
38	0xbe8c80de	-0.27442068
39	0xbead38d4	-0.3383242
40	0x3d910cbc	0.07082507
41	0xbe014917	-0.12625538
42	0x3e9e893b	0.30964074
43	0xbdf2fc99	-0.118645854
44	0xbb11f417	-0.0022270733
45	0xbe46886c	-0.19387978
46	0xbf594e46	-0.8488506
47	0x3e6f883f	0.23391818
48	0x3e00dab2	0.12583426
49	0x3e65b636	0.22432789
50	0x3d1d13ce	0.038348965
51	0xc0064c85	-2.0984204
52	0xbede2b68	-0.4339249
53	0x3f3ac895	0.72962314
54	0x3df497f3	0.119430445
55	0x3d97886c	0.07399067
56	0x3b575caa	0.0032861629
57	0x3e64f4ea	0.22359052
58	0xbcf8bc83	-0.030363327
59	0x3c87cc00	0.016576767
60	0xbdab9534	-0.083780676
61	0xbe80a64a	-0.25126868
62	0x3eada5ab	0.33915457
63	0xbd611880	-0.054955006
64	0xbca35099	-0.019935893
65	0xbda41cba	-0.08013292
66	0x3f845a01	1.0339967
67	0xbe148f2d	-0.14507742
68	0x3d01cb8e	0.031688266
69	0xbee9c6a6	-0.4565937
70	0xbd36aaf1	-0.044596616
71	0x3f0dda21	0.55410963
72	0x3d5420eb	0.051789206
73	0xbe0a640e	-0.1351473
74	0xbf621320	-0.8831043
75	0xbd7b6122	-0.06137193
76	0x3e241b9e	0.1602616
77	0x3e056138	0.13025367
78	0xbd699569	-0.057027254
79	0x3cd28f70	0.025703162
80	0x3e58810e	0.2114298
81	0xbe223c01	-0.15843202
82	0xbdfb7be7	-0.12279492
83	0x3f0649cc	0.52456355
84	0x3ee9fcce	0.45700687
85	0xbd0ab9c9	-0.033868585
86	0xbd9e0874	-0.07716456
87	0xbfa778af	-1.3083705
88	0xbeba4c3a	-0.3638628
89	0xbf5138ce	-0.817273
90	0x3cf1cfed	0.029518092
91	0xbe891aa6	-0.26778144
92	0x3e3f754c	0.18697089
93	0x3dc9e439	0.09857983
94	0x3f06dd07	0.5268101
95	0xbcaa11b9	-0.020760404
96	0xbdb240dc	-0.08703777
97	0x3f9b068f	1.2111377
98	0xbec3f3e2	-0.38272005
99	0x3ffa645b	1.9561876
100	0xbd65f7c4	-0.05614449
101	0x3e9cd687	0.3063242
102	0x3e6ca86a	0.2311112
103	0xbd49175d	-0.049094547
104	0x3e0c06bb	0.13674442
105	0xbe18fab1	-0.14939381
106	0xbea16ede	-0.31529897
107	0x3e295371	0.16535737
108	0x3cd0b89c	0.025478654
109	0x3e12c18d	0.14331646
110	0x3d716ac6	0.058939718
111	0xbf7536c8	-0.95786715
112	0xbde9fa3b	-0.11424681
113	0x40d11d70	6.5348434
114	0x3db613d3	0.088905
115	0x3c019aca	0.00791044
116	0x3ec7cf1b	0.39025196
117	0xbf7c6257	-0.98587555
118	0xbdf62802	-0.1201935
119	0xbe278fd3	-0.16363458
120	0x3e4043eb	0.18775909
121	0xbe44d8d6	-0.19223341
122	0x3e61c5c6	0.22048101
123	0xbf0c9959	-0.5492149
124	0xbe1eb537	-0.15498815
125	0x3f15bef7	0.58494514
126	0x3e8c8c36	0.27450722
127	0xbbfaead5	-0.0076573887
128	0x3ec2d13d	0.3805026
129	0x3f07983b	0.5296666
130	0x3efbf00d	0.49206582
131	0x3eb04324	0.34426224
132	0xbe0c6098	-0.13708723
133	0xbef306b6	-0.47466058
134	0x3e97305c	0.29529083
135	0x3fc1b46c	1.5133185
136	0xbe615ed7	-0.22008835
137	0xbe98186a	-0.29706126
138	0x3fadfe3b	1.359321
139	0x3fbb26ff	1.4621276
140	0x3fad38d7	1.3532971
141	0x3fcf192c	1.6179557
142	0x3d3c9fe1	0.04605091
143	0xbddbc9aa	-0.10731824
144	0x3fef71fc	1.870666
145	0x3e0b4991	0.13602282
146	0xbf76a2e2	-0.9634229
147	0xbe259cab	-0.16173045
148	0xbef39dd3	-0.47581348
149	0xbf3332d5	-0.6999944
150	0xbbf8e345	-0.007595452
151	0x3f4a4055	0.7900441
152	0x3f128a1d	0.57241994
153	0x3fb6abe1	1.4271203
154	0x3ff39f28	1.9032946
155	0xbfb02a57	-1.3762921
156	0x3f40d89b	0.75330514
157	0x3ece1f31	0.40258172
158	0x3f81919f	1.0122565
159	0x3edddf5e	0.43334478
160	0x3f3b3c0f	0.7313852
161	0x3f3fe721	0.7496205
162	0x3f68152e	0.9065732
163	0x3f8f2336	1.118262
164	0x401b4037	2.4257944
165	0x3fae92f8	1.3638601
166	0x3f0b2aac	0.5436199
167	0x3fc26b28	1.5188951
168	0x3dc8e8e1	0.09810043
169	0xbe54f7e0	-0.20797682
170	0xbe850a91	-0.25984624
171	0x3ec41a9b	0.38301548
172	0xbee6cae3	-0.45076665
173	0xbe403dc8	-0.18773568
174	0x3f7f348a	0.99689543
175	0xbf3774b0	-0.71662426
176	0x3cda2d30	0.026632875
177	0xbd7d86fd	-0.061896313
178	0xbdafaf36	-0.08578341
179	0x3f3bb0fc	0.7331693
180	0x3fa9b10c	1.3257155
181	0x3fe98dd0	1.8246403
182	0x3f245d41	0.64204794
183	0x3ee38fa2	0.4444552
184	0x3d6a31d6	0.057176434
185	0xbf70e20e	-0.9409493
186	0x3f2136a9	0.6297403
187	0x3ff1d2c0	1.8892441
188	0xbe9c3a95	-0.30513445
189	0x3f91c040	1.1386795
190	0xbee52a03	-0.44758615
191	0xbf209d2f	-0.62739843
192	0x3d49150e	0.049092345
193	0xbd40849c	-0.047001466
194	0xbeb387ae	-0.35064453
195	0xbbafa3b3	-0.0053600906
196	0x3e09d576	0.13460335
197	0x3e4b4c9a	0.1985344
198	0x3e3ac154	0.18237811
199	0xbe81b50d	-0.25333443
200	0x3c3d36c2	0.0115487
201	0xbe480be1	-0.19535781
202	0x3e05d2ef	0.13068746
203	0xbd39f046	-0.04539516
204	0xbe628111	-0.22119547
205	0xbfababc1	-1.341179
206	0xbda41239	-0.08011288
207	0x3ed68d65	0.4190475
208	0x3ef9e9da	0.48811227
209	0x3e39b82c	0.18136662
210	0xbf2d2807	-0.676392
211	0x3e337a4c	0.17527121
212	0xbceb8241	-0.028748633
213	0x3d206064	0.039154425
214	0x3fb78bd3	1.4339546
215	0xbd786c72	-0.060650297
216	0xbcdb8990	-0.026798993
217	0xbc9b387e	-0.018947836
218	0x40cdce65	6.4314446
219	0xbdd65335	-0.10465089
220	0xbe0d4f76	-0.13799843
221	0x3e03e295	0.12879403
222	0x3e86c2d6	0.26320523
223	0xbd6954c1	-0.056965593
224	0x3df18755	0.11793391
225	0x3e07f121	0.13275577
226	0xbe1ddeb9	-0.15416993
227	0x3d6e2a38	0.05814573
228	0x401c1026	2.4384856
229	0x3e8653a6	0.26235694
230	0x3e354879	0.17703427
231	0x3de2e0ee	0.11078058
232	0x3d45df4c	0.048308656
233	0x3d87df5b	0.066343985
234	0xbe8b3935	-0.27192083
235	0xbe072dc8	-0.13201058
236	0x3e448dd5	0.1919473
237	0xbe1e0baf	-0.15434144
238	0x3d87cc9e	0.066308245
239	0xbdfe3ffd	-0.124145485
240	0xbece7f16	-0.40331334
241	0xbdde0f58	-0.1084277
242	0xbca38716	-0.019961875
243	0x3e4e8952	0.20169571
244	0x3d1190ba	0.035538413
245	0xbe6d3e14	-0.23168212
246	0x3dffc904	0.124895126
247	0x3cb62d2c	0.022238337
248	0x3d9a8fc5	0.07546953
249	0x3d100c59	0.035168026
250	0xbecc269b	-0.39873204
251	0xbf028137	-0.50978416
252	0xbee6bf2f	-0.45067737
253	0xbe17905d	-0.14801164
254	0xbe1a1217	-0.15045963
255	0xbe18d03a	-0.14923182

mem_LSTM_q1.weight_hh_l0 f4 [256, 64]
0	0x3f411b7a	0.7543255
1	0x3e7cae66	0.24675903
2	0x3de160ac	0.11004767
3	0xbd9cbb8b	-0.076529585
4	0xbe3415e6	-0.17586479
5	0x3e7ff63e	0.24996278
6	0x3dd18946	0.10231261
7	0xbd3637d9	-0.044486854
8	0xbe626cb5	-0.22111781
9	0x3e3f1b02	0.18662646
10	0x3ea74e82	0.32677084
11	0x3e29163c	0.16512388
12	0xbdd8102d	-0.1054996
13	0xbe26a4fe	-0.16273877
14	0x3f1aafe4	0.6042464
15	0xbe6bc76f	-0.23025297
16	0xbe86e79f	-0.26348588
17	0xbda758b3	-0.08171215
18	0xbebdd5c2	-0.37077147
19	0xbe3e8dd7	-0.18608795
20	0xbd6c3fec	-0.05767815
21	0xbef9b8c5	-0.4877378
22	0x3e1b1a59	0.1514677
23	0x3d1bd78f	0.03804737
24	0xbed19a2a	-0.4093793
25	0xbe37d174	-0.17950994
26	0x3e7d9418	0.24763525
27	0x3f115599	0.56771237
28	0x3e1bd77a	0.15218917
29	0x3d4c2c6c	0.04984705
30	0x3f9af8ae	1.2107141
31	0x3eafbe41	0.3432484
32	0xbe9252e8	-0.28578877
33	0x3e5b5b11	0.21421458
34	0xbcd30337	-0.025758369
35	0xbc2c7285	-0.01052535
36	0x3dd40a97	0.10353582
37	0x3d3746e5	0.044745345
38	0xbd7c634c	-0.061618134
39	0xbed832bf	-0.42226216
40	0x3dbe9608	0.0930596
41	0xbdec1af6	-0.1152858
42	0x3f50e4c1	0.8159905
43	0x3e5ed786	0.21761903
44	0x3e81ffcb	0.25390467
45	0xbed9221b	-0.42408833
46	0x3ed407e5	0.41412273
47	0x3f32c83b	0.6983678
48	0xbdbbddec	-0.091731876
49	0x3eb71dd9	0.3576496
50	0x3dd64e15	0.10464112
51	0x3ea2b523	0.3177882
52	0xbe04984b	-0.1294872
53	0x3f08bdc6	0.5341457
54	0x3eab30e8	0.3343575
55	0xbd08b3a5	-0.033374447
56	0x3e22e2fd	0.15906902
57	0x40126cb3	2.2878845
58	0xbe3886ee	-0.18020222
59	0x3d0f91cc	0.035051152
60	0x3e298fff	0.16558836
61	0x3da801c5	0.082034625
62	0xbe927808	-0.28607202
63	0xbb04c44e	-0.0020258608
64	0xbe534b6b	-0.20634238
65	0x3f8604b8	1.047019
66	0x3dc4a62b	0.096020065
67	0xbe9419cc	-0.2892593
68	0x3ea37809	0.31927517
69	0x3eabeb7e	0.33578104
70	0x3ec781dd	0.38966265
71	0xbe39e55c	-0.181539
72	0xbe89b757	-0.2689769
73	0x3ec106e9	0.37700585
74	0x3e0f67d9	0.14004458
75	0xbd1ee60e	-0.038793616
76	0xbd92435e	-0.071417555
77	0xbcecdcc4	-0.028913863
78	0xbf07a1f4	-0.52981496
79	0x3e378833	0.1792305
80	0x3d300cb3	0.04298086
81	0x3e0cf973	0.13767032
82	0x3da69584	0.081339866
83	0xbd839a33	-0.064258955
84	0xbe883ffd	-0.2661132
85	0xbe84950d	-0.25894967
86	0xbe279e7a	-0.16369048
87	0x3dc0aedb	0.09408351
88	0xbe36d0a1	-0.17853023
89	0xbf0b3400	-0.5437622
90	0xbe224c09	-0.15849318
91	0x3eddd55c	0.43326843
92	0xbecaf7e9	-0.39642265
93	0xbe5205ff	-0.205101
94	0x3f477817	0.7791762
95	0x3d968fb7	0.0735163
96	0xbf8887da	-1.0666459
97	0xbf021824	-0.50818086
98	0x3da20b5e	0.07912324
99	0x3e83fc6d	0.25778523
100	0xbf33207a	-0.6997143
101	0x3e39f639	0.18160333
102	0x3e5df479	0.2167529
103	0x3e10d0e5	0.14142187
104	0x3ca1ea7c	0.019765131
105	0xbd8f8474	-0.07007685
106	0xbcb2d223	-0.021828717
107	0x3f1cf5a1	0.613123
108	0x3e2b9fcd	0.16760178
109	0x3f15c86b	0.5850894
110	0xbe196a74	-0.14982015
111	0xbe2fddec	-0.171745
112	0xbe0e9e23	-0.13927512
113	0x3e9571b2	0.29188305
114	0xbe896206	-0.26832598
115	0x3e487017	0.19574009
116	0x3ef4a87d	0.47784796
117	0xbdb49fbb	-0.08819529
118	0xbefcbabb	-0.49361214
119	0x3ed6a434	0.41922152
120	0x3d8c358a	0.06846149
121	0xbf8e9f90	-1.1142445
122	0x3d452bac	0.048137352
123	0xbeaca5ca	-0.33720237
124	0xbee896f1	-0.4542766
125	0x3eba2b46	0.3636114
126	0xbebcb2cf	-0.3685517
127	0x3e9c95f4	0.30583155
128	0xbe2dd402	-0.16975406
129	0xbf382fde	-0.7194804
130	0x3fca98a9	1.5827838
131	0xbfddc726	-1.73264
132	0xbedb398d	-0.42817345
133	0x3e236df2	0.1595991
134	0x3f4f3e89	0.80954796
135	0x3eb67173	0.3563343
136	0xbee0389b	-0.43793187
137	0x3ea640c5	0.3247129
138	0x3d0704f9	0.032963727
139	0x3ee3050a	0.44339782
140	0x3f8c6e26	1.0971115
141	0xbe64cd8c	-0.22344035
142	0x3feb33f3	1.8375229
143	0x3e10ea56	0.14151892
144	0x3eab1210	0.33412218
145	0xbf2a05d7	-0.6641516
146	0xbfd6a824	-1.6770062
147	0x3ec5d78d	0.38641015
148	0xbf066322	-0.52495015
149	0x3eb4183b	0.35174736
150	0x3eb4ad72	0.35288578
151	0xbea99835	-0.33123937
152	0x3f31d814	0.69470334
153	0x3fcdaa34	1.6067567
154	0xbfb6b7e0	-1.4274864
155	0xbeb1f435	-0.34756628
156	0xbf629f55	-0.8852437
157	0xbf675318	-0.90361166
158	0x3f20d142	0.628193
159	0xc031f605	-2.7806408
160	0x3f719f2d	0.9438351
161	0xc0013a7b	-2.0191944
162	0x3e902f50	0.28161097
163	0x3f7de87c	0.9918287
164	0x3fb0cfd5	1.3813425
165	0x3f61177c	0.8792646
166	0xbf163c96	-0.58686197
167	0x3f46927d	0.77567273
168	0xbfb952d5	-1.4478403
169	0xbf7a90d1	-0.9787722
170	0xbf54087e	-0.8282546
171	0x3ffa1ddd	1.9540364
172	0xbe458fa4	-0.19293076
173	0x3f16bfff	0.5888671
174	0xbf2fb36d	-0.68633157
175	0xbecec222	-0.40382487
176	0x3e92d46d	0.28677693
177	0x3f954091	1.1660329
178	0x40296333	2.6466796
179	0x3c1d3f20	0.00959757
180	0xbf268096	-0.65039957
181	0xbeab027b	-0.3340033
182	0x3f02b748	0.51060915
183	0xbe81a5fa	-0.25321943
184	0x3f96d8c9	1.1784908
185	0xbf9dfad2	-1.2342169
186	0xbdbc886e	-0.092057094
187	0xbf81f279	-1.0152122
188	0xbf1a4fcc	-0.6027801
189	0x3d297b76	0.041377507
190	0x400f75bb	2.2415607
191	0xbf30ee03	-0.6911318
192	0x3e82be68	0.25535893
193	0x3e51f2e9	0.20502819
194	0x3eb52093	0.35376415
195	0xbf8752ca	-1.057214
196	0xbf4fd664	-0.8118651
197	0xbe793d03	-0.2433968
198	0xbe3f6f87	-0.18694888
199	0x3e0b203d	0.13586517
200	0x3e95f14b	0.29285654
201	0x3eaa5e84	0.33275235
202	0x3f429c61	0.76019865
203	0xbe53b176	-0.20673165
204	0xbeb93d54	-0.36179602
205	0x3d97c63f	0.07410859
206	0x3eeea018	0.46606517
207	0x3e758d58	0.239797
208	0x3f1babe8	0.60809183
209	0x3dd6fe95	0.104977764
210	0x3de1f4b5	0.11033002
211	0xbd391b24	-0.0451919
212	0xbf65ddf3	-0.8979179
213	0xbf2af88a	-0.6678549
214	0x3ee8989a	0.45428926
215	0xbe9a7078	-0.30163932
216	0x3ed48b5b	0.4151257
217	0xbf1c9654	-0.6116688
218	0x3e0c17d8	0.1368097
219	0x3e9c34a6	0.30508918
220	0xbdaf13be	-0.085486874
221	0x3e74d592	0.23909596
222	0x3d6ecfc6	0.058303617
223	0xbe8d178d	-0.2755703
224	0x3e9fc495	0.31204668
225	0xbfe3969d	-1.7780339
226	0xbcf00be3	-0.029302543
227	0x3ee7c86e	0.45270103
228	0x3ea08fdb	0.31359753
229	0x3bc9575e	0.006144448
230	0xbe31dc31	-0.17369153
231	0x3f8191aa	1.0122578
232	0x3f2fabda	0.686216
233	0xbee65d33	-0.4499298
234	0xbe53ac9e	-0.20671317
235	0xbe925adf	-0.28584954
236	0x3f760cc9	0.9611326
237	0xbebd42d0	-0.36965036
238	0xbf281877	-0.6566233
239	0xbd9647ec	-0.07337937
240	0x3f002941	0.5006295
241	0x3f023562	0.50862706
242	0x3f97f7f0	1.187254
243	0xbeafaf29	-0.34313324
244	0x3efb8ee5	0.49132457
245	0xbd8305ad	-0.06397567
246	0xbe9bea4f	-0.304522
247	0x3ed1ab52	0.4095102
248	0xbe41f49a	-0.18940964
249	0x3dc3fec1	0.09570075
250	0x3e37d1a5	0.17951067
251	0xbf0f76bd	-0.56040555
252	0x3ec75e0e	0.38938946
253	0x3ef9d124	0.48792374
254	0xbe900c26	-0.2813427
255	0x3d945683	0.07243063

mem_LSTM_q1.bias_ih_l0 f4 [256]
0	0xbb8fc8cb	-0.00438795
1	0xbec6a653	-0.3879877
2	0x3f76474e	0.9620255
3	0x3f567ea7	0.83787006
4	0x3f0a6a7b	0.54068726
5	0xbe735ebb	-0.23766606
6	0x3d2870df	0.041123267
7	0x3e964ce0	0.29355526
8	0xbe6de3f8	-0.23231494
9	0x3ea60644	0.32426655
10	0xbda99691	-0.082806714
11	0xbf4e98e1	-0.80702025
12	0xbeae4ebd	-0.34044448
13	0xbec607e2	-0.3867789
14	0xbecc3f31	-0.3989196
15	0x3f03f8fe	0.51551807
16	0xbefffafe	-0.4999618
17	0x3efeaa87	0.49739477
18	0xbee05921	-0.43818
19	0x3ddb7518	0.10715693
20	0x3d8a8cf8	0.06765169
21	0xbd3aa325	-0.045565743
22	0x3e62efb7	0.22161756
23	0xbc5333ee	-0.012890799
24	0x3f08ccb4	0.5343735
25	0xbf3b1d02	-0.7309114
26	0xbdc6cd34	-0.09707108
27	0x3e434f57	0.19073234
28	0x3e7e1e08	0.24816144
29	0x3e8d1404	0.27554333
30	0xbd6f56a1	-0.058432225
31	0xbeb69f25	-0.35668293
32	0x3df7e565	0.121043004
33	0x3efd7cfe	0.49509424
34	0x3f12e52d	0.57380944
35	0x3d17f90e	0.03710275
36	0xbed2d48a	-0.4117778
37	0xbf2460e1	-0.64210325
38	0xbe959977	-0.29218647
39	0x3e0cf949	0.1376697
40	0xbd911f48	-0.070860445
41	0xbf1d55b1	-0.6145888
42	0x3f0c8036	0.54883134
43	0x3e2f53db	0.17121832
44	0x3df9adc3	0.121913455
45	0xbe1cae53	-0.15300874
46	0x3c6c7060	0.014431089
47	0xbd38074d	-0.044928838
48	0x3e3ab763	0.18234019
49	0x3e6a3ca9	0.22874703
50	0xbf15f21c	-0.58572555
51	0x3e01fd09	0.12694182
52	0xbc3094cc	-0.010777663
53	0x3f0af98a	0.54287016
54	0x3f4610fd	0.7736967
55	0xbefc3bd3	-0.49264392
56	0x3f51d092	0.8195888
57	0x3c584e24	0.013202224
58	0x3eca9ded	0.39573613
59	0xbeb2224b	-0.34791788
60	0xbdc3f937	-0.09569018
61	0x3e4ca41a	0.19984475
62	0x3ea0e400	0.3142395
63	0x3e3525f8	0.17690265
64	0xbdebb8df	-0.11509871
65	0xbed35c32	-0.41281277
66	0x3e40ce5f	0.18828724
67	0xbe6a749d	-0.22896047
68	0xbe85a8b3	-0.2610527
69	0xbf14aacc	-0.58073115
70	0x3e4646ad	0.19362898
71	0xbf2260cf	-0.6342897
72	0xbea735f9	-0.32658365
73	0x3d855181	0.06509686
74	0xbe71c594	-0.23610526
75	0xbddfaa2b	-0.10921129
76	0xbd0e01cb	-0.03466968
77	0xbf3ed451	-0.7454272
78	0xbecb7e27	-0.39744684
79	0xbf0ee676	-0.55820405
80	0xbea6c4a9	-0.32571915
81	0x3da18ef0	0.07888591
82	0x3c994a08	0.018712059
83	0xbeeee867	-0.46661684
84	0xbf2d9a37	-0.6781344
85	0xbf3bd6a2	-0.7337438
86	0x3d904aab	0.07045492
87	0x3e665f01	0.22497179
88	0x3eb7221e	0.35768217
89	0xbe847f2d	-0.25878277
90	0x3e53c5fc	0.20680994
91	0x3d468e9d	0.04847585
92	0xbd8a588c	-0.0675517
93	0xbe346a2c	-0.17618626
94	0xbe194951	-0.14969374
95	0x3ecbcda9	0.39805344
96	0x3f433cc5	0.762646
97	0xbefffc86	-0.49997348
98	0xbe9568cf	-0.29181525
99	0x3e67db6f	0.22642301
100	0x3e76648f	0.24061798
101	0xbdd92e5b	-0.10604545
102	0xbdf3e029	-0.119079895
103	0x3ee02e22	0.43785197
104	0x3e53234e	0.20618936
105	0x3d753ebc	0.05987428
106	0xbc84a86e	-0.016193595
107	0x3d1498ca	0.036278524
108	0xbe3e68df	-0.18594693
109	0xbd0acf23	-0.033888947
110	0x3e2f7a1f	0.17136429
111	0xbeb62272	-0.35573155
112	0xbe152391	-0.14564349
113	0xbeb84d10	-0.35996294
114	0xbdcc767d	-0.09983537
115	0xbdc516fe	-0.09623526
116	0xbe872641	-0.26396373
117	0xbd85c03d	-0.06530807
118	0xbefec6d8	-0.4976108
119	0xbdf5fe32	-0.120113745
120	0xbf1c39f7	-0.6102595
121	0xbf0598b7	-0.5218615
122	0x3d912a01	0.0708809
123	0x3d6cfe1f	0.057859536
124	0xbe8b9566	-0.2726242
125	0xbf1ea257	-0.6196646
126	0xbd8e5eb0	-0.06951654
127	0xbe3dec12	-0.18547085
128	0xbe10873d	-0.1411409
129	0x3e8846d5	0.2661654
130	0xbe42f88a	-0.19040123
131	0x3f314225	0.69241554
132	0x3f7ef41e	0.99591243
133	0xbe4af13d	-0.19818588
134	0x3de151bd	0.110019185
135	0xbde1cce7	-0.1102541
136	0xbdabae68	-0.08382875
137	0xbf113c8b	-0.56733006
138	0xbedb8d22	-0.42881113
139	0x3c5d7270	0.013516054
140	0x3d445fc9	0.04794291
141	0xbd7d87d6	-0.06189712
142	0x3eee2c2f	0.46518084
143	0xbf3ace69	-0.72971207
144	0xbec574c1	-0.3856564
145	0x3dd2af7f	0.102873795
146	0x3e94cb8b	0.2906154
147	0xbecdc516	-0.40189427
148	0x3f47ab41	0.7799569
149	0x3e0a6ef0	0.13518882
150	0xbd536789	-0.05161241
151	0xbe05c538	-0.13063514
152	0xbecdf705	-0.40227523
153	0x3e48e1c6	0.19617376
154	0xbe934326	-0.28762168
155	0x3e11b62b	0.14229648
156	0x3f5131dd	0.8171671
157	0x3d800fb5	0.06252996
158	0xbd34066b	-0.043951433
159	0x3f4a506d	0.7902897
160	0xbcb45960	-0.022015274
161	0x3e5dc80f	0.21658348
162	0x3ebd1b39	0.36934832
163	0x3e0689d9	0.13138522
164	0xbdf44025	-0.11926297
165	0x3e45c314	0.19312698
166	0x3f6a9dd9	0.91647106
167	0xbf2e3564	-0.6805022
168	0x3e3deee5	0.18548162
169	0x3f12fc53	0.57416266
170	0x3f0ca98a	0.54946196
171	0xbeb944f7	-0.36185429
172	0xbeeb19db	-0.45918164
173	0xbce1f7bc	-0.02758395
174	0x3e7eba64	0.2487579
175	0x3e063ab3	0.1310833
176	0xbc88fa07	-0.016720785
177	0xbe1b6553	-0.15175371
178	0xbe9062f6	-0.282005
179	0x3ee2f7ad	0.44329587
180	0x3e25929e	0.16169211
181	0xbe8e2a02	-0.27766424
182	0x3cc465b3	0.023974275
183	0x3d47d083	0.048782837
184	0xbecfbfdc	-0.40576065
185	0xbe25c25a	-0.1618742
186	0x3f1819d9	0.5941444
187	0x3ed0997d	0.40742102
188	0x3eb295ba	0.34879857
189	0x3ec22276	0.37916917
190	0xbf035ee0	-0.5131664
191	0xbf1f8ec2	-0.62327206
192	0xbda73ed7	-0.081662826
193	0xbaccb3f7	-0.0015617599
194	0xbef802c8	-0.48439622
195	0xbe302d55	-0.17204793
196	0x3ecba84d	0.3977684
197	0xbebd542d	-0.36978284
198	0x3e0ad593	0.13558035
199	0xbc29f54b	-0.010373424
200	0xbb2ebfd5	-0.0026664634
201	0x3ea3923f	0.31947514
202	0x3e6503ce	0.22364733
203	0x3f4031c2	0.75075924
204	0xbea49acb	-0.32149348
205	0x3e283923	0.16428046
206	0xbd22a87b	-0.039711457
207	0x3eca18b5	0.39471975
208	0xbf13d384	-0.5774462
209	0xbc9683fd	-0.018373484
210	0x3d889c85	0.06670479
211	0x3eb17181	0.3465691
212	0x3f5cd94e	0.8626908
213	0x3f16210c	0.58644176
214	0x3ca0e9a8	0.019642666
215	0xbdfdd631	-0.123943694
216	0x3b8074d7	0.0039201784
217	0xbe20fe70	-0.1572206
218	0xbc8e0e63	-0.017340844
219	0xbea0a663	-0.31376943
220	0x3ea63a54	0.32466376
221	0xbcf4a641	-0.029864432
222	0x3dd20845	0.102554835
223	0xbe5805d7	-0.21095978
224	0xbe9a47ea	-0.3013299
225	0xbf0465e6	-0.51717985
226	0x3ef23415	0.4730536
227	0x3ea07356	0.31337994
228	0x3f1baefa	0.6081387
229	0x3dd8e19e	0.10589908
230	0xbebe800c	-0.37207067
231	0xbf509a88	-0.81485796
232	0xbe02f6da	-0.12789479
233	0x3cb91576	0.022593241
234	0xbe117738	-0.14205635
235	0xbd7b2038	-0.061310023
236	0x3e997359	0.29970816
237	0xbaea1f2f	-0.0017862077
238	0xbcd7e68e	-0.026355054
239	0xbf2f5c4a	-0.68500197
240	0xbe730b9a	-0.23734894
241	0x3f8f9b87	1.1219338
242	0x3ed962be	0.42458147
243	0x3e6abb95	0.2292312
244	0x3ca387ed	0.019962275
245	0xbd59634a	-0.053073205
246	0xbde33370	-0.11093795
247	0x3d76a009	0.060211215
248	0xbe1ab192	-0.151068
249	0xbdb90420	-0.0903399
250	0x3e07a3b6	0.13246045
251	0xbf257038	-0.6462436
252	0x3f70141d	0.9378069
253	0xbe7bbf97	-0.24584804
254	0xbe629d59	-0.22130336
255	0x3f5ca904	0.861954
