current_algos/LSTM_TD3/LSTM_TD3_Agent_critic_weights.pth (torch, 427715 bytes, 26 tensors)

curr_fe_dense1_q1.weight f4 [64, 51]
0.035165448 -0.42326552 0.13715295 -0.15327004 0.56112283 0.44055668 0.13239507 0.15403637
0.16181882 -0.26584858 -0.15890165 0.045654126 -0.19382143 0.07752222 0.21395345 0.052769475
-0.17077927 0.14985551 -0.09042524 -0.15308936 0.6006835 0.5504549 0.3254072 0.07088862
0.4329853 -0.30096838 -0.14943996 -0.4661961 -0.39767918 -0.28862917 -0.22265512 0.08422932
0.6748052 -1.9019196 -0.8127155 -0.43954217 -0.2968561 0.11865517 -0.025007958 0.09966429
-0.23958047 0.27451792 0.2774318 0.30640367 0.12671182 0.22998208 -0.09699367 -0.19990091
0.099237576 -0.2705743 0.044875447 0.020315912 0.6313723 0.14702184 0.46952453 0.8239283
0.1768081 0.20021613 -0.102347 0.63737184 0.60894865 0.037326362 -0.040869158 0.1674407
-0.012926821 0.20555587 0.13409516 -0.04118679 -0.16735429 -0.30943942 0.10328531 0.041358292
0.06870236 -0.06666115 0.21541937 0.35688058 0.19233134 -0.9716661 -1.2826118 -1.0936807
-0.025982352 -0.07272608 -0.049785197 -0.032735255 0.08243835 0.06534406 -0.1477447 0.020152146
-0.12742674 -0.2539723 -0.30913654 -0.57775456 0.13275772 0.32089418 0.20825604 0.03318875
-0.06924017 -0.7097661 -0.09424109 0.74821603 0.6623007 0.05284877 0.014491295 -0.37493417
-1.0898099 -0.17179205 0.106273845 -0.07840772 -0.27102855 -0.10639911 0.16143826 0.07834582
-0.3073223 0.010053168 0.031689484 0.034123126 0.13985352 0.11694569 0.12613942 0.043272197
0.16554509 0.11766988 -0.17255679 -0.21872534 -0.17748167 0.018973058 0.27555582 0.110469095
-0.11737892 0.18491793 0.82571995 0.028652124 0.0992677 0.03579248 0.2840445 0.10791118
0.33221638 0.11262386 0.2715403 0.20045784 -0.49971068 0.68415475 0.6876571 -0.006560406
-0.40518776 -0.49394074 -0.12369585 -0.34370002 -0.06290516 -0.13757846 0.14797552 0.035487466
-0.005149852 -0.017228128 -0.50601125 0.36919048 0.074106775 0.6739663 0.022497602 0.35979977
0.18215282 0.03616141 0.16523767 -0.14602329 -0.2436161 -0.15558487 0.09386734 -0.46166408
-0.66585153 -0.041751795 0.035585657 0.25066307 0.17038678 -0.4260228 0.0122863315 -0.18430652
0.09407906 0.34918097 -0.037760388 -0.6148107 -0.8691153 0.29522204 -0.6239879 -0.34761053
-0.3762378 -1.0843537 -0.6166795 -0.6578831 -0.4195429 -0.15521377 0.059599113 0.04192538
0.281551 0.3255611 0.83099115 0.39651975 -0.46446326 0.40010354 -0.28471568 -0.018835034
-0.66656035 0.4453409 -0.648215 -0.025558798 -0.035117805 0.8438582 0.64482474 0.31064808
-0.013993811 -0.0803883 0.05446942 0.020082405 -0.1910492 -0.47515634 -0.056267843 0.12493998
0.20300049 0.12582205 0.23497513 -0.16739438 -0.08143625 -0.05609507 -0.22741225 -0.069708824
-0.4881741 -0.14922376 -0.14435917 0.28667468 0.20913163 0.11816956 0.30307925 0.35695857
0.36829445 0.4388238 -0.1670152 -0.28222325 -0.37444183 -0.40800935 -0.5542809 -0.35683283
-0.22150198 -0.6079 0.05114751 -0.13938662 -0.4234592 -0.56096 -0.72729886 -0.06081263
-0.56144893 -0.38928688 -0.26221806 -0.11151791 -0.26204762 -0.7616251 -0.05009098 0.0022860714
00000000: a509 103d 42b6 d8be d371 0c3e d2f2 1cbe
00000010: bfa5 0f3f a590 e13e 9392 073e b6bb 1d3e
00000020: d5b3 253e 4e1d 88be 1db7 22be d2ff 3a3d
00000030: 2079 46be f8c3 9e3d 9d16 5b3e ce24 583d
00000040: c3e0 2ebe b973 193e de30 b9bd 75c3 1cbe
00000050: 65c6 193f 9dea 0c3f c69b a63e 0e2e 913d
00000060: 40b0 dd3e 8718 9abe ca06 19be 41b1 eebe
00000070: 9b9c cbbe 34c7 93be b4ff 63be 6c80 ac3d
00000080: 09c0 2c3f 1a72 f3bf 1f0e 50bf ac0b e1be
00000090: 86fd 97be 7b01 f33d 7ddd ccbc cb1c cc3d
000000a0: 9554 75be 9d8d 8c3e 8a0b 8e3e f1e0 9c3e
000000b0: bec0 013e 6c80 6b3e 9ea4 c6bd d3b2 4cbe
000000c0: 123d cb3d b788 8abe 51cf 373d 8e6d a63c
000000d0: 9da1 213f e58c 163e 8565 f03e f7ec 523f
000000e0: 2f0d 353e 7505 4d3e 4e9b d1bd cd2a 233f
000000f0: 0fe4 1b3f 87e3 183d 6b66 27bd 9375 2b3e
00000100: 04cb 53bc 3d7d 523e 3e50 093e 7bb3 28bd
00000110: ec5e 2bbe d86e 9ebe 4087 d33d 5067 293d
00000120: d3b3 8c3d a485 88bd e596 5c3e 0db9 b63e
00000130: 82f2 443e 1cbf 78bf a02c a4bf bbfd 8bbf
00000140: f1d8 d4bc 69f1 94bd 90eb 4bbd 6715 06bd
00000150: 70d5 a83d 1bd3 853d 634a 17be 1d16 a53c
00000160: 287c 02be a808 82be 2547 9ebe b9e7 13bf
00000170: a4f1 073e 3e4c a43e 1241 553e edf0 073d
00000180: cacd 8dbd 3bb3 35bf 7901 c1bd 168b 3f3f
00000190: 8a8c 293f f477 583d e66c 6d3c 5ff7 bfbe
000001a0: e47e 8bbf 41ea 2fbe 1aa6 d93d 3a94 a0bd
000001b0: 41c4 8abe c7e7 d9bd 1250 253e c673 a03d
000001c0: 5959 9dbe 0bb6 243c d5cc 013d b1c4 0b3d
000001d0: c335 0f3e 3981 ef3d b12a 013e 303e 313d
000001e0: a784 293e e8fc f03d bab2 30be 89f9 5fbe
000001f0: c1bd 35be 636d 9b3c a715 8d3e 9f3d e23d
00000200: 5c64 f0bd 205b 3d3e 6262 533f dcb7 ea3c
00000210: dd4c cb3d 239b 123d 486e 913e 8900 dd3d
00000220: 4418 aa3e 57a7 e63d 5507 8b3e d244 4d3e
00000230: 14da ffbe c424 2f3f 4c0a 303f adf8 d6bb
00000240: c574 cfbe cde5 fcbe 4054 fdbd 73f9 afbe
00000250: 6cd4 80bd 5ee1 0cbe e586 173e 4e5b 113d
00000260: 17c0 a8bb 0122 8dbc f489 01bf 8906 bd3e
00000270: 4bc5 973d 0e89 2c3f e44c b83c ad37 b83e
00000280: 4586 3a3e fd1d 143d 1034 293e 2187 15be
00000290: 8076 79be a451 1fbe 853d c03d 3c5f ecbe
000002a0: 3f75 2abf ee03 2bbd 44c2 113d e956 803e
000002b0: df79 2e3e a91f dabe 9c4c 493c d9ba 3cbe
000002c0: 86ac c03d d9c7 b23e a3aa 1abd 3c64 1dbf
000002d0: 577e 5ebf 5827 973e acbd 1fbf 02fa b1be
000002e0: 3ea2 c0be 1acc 8abf b5de 1dbf 076b 28bf
000002f0: 54ce d6be 5cf0 1ebe 331e 743d f2b9 2b3d
00000300: 7427 903e f2af a63e d6bb 543f a304 cb3e
00000310: 21ce edbe 5fda cc3e 41c6 91be ee4b 9abc
00000320: b3a3 2abf b903 e43e 6bf1 25bf af60 d1bc
00000330: b0d7 0fbd 1707 583f 3c13 253f 440d 9f3e
00000340: 4c46 65bc 9fa2 a4bd 541b 5f3d db83 a43c
00000350: 67a2 43be b147 f3be 1c79 66bd 88e0 ff3d
00000360: 5cdf 4f3e 7fd7 003e 529d 703e 6f69 2bbe
00000370: 0cc8 a6bd f2c3 65bd c2de 68be 80c3 8ebd
00000380: f5f1 f9be 1dce 18be e4d2 13be 06c7 923e
00000390: 9a26 563e e202 f23d 342d 9b3e 46c3 b63e
000003a0: 1791 bc3e 83ad e03e 0806 2bbe 917f 90be
000003b0: d7b6 bfbe 9ae6 d0be 5ae5 0dbf cbb2 b6be
000003c0: 6ad1 62be 569f 1bbf 0d80 513d 5ebb 0ebe
000003d0: a5cf d8be 139b 0fbf 4230 3abf aa16 79bd
000003e0: 1ebb 0fbf 9c50 c7be 7241 86be 8163 e4bd
000003f0: 1b2b 86be ddf9 42bf 332c 4dbd ead1 153b

curr_fe_dense1_q1.bias f4 [64]
-0.15525998 0.20729165 0.0627651 -0.28604573 0.33051196 0.017698403 -0.9291605 0.33643326
0.2722859 -0.117506616 0.11616558 -0.0028402323 -0.489841 0.07864444 -0.46958372 -0.20650376
-0.10200356 0.19956481 -0.042838756 -0.80543435 0.28050527 0.43874687 -0.06799215 0.6719039
-0.32365558 0.19223922 -0.5656822 0.29463807 -0.07082281 -0.07647017 0.19489786 0.053250223
0.27968284 -0.49620822 0.3183819 -0.07068798 0.12906216 0.2015778 -0.781226 -0.62983894
-0.054989226 -0.5570664 0.0102675 0.055548865 0.4377315 0.044575498 -0.11773188 0.31029004
0.018125594 0.3412183 -0.20738511 0.044360165 0.360611 0.42680535 0.2751235 -0.046643652
0.19237575 0.20932883 -0.31541872 -0.22481433 0.28400126 0.16552363 0.22939128 0.015260066
00000000: 79fc 1ebe 4344 543e fd8a 803d 9674 92be
00000010: dd38 a93e 3efc 903c 76dd 6dbf fb40 ac3e
00000020: 0f69 8b3e 4fa7 f0bd 38e8 ed3d 3123 3abb
00000030: 71cc fabe 5610 a13d 476d f0be b975 53be
00000040: 3ee7 d0bd b85a 4c3e b177 2fbd f230 4ebf
00000050: 639e 8f3e 6ea3 e03e 783f 8bbd e501 2c3f
00000060: 2fb6 a5be 5cda 443e 8cd0 10bf cdda 963e
00000070: 8d0b 91bd 649c 9cbd 4e93 473e e81c 5a3d
00000080: 9732 8f3e 010f febe f402 a33e dcc4 90bd
00000090: df28 043e 696a 4e3e 6dfe 47bf 203d 21bf
000000a0: 623c 61bd e79b 0ebf 0439 283c 3587 633d
000000b0: 581e e03e cc94 363d 691d f1bd 56de 9e3e
000000c0: 207c 943c 2ab4 ae3e c35c 54be 01b3 353d
000000d0: 01a2 b83e 3b86 da3e fddc 8c3e 6a0d 3fbd
000000e0: 26fe 443e 4c5a 563e 907e a1be ba35 66be
000000f0: 9d68 913e 077f 293e 8ce5 6a3e 5b05 7a3c

curr_fe_dense2_q1.weight f4 [64, 64]
-0.43056267 0.20545311 -0.05451122 0.15551023 -0.06448837 -0.26870084 -0.21933693 -0.06661988
1.2566414 -0.28678533 -1.3672491 -1.2326474 -0.454614 -0.06415016 -0.31993544 -0.017996954
0.15540992 -0.11329504 -0.14149839 0.26223218 -0.12122704 -0.23015876 0.072763234 -0.060777314
0.08453891 0.116955586 -0.10977462 0.10719039 0.09398204 0.18080477 -0.53647065 -0.63692826
-0.053933624 -0.11636009 0.0647885 0.23491098 -2.6936793 -0.1286436 -0.6210034 0.21059717
0.048308387 -0.072306015 -0.3079766 -1.258745 -0.124514125 -0.14214468 0.04134989 -0.08486791
-0.46621385 0.00913501 0.015009311 -0.23882352 -0.13479413 0.1809805 0.17976506 0.024639206
-0.119599245 -0.35017446 0.25458896 -0.34534496 -0.072048426 0.21583597 -0.35490882 0.011245189
-0.27252474 0.11183722 -0.1937794 -0.43090534 0.23420179 0.33871984 0.38273326 -0.2560597
0.5453473 -0.36245525 -0.12707977 -0.04650004 0.51783234 0.18174021 0.74960524 0.21310665
-0.736917 -0.1726822 -0.42636073 -0.11679964 -0.3340878 -0.4410735 -0.6382557 -0.18781774
0.27476788 -0.52944934 -0.3458982 -1.1132305 -0.66676646 0.18969394 -0.16121167 -0.6178422
-0.16947737 -0.4388002 -0.99495214 0.35161313 0.17983566 0.39095208 -1.0705482 -0.15447585
-0.4675696 -0.07625668 -0.7547421 0.46290714 0.52237004 -0.41599596 -0.42928043 -0.43519264
0.105310194 -0.19184744 0.077002235 0.20979045 0.40101117 0.21824808 -0.27780932 -0.44398466
-0.5517171 0.2710725 -1.1809604 0.94326276 -0.549668 0.17139256 0.1660521 0.4533301
0.19253579 -0.122058064 0.16439246 0.01744541 0.12780277 -0.19268784 0.6439942 -0.10019358
0.28924888 -0.07475172 -3.6601324 -0.37167764 0.4610264 -0.6210031 -0.6407777 -0.3391432
-0.18091825 -0.014411036 0.15294701 -0.055710264 0.027024642 0.40626016 0.09974055 -0.17584968
-0.0473843 -0.17123444 0.4961721 0.041255534 -6.874561 -0.13923793 0.24889901 0.15503688
0.0808136 -0.06017099 -0.06742912 0.21210162 -0.3949943 -0.6786532 -0.68065345 0.39592433
-0.11402137 -0.09258648 -0.02469324 -0.33593833 -0.10709542 -0.35013932 0.14662549 -0.03720896
-0.41044348 -0.41966555 0.3158812 -0.08426473 0.09423892 -0.46646374 -0.09754348 0.101105094
-0.06880619 0.40202007 -0.08654431 0.113446064 -0.18313237 0.00095252384 0.26079273 0.029044896
-0.47359568 0.012416962 0.07208896 0.25215057 -0.40858078 -0.71313584 0.7181459 -0.4856077
0.294987 0.39451742 0.30498645 0.459692 -1.5296161 -0.10335441 -0.47501272 -0.51200926
0.45417893 -0.85689485 -0.19059274 -0.049879197 -0.004449975 0.33828455 0.43604875 -0.21416484
0.3548661 -0.80978644 -0.7462647 -0.5035725 -0.22931042 0.043529727 0.31432465 -0.16924976
-0.3668132 -0.04456894 0.292129 -0.63783747 -0.23643781 -0.22278184 -0.41203502 -0.5412976
0.79211295 -0.11116738 0.028696418 -0.34844 -0.007315433 -0.8782112 -0.058635034 -0.742054
-0.26397765 -0.40342414 -0.14402246 -0.48366594 0.20956829 0.57197225 -0.5267307 -0.86554796
0.21804541 -0.11944556 -0.029854028 -1.3599412 0.37792766 -0.3772811 0.41416016 -0.44975746
00000000: b672 dcbe 4d62 523e 2847 5fbd 133e 1f3e
00000010: 7b12 84bd 2893 89be dc99 60be 0170 88bd
00000020: a0d9 a03f 87d5 92be 0502 afbf 64c7 9dbf
00000030: 2bc3 e8be 2961 83bd 94ce a3be 596e 93bc
00000040: c723 1f3e 3b07 e8bd f4e4 10be 4c43 863e
00000050: e245 f8bd bdae 6bbe e404 953d a2f1 78bd
00000060: bc22 ad3d 6986 ef3d 84d1 e0bd a386 db3d
00000070: a879 c03d e324 393e 2456 09bf bb0d 23bf
00000080: 81e9 5cbd 334e eebd d5af 843d 818c 703e
00000090: 3e65 2cc0 26bb 03be 14fa 1ebf c9a6 573e
000000a0: 04df 453d 2d15 94bd 1caf 9dbe 8e1e a1bf
000000b0: 4301 ffbd 608e 11be 815e 293d 3acf adbd
000000c0: 95b3 eebe 02ab 153c 9de9 753c 278e 74be
000000d0: 7907 0abe f452 393e 5514 383e 29d8 c93c
000000e0: 73f0 f4bd 114a b3be 7c59 823e 0ed1 b0be
000000f0: 208e 93bd 1b04 5d3e 9cb6 b5be be3d 383c
00000100: 5d88 8bbe ea0a e53d 1b6e 46be a09f dcbe
00000110: 98d2 6f3e b06c ad3e 9df5 c33e 421a 83be
00000120: e19b 0b3f bc93 b9be 3321 02be d376 3ebd
00000130: a990 043f 1b1a 3a3e 21e6 3f3f a138 5a3e
00000140: 98a6 3cbf 9ad3 30be f44b dabe a634 efbd
00000150: 8e0d abbe 63d4 e1be ba64 23bf 4b53 40be
00000160: 60ae 8c3e fe89 07bf 9219 b1be 567e 8ebf
00000170: 35b1 2abf 213f 423e ac14 25be e82a 1ebf
00000180: 7a8b 2dbe 6baa e0be 2fb5 7ebf a306 b43e
00000190: d726 383e df2a c83e b907 89bf eb2e 1ebe
000001a0: 4865 efbe 762c 9cbd c736 41bf 2a02 ed3e
000001b0: 0bba 053f 6cfd d4be a5ca dbbe 92d1 debe
000001c0: dfac d73d a873 44be 59b3 9d3d 4fd3 563e
000001d0: 5651 cd3e 6d7c 5f3e 063d 8ebe f551 e3be
000001e0: 553d 0dbf 04ca 8a3e b629 97bf ab79 713f
000001f0: 0bb7 0cbf 8881 2f3e 9009 2a3e e21a e83e
00000200: 1a28 453e 94f9 f9bd 7f56 283e ade9 8e3c
00000210: bbde 023e f64f 45be cedc 243f 4b32 cdbd
00000220: 6e18 943e 6e17 99bd 9c3f 6ac0 884c bebe
00000230: a70b ec3e 0ffa 1ebf 020a 24bf 2da4 adbe
00000240: a242 39be 441c 6cbc 249e 1c3e 7230 64bd
00000250: c862 dd3c 5501 d03e c644 cc3d f011 34be
00000260: 0a16 42bd 1558 2fbe 450a fe3e 90fb 283d
00000270: 67fc dbc0 6394 0ebe 62df 7e3e fdc1 1e3e
00000280: 9a81 a53d db75 76bd 4718 8abd 2b31 593e
00000290: b13c cabe 37bc 2dbf 4e3f 2ebf 98b6 ca3e
000002a0: 0984 e9bd fb9d bdbd 7a49 cabc 1c00 acbe
000002b0: d854 dbbd 7645 b3be fe24 163e 6c68 18bd
000002c0: a625 d2be 67de d6be 2ebb a13e fd92 acbd
000002d0: 5600 c13d 56d4 eebe e0c4 c7bd 3010 cf3d
000002e0: 42ea 8cbd 93d5 cd3e 253e b1bd 6956 e83d
000002f0: 0d87 3bbe cbb2 793a a086 853e 90ef ed3c
00000300: 227b f2be 8370 4b3c 60a3 933d e119 813e
00000310: 8031 d1be 1290 36bf 69d8 373f 93a1 f8be
00000320: 8908 973e 30fe c93e 2f27 9c3e c05c eb3e
00000330: 76ca c3bf 7aab d3bd de34 f3be 0a13 03bf
00000340: 248a e83e 765d 5bbf be2a 43be 214e 4cbd
00000350: 19d1 91bb a233 ad3e c841 df3e 074e 5bbe
00000360: 02b1 b53e 2a4e 4fbf 340b 3fbf 21ea 00bf
00000370: 5ad0 6abe 3a4c 323d 29ef a03e cf4f 2dbe
00000380: f1ce bbbe ec8d 36bd ef91 953e 5149 23bf
00000390: c11c 72be ec20 64be 41f6 d2be 7b92 0abf
000003a0: eac7 4a3f b9ab e3bd c014 eb3c ba66 b2be
000003b0: 4db6 efbb 73d2 60bf 4a2b 70bd 40f7 3dbf
000003c0: 1428 87be 9c8d cebe a07a 13be 10a3 f7be
000003d0: 1299 563e c66c 123f d3d7 06bf 8d94 5dbf
000003e0: 4c47 5f3e e09f f4bd 6f90 f4bc 8e12 aebf
000003f0: bc7f c13e fd2a c1be cd0c d43e 9c46 e6be

curr_fe_dense2_q1.bias f4 [64]
-0.17407672 0.24245533 0.5796403 -0.318932 0.018288346 -0.23326544 -0.05707722 0.39871776
-0.06677849 0.3599647 -0.29464087 0.36407754 0.55863017 0.3427132 0.06334736 0.16496772
0.12057062 0.4846777 -0.006554284 0.2052396 0.35381484 0.116388254 -0.081503876 0.06889647
0.18399656 -0.283204 -0.13732648 0.08201189 -0.15838465 -0.013840819 -0.060078748 0.5139961
0.15132612 -0.18947014 -0.098980606 -0.11542113 -0.18668497 0.1467989 0.37107763 -0.18997113
-0.07202302 -0.1818131 -0.10070916 0.030652203 0.31687632 0.4010922 0.11470449 -0.24564198
-0.23860517 -0.30398804 -0.12854876 -0.027645793 0.43059278 -0.4367766 -0.08341047 -0.06258952
0.2759503 0.33795804 -0.38150847 0.3186383 -0.38748223 -0.23999475 0.059215263 0.23684746
00000000: 2b41 32be 3646 783e 4f63 143f 0e4b a3be
00000010: 71d1 953c 23dd 6ebe cec9 69bd bc24 cc3e
00000020: 29c3 88bd 4b4d b83e 2bdb 96be 5f68 ba3e
00000030: 6302 0f3f 1b78 af3e 43bc 813d 4ced 283e
00000040: bbed f63d ad27 f83e 52c5 d6bb 542a 523e
00000050: 3827 b53e f75c ee3d 81eb a6bd 9819 8d3d
00000060: 9869 3c3e 1d00 91be 509f 0cbe daf5 a73d
00000070: 962f 22be 9ac4 62bc 2215 76bd 4095 033f
00000080: 3cf5 1a3e 7604 42be 58b6 cabd ea61 ecbd
00000090: 582a 3fbe 7352 163e e3fd bd3e cb87 42be
000000a0: ce80 93bd 372d 3abe 9b40 cebd 541a fb3c
000000b0: 9d3d a23e f55b cd3e 30ea ea3d 9289 7bbe
000000c0: ea54 74be 52a4 9bbe 49a2 03be 6e79 e2bc
000000d0: a876 dc3e 2fa1 dfbe 1cd3 aabd ef2e 80bd
000000e0: 5c49 8d3e d608 ad3e 1455 c3be 8f24 a33e
000000f0: 1264 c6be 2fc1 75be b48b 723d 2488 723e

mem_dense_q1.weight f4 [64, 50]
0.022440016 0.29055196 -0.100566015 0.21462853 -0.081175804 0.12759025 0.32183713 0.4059203
1.0022007 0.93840605 0.6070214 0.514405 0.24486817 0.5463923 0.5657043 0.07543057
-0.4727722 -0.08284473 -0.23434219 0.085926175 -0.38383913 -0.23143117 0.49831918 -0.33863777
-0.40921333 -0.5295481 -0.25974223 -0.11869878 0.14370084 0.18469058 0.6146593 0.667696
0.58639294 -0.21742333 -1.5362666 -0.41973543 -0.5700151 -0.75184846 0.16102017 0.25813782
0.4598115 0.13440813 -0.6777042 -0.70939827 -0.6480048 0.07809178 -0.13102429 -0.20151722
0.09281277 -0.4246076 0.0141213415 0.85206634 0.40692604 0.34347618 0.20476645 0.31387472
0.03992797 0.07682381 0.5638031 2.1335382 -0.34176296 -0.13807178 -0.41072562 -0.17270458
0.039145887 0.08863609 0.23834306 -0.15041755 0.14035757 -0.2846778 -0.05455302 -0.14835216
-0.061353516 -0.030543769 0.31721932 0.10130464 -0.18076576 -0.485665 -0.50556225 -0.34015366
-0.25068608 0.06916588 0.63214064 -1.2245371 -1.5914752 -0.6035688 -0.24753709 0.017903082
0.6536828 0.5179026 0.7231414 0.3997777 0.7080513 0.31009376 -1.4642779 -0.33522496
-0.43733916 -0.5596369 -0.57883656 0.002998302 0.014578326 -0.45195398 -0.007968889 -0.10406719
0.30801508 -0.016396444 -0.002737069 0.073938504 -0.5100097 -0.14634399 -0.9893874 -0.22149609
-0.26275942 0.08489823 0.082675114 0.0777289 0.06788402 -0.0008173446 -0.3342613 -0.041437365
-0.9988976 1.0727149 0.6404223 0.30029786 0.032647062 -0.29343978 0.14852354 0.11616646
0.15166202 0.2065062 0.34707895 0.27529487 -0.22263597 0.12861802 -0.33679175 -0.83149934
-0.3430684 0.10099796 -0.12774788 -0.16805078 -0.19215728 -0.22776341 0.091521576 -0.27501005
0.85235006 2.4499362 1.7225652 0.59220535 0.4839236 0.49557805 -0.01592253 0.07221664
0.00920495 -0.20119503 -0.02945106 -0.004454816 -0.10346336 0.039612904 0.6703721 -0.56977534
-0.27377507 -0.17470449 -0.25732964 -0.08982065 -0.07940274 0.16320422 0.15632553 0.10831869
-0.17478126 -0.06737425 1.3215659 3.8122952 0.2990296 0.08052579 -0.27348036 -0.039632678
0.093530186 0.07982256 0.1708651 0.10059755 0.13833193 0.15380193 0.2814171 0.38783032
0.16416767 -0.1788821 0.0009515975 0.10552858 -0.1067428 -0.15118945 -0.032400362 -0.17729107
0.09744062 0.06552772 0.25212955 1.0291408 -0.13479051 -0.04527483 -0.22011496 -0.066420205
-0.016432144 -0.41338384 -0.1845908 0.14460109 0.30992207 0.10472656 0.08812255 -0.09184144
0.5309828 0.09487142 0.36823457 -0.11771466 0.01121042 0.02518757 -0.22120872 0.23828915
0.08827628 0.2359507 -0.059799876 0.091306 -0.18053336 -0.7040838 0.17723173 0.11270882
0.093615815 -0.093470156 0.06559509 -0.049441725 0.1284715 0.10033051 -0.27117622 -0.035464298
0.36901468 0.7771967 0.5445965 -0.64998174 -0.19637841 0.46993926 -0.3057858 0.09254498
0.32747993 0.34510466 0.10082494 -0.74655825 -1.0638885 -1.419092 0.053795327 0.8055624
0.57478607 0.60689133 -0.006941033 0.8830566 0.17376025 0.070423156 0.17938802 -0.1734838
00000000: 20d4 b73c 3ac3 943e 8ef5 cdbd 95c7 5b3e
00000010: 803f a6bd 05a7 023e d6c7 a43e c9d4 cf3e
00000020: 1d48 803f 613b 703f c165 1b3f 0cb0 033f
00000030: b9be 7a3e 5ee0 0b3f ffd1 103f 587b 9a3d
00000040: 330f f2be 7faa a9bd 66f7 6fbe 10fa af3d
00000050: 9086 c4be 4bfc 6cbe b123 ff3e ee61 adbe
00000060: 6984 d1be 7790 07bf effc 84be 5918 f3bd
00000070: 5026 133e 871f 3d3e 505a 1d3f 20ee 2a3f
00000080: d91d 163f 39a4 5ebe 62a4 c4bf 90e7 d6be
00000090: 82ec 11bf 2479 40bf 79e2 243e a42a 843e
000000a0: 6a6c eb3e 49a2 093e 067e 2dbf 209b 35bf
000000b0: a4e3 25bf 95ee 9f3d 3b2b 06be 885a 4ebe
000000c0: 9f14 be3d 2b66 d9be 335d 673c 0521 5a3f
000000d0: 9c58 d03e 1cdc af3e 4cae 513e 30b4 a03e
000000e0: 838b 233d cd55 9d3d 6655 103f e48b 0840
000000f0: 8efb aebe b062 0dbe a14a d2be 78d9 30be
00000100: 7057 203d d786 b53d 3410 743e 0f07 1abe
00000110: e5b9 0f3e 4ac1 91be fd72 5fbd a1e9 17be
00000120: d34d 7bbd ed36 fabc 926a a23e cf78 cf3d
00000130: a91a 39be 15a9 f8be 876c 01bf 9f28 aebe
00000140: ed59 80be d7a6 8d3d f8d3 213f a2bd 9cbf
00000150: 76b5 cbbf 7c83 1abf 5d7a 7dbe 7ca9 923c
00000160: c257 273f 4495 043f cb1f 393f aaaf cc3e
00000170: da42 353f 9cc4 9e3e 756d bbbf 9ba2 abbe
00000180: ebea dfbe 5d44 0fbf a22e 14bf 297f 443b
00000190: eed9 6e3c 8366 e7be f18f 02bc 2e21 d5bd
000001a0: 27b4 9d3e d651 86bc 6660 33bb 126d 973d
000001b0: ff8f 02bf 33db 15be 7e48 7dbf dfcf 62be
000001c0: 6788 86be 20df ad3d 9251 a93d 5430 9f3d
000001d0: c706 8b3d 1143 56ba 4c24 abbe 3aba 29bd
000001e0: c1b7 7fbf b94e 893f b7f2 233f a4c0 993e
000001f0: edb8 053d bd3d 96be 8e16 183e aee8 ed3d
00000200: 4a4d 1b3e 5c76 533e 55b4 b13e 73f3 8c3e
00000210: affa 63be 71b4 033e f86f acbe 24dd 54bf
00000220: a9a6 afbe 05d8 ce3d 57d0 02be 8115 2cbe
00000230: e1c4 44be d03a 69be aa6f bb3d 1ece 8cbe
00000240: 9d33 5a3f c1cb 1c40 047d dc3f c59a 173f
00000250: d6c4 f73e 68bc fd3e f76f 82bc 51e6 933d
00000260: 5cd0 163c 1206 4ebe 5943 f1bc b5f9 91bb
00000270: 99e4 d3bd 2441 223d 829d 2b3f ccdc 11bf
00000280: 3f2c 8cbe bce5 32be b6c0 83be e4f3 b7bd
00000290: e79d a2bd 021f 273e cd13 203e 30d6 dd3d
000002a0: dcf9 32be 83fb 89bd 1229 a93f a5fc 7340
000002b0: 681a 993e b5ea a43d 9e05 8cbe e055 22bd
000002c0: c18c bf3d 037a a33d 43f7 2e3e 1706 ce3d
000002d0: e3a6 0d3e 417e 1d3e e715 903e b291 c63e
000002e0: 921b 283e df2c 37be a174 793a 5e1f d83d
000002f0: f89b dabd 68d1 1abe 3eb6 04bd ca8b 35be
00000300: f38e c73d 6633 863d 2017 813e e3ba 833f
00000310: 8606 0abe 1a72 39bd d165 61be 5107 88bd
00000320: b49c 86bc 0ca7 d3be 5f05 3dbe 4f12 143e
00000330: 1bae 9e3e e17a d63d 9879 b43d 5d17 bcbd
00000340: 7dee 073f f24b c23d 3e89 bc3e 6214 f1bd
00000350: e9ab 373c 2a56 ce3c 8a84 62be 1202 743e
00000360: 32ca b43d 0f9d 713e b7f0 74bd a4fe ba3d
00000370: bddd 38be d63e 34bf 3c7c 353e e2d3 e63d
00000380: a6b9 bf3d 486d bfbd b856 863d 6883 4abd
00000390: 088e 033e 157a cd3d 9cd7 8abe 0343 11bd
000003a0: 7eef bc3e 5df6 463f ad6a 0b3f 3465 26bf
000003b0: 6c17 49be e19b f03e f58f 9cbe 3988 bd3d
000003c0: 73ab a73e 8fb1 b03e 4e7d ce3d 711e 3fbf
000003d0: 802d 88bf cfa4 b5bf 7d58 5c3d 5639 4e3f
000003e0: 2e25 133f 3b5d 1b3f 9b71 e3bb ff0f 623f
000003f0: 35ee 313e 043a 903d 7eb1 373e bda5 31be

mem_dense_q1.bias f4 [64]
0.726031 0.53638136 0.6950228 0.33840197 0.39971834 0.40656444 0.18409996 0.33795387
-0.095322005 0.28474998 0.12492066 0.6250962 0.4522576 0.20130764 0.27177814 0.28153637
0.3067311 0.40081403 0.088557705 -0.12586556 0.15063213 -0.49103048 0.44547358 0.0858718
0.4549929 0.1042391 0.68474656 0.32838228 -0.38698804 0.18504438 0.108639576 0.20865916
0.001996524 -0.041061375 0.4194624 -0.12445848 0.2644549 0.34037828 -0.051663343 0.28608826
-0.16598311 0.23831655 0.16771057 0.2234701 -0.03648368 -0.3249485 -0.030123178 0.30425212
0.4605203 0.09202183 -0.0046840967 0.0575368 0.19355525 0.13982566 0.3957951 -0.321579
-0.115940645 0.055794887 0.30705482 0.6180869 0.74025655 0.21199016 0.8707416 0.5851823
00000000: 2bdd 393f 4a50 093f 04ed 313f 0643 ad3e
00000010: e2a7 cc3e 3729 d03e b384 3c3e 4a08 ad3e
00000020: 2f38 c3bd c0ca 913e 67d6 ff3d 4e06 203f
00000030: 4f8e e73e 9723 4e3e 8126 8b3e 8925 903e
00000040: dc0b 9d3e 7f37 cd3e be5d b53d e7e2 00be
00000050: 4f3f 1a3e 5968 fbbe 1d15 e43e 8edd af3d
00000060: d4f4 e83e 4f7b d53d 8d4b 2f3f b921 a83e
00000070: 4c23 c6be 467c 3d3e 6d7e de3d bfaa 553e
00000080: 1dd8 023b f92f 28bd c7c3 d63e 16e4 febd
00000090: a266 873e 1046 ae3e f19c 53bd 297a 923e
000000a0: 7af7 29be 4109 743e 52bc 2b3e 59d5 643e
000000b0: e96f 15bd a65f a6be e2c4 f6bc efc6 9b3e
000000c0: 51c9 eb3e f175 bc3d 0d7d 99bb b5ab 6b3d
000000d0: 5933 463e 752e 0f3e a8a5 ca3e 01a6 a4be
000000e0: 4a72 edbd 2e89 643d 4a36 9d3e f13a 1e3f
000000f0: 7481 3d3f f313 593e ece8 5e3f 82ce 153f

mem_LSTM_q1.weight_ih_l0 f4 [256, 64]
0.48334116 0.106758356 -1.2299953 0.31331527 0.28210902 0.5880401 -0.027309112 -0.6407168
0.51106757 0.46964565 -0.08357732 0.14838997 0.64457667 -0.18124442 -0.38727418 -0.3580341
0.19471657 1.2401717 1.3113512 0.037091453 0.30389857 -0.09830343 0.27312732 -0.4655209
-0.077983 -0.104052454 0.014059391 0.17606942 0.40172735 1.4423256 0.5815429 -0.2403999
-0.14941385 -0.13738252 1.2152963 -0.15555045 -0.03229714 0.3641222 -0.13158181 0.26669818
-0.14233641 0.2922071 -0.038285956 -0.14220531 0.58177835 0.8956432 -0.28482634 0.15346728
-0.20411743 0.65250653 0.04956418 0.21929416 -0.1682547 0.86903673 0.21232457 0.12914288
0.24066563 -0.27683103 0.31064907 -0.053572174 0.25218886 -0.63664633 -0.5906082 0.32342723
-0.8505071 0.06583361 0.0127086155 -0.13275987 -0.48687094 1.0405596 -0.7536806 -0.2833948
-1.035372 -1.1321603 -1.3072252 0.77658445 0.12106094 0.9465608 -0.9499214 0.5062486
0.7291084 0.10520965 1.6109419 0.43025747 -0.1826323 0.42054108 1.4903182 -0.6389215
1.5965831 -0.96383095 1.3802264 -0.3563436 0.6908195 1.6901859 -0.020664074 0.22673729
0.19283357 0.014825926 0.95489943 0.018337945 -0.3274952 -0.055844355 0.2625802 1.1579518
-0.8948169 -0.8146012 0.85830885 0.4198189 0.0071058534 -0.5781126 -0.46617523 0.19428606
-1.1048186 0.6205228 -0.22009271 -0.06755828 0.8567194 -0.028597867 0.01923088 -0.0906572
-0.32626304 0.5039486 -0.755281 -0.6520967 -0.18292905 2.2856803 -0.08276236 0.6258565
0.28950652 0.49129 0.34204918 -0.032342877 -0.12510104 -0.9206491 -0.14449199 0.32470033
0.2629328 0.25203 1.1551446 1.5632478 0.5687132 0.40938708 0.09483115 -0.032220714
0.06327551 -0.40430564 -0.84777594 0.40529537 -0.16973223 0.32107472 0.5889193 0.08260648
0.47614545 0.44870052 0.24000078 0.6469385 -0.0012960746 0.3126026 -0.037133396 0.45424148
1.0024152 0.69044036 -0.120142564 0.9556951 -0.25382075 0.53066826 0.08170565 0.32819197
-0.2735186 0.12552229 -0.563975 -0.65178496 -0.054337304 0.9545223 1.3925259 -0.5731559
0.8590349 -0.15916021 -0.27048278 1.1391822 -0.006601084 -0.57427734 0.2820997 -0.3445655
0.2480264 -0.33259615 0.19621031 0.92111444 0.58794135 -0.0063113985 -0.12174624 0.1407441
0.311378 -0.10078251 -0.59656507 -0.5395735 0.50505227 2.1266074 0.5959016 -0.6294648
0.8045356 0.21196915 0.5422754 -0.32086283 -0.3088186 0.6446176 0.23110637 -0.35011086
-0.018920654 1.0556281 -0.06865377 1.0920881 0.16400576 -0.03451644 0.581165 -0.20919487
-0.9750396 0.57091945 -0.21972655 -0.29368874 -0.27904692 0.15446414 -0.57471895 -0.5464008
-1.5227565 0.4704875 0.38383484 -0.58922875 0.8475242 0.7534886 1.3472037 -0.3900059
0.16764536 0.09779084 0.29410434 -0.8394263 -0.39998466 -0.4220914 -0.3085773 0.46858048
-0.031063048 -0.10905264 0.46467492 0.012281666 -0.069177054 -0.105798125 0.38677523 0.6618583
-0.38129377 -0.34086004 0.20307323 0.32685518 0.5294401 -0.2739855 -0.5401293 -0.30868328
00000000: 7e78 f73e 20a4 da3d 7c70 9dbf dc6a a03e
00000010: 9870 903e cc89 163f 5cb7 dfbc 0406 24bf
00000020: 53d5 023f 6575 f03e 962a abbd 8af3 173e
00000030: fa02 253f 2398 39be cd48 c6be 3f50 b7be
00000040: c863 473e f2bd 9e3f 5bda a73f 35ed 173d
00000050: 9898 9b3e 4f53 c9bd 58d7 8b3e c158 eebe
00000060: 8db5 9fbd 7419 d5bd 5c59 663c 8b4b 343e
00000070: 35af cd3e 209e b83f ffdf 143f 642b 76be
00000080: f2ff 18be 01ae 0cbe d48e 9b3f 9e48 1fbe
00000090: 024a 04bd 3a6e ba3e 62bd 06be aa8c 883e
000000a0: a3c0 11be 2b9c 953e bcd1 1cbd 459e 11be
000000b0: 6def 143f df48 653f c2d4 91be 8726 1d3e
000000c0: 2904 51be ab0a 273f cf03 4b3d a68e 603e
000000d0: f64a 2cbe 3179 5e3f 9d6b 593e 083e 043e
000000e0: 0d71 763e ccbc 8dbe 650d 9f3e 7f6e 5bbd
000000f0: e61e 813e 41fb 22bf 1932 17bf 4198 a53e
00000100: d5ba 59bf c6d3 863d cc37 503c 34f2 07be
00000110: 2647 f9be 0f31 853f 36f1 40bf 2019 91be
00000120: 1287 84bf a1ea 90bf 2853 a7bf 3dce 463f
00000130: ccee f73d cf51 723f 0d2e 73bf 8299 013f
00000140: d9a6 3a3f 2878 d73d 5833 ce3f b54a dc3e
00000150: f603 3bbe 2951 d73e bfc2 be3f 5c90 23bf
00000160: d65c cc3f a0bd 76bf 42ab b03f ab72 b6be
00000170: 8cd9 303f 0358 d83f b447 a9bc d22d 683e
00000180: 2a76 453e 71e8 723c 4a74 743f 7539 963c
00000190: 73ad a7be 0dbd 64bd e970 863e c437 943f
000001a0: b812 65bf b489 50bf 21ba 5b3f 81f2 d63e
000001b0: 38d8 e83b 30ff 13bf 85ae eebe edf2 463e
000001c0: b26a 8dbf 95da 1e3f fc5f 61be ff5b 8abd
000001d0: f651 5b3f 1346 eabc 148a 9d3c 7baa b9bd
000001e0: f30b a7be c702 013f 185a 41bf cfef 26bf
000001f0: c151 3bbe 9648 1240 507f a9bd 2238 203f
00000200: 333a 943e 5d8a fb3e 1221 af3e f779 04bd
00000210: 7d1a 00be a9af 6bbf b5f5 13be 1f3f a63e
00000220: 219f 863e 130a 813e c7db 933f 8118 c83f
00000230: 3097 113f 2f9b d13e d536 c23d def9 03bd
00000240: 9796 813d 2601 cfbe d807 59bf e082 cf3e
00000250: 49ce 2dbe e863 a43e 6ac3 163f 962d a93d
00000260: 56c9 f33e 13bc e53e c4c2 753e c39d 253f
00000270: 0ce1 a9ba 730d a03e 3019 18bd 5792 e83e
00000280: 244f 803f b3c0 303f 4e0d f6bd 6fa8 743f
00000290: cbf4 81be e0d9 073f 4b55 a73d c708 a83e
000002a0: a10a 8cbe ea88 003e aa60 10bf 61db 26bf
000002b0: cb90 5ebd 935b 743f 4a3e b23f 58ba 12bf
000002c0: b6e9 5b3f e5fa 22be b87c 8abe b9d0 913f
000002d0: e84d d8bb d703 13bf 5f6f 903e e46a b0be
000002e0: a2fa 7d3e 0b4a aabe 5beb 483e 28ce 6b3f
000002f0: 5383 163f d9cf cebb 1856 f9bd 391f 103e
00000300: f06c 9f3e 1067 cebd 7db8 18bf 7d21 0abf
00000310: 1b4b 013f 561a 0840 028d 183f 9b24 21bf
00000320: 0cf6 4d3f 710e 593e 90d2 0a3f 2248 a4be
00000330: 791d 9ebe a905 253f 26a7 6c3e bb41 b3be
00000340: 7dff 9abc d21e 873f 599a 8cbd 8bc9 8b3f
00000350: 20f1 273e 1c61 0dbd 3bc7 143f 2e37 56be
00000360: 329c 79bf c727 123f ffff 60be 5f5e 96be
00000370: 3ddf 8ebe d92b 1e3e c820 13bf ece0 0bbf
00000380: afe9 c2bf bde3 f03e 0086 c43e b2d7 16bf
00000390: 59f7 583f a1e4 403f 2c71 ac3f daae c7be
000003a0: 3aab 2b3e 9046 c83d d894 963e a4e4 56bf
000003b0: caca ccbe 5d1c d8be d8fd 9dbe c8e9 ef3e
000003c0: ef77 febc fe56 dfbd dfe9 ed3e 0a39 493c
000003d0: b3ac 8dbd b0ac d8bd 6707 c63e 8c6f 293f
000003e0: f038 c3be 3585 aebe 6ef2 4f3e 9059 a73e
000003f0: 6389 073f d447 8cbe ea45 0abf bc0b 9ebe

mem_LSTM_q1.weight_hh_l0 f4 [256, 64]
0.19058183 0.9392351 -0.81214654 0.15111756 -0.10168568 -1.1676396 -0.6636718 -0.17756608
-0.3784929 -0.8603321 0.0117424885 0.5775353 0.6250493 -1.8935655 0.16035917 0.46064457
-1.5532042 0.9367841 0.43010747 0.36169493 0.3510058 -0.67899936 -1.1610644 -0.78752047
0.448632 0.902448 0.9264946 0.295483 0.17740272 -0.6701294 0.4850456 -0.2205945
0.30353758 1.8899434 0.50729716 -0.18461451 0.04957979 0.8373965 0.06292596 2.338406
-0.34662792 0.52399844 -0.04158085 2.1545436 0.2470419 -0.37565026 -1.43285 -0.21918511
-1.4122285 -0.05244362 2.0012891 0.45617718 0.9405335 -0.73089004 1.0111136 0.9713787
0.5151869 -0.472986 0.31731245 0.8608445 0.49176693 0.53753954 -0.07180976 1.1173587
0.83545417 -1.1212618 -0.73425573 0.55971766 0.28037947 -0.27261958 -0.36938077 0.10410959
0.36618075 0.28858095 0.3699887 0.5440144 -0.6141438 0.28569627 0.12742415 -0.070432805
2.109403 -0.3330104 0.6004218 0.5633918 -1.2649606 -0.09262793 -0.09169018 -0.18305968
-1.1611911 -2.0754385 -1.9218273 0.18349238 -0.90986 -0.13209817 0.2475779 -0.6722423
-0.6022277 1.1346443 0.9925862 0.017370267 -0.86976886 -0.47807828 0.721624 0.5563773
1.4737312 -0.26595998 -0.2678404 0.86026335 -1.647783 -0.39714366 0.2623091 -0.5038815
-0.29932547 -1.1727283 -0.5431443 -0.71177644 0.025295252 -1.447093 -0.09860096 0.52103376
0.58444625 0.7011513 -0.26957682 0.65852606 -1.646617 -0.32603994 0.45550826 -0.5157667
-0.5063946 0.9749094 -0.09024355 -0.0753164 -1.26647 -0.44797957 0.14775354 -0.49327976
1.9678106 -1.2439462 -1.4498328 -0.033971965 1.1222256 -0.41747108 0.76888895 1.4747086
0.74522126 0.43688375 0.54985535 -0.07495826 -0.8624339 -1.4412482 0.85659456 0.07042494
0.13572107 -0.35756505 -0.17638353 0.5217779 0.15747538 -1.4600149 0.09437726 0.7107217
-0.8345208 -0.29779556 -0.23959757 -0.3254651 1.3072995 0.89701223 -0.011515334 -0.391089
-1.5613204 -1.0805492 0.04706512 -1.1266276 -0.5421606 0.6588735 -0.90865916 -0.21210033
-0.3306876 -0.42245013 0.029819721 0.012786282 0.33713442 -0.05953953 0.22457458 -0.17779417
-0.389263 -0.16468163 0.6711547 0.53428185 0.6315677 -0.3518864 -0.12767915 0.4539051
-0.5040394 -0.23802978 -0.504628 0.35268596 -0.1091983 -0.45260656 -1.0840421 0.64318836
1.5023286 -0.06917488 0.005742029 0.6573257 0.18145299 -0.056216974 0.1696032 0.6343096
-1.3208158 0.75722134 0.004573554 -1.3660926 0.01703887 1.1907316 -0.25562537 0.33198547
-0.006328932 0.78823155 -0.33635467 0.15832333 -0.06909066 0.6179749 -0.11847294 1.3171564
-0.40845034 1.8283486 -0.063474916 -1.1784077 -1.8124211 0.34440264 -0.08968926 0.81645393
0.8459154 1.0855187 -0.014500994 1.0142338 1.0832915 0.7493282 -0.061178133 0.13697447
-0.21736221 0.13586055 0.34399402 -0.7438464 0.0938311 -0.6995602 -0.39996144 -0.5937012
1.3969895 0.29251084 0.91057354 0.7576492 1.1610638 0.10813385 -0.28473076 -0.39902255
00000000: e227 433e b671 703f d6e8 4fbf 90be 1a3e
00000010: 9540 d0bd 3775 95bf 65e6 29bf e2d3 35be
00000020: d2c9 c1be b93e 5cbf 9163 403c 5ad9 133f
00000030: 3b03 203f 5b60 f2bf 3235 243e 9bd9 eb3e
00000040: 65cf c6bf 15d1 6f3f 0c37 dc3e 1430 b93e
00000050: 08b7 b33e e7d2 2dbf c29d 94bf f19a 49bf
00000060: 18b3 e53e d506 673f c02e 6d3f 8c49 973e
00000070: 0fa9 353e 9a8d 2bbf e657 f83e 86e3 61be
00000080: 4769 9b3e aae9 f13f 3ade 013f 960b 3dbe
00000090: 2e14 4b3d 9e5f 563f 53df 803d 72a8 1540
000000a0: 3779 b1be c324 063f ae50 2abd 0be4 0940
000000b0: 8df8 7c3e 3b55 c0be a167 b7bf 1072 60be
000000c0: e7c3 b4bf 1fcf 56bd 1f15 0040 0e90 e93e
000000d0: cec6 703f 9c1b 3bbf 2c6c 813f 46ac 783f
000000e0: 4ae3 033f 392b f2be c776 a23e 4e60 5c3f
000000f0: e0c8 fb3e 319c 093f ff10 93bd 9c05 8f3f
00000100: 53e0 553f 8285 8fbf 2ff8 3bbf a849 0f3f
00000110: e68d 8f3e cb94 8bbe 7a1f bdbe 6937 d53d
00000120: 0b7c bb3e e2c0 933e 296f bd3e 8744 0b3f
00000130: 8738 1dbf c846 923e 7a7b 023e 133f 90bd
00000140: 7500 0740 5780 aabe 3eb5 193f 723a 103f
00000150: 3bea a1bf b6b3 bdbd 10c8 bbbd ff73 3bbe
00000160: e9a1 94bf fcd3 04c0 70fe f5bf 6de5 3b3e
00000170: 96ec 68bf be44 07be 1085 7d3e 1218 2cbf
00000180: 982b 1abf 063c 913f 211a 7e3f 174c 8e3c
00000190: 2ca9 5ebf adc6 f4be 5abc 383f be6e 0e3f
000001a0: 39a3 bc3f e82b 88be 6022 89be 383a 5c3f
000001b0: 8eea d2bf 6a56 cbbe 614d 863e 61fe 00bf
000001c0: 3041 99be f61b 96bf 810b 0bbf fb36 36bf
000001d0: fd37 cf3c 583a b9bf 4def c9bd 7862 053f
000001e0: 459e 153f a77e 333f f905 8abe 2a95 283f
000001f0: 59c4 d2bf b5ee a6be 6138 e93e 4909 04bf
00000200: 14a3 01bf aa93 793f 9cd1 b8bd 7c3f 9abd
00000210: b01b a2bf 945d e5be b44c 173e 2a8f fcbe
00000220: 38e1 fb3f a139 9fbf 1f94 b9bf 3026 0bbd
00000230: 17a5 8f3f c5be d5be e8d5 443f 40c3 bc3f
00000240: d2c6 3e3f 3aaf df3e 52c3 0c3f b783 99bd
00000250: 78c8 5cbf d27a b8bf c849 5b3f f33a 903d
00000260: 77fa 0a3e c412 b7be e29d 34be 3d93 053f
00000270: 3a41 213e c5e1 babf dd48 c13d dbf1 353f
00000280: 28a3 55bf a978 98be 1159 75be 5da3 a6be
00000290: 9755 a73f 98a2 653f d0aa 3cbc d13c c8be
000002a0: 59d9 c7bf 704f 8abf 5bc7 403d 5535 90bf
000002b0: 09cb 0abf efab 283f e39d 68bf d430 59be
000002c0: e34f a9be 624b d8be 7d48 f43c 8e7d 513c
000002d0: e29c ac3e b9df 73bd e1f6 653e ad0f 36be
000002e0: 7b4d c7be 4da2 28be cbd0 2b3f b2c6 083f
000002f0: 6cae 213f 742a b4be 53be 02be 4066 e83e
00000300: ba08 01bf 14be 73be 4d2f 01bf 4193 b43e
00000310: 5ca3 dfbd 0cbc e7be e4c1 8abf fea7 243f
00000320: 4e4c c03f 8fab 8dbd a127 bc3b 7f46 283f
00000330: d0ce 393e c543 66bd 76ac 2d3e 1d62 223f
00000340: 7e10 a9bf 42d9 413f c0dd 953b 1fdc aebf
00000350: 1a95 8b3c e569 983f 54e1 82be 00fa a93e
00000360: ee62 cfbb 8bc9 493f ae36 acbe 831f 223e
00000370: 677f 8dbd 9a33 1e3f f1a1 f2bd 9598 a83f
00000380: 6720 d1be 5407 ea3f 23ff 81bd 10d6 96bf
00000390: 6afd e7bf 8b55 b03e 01af b7bd 2003 513f
000003a0: e98d 583f 47f2 8a3f 9495 6dbc 6ad2 813f
000003b0: 4ca9 8a3f f9d3 3f3f ec95 7abd 0943 0c3e
000003c0: 3394 5ebe 071f 0b3e fc1f b03e b86c 3ebf
000003d0: 852a c03d 6116 33bf bfc7 ccbe cdfc 17bf
000003e0: 8dd0 b23f fbc3 953e 591b 693f 4cf5 413f
000003f0: bd9d 943f 4875 dd3d 3bc8 91be af4c ccbe

mem_LSTM_q1.bias_ih_l0 f4 [256]
0.49726653 0.098590724 0.24344784 0.047284305 0.45184135 -0.107761525 -0.15694147 0.051538993
-0.22096965 0.3854961 -0.16831319 0.30002025 0.76415414 0.3880013 0.33881295 -0.10102099
0.38958055 0.06048726 0.13027686 0.13632664 0.3186987 0.28433156 0.2664162 -0.077933036
0.4204657 0.45847735 0.09230843 0.40573105 0.26681066 -0.1270556 -0.024245342 0.3608418
0.2506839 0.35509115 0.014380807 0.41695887 0.105380215 -0.27467862 0.039942723 0.118242085
0.36333767 0.26178652 -0.1487314 -0.25299057 -0.2267055 -0.20110396 0.2494951 -0.05442719
0.2727221 0.62034386 0.055972263 -0.12602969 0.3852424 0.15488939 0.14924346 -0.06490326
-0.093415886 0.73654526 0.6196969 0.3756992 -0.044503324 0.3902343 0.12183197 -0.36179194
-0.00946678 -0.03697987 0.16308038 -0.33665273 0.4274498 -0.073596284 -0.30250698 -0.058580626
-0.354078 -0.05389775 0.33032024 -0.11727407 0.0042085503 0.35937566 -0.48045042 0.1850134
-0.19344383 0.3828269 -0.26830164 -0.08978383 -0.22863917 -0.20248105 -0.396543 -0.5052311
0.15866807 0.25758266 0.14909127 -0.1662919 0.18275748 0.08626279 -0.06593334 -0.1144001
0.48381636 0.17849283 -0.12735626 -0.06241766 -0.17455353 0.124445654 -0.2858187 -0.37012318
-0.025121916 -0.16464569 0.007870053 0.20174775 0.03420098 0.015879681 -0.01213341 -0.21233481
-0.014067149 0.15500838 -0.16799249 -0.13749976 0.23849164 0.23203845 -0.03444574 0.26830932
0.10012994 -0.061167326 0.01417771 0.03185119 0.19898044 0.14250931 -0.14028355 0.04849036
0.4895351 0.10139871 0.33002904 0.21053016 0.90916985 0.10032241 -0.28171766 0.27328822
0.016090523 0.15145892 0.03223769 -0.1743244 0.0016699006 -0.65213245 -0.26372555 -0.04195409
0.21938315 0.13214 0.054321956 0.3054374 0.07382201 0.037969664 0.28864226 -0.10953058
-0.25397125 -0.35534537 0.1447599 0.0675009 -0.25426814 0.48149064 -0.25356838 -0.2299453
0.17565079 -0.06620825 -0.1272239 -0.060068876 -0.051767822 -0.10699066 -0.27813673 0.06337845
0.29093507 0.48573786 -0.20261015 -0.5943589 0.039107535 -0.08746779 -0.12859276 0.011912283
0.029722042 -0.081186935 0.27167434 -0.13773756 -0.88591236 -0.58728075 0.09528305 -0.066578045
-0.31216928 0.03871831 0.0807903 -0.0914145 -0.19585297 0.37539154 -0.080020726 0.08025501
0.016630985 0.2620066 0.12793563 0.44767484 0.2151995 0.4268768 0.18001586 0.28134486
-0.13891064 0.36029014 0.061534565 0.22144282 0.26154163 0.18481351 0.09933182 -0.20048153
-0.063580655 0.42142266 0.22794352 0.78729784 -0.1464169 0.15690397 0.31596148 -0.08703518
0.11153786 0.44735646 0.23768246 0.53940785 0.49656066 -0.1957921 0.21432953 -0.107657254
0.5399717 0.6672096 -0.3223533 0.6592884 0.47669044 0.27972755 0.0070910593 -0.5875895
-0.029085996 0.37592813 0.06900973 0.6169956 -0.3352995 0.21892282 0.29959372 0.11957709
-0.17766356 0.35854906 0.3316491 0.22803387 0.28239012 0.14212094 0.2528995 0.5140497
0.21051142 0.388726 0.39052868 0.087783195 -0.41726696 -0.019930527 0.4535906 -0.20791158
00000000: b899 fe3e efe9 c93d 644a 793e 30ad 413d
00000010: c057 e73e 13b2 dcbd 44b5 20be 8d1a 533d
00000020: de45 62be bf5f c53e 4b5a 2cbe 419c 993e
00000030: 9b9f 433f 1ba8 c63e e478 ad3e 18e4 cebd
00000040: 1a77 c73e 7dc1 773d 4c67 053e 3699 0b3e
00000050: 7a2c a33e e893 913e b467 883e 5b9b 9fbd
00000060: 4847 d73e 8bbd ea3e 340c bd3d fbbb cf3e
00000070: 689b 883e dd1a 02be 2b9e c6bc 42c0 b83e
00000080: a459 803e 82ce b53e 7a9d 6b3c a27b d53e
00000090: 95d1 d73d ada2 8cbe fb9a 233d e828 f23d
000000a0: 6507 ba3e e208 863e 0b4d 18be fb87 81be
000000b0: 7d25 68be 32ee 4dbe a57b 7f3e 0cef 5ebd
000000c0: 3ba2 8b3e dbce 1e3f 2c43 653d ed0d 01be
000000d0: 7e3e c53e 539b 1e3e 47d3 183e 00ec 84bd
000000e0: d450 bfbd 3b8e 3c3f 75a4 1e3f a55b c03e
000000f0: 1e49 36bd cacc c73e 0a83 f93d cb3c b9be
00000100: 8e1a 1bbc 3478 17bd 8bfe 263e bf5d acbe
00000110: b3da da3e a6b9 96bd 32e2 9abe 3df2 6fbd
00000120: b649 b5be e3c3 5cbd bc1f a93e 632d f0bd
00000130: e1e7 893b 1600 b83e 99fd f5be 2774 3d3e
00000140: 2416 46be e301 c43e d55e 89be 96e0 b7bd
00000150: 6320 6abe 3157 4fbe af07 cbbe d356 01bf
00000160: e279 223e e0e1 833e 62ab 183e 6d48 2abe
00000170: c724 3b3e 8caa b03d 0f08 87bd 9a4a eabd
00000180: c7b6 f73e d3c6 363e ae69 02be a9a9 7fbd
00000190: 29be 32be 5ddd fe3d d456 92be c980 bdbe
000001a0: 7acc cdbc e198 28be 65f1 003c f696 4e3e
000001b0: 5416 0c3d 1b16 823c 36cb 46bc 4c6e 59be
000001c0: e679 66bc 84ba 1e3e 3906 2cbe bdcc 0cbe
000001d0: 2737 743e 7d9b 6d3e fa16 0dbd d75f 893e
000001e0: ed10 cd3d 978a 7abd a049 683c 6576 023d
000001f0: 87c1 4b3e f6ed 113e 7ea6 0fbe d49d 463d
00000200: 58a4 fa3e 20aa cf3d 91f9 a83e 3895 573e
00000210: 5bbf 683f d675 cd3d 4c3d 90be 6fec 8b3e
00000220: 46d0 833c 0c18 1b3e ab0b 043d 1882 32be
00000230: 91e0 da3a 27f2 26bf 0907 87be 0dd8 2bbd
00000240: faa5 603e b54f 073e b380 5e3d 4a62 9c3e
00000250: fe2f 973d 1486 1b3d ebc8 933e 9251 e0bd
00000260: 8508 82be d4ef b5be f03b 143e e93d 8a3d
00000270: 6f2f 82be f185 f63e b7d3 81be c876 6bbe
00000280: cddd 333e 3198 87bd fb46 02be c80a 76bd
00000290: 7f0a 54bd eb1d dbbd f067 8ebe 90cc 813d
000002a0: 71f5 943e a2b2 f83e 0979 4fbe e827 18bf
000002b0: 392f 203d 5022 b3bd d2ad 03be bc2b 433c
000002c0: a47b f33c 5645 a6bd e618 8b3e 130b 0dbe
000002d0: 27cb 62bf 0858 16bf c223 c33d 125a 88bd
000002e0: a7d4 9fbe 1797 1e3d 6375 a53d 8637 bbbd
000002f0: ae8d 48be 5233 c03e e8e1 a3bd bd5c a43d
00000300: b43d 883c bb25 863e 8f01 033e a335 e53e
00000310: 425d 5c3e 998f da3e 1456 383e 6f0c 903e
00000320: 973e 0ebe f377 b83e ab0b 7c3d e8c1 623e
00000330: c9e8 853e c13f 3d3e 7b6e cb3d 084b 4dbe
00000340: 9336 82bd b6c4 d73e 076a 693e 5a8c 493f
00000350: 50ee 15be 6fab 203e b4c5 a13e 803f b2bd
00000360: f66d e43d e80b e53e 0863 733e a216 0a3f
00000370: 333d fe3e b97d 48be 3379 5b3e 687b dcbd
00000380: 963b 0a3f 40ce 2a3f 7e0b a5be 20c7 283f
00000390: c510 f43e 7338 8f3e 1e5c e83b 446c 16bf
000003a0: c145 eebc a779 c03e f954 8d3d 6cf3 1d3f
000003b0: 60ac abbe 4e2d 603e 5964 993e d5e4 f43d
000003c0: 70ed 35be be93 b73e e9cd a93e b681 693e
000003d0: 7095 903e 2788 113e 0b7c 813e c398 033f
000003e0: 4e90 573e 1807 c73e 60f3 c73e adc7 b33d
000003f0: 04a4 d5be 5845 a3bc 073d e83e c6e6 54be

mem_LSTM_q1.bias_hh_l0 f4 [256]
0.58293396 0.07855983 0.17235315 0.25988665 0.29772407 -0.22870103 -0.22275257 0.03803493
-0.12240332 0.33690462 -0.09135956 0.25933635 0.5422439 0.5341488 0.43253237 -0.13962005
0.3282693 0.022015873 0.2257642 0.03492101 0.30692232 0.12863445 0.43193844 -0.13457955
0.4891864 0.24262454 -0.018041762 0.3169101 0.4160736 -0.03650931 0.11149878 0.35606787
0.25826398 0.3534066 0.1276776 0.4998524 0.29243734 -0.10301526 0.022078654 0.06421355
0.37806752 0.3770982 -0.14406739 -0.12358552 -0.22905289 -0.2584223 0.28313172 -0.0460914
0.20313153 0.55687124 0.15525518 -0.112128265 0.47187567 0.19486867 -0.06951868 -0.113713905
0.09015497 0.6436513 0.69994855 0.41235635 -0.11847855 0.56046766 0.13425493 -0.32430866
-0.015067626 -0.104425155 0.10556275 -0.266771 0.44589397 -0.16795252 -0.23593035 -0.04721978
-0.47858357 -0.061069347 0.26575845 0.054567512 -0.042123064 0.36490148 -0.27457002 0.17237489
-0.082886 0.25531092 -0.32343265 -0.20261143 -0.32535598 -0.2104324 -0.54394424 -0.45004582
0.01794101 0.2532169 0.20589352 -0.23168133 0.18175964 -0.1090146 -0.22177881 -0.2260731
0.538689 0.27598068 -0.15545401 -0.068216085 -0.2812923 0.27422282 -0.29606074 -0.21653645
-0.024023775 -0.31214422 0.0131998295 0.09437473 0.18692741 -0.053670395 -0.14792024 -0.21572769
0.12921499 -0.07553764 -0.1448612 0.0040398194 0.2853842 0.16996263 -0.17198041 0.0356555
-0.14395572 -0.0062745768 -0.0045030974 0.13516133 0.07662807 0.16512354 0.005778221 0.06412187
0.63654137 0.2921384 0.32735783 0.08458243 0.96884537 0.09582239 -0.37840202 0.19325969
-0.1733417 0.19886959 -0.040561296 -0.12834468 0.17374568 -0.6462792 -0.0767977 -0.050448354
0.12729764 0.11319259 -0.014443037 0.12958404 0.004249011 -0.13680086 0.30092114 -0.014179714
-0.23723514 -0.45563084 0.004456838 0.018577302 -0.2619885 0.40847242 -0.31176338 -0.3971938
0.16721115 0.024935637 -0.0731643 -0.05118109 -0.06663052 -0.17859595 -0.2834448 -0.06003812
0.13879013 0.43457824 -0.2820353 -0.43933454 0.08762192 -0.22604646 -0.21593669 0.04453984
-0.055799946 0.08879587 0.21825427 -0.14072713 -0.7647537 -0.61390436 -0.01522734 0.047201093
-0.36057028 0.012161957 -0.05668015 -0.15833421 -0.22321755 0.54333705 -0.19839692 -0.023607654
0.056534685 0.444379 0.1887196 0.26276723 0.17926161 0.30114248 0.2321581 0.32768506
-0.30899787 0.28419414 0.18441817 0.25038487 0.43431655 0.20846915 -0.082045004 -0.40323335
-0.2129805 0.55144536 0.15789598 0.82242286 -0.1297696 -0.047085777 0.4218177 0.10815614
0.0037411067 0.5933521 0.17462109 0.33674866 0.39325508 -0.122330174 0.23783557 -0.01646679
0.54488814 0.66145 -0.3249411 0.6667496 0.2657859 0.20743264 0.07739719 -0.47365546
0.0760279 0.3859013 -0.0086305775 0.37212735 -0.27457067 0.025428195 0.21114683 0.028171131
-0.25076756 0.28143403 0.3681441 0.044055108 0.34863323 0.1367126 0.092605025 0.30268523
0.16929892 0.39289975 0.40707496 0.05583547 -0.48622376 0.079293385 0.67259926 -0.33650526
00000000: 293b 153f fae3 a03d 587d 303e dd0f 853e
00000010: 4a6f 983e 9a30 6abe 4019 64be 84ca 1b3d
00000020: 98ae fabd c37e ac3e b91a bbbd bcc7 843e
00000030: 7fd0 0a3f fabd 083f e274 dd3e 8ff8 0ebe
00000040: ea12 a83e a25a b43c bb2e 673e 5509 0f3d
00000050: ec24 9d3e c0b8 033e 0927 dd3e 39cf 09be
00000060: a476 fa3e 9172 783e 51cc 93bc 0a42 a23e
00000070: 9907 d53e c98a 15bd 7959 e43d 874e b63e
00000080: 2d3b 843e b6f1 b43e ebbd 023e a7ec ff3e
00000090: 59ba 953e aaf9 d2bd 4bde b43c 6582 833d
000000a0: 1192 c13e 0413 c13e 6786 13be 681a fdbd
000000b0: d78c 6abe ed4f 84be a4f6 903e 56ca 3cbd
000000c0: b601 503e 1d8f 0e3f 37fb 1e3e 81a3 e5bd
000000d0: b099 f13e a78b 473e cf5f 8ebd d6e2 e8bd
000000e0: 2ba3 b83d 55c6 243f d42f 333f 5f20 d33e
000000f0: e2a4 f2bd cf7a 0f3f 207a 093e c90b a6be
00000100: 34de 76bc dbdc d5bd 4831 d83d 3596 88be
00000110: 374c e43e bffb 2bbe ba97 71be 8769 41bd
00000120: e808 f5be da23 7abd 7e11 883e 2f82 5f3d
00000130: 3c89 2cbd 5ed4 ba3e 7194 8cbe 0b83 303e
00000140: 23c0 a9bd 1db8 823e f798 a5be 5f79 4fbe
00000150: 0f95 a6be 977b 57be ee3f 0bbf 686c e6be
00000160: 06f9 923c a5a5 813e c0d5 523e df3d 6dbe
00000170: 331f 3a3e 0c43 dfbd fc19 63be b57f 67be
00000180: 86e7 093f 574d 8d3e 562f 1fbe e0b4 8bbd
00000190: 8b05 90be ef66 8c3e 4695 97be bbbb 5dbe
000001a0: 82cd c4bc 5ed1 9fbe 1944 583c 8a47 c13d
000001b0: e669 3f3e 7dd5 5bbd 6778 17be b8e7 5cbe
000001c0: ef50 043e 7ab3 9abd 7f56 14be 7660 843b
000001d0: e11d 923e af0a 2e3e a21b 30be 800b 123d
000001e0: 2169 13be f79a cdbb b88e 93bb bb67 0a3e
000001f0: 2def 9c3d 2516 293e 3b57 bd3b 5452 833d
00000200: 60f4 223f 2a93 953e 729b a73e 8e39 ad3d
00000210: 4006 783f 873e c43d e9bd c1be dee5 453e
00000220: 7d80 31be 78a4 4b3e 9a23 26bd ca6c 03be
00000230: 63ea 313e 8e72 25bf 1d48 9dbd efa2 4ebd
00000240: 505a 023e 84d1 e73d 7da2 6cbc aeb1 043e
00000250: 4a3b 8b3b 8615 0cbe 5612 9a3e 0852 68bc
00000260: c5ed 72be 7248 e9be ab0a 923b 6d2f 983c
00000270: 5b23 86be 4c23 d13e 739f 9fbe fc5c cbbe
00000280: 6639 2b3e d245 cc3c 2ad7 95bd 43a3 51bd
00000290: 9575 88bd dbe1 36be ad1f 91be 88ea 75bd
000002a0: 001f 0e3e 0a81 de3e ee66 90be 75f0 e0be
000002b0: 1f73 b33d b978 67be 821e 5dbe 686f 363d
000002c0: 7c8e 64bd 9cda b53d 0c7e 5f3e c61a 10be
000002d0: e6c6 43bf d628 1dbf 187c 79bc ef55 413d
000002e0: ab9c b8be f242 473c 7229 68bd 5d22 22be
000002f0: 2493 64be 2318 0b3f 9028 4bbe d764 c1bc
00000300: ea90 673d a585 e33e b63f 413e 6d89 863e
00000310: 5b90 373e 592f 9a3e daba 6d3e 56c6 a73e
00000320: f834 9ebe e581 913e 1ed8 3c3e 7232 803e
00000330: bd5e de3e f078 553e 3607 a8bd 9a74 cebe
00000340: 8f17 5abe 862b 0d3f 7caf 213e 4e8a 523f
00000350: 52e2 04be 04dd 40bd 7df8 d73e f780 dd3d
00000360: 5b2d 753b ece5 173f dfcf 323e 526a ac3e
00000370: bb58 c93e 3e88 fabd 2b8b 733e 5de5 86bc
00000380: ca7d 0b3f ca54 293f ae5e a6be 1ab0 2a3f
00000390: 1715 883e 3969 543e 6b82 9e3d f882 f2be
000003a0: 84b4 9b3d db94 c53e 4467 0dbc 7a87 be3e
000003b0: 8794 8cbe ca4e d03c e036 583e 25c7 e63c
000003c0: 9b64 80be 1f18 903e 627d bc3e 2173 343d
000003d0: 0e80 b23e 63fe 0b3e b4a7 bd3d 8ff9 9a3e
000003e0: b25c 2d3e 282a c93e 216c d03e bcb3 643d
000003f0: 52f2 f8be 9264 a23d 772f 2c3f 6b4a acbe
