current_algos/LSTM_TD3/LSTM_TD3_Agent_critic_weights.pth (torch, 427715 bytes, 26 tensors)

curr_fe_dense1_q1.weight f4 [64, 51]
-0.010640359 0.18822466 -0.033549726 0.049578506 0.37704217 0.21390697 -0.033292055 0.041009057
0.26511028 0.1411001 0.00044624944 -0.021039432 0.011031276 0.043960616 -0.06696547 -0.15799631
-0.48975548 -0.3199147 -0.21899079 0.045883734 -0.027774975 -0.15129237 0.076836534 -0.08242419
-0.031390164 0.044075403 0.068381734 0.074155994 0.2737888 0.31097275 -0.019021096 0.06579997
0.039264526 -0.035277173 0.13218011 0.045626614 -0.015246161 0.087870166 -0.19815052 -0.17239527
-0.44321552 -0.35410056 -0.136975 0.22999506 -0.0643872 -0.044522148 -0.120812796 -0.007596408
0.17241576 0.25426993 -0.016875349 0.004604109 -0.15148845 0.11368368 0.13374887 0.005377253
-0.07439773 0.0986063 -0.017614612 0.3386393 -0.15568767 -0.33476964 -0.08205107 0.06937027
0.015254943 -0.12712817 -0.037361104 0.11022798 -0.2956282 -0.026514452 -0.08888715 0.05663753
0.036641225 0.19831207 -0.11475978 0.10841848 0.006277649 0.018394895 -0.045686927 0.17631145
-0.014895805 0.08877287 -0.06570149 0.0041408595 -1.341227 -0.47342584 -0.23885415 0.083643965
-0.18611918 0.22743618 0.10341918 0.031354494 -0.023413377 -0.115197144 -0.0024805001 0.005206667
0.15425554 0.26792905 0.072338864 -0.1429476 -0.0914426 0.0039489125 -0.013889162 -0.0661396
-0.046062835 -0.098586746 -0.67302316 -0.23925625 -0.45962185 -0.09543782 -0.2750827 -0.3346203
0.32352924 0.04722808 0.17002198 0.39208323 -0.030669076 0.11181352 -0.2347395 -0.21892391
-0.06445603 -0.25802422 -0.15594624 -0.08179985 -0.04468738 0.12481148 -0.0019171217 -0.035751175
-0.43995005 -0.22201392 -0.13640143 -0.01864669 0.09024804 -0.25092247 -0.5486199 -0.30390128
-0.12164893 0.19183956 0.11343697 -0.070582666 0.24527363 0.23106663 0.05801267 -0.14219996
-0.10668656 0.03410581 -0.3955147 -0.04221473 -0.21194041 -0.30911034 -0.080115885 -0.11816682
-0.036009774 -0.0003845525 0.004141312 0.24965352 -0.022171251 -0.14803225 -0.26999348 0.018046977
-0.024615023 -0.0053234594 0.5772469 0.3827488 0.42370105 0.17438976 -0.052469578 -0.15565318
-0.08220057 -0.057786867 -0.0020669184 -0.13738747 -0.07881394 0.092022195 -0.14162979 -0.041718956
-0.41056213 0.05192562 0.019993156 0.068702705 -0.039499726 -0.06337812 0.058426976 0.24007314
0.028806712 0.30223268 0.052784037 0.20689693 0.3983346 -0.12136826 -0.10119425 -0.04344727
0.007261617 -0.13323869 -0.13038749 -0.016441474 -0.13385646 0.07091406 0.1750891 -0.19699107
-0.08826093 -0.3386718 0.20433109 -0.020582978 0.0028232874 0.010719308 0.08042934 -0.9012477
-0.41152003 0.012066522 0.04655514 0.051115092 0.055699024 -0.044333495 0.009162629 -0.017730776
0.05958484 0.08157601 0.092127174 -0.28087887 0.009265183 -0.029367784 -0.08851338 0.072569475
0.030486867 -0.05642289 -0.12497219 -0.035489976 -0.1184167 0.030763345 -0.081880145 -1.9334621
-0.3971425 -0.21247117 -0.013567335 0.0014671216 -0.027679032 0.06312835 0.07380339 0.13921261
0.18740462 -0.044576958 0.11772879 0.20588177 0.15233485 0.016027002 -0.14983016 -0.13118318
-0.014444287 -0.07072767 -0.04921281 0.027849268 -0.05883501 -0.23717342 0.007167661 -0.010597231
00000000: e654 2ebc f7bd 403e 706b 09bd d512 4b3d
00000010: ac0b c13e 6e0a 5b3e 405d 08bd 1df9 273d
00000020: 89bc 873e 8b7c 103e 96f6 e939 e35a acbc
00000030: 86bc 343c 0c10 343d 3125 89bd c9c9 21be
00000040: 3bc1 fabe dccb a3be 1f3f 60be 95f0 3b3d
00000050: 5888 e3bc 63ec 1abe 795c 9d3d 04ce a8bd
00000060: f992 00bd 6988 343d b90b 8c3d 19df 973d
00000070: 0c2e 8c3e d237 9f3e 21d2 9bbc 22c2 863d
00000080: d7d3 203d cc7e 10bd 395a 073e f9e2 3a3d
00000090: 09cb 79bc 46f5 b33d f8e7 4abe 6388 30be
000000a0: 25ed e2be ab4c b5be 2d43 0cbe d383 6b3e
000000b0: 70dd 83bd db5c 36bd b36c f7bd 4aeb f8bb
000000c0: c28d 303e ab2f 823e 2c3e 8abc 11de 963b
000000d0: ca1f 1bbe fdd2 e83d 77f5 083e ab33 b03b
000000e0: d65d 98bd 1af2 c93d 854c 90bc 2162 ad3e
000000f0: 976c 1fbe ed66 abbe 640a a8bd 0012 8e3d
00000100: deef 793c e32d 02be f507 19bd 35bf e13d
00000110: 945c 97be d634 d9bc 770a b6bd c1fc 673d
00000120: 1c15 163d 5212 4b3e 2d07 ebbd 820a de3d
00000130: bdb4 cd3b e4b0 963c 3722 3bbd fd8a 343e
00000140: 890d 74bc 8dce b53d 818e 86bd 0cb0 873b
00000150: 54ad abbf df64 f2be 2f96 74be 874d ab3d
00000160: 0796 3ebe 08e5 683e 6fcd d33d 926d 003d
00000170: 69cd bfbc 7bec ebbd e38f 22bb b09c aa3b
00000180: 2af5 1d3e ff2d 893e 6626 943d db60 12be
00000190: 4246 bbbd e165 813b 5e8f 63bc 3374 87bd
000001a0: 62ac 3cbd d9e7 c9bd 3f4b 2cbf 97ff 74be
000001b0: 8e53 ebbe e774 c3bd a4d7 8cbe 5a53 abbe
000001c0: a0a5 a53e 3b72 413d 3e1a 2e3e 22bf c83e
000001d0: b73d fbbc 7dfe e43d 8d5f 70be 972d 60be
000001e0: 8601 84bd c01b 84be 5fb0 1fbe ae86 a7bd
000001f0: 1d0a 37bd 299d ff3d ee47 fbba d36f 12bd
00000200: 2241 e1be 9e57 63be d1ac 0bbe f1c0 98bc
00000210: f7d3 b83d e978 80be 5b72 0cbf f398 9bbe
00000220: 1323 f9bd 9771 443e a451 e83d a58d 90bd
00000230: 0329 7b3e bb9c 6c3e b29e 6d3d de9c 11be
00000240: 7c7e dabd 89b2 0b3d e780 cabe 5ae9 2cbd
00000250: e806 59be b643 9ebe cc13 a4bd 7201 f2bd
00000260: fc7e 13bd c39d c9b9 d8b3 873b 2ca5 7f3e
00000270: 7ca0 b5bc c495 17be 963c 8abe 41d7 933c
00000280: 72a5 c9bc 6a70 aebb 74c6 133f a7f7 c33e
00000290: 58ef d83e 3b93 323e 57ea 56bd 8c63 1fbe
000002a0: c658 a8bd ecb1 6cbd 2375 07bb 4daf 0cbe
000002b0: 3469 a1bd 2276 bc3d 6607 11be 7fe1 2abd
000002c0: 3335 d2be f5af 543d b0c8 a33c 01b4 8c3d
000002d0: 77ca 21bd 63cc 81bd 2051 6f3d bcd5 753e
000002e0: 0efc eb3c 3ebe 9a3e 1334 583d cadc 533e
000002f0: 83f2 cb3e ec8f f8bd ee3e cfbd c4f5 31bd
00000300: dcf2 ed3b b96f 08be 4c84 05be 45b0 86bc
00000310: ab11 09be 643b 913d 8f4a 333e 07b8 49be
00000320: 25c2 b4bd 6466 adbe 2b3c 513e a29d a8bc
00000330: e706 393b 09a0 2f3c 23b8 a43d 2bb8 66bf
00000340: c1b2 d2be a9b2 453c 9ab0 3e3d 0f5e 513d
00000350: a924 643d 0a97 35bd da1e 163c 2240 91bc
00000360: 3c0f 743d 5311 a73d 2cad bc3d 5bcf 8fbe
00000370: fecc 173c b594 f0bc 8146 b5bd 4e9f 943d
00000380: 98bf f93c b01b 67bd 6bf1 ffbd f05d 11bd
00000390: 7484 f2bd 6903 fc3c c7b0 a7bd b07b f7bf
000003a0: 4356 cbbe 0b92 59be 8749 5ebc 6f4c c03a
000003b0: 23bf e2bc 7049 813d 3b26 973d c08d 0e3e
000003c0: ffe6 3f3e 5496 36bd cb1b f13d acd2 523e
000003d0: abfd 1b3e 0f4b 833c 146d 19be e254 06be
000003e0: bba7 6cbc abd9 90bd 5f93 49bd 2624 e43c
000003f0: fbfc 70bd 97dd 72be b3de ea3b 02a0 2dbc

curr_fe_dense1_q1.bias f4 [64]
0.13469005 0.337756 -0.22991493 -0.05135697 0.22616011 -0.1412408 -0.027399015 0.091057025
-0.2034968 -0.026444474 -0.081299566 -0.1930271 -0.009470089 -0.041092988 -0.42134455 0.03241943
0.13613759 -0.08313998 0.109458864 0.12927811 -0.120128036 0.06927713 0.041745722 -0.15853667
0.06840096 0.10663846 -0.017974872 -0.07543901 -0.26924145 0.070615396 0.5212682 0.25888103
0.30602273 0.27789915 0.32016551 -0.024481513 0.14516425 0.013240339 -0.047117814 0.061287444
0.0060511325 -0.22286184 -0.2923748 0.09688438 0.15545648 -0.01212274 -0.12723804 0.18196538
-0.087998055 0.19586976 -0.026538175 -0.09126203 -0.32357255 0.08285137 0.067110606 0.35688332
-0.19429873 0.3751744 -0.26808164 0.02865467 0.24842945 0.27326596 0.008523306 -0.02001916
00000000: 30ec 093e 5bee ac3e d26e 6bbe b05b 52bd
00000010: 8496 673e 6ea1 10be e673 e0bc 1b7c ba3d
00000020: 7761 50be 15a2 d8bc 6380 a6bd e5a8 45be
00000030: 6f28 1bbc 1f51 28bd 79ba d7be 3cca 043d
00000040: a767 0b3e 4b45 aabd f82b e03d 7b61 043e
00000050: b005 f6bd 2be1 8d3d 90fd 2a3d 7057 22be
00000060: cd15 8c3d 4465 da3d 0a40 93bc c57f 9abd
00000070: 04da 89be ce9e 903d d571 053f 0e8c 843e
00000080: 03af 9c3e cc48 8e3e bcec a33e 748d c8bc
00000090: f0a5 143e 02ee 583c 9cfe 40bd 8b08 7b3d
000000a0: 9448 c63b e535 64be 26b2 95be 516b c63d
000000b0: fc2f 1f3e 759e 46bc b04a 02be 2255 3a3e
000000c0: 5338 b4bd 1592 483e 9666 d9bc 96e7 babd
000000d0: 4dab a5be fbad a93d 4971 893d 69b9 b63e
000000e0: 3ff6 46be dc16 c03e ff41 89be 33bd ea3c
000000f0: 4a64 7e3e 84e9 8b3e 56a5 0b3c 39ff a3bc

curr_fe_dense2_q1.weight f4 [64, 64]
0.18060951 0.17867509 -0.22715214 -0.2809562 0.0867104 -0.027382253 -0.35662928 -0.6358604
-0.6014249 -0.11697627 0.022388639 -0.15023217 -0.18006642 -0.043315627 -0.10388667 -0.19462208
0.2132521 -0.29625 -0.14866681 -0.14389852 -0.10184364 -0.1775387 0.21648927 0.28880093
0.18444908 0.005153653 0.012094105 0.070273206 -0.37144914 0.31410554 -0.45911983 -0.6102077
0.25464538 0.28201583 -0.054027695 -0.3567194 0.077790186 -0.28518414 -0.0071258633 -0.26415983
0.22201332 0.185787 -0.06982904 -0.0010031929 0.04438512 0.05755541 -0.2952107 -0.5592218
-0.14964755 0.21321279 -0.31677207 0.3992552 -0.43135008 -0.107851125 -0.120795734 0.2607969
0.2663028 0.27325872 0.005668488 0.17298147 0.023647092 -0.08662666 0.130022 0.056040537
-0.014702608 -0.39440334 -0.2669258 -0.04533299 0.055688694 0.28086364 -0.017843302 -0.13668767
-0.17926462 0.14560612 -0.042559683 -0.13141209 0.047040217 0.094249986 -0.0197527 -0.19218604
-0.038200773 -0.24888864 0.11858377 -1.19434 0.22078548 0.043839555 0.0987221 0.009862576
0.1830507 -0.33189404 -0.23344678 0.28101644 -0.21988043 -0.02755678 0.38480625 0.11816466
-0.68566984 -0.34121552 0.048045177 -0.06653198 -0.29098576 0.1868477 0.07338858 -0.30790317
-0.088028714 0.09019052 -0.3249463 0.2870853 -0.246066 -0.16469757 0.16661249 -0.3569205
0.11993487 0.0672551 0.045846824 -0.18630037 0.19493498 -0.15211385 0.62513286 -0.016826104
-0.032396123 -0.31044298 -1.4683176 -0.26105255 -0.13972618 0.3906608 -0.7826141 -0.34355333
-0.20980921 0.021937937 -0.1278069 -0.0050215223 0.10189495 -0.11061276 -0.41784525 0.4061685
0.07522424 -0.1140862 0.062016334 -0.08786117 -0.34275383 0.79948956 0.25773537 -0.25190297
0.050990336 0.1340137 -0.8015903 0.18391217 -0.28644153 0.040041957 -0.0030145806 -0.20536374
-0.31530532 -0.009842652 0.17740855 -0.6364319 -0.015198008 -0.09016545 -0.073925234 0.26721328
-0.5822912 -0.1190366 -0.18657342 -0.34372804 0.5542507 0.17134784 0.06471143 -0.00084359647
0.20942944 -0.08045189 -0.076080196 -0.045541335 -0.11595587 -0.16060032 -0.20227835 0.23176429
0.057715736 -0.063420065 -0.1379481 0.16876882 -0.109502114 -0.11474781 -0.07848694 0.43951216
0.112072624 -0.2509445 -0.2589505 0.06611541 -0.12057472 0.38068023 0.15842515 -0.05769233
-0.37186283 0.11855393 0.0022458117 -0.11737147 -0.066116184 -0.18143244 -0.23631456 -0.07914051
0.12468559 0.11139392 -0.10838469 -0.2127715 -0.0925346 -0.59287614 -1.8465751 0.065752625
-0.114802435 0.24176311 -0.14174989 0.25828144 0.004441963 -0.090977386 0.02910137 0.14085007
-0.0676546 0.056865156 -1.9047109 0.13413186 0.03353049 -0.06799603 0.054880835 0.09400378
-0.23186845 0.058076296 -0.14706281 -0.106992096 0.31960374 0.03321004 -0.072175756 0.19923311
0.17475668 -0.004121605 -0.01859225 -0.023796815 0.40969884 -0.23316135 0.01915889 0.16425867
-0.05612323 0.30353212 0.005313566 -0.14239448 -0.120653994 0.10314615 0.13235341 0.06266607
0.14495553 0.2807631 0.09203992 0.12550461 -0.0128756985 -0.026981207 -0.07546831 -0.016605623
00000000: b3f1 383e 9af6 363e 929a 68be 7ed9 8fbe
00000010: 3995 b13d bf50 e0bc 1d98 b6be bfc7 22bf
00000020: fbf6 19bf 4191 efbd 6168 b73c 76d6 19be
00000030: 5563 38be ba6b 31bd 89c2 d4bd 034b 47be
00000040: c25e 5a3e 14ae 97be 1d3c 18be 225a 13be
00000050: 6693 d0bd b4cc 35be 5daf 5d3e b7dd 933e
00000060: 38e0 3c3e fadf a83b 5a26 463c 66eb 8f3d
00000070: 952e bebe 71d2 a03e c111 ebbe 9236 1cbf
00000080: e160 823e 6164 903e 254c 5dbd eda3 b6be
00000090: 7650 9f3d a803 92be 1380 e9bb f53f 87be
000000a0: 7657 633e f33e 3e3e 8702 8fbd 917d 83ba
000000b0: 2ccd 353d 39bf 6b3d db25 97be 2929 0fbf
000000c0: 353d 19be 7454 5a3e f32f a2be 2d6b cc3e
000000d0: ebd9 dcbe 0de1 dcbd c163 f7bd 2c87 853e
000000e0: d758 883e 91e8 8b3e b9be b93b 0e22 313e
000000f0: 8cb7 c13c 5169 b1bd 7d24 053e c38a 653d
00000100: 35e3 70bc 3cef c9be 80aa 88be 16af 39bd
00000110: d419 643d 5ccd 8f3e 1e2c 92bc daf7 0bbe
00000120: 2591 37be c519 153e 1053 2ebd e490 06be
00000130: 3ead 403d 2306 c13d 6ad0 a1bc 6bcc 44be
00000140: 6a78 1cbd aadc 7ebe 0cdc f23d 22e0 98bf
00000150: 9715 623e 1b91 333d d02e ca3d a496 213c
00000160: a571 3b3e 04ee a9be ac0c 6fbe 63e1 8f3e
00000170: 5628 61be c2be e1bc 5305 c53e 5000 f23d
00000180: 0f88 2fbf cdb3 aebe 05cb 443d eb41 88bd
00000190: 16fc 94be 0155 3f3e c04c 963d 7ca5 9dbe
000001a0: 6648 b4bd cfb5 b83d 5d5f a6be d8fc 923e
000001b0: baf8 7bbe 7ba6 28be 779c 2a3e 49be b6be
000001c0: 6aa0 f53d 0bbd 893d e1c9 3b3d 86c5 3ebe
000001d0: 099d 473e bcc3 1bbe b508 203f e6d6 89bc
000001e0: ccb1 04bd 62f2 9ebe d5f1 bbbf aea8 85be
000001f0: 6114 0fbe b104 c83e 6659 48bf 39e6 afbe
00000200: 3ad8 56be 30b7 b33c d0df 02be 958b a4bb
00000210: 4dae d03d f188 e2bd d0ef d5be 51f5 cf3e
00000220: 2b0f 9a3d 07a6 e9bd d704 7e3d 8ff0 b3bd
00000230: 6e7d afbe 59ab 4c3f e4f5 833e 6df9 80be
00000240: 3edb 503d e33a 093e 0635 4dbf 7953 3c3e
00000250: 77a8 92be 0903 243d 4590 45bb df4a 52be
00000260: b36f a1be 1343 21bc 96aa 353e 33ed 22bf
00000270: 1101 79bc aaa8 b8bd 1d66 97bd 2ed0 883e
00000280: 0911 15bf 76c9 f3bd 1a0d 3fbe 1ffd afbe
00000290: 60e3 0d3f cf75 2f3e 6d87 843d cd24 5dba
000002a0: ac74 563e f6c3 a4bd efcf 9bbd 8d89 3abd
000002b0: 457a edbd 6974 24be 0e22 4fbe 9e53 6d3e
000002c0: 5667 6c3d 61e2 81bd 4442 0dbe bcd1 2c3e
000002d0: a542 e0bd e600 ebbd c3bd a0bd bd07 e13e
000002e0: 5586 e53d cc7b 80be 2995 84be 8467 873d
000002f0: e1ef f6bd 85e8 c23e 343a 223e cb4e 6cbd
00000300: ce64 bebe 67cc f23d 782e 133b 7460 f0bd
00000310: ec67 87bd 6dc9 39be 72fc 71be 6b14 a2bd
00000320: 295b ff3d 7f22 e43d cbf8 ddbd c6e0 59be
00000330: c882 bdbd bbc6 17bf 935c ecbf 50a9 863d
00000340: 8a1d ebbd c090 773e e226 11be 773d 843e
00000350: e38d 913b 5a52 babd ff65 ee3c 003b 103e
00000360: 7f8e 8abd 70eb 683d 91cd f3bf dd59 093e
00000370: 4457 093d 8141 8bbd baca 603d 0e85 c03d
00000380: ec6e 6dbe 69e1 6d3d a297 16be ac1e dbbd
00000390: 1aa3 a33e 4007 083d e2d0 93bd c403 4c3e
000003a0: 6af3 323e 870e 87bb c64e 98bc 8af1 c2bc
000003b0: 0cc4 d13e d9c1 6ebe 1bf3 9c3c 6d33 283e
000003c0: 79e1 65bd 9068 9b3e 6c1d ae3b dccf 11be
000003d0: 7119 f7bd 4a3e d33d a787 073e 1257 803d
000003e0: 396f 143e 2ec0 8f3e 6d7f bc3d 4884 003e
000003f0: 98f4 52bc b107 ddbc 218f 9abd 8408 88bc

curr_fe_dense2_q1.bias f4 [64]
0.07506975 0.049386416 0.0005778348 0.1915279 -0.11233631 0.23763432 0.009111635 0.16291994
0.21727885 0.065334745 -0.06679295 -0.027800161 0.0889303 0.068639286 -0.06263828 0.21767439
0.29092658 0.16124883 0.023720687 0.06243309 0.017572485 -0.012093808 0.16465707 0.10802012
-0.121018335 0.2317012 -0.12692942 0.19234763 0.016982777 0.27385837 0.0590131 0.008795411
0.06884456 0.119931184 -0.045089033 -0.08410624 -0.23866358 0.012921376 0.06560107 0.34488112
0.20474827 0.025233814 -0.08407513 0.19856541 -0.002965873 -0.19664511 0.08097947 0.0728099
0.23369688 0.0959289 0.18619789 0.028840762 0.24123731 -0.07918475 0.0358972 -0.09139318
-0.1634015 0.25255114 0.056406222 0.08173805 0.28432676 0.055591736 0.37726834 0.25531748
00000000: 2bbe 993d 6949 4a3d d679 173a e41f 443e
00000010: 9410 e6bd 6956 733e f848 153c 7cd4 263e
00000020: 597e 5e3e 39ce 853d beca 88bd 2abd e3bc
00000030: 1721 b63d c192 8c3d 8048 80bd 09e6 5e3e
00000040: 54f4 943e 6a1e 253e e351 c23c d7b9 7f3d
00000050: 2cf4 8f3c 1b25 46bc dd9b 283e a739 dd3d
00000060: 76d8 f7bd 1443 6d3e c9f9 01be c7f6 443e
00000070: 771f 8b3c 2a37 8c3e b8b7 713d a11a 103c
00000080: 60fe 8c3d 7b9e f53d 47af 38bd e43f acbd
00000090: 3a64 74be 2eb4 533c db59 863d 4294 b03e
000000a0: 88a9 513e 25b7 ce3c 952f acbd bb54 4b3e
000000b0: 185f 42bb 565d 49be 90d8 a53d 5b1d 953d
000000c0: 3c4e 6f3e 5f76 c43d a9aa 3e3e 7643 ec3c
000000d0: ea06 773e 9d2b a2bd f108 133d 592c bbbd
000000e0: b952 27be 624e 813e 360a 673d 4766 a73d
000000f0: 4793 913e 29b4 633d 5129 c13e f9b8 823e

mem_dense_q1.weight f4 [64, 50]
0.010716117 -0.082737006 -0.11117829 0.35655046 0.08286727 -0.04949495 -0.020803504 -0.01688889
-0.046375424 -0.2524843 1.4390459 1.840308 0.17360948 -0.040275063 0.020030241 0.15052004
0.04549995 0.0894373 0.014349315 -0.01599037 -0.051102627 0.042468347 -0.11220055 0.7770469
0.26210165 -0.040255044 -0.13059838 -0.014121183 0.1540572 0.04550235 0.07130045 0.093030445
0.0318183 -0.020149328 -0.5685282 0.67531705 0.111424156 0.1350609 0.030021574 0.09618475
0.092673436 0.21942131 0.028734773 -0.25671414 0.019303825 0.07527658 0.07898025 0.34547895
-0.02485757 0.12782362 0.0024012034 0.087817915 0.31721592 -0.14443733 -0.06114798 3.4480355
-0.008980957 -0.08865583 -0.08629283 0.06854038 0.05153771 -0.0028859254 0.049359422 -0.01141759
0.050331928 0.013355802 0.016145354 -0.24596114 -0.070692874 0.060597647 -0.0069851303 -0.02604382
-0.11621774 -0.16500771 -0.031450592 0.025487859 -0.09974672 -0.10633369 0.12435831 1.2666421
-0.06296329 0.026467726 -0.05007954 -0.010085977 0.11918376 0.14638388 0.15501845 0.21929574
0.15856415 -0.015962843 0.03845156 -0.024009723 0.10866778 0.072409905 -0.08255897 -0.055693775
-0.21390517 -0.23036255 -0.027117608 0.029221313 -0.0025309077 -0.18994662 0.037977047 0.5576107
-0.26917586 0.042505525 -0.08663298 0.052746855 0.060152523 0.29320693 0.108696975 0.18351202
0.082009695 0.08658377 -0.24226731 -0.616797 0.14427117 0.36602852 -0.09389564 -0.035016973
0.015051694 0.10125931 -0.0060140113 0.012559097 0.037183523 0.002772502 0.13541856 1.8448278
-0.038480513 0.025238061 -0.030503547 0.023348605 0.008383037 0.06590901 0.60425544 0.3183915
0.13488433 0.13195737 0.08752582 -0.31441572 0.10990014 0.17604534 -0.049346935 -0.110026486
0.022862492 -0.006652508 0.0075052753 -0.085238665 0.17252171 -0.012915792 0.0017532987 0.058994465
0.04172847 0.08178709 0.1172272 -0.08218741 0.16424541 -0.073687546 -0.07258567 -0.10895807
3.718 0.26660806 0.230145 -0.13944994 -0.019206135 0.008944804 0.12678853 -0.037758145
-0.036098022 0.042791616 0.056696475 -0.031258795 0.6022701 -0.4240297 -0.16811787 -0.039649222
-0.02328422 -0.06488476 0.054195985 0.11725254 0.11613506 0.027105268 -0.17877816 -0.2569642
-0.4066912 0.39572737 0.022208009 -0.16127364 0.09037244 -0.0084216995 0.09554283 0.029739011
0.102815144 0.055610627 0.03536401 -0.06804915 -0.117702976 -0.07797716 -0.02315884 -0.1341708
-0.0002719358 0.17035626 -0.0013874804 -0.23928615 0.14103906 0.10054177 -0.074756645 0.08609053
-0.23973618 -0.08165284 -1.587124 0.12883574 -0.046378016 -0.08036594 -0.16917953 0.2748574
0.010898958 0.007115035 0.12817436 0.0022036126 0.24322817 0.16375297 0.20812576 0.042123485
-0.06511919 -0.098391145 -0.052887652 -0.18058988 -0.0072129928 -0.004125533 0.002929313 0.13030247
0.8660946 0.08931178 0.5918248 0.39702 -0.13061272 0.20439614 -0.037392575 0.091217816
0.21449631 0.11599907 -0.021157691 0.009756768 0.0796337 -0.27571735 -0.13016996 0.030912872
0.122342125 0.081239976 0.006095103 0.23966682 -0.1148944 0.7494007 -0.020224635 0.03947362
00000000: a792 2f3c 0572 a9bd 71b1 e3bd c88d b63e
00000010: 51b6 a93d 37bb 4abd 1c6c aabc 925a 8abc
00000020: 28f4 3dbd 9f45 81be a832 b83f 368f eb3f
00000030: afc6 313e 77f7 24bd 7616 a43c ed21 1a3e
00000040: 285e 3a3d e72a b73d 6419 6b3c 3dfe 82bc
00000050: fd50 51bd 4af3 2d3d 67c9 e5bd 8cec 463f
00000060: 3032 863e 79e2 24bd 95bb 05be 895c 67bc
00000070: 2cc1 1d3e ac60 3a3d f805 923d bf86 be3d
00000080: e853 023d 3410 a5bc 108b 11bf 94e1 2c3f
00000090: 5932 e43d 684d 0a3e ceef f53c 83fc c43d
000000a0: 92cb bd3d fbaf 603e 3065 eb3c 0970 83be
000000b0: 0e23 9e3c 9c2a 9a3d 66c0 a13d 9ee2 b03e
000000c0: 1aa2 cbbc 32e4 023e 825d 1d3b e1d9 b33d
000000d0: 206a a23e 61e7 13be 4e76 7abd 9dac 5c40
000000e0: dd24 13bc 3091 b5bd 4cba b0bd e65e 8c3d
000000f0: 3519 533d cb21 3dbb 1b2d 4a3d d810 3bbc
00000100: da28 4e3d 4bd2 5a3c 4343 843c 3ddd 7bbe
00000110: 6dc7 90bd 3d35 783d 85e3 e4bb d959 d5bc
00000120: 9103 eebd c8f7 28be 56d2 00bd eacb d03c
00000130: 0248 ccbd 7ac5 d9bd 92af fe3d 5421 a23f
00000140: e6f2 80bd d8d2 d83c 3420 4dbd a73f 25bc
00000150: 9d16 f43d a8e5 153e 28bd 1e3e 108f 603e
00000160: a45e 223e 82c4 82bc 627f 1d3d 0ab0 c4bc
00000170: 378d de3d a54b 943d ad14 a9bd 281f 64bd
00000180: f509 5bbe 29e4 6bbe bf25 debc 8961 ef3c
00000190: 96dd 25bb 5e81 42be d28d 1b3d 93bf 0e3f
000001a0: 6bd1 89be 461a 2e3d a26c b1bd 160d 583d
000001b0: 7e62 763d 381f 963e 859c de3d 93ea 3b3e
000001c0: b3f4 a73d d552 b13d ec14 78be 68e6 1dbf
000001d0: d2bb 133e 1768 bb3e 5b4c c0bd f56d 0fbd
000001e0: 619b 763c 0b61 cf3d 2f11 c5bb acc4 4d3c
000001f0: c04d 183d ddb2 353b 2aab 0a3e 5123 ec3f
00000200: be9d 1dbd 0dc0 ce3c 93e2 f9bc 9345 bf3c
00000210: 0159 093c 4efb 863d 7cb0 1a3f 3604 a33e
00000220: 1e1f 0a3e d51f 073e bd40 b33d 19fb a0be
00000230: 5313 e13d 3b45 343e 0320 4abd 9155 e1bd
00000240: 1f4a bb3c 48fd d9bb d0ee f53b 9c91 aebd
00000250: 88a9 303e c29c 53bc f1ce e53a 2ea4 713d
00000260: 79eb 2a3d fd7f a73d d014 f03d df51 a8bd
00000270: f32f 283e 7fe9 96bd cca7 94bd 6925 dfbd
00000280: b6f3 6d40 da80 883e 22ab 6b3e f7cb 0ebe
00000290: 2f56 9dbc 3a8d 123c dad4 013e 49a8 1abd
000002a0: 85db 13bd 4346 2f3d 903a 683d 3909 00bd
000002b0: 602e 1a3f 6c1a d9be 1727 2cbe 3967 22bd
000002c0: 8cbe bebc 4de2 84bd 9cfc 5d3d 1a22 f03d
000002d0: 38d8 ed3d de0b de3c 9f11 37be d090 83be
000002e0: d439 d0be c79c ca3e 92ed b53c eb24 25be
000002f0: 3015 b93d 2bfb 09bc f6ab c33d 3a9f f33c
00000300: bf90 d23d f8c7 633d dad9 103d 5a5d 8bbd
00000310: 420e f1bd 7db2 9fbd 9cb7 bdbc 1264 09be
00000320: 9b92 8eb9 df71 2e3e 1edc b5ba 6e07 75be
00000330: 8b6c 103e d8e8 cd3d 031a 99bd 3b50 b03d
00000340: 677d 75be 9b39 a7bd e126 cbbf 84ed 033e
00000350: e0f6 3dbd e696 a4bd 663d 2dbe 1cba 8c3e
00000360: 8b91 323c 3d25 e93b 2440 033e 7c6a 103b
00000370: ce10 793e dcae 273e eb1e 553e ad89 2c3d
00000380: 365d 85bd 4c81 c9bd b9a0 58bd 8eec 38be
00000390: f85a ecbb 7b2f 87bb b8f9 3f3b 036e 053e
000003a0: 60b8 5d3f 18e9 b63d d581 173f 3546 cb3e
000003b0: 57bf 05be 394d 513e f528 19bd 68d0 ba3d
000003c0: eca4 5b3e ec90 ed3d e552 adbc dada 1f3c
000003d0: fe16 a33d d32a 8dbe 464b 05be fe3c fd3c
000003e0: 828e fa3d 2561 a63d 6eb9 c73b 386b 753e
000003f0: c14d ebbd b9d8 3f3f 22ae a5bc 17af 213d

mem_dense_q1.bias f4 [64]
0.20228751 0.10938738 0.15462394 0.16445315 0.53047 0.23768324 0.1328318 0.16906933
0.40763783 0.11293785 0.2040592 0.15937342 0.10002045 0.10312956 0.28981277 0.28424132
0.12334008 0.13664922 0.11413059 0.21153367 0.10357562 0.10825275 -0.09559779 0.036886014
0.30853564 -0.0434252 0.307016 0.17657451 0.586442 -0.043507267 0.083565734 0.18952362
0.026370913 0.16824064 0.1441485 0.18603678 0.24069321 0.0273186 0.06817714 0.567885
-0.0065040053 0.30648902 0.16108242 0.09052247 0.18462363 0.12219886 -0.005390421 0.11023957
0.2996423 0.08296668 0.16722527 0.12873824 0.18872985 0.0814911 0.034598045 0.35566264
0.0036532483 0.11373606 0.34379476 0.42966267 0.1795799 0.16434616 -0.10040767 0.30437425
00000000: 7524 4f3e 7e06 e03d bd55 1e3e 6866 283e
00000010: e2cc 073f 3c63 733e 0f05 083e 8320 2d3e
00000020: e8b5 d03e f64b e73d e5f4 503e c932 233e
00000030: 86d7 cc3d 9735 d33d 5762 943e 1488 913e
00000040: b999 fc3d c6ed 0b3e 4cbd e93d 489c 583e
00000050: 741f d43d 9eb3 dd3d c6c8 c3bd ca15 173d
00000060: 62f8 9d3e 9fde 31bd 3331 9d3e f3cf 343e
00000070: 1021 163f ad34 32bd 8324 ab3d 7b12 423e
00000080: d007 d83c 4647 2c3e aa9b 133e 6d80 3e3e
00000090: 4878 763e 42cb df3c 75a0 8b3d e960 113f
000000a0: 8d1f d5bb 21ec 9c3e caf2 243e d863 b93d
000000b0: fa0d 3d3e 6543 fa3d 21a2 b0bb 49c5 e13d
000000c0: b76a 993e 6fea a93d 1a3d 2b3e f5d3 033e
000000d0: 6642 413e cee4 a63d aeb6 0d3d 6a19 b63e
000000e0: 566b 6f3b 74ee e83d de05 b03e bffc db3e
000000f0: cbe3 373e 5c4a 283e 89a2 cdbd f1d6 9b3e

mem_LSTM_q1.weight_ih_l0 f4 [256, 64]
-0.08226918 0.14568782 0.14765765 -0.22606511 -0.016275706 0.21296653 -0.5487233 -0.78789604
0.13775979 -0.2702149 -0.24101771 -0.30103025 0.044377618 -0.026308745 0.05175417 0.20068909
-2.7573085 -0.2862832 -0.03232249 -0.0968811 0.14880212 -0.45498365 0.03532018 0.06302669
-0.08785687 -0.26034534 0.2473329 -0.07731282 0.33668473 -0.005512582 0.034018695 0.35301173
-0.2226332 0.27902588 -0.9478889 0.09503947 -0.24985251 -0.03535044 -0.090109296 -0.1689608
-0.82272595 0.12275346 -0.29429686 0.3170463 0.87764657 0.04034745 -0.09089648 0.3836667
0.09487007 0.120463885 0.31837675 -0.5077583 -0.49326324 0.97423095 -0.17955075 0.061703034
0.0724164 0.47878033 0.71909356 -0.49446335 -0.009448225 -0.42507207 -0.06306189 -0.09359321
-0.41121092 -0.30016607 0.20996585 0.120019294 -0.13134071 1.1454847 0.3275966 0.62984735
0.1299761 0.108374804 -0.62946683 0.105499886 0.23082277 0.5842486 -0.467592 0.7483407
-1.2497748 0.31151217 -0.2212803 0.27602872 0.35426322 0.089538395 0.4333416 -0.73313767
-0.41075253 -0.279457 0.23426907 -0.21881966 0.44842106 -0.2937952 0.11459793 -0.51330197
-0.2576958 0.77658457 0.16301942 0.5057542 -0.4897499 0.2155585 0.40401354 0.6261772
-1.2444617 0.33690748 -0.1350934 0.35435677 -0.57574975 0.14963198 0.44124964 -0.24656302
0.10030191 -0.26568598 -0.06435542 -0.45836225 -0.44853538 0.11332514 -0.54569936 0.04541109
-0.36241195 0.08983991 0.06582978 -0.28559834 -0.18911852 0.73884535 0.8585113 0.088711046
-0.48479298 -0.7952085 -0.75955665 -0.12809989 0.9899282 0.07848036 0.38611546 1.0306708
0.13066354 0.3540551 1.0466673 0.20235758 0.37587523 0.6727103 0.21467721 0.3756489
-0.33304098 1.5932379 -0.4710594 -0.1450987 0.3326558 -0.27110207 -0.31188124 0.7203426
0.92693967 0.13878204 1.0245591 -0.72811407 0.29276496 0.4459362 0.40914765 -0.27014467
0.11496351 0.41219482 -0.17975974 -0.16394982 1.8117459 -0.1887345 0.39171776 0.18617651
-1.3759065 0.15394726 0.012632498 -0.034000378 -0.09840052 0.0421204 0.22481968 0.01975891
0.0072249463 -0.16554025 1.3960152 -0.3400293 0.6378232 0.41992167 -0.1356108 0.3620051
-0.6210226 -0.30325642 -0.26727316 -0.33493277 0.19916525 0.06042964 -0.053703416 -0.4407263
0.11754832 0.11382944 -0.73774654 -0.19143517 -0.4211557 0.2396302 0.17381148 0.5621902
0.3183665 0.38656175 0.070522726 -0.083631456 0.28102103 -0.2570261 0.32609835 0.64918786
0.57098913 -0.16298717 -0.18175694 0.0753987 0.46985236 -0.15149857 -0.78607565 0.32890406
0.14191991 0.7812236 1.7272228 -0.10765524 0.8475489 -0.25083596 -0.02804935 -0.11966326
-0.08173038 0.2984116 0.37254578 -0.38645872 1.6637992 0.24699043 0.32373464 -0.079686746
-0.9938219 0.29517278 0.02528456 -0.064978555 -0.5962791 0.24317293 0.5232243 0.28384107
-0.084598124 -0.035867017 0.5286378 0.35937974 0.31488195 0.4901148 -0.111126356 0.066207096
0.12307189 -0.055254675 -0.20856784 -0.5928482 -0.27193996 -0.00965157 0.088055745 -0.5221218
00000000: be7c a8bd 302f 153e 9133 173e 9d7d 67be
00000010: a154 85bc e613 5a3e 2179 0cbf 8eb3 49bf
00000020: e710 0d3e 9b59 8abe 59cd 76be a320 9abe
00000030: 4ec5 353d 7085 d7bc 2efc 533d 7181 4d3e
00000040: be77 30c0 b693 92be 9664 04bd 9969 c6bd
00000050: 955f 183e 9ef3 e8be e5ab 103d 2314 813d
00000060: 4dee b3bd fc4b 85be d644 7d3e 2f56 9ebd
00000070: f161 ac3e e4a2 b4bb 3057 0b3d f4bd b43e
00000080: f5f9 63be 7bdc 8e3e d9a8 72bf 0ea4 c23d
00000090: 56d9 7fbe 9fcb 10bd 398b b8bd 0f04 2dbe
000000a0: 2b9e 52bf 2b66 fb3d 14ae 96be e553 a23e
000000b0: 72ad 603f 5e43 253d ef27 babd f66f c43e
000000c0: 3d4b c23d c5b5 f63d 4702 a33e 73fc 01bf
000000d0: 008d fcbe 3367 793f 27dc 37be 52bc 7c3d
000000e0: 0d4f 943d b222 f53e 8416 383f 4d2a fdbe
000000f0: bacc 1abc 0ca3 d9be 9826 81bd ccad bfbd
00000100: 3d8a d2be 5eaf 99be 4a01 573e adcc f53d
00000110: 2e7e 06be 3e9f 923f beba a73e ad3d 213f
00000120: 7418 053e 9cf3 dd3d bd24 21bf 5310 d83d
00000130: ce5c 6c3e 5191 153f 3868 efbe 4293 3f3f
00000140: 9ff8 9fbf 867e 9f3e 4e97 62be a353 8d3e
00000150: fd61 b53e e85f b73d f3de dd3e e9ae 3bbf
00000160: 284e d2be fd14 8fbe 3be4 6f3e 4312 60be
00000170: 7297 e53e 536c 96be 52b2 ea3d c267 03bf
00000180: b4f0 83be 3fce 463f 90ee 263e 1b79 013f
00000190: 80c0 fabe 5ebb 5c3e ddda ce3e 264d 203f
000001a0: 854a 9fbf 237f ac3e ed55 0abe 406e b53e
000001b0: 5664 13bf 2039 193e 79eb e13e 047b 7cbe
000001c0: 166b cd3d fe07 88be c6cc 83bd 75ae eabe
000001d0: 6ea6 e5be 0317 e83d f4b2 0bbf fb00 3a3d
000001e0: 0f8e b9be fdfd b73d c4d1 863d f239 92be
000001f0: 49a8 41be f824 3d3f 66c7 5b3f 23ae b53d
00000200: c936 f8be c992 4bbf 4e72 42bf 9e2c 03be
00000210: ef6b 7d3f 50ba a03d edb0 c53e 05ed 833f
00000220: aacc 053e b646 b53e 32f9 853f d336 4f3e
00000230: b872 c03e be36 2c3f 58d4 5b3e 0d55 c03e
00000240: 5984 aabe 38ef cb3f b32e f1be c194 14be
00000250: dc51 aa3e e4cd 8abe e6ae 9fbe 5f68 383f
00000260: eb4b 6d3f e11c 0e3e c124 833f af65 3abf
00000270: 4ae5 953e c051 e43e cd7b d13e 6750 8abe
00000280: fd71 eb3d 330b d33e f012 38be 76e2 27be
00000290: 4ae7 e73f 9e43 41be 3b8f c83e 0ea5 3e3e
000002a0: b41d b0bf 5aa4 1d3e 89f8 4e3c fb43 0bbd
000002b0: 3686 c9bd 7186 2c3d 2137 663e 70dd a13c
000002c0: 3ebf ec3b 6283 29be a0b0 b23f 5218 aebe
000002d0: 6248 233f f9ff d63e 8fdd 0abe bc58 b93e
000002e0: 56fb 1ebf 6d44 9bbe 07d8 88be 4f7c abbe
000002f0: faf1 4b3e 1285 773d 1df8 5bbd e1a6 e1be
00000300: 2cbd f03d 691f e93d f5dc 3cbf 9507 44be
00000310: b8a1 d7be 9f61 753e a3fb 313e b2eb 0f3f
00000320: ef00 a33e 6ceb c53e 386e 903d f846 abbd
00000330: fde1 8f3e ed98 83be 5df6 a63e 2d31 263f
00000340: 582c 123f 1ce6 26be 7e1e 3abe a26a 9a3d
00000350: 7d90 f03e 7122 1bbe 413c 49bf 1d66 a83e
00000360: 7453 113e 45fe 473f a315 dd3f 5a7a dcbd
00000370: f7f8 583f 926d 80be c0c7 e5bc 0312 f5bd
00000380: 4262 a7bd 68c9 983e 52be be3e ebdd c5be
00000390: 5ff7 d43f 0feb 7c3e 8cc0 a53e ce32 a3bd
000003a0: 1d6b 7ebf e320 973e 9121 cf3c 7a13 85bd
000003b0: bfa5 18bf 5302 793e 07f2 053f 9e53 913e
000003c0: c841 adbd 4be9 12bd cf54 073f 9f00 b83e
000003d0: 3538 a13e 54f0 fa3e 3796 e3bd 9697 873d
000003e0: 1d0d fc3d ba52 62bd cf92 55be e6c4 17bf
000003f0: b73b 8bbe 9e21 1ebc 9256 b43d c6a9 05bf

mem_LSTM_q1.weight_hh_l0 f4 [256, 64]
-0.5306087 0.66401833 -0.19189933 0.4337801 0.0068930727 -0.096007794 -0.31351382 0.13671453
-0.33716246 -0.22421767 -0.50834686 0.049953915 0.44733882 -0.115375206 -0.18504454 0.032791544
0.18530121 -0.18960921 -0.553549 0.08988648 0.004078643 0.44839674 -0.3879102 0.07998229
0.41786918 0.43273947 -0.13495126 -0.3394731 -0.28305238 -0.5327338 0.31084853 0.5694122
-0.33271796 0.5142853 -0.034015004 0.36676112 -0.30563954 -0.13552395 -0.12137263 -0.15672587
-0.0038399273 -0.10188842 0.020299956 0.18101682 -0.36548474 0.04938777 -0.25244823 -0.14278235
-0.5083585 0.23179689 -0.0866755 -0.10782762 -0.045887623 0.23080139 0.010900882 -0.60166276
0.14533411 0.49187788 -0.13000855 0.5019543 0.2422638 0.08808146 -0.084892035 0.26967847
0.3175745 -0.55855954 -0.63517565 -0.28963378 0.5618176 -0.0018187779 -0.86634153 -0.23047972
0.34349328 0.36202383 -1.1439391 -0.64216185 0.32888108 -0.77266073 -0.37877008 -0.55678415
-0.24403684 -0.58296555 0.39198667 -0.41165265 -0.11149168 0.61765933 0.46303868 -0.28807914
-0.6767036 0.46541092 -0.3916202 -0.8644364 -0.45603544 0.34432626 0.21902156 0.3427208
-0.38029984 0.08809299 0.2279899 -0.41197437 -0.20203094 0.6307466 0.70845306 -0.61070967
-0.48554724 -0.2131419 0.87625724 -0.63541293 -1.1401871 -0.8825328 0.8529238 0.05104991
-0.16737263 0.43389437 0.44577825 -0.28743294 -0.08476327 -0.34738186 -0.810767 -0.7366486
0.29742172 0.6765027 0.079100825 0.9677592 -0.04483264 -0.42368293 0.84835786 -0.1089457
-0.23414168 0.093655206 -0.028431589 -0.7743998 0.11687007 -0.7472512 -0.64146477 -0.027150596
0.1534008 -0.20817302 0.3079844 0.043902718 0.30884337 -0.01373059 0.342864 -0.36181453
-0.3321136 -0.6824957 0.17871082 0.965631 -0.34866711 0.044936758 0.048026267 -0.19990498
-0.23088497 0.20344695 -1.0594615 0.49166414 -0.67164403 0.15327285 0.26397306 -0.28790507
0.304346 -0.7463746 -0.6098602 -0.02587688 0.49693754 0.46024364 0.43661863 -0.078967564
-0.6345823 -0.13923872 0.6430755 -0.36765888 -0.5688033 0.25282604 0.47873014 0.32731274
0.4300757 0.48584422 0.42727664 -0.30104968 -1.0285406 -0.25080228 -0.20622824 -1.365726
-0.5646646 -0.057363853 0.10337151 0.42931387 0.35321075 0.2989504 0.05266229 -0.579296
-0.36807457 0.12635231 0.38674045 -0.8371563 -0.29739526 -0.3417837 -0.50808364 1.3275812
-0.46359086 0.071148425 -0.34532022 0.13500112 0.039605677 0.3612187 0.5245963 0.25243875
0.34024733 -0.05174207 0.3700424 0.23938687 -0.39060694 0.40288913 0.30888557 0.075850554
-0.060308818 0.72760075 0.34852242 0.12082292 -0.2484071 -0.41921645 0.019372588 -0.32129773
-0.16326416 -0.71326876 0.21078767 0.119091064 -0.46635544 -0.2900392 -0.0059896917 -0.12067898
-0.74213463 0.04561802 -0.08353821 0.6488806 0.663969 0.22972475 0.4258263 -0.008947925
0.011248873 -0.20504794 1.2368195 0.17367782 0.32747948 0.430414 1.2659981 -0.59643793
-0.47226256 -0.3484123 -0.62914425 0.28233117 0.24875651 -0.28862363 0.025049783 0.06333433
00000000: f9d5 07bf 1bfd 293f 4281 44be 6d18 de3e
00000010: 49df e13b bc9f c4bd e284 a0be e5fe 0b3e
00000020: 8fa0 acbe 5199 65be 0523 02bf 7a9c 4c3d
00000030: 9809 e53e d649 ecbd 517c 3dbe 6d50 063d
00000040: 9abf 3d3e eb28 42be 63b5 0dbf 6716 b83d
00000050: 23a6 853b 4294 e53e 2a9c c6be c1cd a33d
00000060: f3f2 d53e 0790 dd3e aa30 0abe 6bcf adbe
00000070: 3eec 90be 3e61 08bf 8a27 9f3e ffc4 113f
00000080: 025a aabe 34a8 033f 5153 0bbd 1dc8 bb3e
00000090: c97c 9cbe cac6 0abe 3792 f8bd bf7c 20be
000000a0: 4aa7 7bbb e0aa d0bd 184c a63c 795c 393e
000000b0: d120 bbbe d54a 4a3d e540 81be 8935 12be
000000c0: c823 02bf 2a5c 6d3e ed82 b1bd bad4 dcbd
000000d0: a9f4 3bbd 3357 6c3e 9d99 323c 9206 1abf
000000e0: 77d2 143e 6bd7 fb3e f620 05be 1480 003f
000000f0: 0014 783e 0d64 b43d e0db adbd 4c13 8a3e
00000100: 2099 a23e c2fd 0ebf df9a 22bf e14a 94be
00000110: 47d3 0f3f 0f64 eeba 8fc8 5dbf e002 6cbe
00000120: 5ade af3e 305b b93e 996c 92bf b864 24bf
00000130: 1a63 a83e 18cd 45bf 27ee c1be 6889 0ebf
00000140: cbe4 79be 3b3d 15bf 7ab2 c83e 23c4 d2be
00000150: c055 e4bd ec1e 1e3f 6813 ed3e 1c7f 93be
00000160: 723c 2dbf 574a ee3e 7182 c8be b44b 5dbf
00000170: 7a7d e9be 884b b03e 3047 603e 1a79 af3e
00000180: a9b6 c2be 196a b43d 2f76 693e 4eee d2be
00000190: 33e1 4ebe 9c78 213f 2e5d 353f 7857 1cbf
000001a0: a699 f8be df41 5abe 6552 603f 6caa 22bf
000001b0: a7f1 91bf abed 61bf 3759 5a3f b619 513d
000001c0: bb63 2bbe 6727 de3e 0c3d e43e 692a 93be
000001d0: 5e98 adbd 09dc b1be 6d8e 4fbf 0195 3cbf
000001e0: a947 983e 482f 2d3f 9dff a13d 11bf 773f
000001f0: 6ea2 37bd f8ec d8be fb2d 593f ec1e dfbd
00000200: d6c2 6fbe 4dce bf3d 5de9 e8bc 113f 46bf
00000210: 9359 ef3d db4b 3fbf 0937 24bf ed6a debc
00000220: 1915 1d3e 4f2b 55be 22b0 9d3e 56d3 333d
00000230: b820 9e3e 45f6 60bc df8b af3e c13f b9be
00000240: cb0a aabe 0ab8 2ebf f8ff 363e 9833 773f
00000250: 7f84 b2be 9b0f 383d 31b7 443d e4b3 4cbe
00000260: 1c6d 6cbe 6654 503e 6f9c 87bf 67bb fb3e
00000270: ddf0 2bbf 8ff3 1c3e 7a27 873e 4b68 93be
00000280: 3dd3 9b3e 6812 3fbf cc1f 1cbf c0fb d3bc
00000290: 996e fe3e 0ea5 eb3e 7a8c df3e bfb9 a1bd
000002a0: fc73 22bf 9894 0ebe 99a0 243f c93d bcbe
000002b0: 189d 11bf 6a72 813e 1e1c f53e 8995 a73e
000002c0: e232 dc3e 93c0 f83e 01c4 da3e 2f23 9abe
000002d0: 38a7 83bf 2869 80be 7f2d 53be 1cd0 aebf
000002e0: dc8d 10bf 5cf6 6abd 71b4 d33d 07cf db3e
000002f0: 0ad8 b43e 0710 993e 6ab4 573d be4c 14bf
00000300: 4574 bcbe 8062 013e d802 c63e e04f 56bf
00000310: 3144 98be 46fe aebe c511 02bf 2eee a93f
00000320: c85b edbe 44b6 913d d0cd b0be bc3d 0a3e
00000330: 9039 223d a8f1 b83e f14b 063f a73f 813e
00000340: e634 ae3e 7eef 53bd 3376 bd3e d521 753e
00000350: a2fd c7be 7c47 ce3e 4026 9e3e 8957 9b3d
00000360: 6106 77bd 0b44 3a3f 8871 b23e 0272 f73d
00000370: 6e5e 7ebe 8aa3 d6be 43b3 9e3c 2381 a4be
00000380: b82e 27be c898 36bf b9d8 573e 04e6 f33d
00000390: 24c6 eebe 0580 94be 2d45 c4bb 8b26 f7bd
000003a0: 89fc 3dbf f6d9 3a3d 1516 abbd 0a1d 263f
000003b0: dff9 293f f73c 6b3e e805 da3e 519a 12bc
000003c0: 314d 383c 16f8 51be 1a50 9e3f 99d8 313e
000003d0: 64ab a73e 395f dc3e 3a0c a23f 28b0 18bf
000003e0: 66cc f1be 1963 b2be 990f 21bf b68d 903e
000003f0: 07ba 7e3e 7ac6 93be 3435 cd3c 6eb5 813d

mem_LSTM_q1.bias_ih_l0 f4 [256]
0.17333397 -0.029652085 0.18762599 0.15066622 0.21237156 -0.14198823 0.0878587 -0.048609786
0.03961194 -0.01478218 0.087298684 -0.27742687 -0.130162 -0.24559188 -0.101528466 0.11312285
0.12770325 0.31623134 0.103560954 -0.13073301 -0.09894482 0.014116493 0.34563184 0.10023712
-0.023871034 -0.0026400364 0.038600646 0.102336906 0.1287525 -0.10231783 -0.09310765 -0.047716152
0.044478655 -0.00077751983 0.12818484 0.26108944 0.090317786 -0.10278666 0.07240153 0.1880028
-0.08012445 -0.10812904 0.48264647 0.028035797 0.122842565 -0.15537596 0.14358678 -0.0257363
0.015671698 0.4078176 -0.15865083 0.21279524 0.15714544 0.24199668 0.4362324 -0.048132863
0.042976018 0.26352757 0.11219407 -0.08322928 0.119984604 0.09428946 0.18810035 0.15434512
-0.1322697 0.034169912 0.0965723 -0.26309428 0.094829425 0.0068399617 0.083980955 -0.15679425
0.00874937 -0.017446166 -0.061940555 -0.11369903 -0.17176983 -0.3425533 -0.18734835 -0.03083347
0.025859803 0.13353792 -0.10431 -0.24578683 -0.12773632 -0.1363967 0.08615318 -0.053474534
-0.0058463714 0.12365995 0.28480735 -0.14052126 -0.16749747 -0.19589943 -0.026767345 -0.20066625
0.103086814 0.03568652 -0.06808959 0.0125608 0.16191603 -0.060721032 0.2224733 0.05927271
-0.19839571 -0.10078217 0.15661314 -0.13684896 0.08222 -0.034159318 -0.055222172 0.07596317
-0.11222715 -0.019543914 -0.0379582 -0.37416792 -0.15458655 0.061789718 -0.12354162 -0.027345654
-0.10328067 0.04674391 0.02600721 -0.10086902 -0.076519996 -0.3691122 0.1299171 -0.04932361
-0.0625529 0.200006 -0.057694413 0.054329082 0.4050727 0.021242356 -0.015087423 0.098763876
-0.013434535 -0.1797438 0.04114789 0.08264198 0.15281369 0.083187304 0.009986417 -0.45483074
-0.06863969 -0.073757194 0.2040803 -0.18109567 0.19118343 0.032638356 0.03293876 0.022192502
0.089379326 -0.10744792 -0.12449587 -0.14820068 0.281272 0.2147364 0.23680428 0.2236392
0.035932418 0.062431656 -0.1326457 0.106050566 0.04587186 0.20477493 0.25598046 -0.17557515
0.14069466 0.019764075 0.04765869 -0.11758812 0.05768886 0.092980966 0.10783131 0.13080435
-0.012689353 0.14752303 -0.37528118 -0.11712026 0.05925954 -0.14266405 -0.16319816 0.04029369
-0.17521104 -0.109992884 0.121600956 0.054893106 -0.063631214 -0.017939622 0.029104365 -0.006515907
0.12696649 0.29665664 0.040428024 0.07027697 0.1610445 0.09899841 -0.034195237 -0.054878175
0.051732812 0.06852208 0.3548501 0.11275108 -0.114599414 -0.03824571 0.1323598 0.20113723
0.11556229 0.19939373 0.15798043 0.016295252 0.20335552 0.33589906 0.24024744 0.029982327
0.11406776 0.19701509 -0.105720535 -0.258571 0.2080171 0.09926318 -0.0981496 -0.26433128
0.058991116 0.50748533 -0.06588992 0.50224906 0.2675079 0.3586672 0.22117846 0.23210804
-0.0056640697 -0.15308458 0.31363425 -0.26837304 0.23061383 0.09244273 0.22420847 -0.16267978
-0.018203944 0.30089346 0.14456633 0.01008686 0.015337986 0.20692354 0.26775953 0.032632284
0.1432667 0.07170202 0.07507676 -0.27943024 0.18487781 -0.1411423 0.039793305 0.15121841
00000000: 767e 313e eee8 f2bc 0721 403e 3f48 1a3e
00000010: ee77 593e 5d65 11be 43ef b33d 0e1b 47bd
00000020: 2140 223d f530 72bc a7c9 b23d e50a 8ebe
00000030: 3049 05be 707c 7bbe 28ee cfbd f4ac e73d
00000040: a4c4 023e 13e9 a13e c417 d43d e0de 05be
00000050: 95a3 cabd dd48 673c a8f6 b03e 1f49 cd3d
00000060: 308d c3bc 7604 2dbb b61b 1e3d 0396 d13d
00000070: b2d7 033e 038c d1bd 39af bebd 0372 43bd
00000080: 402f 363d 79d2 4bba e342 033e 84ad 853e
00000090: 88f8 b83d d081 d2bd 4147 943d ce83 403e
000000a0: 4a18 a4bd c272 ddbd 701d f73e 54ab e53c
000000b0: e294 fb3d e01a 1fbe 6a08 133e efd4 d2bc
000000c0: ef61 803c 78cd d03e 5d75 22be ffe6 593e
000000d0: bcea 203e facd 773e da59 df3e f726 45bd
000000e0: 9f07 303d 16ed 863e 01c6 e53d 1d74 aabd
000000f0: 7dba f53d d51a c13d 619d 403e a60c 1e3e
00000100: b571 07be c0f5 0b3d b3c7 c53d 4bb4 86be
00000110: ee35 c23d c221 e03b 35fe ab3d ac8e 20be
00000120: 8559 0f3c 43eb 8ebc 61b5 7dbd 09db e8bd
00000130: 6ee4 2fbe 2563 afbe 3fd8 3fbe 7996 fcbc
00000140: f0d7 d33c 2abe 083e 7ba0 d5bd 8baf 7bbe
00000150: 4fcd 02be 94ab 0bbe 1471 b03d 1d08 5bbd
00000160: eb92 bfbb 6e41 fd3d 45d2 913e cee4 0fbe
00000170: 7584 2bbe dc99 48be 3147 dbbc 747b 4dbe
00000180: 2e1f d33d 072c 123d 8e72 8bbd d0cb 4d3c
00000190: 51cd 253e 9eb6 78bd 0ad0 633e f1c7 723d
000001a0: 3f28 4bbe e266 cebd 325f 203e 2222 0cbe
000001b0: f662 a83d a4ea 0bbd a530 62bd 9492 9b3d
000001c0: 59d7 e5bd 8f1a a0bc 0f7a 1bbd f092 bfbe
000001d0: f04b 1ebe 3717 7d3d 6403 fdbd fe03 e0bc
000001e0: d184 d3bd 8b76 3f3d 130d d53c 6b94 cebd
000001f0: 84b6 9cbd 46fc bcbe fd08 053e 8e07 4abd
00000200: bc1b 80bd 5fce 4c3e fa50 6cbd 2c88 5e3d
00000210: b065 cf3e 7304 ae3c 3d31 77bc b744 ca3d
00000220: 861c 5cbc c20e 38be b18a 283d 3340 a93d
00000230: 317b 1c3e 1b5e aa3d 129e 233c 93df e8be
00000240: f792 8cbd 030e 97bd 6dfa 503e 2571 39be
00000250: 97c5 433e ccaf 053d cbea 063d 0dcd b53c
00000260: 820c b73d a80d dcbd b1f7 febd ebc1 17be
00000270: e202 903e dce3 5b3e d27c 723e ad01 653e
00000280: df2d 133d 56b8 7f3d 46d4 07be 0a31 d93d
00000290: 22e4 3b3d 85b0 513e df0f 833e f9c9 33be
000002a0: 4312 103e 45e8 a13c c235 433d 0ad2 f0bd
000002b0: 274b 6c3d ce6c be3d a9d6 dc3d 93f1 053e
000002c0: 01e7 4fbc 4710 173e db24 c0be bfdc efbd
000002d0: 22ba 723d 8616 12be 6b1d 27be ff0a 253d
000002e0: 866a 33be f343 e1bd ec09 f93d 98d7 603d
000002f0: 1551 82bd 1df6 92bc 476c ee3c 6483 d5bb
00000300: 8103 023e 61e3 973e db97 253d 5fed 8f3d
00000310: d9e8 243e aebf ca3d 4e10 0cbd f0c7 60bd
00000320: c9e5 533d 4e55 8c3d eaae b53e 0aea e63d
00000330: 19b3 eabd 89a7 1cbd 5489 073e ebf6 4d3e
00000340: ecab ec3d df2d 4c3e 9fc5 213e 9f7d 853c
00000350: 6e3c 503e f6fa ab3e 6d03 763e 7f9d f53c
00000360: 5c9c e93d 53be 493e 0284 d8bd 6b63 84be
00000370: 6f02 553e 7e4a cb3d a802 c9bd 6e56 87be
00000380: aba0 713d 8fea 013f 4bf1 86bd 6593 003f
00000390: ccf6 883e 3aa3 b73e 9b7c 623e bbad 6d3e
000003a0: a999 b9bb 34c2 1cbe ab94 a03e 3168 89be
000003b0: 0826 6c3e 9d52 bd3d e896 653e 8795 26be
000003c0: 7020 95bc b50e 9a3e 3209 143e 5b43 253c
000003d0: 2d4c 7b3c c4e3 533e c717 893e 6ea9 053d
000003e0: 81b4 123e 82d8 923d d8c1 993d 7b11 8fbe
000003f0: 9c50 3d3e 9b87 10be 4efe 223d 00d9 1a3e

mem_LSTM_q1.bias_hh_l0 f4 [256]
0.047288496 0.011984161 0.16265118 -0.026460843 0.1337381 -0.1271406 0.02335119 -0.037936304
0.06743027 -0.13099444 0.08759304 -0.20531338 -0.07435478 -0.1621243 -0.12540922 0.20214532
0.073955044 0.13466719 0.21030167 -0.15474196 -0.015197119 0.041529927 0.15338798 -0.01493995
-0.046635438 0.12292007 0.028662633 -0.058944706 0.2819992 0.0295843 0.049720846 0.008356153
-0.11310218 0.01116075 0.100677975 0.31819302 0.19488952 0.016013354 0.21533127 0.29919106
0.012917155 0.04306168 0.42288268 0.056005564 0.097179264 0.00017448165 0.02953191 -0.10192281
-0.2097015 0.31639856 0.0140947215 0.17508975 0.1888059 0.04090292 0.2353618 -0.10940741
0.033828493 0.23969279 0.15214807 -0.30626878 0.23706514 0.2063245 0.32780647 0.21992816
-0.12451383 0.14783764 -0.06809353 -0.039515454 0.1610375 0.07542219 0.003440777 -0.20091704
0.10217286 -0.21815117 0.0537376 -0.16330189 0.015750127 -0.1565728 -0.1615019 -0.090683825
0.023697224 0.15495399 -0.17598943 -0.14313836 -0.23293991 -0.030259762 0.008602119 -0.14629015
-0.08057412 0.11513364 0.25900164 -0.048814245 -0.18878101 -0.15669486 -0.13433033 -0.32590616
0.030233813 0.10524613 -0.25000432 -0.093275405 0.04515617 -0.043407924 0.21926138 0.014966588
-0.26073936 -0.14373477 0.0058768196 -0.15737244 -0.10259563 -0.14041029 -0.11744781 -0.046887986
-0.0105881905 0.06511538 0.106335446 -0.34013015 -0.10268824 -0.16981469 -0.012689637 -0.19630566
-0.03355654 0.07222814 0.11068688 -0.271794 -0.094967976 -0.28522104 -0.019855563 -0.105176166
-0.016635152 0.064126536 -0.11687516 0.04394205 0.4378611 -0.13338217 0.100534715 0.21734451
0.001965619 -0.22856918 0.04366318 0.07416286 0.070294194 0.1443027 0.09705823 -0.5106282
-0.11669196 -0.06718715 0.15592863 -0.106340036 0.17839941 0.07066191 0.11712509 -0.014371332
0.06460173 0.03927083 0.00055536465 -0.16983749 0.24370697 0.093153104 0.25124744 0.14165369
0.170212 0.16372702 -0.26029164 -0.03980237 0.10766877 0.12765628 0.13817857 -0.17923325
0.01510881 -0.13144046 -0.11828604 -0.11951258 0.061154623 0.15489538 0.0019099576 0.0077174874
0.1111676 0.25198212 -0.23290056 -0.079364516 -0.11973042 -0.074500814 -0.08415508 0.018717691
-0.092741586 0.07382542 0.028385375 0.09172432 0.16176282 -0.042530518 0.18885429 0.036533616
-0.01633669 0.17254488 0.038895335 0.118624434 0.088283986 0.12614311 0.16592644 0.011125048
0.044948436 -0.0040598847 0.33165878 0.33430478 0.0657237 0.02778793 -0.021653663 0.10277646
0.18703824 0.3985408 0.059259124 0.07106081 0.17483534 0.29145908 0.44637382 0.015598336
0.05784441 0.14687592 -0.05355624 -0.1573033 0.4249865 0.090136945 -0.10520155 -0.16099839
0.0014851489 0.317445 -0.028874554 0.46757576 0.37367186 0.19067268 0.3042456 0.044211492
0.15577702 -0.10086613 0.38585463 -0.07940236 0.23300596 0.026158467 0.05621842 -0.10853778
0.14729097 0.28974682 0.3333797 0.06288544 0.02258831 0.24184306 0.27490807 0.038240504
0.12252636 0.2943789 -0.05337917 -0.25574994 0.39121136 -0.051300455 0.10560252 0.29072472
00000000: 95b1 413d 3759 443c 088e 263e 69c4 d8bc
00000010: a4f2 083e 2531 02be ff4a bf3c 1963 1bbd
00000020: e218 8a3d 6823 06be fb63 b33d ac3d 52be
00000030: 5247 98bd ea03 26be 466b 00be 2fff 4e3e
00000040: be75 973d 32e6 093e 5259 573e ad74 1ebe
00000050: 56fd 78bc 491b 2a3d bd11 1d3e b1c6 74bc
00000060: cd04 3fbd 85bd fb3d e6cd ea3c 0170 71bd
00000070: 3362 903e c65a f23c 16a8 4b3d 3fe8 083c
00000080: 1ea2 e7bd 94db 363c 4130 ce3d 32ea a23e
00000090: 1e91 473e 702e 833c cd7f 5c3e 922f 993e
000000a0: 7aa2 533c 7261 303d 1484 d83e 1766 653d
000000b0: ec05 c73d 10f5 3639 e7ec f13c e8bc d0bd
000000c0: fdbb 56be fefe a13e 8ced 663c ba4a 333e
000000d0: 5556 413e d289 273d af02 713e fe10 e0bd
000000e0: bf8f 0a3d 0772 753e b4cc 1b3e 43cf 9cbe
000000f0: 34c1 723e bb46 533e 40d6 a73e d934 613e
00000100: 1b01 ffbd c062 173e 9f74 8bbd f5da 21bd
00000110: 04e7 243e f376 9a3d a97e 613b 32bd 4dbe
00000120: 0140 d13d 0563 5fbe f51b 5c3d 9c38 27be
00000130: 6906 813c 9f54 20be c160 25be 71b8 b9bd
00000140: ae20 c23c 42ac 1e3e 9336 34be dd92 12be
00000150: cd87 6ebe 52e3 f7bc e7ef 0c3c 16cd 15be
00000160: 0b04 a5bd 30cb eb3d dd9b 843e 72f1 47bd
00000170: cf4f 41be 9e74 20be e48d 09be 2cdd a6be
00000180: e7ac f73c 488b d73d 9100 80be 2d07 bfbd
00000190: adf5 383d 82cc 31bd 0e86 603e 6b36 753c
000001a0: a17f 85be 352f 13be 5692 c03b 3e26 21be
000001b0: a81d d2bd b7c7 0fbe 7a88 f0bd 9e0d 40bd
000001c0: 177a 2dbc 365b 853d 66c6 d93d 8a25 aebe
000001d0: 364e d2bd e7e3 2dbe 32e8 4fbc 5a04 49be
000001e0: 9572 09bd 59ec 933d ceaf e23d 9528 8bbe
000001f0: 927e c2bd 7e08 92be 22a8 a2bc 9a66 d7bd
00000200: 7146 88bc c654 833d 3e5c efbd 94fc 333d
00000210: 552f e03e 5695 08be 25e5 cd3d 8f8f 5e3e
00000220: 9dd1 003b 0a0e 6abe 2ad8 323d b3e2 973d
00000230: 67f6 8f3d 16c4 133e 77c6 c63d 88b8 02bf
00000240: 32fc eebd 6b99 89bd c1ab 1f3e cec8 d9bd
00000250: 56ae 363e 31b7 903d 47df ef3d bc75 6bbc
00000260: e94d 843d 73da 203d e495 113a e1e9 2dbe
00000270: 528e 793e 0ec7 be3d 81a3 803e aa0d 113e
00000280: 0e4c 2e3e 0ea8 273e f244 85be cf07 23bd
00000290: 7281 dc3d 54b8 023e af7e 0d3e ec88 37be
000002a0: f18a 773c 5498 06be f43f f2bd 03c3 f4bd
000002b0: 457d 7a3d e59c 1e3e 8b57 fa3a fae2 fc3b
000002c0: d7ab e33d cd03 813e 7c7d 6ebe dd89 a2bd
000002d0: 3935 f5bd e293 98bd 8059 acbd d855 993c
000002e0: 4def bdbd c831 973d 7288 e83c f6d9 bb3d
000002f0: 27a5 253e 7b34 2ebd 0563 413e 46a4 153d
00000300: 86d4 85bc 9baf 303e b750 1f3d 5ef1 f23d
00000310: 3cce b43d a92b 013e 9fe8 293e d545 363c
00000320: da1b 383d c808 85bb 2ecf a93e ff29 ab3e
00000330: 269a 863d 83a3 e33c 0663 b1bc 777c d23d
00000340: f486 3f3e 8a0d cc3e b2b9 723d 5488 913d
00000350: 0908 333e 203a 953e 1c8b e43e 2a90 7f3c
00000360: 43ee 6c3d a466 163e ca5d 5bbd 1e14 21be
00000370: d597 d93e b899 b83d e973 d7bd c3dc 24be
00000380: 54a9 c23a 2788 a23e 548a ecbc 1766 ef3e
00000390: eb51 bf3e b33f 433e 14c6 9b3e 1c17 353d
000003a0: 0384 1f3e e792 cebd bd8e c53e b49d a2bd
000003b0: 1d99 6e3e 484a d63c 4945 663d 0e49 debd
000003c0: 72d3 163e b259 943e beb0 aa3e 15ca 803d
000003d0: 1f0b b93c b5a5 773e c0c0 8c3e 13a2 1c3d
000003e0: 1aef fa3d d5b8 963e 1ea4 5abd a8f1 82be
000003f0: db4c c83e 6d20 52bd 2246 d83d dfd9 943e
