current_algos/LSTM_TD3/LSTM_TD3_Agent_actor_weights.pth (torch, 213849 bytes, 13 tensors)

curr_fe_dense1.weight f4 [64, 50]
0	0xbeb30146	-0.3496191
1	0x3ef27e0b	0.47361788
2	0xbe643fc2	-0.22289947
3	0xc0acefdc	-5.4042797
4	0xbfa57264	-1.2925534
5	0x3ef6aa8a	0.48176986
6	0x3ef94c45	0.48691002
7	0xbecc67ef	-0.39923045
8	0x3fa4a237	1.2862004
9	0x401549b9	2.3326247
10	0xbd66d617	-0.056356516
11	0xbe5a08cb	-0.21292417
12	0xbf6cc732	-0.9249145
13	0xbf45799b	-0.7713868
14	0x3f89469a	1.0724671
15	0x40b9712d	5.7950654
16	0xbfd4f40a	-1.6636975
17	0x3d8d6c3b	0.06905409
18	0xbfd783e5	-1.6837126
19	0x3fd08c72	1.629286
20	0x3fe4ad6a	1.7865422
21	0xbf4efb6a	-0.8085238
22	0xbf1082a4	-0.5644934
23	0xbeee4611	-0.4653783
24	0x3ee35445	0.4440023
25	0xbf7e062d	-0.99228173
26	0xbe6f2729	-0.23354782
27	0xbfea8aad	-1.832357
28	0xbf8aa4b9	-1.0831519
29	0xbd5b1212	-0.05348403
30	0x3e64af95	0.22332604
31	0x3e687391	0.22700335
32	0xbf11b1e2	-0.5691205
33	0x3fbdc00f	1.4824237
34	0x3d222113	0.039582323
35	0xbec0a5ac	-0.37626398
36	0x3f134e5d	0.5754145
37	0xbf046981	-0.51723486
38	0x3fa07965	1.2537047
39	0x3fb3e669	1.4054691
40	0x3fba81fc	1.4570918
41	0xbf02fb18	-0.5116439
42	0x3ee394d3	0.4444948
43	0xbe524da1	-0.20537426
44	0xbec0c1ed	-0.37647954
45	0x3ef37213	0.4754797
46	0x3f770c2d	0.96502954
47	0x3f712fba	0.9421345
48	0xbdb1d33f	-0.0868287
49	0x3fca9c1f	1.5828894
50	0x3eb23b0b	0.3481067
51	0xbeb71b86	-0.35763186
52	0xbe89c822	-0.26910502
53	0x3e3cf19c	0.18451542
54	0x3eccea60	0.40022564
55	0x3de8bd56	0.11364238
56	0x3fb4cd89	1.4125224
57	0xbef13092	-0.4710737
58	0x3e9d7bdf	0.3075857
59	0x3e772af9	0.24137487
60	0x3e8e5936	0.27802438
61	0x4077a35d	3.869346
62	0x3ffda861	1.981701
63	0x3f5fbe4f	0.8739976
64	0x3f6f89b8	0.9356952
65	0xbde833c5	-0.11337999
66	0xbf6ec809	-0.9327398
67	0xbfba5384	-1.4556737
68	0x3f0c86fc	0.5489347
69	0x3d270ff8	0.040786713
70	0xbf956e13	-1.1674217
71	0x3d845f42	0.064634815
72	0xbfb045f4	-1.3771348
73	0x3ebda7f0	0.3704219
74	0xbf4ce4c5	-0.80036575
75	0xbf04095c	-0.5157678
76	0xbf811e0a	-1.0087292
77	0xbd29ca6f	-0.04145282
78	0xc069b8dd	-3.6519082
79	0x3c571ed0	0.013129905
80	0xbf18714e	-0.5954789
81	0x3eb81722	0.3595515
82	0xc0474c43	-3.1140296
83	0xbf9c7fed	-1.222654
84	0x3ff66ee0	1.9252586
85	0xc018655e	-2.381187
86	0xbed2525d	-0.41078463
87	0xbea65788	-0.32488656
88	0xbfb47011	-1.40967
89	0xbec50b40	-0.38485146
90	0xbea27c7c	-0.317356
91	0xbe87581d	-0.26434413
92	0xbf84fb25	-1.0389143
93	0xbec4da19	-0.38447645
94	0x3f21a90b	0.63148564
95	0xbfb2af75	-1.3959795
96	0xbf3dc8be	-0.74134433
97	0xbf2f0744	-0.6837046
98	0xbf1cf598	-0.61312246
99	0x3e80f240	0.25184822
100	0x3da28e0f	0.07937252
101	0xbf20d69f	-0.62827486
102	0x400b10d9	2.1729033
103	0x40790e3f	3.8914945
104	0x40ddba06	6.928958
105	0x3ffaea60	1.9602776
106	0xbe98f859	-0.29876974
107	0xbf4deb12	-0.80436814
108	0xc01466f8	-2.3187847
109	0x3d595f6f	0.05306953
110	0x40123367	2.2843874
111	0x3ed0ba29	0.4076703
112	0xbeb44445	-0.35208336
113	0x3eb47e2e	0.35252517
114	0xbecd7b4c	-0.4013313
115	0x40505c62	3.2556386
116	0x3efc662f	0.4929671
117	0x404c87a2	3.1957784
118	0x3fc61709	1.547578
119	0xbdaaa558	-0.08332318
120	0x40245b71	2.5680811
121	0x3f9c2176	1.2197711
122	0x40361ef2	2.8456388
123	0x40239326	2.5558562
124	0x3f31149e	0.69172084
125	0xbf1bf26b	-0.60916775
126	0xbffee66b	-1.9914068
127	0x3fb8f591	1.4449941
128	0xbfcaf811	-1.5856954
129	0xc0021d11	-2.033024
130	0x3f6c89f7	0.9239802
131	0xbdb2a727	-0.08723288
132	0x3f2b2b52	0.66862977
133	0xbf805927	-1.0027207
134	0x3dd3611e	0.10321258
135	0x3debd271	0.11514748
136	0x3f705f0a	0.9389502
137	0xbe915499	-0.28384855
138	0x3f46d9a2	0.7767583
139	0xbe42359f	-0.18965767
140	0x3fafede3	1.3744472
141	0x3e988176	0.2978627
142	0x3e69d786	0.22836122
143	0xbf885988	-1.0652323
144	0x3fa3d6d8	1.279994
145	0x3e6671a1	0.22504283
146	0x3f152698	0.58262014
147	0xbeca3ab4	-0.39497912
148	0xbe025b4c	-0.1273014
149	0xbe461b75	-0.19346412
150	0x3d12da22	0.03585256
151	0xbec0b1ce	-0.37635654
152	0x3ede2232	0.43385464
153	0x400c78cd	2.194873
154	0xbf8a477c	-1.0803065
155	0xbf56b374	-0.83867574
156	0xbf69a3c6	-0.91265523
157	0xbf2b6efb	-0.6696622
158	0x3f0b37e5	0.54382163
159	0x3ea84da9	0.3287175
160	0x3fdcf6af	1.7262782
161	0x3fe8a3d8	1.8175001
162	0x3f77e76d	0.968375
163	0x3e45562d	0.19271155
164	0x3d8d802a	0.06909211
165	0x402250e7	2.536188
166	0x400aa6c7	2.1664293
167	0xbf7fcc76	-0.9992136
168	0xbef170b2	-0.47156292
169	0x3f30ec18	0.6911025
170	0xbfb7ea0a	-1.4368298
171	0x3e1f33f5	0.15547164
172	0x3fd6d0da	1.6782486
173	0x404c05b4	3.187848
174	0x3f9b4595	1.213061
175	0x3e963c96	0.29343098
176	0xbfd86bf4	-1.6907945
177	0x3f1c9429	0.61163574
178	0x3e33a47e	0.17543218
179	0xbffdd429	-1.9830371
180	0x3dfa7838	0.12229961
181	0xbf9ca5e7	-1.2238129
182	0xc025ed42	-2.592606
183	0x3e91eb37	0.28499767
184	0xc067df51	-3.6230052
185	0xbdecace5	-0.115564145
186	0xbef6e54b	-0.48221812
187	0x3efd0f42	0.49425703
188	0xbe825743	-0.254572
189	0xbecad549	-0.3961585
190	0xbe98b832	-0.2982803
191	0x3f91b275	1.1382586
192	0x3e6e77e6	0.23287925
193	0xbf6dc3f9	-0.92877156
194	0x3e9af663	0.30266103
195	0x3fd7c379	1.6856529
196	0x3f844e1d	1.0336338
197	0xbeb703d6	-0.35745114
198	0x3f05480f	0.5206308
199	0xbf80a9d7	-1.0051831
200	0x3e8c49fe	0.27400202
201	0x3f2cdf8a	0.67528594
202	0xc01019b2	-2.2515683
203	0xbe4d4306	-0.20045099
204	0x403e6045	2.9746258
205	0xbe9ba5d2	-0.30399948
206	0x3ed0f274	0.40809977
207	0x3fab88a7	1.3401078
208	0xbf6d8c05	-0.9279178
209	0xc0934a7d	-4.602843
210	0xc056f1a1	-3.3584979
211	0xbfa1518a	-1.2603009
212	0xbab2717f	-0.0013614147
213	0x3f080a8e	0.53141105
214	0xbf82142e	-1.0162408
215	0xbf97b42c	-1.1851859
216	0xbfc16e7c	-1.5111842
217	0x3e88b68d	0.26701775
218	0xbf28a7d2	-0.65881073
219	0x3f2d50a5	0.6770118
220	0xbf79f2fc	-0.9763639
221	0x40b13da6	5.5387754
222	0xbfc8aa74	-1.5677018
223	0xbf30c3d3	-0.69048804
224	0x3cff8e57	0.031195803
225	0x3f91fe2f	1.1405696
226	0xbedea572	-0.434856
227	0xbf8f814f	-1.1211337
228	0x402061b2	2.5059628
229	0xbeade67f	-0.33964917
230	0x3e8aae77	0.2708623
231	0xbea327e1	-0.31866363
232	0x3fc32542	1.5245745
233	0xbf7802d3	-0.9687931
234	0xbc646b34	-0.013941575
235	0x3e8aeead	0.2713522
236	0x3f243954	0.64149976
237	0xbd24b283	-0.040209305
238	0xbea625b7	-0.3245065
239	0xbf386204	-0.7202456
240	0xbdf6e542	-0.12055446
241	0xbdfa0f7b	-0.12209984
242	0x3f2b79e6	0.6698288
243	0x3f3ace35	0.72970897
244	0x3f0a4141	0.5400582
245	0x3c0fe25a	0.008781994
246	0xbe23dbe2	-0.16001847
247	0xbd528efa	-0.051405884
248	0x3ed7754f	0.42081687
249	0x3f33ca7e	0.70230854
250	0x3f08cd25	0.53438026
251	0xbf831617	-1.0241116
252	0x3e86d202	0.26332098
253	0x4038de23	2.8885581
254	0x3ec54675	0.38530317
255	0xbea0874f	-0.31353232

curr_fe_dense1.bias f4 [64]
0	0xbdaebfa7	-0.085326485
1	0x3df6c55c	0.12049362
2	0xbf78d97c	-0.97206855
3	0xbf276e50	-0.654027
4	0xbf59650b	-0.84919804
5	0x3e37da7b	0.17954437
6	0xbf0aebec	-0.5426624
7	0x3de87c8c	0.113518804
8	0xbf086832	-0.5328399
9	0xbbefcdd4	-0.007318238
10	0xbc317d19	-0.010833048
11	0x3ebe8bad	0.3721594
12	0xbf871830	-1.0554256
13	0xbf038a47	-0.5138287
14	0xbf3f1429	-0.74640137
15	0xbef26820	-0.47345066
16	0x3e18ab69	0.14909138
17	0xbfb501f0	-1.4141216
18	0x3dc30e98	0.09524268
19	0x3da90116	0.0825216
20	0x3f21d4b1	0.63215166
21	0xbd858bc7	-0.06520801
22	0x3f99afad	1.2006737
23	0xbf3124e1	-0.691969
24	0x3e8415a0	0.2579775
25	0xbe6a8843	-0.22903542
26	0xbf1edac0	-0.62052536
27	0x3f9ab249	1.2085658
28	0x3d4ae2a0	0.049532533
29	0xbe91bcc9	-0.28464344
30	0xbf439d64	-0.76412034
31	0xbf9e96dc	-1.2389789
32	0xbf97895d	-1.1838795
33	0x3ecb34c8	0.39688706
34	0xbebca340	-0.368433
35	0xbf45d63e	-0.7728003
36	0xbf076d14	-0.52900815
37	0xbf0bd295	-0.546182
38	0xbf384adc	-0.71989226
39	0xbf550012	-0.8320323
40	0xbe300909	-0.17190947
41	0x3f5150ca	0.817639
42	0x3f9e5833	1.2370666
43	0xbecddc62	-0.402072
44	0x3ddd0ae9	0.107930966
45	0xbf14f568	-0.5818696
46	0xbf9537a8	-1.165761
47	0xbfb9d47c	-1.451797
48	0x3f5f7be4	0.8729842
49	0xbee0e6c4	-0.4392606
50	0xbf1cc540	-0.6123848
51	0xbfbc1f27	-1.4697007
52	0xbfa5ab74	-1.2942948
53	0xbe9ec259	-0.3100765
54	0xbf45aeaa	-0.7721964
55	0xba89860b	-0.0010492218
56	0x3ec480fb	0.38379654
57	0x3e89b9d2	0.26899582
58	0x3b46894f	0.0030294245
59	0xbf3e08d7	-0.7423224
60	0xbf2c109d	-0.6721285
61	0xbe2eb888	-0.1706258
62	0xbf015c4f	-0.50531477
63	0xbfacb5f4	-1.3493028

curr_fe_dense2.weight f4 [64, 64]
0	0xbf9aa759	-1.208232
1	0xbdf5d291	-0.12003053
2	0x4005e81d	2.092292
3	0x3f197882	0.59949505
4	0xbecd3598	-0.4007995
5	0x3f6d2748	0.92638063
6	0xbf1ded51	-0.6169024
7	0x3f9d4b66	1.2288635
8	0xbf31ce54	-0.69455457
9	0x3dc1b081	0.094574936
10	0x3f0e7e6d	0.5566166
11	0xbd8f60a8	-0.070008576
12	0xbf42ac42	-0.76044095
13	0x3ecc5e67	0.39915773
14	0x3f975e83	1.1825718
15	0x3f2499d5	0.6429723
16	0x3f786aa4	0.9703772
17	0xbf002b89	-0.5006643
18	0x3dfb6cd4	0.12276617
19	0xbf331cb7	-0.6996569
20	0xbfe6f11b	-1.804233
21	0x3fabdb02	1.3426211
22	0xbea86489	-0.32889202
23	0xbee84920	-0.4536829
24	0xbf24422f	-0.6416349
25	0x3fde70bd	1.7378155
26	0x3f7daf2f	0.99095434
27	0xbf8d8e19	-1.105899
28	0x3ff2f463	1.8980831
29	0xbf52d7cb	-0.82360524
30	0xbf8a1e26	-1.079045
31	0x3f2abb15	0.66691715
32	0xbf875c32	-1.0575011
33	0xbfe3d89e	-1.7800481
34	0x40127d9f	2.2889173
35	0x3f88cdf5	1.0687853
36	0x3ec2e8a4	0.38068116
37	0x4018c470	2.3869896
38	0x3c85eb93	0.016347682
39	0xbf115d94	-0.56783414
40	0x3f12bd6d	0.5732029
41	0x3f573a26	0.840731
42	0xbfb25acc	-1.3933959
43	0xbf9c143e	-1.2193677
44	0x3fa0268a	1.2511761
45	0xbd2a411c	-0.041566
46	0x3f527f94	0.8222592
47	0x3d3a49db	0.04548059
48	0x3e34b703	0.17647938
49	0x3fd98099	1.699237
50	0x3ee77f21	0.4521418
51	0xbdb22654	-0.08698717
52	0xbf2f62cd	-0.68510133
53	0xbf874426	-1.0567672
54	0x3f089983	0.5335924
55	0x3efed4e9	0.49771813
56	0x404896a5	3.1341946
57	0x4013b48e	2.3078952
58	0xbf431f83	-0.7621996
59	0x3f877596	1.0582759
60	0xbfe80aff	-1.8128356
61	0x3f23e0aa	0.64014685
62	0xbf03e7c7	-0.5152554
63	0xbf19f866	-0.6014465
64	0x3d22786f	0.039665636
65	0xbed925ba	-0.42411596
66	0x3f4f7bac	0.81048083
67	0x3e376a33	0.17911606
68	0x3f881e1f	1.0634192
69	0x402a5679	2.6615279
70	0x3f27da1c	0.65567183
71	0x3f13aa79	0.57681996
72	0x3e364be3	0.17802386
73	0xbfd256f7	-1.643279
74	0xbf7b2607	-0.981049
75	0x3e8d1fad	0.2756323
76	0xbee736b3	-0.4515892
77	0x3f89edb4	1.0775666
78	0xbecf2f40	-0.40465736
79	0xbee8aef9	-0.45445994
80	0x3e926f3a	0.28600484
81	0x3f1ed184	0.62038445
82	0x3fe6d64a	1.8034146
83	0xbf648f31	-0.8928099
84	0xbebbd7c4	-0.36688054
85	0x3f558768	0.8340974
86	0x3ee97fe5	0.45605388
87	0xbee4e807	-0.44708273
88	0x3f1fbef4	0.62400746
89	0xbf4258d6	-0.759168
90	0x3f1b5d98	0.6068969
91	0xbfde32b9	-1.7359229
92	0x40525282	3.2862859
93	0x3f42c292	0.7607814
94	0xbf4e2def	-0.8053884
95	0xbf81c7f6	-1.0139148
96	0xbf9018cb	-1.1257566
97	0xbe46fb31	-0.1943176
98	0xbec7787d	-0.38959113
99	0xbebb801e	-0.36621183
100	0xbe481977	-0.19540964
101	0x3f13de03	0.5776064
102	0xbfae15a1	-1.3600351
103	0xbec5de5f	-0.38646218
104	0xbe5e1a39	-0.2168969
105	0x3f8f70be	1.1206281
106	0xbe86574f	-0.26238486
107	0x3f452b18	0.7701888
108	0x401a1efb	2.408141
109	0x3e16a521	0.14711429
110	0xbd985361	-0.07437778
111	0xbf0097fd	-0.50231916
112	0xc010ae06	-2.2606215
113	0x3f87c1d5	1.0606028
114	0x3f267e56	0.65036523
115	0xbf65ff1d	-0.89842397
116	0x3f2abd83	0.6669542
117	0xbf8229b9	-1.0168983
118	0xbd43c44f	-0.047794636
119	0xbf043c40	-0.51654434
120	0x40201fd9	2.5019438
121	0x3d955887	0.07292276
122	0xbd6433d0	-0.055713475
123	0xbf65b0d5	-0.8972295
124	0xbe1aace3	-0.15105014
125	0x3f0a0d8d	0.53926927
126	0x3f8b3ca7	1.0877885
127	0x3ed39492	0.41324288
128	0xbfd38276	-1.6524189
129	0xbdcfeb78	-0.10152334
130	0x3c98485c	0.018589191
131	0xbf8a2fc3	-1.0795826
132	0x3e7614af	0.24031328
133	0xbe8e6e5e	-0.27818578
134	0x3e13b935	0.1442612
135	0xbf4db40e	-0.80352867
136	0xbf42d917	-0.761125
137	0x3eb41abe	0.35176653
138	0x3e81396d	0.25239125
139	0xbfbbad13	-1.4662193
140	0xbcf205ec	-0.02954384
141	0xbf9840ae	-1.1894739
142	0xbe1aca8b	-0.15116327
143	0x3ee92dbf	0.45542714
144	0xbf52ecfd	-0.82392865
145	0xbeb4499f	-0.35212418
146	0xbd95ba07	-0.073108725
147	0x3f69bbd9	0.9130226
148	0xbe99cc48	-0.30038667
149	0xbf00daaa	-0.50333655
150	0xbfabefd9	-1.3432571
151	0x3f9b0b14	1.2112756
152	0x3d738943	0.059457075
153	0x3eb0919d	0.34486094
154	0x3b4826ca	0.0030540698
155	0xbde08fce	-0.109649286
156	0xbf5896a1	-0.8460484
157	0x3e5e3bb1	0.21702458
158	0xbf89bb90	-1.0760365
159	0x3f4ba24c	0.7954452
160	0x3e8bee7d	0.2733039
161	0xbf0d406c	-0.55176425
162	0x3e72093f	0.2363634
163	0xbca86f79	-0.020560967
164	0xbf94df92	-1.1630728
165	0x3ef1cb90	0.47225618
166	0xbdd80712	-0.105482236
167	0xbe456bb4	-0.19279367
168	0xbf179b8f	-0.5922174
169	0xbf40b07e	-0.75269306
170	0xbd9a6779	-0.07539267
171	0xbf4ca066	-0.7993225
172	0x3d29bf90	0.041442454
173	0xbf9c5e61	-1.2216302
174	0x3ebef5c0	0.37296867
175	0x3f0a27aa	0.5396677
176	0x3ef72428	0.48269773
177	0xbedbf549	-0.42960575
178	0xbeecfb7f	-0.46285626
179	0xbdfd33b6	-0.12363379
180	0xbf9c54fd	-1.2213436
181	0xbf8f56fe	-1.1198423
182	0x3ee06903	0.43830118
183	0x3cd981b5	0.026551107
184	0xbf9f7f6f	-1.2460765
185	0xbfb37fe5	-1.4023405
186	0x3f46c22d	0.7764004
187	0xbeeb9698	-0.4601333
188	0xbe796fd0	-0.2435906
189	0x3c76530f	0.015034451
190	0xbf0228ee	-0.50843704
191	0x3ed98a98	0.4248855
192	0xbe99a76f	-0.30010554
193	0x3eef3fb3	0.46728286
194	0xbe35cf83	-0.1775494
195	0x3bbd27f9	0.0057725874
196	0xbe49fd5d	-0.19725557
197	0xbe1392d9	-0.14411487
198	0xbea3db20	-0.32003117
199	0xbe7a0f92	-0.24420002
200	0x3e0401ca	0.12891307
201	0x3dbd75f7	0.09251016
202	0xbdd37b0a	-0.10326202
203	0xbe473607	-0.19454204
204	0x3dff3e10	0.12463009
205	0x3b5b2aa5	0.0033442166
206	0x3db59e4a	0.08868082
207	0xbe4a4688	-0.19753468
208	0xbdd937db	-0.10606357
209	0xbd261092	-0.040543146
210	0xbeca5cd0	-0.39523935
211	0xbea3461c	-0.31889427
212	0xbed58fad	-0.41711178
213	0xbf185db5	-0.59517986
214	0xbea2442c	-0.31692636
215	0xbed8ba9c	-0.42329872
216	0xbea78bec	-0.3272394
217	0x3be37ee0	0.006942615
218	0xbdc4ddd0	-0.0961262
219	0xbe1507e2	-0.14553788
220	0x3e0642de	0.13111445
221	0x39c0cea8	0.00036775065
222	0x3e9dac85	0.30795684
223	0xbdc5f637	-0.096661024
224	0xbef125ad	-0.47099057
225	0xbe85010c	-0.2597736
226	0xbe287f10	-0.1645472
227	0xbd83174f	-0.0640093
228	0xbe31d461	-0.17366172
229	0x3e71c007	0.23608409
230	0x3e887483	0.2665139
231	0xbdf680d0	-0.12036288
232	0xbe24bbbe	-0.16087243
233	0xbe284b13	-0.16434889
234	0xbf18f6b2	-0.5975143
235	0xbe7578a8	-0.23971808
236	0xbd4660b5	-0.04843207
237	0x3e2de875	0.16983207
238	0x3e8c6fc1	0.2742901
239	0x3db6b215	0.08920685
240	0xbe3f2bc9	-0.18669046
241	0xbe9b662e	-0.30351394
242	0xbedb5f1d	-0.42846003
243	0xbc272f08	-0.010204084
244	0xbe5c237a	-0.21497908
245	0x3e415cfe	0.1888313
246	0x3d845ac0	0.06462622
247	0x3e3339c5	0.17502506
248	0xbdd45b9b	-0.10369035
249	0xbd1b6eb3	-0.037947368
250	0xbd9a5cee	-0.07537256
251	0xbe8038aa	-0.2504323
252	0x3e31c6f8	0.17361057
253	0xbd902ee7	-0.07040196
254	0xbe057252	-0.13031891
255	0xbe7d65c8	-0.24745858

curr_fe_dense2.bias f4 [64]
0	0x3f297cd4	0.662061
1	0xbe0f0ee3	-0.13970523
2	0xbf5a414a	-0.85255873
3	0xbf0c75d1	-0.54867274
4	0xbf9400c9	-1.156274
5	0x3f1ed95e	0.62050426
6	0xbfd20960	-1.6409111
7	0xbf5a52f8	-0.8528285
8	0xbf066930	-0.52504253
9	0xbf0ac5bf	-0.54207987
10	0xbf2a30a5	-0.66480476
11	0xbf96e73c	-1.1789317
12	0xbe9b2f5c	-0.3030957
13	0xbf58fd69	-0.84761673
14	0xbd70a1f8	-0.058748215
15	0xbf11ec88	-0.57001543
16	0xbe391046	-0.18072614
17	0xbf66a721	-0.9009877
18	0x3dfeb78d	0.12437353
19	0xbe5768b2	-0.21036032
20	0x4030cde9	2.7625678
21	0xbf00ce7a	-0.5031506
22	0x3edfffa9	0.4374974
23	0x3f6203e3	0.8828718
24	0x3cb89b2e	0.022534933
25	0xbf3b070a	-0.73057616
26	0xbf1c4c77	-0.61054176
27	0x3f2d0ae1	0.67594725
28	0xbecb09ef	-0.39656016
29	0x4016a9fe	2.3541255
30	0x3fd82edc	1.68893
31	0x3eef81da	0.46778756
32	0x3e5610bd	0.20904823
33	0x3f6ea934	0.93226933
34	0x3f7d1d6e	0.9887303
35	0x3f846d64	1.0345883
36	0x3f806868	1.0031862
37	0x3db77433	0.0895771
38	0xbe9a6131	-0.30152276
39	0xbf5bc684	-0.85849786
40	0x3f32c03f	0.69824594
41	0xbfba88c5	-1.4572989
42	0x3e807dbf	0.25095937
43	0xbe7ef018	-0.24896276
44	0xbfa5abb6	-1.2943027
45	0x3f509d7a	0.8149029
46	0xbf89594b	-1.0730375
47	0x3f39e12e	0.7260922
48	0xbf75c266	-0.95999753
49	0xbf3091fb	-0.6897275
50	0xbe5f3abc	-0.21799749
51	0x3fdeefb6	1.7416904
52	0xbf503397	-0.8132872
53	0xbf196d2d	-0.59932214
54	0x3eb2eb93	0.34945354
55	0xbf8b8b51	-1.0901891
56	0x3fdbb90c	1.7165847
57	0xbfa45011	-1.2836934
58	0x3f4fe540	0.8120918
59	0x3d6026b9	0.05472443
60	0x3fa34a73	1.2757095
61	0xbf68be4c	-0.9091537
62	0xbf0a5eb3	-0.5405075
63	0x3f375cfb	0.7162625

mem_dense.weight f4 [64, 50]
0	0xbee323c8	-0.44363236
1	0xbf490b38	-0.78532743
2	0x3e70dd2b	0.23521869
3	0xc0619913	-3.524968
4	0xc00b8ad0	-2.1803474
5	0xc020e5af	-2.5140188
6	0xbfe6bdd3	-1.802668
7	0xbef961fd	-0.48707572
8	0x3ff941f4	1.9473252
9	0x401a9b75	2.4157383
10	0xbfd0ce68	-1.631299
11	0xbf38d545	-0.72200423
12	0xbf1ba17e	-0.6079329
13	0xbdddf677	-0.10838025
14	0xbf1e198c	-0.6175773
15	0x3eaf8c06	0.34286517
16	0x3ec2c2c8	0.3803923
17	0x40226f03	2.5380256
18	0x3f221a37	0.6332125
19	0x3ffd99c9	1.9812557
20	0xbfe7dbe3	-1.8113979
21	0x3fa27758	1.2692671
22	0xc0017884	-2.0229807
23	0xc05cb63f	-3.4486234
24	0x3eb90465	0.36136165
25	0x3e1c04d8	0.15236223
26	0x401c1df3	2.439328
27	0xbf76052a	-0.9610163
28	0x3fa2146d	1.2662483
29	0x401d70f6	2.4600196
30	0x3fc2c27c	1.5215602
31	0x3f29229d	0.6606844
32	0x3ffa7086	1.956559
33	0xc02adfa3	-2.6698997
34	0x3f8830d9	1.0639907
35	0x3dfd62e2	0.12372376
36	0xbe6878f9	-0.22702397
37	0xbc794c68	-0.015215971
38	0x3f494670	0.78623104
39	0xbf376f6d	-0.716544
40	0x3e25fd43	0.16209893
41	0xbeca13a5	-0.39468113
42	0xbf4cebd5	-0.8004735
43	0xbf073e68	-0.528296
44	0x3eb48ab2	0.35262066
45	0xbfed68ec	-1.8547645
46	0xc013ab8e	-2.3073459
47	0xbf4d6595	-0.80233127
48	0xbf34e82e	-0.7066678
49	0xbf0a1312	-0.5393535
50	0x404ad150	3.1690254
51	0x402e07dc	2.7192297
52	0x40007ff3	2.0078094
53	0xbf9144c8	-1.1349115
54	0xbf2a2243	-0.6645853
55	0xc00563d8	-2.084219
56	0xbf999bd6	-1.2000682
57	0xbfd1eb18	-1.639987
58	0x3f73d5cd	0.9524811
59	0xc084139a	-4.127393
60	0xc0040abd	-2.0631554
61	0xbfa33731	-1.2751218
62	0xbf2bebd5	-0.67156726
63	0xbeebf51d	-0.46085444
64	0x3fc87b86	1.5662696
65	0xc0a3daa9	-5.120442
66	0xbf382aa7	-0.7194008
67	0xbedcde1f	-0.43138215
68	0x3e0e7fac	0.1391589
69	0x3e23d9d2	0.1600106
70	0xc004f991	-2.0777323
71	0xc09d92bf	-4.9241633
72	0xbfce29a3	-1.6106457
73	0xbfe866de	-1.8156393
74	0xc02d4cba	-2.707808
75	0x3deab066	0.114594266
76	0x3f85b686	1.0446327
77	0x3f0e110f	0.5549478
78	0xbf0ca62e	-0.5494107
79	0x3fe50134	1.7890992
80	0x3f36c340	0.7139168
81	0x3f99090c	1.1955886
82	0x3ed2cebb	0.41173348
83	0x3f91a138	1.1377325
84	0xbe870ba1	-0.2637606
85	0x3f9a0fed	1.203611
86	0xbf3f5808	-0.747437
87	0xbc4d151c	-0.01251724
88	0x4017aa70	2.3697777
89	0x3fe35ccb	1.7762693
90	0x3ffc5e89	1.971635
91	0x3edf72fa	0.43642408
92	0x3fe8b268	1.8179445
93	0x400c15b2	2.1888242
94	0x3ecd5fa5	0.40112033
95	0x3f1f1752	0.6214496
96	0x3f7427d5	0.9537328
97	0x3fe5c870	1.7951794
98	0x402a4033	2.6601684
99	0x4026cd85	2.606294
100	0x3ea5d308	0.32387567
101	0x3ffc5b2c	1.9715323
102	0x3fa74011	1.3066427
103	0x3fd229a6	1.641896
104	0x3f66ff5f	0.90233415
105	0xbf02f1a8	-0.5114999
106	0xbf9d9d4c	-1.2313628
107	0xbfbe7a3b	-1.4881052
108	0x3ed71ad8	0.42012668
109	0xc0227caa	-2.538859
110	0x3e19244f	0.14955257
111	0xbf88a7f7	-1.0676259
112	0x3ecab4ad	0.3959097
113	0xbf10c666	-0.5655273
114	0xbfc00a31	-1.500311
115	0xbfcfecd2	-1.6244147
116	0x3e88cdb1	0.2671943
117	0xbe81d5ef	-0.2535853
118	0x3f615524	0.8802054
119	0x3e2ad2b5	0.16681941
120	0xbf810935	-1.0080935
121	0xbee984dc	-0.45609176
122	0x401a1127	2.407297
123	0x3cea52d0	0.028603941
124	0xbe74ebf2	-0.23918131
125	0xbf2338b4	-0.637584
126	0xc0628ccd	-3.5398438
127	0xbe731a89	-0.23740591
128	0xbeb00e0b	-0.34385714
129	0x3fa28bce	1.2698915
130	0x3f45ea9a	0.773111
131	0x3f9cd867	1.2253541
132	0x3f53088b	0.8243491
133	0x3edf6064	0.43628228
134	0x3f7a19bd	0.97695524
135	0x3ff49acd	1.9109741
136	0x3f82fc20	1.0233192
137	0x3ea3292b	0.31867346
138	0x4040c1ea	3.0118356
139	0x40099782	2.1498723
140	0x3fb2f0f1	1.397978
141	0x3fdadd99	1.7098876
142	0x40047887	2.0698564
143	0x3f8faeaf	1.1225184
144	0x4004daae	2.0758471
145	0x3ea8a36a	0.32937175
146	0x3f7e1b62	0.9926053
147	0x400247e8	2.0356388
148	0x3fedbdfc	1.8573604
149	0x4013237a	2.2990403
150	0xbf82e4ca	-1.0226071
151	0xbee7025a	-0.45118982
152	0x3f2c66d3	0.673444
153	0x40914da6	4.5407286
154	0x3f815426	1.0103805
155	0x3f091e13	0.53561515
156	0x3ee8d2dd	0.45473376
157	0x3e9996cf	0.2999787
158	0x3e9f8e16	0.3116309
159	0x3fc71be6	1.5555389
160	0x3fb1bd53	1.3885902
161	0xbeb65ba8	-0.35616803
162	0x3f5b74d7	0.8572516
163	0x3edc50cf	0.43030402
164	0xbe903687	-0.281666
165	0xbedf23c3	-0.43581972
166	0x409e0128	4.937641
167	0x40583d68	3.378748
168	0x402cb2f9	2.6984236
169	0x3eb6c050	0.35693598
170	0x3e22ed45	0.15910824
171	0x40020277	2.0314004
172	0x4046ecad	3.1081955
173	0x3f915ea0	1.1357002
174	0xbfb34148	-1.4004297
175	0x400d1fb0	2.205059
176	0xbf8022a9	-1.0010577
177	0xc03ceb57	-2.951864
178	0x3c1482ac	0.009064358
179	0xbf652b89	-0.89519554
180	0xbedde80b	-0.43341097
181	0xbed2d6b8	-0.41179442
182	0xbf57fb7c	-0.8436811
183	0xbeeda8e8	-0.46417928
184	0x3d222a6b	0.039591234
185	0x3edd63b1	0.4324012
186	0x3f4d0f09	0.80101067
187	0x3c566fc4	0.01308817
188	0x3f4c87ac	0.7989452
189	0x3f2ddb9c	0.6791322
190	0x3f2d1ea8	0.676249
191	0xbf3803a7	-0.71880573
192	0xbf6f4b94	-0.934747
193	0xbe3ad69b	-0.18245928
194	0x3db21b0d	0.08696566
195	0xbef7fa5c	-0.48433197
196	0x3f374dc3	0.7160303
197	0x3f27d256	0.6555532
198	0x3e922a2a	0.28547794
199	0xc005d204	-2.0909433
200	0xbf27f27c	-0.65604377
201	0xbe1783ae	-0.14796326
202	0x3e827956	0.25483197
203	0xbfa8f99c	-1.3201175
204	0xc07fd01e	-3.9970775
205	0xc0033285	-2.0499585
206	0xbfa25ac6	-1.2683952
207	0xc00b43c1	-2.1760104
208	0x3f61d30c	0.88212657
209	0x3f81bfd0	1.0136662
210	0xbfab6016	-1.3388698
211	0xbfa5a328	-1.2940416
212	0xbf21c2f1	-0.6318808
213	0xbfb9c80a	-1.4514172
214	0x3e47da5c	0.19516891
215	0x40331eef	2.798763
216	0x3ff5b145	1.9194723
217	0xbf749ca2	-0.955515
218	0xbf803c38	-1.0018377
219	0xbe25d94d	-0.16196175
220	0xc00e0a62	-2.2193837
221	0xbf1a18a5	-0.60193855
222	0xc00103ee	-2.0158648
223	0xbf891113	-1.0708336
224	0x3f96afb4	1.177237
225	0xbf80808d	-1.003923
226	0x4016f4fb	2.3587024
227	0x403119ff	2.7672117
228	0x3ff3e0f1	1.9053022
229	0x4055f082	3.3428044
230	0x400db894	2.2143908
231	0x402a2b11	2.6588786
232	0x3eb02a2a	0.3440717
233	0x3ed8319e	0.42225355
234	0x3fff470d	1.9943558
235	0x3ef59caa	0.47971088
236	0x3e9c293e	0.30500215
237	0x3fb3e27e	1.4053495
238	0xbf7b77e1	-0.98229796
239	0xbe426968	-0.18985522
240	0xbf39cebc	-0.72581077
241	0x3ea183cf	0.31545874
242	0xbcd84d5e	-0.026404079
243	0x3fc22e08	1.5170298
244	0x3f97dc09	1.1864024
245	0xbe996128	-0.29956937
246	0x3dca411e	0.09875701
247	0x3e030cf8	0.12797916
248	0xbf285939	-0.6576114
249	0xbdb51741	-0.08842326
250	0x3fa3e08e	1.2802904
251	0x3ecd6467	0.40115663
252	0xbf5b1a63	-0.8558714
253	0xbf3885a0	-0.72078896
254	0x3fc87fe4	1.5664029
255	0xbe9e23b4	-0.30886614

mem_dense.bias f4 [64]
0	0x3f9c6a9e	1.2220037
1	0x3f2e381b	0.6805436
2	0x3f162c09	0.5866094
3	0x3e8e8027	0.27832147
4	0x3fbd86a4	1.4806714
5	0xbf18dda6	-0.5971321
6	0xbe079188	-0.1323911
7	0xbfd0ba19	-1.6306792
8	0xbee5cbd4	-0.4488207
9	0xbda53b9c	-0.0806801
10	0x3dd859f9	0.10564036
11	0x3fdc3834	1.7204652
12	0xbf04024a	-0.5156599
13	0xbf3600b4	-0.7109482
14	0xbfb1b4f6	-1.388335
15	0x3f925c6c	1.1434455
16	0xbe768514	-0.24074203
17	0x3e741f74	0.23840123
18	0x3e6f6ee5	0.23382147
19	0xbdd89bed	-0.105766155
20	0x3f48d344	0.78447366
21	0x3e887952	0.2665506
22	0xbf198d26	-0.59981
23	0x3e540090	0.2070334
24	0xbd96d4f1	-0.07364834
25	0x3e72c234	0.23706895
26	0x3f511394	0.816705
27	0x3f8b65fd	1.0890499
28	0x3ea87704	0.32903302
29	0xbf037a42	-0.51358426
30	0xbf79f841	-0.9764443
31	0xbfb25826	-1.3933151
32	0xbf577ec1	-0.84177786
33	0x3f232070	0.6372137
34	0x3fac08b6	1.3440158
35	0xbf012758	-0.5045066
36	0xbec9ba80	-0.394001
37	0x3f1c3045	0.61011153
38	0xbe1b44cf	-0.15162967
39	0x3f428529	0.75984436
40	0x3f23a77e	0.6392745
41	0xbe84d77a	-0.25945646
42	0xbec054bc	-0.37564647
43	0xbfb572d4	-1.4175668
44	0xbf469dba	-0.7758442
45	0xbf4d1b86	-0.8012012
46	0xbe84045d	-0.2578458
47	0x3faa0965	1.3284117
48	0xbdd182a9	-0.102299996
49	0xbf9dad79	-1.2318565
50	0xbf60e133	-0.87843627
51	0xbeff8db4	-0.49912798
52	0xbf2e5459	-0.68097454
53	0x3f14b56a	0.58089316
54	0xbf494f62	-0.78636754
55	0xbeb27667	-0.3485596
56	0xbda8b98c	-0.08238515
57	0xbf494df4	-0.7863457
58	0xbf994092	-1.197283
59	0xbfa75ced	-1.3075234
60	0x4015175a	2.3295503
61	0x3ed84dca	0.42246848
62	0x3f81f20f	1.0151995
63	0xbf42074e	-0.75792396

mem_LSTM.weight_ih_l0 f4 [256, 64]
0	0x3f56163e	0.8362769
1	0x3e646777	0.22305094
2	0x3ccf2cae	0.02528986
3	0x3fbec2b2	1.4903166
4	0x3f8f1148	1.1177149
5	0x3f886441	1.0655595
6	0xbf5844a3	-0.8447973
7	0x3f2e00c1	0.679699
8	0x3f89dcef	1.0770549
9	0x3f880db2	1.062918
10	0x3ff57b95	1.9178339
11	0x3f595cdf	0.84907335
12	0xbe0dee0b	-0.13860337
13	0x3e347228	0.17621672
14	0x3fa6b4d4	1.3023934
15	0x3ec6ca5f	0.38826272
16	0x3f435ee5	0.7631667
17	0x3f239a3b	0.6390721
18	0x3d8af3c6	0.06784777
19	0xbeffda37	-0.49971172
20	0xbfc4fccb	-1.5389646
21	0x3ef7651a	0.48319322
22	0x3f780f09	0.9689794
23	0xbed82b07	-0.42220327
24	0x3f65e255	0.8979848
25	0xbe0ce8b3	-0.13760643
26	0xbebfa9d9	-0.3743427
27	0xbe25d4c7	-0.1619445
28	0x3ea9e836	0.33184975
29	0x3f9d8546	1.2306297
30	0x3f79cf77	0.9758219
31	0x3e617727	0.2201811
32	0x3df3f646	0.11912207
33	0x3f381baf	0.7191724
34	0x3e026cec	0.12736863
35	0x3f9ca6af	1.2238368
36	0xbdc8de3c	-0.09808013
37	0x3ee101ed	0.43946782
38	0xbf61d249	-0.88211495
39	0x3f4a90e0	0.7912731
40	0x3f78675b	0.9703271
41	0x3eba8499	0.3642929
42	0x3eed987e	0.46405405
43	0x3ef1fddb	0.4726399
44	0x3f139ff2	0.5766593
45	0x3fe01350	1.7505894
46	0xbf3a0ad8	-0.72672796
47	0x3fb4730b	1.4097608
48	0xbf393164	-0.7234099
49	0x3f24347b	0.6414258
50	0x3f935316	1.1509731
51	0xbdbae20d	-0.09125147
52	0x3f5344ec	0.8252704
53	0x3f0c0495	0.5469449
54	0x3f418f49	0.7560926
55	0xbd84cf45	-0.06484846
56	0x3e060d33	0.13090973
57	0x3e19c004	0.15014654
58	0xbec64edb	-0.38732037
59	0x3f94ffd3	1.1640571
60	0x3f3b0260	0.730505
61	0x3f520edb	0.8205392
62	0x3e0773e7	0.13227807
63	0x3f02adc3	0.5104639
64	0xbfa40c07	-1.281617
65	0xbeff7b46	-0.49898738
66	0x3e9d4acb	0.30721125
67	0x3fac6f3a	1.3471444
68	0x3f73ef90	0.9528742
69	0xbe8855a2	-0.26627833
70	0xbedc2dfa	-0.43003827
71	0x3fafaccc	1.3724608
72	0x3e8f94e7	0.2804329
73	0x3f94b4d9	1.161769
74	0x3fbba480	1.4659576
75	0x3f0bbedb	0.545881
76	0x3f4672a8	0.775187
77	0x3ead607f	0.33862683
78	0xbf89f7f1	-1.0778791
79	0xbed9a18b	-0.4250606
80	0x3e9696dd	0.29411975
81	0x3d207475	0.039173562
82	0xbe5055a6	-0.20345172
83	0x3e5f3982	0.21799281
84	0x3f4fb12b	0.8112971
85	0x3f2a55fe	0.66537464
86	0x3fdb4a32	1.7132018
87	0x3f9795dc	1.1842608
88	0xbe0894e8	-0.13338053
89	0x3fe1d6e2	1.7643702
90	0xbe41cd92	-0.18926075
91	0x3f743774	0.95397115
92	0x3ec64f93	0.38732585
93	0x3fde3106	1.7358711
94	0xbe2ef7be	-0.17086694
95	0x3f511bd9	0.8168312
96	0x3db09ad3	0.086232804
97	0x3e9559c9	0.29170063
98	0x3f4b31d7	0.79372925
99	0x3d7cf446	0.061756395
100	0xbf30e897	-0.69104904
101	0x3e920208	0.28517175
102	0xbf62818a	-0.8847891
103	0x3f8af118	1.0854826
104	0x3f8c18d3	1.0945076
105	0x3dc3c627	0.09559279
106	0xbec7bb5e	-0.39010137
107	0xbf984932	-1.1897337
108	0x3e0a3ec8	0.13500512
109	0xbdf3ce40	-0.119045734
110	0xbf5d7416	-0.8650526
111	0x3f0b242c	0.5435207
112	0xbf87a5f3	-1.0597519
113	0xbdbdd3b2	-0.09268893
114	0x3d726c7a	0.059185483
115	0x3f48fe63	0.78513163
116	0xbe05094c	-0.12991828
117	0xbf03549d	-0.51300985
118	0x3f924e9c	1.143024
119	0x3c72d095	0.014820238
120	0x3caad6db	0.020854404
121	0x3ea9450d	0.33060494
122	0x403701ab	2.8594768
123	0x3fbc339d	1.4703251
124	0x3f5647c1	0.8370324
125	0x3ecaa895	0.39581743
126	0x3d950010	0.072754025
127	0x3f18d040	0.59692764
128	0x3d6197bb	0.055076342
129	0xbffc9551	-1.9733068
130	0xbe38f0fd	-0.1806068
131	0xbfa5657b	-1.2921594
132	0xbf83ca42	-1.0296099
133	0x3fcef740	1.6169205
134	0x3f0257fd	0.5091551
135	0x3f660ff5	0.898681
136	0xbe3cb254	-0.18427402
137	0x3eab7938	0.3349092
138	0xbedd5d24	-0.43235123
139	0xbd72bb9e	-0.059260957
140	0xbf49c617	-0.78817886
141	0x3f2f2a3b	0.68423814
142	0xbf7e187c	-0.9925611
143	0xbebfb60e	-0.37443584
144	0x3ef8a79c	0.48565376
145	0x3f4aca3c	0.79214835
146	0x3e75712f	0.23968957
147	0x3f942c65	1.1576048
148	0x3e8db94e	0.2768044
149	0xbeea6763	-0.45782003
150	0xbf1c3c5f	-0.6102962
151	0xbeaf2aa6	-0.34212226
152	0x3e049938	0.12949073
153	0xbf2bdce3	-0.6713392
154	0xbff29de3	-1.8954433
155	0x3efe87e0	0.4971304
156	0xbfbbcaa5	-1.4671217
157	0x3f4babf0	0.7955923
158	0x3fcf3b18	1.6189909
159	0xbf0a0ac4	-0.5392268
160	0xbe99c6f6	-0.30034608
161	0x3e2880b9	0.16455354
162	0xbf04d56e	-0.5188817
163	0xbf052c5c	-0.5202081
164	0x3f2b7077	0.6696848
165	0x3f37860c	0.71688914
166	0x3f237948	0.63856936
167	0x3f242ad6	0.6412786
168	0x3f6b15d1	0.91830164
169	0xbfd7094e	-1.6799715
170	0x3f1e53be	0.6184653
171	0x3f58fb1f	0.8475818
172	0x3f01d9b6	0.50722826
173	0xbe28941f	-0.16462754
174	0x3fcb44f8	1.5880423
175	0xbfecf201	-1.8511354
176	0xbd56e60c	-0.052465484
177	0xbf6560ec	-0.89601016
178	0x3f4290e9	0.76002365
179	0xbf13c051	-0.57715327
180	0x3e2cf011	0.16888453
181	0xbee3f43e	-0.4452228
182	0x3f3f32ff	0.7468719
183	0xbec06000	-0.37573242
184	0xbf35d995	-0.7103513
185	0xbf31dccc	-0.69477534
186	0xbe976d88	-0.29575753
187	0xbf5e8d6d	-0.8693455
188	0x3f26f28f	0.65213865
189	0xbf881ac3	-1.0633167
190	0xbf5c66ed	-0.8609455
191	0xbe35e6ff	-0.177639
192	0x3f6f5894	0.93494534
193	0xbebd12f2	-0.36928517
194	0x3ca29b7c	0.019849531
195	0x3f78b89a	0.9715668
196	0x3f7828ac	0.9693706
197	0xbf728c73	-0.9474556
198	0x3cf741f8	0.030182824
199	0x3e9c5830	0.30536032
200	0xc007de24	-2.1229334
201	0x3fa6be35	1.3026797
202	0xbe8db14b	-0.27674326
203	0x3f52f999	0.82412106
204	0x3fd12560	1.6339531
205	0x3fbe5fd0	1.487299
206	0xbef6dd5c	-0.4821576
207	0x3f9c1280	1.2193146
208	0xbe972f17	-0.29528114
209	0x3d2dc4ee	0.042424135
210	0xbf46e075	-0.77686244
211	0x3fd0baf9	1.630706
212	0x3f87a7ed	1.0598122
213	0xbdecf857	-0.115708046
214	0xbf91063b	-1.1330026
215	0x3f327f9b	0.6972596
216	0xbf9d79c2	-1.2302783
217	0x3bb8c52b	0.0056387386
218	0xbf001c97	-0.50043625
219	0x3fadf0cf	1.3589114
220	0x3f202d8d	0.62569505
221	0x3f3386c1	0.70127493
222	0x3ff5bf57	1.9199017
223	0xbe9ac05a	-0.30224878
224	0x3e9eafc3	0.3099347
225	0x3ef40d45	0.47666374
226	0x3ff74a9a	1.9319642
227	0xbfd58351	-1.66807
228	0xbe9371c0	-0.28797722
229	0x3fb0c6b8	1.3810644
230	0xbe183058	-0.14862192
231	0x3f3c2a7c	0.73502326
232	0x3f3c95c6	0.73666036
233	0x3f8a9a71	1.0828382
234	0x3f10921b	0.5647294
235	0x3f3f8e5e	0.7482661
236	0x3e8a1cea	0.26975185
237	0xbed687eb	-0.41900572
238	0xbf9118fc	-1.133575
239	0xbf4bdc52	-0.7963306
240	0xbe6d48c4	-0.23172289
241	0x3e3e6ac9	0.18595423
242	0xbf24d818	-0.6439223
243	0x3f5ff9f1	0.87490755
244	0xbfb7deae	-1.4364831
245	0x3e22dfdf	0.15905713
246	0xbf39bcb5	-0.7255357
247	0x3fb6f878	1.4294577
248	0x3f07ae8d	0.5300072
249	0x3eb978d3	0.36224994
250	0xbf079a22	-0.52969563
251	0x3e906216	0.28199834
252	0x3f1c7335	0.6111329
253	0x3f00a633	0.502536
254	0x3e89a878	0.26886344
255	0x3c05c7d6	0.00816532

mem_LSTM.weight_hh_l0 f4 [256, 64]
0	0xbf8b78ca	-1.0896237
1	0xbf24c9ed	-0.64370614
2	0xbf6062ea	-0.8765093
3	0xbeba3073	-0.3636509
4	0xbe8e16a4	-0.27751648
5	0xbf12e0a1	-0.57374007
6	0xbf36a276	-0.71341646
7	0x3f8a13d5	1.0787302
8	0x3fba1e2e	1.454046
9	0xbfc55ffd	-1.5419918
10	0x3f57e500	0.843338
11	0xbf302c37	-0.68817466
12	0x3eb591ae	0.35462707
13	0x3fd290d6	1.645045
14	0x3fdb9b89	1.715684
15	0xbf3aeb45	-0.7301524
16	0x3db43802	0.08799745
17	0x3f2ec9e5	0.68276817
18	0x3f2ced44	0.6754954
19	0x3f0f3ba2	0.5595037
20	0xc021c9f0	-2.5279503
21	0x3d9b0e61	0.07571102
22	0xbf153d2d	-0.5829647
23	0x3f85a101	1.043976
24	0x3f9804e5	1.1876494
25	0xbe196e9f	-0.14983605
26	0x3ee0e56e	0.4392504
27	0x3e137dc2	0.14403442
28	0x3d62da08	0.055383712
29	0x3f22965f	0.635107
30	0x3f755f3c	0.9584844
31	0xbbec3d5b	-0.0072094626
32	0xbf4046e1	-0.7510815
33	0xbfaeacce	-1.3646486
34	0xbefcea73	-0.4939762
35	0x3d8d37bb	0.06895395
36	0x3f1625f1	0.58651644
37	0xbf9d06c5	-1.2267691
38	0xbf7859b4	-0.97011876
39	0xbe0e999b	-0.13925783
40	0x3e2b8613	0.16750364
41	0x3fe2a76e	1.7707345
42	0xbd9b5bae	-0.07585846
43	0xbeba7eb2	-0.36424786
44	0xbe0c883f	-0.13723849
45	0x3fa084bf	1.2540511
46	0xbe62fd80	-0.22167015
47	0xbf11af70	-0.5690832
48	0xbc3a9d5b	-0.0113900555
49	0xbe4f429d	-0.20240255
50	0x3f743475	0.95392543
51	0x3e578043	0.21045022
52	0xbf6b94fd	-0.92024213
53	0x3f7e6ca7	0.9938454
54	0xbf85b5bf	-1.044609
55	0x3ec132df	0.37734124
56	0x3e022012	0.12707546
57	0x3e57345f	0.21016072
58	0xbfd310ad	-1.6489464
59	0x3e888d99	0.2667053
60	0xbf05493d	-0.5206488
61	0xbd9dae81	-0.076992996
62	0xbecc67c5	-0.3992292
63	0x3ead4c60	0.33847332
64	0x3f255333	0.64580077
65	0x3f267439	0.6502109
66	0x3ebfd444	0.37466633
67	0x3f46f342	0.7771493
68	0x3e82d063	0.2554961
69	0xbf46b815	-0.77624637
70	0xbf441c97	-0.76606125
71	0x3ec6426e	0.38722557
72	0x3fb9166d	1.4459969
73	0xbf068c5a	-0.5255791
74	0x3fadb668	1.3571291
75	0xbd73a303	-0.059481632
76	0x3fa48f31	1.2856199
77	0xbd5aed8d	-0.053449202
78	0xbf1dc88f	-0.61634153
79	0xbea136f8	-0.3148725
80	0xbf334018	-0.70019674
81	0xbeac68a4	-0.33673584
82	0xbfa0dbd8	-1.2567091
83	0xbe15e5a0	-0.14638376
84	0xbfc794be	-1.5592268
85	0xbf0aac8d	-0.5416954
86	0x3f0e0466	0.5547546
87	0x3decef48	0.11569077
88	0xbe5b90ce	-0.21441957
89	0xbf42a994	-0.76040006
90	0xbd98cc63	-0.07460859
91	0xbdbcfa5b	-0.09227439
92	0x3eda40d6	0.4262759
93	0xbfec654c	-1.8468413
94	0x3f7cd6c7	0.98765224
95	0xbf5eeb52	-0.8707782
96	0xbf214b49	-0.630055
97	0xbda68816	-0.08131425
98	0x3ee90f35	0.45519415
99	0x3e0b354a	0.13594547
100	0x3f72d7b4	0.94860387
101	0xbf2bbd60	-0.6708584
102	0xbfa0f3de	-1.2574422
103	0x3fb38530	1.4025021
104	0x3fdc136d	1.7193428
105	0x3f276983	0.65395373
106	0xbfca04ed	-1.5782753
107	0x3f31a728	0.69395685
108	0xbd075a2a	-0.03304497
109	0xbf8e566a	-1.1120121
110	0x3f1f5f99	0.62255245
111	0x3e9afa73	0.30269203
112	0xbef2084f	-0.47271964
113	0x3f28341a	0.657045
114	0x3f8388b0	1.0276089
115	0x3e5deec6	0.21673116
116	0x3f4d94a6	0.80304945
117	0x3f0af6e8	0.54283
118	0xbed3b220	-0.41346836
119	0x3cf606c1	0.030032517
120	0x3fc8ad0c	1.567781
121	0xbf01f2a7	-0.50760883
122	0xbf94ea29	-1.163396
123	0xbf071c6f	-0.5277776
124	0xbf2ef097	-0.6833586
125	0x3d9ecb2d	0.077535965
126	0xbdb7485d	-0.08949349
127	0x3f0ef735	0.5584596
128	0x3da1d80e	0.07902537
129	0x3f83da7f	1.0301055
130	0x3e85f449	0.26162937
131	0x3f547835	0.8299592
132	0xbfa516e0	-1.2897606
133	0xbed8f5a7	-0.42374918
134	0xbf01de59	-0.507299
135	0xbee8f616	-0.4550025
136	0xbf2f5f78	-0.6850505
137	0x3f44980b	0.767945
138	0x3f2dbb95	0.6786435
139	0x3e834497	0.25638267
140	0xbed5b0c8	-0.41736436
141	0x3f2ea354	0.6821797
142	0xbf0e439f	-0.5557193
143	0xbf5e38af	-0.8680524
144	0x3f206800	0.6265869
145	0xbf284b1f	-0.65739626
146	0xc03a55f5	-2.9114964
147	0x3baf9d18	0.005359303
148	0x3f6203cc	0.88287044
149	0x3d393f35	0.045226295
150	0x3fcd1c25	1.6024214
151	0x3f96adfb	1.1771845
152	0x3f472f87	0.77806896
153	0x3eeb3632	0.45939785
154	0xbe8f98eb	-0.28046355
155	0x3e432cf7	0.19060121
156	0x3f773ee1	0.9658032
157	0xbfcc8f5f	-1.5981253
158	0xbe418239	-0.18897332
159	0x3ee65dab	0.44993338
160	0x4002b4ce	2.0422854
161	0xbf94c3a8	-1.162221
162	0x3f05a8fc	0.52210975
163	0x3f8fa1fd	1.122131
164	0xbf35b62d	-0.70981103
165	0xbe40fe8d	-0.18847103
166	0xc03a2d1f	-2.909004
167	0xbe3063c8	-0.17225564
168	0x3e634923	0.22195868
169	0xbdcf0011	-0.101074345
170	0x3f0130d1	0.5046511
171	0xbfd97c3c	-1.6991038
172	0x3ea6b910	0.32563066
173	0xbdb23736	-0.08701937
174	0xbfb17594	-1.3864007
175	0xbe41a80c	-0.18911761
176	0x3ef49fb2	0.47778088
177	0xbf5da833	-0.86584777
178	0x3f1ba5ed	0.6080006
179	0xbf20bfc7	-0.6279263
180	0x3f9b289d	1.2121769
181	0xbfb2652b	-1.3937124
182	0xbe2ea716	-0.17055926
183	0xbeb09a7e	-0.34492868
184	0x3f871d6c	1.0555854
185	0x3f9f9fbd	1.2470623
186	0xbfd7d8be	-1.686302
187	0xbec6fa8c	-0.38863027
188	0x3c3a0350	0.011353329
189	0xbe7c2507	-0.246235
190	0xbfce6c1d	-1.6126744
191	0xbdb668f9	-0.08906741
192	0x3f1d2b1b	0.613939
193	0x3f629c37	0.88519615
194	0xbf6d492d	-0.9268978
195	0x3e927761	0.28606704
196	0x3f06d56e	0.5266942
197	0x3ea9f024	0.33191025
198	0x3f3249a7	0.69643635
199	0x3f3a937d	0.728813
200	0xc0128f08	-2.28998
201	0x3ffbb321	1.9664041
202	0xbf762a77	-0.96158546
203	0xbf4324ae	-0.76227844
204	0xbf72141e	-0.94561946
205	0x3f7e8420	0.99420357
206	0x3fb5ce6a	1.4203618
207	0x3ede274e	0.43389362
208	0xbf126af2	-0.57194436
209	0x3e0a0f48	0.13482392
210	0xbe1a1c6f	-0.15049909
211	0xbf17f6ca	-0.59360945
212	0x3d45fe3f	0.04833817
213	0x3f2dbba2	0.6786443
214	0x3f50284f	0.81311506
215	0x3f20e5c1	0.62850577
216	0xbfafc02c	-1.3730521
217	0x3fc8cb4c	1.5687041
218	0xc01a8ba4	-2.414773
219	0xbf6a97ce	-0.91637886
220	0xbe7f707b	-0.24945252
221	0x3e931707	0.28728506
222	0xbf454a0f	-0.7706613
223	0xbcf5fe5a	-0.03002851
224	0x3e606ef3	0.21917324
225	0xbde69e0b	-0.11260613
226	0x3f894532	1.0724242
227	0xbdd27b87	-0.10277467
228	0xbefb4c0e	-0.49081463
229	0xc01b69c9	-2.4283316
230	0xbf89bc44	-1.0760579
231	0xbf5f6608	-0.8726506
232	0x3e911b04	0.28340924
233	0x3e82839b	0.25491032
234	0x3fb9a360	1.4502983
235	0xbf3113d0	-0.69170856
236	0x3f4029eb	0.7506396
237	0x3fb635a9	1.4235126
238	0x3e552567	0.20815049
239	0x3f42ebcc	0.7614105
240	0x3fc4ff23	1.5390362
241	0x3ebee6c2	0.3728543
242	0x3f44ee7e	0.7692641
243	0xbfbbf66e	-1.4684579
244	0x3f593376	0.8484415
245	0xbed618cf	-0.41815802
246	0x3f8c23aa	1.0948384
247	0x3ee93c5b	0.4555386
248	0x3da9d9b1	0.082934745
249	0x3e586d28	0.2113539
250	0x3dbde42a	0.092720345
251	0xbfa77d29	-1.3085071
252	0xbf247d0c	-0.64253306
253	0x3f511ea1	0.8168736
254	0x3e3334f9	0.17500676
255	0xbf2ec3eb	-0.682677

mem_LSTM.bias_ih_l0 f4 [256]
0	0x3ed212a7	0.41029856
1	0x3ebbeb2d	0.36702862
2	0xbdca4080	-0.09875584
3	0x3ed6f923	0.4198695
4	0xbf15df26	-0.5854362
5	0x3f46c691	0.7764674
6	0xbeb281ca	-0.34864646
7	0x3f2f65ed	0.685149
8	0xbe41d331	-0.1892822
9	0xbddb8954	-0.10719553
10	0x3f07e35f	0.53081316
11	0xbf6771fa	-0.9040829
12	0xbf58c0de	-0.8466929
13	0x3e2e7820	0.17038012
14	0x3f0d50bc	0.55201316
15	0xbef5f6d2	-0.4803987
16	0xbf7b227f	-0.9809951
17	0x3eae1c72	0.34006077
18	0x3e258693	0.16164617
19	0xbec14b6d	-0.37752858
20	0x3f903363	1.1265682
21	0xbebb6acf	-0.36604926
22	0xbf05126e	-0.51981246
23	0xbc907bf6	-0.017637234
24	0x3f62a8fa	0.8853909
25	0x3f5e68be	0.86878574
26	0xbe8193e0	-0.25308132
27	0xbe82a9f2	-0.25520283
28	0xbf2e17cf	-0.6800508
29	0xbec2b80c	-0.38031042
30	0x3f64237d	0.8911665
31	0x3e344e0a	0.17607895
32	0x3f628645	0.8848613
33	0xbf16f0b3	-0.5896103
34	0xbe2ffaaf	-0.17185472
35	0x3f140df5	0.57833797
36	0xbf481e1c	-0.78170943
37	0xbf74c21a	-0.95608675
38	0x3e21660b	0.15761583
39	0x3f316058	0.69287634
40	0x3e1a5514	0.15071517
41	0x3e37069d	0.17873617
42	0x3f855193	1.041552
43	0xbef69a99	-0.48164824
44	0xbf86fb35	-1.0545412
45	0x3f22069c	0.63291335
46	0x3e6a1f8b	0.22863595
47	0x3e33b0b6	0.17547879
48	0xbf6c74ff	-0.9236602
49	0xbf6568ec	-0.89613223
50	0x3fa902a3	1.320393
51	0xbe5d8faf	-0.21636842
52	0xbf7300e5	-0.9492324
53	0xbf38e450	-0.7222338
54	0xbe8fcfeb	-0.28088316
55	0xbd9dbbb2	-0.07701816
56	0x3faf29d2	1.3684638
57	0x3ed5e4aa	0.4177602
58	0xbda1bc45	-0.07897238
59	0x3f552bf0	0.8327017
60	0xbe395735	-0.18099673
61	0xbee2d642	-0.4430409
62	0xbda8a773	-0.082350634
63	0x3baf76fb	0.0053547597
64	0xbf197f63	-0.5996
65	0x3da67302	0.08127405
66	0x3ed16c33	0.40902862
67	0x3c63f6d5	0.01391383
68	0xbe9b1d65	-0.30295864
69	0x3d94965c	0.07255241
70	0x3f28ab84	0.6588671
71	0x3ea87f2a	0.32909518
72	0xbee11aeb	-0.4396585
73	0x3e47898f	0.19486068
74	0xbf1e9d4e	-0.6195878
75	0xbf7237b9	-0.94616276
76	0xbe15374d	-0.14571877
77	0xbeb27a01	-0.34858707
78	0x3f59425d	0.8486689
79	0x3f718f8d	0.94359666
80	0x3f43be28	0.7646203
81	0x3fae22d4	1.3604379
82	0x3f6dbeef	0.92869467
83	0xbf8e2bfe	-1.1107175
84	0x3d2bc24d	0.041933347
85	0x3d9146b1	0.070935614
86	0xbed88fcf	-0.42297217
87	0x3f40f701	0.753769
88	0xbf67bcaa	-0.90522254
89	0x3f1a3882	0.60242474
90	0x3a4e429d	0.00078682025
91	0xbf1a4e60	-0.6027584
92	0x3e929127	0.28626367
93	0xbfcf2e5a	-1.618602
94	0x3f50fbf2	0.8163444
95	0xbe1b27bb	-0.15151875
96	0xbf357696	-0.7088407
97	0x3dad2990	0.08455193
98	0xbed67f4e	-0.41894
99	0x3e193b51	0.14964034
100	0x3e84809f	0.2587938
101	0x3e341c1c	0.17588848
102	0x3f2e814f	0.6816606
103	0x3f1aad02	0.6042024
104	0x3d8a400a	0.06750496
105	0xbf4c2c58	-0.79755163
106	0x3e1360af	0.1439235
107	0xbee9f937	-0.45697948
108	0xbe9ffab5	-0.31245962
109	0xbda8d4c2	-0.08243705
110	0x3eb6a87f	0.35675427
111	0xbf145dd8	-0.57955694
112	0x3f132ba2	0.57488453
113	0x3e566ac4	0.20939165
114	0xbe151d51	-0.14561965
115	0xbd647224	-0.055772915
116	0xbe8896a2	-0.26677424
117	0x3eca267e	0.39482492
118	0x3f408f9f	0.7521915
119	0xbf59db5e	-0.8510035
120	0xbdfd8a2d	-0.123798706
121	0xbf43502f	-0.76294225
122	0x3e4d0272	0.20020464
123	0xbd2d59d8	-0.04232201
124	0x3e23bc95	0.15989907
125	0x3f144780	0.579216
126	0xbf3e5bb2	-0.74358666
127	0xbfa1fd10	-1.2655354
128	0xbdcc7f17	-0.09985178
129	0x3f1a255a	0.60213244
130	0x3f4d2d7e	0.8014754
131	0x3f33d8f1	0.702529
132	0x3f93ebbb	1.1556314
133	0x3e44aebc	0.19207281
134	0xbde2e512	-0.11078848
135	0xbf033419	-0.5125137
136	0x3f3235c6	0.696133
137	0xbf15ca63	-0.5851194
138	0x3f1aeb5d	0.60515386
139	0xbeb4cfac	-0.3531469
140	0xbdafd4fa	-0.08585544
141	0xbf0932d5	-0.5359319
142	0xbc75f56b	-0.0150121255
143	0x3f517ae3	0.81828135
144	0x3f153a82	0.582924
145	0x3cf6e02c	0.03013619
146	0xbf731e3b	-0.94968003
147	0x3f582e8c	0.84446025
148	0xbe939bb0	-0.28829718
149	0xbf18601e	-0.59521663
150	0x3e54ca83	0.20780377
151	0xbf27a6cb	-0.6548888
152	0xbec94291	-0.393086
153	0xbe599536	-0.21248326
154	0xbee1398c	-0.43989217
155	0x3ec6f5cb	0.388594
156	0xbebde2a3	-0.37086973
157	0xbd34a49d	-0.0441023
158	0x3f9aa685	1.2082068
159	0xbf1cc9bc	-0.6124532
160	0x3d9bba64	0.076039106
161	0x3e4ccd11	0.20000102
162	0xbf91f80b	-1.1403822
163	0x3f1f915f	0.62331194
164	0x3dfaa53e	0.12238549
165	0xbea2f518	-0.31827617
166	0xbf25fbb7	-0.6483721
167	0x3f9672cf	1.1753787
168	0x3f155e7c	0.58347297
169	0xbd5e2c24	-0.054241315
170	0x3e0c579a	0.13705292
171	0xbe8a909e	-0.2706346
172	0xbdd6dbb8	-0.10491127
173	0x3f1dac7b	0.6159131
174	0x3eebe5a9	0.46073654
175	0xbf60351b	-0.8758103
176	0x3cb3f3fe	0.02196693
177	0x3f107377	0.56426185
178	0x3f3cac4e	0.73700416
179	0xbfab74d5	-1.3395029
180	0xbe67150f	-0.22566627
181	0xbf855a39	-1.0418159
182	0x3dd44018	0.103637874
183	0xbecf1321	-0.40444282
184	0x3f89eecb	1.0775999
185	0xbf80e2d6	-1.0069225
186	0xbf80af1f	-1.0053443
187	0xbee6be07	-0.45066854
188	0xbe39d62a	-0.18148103
189	0xbf08932a	-0.53349555
190	0x3f11e300	0.56987
191	0x3f0f5083	0.55982226
192	0xbef1ac09	-0.47201565
193	0x3f304120	0.6884937
194	0xbe5ce4db	-0.21571676
195	0x3da47e04	0.08031848
196	0xbe697fde	-0.22802684
197	0x3f5e66d2	0.8687564
198	0xbe9d9bba	-0.30782872
199	0x3f4a758b	0.79085606
200	0x3fa466f8	1.2843924
201	0xbed7a509	-0.421181
202	0x3f17b5e3	0.5926191
203	0x3e9e99f6	0.30976838
204	0x3f82fe89	1.0233928
205	0x3f61eb27	0.8824944
206	0x3f7b06e1	0.9805737
207	0x3eb16c49	0.34652928
208	0xbf49ed14	-0.7887738
209	0x3f9ca6e6	1.2238433
210	0x3fc2cec7	1.5219353
211	0xbfd33ace	-1.6502321
212	0x3f4f0500	0.80867004
213	0xbf18d8df	-0.5970592
214	0xbea91c84	-0.33029568
215	0x3ecd3122	0.40076548
216	0x3f941e26	1.15717
217	0x3f697837	0.9119906
218	0x3f3a8ee4	0.72874284
219	0x3e7bfd67	0.24608384
220	0x3e2d462b	0.16921298
221	0xbdd50ba7	-0.10402613
222	0x3f040a3b	0.5157811
223	0x3f5ee8b2	0.87073815
224	0xbf1e2f26	-0.6179069
225	0xbf228c16	-0.63495004
226	0x3ee6ebb7	0.4510171
227	0xbeb0867a	-0.34477597
228	0x3e76f1fe	0.2411575
229	0x3e504144	0.20337397
230	0x3e3fcbc1	0.1873007
231	0x3edd157f	0.43180463
232	0xbe9567cd	-0.29180756
233	0xbf7bcd52	-0.9836017
234	0xbd9d6174	-0.07684603
235	0x3eaceca3	0.3377429
236	0x3e508811	0.20364405
237	0x3f57e0f7	0.84327644
238	0x3f13300f	0.57495207
239	0x3da7a3e2	0.08185555
240	0xbdc89914	-0.09794822
241	0x3ea91a78	0.33028007
242	0x3f6da70d	0.92833024
243	0x3eecb9a2	0.46235377
244	0xbf24b3ea	-0.6433703
245	0x3eabbc6a	0.33542186
246	0x3e88b72c	0.2670225
247	0xbeff1fd4	-0.4982897
248	0xbd86a31d	-0.0657408
249	0x3eb956b4	0.36198962
250	0xbf5ec824	-0.8702414
251	0x3f47dcf3	0.78071517
252	0x3f85d434	1.0455384
253	0x3dfc1383	0.12308409
254	0x3ec2b9c2	0.38032347
255	0x3e567219	0.20941962
